Action_Net.pt (torch, 54882 bytes, 12 tensors)

decoder_net.0.weight f4 [32, 255]
0	0x3db05e2e	0.08611713
1	0x3e4f1c15	0.20225556
2	0x3ec14c65	0.37753597
3	0x3e0a65b2	0.13515356
4	0x3e869428	0.2628491
5	0x3eacb35f	0.337306
6	0xbec5eade	-0.38655752
7	0xbe82e05d	-0.255618
8	0x3e8b3208	0.27186608
9	0x3dbafc7c	0.09130189
10	0xbe9448cb	-0.28961787
11	0x3e259c98	0.16173017
12	0xbeeb6055	-0.45971933
13	0xbe3bc8f8	-0.18338382
14	0x3e7db6bf	0.24776743
15	0xbc94fe86	-0.018187772
16	0xbeaf0e32	-0.34190518
17	0x3e81ffff	0.25390622
18	0x3c891ac2	0.016736392
19	0xbd7b280c	-0.06131749
20	0xbef78bbf	-0.48348805
21	0xbe2fccdb	-0.1716799
22	0x3d4d0f8c	0.050063655
23	0xbe885a47	-0.26631376
24	0x3dcabd39	0.098993726
25	0xbeb6a2a1	-0.3567095
26	0x3ec66d91	0.38755468
27	0x3ec87475	0.3915135
28	0x3e94c4f8	0.29056525
29	0xbd260ce7	-0.04053965
30	0xbef74961	-0.4829817
31	0xbe4d3c6b	-0.20042579
32	0xbd2530ff	-0.04032993
33	0xbeeb4981	-0.45954517
34	0x3ebfae09	0.37437466
35	0x3e18fc98	0.14940107
36	0x3ec3a186	0.3820917
37	0xbedd7673	-0.43254432
38	0xbe8062f3	-0.25075492
39	0x3df9487a	0.12172027
40	0xbc125eb3	-0.008933711
41	0xbe85fc74	-0.2616917
42	0x3ebae2e8	0.3650124
43	0x3e3f334c	0.18671912
44	0xbcb5b361	-0.022180261
45	0x3ef6d7fb	0.48211655
46	0xbf0270a1	-0.5095311
47	0xbee50776	-0.44732255
48	0x3dbb9a1e	0.09160255
49	0x3ee1a5ef	0.4407191
50	0x3e97c5e4	0.29643166
51	0xbe8c6f48	-0.2742865
52	0x3eb79bfe	0.358612
53	0x3e893b22	0.26802927
54	0x3ce2fc94	0.02770833
55	0x3ea27017	0.31726143
56	0x3dcd4891	0.100236066
57	0xbbb1f46a	-0.0054307478
58	0xbe00d029	-0.12579407
59	0xbe86c393	-0.26321086
60	0xbea0d39f	-0.31411454
61	0xbd8091ef	-0.062778346
62	0xbeae000c	-0.3398441
63	0x3e5bb679	0.21456327
64	0x3e1a1d70	0.15050292
65	0xbef459ed	-0.47724858
66	0xbec1c66d	-0.378467
67	0x3ebadce4	0.3649665
68	0xbe849d61	-0.2590132
69	0xbc231f66	-0.009956216
70	0xbea156f7	-0.3151166
71	0xbdfe1cbb	-0.12407824
72	0x3e7e49a6	0.24832782
73	0x3e06e9f9	0.13175191
74	0x3e7bf4c5	0.24605091
75	0xbcfa28ac	-0.030536972
76	0xbec9ea3f	-0.39436528
77	0xbb0e521b	-0.002171642
78	0x3e985f4b	0.29760203
79	0x3de43a44	0.11143926
80	0x3df48eee	0.11941324
81	0x3db3a74f	0.08772146
82	0x3ecf5249	0.40492466
83	0x3e7804a2	0.24220517
84	0xbdab90a7	-0.083771996
85	0xbe8f9c59	-0.2804897
86	0x3ece2d94	0.40269148
87	0xbe831bb6	-0.2560708
88	0xbeb0ad05	-0.34507003
89	0x3e2756e5	0.16341741
90	0xbeaa0e74	-0.33214152
91	0xbedbc330	-0.42922354
92	0xbec870fc	-0.391487
93	0x3df7ab44	0.12093213
94	0xbea6d228	-0.32582211
95	0x3ede05ec	0.43363893
96	0xbbf70a76	-0.007539089
97	0xbe51ec2c	-0.20500249
98	0xbea24c1b	-0.3169869
99	0xbe1e8fe9	-0.15484585
100	0x3ee12704	0.4397508
101	0xbea5e2aa	-0.32399493
102	0xbee7a5bd	-0.45243636
103	0x3e1820c9	0.14856257
104	0x3e37d689	0.17952932
105	0xbede3bbd	-0.43404952
106	0xbe61939b	-0.22028963
107	0x3edb100f	0.4278569
108	0xbe74be62	-0.2390075
109	0x3e55bcaf	0.20872758
110	0xbe82e605	-0.25566116
111	0xbedd7b77	-0.4325826
112	0xbef3da94	-0.476277
113	0x3ebf5d59	0.37375906
114	0x3e2d4f95	0.1692489
115	0x3e0eb094	0.13934547
116	0x3e26f501	0.16304399
117	0x3e4bdf49	0.19909395
118	0x3eb024bd	0.3440303
119	0x3ec6c830	0.38824606
120	0x3ec4a45f	0.38406655
121	0x3e37b97b	0.17941849
122	0x3dc11d38	0.09429401
123	0x3de40f90	0.11135781
124	0xbecadbd9	-0.39620855
125	0x3e6339a6	0.2218996
126	0x3e09725a	0.13422528
127	0x3e699b6d	0.22813196
128	0xbe06f2ed	-0.13178606
129	0x3ed38d40	0.41318703
130	0x3d8489a0	0.064715624
131	0xbe08bb50	-0.13352704
132	0xbc6e466f	-0.01454316
133	0xbe597238	-0.21234977
134	0xbd9dfdd7	-0.07714432
135	0x3edef134	0.43543398
136	0x3e27dfe3	0.16394
137	0xbd43be1e	-0.04778873
138	0x3cf7678b	0.03020074
139	0x3e00dffe	0.12585446
140	0xbe8f0d88	-0.2794001
141	0xbe86cf28	-0.26329923
142	0x3ee07af1	0.43843797
143	0x3c340510	0.010987535
144	0x3e159a97	0.14609753
145	0xbe743064	-0.23846585
146	0xbeb7ad5f	-0.3587446
147	0x3dccfe14	0.10009399
148	0x3e8ddc46	0.27707118
149	0xbeea417b	-0.45753083
150	0xbefef386	-0.4979517
151	0xbe1f0af3	-0.1553152
152	0x3ea17a46	0.315386
153	0xbedf1cd5	-0.43576685
154	0x3ecd0252	0.40040833
155	0x3ee862f4	0.45387995
156	0xbe03cd0d	-0.1287119
157	0x3d21d7f5	0.039512593
158	0xbc228bec	-0.009921055
159	0x3efabe15	0.48973146
160	0x3d3e289d	0.04642545
161	0x3dfe9c6e	0.1243218
162	0xbe3cef7a	-0.18450728
163	0xbaa77101	-0.0012774767
164	0xbe87c1de	-0.26515096
165	0x3d19eedb	0.037581306
166	0xbd9d3249	-0.07675607
167	0x3dc5dc51	0.09661163
168	0x3db8982a	0.09013398
169	0xbed43215	-0.4144446
170	0x3eaaba94	0.33345473
171	0x3e8c913c	0.27454555
172	0x3eb402d0	0.35158396
173	0x3ebc3184	0.36756527
174	0x3e020326	0.12696514
175	0x3e8ac421	0.2710276
176	0x3e7a0e56	0.24419531
177	0x3e976e98	0.29576564
178	0xbe9ad187	-0.30237982
179	0x3e704b15	0.23466142
180	0xbd2b3c66	-0.041805647
181	0x3e43d3f2	0.1912382
182	0x3e3a02a0	0.18165064
183	0xbebf686b	-0.37384352
184	0xbe6a5bac	-0.22886533
185	0xbeb6d97c	-0.35712802
186	0xbe09bd0c	-0.13451022
187	0x3e2317e8	0.15927088
188	0x3deab4e7	0.11460286
189	0x3ec9f838	0.39447188
190	0xbeb96e27	-0.36216852
191	0x3e1e13a8	0.15437186
192	0x3ed01233	0.40638885
193	0xbec5cabd	-0.3863124
194	0xbec14824	-0.3775035
195	0x3df24865	0.118302144
196	0xbe514b20	-0.20438814
197	0x3e00d7ed	0.12582369
198	0xbe78e18d	-0.24304791
199	0x3d7fef06	0.06248381
200	0xbed987ee	-0.4248652
201	0x3ecaabda	0.39584237
202	0xbea41adf	-0.3205175
203	0xbeeb6dc1	-0.45982173
204	0xbe854715	-0.26030794
205	0x3c0feae8	0.008784033
206	0x3eef3633	0.46721038
207	0x3dd1ff46	0.10253768
208	0xbdd96fc7	-0.10617023
209	0xbeb8db07	-0.36104605
210	0x3e676cf0	0.2260015
211	0x3d0da33f	0.03457951
212	0xbe15dde1	-0.14635421
213	0xbe112eb9	-0.1417798
214	0x3d922777	0.071364336
215	0x3e9588a5	0.29205814
216	0xbe9a9bff	-0.3019714
217	0xbdfa9ba7	-0.122367196
218	0x3e6f2b4b	0.23356359
219	0xbeaff74d	-0.34368363
220	0xbc67d451	-0.014149741
221	0x3ece0876	0.4024083
222	0x3eb181b7	0.34669277
223	0xbecdf4c9	-0.4022582
224	0xbe71bc69	-0.23607029
225	0x3da0bd3f	0.07848596
226	0x3ea07c6c	0.31344926
227	0xbe4f2bc1	-0.20231535
228	0xbee8fa47	-0.45503446
229	0xbca6d86b	-0.020366868
230	0x3e9f5bcc	0.31124723
231	0xbe84558c	-0.25846517
232	0xbeec4367	-0.46145174
233	0x3d055996	0.03255614
234	0x3ed37d3e	0.4130649
235	0xbed01573	-0.40641364
236	0x3dd83e05	0.10558704
237	0x3ea0ec9f	0.31430528
238	0x3c586742	0.013208212
239	0xbe89e24f	-0.26930472
240	0xbe3ac8e1	-0.18240692
241	0xbea90297	-0.33009788
242	0x3d0d2765	0.034461398
243	0xbe6040f0	-0.21899772
244	0x3c763e74	0.015029538
245	0xbde4b479	-0.11167235
246	0xbeafed94	-0.34360945
247	0x3ef6858a	0.48148757
248	0x3ded16d7	0.11576622
249	0x3e7aeecb	0.24505155
250	0x3e966239	0.29371813
251	0x3e4c0bb4	0.1992634
252	0xbdf59641	-0.11991549
253	0xbe1eb6c6	-0.1549941
254	0xbe8dd450	-0.27701044
255	0xbed8b497	-0.4232528

decoder_net.0.bias f4 [32]
0	0xbd0b3277	-0.033983674
1	0xbc06b676	-0.008222213
2	0x3c1be3d4	0.009514768
3	0x3cddcde1	0.02707571
4	0xbd4c2703	-0.049841892
5	0xbd1d7686	-0.03844311
6	0xbccd7ef3	-0.025084948
7	0x3d8c9cc4	0.06865838
8	0x3d795204	0.06086923
9	0xbd0627ec	-0.032752916
10	0xbd30d932	-0.043175884
11	0x3b4116a1	0.002946295
12	0xbc1cd4dc	-0.009572234
13	0xbd2eb334	-0.04265137
14	0xbd52f044	-0.051498666
15	0xbc89c67c	-0.016818278
16	0xbc299a34	-0.010351706
17	0xbc0a9540	-0.008458436
18	0x3bafcf03	0.005365254
19	0xbd8e08ad	-0.069352485
20	0x3d320f66	0.043471716
21	0xbd6df579	-0.05809543
22	0xbc9ac4d0	-0.018892676
23	0x3d6dc197	0.05804595
24	0xbc12d2e7	-0.008961416
25	0xbd2319e6	-0.03981962
26	0x3cb978e4	0.022640653
27	0xbcfe66bd	-0.031054849
28	0x3d831391	0.06400216
29	0xbc5f202f	-0.013618513
30	0xbd612465	-0.05496635
31	0xbd6545b2	-0.05597467

decoder_net.2.weight f4 [32, 32]
0	0xbcd14cd8	-0.025549337
1	0x3d1af1a2	0.037828095
2	0xbede8dc9	-0.43467548
3	0x3ea41c97	0.32053062
4	0x3ea6f327	0.32607386
5	0x3ef4c5ef	0.4780726
6	0x3db684b6	0.08912031
7	0xbe0e3143	-0.1388598
8	0xbd90d2d5	-0.07071463
9	0xbe1875d1	-0.14888693
10	0xbee93d44	-0.45554554
11	0x3e2e4b25	0.17020853
12	0x3d97fb03	0.074209236
13	0xbe1647c0	-0.14675808
14	0xbe902e87	-0.28160498
15	0xbdea83ec	-0.11450943
16	0x3e114ce3	0.14189486
17	0x3ebc3f56	0.3676707
18	0x3e5353ce	0.20637438
19	0x3eb1ef16	0.3475272
20	0x3eceb50f	0.40372512
21	0xbe79330c	-0.24335879
22	0xbc0be10c	-0.008537542
23	0xbed44207	-0.41456625
24	0xbe90ccd7	-0.2828128
25	0x3e46d85c	0.19418472
26	0x3e40002d	0.18750067
27	0x3e628d61	0.22124244
28	0x3ed84d80	0.42246628
29	0x3e518a5e	0.20462939
30	0xbe7808ce	-0.24222109
31	0xbdcda324	-0.10040882
32	0x3d434139	0.047669623
33	0x3e7335ed	0.2375104
34	0xbe7c5cd7	-0.2464479
35	0xbe4f709b	-0.202578
36	0x3e390e71	0.18071915
37	0x3e23e0b2	0.16003683
38	0x3eea0152	0.45704132
39	0x3ed8b90b	0.42328677
40	0xbe60876f	-0.21926664
41	0x3e3aa2d6	0.1822618
42	0xbe9e718d	-0.30946007
43	0xbc477046	-0.012172764
44	0xbd1bcb84	-0.038035884
45	0x3de241c1	0.11047698
46	0x3edacf02	0.4273606
47	0xbec5d170	-0.3863635
48	0x3ef13baa	0.47115833
49	0x3eab624c	0.33473432
50	0xbe6ac004	-0.2292481
51	0xbe1e3487	-0.15449725
52	0xbdef64d9	-0.11689157
53	0x3e9b7858	0.30365252
54	0xbdee3b3b	-0.11632391
55	0x3e438f2f	0.19097589
56	0xbe3e7162	-0.1859794
57	0x3ed42c6e	0.41440147
58	0xbd912bb9	-0.070884176
59	0x3ef16770	0.4714923
60	0xbec1c811	-0.3784795
61	0xbe0dc6a7	-0.13845311
62	0x3eaaf8ff	0.33393094
63	0x3e371275	0.17878135
64	0xbe753ecc	-0.23949736
65	0xbed24c0c	-0.41073644
66	0xbeb8d1c6	-0.36097544
67	0xbed0b4a8	-0.4076283
68	0xbe8fe39c	-0.2810334
69	0xbea1ee75	-0.3162724
70	0xbe215d55	-0.1575826
71	0x3ee5ec06	0.44906634
72	0xbdedc090	-0.11608994
73	0xbe979ec5	-0.2961332
74	0x3e781e18	0.2423023
75	0xbe8c4dc6	-0.27403086
76	0xbe767867	-0.24069367
77	0xbdbe8b79	-0.09303946
78	0xbd7e04ac	-0.062016174
79	0xbe937365	-0.28798977
80	0xbec2e3db	-0.38064465
81	0xbf0087a3	-0.50206965
82	0xbe496e12	-0.19670895
83	0x3e785440	0.24250889
84	0x3ce6027d	0.028077358
85	0x3ec58ee5	0.38585582
86	0x3dc5ee97	0.09664648
87	0xbeba143d	-0.36343566
88	0x3d79b944	0.0609677
89	0xbde8a60c	-0.11359796
90	0x3e99753d	0.29972258
91	0x3e0175e6	0.12642631
92	0x3ef2bea4	0.47411072
93	0xbeddc9c8	-0.4331801
94	0xbe641bb7	-0.22276197
95	0xbed21456	-0.4103114
96	0x3d6269f1	0.055276815
97	0xbe9ecd39	-0.31015947
98	0xbe494f4a	-0.19659153
99	0x3efa80f8	0.4892652
100	0xbe3d997f	-0.18515585
101	0x3e6c17c6	0.23055944
102	0x3e9e6656	0.3093745
103	0x3ec20227	0.37892267
104	0x3ed6ddbc	0.41966045
105	0x3e9c1b11	0.304894
106	0x3d4eb803	0.050468456
107	0x3eded9dc	0.4352559
108	0x3ef5a294	0.479756
109	0xbeba96f8	-0.36443305
110	0x3db2d042	0.08731128
111	0x3ebbbaba	0.366659
112	0xbea77b56	-0.32711285
113	0x3e3beeea	0.18352857
114	0x3ea40107	0.32032034
115	0x3cf5276e	0.029926028
116	0xbe1c9f7a	-0.1529521
117	0xbd560d6e	-0.0522589
118	0x3ee2aba0	0.44271564
119	0xbeca0969	-0.39460304
120	0x3e567967	0.20944749
121	0xbe83d4af	-0.25748202
122	0x3eb3eda6	0.3514225
123	0xbe5e0486	-0.21681413
124	0x3dc52e60	0.09627986
125	0x3ea76f0f	0.32701918
126	0xbd5e5719	-0.05428228
127	0xbd8f9245	-0.070103206
128	0x3eeae2ad	0.45876065
129	0x3eeee92b	0.46662268
130	0x3e8be8c1	0.27326015
131	0x3c955b7c	0.0182321
132	0xbc878574	-0.016543128
133	0xbea3de76	-0.32005662
134	0x3ea9896d	0.3311266
135	0x3e72a4a6	0.23695621
136	0x3ed094a4	0.40738404
137	0xbea712c4	-0.32631505
138	0x3e05c6cc	0.13064116
139	0x3ddcd0fe	0.107820496
140	0xbe02e22f	-0.12781595
141	0xbd6d6a00	-0.057962418
142	0x3db32949	0.08748109
143	0xbe02edd5	-0.12786038
144	0x3ef5f576	0.48038834
145	0xbee9c5fb	-0.4565886
146	0xbd81a011	-0.06329358
147	0xbe74d6a0	-0.23909998
148	0x3ebce040	0.3688984
149	0xbe3f905f	-0.18707417
150	0xbddaca50	-0.10683119
151	0x3ede5d85	0.43430725
152	0xbedabd75	-0.4272267
153	0xbe21493c	-0.15750593
154	0x3ee31b0b	0.4435657
155	0x3eaf4057	0.34228775
156	0xbe1ca926	-0.152989
157	0xbdaf512e	-0.08560406
158	0xbe6b3dc8	-0.22972786
159	0x3dd92c06	0.106041
160	0x3e1385b0	0.14406466
161	0x3ea9fa6d	0.33198872
162	0x3e5fdaa1	0.21860744
163	0x3e7da06d	0.24768229
164	0xbda8a83c	-0.08235213
165	0xbeb7c81b	-0.35894856
166	0x3e8bc475	0.27298322
167	0xbc63edb0	-0.01391165
168	0xbea76fcf	-0.3270249
169	0x3d79df6e	0.061004095
170	0x3efb9e59	0.49144247
171	0xbd2d27f9	-0.04227445
172	0xbed975f8	-0.42472816
173	0x3e9dc285	0.3081247
174	0x3ec3a4d4	0.3821169
175	0xbea39899	-0.3195236
176	0xbede6ef1	-0.43444017
177	0xbeb8fc06	-0.3612978
178	0x3e52b1ab	0.20575587
179	0xbe648b66	-0.22318801
180	0xbef62b37	-0.48079845
181	0xbd0b5f5e	-0.034026496
182	0xbe80e187	-0.25172064
183	0xbe12a606	-0.14321145
184	0xbe47298e	-0.19449446
185	0xbe2b3dc9	-0.16722788
186	0xbea8c03c	-0.32959163
187	0xbdce26da	-0.10066004
188	0xbea1c27c	-0.31593692
189	0xbd84b772	-0.06480302
190	0xbe9e926b	-0.30971083
191	0x3d03c188	0.032166988
192	0x3ec2e716	0.3806693
193	0xbe63b204	-0.22235876
194	0xbd25cfc6	-0.04048135
195	0xbd83cf9d	-0.064360835
196	0xbe2641e2	-0.1623607
197	0xbebf3061	-0.37341598
198	0x3dc02565	0.093821324
199	0xbc8d9400	-0.017282486
200	0x3d5e6dd8	0.054303974
201	0xbde40439	-0.11133618
202	0xbea6ad62	-0.32554156
203	0xbe1edb7d	-0.15513416
204	0x3e873664	0.26408684
205	0x3ea2f97c	0.31830966
206	0xbe3d87f2	-0.1850889
207	0x3e98e143	0.2985936
208	0xbe838c4d	-0.25692979
209	0xbd691193	-0.056901526
210	0xbed7a09a	-0.42114717
211	0xbda95224	-0.0826762
212	0x3dfe526c	0.124180645
213	0x3e8d9b34	0.27657473
214	0x3e4fff6c	0.2031228
215	0x3e85577e	0.26043314
216	0xbda916f4	-0.08256331
217	0x3f0592d9	0.52177197
218	0xbec74483	-0.38919458
219	0xbe0cac13	-0.13737516
220	0xbde20e78	-0.11037916
221	0x3ebbb9de	0.36665243
222	0x3e01d8d6	0.12680373
223	0x3f03e00d	0.5151375
224	0xbea4c6a6	-0.32182807
225	0x3e1c7527	0.15279065
226	0xbed12192	-0.40845925
227	0x3e2e8493	0.1704276
228	0xbe6810a0	-0.22662592
229	0xbe68c71e	-0.22732207
230	0x3d4e89c0	0.050424337
231	0x3d8c4935	0.06849901
232	0x3f00fff8	0.5039058
233	0x3ed01382	0.40639883
234	0x3cfcf857	0.030880136
235	0x3e3a512f	0.18195032
236	0x3e098144	0.13428217
237	0xbdd94b38	-0.1061005
238	0xbebff310	-0.3749013
239	0xbecc1e0e	-0.3986668
240	0x3d74e589	0.059789214
241	0xbe4da14b	-0.2008106
242	0x3ef0c264	0.47023308
243	0xbe68bbf0	-0.22727942
244	0x3de99b5f	0.11406588
245	0xbe8187e9	-0.25299004
246	0x3f01b23b	0.50662583
247	0x3e6bfbcc	0.23045272
248	0x3e8f756f	0.28019282
249	0x3e162bff	0.1466522
250	0xbd57ea4d	-0.05271368
251	0xbe3443b8	-0.17603958
252	0xbe6e61a1	-0.2327943
253	0xbed680f8	-0.4189527
254	0xbd93d39b	-0.07218095
255	0xbe3e5b33	-0.18589477

decoder_net.2.bias f4 [32]
0	0x3ddc6fa1	0.10763479
1	0xbdd1ee02	-0.102504745
2	0xbd20b260	-0.03923261
3	0x3b9ed127	0.0048467102
4	0x3de7a853	0.11311402
5	0x3d9e1d3e	0.07720421
6	0x3e0fd5b1	0.1404636
7	0xbdda6c45	-0.10665182
8	0xbd08d974	-0.033410504
9	0xbcff1a21	-0.031140389
10	0x3e0b76a3	0.13619475
11	0x3e37aaf3	0.17936306
12	0x3d1b37ac	0.03789489
13	0xbe00e0cb	-0.12585752
14	0xbe1703e2	-0.14747575
15	0x3d066f1e	0.032820813
16	0xbe2077f2	-0.15670756
17	0xbd9d4e65	-0.07680968
18	0xbe1e37c1	-0.15450956
19	0x3db759c9	0.08952672
20	0x3b890c1c	0.0041823518
21	0xbe266480	-0.16249275
22	0x3de6b803	0.11265566
23	0xbe1d82f7	-0.1538199
24	0xbceff12e	-0.029289808
25	0x3e1799a3	0.14804702
26	0x3db68732	0.08912505
27	0xbe1faf04	-0.15594107
28	0x3cba15ad	0.022715414
29	0xbd4212f0	-0.04738134
30	0x3d8b89bf	0.06813382
31	0x3e30a826	0.17251644

decoder_net.4.weight f4 [32, 32]
0	0x3e629951	0.22128798
1	0x3e20a407	0.15687571
2	0x3ed1d56b	0.40983137
3	0x3c3637d6	0.011121711
4	0x3e9a7dae	0.3017401
5	0x3e9a2136	0.30103463
6	0x3d04109a	0.032242395
7	0xbe9583bf	-0.29202077
8	0xbed8f20f	-0.42372176
9	0x3eb2f8af	0.34955356
10	0xbeed2453	-0.46316776
11	0x3e61a3d7	0.22035156
12	0xbe567420	-0.20942736
13	0xbd39ba1a	-0.045343496
14	0x3e891dd8	0.2678058
15	0xbefd526c	-0.49476945
16	0x3eb3b85c	0.35101593
17	0x3d13aab8	0.036051482
18	0x3ea06902	0.31330115
19	0x3ded075d	0.1157367
20	0x3e82dc80	0.25558853
21	0xbe10e8b3	-0.14151268
22	0xbe65392b	-0.22385089
23	0x3e6582d3	0.22413187
24	0xbeec67fb	-0.4617308
25	0xbeb5e4aa	-0.3552602
26	0x3b8002e0	0.0039065927
27	0x3ee493ea	0.446441
28	0x3def91da	0.11697741
29	0xbe5cd149	-0.21564211
30	0x3e98b3a4	0.29824555
31	0x3e73e3dc	0.2381739
32	0x3e30b9cb	0.17258374
33	0x3eeb9eda	0.46019632
34	0x3ebdb5ce	0.37052768
35	0x3e342d0d	0.1759531
36	0xbef60acc	-0.48055112
37	0x3e75b712	0.23995617
38	0x3e8dd85c	0.27704132
39	0xbe8b6b7b	-0.2723044
40	0x3ea3e052	0.3200708
41	0x3efa155e	0.48844427
42	0x3e21b694	0.15792304
43	0x3ea37ded	0.3193201
44	0x3e9ef5b1	0.31046823
45	0xbdcff98f	-0.101550214
46	0xbed92eb7	-0.42418453
47	0xbe3cc1ae	-0.18433258
48	0x3e99f907	0.30072805
49	0xbec7f484	-0.39053738
50	0x3ed3ff73	0.4140583
51	0x3de80442	0.11328937
52	0xbe440689	-0.19143118
53	0x3ece5ce1	0.40305236
54	0xbeca6bca	-0.39535362
55	0xbd60c8c6	-0.054878972
56	0xbef39eb5	-0.4758202
57	0x3e620d01	0.22075273
58	0x3dae2e07	0.08504873
59	0x3ea04732	0.31304318
60	0xbe732e3a	-0.23748103
61	0x3eb36a0d	0.35041848
62	0xbefc42c7	-0.49269697
63	0x3ece2336	0.4026124
64	0x3e5ae87d	0.2137775
65	0x3e0c08eb	0.13675277
66	0xbec48bfc	-0.3838805
67	0xbe7b9f43	-0.24572472
68	0xbda7599d	-0.08171389
69	0x3e892dba	0.267927
70	0x3ebd7c03	0.37008676
71	0x3eeb990f	0.46015212
72	0x3de581f1	0.11206425
73	0xbdfa7e57	-0.12231129
74	0xbed6fd01	-0.41989902
75	0xbb01a0a4	-0.0019779587
76	0x3d91ffe8	0.07128888
77	0xbe503c30	-0.2033546
78	0x3e5697d8	0.20956361
79	0xbeafd9d7	-0.34345886
80	0x3da465ac	0.08027205
81	0xbba5dde4	-0.005061852
82	0xbeb7946a	-0.35855418
83	0xbeebb801	-0.4603882
84	0xbecc54be	-0.39908403
85	0x3ef2eb29	0.47445038
86	0xbe37abce	-0.17936632
87	0x3de91a18	0.1138193
88	0xbe21089e	-0.15725943
89	0x3dca2515	0.09870354
90	0xbed2a21c	-0.41139305
91	0x3e70e32a	0.23524156
92	0x3ecbf5e4	0.39836037
93	0xbcd285da	-0.025698591
94	0x3d02cb48	0.031932145
95	0xbed0cd6a	-0.40781718
96	0xbe9ce3c4	-0.3064252
97	0xbec716da	-0.38884622
98	0x3ee9e392	0.45681435
99	0xbcf41efa	-0.029799927
100	0x3e25ce3f	0.16191958
101	0xbd88f4d5	-0.06687323
102	0x3e7376e2	0.23775819
103	0x3eb85aa2	0.36006647
104	0xbebb2046	-0.3654806
105	0xbea5f0f1	-0.32410386
106	0xbe04c761	-0.12966682
107	0x3d37f6a3	0.044912945
108	0xbdca5f5e	-0.09881471
109	0x3e5ac0b3	0.21362571
110	0x3e6377fb	0.22213738
111	0x3dd606ef	0.10450541
112	0xbedd6da6	-0.43247718
113	0xbe9e53da	-0.3092335
114	0x3e8221da	0.25416452
115	0xbe3e4e8c	-0.18584651
116	0xbeb093dc	-0.34487808
117	0xbdd50a21	-0.104023226
118	0x3ec39503	0.38199624
119	0x3e0357ab	0.12826411
120	0xbe55b5d4	-0.20870143
121	0x3ed83c8a	0.42233688
122	0xbdb355ed	-0.087566234
123	0x3ecd06c7	0.40044233
124	0x3ef939ef	0.48677012
125	0xbec10474	-0.3769871
126	0xbdce09f3	-0.100604914
127	0x3ec22a54	0.3792292
128	0xbef214c4	-0.47281468
129	0x3eb57c6e	0.35446495
130	0x3ecc7b7d	0.39937964
131	0x3ef1744b	0.47159037
132	0xbe442c43	-0.1915751
133	0x3ed27668	0.41105962
134	0x3dc87b1b	0.097891055
135	0x3ecc2818	0.3987434
136	0x3e56ba81	0.20969583
137	0x3c57d43c	0.013173159
138	0xbef83c27	-0.48483393
139	0xbe95c4a7	-0.29251596
140	0x3ece23c0	0.4026165
141	0x3e4cbfaa	0.19994989
142	0xbe1c789e	-0.15280387
143	0x3ef50bd9	0.47860602
144	0xbebe778c	-0.37200582
145	0x3eac856e	0.3369555
146	0x3efa0dc8	0.4883864
147	0xbe3f3690	-0.18673158
148	0x3e126d8e	0.14299604
149	0x3ea452d7	0.32094452
150	0xbdffddeb	-0.12493499
151	0x3de26659	0.110546775
152	0x3e7488ec	0.23880357
153	0xbe0fd39a	-0.14045563
154	0xbe928d4c	-0.28623426
155	0x3e197fda	0.14990178
156	0xbede78b1	-0.43451455
157	0xbedfcf2c	-0.43712747
158	0xbb6ed7af	-0.0036444475
159	0xbe7a1c77	-0.24424921
160	0x3dfd3ed4	0.12365499
161	0x3db97150	0.09054816
162	0xbed1ba5d	-0.40962496
163	0xbe9dd1cf	-0.30824134
164	0x3effe28a	0.49977523
165	0xbcd09efc	-0.025466435
166	0xbd7a0aee	-0.06104558
167	0xbe588f0a	-0.21148315
168	0x3e426182	0.18982509
169	0x3e43c039	0.19116296
170	0x3e440a97	0.19144665
171	0xbe483be3	-0.19554095
172	0x3e873018	0.2640388
173	0x3e9d471e	0.3071832
174	0x3ef18cdb	0.47177777
175	0xbeece98d	-0.46271935
176	0x3e48b60c	0.19600695
177	0xbe4316cf	-0.1905167
178	0xbe20960b	-0.15682237
179	0xbeb43cab	-0.35202536
180	0x3e008d7e	0.12553975
181	0xbec89114	-0.39173186
182	0xbe8f7f69	-0.28026894
183	0xbce8a4af	-0.02839884
184	0x3e48f88c	0.19626063
185	0x3e51e25b	0.20496504
186	0x3ea49a34	0.32148898
187	0xbf022fe2	-0.50854313
188	0xbe6b3d75	-0.22972663
189	0x3d92d20f	0.07168972
190	0xbea8790e	-0.32904857
191	0xbe92993b	-0.2863253
192	0xbe463de7	-0.19359551
193	0x3e8416fd	0.2579879
194	0x3e6dd082	0.2322407
195	0xbe496937	-0.19669043
196	0xbe841293	-0.2579542
197	0x3dbfa7bd	0.093581654
198	0x3e157272	0.14594439
199	0x3ee27dec	0.44236696
200	0x3eaab716	0.33342808
201	0xbe078774	-0.13235265
202	0xbd1cb55d	-0.0382589
203	0x3e8a25eb	0.26982054
204	0x3dd7b57e	0.10532664
205	0x3e80472d	0.25054303
206	0x3ee510e1	0.4473944
207	0x3e2625ce	0.16225359
208	0xbd2cc7a8	-0.042182595
209	0xbef281a3	-0.4736453
210	0xbe6134eb	-0.21992843
211	0x3e6470d7	0.2230867
212	0x3eee1a2f	0.46504351
213	0x3e16b405	0.1471711
214	0xbeb5f881	-0.35541156
215	0xbec5abb8	-0.38607574
216	0x3ef29959	0.4738262
217	0xbe12d867	-0.14340363
218	0xbe0fae00	-0.1403122
219	0xbda9b7c2	-0.08287002
220	0x3e8d6dc5	0.2762281
221	0x3ee8f3de	0.45498556
222	0x3e4d71a5	0.20062883
223	0x3ea8cd0f	0.32968947
224	0x3eda56a2	0.4264422
225	0xbef8ded7	-0.48607513
226	0xbe4d7801	-0.20065309
227	0xbe8bdbf1	-0.2731624
228	0x3e85fae7	0.26167986
229	0x3eba02ab	0.3633016
230	0x3d931bb9	0.07183022
231	0x3eb3ab4e	0.35091633
232	0xbef27b2c	-0.47359598
233	0xbdcd39ed	-0.10020814
234	0x3d54f86e	0.051994734
235	0xbd7934e7	-0.060841467
236	0x3ec961c4	0.39332402
237	0xbe5348d8	-0.20633256
238	0x3ed40546	0.41410273
239	0xbe08c4e8	-0.13356364
240	0x3d14f196	0.036363207
241	0x3dad0a80	0.08449268
242	0x3ed44ba9	0.41463974
243	0xbdbd56d7	-0.09245079
244	0xbd2ef319	-0.042712305
245	0x3eb41009	0.35168484
246	0x3eff17e0	0.49822903
247	0xbe903c8c	-0.28171194
248	0x3e1ae64a	0.15126911
249	0xbc8ba0a7	-0.017044378
250	0xbeeee24b	-0.46657023
251	0xbedc4de9	-0.4302819
252	0xbe006c74	-0.12541372
253	0xbdf40fc4	-0.119170696
254	0x3dcb10fd	0.0991535
255	0xbe843edc	-0.25829208

decoder_net.4.bias f4 [32]
0	0xbcd250ac	-0.025673233
1	0x3dfa6515	0.12226311
2	0xbd09b7b5	-0.033622462
3	0x3d93fe99	0.07226295
4	0x3e0c3abc	0.1369428
5	0x3dfcb510	0.123392224
6	0x3dbd1fdf	0.092345946
7	0x3de85f16	0.11346261
8	0xbd82aeb1	-0.06380976
9	0x3cfbcc39	0.03073703
10	0xbda46511	-0.080270894
11	0xbe24ff4d	-0.16113015
12	0x3e130ee9	0.14361157
13	0xbe2e5863	-0.17025904
14	0xbdea48c2	-0.11439659
15	0xbd8e0814	-0.069351345
16	0xbe3060dc	-0.17224449
17	0xbe1b027b	-0.15137665
18	0xbdeb4c1d	-0.11489127
19	0xbb9e0138	-0.0048219226
20	0xbe2f25e3	-0.17104296
21	0xbdf0b137	-0.11752551
22	0xbdfd50ff	-0.123689644
23	0xbe18a84c	-0.1490795
24	0x3ccded65	0.025137613
25	0xbac1fb16	-0.0014799561
26	0x3cdd2e0a	0.026999492
27	0x3e15c389	0.14625372
28	0xbdb4ede6	-0.08834438
29	0xbd93ea7b	-0.07222458
30	0x3d77a249	0.0604575
31	0x3e1056bc	0.14095587

decoder_net.6.weight f4 [32, 32]
0	0xbe29e02d	-0.16589423
1	0x3ef63c18	0.48092723
2	0xbd39dab2	-0.04537458
3	0x3ba2619e	0.0049554845
4	0x3e507a90	0.20359254
5	0xbecb9f8d	-0.39770165
6	0x3ecbe2aa	0.39821368
7	0x3e24c29c	0.16089863
8	0x3eb90824	0.36139023
9	0x3e254dfe	0.16143033
10	0xbed5f499	-0.41788176
11	0x3e5e2f5b	0.21697752
12	0xbd28961c	-0.04115878
13	0x3ebc2657	0.36748
14	0x3e4ec6d6	0.20193037
15	0x3dd5b1be	0.10434292
16	0x3e5ebc77	0.21751581
17	0x3eaa212d	0.33228436
18	0x3e28f4af	0.1649959
19	0x3edbd3e5	0.429351
20	0x3eede690	0.46464968
21	0xbeceb53b	-0.40372643
22	0xbeb403b9	-0.3515909
23	0xbebb1220	-0.36537266
24	0xbecf4558	-0.40482593
25	0x3e892aed	0.26790562
26	0x3eac30e1	0.33631042
27	0x3d3d96a7	0.04628625
28	0xbd879066	-0.06619339
29	0xbedb123a	-0.42787343
30	0xbee9453e	-0.4556064
31	0x3e0e1681	0.13875772
32	0x3e077da6	0.13231525
33	0x3e3df1b6	0.18549237
34	0xbd21d973	-0.039514016
35	0x3e16dbc3	0.1473227
36	0x3e05bc9b	0.13060229
37	0xbe55c47d	-0.20875736
38	0x3ed87281	0.4227486
39	0xbd136f16	-0.03599461
40	0xbbecc649	-0.007225786
41	0xbeaa4bee	-0.33261055
42	0x3ec34c43	0.3814412
43	0x3edcb285	0.4310495
44	0x3ddeec6f	0.1088494
45	0xbea915a7	-0.33024332
46	0xbe929ba1	-0.2863436
47	0xbefcaee0	-0.4935217
48	0xbd51be11	-0.051206652
49	0x3e6a4409	0.22877516
50	0xbe897257	-0.26845047
51	0xbe710af0	-0.23539329
52	0xbe915678	-0.28386283
53	0x3dc2af38	0.095060766
54	0x3e578832	0.21048048
55	0xbec26080	-0.3796425
56	0xbe7aae4c	-0.24480551
57	0x3e45ab9f	0.1930375
58	0x3eb40af3	0.35164604
59	0x3e9f0abe	0.31062883
60	0xbe0db5b7	-0.1383885
61	0xbc25a2d3	-0.010109621
62	0xbe95851e	-0.29203123
63	0x3e113e63	0.14183955
64	0x3ec52a65	0.38508907
65	0xbcbff020	-0.02342993
66	0xbeafac3f	-0.343111
67	0x3ef26c3d	0.47348204
68	0x3e404083	0.1877461
69	0x3e1f9b43	0.15586571
70	0x3ee51b08	0.44747186
71	0xbe19d8db	-0.1502413
72	0xbd1e29a5	-0.038613934
73	0x3dc53e7b	0.09631058
74	0x3eca11cf	0.39466712
75	0x3e65c46b	0.22438209
76	0xbd6cfb88	-0.057857066
77	0x3ec1a407	0.37820455
78	0x3c35bb9b	0.011092092
79	0xbe6f2c02	-0.23356631
80	0x3b8fadad	0.0043847174
81	0x3ef6ac1a	0.48178178
82	0xbeecb696	-0.46233052
83	0x3eded914	0.43524992
84	0xbec21aac	-0.37910974
85	0xbe9b1a28	-0.30293393
86	0xbee3d8e1	-0.44501403
87	0x3ea4dad1	0.32198194
88	0x3d5e16f9	0.054221127
89	0xbeae8734	-0.34087527
90	0xbe49ea39	-0.19718255
91	0x3eaa5f28	0.33275723
92	0x3ef193c7	0.47183058
93	0xbc11d5e7	-0.008901096
94	0x3e0c9a52	0.13730744
95	0xbe43caab	-0.1912028
96	0x3e51363a	0.20430842
97	0x3e12da84	0.1434117
98	0xbedf265c	-0.43583953
99	0x3edeb937	0.43500683
100	0x3ec6f2d7	0.38857147
101	0x3ecd6265	0.40114132
102	0x3d9dca5f	0.07704615
103	0xbde7d421	-0.11319757
104	0x3ebad978	0.3649404
105	0xbebb64b0	-0.36600256
106	0xbed6175f	-0.41814706
107	0x3d2275e5	0.039663214
108	0x3e3961a7	0.18103658
109	0x3dd6d714	0.10490242
110	0x3d30559e	0.0430504
111	0x3ddaf9e8	0.10692197
112	0xbdb7ed6f	-0.08980834
113	0xbe9f2f29	-0.31090668
114	0xbee1ec4a	-0.44125587
115	0xbdbc431b	-0.09192487
116	0x3e679146	0.22614011
117	0xbe5e0356	-0.2168096
118	0xbe605b3f	-0.21909808
119	0xbdcf7a79	-0.10130782
120	0x3ebf541a	0.37368852
121	0x3e8b7f6c	0.27245653
122	0xbe739c6a	-0.23790136
123	0xbd1af866	-0.037834547
124	0xbeef8f49	-0.46789005
125	0x3da54601	0.08069993
126	0xbe4e913b	-0.20172589
127	0x3e46cee1	0.19414856
128	0x3ddecade	0.108785376
129	0x3d4fd5d1	0.05074102
130	0x3bc939be	0.0061409166
131	0x3eb3fb45	0.3515264
132	0x3d80c4fc	0.06287572
133	0x3e8506bb	0.25981697
134	0x3e65649f	0.22401665
135	0x3d625248	0.05525425
136	0xbcfe567a	-0.031047095
137	0xbec6f74f	-0.38860556
138	0x3c8244f4	0.01590202
139	0xbedece56	-0.43516797
140	0xbd58af6c	-0.05290167
141	0xbe8f4e95	-0.2798964
142	0x3ee33587	0.44376776
143	0xbeb03ac2	-0.3441983
144	0xbea183f7	-0.31545994
145	0x3e53b7b1	0.20675541
146	0xbeb1c51a	-0.3472069
147	0xbdeecf23	-0.11660602
148	0xbe880ae9	-0.26570824
149	0x3d33788b	0.04381613
150	0x3e97a7b3	0.29620132
151	0x3efefb07	0.49800894
152	0xbd3bd2a6	-0.045855187
153	0xbeaa5a39	-0.3327196
154	0x3d03032a	0.03198544
155	0x3e075220	0.13214922
156	0x3e1e5378	0.15461528
157	0x3ec1efca	0.37878257
158	0xbe2648bc	-0.16238683
159	0x3eea8a75	0.4580876
160	0xbed8ebb3	-0.42367324
161	0x3e82448d	0.25442925
162	0xbe8755d0	-0.26432657
163	0xbec06f82	-0.37585074
164	0x3ee7b720	0.452569
165	0x3ebbb501	0.36661533
166	0x3db364d2	0.08759464
167	0x3c87cd22	0.016577307
168	0xbe8b2e66	-0.27183837
169	0xbe95e048	-0.29272676
170	0xbcc5c32b	-0.024140915
171	0xbc70e1b1	-0.0147022465
172	0x3eef924b	0.467913
173	0x3df58f65	0.11990241
174	0xbe24c8c9	-0.16092218
175	0x3e8633d0	0.26211405
176	0xbea225b6	-0.31669396
177	0x3e1daebd	0.15398689
178	0x3e97ec0a	0.2967227
179	0xbe05734b	-0.13032262
180	0x3dfc6a4f	0.12324964
181	0xbecd82ff	-0.40139005
182	0x3eed0d86	0.4629938
183	0x3ed8eba5	0.42367283
184	0x3ecf0289	0.40431622
185	0x3e05c5be	0.13063714
186	0x3eafebf7	0.34359714
187	0x3eb3c8e0	0.35114193
188	0xbbfabada	-0.007651669
189	0x3b17c6c4	0.0023159245
190	0xbedbeed6	-0.42955655
191	0x3e6a12b2	0.22858694
192	0x3c2604e8	0.010133006
193	0xbea42f56	-0.32067364
194	0x3eb34d80	0.35020065
195	0xbd90c51a	-0.07068844
196	0x3d38896f	0.045052942
197	0xbd78d388	-0.060748607
198	0x3eed2e9a	0.46324617
199	0x3e93e11d	0.28882685
200	0x3efd71b2	0.49500805
201	0xbee71460	-0.45132732
202	0xbed6f375	-0.41982618
203	0x3e1d899a	0.15384522
204	0xbe008c61	-0.1255355
205	0xbee82a02	-0.4534455
206	0x3db8a594	0.090159565
207	0xbe3e0188	-0.18555272
208	0xbdc3884b	-0.0954748
209	0x3ea92545	0.33036247
210	0xbd8a81e1	-0.06763054
211	0x3edea061	0.43481734
212	0xbe062309	-0.13099302
213	0xbd86f7e3	-0.065902494
214	0x3ed486da	0.41509134
215	0xbec2e460	-0.3806486
216	0x3dbf8b9a	0.09352799
217	0xbe6b1b69	-0.22959675
218	0xbe978ea3	-0.2960101
219	0xbeb3f9f9	-0.35151652
220	0x3eea4b87	0.45760748
221	0xbea6e82e	-0.32599014
222	0x3ef9e504	0.48807538
223	0xbeb46878	-0.35235953
224	0x3edc4d40	0.43027687
225	0xbede22c1	-0.4338589
226	0xbeea16ef	-0.45720622
227	0x3ed48f93	0.41515788
228	0x3e43de59	0.19127788
229	0x3eb0bf2a	0.34520847
230	0xbeed9fd2	-0.46410996
231	0x3e893804	0.2680055
232	0x3ece13f5	0.402496
233	0xbeaef8d3	-0.34174213
234	0xbdf9acb2	-0.12191142
235	0x3ea90def	0.33018443
236	0x3d636543	0.055516493
237	0x3e3a991a	0.18222466
238	0x3e0ab706	0.1354638
239	0xbd5b3df0	-0.053525865
240	0x3da3ae76	0.0799226
241	0x3e49bbd4	0.19700557
242	0x3ea43e83	0.32078943
243	0xbea45c6b	-0.3210176
244	0x3e9eff46	0.31054133
245	0xbec05974	-0.37568247
246	0x3ea39b27	0.3195431
247	0x3db16250	0.0866133
248	0x3d544e2b	0.05183236
249	0x3e8c9ce2	0.27463442
250	0xbe881ad8	-0.2658298
251	0x3d9f337a	0.0777349
252	0xbd6fd368	-0.058551222
253	0x3d53643e	0.05160927
254	0x3ea9f5c4	0.33195317
255	0xbe0eaa5d	-0.13932176

decoder_net.6.bias f4 [32]
0	0xbdba1642	-0.090862766
1	0x3e14460b	0.14479844
2	0xbe191f73	-0.14953403
3	0xbe03e245	-0.12879284
4	0xbe26b3aa	-0.16279474
5	0xbe26c901	-0.16287614
6	0x3d24b629	0.040212784
7	0xbdfba1ef	-0.12286746
8	0xbd69039e	-0.056888215
9	0xbda838d5	-0.08213965
10	0xbd6f714e	-0.058457665
11	0xbd9fad0e	-0.077966794
12	0x3dbf47e0	0.09339881
13	0xbda45610	-0.080242276
14	0xbdba9d50	-0.09112036
15	0x3dbc62e4	0.091985494
16	0x3e1949d2	0.14969566
17	0x3e0bf614	0.1366809
18	0xbd8907de	-0.06690954
19	0x3d1c70ea	0.03819362
20	0xbdb5f763	-0.08885076
21	0xbbf970c9	-0.007612322
22	0x3b90ce4e	0.0044191247
23	0xbdd28278	-0.10278791
24	0xbd36149e	-0.044453256
25	0x3d8f4ac3	0.069966815
26	0x3d3e68fa	0.046486832
27	0x3e312b7e	0.17301747
28	0xbd45eb6d	-0.048320223
29	0xbd91fad0	-0.07127917
30	0xbe1ee079	-0.15515317
31	0x3da7a78e	0.081862554

decoder_net.8.weight f4 [32, 32]
0	0xbeff240b	-0.49832186
1	0xbe43703a	-0.1908578
2	0xbe8c6fdb	-0.2742909
3	0xbee45bfb	-0.44601426
4	0xbed63f36	-0.418451
5	0x3eaf98dd	0.34296313
6	0xbe9be5d3	-0.3044878
7	0xbe948fd8	-0.29015994
8	0xbe680e66	-0.22661743
9	0xbd348852	-0.044075318
10	0x3e9232e2	0.28554446
11	0xbef33dbc	-0.47508037
12	0xbe5dc125	-0.2165571
13	0xbd83fc34	-0.06444588
14	0x3e1d79d8	0.15378511
15	0xbe9bcfa6	-0.3043186
16	0xbe0b4b53	-0.13602953
17	0xbe835bf0	-0.2565608
18	0xbdc9bcf2	-0.098504916
19	0x3e88d81e	0.26727384
20	0xbe4a6175	-0.1976374
21	0xbd470f4d	-0.048598576
22	0xbeac505b	-0.33655056
23	0x3e06a9fd	0.13150783
24	0xbe9a350c	-0.30118597
25	0x3e0d93de	0.13825938
26	0xbf022106	-0.5083164
27	0x3e5abf8d	0.21362133
28	0x3e004369	0.12525715
29	0xbebc33f3	-0.36758384
30	0xbd9372dd	-0.07199643
31	0xbe9cadb7	-0.30601284
32	0xbe76e2cb	-0.24109952
33	0x3e6c88fe	0.23099133
34	0xbe95499e	-0.29157728
35	0x3e8fbf3a	0.28075582
36	0x3e80a9ce	0.2512955
37	0x3ee6dd44	0.45090687
38	0xbe2a991e	-0.16659972
39	0xbedb0b53	-0.42782077
40	0x3e9db075	0.3079869
41	0xbdd1b423	-0.102394365
42	0xbe5f4f50	-0.21807599
43	0xbe712974	-0.2355097
44	0x3eea90ee	0.45813698
45	0xbebc51c6	-0.36781138
46	0x3e002128	0.12512648
47	0x3dbf3db1	0.093379386
48	0xbe4ef74d	-0.20211525
49	0x3e97ca8e	0.29646724
50	0x3e98e96b	0.29865584
51	0x3eb35a26	0.35029715
52	0x3e198a1e	0.14994094
53	0x3e117366	0.14204177
54	0x3dfaeead	0.12252555
55	0xbe1e7740	-0.15475178
56	0xbec5dc3a	-0.38644582
57	0x3c844246	0.016144883
58	0x3d1944f3	0.03741927
59	0x3e9f0379	0.31057337
60	0x3d886fbd	0.066619374
61	0x3d11c364	0.03558673
62	0xbe3cfb18	-0.1845516
63	0x3ecb93e7	0.39761278
64	0x3ed7b260	0.42128277
65	0x3ef623fb	0.48074326
66	0x3947e1c0	0.00019062217
67	0xbe8a96d1	-0.2706819
68	0xbec0d4f1	-0.3766246
69	0xbef81d29	-0.48459747
70	0xbebd0436	-0.36917275
71	0xbe07b062	-0.13250878
72	0x3ebae2ce	0.36501163
73	0xbed7071d	-0.41997615
74	0xbe13db3c	-0.144391
75	0x3e554e54	0.20830661
76	0x3e523cae	0.2053096
77	0x3d396094	0.04525812
78	0xbda8f723	-0.082502626
79	0x3c2bafad	0.010478896
80	0xbeab0a6d	-0.33406392
81	0x3e8c71d4	0.27430594
82	0x3ea2e1c1	0.31812862
83	0x3e00e9c5	0.12589176
84	0x3ec3af0d	0.3821949
85	0x3ea42662	0.32060534
86	0xbefa9297	-0.48939964
87	0xbe593a3b	-0.2121362
88	0xbecc2f02	-0.39879614
89	0x3e4e8d66	0.20171127
90	0xbeeecad2	-0.46639115
91	0x3e09678b	0.13418405
92	0xbecf857c	-0.40531528
93	0x3e914abc	0.2837733
94	0xbeb9a8f9	-0.36261728
95	0xbef01d66	-0.4689743
96	0xbe4948f9	-0.19656743
97	0x3e2adb68	0.1668526
98	0xbe5cf4e8	-0.215778
99	0x3e42af27	0.19012128
100	0x3cbdbefb	0.023162356
101	0xbe8a146a	-0.269687
102	0xbd37e959	-0.044900272
103	0x3e9c0059	0.30469015
104	0xbe97f3a6	-0.29678077
105	0x3ed90c4c	0.42392194
106	0x3e12d301	0.14338304
107	0x3e845908	0.25849175
108	0xbdc10505	-0.094247855
109	0x3eb7871f	0.35845277
110	0xbec65b4b	-0.38741526
111	0xbe43e47c	-0.19130129
112	0x3ea1f090	0.31628847
113	0xbe8f9f63	-0.2805129
114	0x3ed14fed	0.4088129
115	0xbe43472d	-0.1907012
116	0xbef7e119	-0.48413923
117	0x3eec03e8	0.4609673
118	0x3ed69688	0.4191172
119	0x3e50dfb9	0.20397843
120	0xbedf859e	-0.4365663
121	0x3dce4d74	0.10073367
122	0xbde17270	-0.11008155
123	0x3ef45c7a	0.47726804
124	0x3e048883	0.129427
125	0xbd621527	-0.055195954
126	0xbefc554a	-0.4928382
127	0xbe334b1c	-0.1750912
128	0x3ebc94f7	0.368324
129	0xbec305de	-0.38090414
130	0x3d8b24f8	0.067941606
131	0xbec6cb65	-0.38827053
132	0xbd1fe6d8	-0.03903851
133	0xbe01cf3f	-0.12676714
134	0xbd5cbeba	-0.05389283
135	0xbc77ea94	-0.015131611
136	0xbe1598d9	-0.14609088
137	0xbe3ada39	-0.18247308
138	0x3e6e9a95	0.23301156
139	0x3d86f876	0.06590359
140	0xbe78c813	-0.24295072
141	0x3e8aead1	0.27132276
142	0x3f00a1c3	0.5024683
143	0x3e8ebbfd	0.278778
144	0x3e61d77b	0.22054856
145	0xbda854b0	-0.08219278
146	0x3ebfd2b5	0.37465444
147	0xbe480935	-0.19534762
148	0x3e8081f6	0.25099152
149	0x3eeec193	0.4663206
150	0xbd8234cb	-0.06357726
151	0xbe888501	-0.26663974
152	0x3e21f0a0	0.15814447
153	0xbd8ee0d8	-0.06976479
154	0x3e9238cd	0.2855896
155	0xbe623f04	-0.22094351
156	0x3eae3cdb	0.34030804
157	0x3eb68485	0.3564798
158	0x3e837e32	0.25682217
159	0x3d8e1f98	0.0693962
160	0xbe543eb5	-0.20727046
161	0x3eaf675f	0.34258553
162	0xbd68ee0a	-0.056867637
163	0xbe51b181	-0.20477869
164	0x3ecedb8e	0.40401882
165	0xbdf30b5b	-0.118674
166	0x3e8641e1	0.26222137
167	0x3e7585bf	0.23976801
168	0xbe590f9f	-0.21197365
169	0x3ebd32ab	0.3695272
170	0xbc9ef2c4	-0.019402869
171	0x3e8c5cb7	0.27414486
172	0xbeb88bee	-0.36044258
173	0x3e45acc6	0.19304189
174	0x3edfeebc	0.43736827
175	0xbe74f2b0	-0.23920703
176	0x3ee30c5d	0.4434537
177	0xbe8caf8f	-0.2747769
178	0x3e3cac89	0.18425192
179	0x3e50169a	0.20321122
180	0x3d260def	0.04054063
181	0x3e483231	0.19550397
182	0x3ded3793	0.115828656
183	0xbe7d9029	-0.24762024
184	0xbec423c5	-0.3830854
185	0xbeae2260	-0.340106
186	0xbd0e64ff	-0.034764286
187	0x3cd67a54	0.026181377
188	0xbcf64a48	-0.030064717
189	0x3cb5e692	0.022204671
190	0xbee6519d	-0.4498414
191	0xbef0698e	-0.46955532
192	0xbe3a6fe1	-0.18206741
193	0xbee0189c	-0.43768775
194	0x3e68bb72	0.22727755
195	0xbe2c24d7	-0.16810928
196	0xbe776fad	-0.24163695
197	0x3d844087	0.0645762
198	0x3dbae47e	0.09125613
199	0x3e8538a4	0.26019776
200	0x3cbf5855	0.02335755
201	0x3e2f345f	0.17109822
202	0x3e0594f7	0.13045107
203	0x3edd5b84	0.43233883
204	0x3e06b1f2	0.13153818
205	0x3e3a291e	0.18179747
206	0x3ba9d62e	0.005183003
207	0x3e6444db	0.22291891
208	0xbceb41e7	-0.028717948
209	0xbe7a8b42	-0.24467185
210	0xbe94321d	-0.28944483
211	0x3e99a734	0.30010378
212	0x3d20e12a	0.039277233
213	0x3ef75e85	0.483143
214	0x3e9725f6	0.2952115
215	0x3edc524e	0.43031543
216	0xbd83b6af	-0.064313285
217	0x3ea046bd	0.3130397
218	0x3d7de89b	0.061989408
219	0x3dd8b6c4	0.10581735
220	0x3e346c73	0.17619495
221	0xbe9ba5b9	-0.30399874
222	0x3ee2ec3f	0.44320866
223	0x3e3b346c	0.18281716
224	0xbdde24f0	-0.10846889
225	0xbec1c4a6	-0.37845343
226	0xbe890daf	-0.26768252
227	0xbd178223	-0.036989342
228	0x3dc74f52	0.09731926
229	0x3e4a9ee6	0.19787177
230	0x3efc3749	0.4926093
231	0x3eb63195	0.35584703
232	0xbcc7765a	-0.024348427
233	0xbdb4f95c	-0.08836624
234	0x3ec99663	0.39372548
235	0x3c706680	0.014672875
236	0x3dc2ca59	0.09511251
237	0xbce29e1c	-0.027663283
238	0x3ed99e31	0.42503503
239	0x3e8a5177	0.27015278
240	0x3e62623b	0.22107784
241	0x3e40620b	0.187874
242	0xbd531fd7	-0.051544037
243	0x3e2c964c	0.16854209
244	0xbeb0f8fb	-0.34564957
245	0xbea49c54	-0.3215052
246	0x3e26153f	0.16219042
247	0x3ddda544	0.108225375
248	0xbea42305	-0.32057968
249	0x3e54e012	0.20788601
250	0x3e62bd60	0.22142553
251	0x3e99145a	0.2989834
252	0xbe74e393	-0.23914938
253	0xbe858e8c	-0.26085317
254	0xbc2b62be	-0.010460554
255	0xbcd0ad0e	-0.025473144

decoder_net.8.bias f4 [32]
0	0xbd57b00c	-0.052658126
1	0x3e1a1669	0.15047611
2	0x3e1623f1	0.14662148
3	0x3cf847d8	0.030307695
4	0xbe097588	-0.13423741
5	0xbcf60159	-0.03002994
6	0x3e121f8c	0.14269847
7	0xbdfd4c19	-0.1236803
8	0xbd6cbfc1	-0.05780006
9	0x3d9863ca	0.07440908
10	0x3d01419e	0.031556718
11	0x3e12825f	0.14307545
12	0x3ceda164	0.029007621
13	0xbb861f52	-0.004093089
14	0x3cf1742b	0.029474339
15	0xbd2e7a62	-0.042597182
16	0xbe257fa4	-0.16161972
17	0xbda46b31	-0.08028258
18	0xbe25c50b	-0.16188447
19	0x3df5e42e	0.120064124
20	0xbbffb430	-0.0078034624
21	0x3cc54bd3	0.024084007
22	0xbc5f2b69	-0.01362119
23	0xbdd7375e	-0.10508607
24	0xbdff2e48	-0.12459999
25	0xbcd59b83	-0.02607513
26	0x3d1436f0	0.036185205
27	0xbdc47a5e	-0.09593652
28	0xbdd443b4	-0.10364476
29	0x3de02782	0.109450355
30	0xbd91a980	-0.07112408
31	0x3dbcea73	0.09224405

decoder_net.10.weight f4 [5, 32]
0	0x3e9010a6	0.28137702
1	0x3ea93484	0.3304788
2	0x3ed2fbc8	0.4120772
3	0xbe228cb1	-0.15873982
4	0xbd53f30f	-0.05174547
5	0xbe8f528c	-0.27992666
6	0x3ccaa928	0.024738863
7	0xbc2bf22a	-0.010494748
8	0xbdc9e756	-0.09858577
9	0xbe4dbed5	-0.20092328
10	0x3eb1df4f	0.34740683
11	0x3ea7948c	0.3273052
12	0xbee1d92a	-0.44110996
13	0xbee4d8e8	-0.44696736
14	0xbe89cb1e	-0.2691278
15	0xbd5c8d3f	-0.05384564
16	0xbd388a41	-0.045053724
17	0x3ee9454c	0.45560682
18	0xbab83593	-0.0014054052
19	0xbda18c42	-0.0788808
20	0x3eb3afa3	0.35094938
21	0xbe149791	-0.14510943
22	0x3ec0e0f7	0.37671635
23	0xbdc270e4	-0.094941884
24	0xbe30679d	-0.17227025
25	0x3d50854f	0.050908383
26	0xbeb88f05	-0.36046615
27	0x3edf3ff0	0.43603468
28	0x3e0b47cf	0.13601612
29	0x3edbccf9	0.4292982
30	0x3ef78d69	0.48350075
31	0x3cc1692b	0.023609718
32	0xbcf20894	-0.029545106
33	0xbd3b518d	-0.04573207
34	0xbe97c907	-0.2964556
35	0x3e6f9562	0.23396829
36	0xbeb0a665	-0.3450195
37	0x3eccaa62	0.39973742
38	0x3e51b84b	0.20480458
39	0xbd11f9f3	-0.03563876
40	0x3e9ac692	0.30229622
41	0x3d85d442	0.065346256
42	0x3ece1c07	0.40255758
43	0xbe9103bb	-0.2832316
44	0xbebbdbb5	-0.3669106
45	0xbe4e1455	-0.20124944
46	0x3ea6175d	0.324397
47	0x3e8b8a99	0.2725418
48	0xbe271837	-0.16317831
49	0xbdec1436	-0.115272924
50	0x3e78a845	0.2428294
51	0xbeef6300	-0.46755219
52	0x3e55e34f	0.20887493
53	0x3d445477	0.047932114
54	0x3e03fb22	0.12888768
55	0xbef2c2f4	-0.47414362
56	0x3c7704c8	0.0150768235
57	0x3da08a60	0.07838893
58	0x3ebece39	0.3726671
59	0x3ecea716	0.4036185
60	0xbd8343c1	-0.064094074
61	0x3ee67618	0.45011973
62	0xbeebf799	-0.4608734
63	0xbbda4b23	-0.006661789
64	0x3d02bd07	0.03191855
65	0xbebdbba4	-0.3705722
66	0x3e916315	0.28395906
67	0x3ee3ce2d	0.44493237
68	0xbe577ffb	-0.21044914
69	0xbec2f2ee	-0.38075966
70	0x3d2bb796	0.041923128
71	0x3edb1d73	0.42795905
72	0xbe4ce599	-0.2000946
73	0xbe3b7868	-0.1830765
74	0x3e5fe01b	0.21862833
75	0x3ee0328d	0.43788567
76	0x3eefc9bf	0.46833608
77	0x3ee10cc9	0.43955067
78	0x3eb45a4a	0.35225135
79	0x3e8bd972	0.27314335
80	0xbef62d62	-0.480815
81	0x3ee7896e	0.45222038
82	0xbe30ea69	-0.1727692
83	0xbed1de13	-0.40989742
84	0xbe91a50b	-0.2844623
85	0xbebd2163	-0.36939535
86	0xbebc3ebc	-0.36766613
87	0xbcd87b65	-0.026426027
88	0x3e6dc1b2	0.2321842
89	0xbec4ba9a	-0.38423616
90	0xbee133a6	-0.43984717
91	0x3e88f0d0	0.26746225
92	0x3ded9d87	0.116023116
93	0x3e3728a9	0.17886604
94	0xbe704879	-0.23465146
95	0x3e6480ed	0.22314806
96	0xbe46d9c2	-0.19419006
97	0x3efda085	0.4953653
98	0x3e04deff	0.12975691
99	0xbeb75f38	-0.35814834
100	0x3e62c903	0.22146992
101	0x3ef5bdea	0.47996455
102	0xbe94c208	-0.29054284
103	0x3e09c086	0.13452348
104	0xbe02441c	-0.12721294
105	0xbebb0bf3	-0.36532554
106	0x3e453db8	0.19261825
107	0x3eb0e2be	0.3454799
108	0x3ee67383	0.45010003
109	0x3d3753ba	0.044757582
110	0x3be5a31f	0.007007971
111	0x3b0d9e5f	0.002160929
112	0x3ea04fa7	0.3131077
113	0xbd2a4548	-0.041569978
114	0x3e08bc65	0.13353117
115	0xbcbf488b	-0.02335002
116	0xbe591ed8	-0.21203172
117	0x3e9c05cd	0.30473176
118	0x3e2548f8	0.16141117
119	0x3e3f9745	0.18710048
120	0xbd034117	-0.032044496
121	0x3dd8a77b	0.10578819
122	0x3e084dc0	0.1331091
123	0x3dbbf44c	0.09177455
124	0xbe3a777c	-0.18209642
125	0xbdb18c54	-0.086693436
126	0xbe9707df	-0.29498193
127	0xbe5fd0fd	-0.21857066
128	0xbef908f6	-0.4863965
129	0x3d99d859	0.07511968
130	0xbe9347fb	-0.28765854
131	0xbeb837c7	-0.35980055
132	0xbc7bac38	-0.015360884
133	0xbeb00530	-0.34378958
134	0xbef869da	-0.48518258
135	0x3e5e0684	0.21682173
136	0x3e6cf538	0.23140419
137	0xbd7e0a5f	-0.06202161
138	0xbee9850c	-0.4560932
139	0x3eda6b4f	0.42659995
140	0x3edcbeca	0.4311431
141	0x3ef715ae	0.48258728
142	0x3e955ee1	0.2917395
143	0x3ed6e7a8	0.41973615
144	0xbeb3dbcf	-0.35128638
145	0xbef70c13	-0.482514
146	0xbeb95db1	-0.36204293
147	0x3ef9e2f3	0.4880596
148	0xbedfc2bd	-0.4370326
149	0xbe0dbd91	-0.13841845
150	0x3ef7a147	0.48365232
151	0x3ef95287	0.48695776
152	0x3e231a86	0.15928087
153	0x3ef98ac3	0.4873868
154	0x3dabbd65	0.083857335
155	0x3e9fb050	0.31189203
156	0xbd98142b	-0.07425722
157	0x3e8f0800	0.2793579
158	0xbe7ae748	-0.2450229
159	0x3ee9d7f1	0.45672563

decoder_net.10.bias f4 [5]
0	0xbcdb093d	-0.026737804
1	0x3dee1677	0.116253786
2	0x3dbc6dc9	0.09200627
3	0x3cb61946	0.022228848
4	0x3c6d81ad	0.014496249
