Action_Net.pt (torch, 958818 bytes, 22 tensors)

decoder_net.0.weight f4 [512, 85]
-0.030695 0.012451575 -0.025229877 0.08212328 0.051190212 0.07931296 0.018837893 -0.06137005
-0.07398768 -0.020635305 -0.06824954 -0.053884357 -0.07346849 -0.034024164 -0.018718597 -0.054358825
-0.083877854 -0.066557586 -0.09819095 0.049076136 0.024533546 0.0078034247 -0.09675727 0.04113426
-0.04563518 0.08738068 0.07413201 0.08918493 0.007977517 0.05372181 -0.020836407 -0.041603472
0.08347017 0.010021688 0.046889678 -0.051390313 -0.07445214 0.044425808 -0.0017618121 -0.042232666
0.03820038 -0.03899746 -0.054378837 0.03306696 -0.044729885 -0.02508162 -0.060461547 0.05442028
0.014967902 -0.093022175 -0.07781053 0.09752343 0.08420573 -0.0984367 -0.06399319 0.08825015
-0.07099722 -0.022225736 0.09702951 0.08746544 -0.0684889 -0.05540498 0.06146812 -0.096841544
0.08718238 -0.072097115 -0.09575694 -0.081333034 0.09618453 0.030932356 0.022663184 0.00451833
-0.0786266 0.08499411 -0.024912992 0.090133905 0.025549492 -0.0015837487 -0.005362776 -0.022689246
0.010171687 -0.084710605 0.06366329 0.08005382 0.09346039 -0.07452546 0.05284574 -0.028032375
0.065480255 0.039627057 -0.04103176 -0.028589457 -0.03239165 -0.004723073 0.014957696 0.005220178
0.08261364 -0.01892693 -0.029697075 0.05697837 -0.048688523 -0.0016819419 0.039212223 0.010772284
-0.06560837 0.01584665 0.07001354 -0.033462975 0.05487157 0.08087904 -0.091803536 0.001460394
-0.030708322 0.09287862 0.050529636 -0.07110239 -0.054330055 -0.082328096 0.04279004 0.05333146
-0.059551794 0.05201385 -0.097696364 0.09701561 0.0978603 0.0023791906 0.039486106 0.09299918
-0.08479074 -0.0052245143 -0.016351538 -0.08111069 0.005358821 0.008649339 -0.07747218 0.02066127
-0.009020852 0.039484795 0.03045399 -0.041505165 0.004251121 0.031095186 -0.03706236 0.078571506
-0.0700101 0.09380097 0.061097983 -0.036600746 -0.029340975 0.05163995 -0.09592878 0.0022644144
0.018705223 -0.020083925 0.08700316 0.05543698 0.030340815 -0.081722185 -0.036459215 -0.01971141
0.011852183 -0.025527861 0.06262701 -0.029679015 -0.02309286 0.084163465 0.085892245 0.029468209
0.048803914 0.08187499 -0.09609172 -0.056837823 -0.071382314 0.062738895 -0.056739174 0.008188454
-0.087932095 0.016671704 -0.020365749 -0.008582853 -0.06007608 -0.04335855 -0.062723026 0.08524322
0.07973873 0.08270763 0.026341658 -0.099808246 -0.01116907 0.03596882 -0.07937193 -0.0010215109
-0.06654 -0.027444765 0.0512212 -0.07936567 -0.030767003 -0.037702095 -0.076794416 0.031698015
-0.06084801 0.0004804544 0.050689552 -0.04357653 -0.025936771 0.015581486 0.03897359 0.09527862
0.028465658 -0.02603146 0.034382813 -0.004458919 0.048772912 -0.077942714 0.062935196 -0.040976666
0.009777873 0.070565455 0.048592735 0.04698698 0.0045562885 -0.0057109683 0.09044433 0.004521712
-0.076672845 -0.08175664 -0.08266531 0.06086962 0.04738015 0.07820849 0.005909587 0.07200975
0.03822028 -0.027148578 0.077248074 -0.05798064 -0.00056216284 0.009699768 0.015647702 0.09850597
-0.04913122 -0.019931799 0.018552698 0.055358287 -0.06864901 0.03336128 0.032409333 0.07151099
-0.02599961 -0.0151507445 -0.035662778 -0.004105069 -0.07606883 0.07898726 0.025586283 0.05888149
00000000: 1574 fbbc b101 4c3c e3ae cebc 4030 a83d
00000010: d4ac 513d d56e a23d ed51 9a3c 295f 7bbd
00000020: da86 97bd 5f0b a9bc 6ac6 8bbd d8b5 5cbd
00000030: a676 96bd ec5c 0bbd be57 99bc 5ca7 5ebd
00000040: 27c8 abbd 584f 88bd 5618 c9bd 0f04 493d
00000050: 93fa c83c dfb3 ff3b ad28 c6bd 667c 283d
00000060: f4eb 3abd a4f4 b23d 86d2 973d 97a6 b63d
00000070: 22b4 023c 670b 5c3d 1db1 aabc 6768 2abd
00000080: 69f2 aa3d 0232 243c 640f 403d a67e 52bd
00000090: 5d7a 98bd d6f7 353d 9bec e6ba 29fc 2cbd
000000a0: 0078 1c3d cdbb 1fbd 58bc 5ebd 3871 073d
000000b0: af36 37bd f877 cdbc 87a6 77bd cde7 5e3d
000000c0: ee3b 753c 6982 bebd 215b 9fbd 5dba c73d
000000d0: 0e74 ac3d 2e99 c9bd dd0e 83bd 7fbc b43d
000000e0: fe66 91bd bf12 b6bc 68b7 c63d 1521 b33d
000000f0: e943 8cbd 55f0 62bd ffc5 7b3d dc54 c6bd
00000100: ad8c b23d a7a7 93bd 371c c4bd ef91 a6bd
00000110: 65fc c43d da65 fd3c 24a8 b93c 800e 943b
00000120: fc06 a1bd 6411 ae3d 5516 ccbc 2098 b83d
00000130: 2b4d d13c ca95 cfba 3aba afbb ccde b9bc
00000140: 26a7 263c c17c adbd e661 823d 42f3 a33d
00000150: 2968 bf3d cea0 98bd c674 583d 27a4 e5bc
00000160: 831a 863d fb4f 223d eb10 28bd 7034 eabc
00000170: 1bad 04bd 02c4 9abb 2011 753c 070e ab3b
00000180: 5731 a93d a60c 9bbc 4847 f3bc 2762 693d
00000190: 9e6d 47bd 9b74 dcba ff9c 203d 3c7e 303c
000001a0: ae5d 86bd d5d0 813c 4263 8f3d 7910 09bd
000001b0: 03c1 603d e9a3 a53d 7e03 bcbd b16a bf3a
000001c0: 0590 fbbc 2537 be3d 2af8 4e3d 219e 91bd
000001d0: 3189 5ebd a29b a8bd 9c44 2f3d 1772 5a3d
000001e0: 95ec 73bd 7a0c 553d 0815 c8bd 1fb0 c63d
000001f0: fb6a c83d 32ec 1b3b 2fbc 213d 5b76 be3d
00000200: c4a6 adbd 6732 abbb a9f3 85bc 5d1d a6bd
00000210: 0c99 af3b f5b5 0d3c bca9 9ebd d341 a93c
00000220: 32cc 13bc cfba 213d a57a f93c 5201 2abd
00000230: fd4c 8b3b 55bb fe3c b4ce 17bd 19ea a03d
00000240: 7561 8fbd b91a c03d e141 7a3d aaea 15bd
00000250: 7c5c f0bc 6a84 533d 4f76 c4bd 9266 143b
00000260: b23b 993c 0b87 a4bc b62e b23d e311 633d
00000270: 4d8d f83c f65d a7bd 4256 15bd d379 a1bc
00000280: a92f 423c ce1f d1bc 9742 803d 6821 f3bc
00000290: 3d2d bdbc e55d ac3d 46e8 af3d 5067 f13c
000002a0: 9de6 473d 13ae a73d bccb c4bd c7ce 68bd
000002b0: e430 92bd 407d 803d 5667 68bd de28 063c
000002c0: be15 b4bd 1993 883c 12d6 a6bc 189f 0cbc
000002d0: 5612 76bd bc98 31bd ee74 80bd ff93 ae3d
000002e0: 0f4e a33d 9e62 a93d 76ca d73c 4468 ccbd
000002f0: 7afe 36bc 0b54 133d c08d a2bd 38e4 85ba
00000300: 2046 88bd d8d3 e0bc 52cd 513d 788a a2bd
00000310: 150b fcbc 836d 1abd 6446 9dbd c7d5 013d
00000320: c33b 79bd 7fe5 fb39 d99f 4f3d 4e7d 32bd
00000330: 5a79 d4bc 7d49 7f3c c5a2 1f3d 7021 c33d
00000340: d030 e93c ee3f d5bc fed4 0c3d 201c 92bb
00000350: 1bc6 473d 6ea0 9fbd 2be4 803d 26d7 27bd
00000360: 5f33 203c 9f84 903d 2d09 473d 6b75 403d
00000370: eb4c 953b 1323 bbbb e03a b93d df2a 943b
00000380: a706 9dbd 0670 a7bd 6e4c a9bd 6c52 793d
00000390: b011 423d c62b a03d 35a5 c13b d979 933d
000003a0: de8c 1c3d b266 debc 3d34 9e3d 1c7d 6dbd
000003b0: 1c5e 13ba c7eb 1e3c 9c2f 803c 7fbd c93d
000003c0: d13d 49bd 0348 a3bc d4fb 973c 5fbf 623d
000003d0: da97 8cbd d6a5 083d a6bf 043d 5b74 923d
000003e0: 22fd d4bc d43a 78bc 2213 12bd d183 86bb
000003f0: fac9 9bbd 13c4 a13d 539a d13c b82d 713d

decoder_net.0.bias f4 [512]
0.0005439641 0.0 -3.338214e-05 0.0 -0.0016395663 0.0 -0.0028086393 0.0
-0.0031111147 0.0019788814 0.0 -0.001813142 -0.00076246116 0.0026230435 0.0 -0.0026408965
-0.002061369 -4.3165233e-05 -0.00119778 -0.0029858197 0.0045940536 -0.000522709 -1.4161746e-05 0.00064474304
0.0 -0.00071646966 0.0019852493 0.0028000788 0.0067291204 0.0 -0.0013878989 -0.0018764707
0.0 -6.022563e-05 0.0 -0.00014399203 -0.00069942407 -0.0020387704 0.0019025182 0.001331142
-0.0023096772 -0.00060696533 0.003124628 -0.0027654755 -0.00025450523 0.00096520584 0.0 -0.0025375355
-0.0022315271 -0.0033519347 0.0031568774 -0.0013399699 0.0033047346 0.0008405613 -0.0021701613 0.0
0.00084612455 0.00020488845 0.0016241664 0.0008053601 0.0 -0.0010891882 -0.0014991717 5.112334e-05
0.0 0.0 0.0 -0.0024187344 0.0 -0.0024007706 -0.0016058002 -0.00034555423
0.0 -0.0013182922 -0.0016700106 0.0 0.0 -0.0010682049 0.0 -0.00030737842
-0.0005037977 -2.1485532e-05 -0.0023897442 0.0 -0.0009427752 0.0 0.0 -0.0002695213
0.0 -0.00049971737 -0.0012993476 -0.0017066784 0.0 0.003258364 0.0021931853 0.0
0.0 0.0 -0.003614844 -0.0023966124 0.0023582652 0.0 0.0009573182 0.001352067
0.0 0.0 -0.00080806337 -0.0019177196 0.0002562624 0.0005319966 0.0065527237 0.0015425957
-0.0020445914 -0.0019734902 0.0 0.0001249787 0.0043155057 0.00012371625 -0.004857862 0.00084067887
-0.0016919625 0.0028356533 0.0 0.0034159226 0.0038496382 0.0 0.0 0.00026178427
0.0 0.0015564088 -0.0035665594 0.0 0.0033060168 0.0 -0.00048038506 0.0010809598
-0.0009981355 0.0 0.00043929362 -0.0003875864 -0.002091688 0.0014625206 -0.00084103993 0.0
-0.0022163042 0.0 0.0 0.0004082198 -0.0022783212 0.00047781144 -0.0012816127 -0.0003443933
0.0 -0.00087423954 0.004087865 0.004395431 0.0042540585 0.0025812201 0.0028842762 0.0
-0.0036958896 -0.0036652023 0.0 0.0026049502 -0.001961626 -0.00171636 0.0025759584 0.006045771
0.0 0.00429773 -0.00014413119 -0.0016224043 0.0 -0.0007710182 9.0924565e-05 -0.0019457241
0.0 -0.0025463451 0.002879621 0.002860523 0.00029988674 0.0016970583 0.0042881677 -0.002537648
-0.00025920602 -0.0010154379 0.0024250408 0.0 -0.0026394732 0.0 0.0 -0.0042442223
-0.0032524087 0.0016134909 -0.0013732917 0.0023316725 0.0021892258 0.0 -0.00011384454 0.0
-0.0022614375 -0.0014983314 -3.807616e-05 -0.0033733316 -0.0018313881 -0.002838663 -0.0039957454 0.0010504237
0.0030500572 0.0016386714 -0.00029558816 -0.00026797055 0.0019395077 -0.00090890954 0.0013594439 0.00478426
0.0003052632 0.0 -0.0017420319 0.0005116508 -0.0022070615 -0.0015109398 -0.0015455288 0.0
-0.0004981061 -0.00016241326 0.0 0.0 0.0 0.0 0.0 0.0035269256
0.0032148452 0.0 0.0 -0.0038344935 -0.0017839074 -0.0027479092 -0.00029316457 0.0
0.00046810295 -0.0021193088 0.0031732772 -0.002040079 0.0018192029 0.0031019521 0.0010523268 -0.0014798365
0.0 0.0 0.0 -0.002487339 0.0006342996 0.0025127619 -0.0008854218 0.006206124
00000000: d098 0e3a 0000 0000 cd03 0cb8 0000 0000
00000010: b7e6 d6ba 0000 0000 2611 38bb 0000 0000
00000020: d8e3 4bbb 1fb0 013b 0000 0000 f3a6 edba
00000030: e7df 47ba 5ee7 2b3b 0000 0000 e412 2dbb
00000040: 0818 07bb 510c 35b8 d4fe 9cba bead 43bb
00000050: b789 963b 6806 09ba 3c98 6db7 f903 293a
00000060: 0000 0000 77d1 3bba f51a 023b 8781 373b
00000070: f47f dc3b 0000 0000 29ea b5ba e9f3 f5ba
00000080: 0000 0000 c79a 7cb8 0000 0000 91fc 16b9
00000090: 8e59 37ba e49c 05bb eb5d f93a b779 ae3a
000000a0: f45d 17bb c11c 1fba 8fc6 4c3b fb3c 35bb
000000b0: 1d6f 85b9 de05 7d3a 0000 0000 c84c 26bb
000000c0: d03e 12bb 22ac 5bbb 9de3 4e3b eea1 afba
000000d0: 3f94 583b 1d59 5c3a 4439 0ebb 0000 0000
000000e0: 75ce 5d3a 53d7 5639 fbe1 d43a cd1e 533a
000000f0: 0000 0000 17c3 8eba db7f c4ba 456d 5638
00000100: 0000 0000 0000 0000 0000 0000 a183 1ebb
00000110: 0000 0000 3f56 1dbb b779 d2ba 812b b5b9
00000120: 0000 0000 8cca acba 42e4 daba 0000 0000
00000130: 0000 0000 0203 8cba 0000 0000 a227 a1b9
00000140: 4b11 04ba d43b b4b7 419d 1cbb 0000 0000
00000150: 9324 77ba 0000 0000 0000 0000 894e 8db9
00000160: 0000 0000 77ff 02ba df4e aaba a0b2 dfba
00000170: 0000 0000 478a 553b 8bbb 0f3b 0000 0000
00000180: 0000 0000 0000 0000 05e7 6cbb 7c10 1dbb
00000190: 208d 1a3b 0000 0000 89f4 7a3a d737 b13a
000001a0: 0000 0000 0000 0000 37d4 53ba fe5b fbba
000001b0: f55a 8639 b075 0b3a 3bb8 d63b ec30 ca3a
000001c0: 8dfe 05bb ac55 01bb 0000 0000 b70c 0339
000001d0: 1669 8d3b d4b9 0139 b32e 9fbb 0161 5c3a
000001e0: d7c4 ddba 5ed6 393b 0000 0000 acdd 5f3b
000001f0: 364a 7c3b 0000 0000 0000 0000 1740 8939
00000200: 0000 0000 6a00 cc3a f0bc 69bb 0000 0000
00000210: c2a9 583b 0000 0000 31dc fbb9 feae 8d3a
00000220: dfd3 82ba 0000 0000 fe50 e639 f734 cbb9
00000230: b414 09bb 0cb2 bf3a 3c79 5cba 0000 0000
00000240: 6a3f 11bb 0000 0000 0000 0000 5606 d639
00000250: e34f 15bb c482 fa39 c9fb a7ba b08f b4b9
00000260: 0000 0000 392d 65ba 7ff3 853b 8c07 903b
00000270: a165 8b3b b029 293b 2006 3d3b 0000 0000
00000280: bd36 72bb e433 70bb 0000 0000 d0b7 2a3b
00000290: a08e 00bb 7cf7 e0ba 69d1 283b 9a1b c63b
000002a0: 0000 0000 f9d3 8c3b ec21 17b9 dba6 d4ba
000002b0: 0000 0000 281e 4aba c1ae be38 ab07 ffba
000002c0: 0000 0000 95e0 26bb 06b8 3c3b 9d77 3b3b
000002d0: 1e3a 9d39 d46f de3a c283 8c3b ab4e 26bb
000002e0: 0be6 87b9 7118 85ba 6fed 1e3b 0000 0000
000002f0: 03fb 2cbb 0000 0000 0000 0000 1e13 8bbb
00000300: 5d26 55bb c57b d33a 0600 b4ba f9ce 183b
00000310: 1d79 0f3b 0000 0000 d2bf eeb8 0000 0000
00000320: a034 14bb a963 c4ba f7b3 1fb8 1d13 5dbb
00000330: 300b f0ba dd08 3abb beee 82bb 5fae 893a
00000340: 78e3 473b b0c8 d63a 2cf9 9ab9 667e 8cb9
00000350: 1437 fe3a e343 6eba 5e2f b23a 48c5 9c3b
00000360: bc0b a039 0000 0000 e454 e4ba 4e20 063a
00000370: 59a4 10bb ba0a c6ba 5793 caba 0000 0000
00000380: 5693 02ba 7a4d 2ab9 0000 0000 0000 0000
00000390: 0000 0000 0000 0000 0000 0000 fe23 673b
000003a0: 27b0 523b 0000 0000 0000 0000 204c 7bbb
000003b0: 00d2 e9ba 4416 34bb e2b3 99b9 0000 0000
000003c0: b76b f539 1ae4 0abb c2f6 4f3b d9b2 05bb
000003d0: 5272 ee3a 1f4a 4b3b 3aee 893a 13f7 c1ba
000003e0: 0000 0000 0000 0000 0000 0000 a002 23bb
000003f0: 2047 263a 26ad 243b a71b 68ba be5c cb3b

decoder_net.2.weight f4 [512]
0.99941844 0.9988321 0.9967361 0.993539 0.99744076 0.9991578 0.9972908 0.9983799
0.9935921 0.9965812 0.994532 0.99907184 0.9890296 0.99176794 1.0011908 1.0005267
0.9993346 1.0028871 0.9962723 0.9941951 1.0012547 0.9944164 0.9975071 0.9968112
0.9917134 0.9940181 0.9930201 0.9989617 1.0038427 0.9983091 0.99470764 0.9918661
0.99659383 0.99021715 0.9998531 0.9972261 0.9993041 0.993794 0.99449354 0.9956383
0.9912751 0.99790215 1.0008668 0.99922055 0.9934097 0.9836377 0.9973979 0.98837054
0.98805875 0.9916658 0.99637496 0.99649066 0.99746966 0.9969082 0.9938714 1.001726
1.0038517 0.99318224 0.99494505 0.9975418 0.99862057 0.9955998 0.9967401 0.99811506
0.997932 0.9971086 0.99626255 0.9989308 0.99454355 0.99305874 0.9983548 0.994895
0.99852043 0.99331987 0.985273 1.0005407 0.99772376 0.9976235 0.99428266 0.9968274
0.98893404 0.997889 0.9908593 0.99885845 0.9970197 0.99701566 0.9952525 0.9803208
1.0018152 0.9982889 0.99873334 0.9976244 0.9991037 0.999861 0.98610693 0.9971443
0.99726677 1.0001878 0.99074924 0.99329203 0.9981756 0.9990237 1.0001433 0.996621
0.9942841 0.99240315 1.0011594 1.0004518 0.9921889 0.9949985 1.0032126 0.9997868
0.9964995 1.0021088 0.99628055 0.9921137 0.9949196 0.99568635 0.9918655 0.99754417
0.9850978 0.9960747 0.99494743 0.99993324 0.9989341 1.0040443 0.99239 0.99217194
0.99631745 0.99431497 0.9984271 0.9936787 0.9898177 0.9942218 0.9947769 0.9912561
0.9958739 0.9933911 0.99831283 0.9978807 0.99154013 1.0000211 0.9829206 1.0009667
0.99859226 0.99944633 0.9960842 0.99651784 0.99372506 0.99738216 1.0022879 0.9953458
0.99724215 0.9980812 1.001373 1.0002621 0.9997533 0.98879796 0.99377215 0.99823105
0.9873246 0.9958624 0.99862814 0.9985987 0.9907511 0.99527514 0.997891 1.0024431
0.9967297 1.0013015 0.99548084 0.9958504 1.0026196 0.9980858 0.9944605 1.0056635
0.99596506 0.9971122 0.99415696 0.9965334 0.9959359 0.99122226 1.0001571 0.9974471
0.99737996 0.99356854 0.99715143 0.9906532 0.9968537 0.99712163 0.99598926 0.9915903
1.0026143 0.99061483 0.9934232 0.99582773 0.9983138 1.0033672 0.9918716 0.9994095
0.99649256 0.9959092 0.9974923 0.9977119 0.99732816 0.99808514 0.99791044 0.99798167
0.99617606 0.9959647 0.99514914 0.9952579 0.9974558 0.9988546 0.9966072 0.9948555
0.9992334 0.9995381 0.99558973 0.99792683 1.0003049 0.9945428 0.9963411 1.0007104
0.99522305 0.9991226 0.99810874 0.996565 0.9980896 0.9938534 0.9960506 0.99627507
0.9995603 0.9968284 0.9981372 0.99786824 0.9945704 0.99810964 1.0024232 0.9978656
1.000924 0.9953803 0.99914306 0.9983146 0.9916291 0.99968344 0.99451727 0.9984553
0.9956655 0.99987847 0.99590945 0.9919753 0.9988285 0.9926872 0.99894446 1.0018953
00000000: e3d9 7f3f 76b3 7f3f 192a 7f3f 9258 7e3f
00000010: 4758 7f3f cec8 7f3f 734e 7f3f d395 7f3f
00000020: 0d5c 7e3f f21f 7f3f a699 7e3f 2cc3 7f3f
00000030: 0b31 7d3f 81e4 7d3f 0527 803f 4211 803f
00000040: 64d4 7f3f 9b5e 803f b40b 7f3f 9283 7e3f
00000050: 1d29 803f 1392 7e3f a05c 7f3f 052f 7f3f
00000060: eee0 7d3f f877 7e3f 9136 7e3f f4bb 7f3f
00000070: eb7d 803f 2f91 7f3f 29a5 7e3f f0ea 7d3f
00000080: c620 7f3f df7e 7d3f 5ff6 7f3f 364a 7f3f
00000090: 65d2 7f3f 4969 7e3f 2197 7e3f 27e2 7e3f
000000a0: 34c4 7d3f 8476 7f3f 671c 803f ebcc 7f3f
000000b0: 1950 7e3f aecf 7b3f 7855 7f3f da05 7d3f
000000c0: 6bf1 7c3f cfdd 7d3f 6e12 7f3f 031a 7f3f
000000d0: 2c5a 7f3f 6035 7f3f 5b6e 7e3f 8f38 803f
000000e0: 367e 803f 3141 7e3f b8b4 7e3f e65e 7f3f
000000f0: 99a5 7f3f a1df 7e3f 5c2a 7f3f 7884 7f3f
00000100: 7978 7f3f 8242 7f3f 100b 7f3f eeb9 7f3f
00000110: 689a 7e3f 1939 7e3f 2e94 7f3f 70b1 7e3f
00000120: 099f 7f3f 364a 7e3f da3a 7c3f b811 803f
00000130: d36a 7f3f 4164 7f3f 4f89 7e3f 1530 7f3f
00000140: c82a 7d3f a775 7f3f f5a8 7d3f 30b5 7f3f
00000150: af3c 7f3f 6b3c 7f3f dec8 7e3f 4ef6 7a3f
00000160: 7b3b 803f dd8f 7f3f fdac 7f3f 5064 7f3f
00000170: 43c5 7f3f e4f6 7f3f 8171 7c3f d944 7f3f
00000180: e04c 7f3f 2706 803f bea1 7d3f 6348 7e3f
00000190: 7088 7f3f 04c0 7f3f b204 803f 8e22 7f3f
000001a0: 6789 7e3f 220e 7e3f fe25 803f ce0e 803f
000001b0: 1700 7e3f 39b8 7e3f 4569 803f 07f2 7f3f
000001c0: 971a 7f3f 1a45 803f 3e0c 7f3f 2afb 7d3f
000001d0: 0db3 7e3f 4de5 7e3f e6ea 7d3f 0e5f 7f3f
000001e0: 5f2f 7c3f c0fe 7e3f e0b4 7e3f a0fb 7f3f
000001f0: 25ba 7f3f 8684 803f 450d 7e3f fbfe 7d3f
00000200: a90e 7f3f 6d8b 7e3f eb98 7f3f ba61 7e3f
00000210: b164 7d3f 5285 7e3f b3a9 7e3f f6c2 7d3f
00000220: 98f1 7e3f e14e 7e3f 6e91 7f3f 1c75 7f3f
00000230: 93d5 7d3f b100 803f afa0 7b3f ad1f 803f
00000240: bea3 7f3f b7db 7f3f 60ff 7e3f cb1b 7f3f
00000250: c464 7e3f 7054 7f3f f84a 803f fbce 7e3f
00000260: 434b 7f3f 4082 7f3f fe2c 803f 9708 803f
00000270: d5ef 7f3f dd21 7d3f da67 7e3f 128c 7f3f
00000280: 4ec1 7c3f d7f0 7e3f 18a6 7f3f 2aa4 7f3f
00000290: dda1 7d3f 5aca 7e3f c975 7f3f 0e50 803f
000002a0: ad29 7f3f a62a 803f d5d7 7e3f 0df0 7e3f
000002b0: d755 803f 8d82 7f3f f794 7e3f 95b9 803f
000002c0: 91f7 7e3f bf42 7f3f 1281 7e3f d01c 7f3f
000002d0: a8f5 7e3f bec0 7d3f 2605 803f b158 7f3f
000002e0: 4b54 7f3f 825a 7e3f 5145 7f3f 739b 7d3f
000002f0: ce31 7f3f 5d43 7f3f 27f9 7e3f ddd8 7d3f
00000300: aa55 803f ef98 7d3f fc50 7e3f 91ee 7e3f
00000310: 7e91 7f3f 566e 803f 4ceb 7d3f 4dd9 7f3f
00000320: 231a 7f3f e8f3 7e3f a85b 7f3f 0c6a 7f3f
00000330: e650 7f3f 8282 7f3f 0f77 7f3f ba7b 7f3f
00000340: 6505 7f3f 8bf7 7e3f 18c2 7e3f 39c9 7e3f
00000350: 4359 7f3f efb4 7f3f a621 7f3f daae 7e3f
00000360: c3cd 7f3f bbe1 7f3f f8de 7e3f 2278 7f3f
00000370: fe09 803f 5b9a 7e3f 3610 7f3f 4717 803f
00000380: f0c6 7e3f 80c6 7f3f 0e84 7f3f e21e 7f3f
00000390: cd82 7f3f 2d6d 7e3f 2cfd 7e3f e20b 7f3f
000003a0: 2fe3 7f3f 2530 7f3f eb85 7f3f 4b74 7f3f
000003b0: 2a9c 7e3f 1d84 7f3f 674f 803f 1f74 7f3f
000003c0: 471e 803f 3ed1 7e3f d7c7 7f3f 8c91 7f3f
000003d0: 68db 7d3f 41eb 7f3f af98 7e3f c49a 7f3f
000003e0: efe3 7e3f 09f8 7f3f ecf3 7e3f 18f2 7d3f
000003f0: 39b3 7f3f c020 7e3f d3ba 7f3f 1b3e 803f

decoder_net.2.bias f4 [512]
0.00069299724 -0.0017369603 0.00043210475 0.0038618625 -0.00023384717 -0.0018489904 -0.00037743093 -0.0010431167
-0.0030313132 0.0021340726 0.0026792863 -0.002074067 -0.00011102706 0.0029337252 -0.0040067118 -0.0045934315
-0.0022229713 -0.0057617123 -0.00022430284 -0.0030468598 0.004763607 0.0026349328 0.0001751093 0.0007043102
0.0055721123 0.0031240024 0.0021631606 0.0029997996 0.0071829283 -0.0010956704 -0.0012869908 -0.0018440686
0.00074385246 0.00019210114 -0.0026484225 -0.00067225547 -0.0015766722 -0.0019845765 0.0019847045 0.0015393222
-0.0019168495 -0.00068148714 0.0033618566 -0.0029536483 -0.00020391887 0.0012069272 -0.0002758262 -0.0024437802
-0.0021590567 -0.0032088747 0.0033694417 0.00064105436 0.003799974 0.0010499803 0.0034881239 -0.0046531977
-0.00178462 0.00024517512 0.0018960447 0.00027087098 -0.0014190093 -0.0009963907 0.000428983 0.0001843108
-0.0007008132 6.682237e-05 0.0010206236 -0.0018898207 0.0028159653 0.0016524534 -0.0011348687 0.0023831825
-0.0012833669 -0.001396002 -0.0015236309 -0.0035467166 -0.00041134143 -0.00023957403 0.0029781742 0.0005658941
-0.00039368702 -0.00094377366 0.005802767 -0.0015704237 0.00036620587 0.00033054812 0.002105168 -0.00018147475
-0.0046381988 -0.0009835798 -0.0015936854 -0.00038377606 -0.0020505034 0.0035218587 0.002571466 7.651582e-05
0.000116699004 -0.0031941256 -0.0036116664 -0.002409201 0.0025239154 -0.001704938 -0.0035999918 0.0016189072
0.0030900822 0.0047763363 -0.004058726 -0.0058484203 0.00032922177 0.0007167124 0.007024269 0.001616929
0.0007552493 -0.00500723 0.0010148999 0.00056485453 0.0038893102 0.00016982562 -0.0046819937 0.00095965894
-0.0017444122 0.0028929878 0.0022072776 0.0036275934 0.004146862 -0.0069302786 0.0047907652 1.8712213e-05
0.00090984354 0.0017759295 -0.0048952587 0.0035982311 0.0012577818 0.002985493 -0.000400278 0.0012389398
-0.00089200406 0.003721454 -0.0013948708 -0.00066365226 -0.0019931833 0.0017238788 -0.0007991034 -0.0037251555
-0.0027450882 -0.002173998 0.0010223114 0.0005854129 -0.002305969 -0.0016326678 -0.005390756 -0.00084514165
-0.0001282608 -0.00080040796 0.0042659384 0.004666342 0.0046261097 0.0028310185 0.0024376449 -0.0010903112
-0.0034367773 0.00021080305 -0.001381831 0.0027233036 -0.002374545 0.0019188286 0.002978305 0.006167038
0.0005396251 0.0045032557 0.0018288328 0.001297284 -0.005422704 -0.0008839897 0.00016681517 -0.008759923
0.0013689237 -0.0005885832 0.003088925 0.0030648548 0.00048153914 0.0017005642 0.004421996 -0.00053611177
-0.00012672329 0.0035130174 0.0025167249 0.0066796257 0.00036955086 4.3631502e-05 0.0011695076 -0.0041886037
-0.0056435084 0.0017910739 0.003864061 0.0026388979 0.0023833297 -0.006347214 0.0005478191 -0.0024312243
0.0005238523 -0.0013818083 0.00013084673 -0.0013702228 -0.0016851681 -0.0021556774 -0.002407394 0.0010375927
0.0033527624 0.0018577368 -0.00024035822 0.002137697 0.0012228241 -0.001563215 0.0014534084 0.004945701
-0.0022625327 -0.002547621 0.0017502047 0.0007339593 -0.003349206 0.001692942 0.000828957 -0.0036243293
0.0017396106 -0.001997201 -0.0009503708 0.00059338723 -0.000803812 0.003303769 0.0011886556 0.0038298527
0.0033945697 0.0005219754 -0.0009048992 -0.0029696396 0.0024897149 -0.0018372692 -0.005316667 -0.0004977896
0.00068205537 0.0018765193 0.0033110261 -0.0010189693 0.002019099 0.003271149 0.0019029991 -0.0010721155
0.0014520119 -0.00273995 0.0012459263 -0.0025121009 -0.0016098086 0.002655197 -0.0016445649 0.006531919
00000000: 42aa 353a b7aa e3ba 1e8c e239 4d17 7d3b
00000010: df34 75b9 d359 f2ba ece1 c5b9 30b9 88ba
00000020: ffa8 46bb ccdb 0b3b f796 2f3b 12ed 07bb
00000030: 33d7 e8b8 be43 403b bc4a 83bb 7f84 96bb
00000040: 45af 11bb bfcc bcbb d632 6bb9 d3ad 47bb
00000050: 0818 9c3b d6ae 2c3b 8b9d 3739 75a1 383a
00000060: 4496 b63b 10bc 4c3b d0c3 0d3b 4998 443b
00000070: c55e eb3b 999c 8fba 3fb0 a8ba adb4 f1ba
00000080: 18ff 423a c26e 4939 2891 2dbb 4d3a 30ba
00000090: 57a8 ceba ab0f 02bb d111 023b 15c3 c93a
000000a0: cc3e fbba d4a5 32ba 9852 5c3b ff91 41bb
000000b0: 0ed3 55b9 c231 9e3a c49c 90b9 d427 20bb
000000c0: f67e 0dbb fc4b 52bb dad1 5c3b 6e0c 283a
000000d0: fc08 793b 7e9f 893a 0299 643b da79 98bb
000000e0: e9e9 e9ba d98a 8039 b484 f83a b003 8e39
000000f0: 0dfe b9ba 5399 82ba 20e9 e039 8e43 4139
00000100: c7b6 37ba fd22 8c38 72c6 853a dcb3 f7ba
00000110: 0f8c 383b 2397 d83a e0bf 94ba 2b2f 1c3b
00000120: a636 a8ba 0efa b6ba 92b4 c7ba 0870 68bb
00000130: 50a9 d7b9 2a36 7bb9 792d 433b 8358 143a
00000140: c767 ceb9 9467 77ba 2325 be3b add6 cdba
00000150: 52ff bf39 6b4d ad39 dcf6 093b 424a 3eb9
00000160: 08fc 97bb 76eb 80ba 35e3 d0ba 8d35 c9b9
00000170: bd61 06bb fcce 663b 0a86 283b 1e77 a038
00000180: 4dbc f438 8954 51bb b5b1 6cbb b0e3 1dbb
00000190: 4668 253b 3a78 dfba d7ed 6bbb 8331 d43a
000001a0: fa82 4a3b d082 9c3b 10ff 84bb 1ba4 bfbb
000001b0: 669b ac39 c1e1 3b3a d72b e63b 22ef d33a
000001c0: ecfb 453a b113 a4bb 6406 853a bf12 143a
000001d0: cce3 7e3b 3813 3239 696b 99bb 9f91 7b3a
000001e0: c3a4 e4ba 4898 3d3b f9a7 103b ebbc 6d3b
000001f0: 66e2 873b 6417 e3bb dafb 9c3b 2cf8 9c37
00000200: 9182 6e3a 4ec6 e83a 6868 a0bb 4dd0 6b3b
00000210: 27dc a43a 43a8 433b 67dc d1b9 ec63 a23a
00000220: 61d5 69ba a3e3 733b 19d4 b6ba f3f8 2dba
00000230: 11a0 02bb c6f3 e13a ec7a 51ba bd21 74bb
00000240: f0e6 33bb a279 0ebb 14ff 853a 6576 193a
00000250: bd1f 17bb 3eff d5ba f0a4 b0bb 7f8c 5dba
00000260: bf7d 06b9 78d2 51ba 49c9 8b3b 1de8 983b
00000270: 9f96 973b 9c88 393b e5c0 1f3b c6e8 8eba
00000280: 8e3b 61bb 030b 5d39 8e1e b5ba 7479 323b
00000290: 419e 1bbb 3481 fb3a ab2f 433b dd14 ca3b
000002a0: a175 0d3a 0c90 933b 72b5 ef3a a109 aa3a
000002b0: f0b0 b1bb 8bbb 67ba 1beb 2e39 c885 0fbc
000002c0: 756d b33a 264b 1aba 906f 4a3b bbdb 483b
000002d0: 1777 fc39 77e5 de3a 64e6 903b da89 0cba
000002e0: 06e1 04b9 a73a 663b a3ef 243b c3e0 da3b
000002f0: 47c0 c139 f800 3738 2a4a 993a 8e40 89bb
00000300: 2eed b8bb 78c2 ea3a 303c 7d3b 5cf1 2c3b
00000310: a331 1c3b 4afc cfbb 849b 0f3a 2d55 1fbb
00000320: 2253 093a cb1d b5ba e733 0939 0c99 b3ba
00000330: dce0 dcba 4446 0dbb 5ec5 1dbb d5ff 873a
00000340: 05ba 5b3b 4e7f f33a ab08 7cb9 9b18 0c3b
00000350: 2b47 a03a cbe4 ccba 4b80 be3a 8c0f a23b
00000360: 0047 14bb fdf5 26bb 2067 e53a 2d67 403a
00000370: 5a7e 5bbb b5e5 dd3a 5d4e 593a 2886 6dbb
00000380: a503 e43a 79e3 02bb 4e22 79ba 8b8d 1b3a
00000390: e9b6 52ba 0c84 583b aacc 9b3a 44fe 7a3b
000003a0: 6e77 5e3b 2dd5 083a c236 6dba 499e 42bb
000003b0: 7c2a 233b 86d0 f0ba 6f37 aebb 187e 02ba
000003c0: f6cb 323a 8af5 f53a cdfd 583b f08e 85ba
000003d0: dc52 043b c660 563b 0e6e f93a 3a86 8cba
000003e0: 6f51 be3a bc90 33bb 594e a33a 0fa2 24bb
000003f0: 3700 d3ba d002 2e3b 718e d7ba b509 d63b

decoder_net.3.weight f4 [256, 512]
-0.054961458 0.0011622204 0.028566528 0.05652934 0.010748157 -0.06856795 -0.035056524 -0.033106647
-0.016003095 0.0342637 0.018487534 0.02077295 0.0374944 -0.069354005 0.013192235 0.06621436
0.07592428 0.059911065 -0.02319368 -3.9514445e-05 0.017157976 0.05086478 0.055863835 0.046682663
0.027970774 0.037791204 -0.07294662 -0.083033204 -0.032520697 0.014409017 -0.07711124 -0.016914124
-0.045287706 0.02781776 0.09590779 -0.0699633 0.05966897 -0.022111295 -0.038535252 0.050241545
-0.049290065 -0.039850336 -0.09838999 0.026535602 -0.023704551 0.009388055 0.012372593 -0.08159129
-0.010328976 -0.05765843 -0.099423155 0.09611865 0.01769063 0.0461783 -0.020034924 0.026808608
-0.060015913 -0.004531615 -0.010969981 0.032059412 0.037930004 -0.04427254 -0.044426184 0.04275816
0.09573368 -0.03087534 0.06264645 0.004467596 -0.018369308 0.010474297 -0.06594255 0.07712245
-0.06255844 0.041343585 -0.048989315 0.04498193 0.028078388 -0.024989959 0.06850077 -0.043997955
0.036770992 -0.06308131 -0.057555374 -0.041031554 0.05972075 -0.02636721 0.099211276 -0.0148880575
-0.0037729987 0.07907467 0.09582986 0.09068651 -0.07088299 -0.010644239 0.03405025 -0.073243186
0.091579325 0.061318126 -0.005944718 -0.061029613 0.07185825 -0.043529812 0.060371786 -0.06094531
0.082233734 0.0035827644 0.08447351 0.05882405 -0.059419315 0.07005037 -0.08349568 0.029013058
0.09682877 -0.05136653 -0.045631155 0.048866346 0.08236195 -0.0017692506 0.013982741 -0.0072120363
-0.079435244 -0.054236993 0.065551676 -0.051029835 -0.0066265822 0.008303374 0.012024465 0.013348473
-0.040375806 -0.0225101 0.015754897 -0.0073528136 -0.05988219 0.05169861 0.00013651823 -0.07357381
-0.066987835 0.007822352 0.04935609 -0.00039299182 0.06545541 -0.06285777 0.014317182 0.085404694
-0.03791419 0.019445172 0.06980219 -0.07433973 -0.07105582 -0.0691583 -0.003791012 0.058010723
0.020518228 0.08699361 0.019084355 -0.06358152 -0.064784415 -0.030897656 0.007118779 0.06445885
0.059206292 -0.022761414 0.04766921 -0.08659219 -0.03901996 0.07482183 -0.08875133 0.05482068
0.056926835 -0.0052215736 -0.015788587 0.08426334 0.023132257 -0.032945726 -0.020768791 -0.050027646
0.020960014 0.007979776 -0.016416105 -0.07111764 -0.08116738 -0.007848792 -0.049591165 -0.011940528
0.08777319 0.046117462 0.059167556 0.05364984 -0.0052110166 0.023171166 0.04450982 0.058467675
0.031728588 -0.06388067 0.07009912 -0.047224734 -0.042939633 0.020020977 -0.03125238 0.068254665
0.035889868 -0.08345204 0.030490551 -0.06857511 0.010321316 -0.063321784 0.010123032 -0.05533319
0.0032220413 0.03542365 -0.06830764 -0.008684614 0.030202312 -0.012634999 -0.03658386 0.0031025256
0.09634134 -0.06251721 0.02384898 -0.059803683 -0.03742433 0.015509525 0.09416176 -0.024069699
0.00455176 -0.021363853 -0.0132159935 0.011752491 0.036581155 -0.021592528 0.04424675 -0.033695277
-0.012368163 -0.041194458 -0.055135965 -0.053581372 -0.0014449223 -0.05474401 0.07799216 0.046238776
-0.08735814 -0.07451781 -0.05794783 -0.07127347 -0.09063837 -0.026611986 0.08621862 0.09300509
-0.009696886 -0.019899048 0.03553129 0.022430168 0.05634123 0.020109775 0.021700757 -0.08695075
00000000: 441f 61bd a555 983a 5a04 ea3c 4f8b 673d
00000010: 0a19 303c 5a6d 8cbd 6e97 0fbd d69a 07bd
00000020: ec18 83bc 1858 0c3d 2b73 973c 092c aa3c
00000030: ba93 193d 7909 8ebd 3e24 583c 659b 873d
00000040: 307e 9b3d 4e65 753d ac00 bebc 50bc 25b8
00000050: e28e 8c3c 9657 503d 7ad1 643d 5236 3f3d
00000060: f722 e53c f3ca 1a3d 0a65 95bd 500d aabd
00000070: 6c34 05bd cc13 6c3c 7fec 9dbd 7d8f 8abc
00000080: 9a7f 39bd 12e2 e33c 4e6b c43d eb48 8fbd
00000090: 7367 743d bf22 b5bc 24d7 1dbd 14ca 4d3d
000000a0: 61e4 49bd 1b3a 23bd b180 c9bd 3161 d93c
000000b0: 0c30 c2bc 5bd0 193c 6bb6 4a3c 5619 a7bd
000000c0: de3a 29bc 3f2b 6cbd 5e9e cbbd dbd9 c43d
000000d0: f1eb 903c 7525 3d3d 4820 a4bc ba9d db3c
000000e0: 3fd3 75bd f17d 94bb 6fbb 33bc bb50 033d
000000f0: 7e5c 1b3d 1f57 35bd 3bf8 35bd 2e23 2f3d
00000100: 0510 c43d 48ee fcbc c84c 803d e964 923b
00000110: 3b7b 96bc 639c 2b3c e30c 87bd 60f2 9d3d
00000120: a41e 80bd e457 293d 05a9 48bd f93e 383d
00000130: a604 e63c beb7 ccbc 224a 8c3d 3337 34bd
00000140: 2e9d 163d c630 81bd 2fbf 6bbd b410 28bd
00000150: bf9d 743d 0c00 d8bc 482f cb3d 0aed 73bc
00000160: 6a44 77bb e7f1 a13d 7242 c43d d9b9 b93d
00000170: 1a2b 91bd 2d65 2ebc 4678 0b3d 8600 96bd
00000180: f18d bb3d b728 7b3d e9cb c2bb 30fa 79bd
00000190: 6b2a 933d 514c 32bd 6848 773d caa1 79bd
000001a0: 296a a83d d0cc 6a3b 7300 ad3d 7df1 703d
000001b0: ab61 73bd 9276 8f3d c8ff aabd cbac ed3c
000001c0: 2a4e c63d b665 52bd bce7 3abd 1428 483d
000001d0: 62ad a83d 33e6 e7ba de17 653c f252 ecbb
000001e0: f2ae a2bd 9c27 5ebd f53f 863d a904 51bd
000001f0: cd23 d9bb e00a 083c 4302 453c 8eb3 5a3c
00000200: 1a61 25bd 1a67 b8bc 6a10 813c dfef f0bb
00000210: 0747 75bd ecc1 533d 5526 0f39 dead 96bd
00000220: eb30 89bd 5329 003c 9d29 4a3d 780a ceb9
00000230: 7c0d 863d 93bb 80bd 9d92 6a3c a8e8 ae3d
00000240: e94b 1bbd 7b4b 9f3c 73f4 8e3d 6e3f 98bd
00000250: b785 91bd dea2 8dbd a172 78bb a79c 6d3d
00000260: d815 a83c b529 b23d cb56 9c3c 0737 82bd
00000270: b1ad 84bd 151d fdbc a544 e93b 0003 843d
00000280: 4c82 723d 2576 babc ca40 433d 3f57 b1bd
00000290: 65d3 1fbd 303c 993d 42c3 b5bd a68b 603d
000002a0: 1d2c 693d bc19 abbb 1157 81bc 4292 ac3d
000002b0: dc7f bd3c 19f2 06bd 5023 aabc cae9 4cbd
000002c0: 56b4 ab3c 9bbd 023c 117b 86bc 20a6 91bd
000002d0: 153b a6bd 3898 00bc 1b20 4bbd 34a2 43bc
000002e0: 6ec2 b33d aae5 3c3d ae59 723d efbf 5b3d
000002f0: 2dc1 aabb 75d1 bd3c ee4f 363d cd7b 6f3d
00000300: d6f5 013d ded3 82bd 2190 8f3d b96e 41bd
00000310: 78e1 2fbd 0803 a43c 7f02 00bd 1ac9 8b3d
00000320: 4101 133d e7e8 aabd 52c7 f93c 1b71 8cbd
00000330: bd1a 293c daae 81bd 13db 253c 0ea5 62bd
00000340: e228 533b 6418 113d e0e4 8bbd e949 0ebc
00000350: d76a f73c 0703 4fbc f5d8 15bd be53 4b3b
00000360: 9c4e c53d 0609 80bd f05e c33c b5f4 74bd
00000370: 414a 19bd aa1b 7e3c e1d7 c03d d12d c5bc
00000380: ee26 953b 3f03 afbc e587 58bc 858d 403c
00000390: 1fd6 153d d0e2 b0bc 153c 353d 0f04 0abd
000003a0: d6a3 4abc 85bb 28bd 40d6 61bd 2478 5bbd
000003b0: 8c63 bdba 413b 60bd 5bba 9f3d df64 3d3d
000003c0: d3e8 b2bd cb9c 98bd b45a 6dbd d3f7 91bd
000003d0: 9ca0 b9bd 6101 dabc 6393 b03d 7479 be3d
000003e0: b0df 1ebc 5403 a3bc 4289 113d 79bf b73c
000003f0: 10c6 663d 41bd a43c c9c5 b13c 3c13 b2bd

decoder_net.3.bias f4 [256]
-0.011097395 -0.011463401 -2.4624194e-05 -0.008023946 -0.011085541 -0.009296653 -0.011095222 -0.011089849
-9.2776696e-05 -0.0110932095 -0.010925773 0.0007953473 -0.011089854 -0.011078322 0.0015571273 -0.011087857
0.0031471334 -0.005172742 -0.0009594992 -0.011769562 0.0021757015 -0.0007494113 -0.0043723793 -0.00240714
-0.0070145857 0.003011111 -0.011092421 0.0016359801 0.0019305072 -0.011085158 -0.01096653 -0.011084457
0.004161915 -0.010861814 -0.011089322 -0.0015513753 0.0001977329 -0.01108634 -0.011083653 -0.0007733243
-0.0031340152 0.0027358725 -0.005561342 -0.0019454039 -0.005822654 -0.011103498 0.002420055 -0.0047334577
0.00084019144 -0.011087773 -0.0033966627 0.0020969766 0.0035466752 -0.009183755 -0.011081437 0.0023320317
-0.0029876782 -0.0038054597 -0.0033482506 0.0014900615 -0.011086827 0.001238933 -0.0110867 -0.011089664
-0.004003437 -0.010806383 -0.011086508 -0.0049397857 0.002933799 -0.011099249 -0.0056262626 -0.0022623527
-0.010900249 -0.011095536 -0.0045938934 -0.0042071473 -0.0053764144 0.0023277346 -0.011069993 -0.011090422
-0.00078103895 -0.011101527 0.00038428913 0.003221064 -0.010810671 -0.011089994 0.00020075386 -0.011087139
-0.004716207 0.00016176661 0.008212393 -0.0053248657 -0.009244227 -0.0030204337 -0.011095701 0.002157388
-0.008719892 -0.006242898 -0.011093842 -0.011082707 0.0011963671 -0.0110946465 -0.0046439013 -0.00742121
-0.011083078 -0.011085791 0.0023487897 0.00021219807 -0.00020312931 0.00040270016 -0.006993488 -0.0011340956
-0.0043046973 -0.0048272475 -0.011101747 -0.0069896593 -0.011089493 0.0014478241 0.001977246 -0.00091396377
-0.001079904 0.0039168177 -0.011085264 0.0013736251 -0.007383844 -0.011886167 -0.006917291 -0.0031223479
-0.00016717117 -0.010882456 -0.0028965059 -0.011095638 0.0042560063 -0.0020651878 0.0019126948 0.0009090568
-0.011089201 -0.011092908 -0.0005664036 -0.011092788 -0.0051753237 -0.0037546693 -0.007587171 -0.011080819
-0.002978539 -0.0110955695 -1.4709949e-06 0.0021706256 0.0031177923 -0.010918239 8.066202e-05 0.0018816788
-0.0035799 0.00069665106 0.0006623076 -0.011087293 -0.010153323 -0.009536886 0.00010846884 -0.0016763837
0.0022671137 0.002721768 -0.011081722 -0.00020110699 0.0076170685 -0.0045845555 -0.004185002 -0.00031970523
-0.0037423267 -0.002941546 0.0040499205 -0.011084164 -0.00037708908 -0.011095528 -0.011092315 7.5365747e-06
0.0060860952 0.00056135375 -0.00096880633 -0.0009428077 0.0027757445 0.002952773 -0.006392564 -0.01081198
-0.0010185763 -0.0017407632 -0.0012202593 -0.00320244 -0.0033345062 -0.011096506 0.0024490864 -0.011284744
-0.005747034 -0.0110889375 -0.0029286023 -9.634039e-05 -0.011022009 -0.011088364 0.007198824 0.0065357466
-0.005251308 -0.0016426306 -0.009868548 0.006779391 0.00060188136 -0.0010572027 -0.0021496688 0.00014872443
-0.0030126348 -0.0014035475 -0.011091349 -0.011086954 -0.009654056 -0.011093363 -0.011089147 -0.0057017854
-0.0031202028 -0.0110638095 -0.011093711 0.003538358 0.00586969 -0.0005030036 -0.010961801 -0.011091876
-0.011086706 0.0012671704 -0.00466286 -0.00087103585 -0.0011690484 -0.0002543476 -0.0025245035 0.0014903153
0.0018660324 -0.004274321 -0.0014459863 0.0037054783 0.0021093048 -0.0032978642 -0.00549731 -0.006958843
0.0008850169 -0.01109021 -0.011088957 -0.011094637 -0.011094894 -0.011089123 0.002090526 -0.009238666
-0.011089078 0.00094586634 -0.0039200517 0.0006925766 -0.0020505013 -0.011091238 -6.157715e-05 -0.011091147
00000000: d9d1 35bc fdd0 3bbc 0e90 ceb7 de76 03bc
00000010: 21a0 35bc fd50 18bc bcc8 35bc 33b2 35bc
00000020: 1c91 c2b8 4bc0 35bc 0302 33bc db7e 503a
00000030: 38b2 35bc da81 35bc 8618 cc3a d8a9 35bc
00000040: 2340 4e3b 1b80 a9bb e786 7bba 1fd5 40bc
00000050: 3796 0e3b 2474 44ba 2d46 8fbb 1cc1 1dbb
00000060: 9cda e5bb 0f56 453b fcbc 35bc 626e d63a
00000070: 1309 fd3a 869e 35bc f6ac 33bc 959b 35bc
00000080: ac60 883b c0f5 31bc fdaf 35bc 8457 cbba
00000090: 8556 4f39 7ba3 35bc 3698 35bc eab8 4aba
000000a0: 0d64 4dbb 534c 333b eb3b b6bb ecfc feba
000000b0: f6cb bebb 72eb 35bc c999 1e3b 1f1b 9bbb
000000c0: 4b40 5c3a 7ea9 35bc 8b9a 5ebb 6e6d 093b
000000d0: 566f 683b 7677 16bc ea8e 35bc 00d5 183b
000000e0: eccc 43bb 0565 79bb 536e 5bbb 2b4e c33a
000000f0: 86a5 35bc b163 a23a fda4 35bc 6cb1 35bc
00000100: 432f 83bb 410d 31bc 2fa4 35bc eddd a1bb
00000110: fb44 403b a0d9 35bc 835c b8bb fb43 14bb
00000120: f596 32bc 0dca 35bc 5f88 96bb 1cdc 89bb
00000130: a22c b0bb e88c 183b ea5e 35bc 9ab4 35bc
00000140: a3be 4cba 2ee3 35bc 6a7a c939 7d18 533b
00000150: 3e1f 31bc ceb2 35bc 7481 5239 d5a6 35bc
00000160: 698a 9abb e59f 2939 468d 063c 367c aebb
00000170: 1975 17bc 78f2 45bb beca 35bc f762 0d3b
00000180: e1dd 0ebc 3991 ccbb f2c2 35bc 3e94 35bc
00000190: 6bcf 9c3a 52c6 35bc de2b 98bb 9f2d f3bb
000001a0: cc95 35bc 2da1 35bc 27ee 193b 7c81 5e39
000001b0: 1cff 54b9 8021 d339 a129 e5bb efa5 94ba
000001c0: 6b0e 8dbb e32d 9ebb 1ae4 35bc 8309 e5bb
000001d0: b4b0 35bc eac4 bd3a af94 013b 1297 6fba
000001e0: 918b 8dba a658 803b f89e 35bc 360b b43a
000001f0: 2cf4 f1bb 33be 42bc 71aa e2bb 4ea0 4cbb
00000200: ab4a 2fb9 544c 32bc 4ed3 3dbb 7bca 35bc
00000210: f875 8b3b 1a58 07bb 63b3 fa3a c54d 6e3a
00000220: 7baf 35bc 07bf 35bc b47a 14ba 86be 35bc
00000230: c395 a9bb e610 76bb ce9d f8bb 538c 35bc
00000240: 9833 43bb 31ca 35bc 006f c5b5 0e41 0e3b
00000250: e053 4c3b 6ae2 32bc 1829 a938 aaa2 f63a
00000260: c19c 6abb 769f 363a b69e 2d3a 7aa7 35bc
00000270: 205a 26bc 9940 1cbc c479 e338 1aba dbba
00000280: db93 143b b15f 323b 1c90 35bc 3fe0 52b9
00000290: 9a98 f93b 0a3a 96bb 5722 89bb 1c9e a7b9
000002a0: d341 75bb f4c6 40bb 32b5 843b 5a9a 35bc
000002b0: 0ab4 c5b9 04ca 35bc 8bbc 35bc afe2 fc36
000002c0: de6d c73b d027 133a 7ef7 7dba c126 77ba
000002d0: 44e9 353b 4f83 413b b778 d1bb bb24 31bc
000002e0: c081 85ba 522a e4ba 1cf1 9fba 07e0 51bb
000002f0: bb87 5abb 1fce 35bc da80 203b a6e3 38bc
00000300: 9e51 bcbb 60ae 35bc cbed 3fbb 5a0a cab8
00000310: a895 34bc f8ab 35bc 1de4 eb3b d129 d63b
00000320: 2a13 acbb 894d d7ba b1af 21bc a725 de3b
00000330: 93c7 1d3a d691 8aba 75e1 0cbb e9f2 1b39
00000340: a06f 45bb 3df7 b7ba 7db8 35bc 0ea6 35bc
00000350: 0c2c 1ebc f0c0 35bc 41af 35bc 0bd6 babb
00000360: 517c 4cbb fb44 35bc 65c2 35bc cce3 673b
00000370: 8756 c03b 00dc 03ba 2099 33bc b3ba 35bc
00000380: 04a5 35bc 2f17 a63a e8ca 98bb 3a56 64ba
00000390: c13a 99ba f559 85b9 2472 25bb af56 c33a
000003a0: a895 f43a 9a0f 8cbb 4087 bdba 9cd7 723b
000003b0: 433c 0a3b fb20 58bb c722 b4bb 0207 e4bb
000003c0: 7b00 683a b6b3 35bc 75ae 35bc 48c6 35bc
000003d0: 5cc7 35bc 27af 35bc 3501 093b c65d 17bc
000003e0: f7ae 35bc 04f4 773a c773 80bb 078e 353a
000003f0: b461 06bb 06b8 35bc fb22 81b8 a4b7 35bc

decoder_net.4.weight f4 [256]
0.99726516 0.99633 0.9944262 0.99877375 0.99726516 1.0026637 0.99726516 0.99726516
0.99455786 0.99726516 0.9977458 0.99755937 0.99726516 0.9975739 0.995848 0.99726516
1.0006753 0.99312675 0.9940657 0.9964968 0.9986853 0.9938831 0.98646885 0.993965
0.99736303 0.9998181 0.99726516 0.9964741 0.99876887 0.99726516 0.99593395 0.99726516
1.0025513 0.9964357 0.99726516 0.99253696 0.9956868 0.99726516 0.99726516 0.993923
0.9907708 0.9999216 0.99655914 0.99550104 0.99646187 0.99726516 0.9991136 0.991828
0.9976115 0.99726516 0.9928081 0.99701434 1.0000004 0.999361 0.99726516 0.99862134
0.9923805 0.99285036 0.9886598 0.997963 0.99726516 0.997781 0.99726516 0.99726516
0.995465 0.99831516 0.99726516 0.9935763 0.99925387 0.99726516 0.9926577 0.99056077
0.9970084 0.99726516 0.99345624 0.9909459 0.9946422 0.99938023 0.9963322 0.99726516
0.9922145 0.99726516 0.9967678 1.0000726 0.99659073 0.9977054 0.99454385 0.99726516
0.9931384 0.99519956 1.0074315 0.9915474 0.99641246 0.99188435 0.99726516 0.9981618
0.9959484 0.993134 0.99726516 0.99726516 0.9977368 0.99726516 0.9890335 0.99616784
0.99726516 0.99726516 0.9994271 0.99059486 0.99501574 0.9946289 0.9959187 0.9932664
0.98884356 0.98469865 0.99726516 0.9960405 0.99726516 0.9981844 0.99795395 0.99382716
0.9913339 1.0009418 0.99726516 0.9970732 0.99612993 0.9964254 0.9939445 0.98410237
0.9963551 0.99675906 0.9906489 0.99726516 1.0004532 0.989529 0.9983763 0.99791753
0.99726516 0.99726516 0.99347335 0.99726516 0.99468404 0.99049854 0.9966584 0.9975695
0.991512 0.99726516 0.9962657 0.99868304 0.9996917 0.9977449 0.99475044 0.9980899
0.99184054 0.99421066 0.9946443 0.99726516 0.9970922 0.9960082 0.99338996 0.9939196
0.99896103 0.99874306 0.99726516 0.99447477 1.0056996 0.99340814 0.99567616 0.9949936
0.9958558 0.98682696 1.0009065 0.99726516 0.9951924 0.99726516 0.99726516 0.992797
1.0035713 0.99425274 0.9942161 0.99494827 0.99970984 0.9988231 0.99014145 0.9970735
0.99648577 0.9917433 0.991627 0.99665844 0.97743756 0.99726516 0.99913365 0.9963644
0.98921776 0.99726516 0.98769003 0.9955306 0.9972191 0.99726516 1.0054066 1.0037609
0.99500376 0.9948706 0.996402 1.0053836 0.9920409 0.99015296 0.9946789 0.9903404
0.9865336 0.9899874 0.99726516 0.99726516 0.99619544 0.99726516 0.99813133 0.99555916
0.9955249 0.99793375 0.99726516 1.0000701 1.0030043 0.994214 0.99781436 0.99726516
0.99726516 0.9977939 0.9905742 0.9966302 0.9952548 0.9943292 0.99276036 0.9967392
0.9977305 0.99586886 0.9863775 1.0000327 0.9989464 0.9916419 0.99334824 0.99795085
0.9940937 0.99726516 0.99726516 0.99726516 0.99726516 0.99726516 0.9978546 0.99688303
0.99726516 0.99731475 0.99309117 0.9973644 0.98031896 0.99726516 0.99703467 0.99726516
00000000: c54c 7f3f 7c0f 7f3f b792 7e3f a3af 7f3f
00000010: c54c 7f3f 4957 803f c54c 7f3f c54c 7f3f
00000020: 589b 7e3f c54c 7f3f 456c 7f3f 0d60 7f3f
00000030: c54c 7f3f 0161 7f3f e5ef 7e3f c54c 7f3f
00000040: 2116 803f 8e3d 7e3f 177b 7e3f 6a1a 7f3f
00000050: d7a9 7f3f 1f6f 7e3f 3989 7c3f 7e74 7e3f
00000060: 2f53 7f3f 14f4 7f3f c54c 7f3f ed18 7f3f
00000070: 51af 7f3f c54c 7f3f 87f5 7e3f c54c 7f3f
00000080: 9a53 803f 6916 7f3f c54c 7f3f e716 7e3f
00000090: 55e5 7e3f c54c 7f3f c54c 7f3f bd71 7e3f
000000a0: 28a3 7d3f ddfa 7f3f 801e 7f3f 28d9 7e3f
000000b0: 2018 7f3f c54c 7f3f e9c5 7f3f 71e8 7d3f
000000c0: 7863 7f3f c54c 7f3f ac28 7e3f 553c 7f3f
000000d0: 0300 803f 1fd6 7f3f c54c 7f3f a6a5 7f3f
000000e0: a60c 7e3f 712b 7e3f cf18 7d3f 817a 7f3f
000000f0: c54c 7f3f 936e 7f3f c54c 7f3f c54c 7f3f
00000100: cbd6 7e3f 9591 7f3f c54c 7f3f 045b 7e3f
00000110: 1acf 7f3f c54c 7f3f d11e 7e3f 6495 7d3f
00000120: f13b 7f3f c54c 7f3f 2653 7e3f a1ae 7d3f
00000130: dfa0 7e3f 62d7 7f3f a10f 7f3f c54c 7f3f
00000140: c501 7e3f c54c 7f3f 2d2c 7f3f 6102 803f
00000150: 9220 7f3f 9f69 7f3f 6d9a 7e3f c54c 7f3f
00000160: 513e 7e3f 66c5 7e3f 84f3 803f 0dd6 7d3f
00000170: e314 7f3f 22ec 7d3f c54c 7f3f 8887 7f3f
00000180: 79f6 7e3f 083e 7e3f c54c 7f3f c54c 7f3f
00000190: ae6b 7f3f c54c 7f3f 4d31 7d3f db04 7f3f
000001a0: c54c 7f3f c54c 7f3f 74da 7f3f a097 7d3f
000001b0: 5ab9 7e3f 00a0 7e3f 87f4 7e3f b546 7e3f
000001c0: da24 7d3f 3615 7c3f c54c 7f3f 83fc 7e3f
000001d0: c54c 7f3f 0389 7f3f e979 7f3f 756b 7e3f
000001e0: 0fc8 7d3f dc1e 803f c54c 7f3f 3040 7f3f
000001f0: 5f02 7f3f bc15 7f3f 2673 7e3f 22ee 7b3f
00000200: 2111 7f3f 9a2b 7f3f 2b9b 7d3f c54c 7f3f
00000210: da0e 803f c651 7d3f 9795 7f3f 8677 7f3f
00000220: c54c 7f3f c54c 7f3f 4554 7e3f c54c 7f3f
00000230: 9da3 7e3f 5091 7d3f 0125 7f3f b760 7f3f
00000240: bbd3 7d3f c54c 7f3f 450b 7f3f b1a9 7f3f
00000250: cceb 7f3f 366c 7f3f f7a7 7e3f d282 7f3f
00000260: 43e9 7d3f 9784 7e3f 02a1 7e3f c54c 7f3f
00000270: 6f41 7f3f 65fa 7e3f ce4e 7e3f 8471 7e3f
00000280: e9bb 7f3f a0ad 7f3f c54c 7f3f e695 7e3f
00000290: c4ba 803f ff4f 7e3f a2e4 7e3f e7b7 7e3f
000002a0: 68f0 7e3f b1a0 7c3f b41d 803f c54c 7f3f
000002b0: eec4 7e3f c54c 7f3f c54c 7f3f f227 7e3f
000002c0: 0675 803f 5987 7e3f f284 7e3f eeb4 7e3f
000002d0: fcec 7f3f dfb2 7f3f e979 7d3f 3540 7f3f
000002e0: b119 7f3f e4e2 7d3f 44db 7d3f 0225 7f3f
000002f0: 5939 7a3f c54c 7f3f 39c7 7f3f bd11 7f3f
00000300: 603d 7d3f c54c 7f3f 41d9 7c3f 18db 7e3f
00000310: c049 7f3f c54c 7f3f 2ab1 803f 3d7b 803f
00000320: 91b8 7e3f d7af 7e3f 3414 7f3f 69b0 803f
00000330: 64f6 7d3f aa7a 7d3f 47a3 7e3f f386 7d3f
00000340: 778d 7c3f d06f 7d3f c54c 7f3f c54c 7f3f
00000350: aa06 7f3f c54c 7f3f 8985 7f3f f7dc 7e3f
00000360: b8da 7e3f 9678 7f3f c54c 7f3f 4c02 803f
00000370: 7262 803f cf84 7e3f c370 7f3f c54c 7f3f
00000380: c54c 7f3f 6c6f 7f3f 4596 7d3f 2823 7f3f
00000390: 05c9 7e3f 5c8c 7e3f 8b25 7e3f 4d2a 7f3f
000003a0: 446b 7f3f 43f1 7e3f 3c83 7c3f 1201 803f
000003b0: f4ba 7f3f 3edc 7d3f 124c 7e3f b579 7f3f
000003c0: ed7c 7e3f c54c 7f3f c54c 7f3f c54c 7f3f
000003d0: c54c 7f3f c54c 7f3f 6673 7f3f ba33 7f3f
000003e0: c54c 7f3f 0550 7f3f 393b 7e3f 4653 7f3f
000003f0: 2ff6 7a3f c54c 7f3f aa3d 7f3f c54c 7f3f

decoder_net.4.bias f4 [256]
0.0 -0.0011790128 0.000273974 0.0004049332 0.0 0.002192856 0.0 0.0
1.8091284e-06 0.0 0.0005100972 0.0012056471 0.0 0.0005131629 0.00201872 0.0
0.0041187163 -0.004943669 -0.0006617881 -0.0007139587 0.002629995 -0.0007647375 -0.0046553807 -0.002484732
0.00026155563 0.00381407 0.0 0.0021037487 0.002290298 0.0 -0.0013457005 0.0
0.005906972 -0.00038904021 0.0 -0.0015236251 0.00054754916 0.0 0.0 -0.00065681926
-0.003122387 0.0035563807 -0.0011452531 -0.001956764 -0.0060218195 0.0 0.0028643166 -0.0055524963
0.0013245662 0.0 -0.0029833617 0.0025465623 0.004403223 0.0031745583 0.0 0.0030536489
-0.0026610515 -0.0028804454 -0.0042592734 0.0018517757 0.0 0.0017177328 0.0 0.0
-0.004743339 0.0013600107 0.0 -0.0048629087 0.0034149147 0.0 -0.0048032436 -0.002212891
-0.0004160718 0.0 -0.0050038705 -0.004679118 -0.005088586 0.0028059203 -0.0008896055 0.0
-0.00064577285 0.0 0.00075358426 0.0038768998 -0.0006423831 0.0005074144 0.0005443512 0.0
0.0017673391 0.0004534084 0.010047104 -0.0055997763 -0.0012198172 -0.0031307903 0.0 0.0025660512
-0.0017701116 -0.004236444 0.0 0.0 0.0013459298 0.0 -0.004320592 -0.0014218406
0.0 0.0 0.0027786838 0.0003996351 -0.00010533245 0.0006902808 -0.0019900452 -0.00090604136
-0.0034962695 -0.0052473773 0.0 -0.0016737361 0.0 0.0018753881 0.002641271 -0.00054984674
-0.00097447925 0.0047720545 0.0 0.0019248467 -0.0018300326 -0.00082906353 -0.0063265674 -0.003223953
0.00010650393 -0.0005109961 -0.0027286331 0.0 0.005078847 -0.0021199563 0.002309964 0.0014477654
0.0 0.0 -4.020659e-05 0.0 -0.003954832 -0.0037556514 -0.0005843176 -5.5855657e-05
-0.0031289728 0.0 0.00021056412 0.0025361266 0.003572768 0.0005098457 0.00028164597 0.0024626586
-0.003411829 0.0010808927 0.0010759694 0.0 -0.0003571954 -0.0011161052 0.0007072159 -0.0013753119
0.002789249 0.0032131437 0.0 0.000113907416 0.009088616 -0.004944757 -0.002603824 -4.644713e-05
-0.0022012517 -0.0023026846 0.0051134066 0.0 -0.000119427335 0.0 0.0 0.00032539648
0.0071925228 0.0008801243 -0.0008040091 -0.0006574936 0.0034697738 0.0036104887 -0.0071111564 0.00042059692
-0.0007887085 -0.0017257074 -0.0010962737 -0.00088611513 -0.003370935 0.0 0.0029232851 -0.0009052576
-0.0072088176 0.0 -0.0024177083 2.1355618e-06 0.00010663488 0.0 0.00851277 0.007898385
-0.0013430518 -0.0015088588 -0.00092696445 0.008231105 0.00082192407 -0.0008824891 -0.0021608297 0.00035261697
-0.002951172 -0.0007787579 0.0 0.0 -0.0009361041 0.0 0.0009846123 -0.0057326914
-0.0031476447 0.00075273623 0.0 0.0041647726 0.007001788 -0.00022544456 0.00093064725 0.0
0.0 0.0016366477 -0.0047491672 -0.00066290546 -0.0009619822 -9.522002e-05 -0.0026872817 0.0018238564
0.0023903463 -0.0013007231 -0.0014655706 0.004776072 0.0027190808 -0.003342292 -0.0050969785 0.00016379483
0.0010703941 0.0 0.0 0.0 0.0 0.0 0.0023724877 -0.00052853423
0.0 0.001259088 -0.0045886384 0.0011937991 -0.0011861157 0.0 0.00016447146 0.0
00000000: 0000 0000 1b89 9aba 2ba4 8f39 374d d439
00000010: 0000 0000 05b6 0f3b 0000 0000 0000 0000
00000020: 2ed1 f235 0000 0000 0bb8 053a ce06 9e3a
00000030: 0000 0000 c785 063a 804c 043b 0000 0000
00000040: 4cf6 863b 80fe a1bb d97b 2dba f528 3bba
00000050: ff5b 2c3b aa78 48ba 2a8c 98bb e3d6 22bb
00000060: 6721 8939 7af5 793b 0000 0000 0cdf 093b
00000070: d318 163b 0000 0000 3762 b0ba 0000 0000
00000080: 468f c13b 18f8 cbb9 0000 0000 60b4 c7ba
00000090: 6789 0f3a 0000 0000 0000 0000 652e 2cba
000000a0: f6a0 4cbb 2b12 693b 511c 96ba 0d3d 00bb
000000b0: af52 c5bb 0000 0000 42b7 3b3b b7f1 b5bb
000000c0: 119d ad3a 0000 0000 8184 43bb 3ae4 263b
000000d0: e948 903b 400c 503b 0000 0000 ba1f 483b
000000e0: 0965 2ebb dbc5 3cbb 6091 8bbb 48b7 f23a
000000f0: 0000 0000 8c25 e13a 0000 0000 0000 0000
00000100: 036e 9bbb 6342 b23a 0000 0000 0959 9fbb
00000110: c3cc 5f3b 0000 0000 8764 9dbb 2606 11bb
00000120: 3624 dab9 0000 0000 82f7 a3bb 4953 99bb
00000130: 27be a6bb 88e3 373b 6a34 69ba 0000 0000
00000140: 1549 29ba 0000 0000 2f8c 453a 9613 7e3b
00000150: 9a65 28ba 0104 053a cab2 0e3a 0000 0000
00000160: 0fa6 e73a 72b7 ed39 9c9c 243c 547e b7bb
00000170: 46e2 9fba f22d 4dbb 0000 0000 322b 283b
00000180: 1703 e8ba ded1 8abb 0000 0000 0000 0000
00000190: e969 b03a 0000 0000 c193 8dbb 0e5d baba
000001a0: 0000 0000 0000 0000 941a 363b 1d86 d139
000001b0: eee5 dcb8 f6f3 343a 6b6b 02bb 6883 6dba
000001c0: ab21 65bb 31f2 abbb 0000 0000 4461 dbba
000001d0: 0000 0000 95cf f53a 2d19 2d3b 9723 10ba
000001e0: 3274 7fba e55e 9c3b 0000 0000 234b fc3a
000001f0: b4dd efba 8355 59ba 184f cfbb f548 53bb
00000200: dd5a df38 5ef4 05ba ded2 32bb 0000 0000
00000210: 756c a63b f7ee 0abb c462 173b f2c2 bd3a
00000220: 0000 0000 0000 0000 7fa3 28b8 0000 0000
00000230: 8997 81bb 6021 76bb e42c 19ba 8e46 6ab8
00000240: 740f 4dbb 0000 0000 e0ca 5c39 2535 263b
00000250: 1a25 6a3b 2aa7 053a e2a9 9339 8e64 213b
00000260: fe98 5fbb beac 8d3a 8b07 8d3a 0000 0000
00000270: f445 bbb9 474a 92ba 7564 393a cf43 b4ba
00000280: d5cb 363b 9b93 523b 0000 0000 94e1 ee38
00000290: 6be8 143c a107 a2bb eba4 2abb 3ad0 42b8
000002a0: e042 10bb a3e8 16bb 5d8e a73b 0000 0000
000002b0: 1075 fab8 0000 0000 0000 0000 fa99 aa39
000002c0: 41af eb3b 24b8 663a 23c4 52ba a65b 2cba
000002d0: 2565 633b f39d 6c3b b404 e9bb 9083 dc39
000002e0: 55c1 4eba 2231 e2ba d7b0 8fba 2e4a 68ba
000002f0: e8ea 5cbb 0000 0000 9694 3f3b cf4e 6dba
00000300: f237 ecbb 0000 0000 6a72 1ebb ac50 0f36
00000310: 2aa1 df38 0000 0000 2579 0b3c 3a68 013c
00000320: 5709 b0ba e6c4 c5ba 88ff 72ba c2db 063c
00000330: 6476 573a d756 67ba b59c 0dbb 73df b839
00000340: 7368 41bb 8f25 4cba 0000 0000 0000 0000
00000350: e264 75ba 0000 0000 1b0e 813a 4dd9 bbbb
00000360: b748 4ebb 4653 453a 0000 0000 a578 883b
00000370: 416f e53b 5065 6cb9 aef6 733a 0000 0000
00000380: 0000 0000 c984 d63a e79e 9bbb d5c6 2dba
00000390: 882d 7cba dcb0 c7b8 1b1d 30bb 770e ef3a
000003a0: 5ba7 1c3b 067d aaba 6418 c0ba 9980 9c3b
000003b0: 9b32 323b 5b0a 5bbb 8e04 a7bb 57c0 2b39
000003c0: 774c 8c3a 0000 0000 0000 0000 0000 0000
000003d0: 0000 0000 0000 0000 bd7b 1b3b 558d 0aba
000003e0: 0000 0000 fc07 a53a 4a5c 96bb 4079 9c3a
000003f0: 7077 9bba 0000 0000 f975 2c39 0000 0000
