Action_Net.pt (torch, 958818 bytes, 22 tensors)

decoder_net.0.weight f4 [512, 85]
0	0xbcce33c1	-0.025171163
1	0x3ccb6beb	0.024831733
2	0xbc887def	-0.016661612
3	0x3db2589b	0.087083064
4	0x3d3eba27	0.046564247
5	0x3d9a80cd	0.07544098
6	0x3c8ac1d4	0.016938128
7	0xbd77d592	-0.06050641
8	0xbd9c0345	-0.07617811
9	0xbcb9c602	-0.022677425
10	0xbd8da51c	-0.06916258
11	0xbd65a0c4	-0.05606152
12	0xbd977159	-0.07394666
13	0xbd123742	-0.03569723
14	0xbcb32d9b	-0.021872332
15	0xbd690373	-0.056888055
16	0xbdb3063c	-0.087414235
17	0xbd90a98b	-0.07063588
18	0xbdd2bb75	-0.10289661
19	0x3d423769	0.047416124
20	0x3cad1f52	0.021133099
21	0x3b7f0ff4	0.003891942
22	0xbdc806fa	-0.09766956
23	0x3d17fcad	0.037106205
24	0xbd42c1c0	-0.047548056
25	0x3dafeefd	0.08590505
26	0x3d932a43	0.07185795
27	0x3dae162a	0.08500321
28	0x3b66cdba	0.0035217837
29	0x3d541443	0.051777136
30	0xbccd3bd5	-0.025052944
31	0xbd2d268a	-0.04227308
32	0x3da41b72	0.08013047
33	0x3bdfe8e4	0.0068331826
34	0x3d23b028	0.039962918
35	0xbd5b1a0e	-0.053491645
36	0xbd9e42ce	-0.07727586
37	0x3d280954	0.04102452
38	0xbb908027	-0.004409808
39	0xbd3332f2	-0.043749757
40	0x3d157c8b	0.036495727
41	0xbd2d130b	-0.04225449
42	0xbd62e7ec	-0.05539696
43	0x3cfae8a6	0.030628514
44	0xbd461282	-0.048357494
45	0xbcf4eef8	-0.029899105
46	0xbd807194	-0.06271663
47	0x3d4e068a	0.050299205
48	0x3c634780	0.013872027
49	0xbdc16257	-0.09442585
50	0xbda66e91	-0.081265576
51	0x3dc56855	0.096390404
52	0x3da7a8aa	0.08186467
53	0xbdd03e58	-0.10168141
54	0xbd8ce73a	-0.068800405
55	0x3daeee3b	0.085415326
56	0xbd94f3f8	-0.07273096
57	0xbcc573ff	-0.024103163
58	0x3dc04181	0.09387494
59	0x3db30ec5	0.087430514
60	0xbd9154ac	-0.07096228
61	0xbd6a6671	-0.057226602
62	0x3d6bd67f	0.057577606
63	0xbdcebb05	-0.10094265
64	0x3dad4803	0.08461001
65	0xbd99a2bd	-0.07501743
66	0xbdca1d5e	-0.098688826
67	0xbdab7f19	-0.08373851
68	0x3dbd6a81	0.0924883
69	0x3ce349cb	0.027745148
70	0x3ca797d8	0.020458147
71	0x39379736	0.0001750857
72	0xbda6e005	-0.08148197
73	0x3dab5ac5	0.08366922
74	0xbce3c7e1	-0.02780527
75	0x3db28d50	0.087183595
76	0x3cb2d9ba	0.021832336
77	0xbb3fcb5f	-0.0029265506
78	0xbc2850e7	-0.010273195
79	0xbcdc873d	-0.026919955
80	0x3be2d5f0	0.006922476
81	0xbdaeb897	-0.085313015
82	0x3d740cc0	0.05958247
83	0x3da4854e	0.08033238
84	0x3dbac3a9	0.091193505
85	0xbd98a0ce	-0.07452546
86	0x3d5874c6	0.05284574
87	0xbce5a427	-0.028032375
88	0x3d861a83	0.065480255
89	0x3d224ffb	0.039627057
90	0xbd2810eb	-0.04103176
91	0xbcea3470	-0.028589457
92	0xbd04ad1b	-0.03239165
93	0xbb9ac402	-0.004723073
94	0x3c751120	0.014957696
95	0x3bab0e07	0.005220178
96	0x3da93157	0.08261364
97	0xbc9b0ca6	-0.01892693
98	0xbcf34748	-0.029697075
99	0x3d696227	0.05697837
100	0xbd476d9e	-0.048688523
101	0xbadc749b	-0.0016819419
102	0x3d209cff	0.039212223
103	0x3c307e3c	0.010772284
104	0xbd865dae	-0.06560837
105	0x3c81d0d5	0.01584665
106	0x3d8f6342	0.07001354
107	0xbd091079	-0.033462975
108	0x3d60c103	0.05487157
109	0x3da5a3e9	0.08087904
110	0xbdbc037e	-0.091803536
111	0x3abf6ab1	0.001460394
112	0xbcfb9005	-0.030708322
113	0x3dbe3725	0.09287862
114	0x3d4ef82a	0.050529636
115	0xbd919e21	-0.07110239
116	0xbd5e8931	-0.054330055
117	0xbda89ba2	-0.082328096
118	0x3d2f449c	0.04279004
119	0x3d5a7217	0.05333146
120	0xbd73ec95	-0.059551794
121	0x3d550c7a	0.05201385
122	0xbdc81508	-0.097696364
123	0x3dc6b01f	0.09701561
124	0x3dc86afb	0.0978603
125	0x3b1bec32	0.0023791906
126	0x3d21bc2f	0.039486106
127	0x3dbe765b	0.09299918
128	0xbdada6c4	-0.08479074
129	0xbbab3267	-0.0052245143
130	0xbc85f3a9	-0.016351538
131	0xbda61d5d	-0.08111069
132	0x3baf990c	0.005358821
133	0x3c0db5f5	0.008649339
134	0xbd9ea9bc	-0.07747218
135	0x3ca941d3	0.02066127
136	0xbc13cc32	-0.009020852
137	0x3d21bacf	0.039484795
138	0x3cf97aa5	0.03045399
139	0xbd2a0152	-0.041505165
140	0x3b8b4cfd	0.004251121
141	0x3cfebb55	0.031095186
142	0xbd17ceb4	-0.03706236
143	0x3da0ea19	0.078571506
144	0xbd8f6175	-0.0700101
145	0x3dc01ab9	0.09380097
146	0x3d7a41e1	0.061097983
147	0xbd15eaaa	-0.036600746
148	0xbcf05c7c	-0.029340975
149	0x3d53846a	0.05163995
150	0xbdc4764f	-0.09592878
151	0x3b146692	0.0022644144
152	0x3c993bb2	0.018705223
153	0xbca4870b	-0.020083925
154	0x3db22eb6	0.08700316
155	0x3d6311e3	0.05543698
156	0x3cf88d4d	0.030340815
157	0xbda75df6	-0.081722185
158	0xbd155642	-0.036459215
159	0xbca179d3	-0.01971141
160	0x3c422fa9	0.011852183
161	0xbcd11fce	-0.025527861
162	0x3d804297	0.06262701
163	0xbcf32168	-0.029679015
164	0xbcbd2d3d	-0.02309286
165	0x3dac5de5	0.084163465
166	0x3dafe846	0.085892245
167	0x3cf16750	0.029468209
168	0x3d47e69d	0.048803914
169	0x3da7ae13	0.08187499
170	0xbdcb8eeb	-0.09939369
171	0xbd6f05c0	-0.058355093
172	0xbd99a653	-0.07502427
173	0x3d8441a8	0.064578354
174	0xbd537d5a	-0.051633216
175	0x3c58b9cb	0.01322789
176	0xbda9a0e6	-0.08282642
177	0x3cb0a8a4	0.02156479
178	0xbc780aa7	-0.0151392585
179	0xbb71ff11	-0.0036925713
180	0xbd613416	-0.054981314
181	0xbd1cb865	-0.03826179
182	0xbd6c0881	-0.057625297
183	0x3dbe151d	0.09281371
184	0x3dab720b	0.08371361
185	0x3db2d618	0.087322414
186	0x3d00e255	0.031465847
187	0xbdc1fb63	-0.09471776
188	0xbbc61bfb	-0.006045816
189	0x3d23a208	0.039949447
190	0xbd9819c5	-0.0742679
191	0x3b7fc694	0.0039028274
192	0xbd7ba000	-0.061431885
193	0xbcb84130	-0.022492021
194	0x3d5a4f8c	0.053298518
195	0xbd98157e	-0.07425974
196	0xbcd17e0e	-0.025572803
197	0xbd0586a6	-0.032599114
198	0xbd92ce0b	-0.07168206
199	0x3d159513	0.03651912
200	0xbd645762	-0.055747397
201	0x3bbc2260	0.0057414025
202	0x3d601051	0.05470306
203	0xbd1de87a	-0.038551785
204	0xbca7c8c6	-0.020481478
205	0x3c8b50fd	0.017006392
206	0x3d32d5ba	0.043660857
207	0x3dc1a51f	0.094553225
208	0x3d0aa747	0.033850934
209	0xbcac0150	-0.02099672
210	0x3d24bc78	0.0402188
211	0x39cb460a	0.0003877136
212	0x3d5667d7	0.052345123
213	0xbd953791	-0.07285989
214	0x3d8b3c6c	0.06798634
215	0xbd11d33f	-0.03560185
216	0x3c6bb713	0.01438691
217	0x3d979f1c	0.074033946
218	0x3d5f2cff	0.05448627
219	0x3d5887c8	0.052863866
220	0x3c2f3e44	0.010695998
221	0xba6146a1	-0.00085935934
222	0x3db3e267	0.08783417
223	0x3c1cc658	0.009568773
224	0xbd92ea62	-0.07173611
225	0xbd9cfaec	-0.07665047
226	0xbd9eb77a	-0.07749839
227	0x3d8d86db	0.06910487
228	0x3d5abc4a	0.053402223
229	0x3da8c195	0.08240048
230	0x3c2a5bf1	0.010397897
231	0x3d9d0c8e	0.0766841
232	0x3d33237b	0.04373501
233	0xbcb4377d	-0.021999115
234	0x3dab024e	0.08350049
235	0xbd58917e	-0.052873127
236	0x3b9314dd	0.004488571
237	0x3c794b85	0.015215759
238	0x3ca028ac	0.019550644
239	0x3dcc3c71	0.09972466
240	0xbd386cc2	-0.045025595
241	0xbc73ff53	-0.014892417
242	0x3cc0fe6b	0.023558816
243	0x3d7598da	0.059960224
244	0xbd822ceb	-0.06356224
245	0x3d1b2a55	0.037882168
246	0x3d1b735d	0.037951816
247	0x3d9d0712	0.07667364
248	0xbcabd16f	-0.02097389
249	0xbc220c42	-0.009890618
250	0xbcfa6176	-0.030564051
251	0x3a4c4c7b	0.0007793379
252	0xbd9153ec	-0.07096085
253	0x3da8b2a5	0.08237199
254	0x3cf87128	0.030327395
255	0x3d712db8	0.05888149

decoder_net.0.bias f4 [512]
0	0x3b53b7b0	0.0032305531
1	0x00000000	0.0
2	0xbba84b7c	-0.0051359516
3	0x00000000	0.0
4	0xbb3f0a51	-0.0029150436
5	0x00000000	0.0
6	0xbac8abdc	-0.0015310007
7	0x00000000	0.0
8	0xb86b41b8	-5.608957e-05
9	0x3b87be33	0.0041425466
10	0x00000000	0.0
11	0xba25d19f	-0.00063254865
12	0x39bddf6e	0.00036215357
13	0x3929b33a	0.00016183863
14	0x00000000	0.0
15	0xba43daab	-0.0007471244
16	0xbb36e78b	-0.0027909006
17	0xba941ee8	-0.0011300715
18	0x39c97ec0	0.00038432144
19	0xbab212e4	-0.0013585952
20	0x3b08271c	0.0020775264
21	0xba907ecf	-0.001102412
22	0x3ac857dd	0.0015284974
23	0xbb9dc3ef	-0.004814617
24	0x00000000	0.0
25	0xba279fb3	-0.00063943415
26	0x3b286381	0.0025694075
27	0x3ab9c88d	0.0014174149
28	0x3a4be27c	0.0007777584
29	0x00000000	0.0
30	0x39f2d95f	0.0004631979
31	0xbad46268	-0.0016203644
32	0x00000000	0.0
33	0xbb08ba4e	-0.0020863
34	0x00000000	0.0
35	0x3a08e7f1	0.000522255
36	0xbaa2bb8b	-0.0012415511
37	0xbb688cf3	-0.0035484403
38	0x3b22db6c	0.0024850024
39	0x3aacb229	0.0013175654
40	0x37754676	1.4619543e-05
41	0xba94ad1f	-0.0011343098
42	0x3bcaf560	0.0061938018
43	0x38c43ba9	9.357121e-05
44	0x3b25534c	0.002522665
45	0x3a38e232	0.00070527487
46	0x00000000	0.0
47	0x3acfb47c	0.0015846635
48	0xbb69bc20	-0.003566511
49	0xbb0b6c5a	-0.00212743
50	0x3a86a3d6	0.0010272216
51	0xbabdbe87	-0.0014476337
52	0xba387d4b	-0.0007037713
53	0x3bd9641f	0.00663425
54	0xba4428ec	-0.00074829045
55	0x00000000	0.0
56	0x3918f8d0	0.0001458854
57	0x3a1dcb66	0.00060193834
58	0x3920a7e5	0.00015321335
59	0xba8a32e3	-0.001054373
60	0x00000000	0.0
61	0xbabeeeb0	-0.0014566984
62	0xbb01cd44	-0.0019806186
63	0x3a14854a	0.00056656136
64	0x00000000	0.0
65	0x00000000	0.0
66	0x00000000	0.0
67	0xba28cda1	-0.00064393325
68	0x00000000	0.0
69	0x39cad86d	0.00038689692
70	0xb9ef2415	-0.00045612516
71	0xba0b3ccd	-0.0005311489
72	0x00000000	0.0
73	0xbb7727de	-0.0037712972
74	0xbb66dfe6	-0.0035228669
75	0x00000000	0.0
76	0x00000000	0.0
77	0xbb3be40d	-0.0028669864
78	0x00000000	0.0
79	0x00000000	0.0
80	0x3b0212be	0.0019847597
81	0x3b42488f	0.00296453
82	0xbb19f6d8	-0.0023493078
83	0x00000000	0.0
84	0xba3162d9	-0.00067667436
85	0x00000000	0.0
86	0x00000000	0.0
87	0xba805013	-0.0009789489
88	0x00000000	0.0
89	0x3b48ff9a	0.0030669929
90	0x3a6846c9	0.00088606455
91	0x3a753805	0.0009354356
92	0x00000000	0.0
93	0x3b25cc31	0.002529871
94	0xbb2b4324	-0.0026132548
95	0x00000000	0.0
96	0x00000000	0.0
97	0x00000000	0.0
98	0xbba95a07	-0.005168203
99	0xba6e7499	-0.0009096354
100	0x3a834a49	0.0010016646
101	0x00000000	0.0
102	0xba274ec6	-0.00063822826
103	0x3bda3e2e	0.0066602444
104	0x00000000	0.0
105	0x00000000	0.0
106	0xba3d6925	-0.00072254456
107	0xb956448e	-0.00020434169
108	0xba81ca49	-0.0009902205
109	0x3a35cd8f	0.00069352327
110	0x3b5c2cb4	0.003359598
111	0xb944b012	-0.00018757608
112	0xbafe5f53	-0.0019407071
113	0xbadc745c	-0.0016819346
114	0x00000000	0.0
115	0xbacf4991	-0.0015814771
116	0xb89591dd	-7.132043e-05
117	0x3b2bb303	0.0026199229
118	0xbbbeff7c	-0.005828796
119	0x3b409f8c	0.0029391972
120	0xba4b5769	-0.00077568606
121	0x3adc2103	0.0016794506
122	0x00000000	0.0
123	0x3b3cd36b	0.0028812538
124	0x3ba82149	0.005130921
125	0x00000000	0.0
126	0x00000000	0.0
127	0x3b255b0b	0.0025231268
128	0x00000000	0.0
129	0x3b13e388	0.002256604
130	0xbb7a648c	-0.0038206903
131	0x00000000	0.0
132	0x39bfb004	0.000365615
133	0x00000000	0.0
134	0xb9b53bc9	-0.00034567554
135	0xba5ed621	-0.00085005356
136	0x3acfdf61	0.0015859419
137	0x00000000	0.0
138	0xba9e3d32	-0.0012072681
139	0xba95582d	-0.0011394076
140	0xba015a8c	-0.0004934452
141	0xbb125dfa	-0.0022333846
142	0x3aea05be	0.0017854495
143	0x00000000	0.0
144	0x3a8ee42d	0.0010901742
145	0x00000000	0.0
146	0x00000000	0.0
147	0x3ba8ace5	0.0051475638
148	0xbbb530c7	-0.0055294964
149	0xbb43e134	-0.002988887
150	0xbaa7d6bc	-0.0012805085
151	0xbb6cf116	-0.003615444
152	0x00000000	0.0
153	0x3b164b21	0.0022932964
154	0x3b979f97	0.004627179
155	0x39888063	0.00026035597
156	0x3a8d1c40	0.0010765865
157	0x3bc9ae55	0.006154815
158	0x3bc48ce0	0.005998239
159	0x00000000	0.0
160	0x3a48b6f2	0.00076566555
161	0xbb168ebb	-0.0022973258
162	0x00000000	0.0
163	0xbaca3520	-0.001542721
164	0xbb08e886	-0.0020890548
165	0xbb23c5e1	-0.0024989771
166	0xb90f78f8	-0.00013682607
167	0xbab81913	-0.0014045559
168	0x00000000	0.0
169	0x3b78ff17	0.0037993842
170	0xbb18af8b	-0.002329799
171	0xbb489096	-0.0030603758
172	0x00000000	0.0
173	0xba9172d0	-0.0011096839
174	0x3a8e6c0b	0.001086594
175	0xbb0ae49c	-0.002119339
176	0x00000000	0.0
177	0xbb3a6687	-0.0028442459
178	0x3b05be0a	0.0020407462
179	0xba908e6b	-0.0011028772
180	0x3b3d9722	0.0028929194
181	0x3a296d01	0.0006463081
182	0x3b27a156	0.0025578341
183	0xba64f084	-0.00087333494
184	0xba99700a	-0.0011706364
185	0xbaba4229	-0.0014210391
186	0x3b3f1698	0.0029157754
187	0x00000000	0.0
188	0x3ae76125	0.0017652853
189	0x00000000	0.0
190	0x00000000	0.0
191	0xbb013233	-0.001971376
192	0xbb314cf1	-0.0027053917
193	0x3b138bea	0.0022513815
194	0xbabf77da	-0.0014607862
195	0x3a3b5018	0.0007145419
196	0xba73f7e4	-0.0009306653
197	0x00000000	0.0
198	0x39e18e73	0.00043021477
199	0x00000000	0.0
200	0xbb347348	-0.0027534533
201	0xba5d9190	-0.00084521715
202	0xbb9d882a	-0.004807492
203	0xbb24c9c9	-0.0025144687
204	0x3a3259e4	0.0006803556
205	0xbb863941	-0.0040961807
206	0xbb841bdd	-0.004031642
207	0x3b045e30	0.0020197742
208	0x3b003978	0.0019565504
209	0xbab4f088	-0.0013804594
210	0x3ac74885	0.0015204108
211	0xba57644f	-0.0008216546
212	0x39f3a723	0.00046473098
213	0xbab1d4e0	-0.001356747
214	0xbb8304bf	-0.0039983685
215	0x3a67f9d0	0.00088491756
216	0xb9ac2dc3	-0.00032840492
217	0x00000000	0.0
218	0xba9f3c0b	-0.0012148632
219	0x399d5766	0.0003001049
220	0x389df329	7.5316355e-05
221	0xbb3cc7a4	-0.0028805519
222	0xba8c73a4	-0.0010715616
223	0x00000000	0.0
224	0xbac56ad0	-0.001506174
225	0x39ff02a3	0.00048639355
226	0x00000000	0.0
227	0x00000000	0.0
228	0x00000000	0.0
229	0x00000000	0.0
230	0x00000000	0.0
231	0x3b351b34	0.0027634623
232	0xba180f33	-0.00058006047
233	0x00000000	0.0
234	0x00000000	0.0
235	0xb98730e5	-0.00025785636
236	0xba6f7105	-0.00091339677
237	0xbabf48e7	-0.001459387
238	0xba1cd29d	-0.00059823116
239	0x00000000	0.0
240	0x3a7072f4	0.0009172403
241	0xbad41c8d	-0.0016182825
242	0xba629bca	-0.000864443
243	0xba8f0570	-0.0010911655
244	0x3a819b7e	0.0009888259
245	0x3b21fa2e	0.002471577
246	0x3b3e33ca	0.0029022568
247	0x396c5016	0.00022536548
248	0x00000000	0.0
249	0x00000000	0.0
250	0x00000000	0.0
251	0xba92fd3c	-0.0011214386
252	0xba119786	-0.000555389
253	0xbaa448a0	-0.0012533851
254	0xbb63eb99	-0.0034777878
255	0xba835c87	-0.0010022082

decoder_net.2.weight f4 [512]
0	0x3f7fd003	0.99926776
1	0x3f7f8527	0.9981255
2	0x3f7fc12f	0.9990415
3	0x3f7fb52f	0.9988584
4	0x3f7f001f	0.9960956
5	0x3f807472	1.0035536
6	0x3f7f655b	0.9976403
7	0x3f7f9ef2	0.99851906
8	0x3f7f3bf1	0.9970084
9	0x3f7f88fd	0.998184
10	0x3f7fa3c6	0.99859273
11	0x3f80371a	1.0016816
12	0x3f7bbf7e	0.9833907
13	0x3f7ecf86	0.99535406
14	0x3f7e7f2d	0.99412805
15	0x3f7efb7a	0.9960247
16	0x3f7f727e	0.99784076
17	0x3f7fbdbc	0.99898887
18	0x3f7f2a33	0.99673766
19	0x3f7e78a1	0.99402815
20	0x3f7f6c3e	0.9977454
21	0x3f7e57ab	0.9935252
22	0x3f7f506c	0.9973209
23	0x3f7df623	0.992037
24	0x3f7e40e0	0.9931774
25	0x3f7ed3f1	0.99542147
26	0x3f7f89ea	0.99819815
27	0x3f7da728	0.99083185
28	0x3f7f2a1f	0.99673647
29	0x3f7f0e89	0.99631554
30	0x3f7eb24e	0.9949082
31	0x3f7e7687	0.9939961
32	0x3f7f1cdc	0.9965341
33	0x3f7e9281	0.994423
34	0x3f7fd558	0.9993491
35	0x3f7f9bd3	0.99847144
36	0x3f7e33ae	0.99297607
37	0x3f7dc5ed	0.99130136
38	0x3f7e71a6	0.99392164
39	0x3f7faddd	0.9987467
40	0x3f7e914c	0.99440455
41	0x3f7f5abc	0.99747825
42	0x3f807096	1.0034359
43	0x3f7e3c72	0.9931098
44	0x3f7ef7d1	0.9959689
45	0x3f7e265c	0.9927728
46	0x3f805d68	1.0028505
47	0x3f7f3a7f	0.9969863
48	0x3f7da11b	0.9907395
49	0x3f7ebcae	0.9950665
50	0x3f7b5dd9	0.98190075
51	0x3f7fe4ca	0.9995848
52	0x3f7e6b25	0.9938224
53	0x3f805bca	1.0028012
54	0x3f80327b	1.0015405
55	0x3f7f74eb	0.9978778
56	0x3f807347	1.003518
57	0x3f7e363c	0.99301505
58	0x3f7efe26	0.9960655
59	0x3f7f2468	0.99664927
60	0x3f7f2b5d	0.9967554
61	0x3f7ea406	0.9946903
62	0x3f7fe422	0.9995748
63	0x3f81b0f7	1.013213
64	0x3f7e29b7	0.992824
65	0x3f803c60	1.0018425
66	0x3f801a2b	1.0007986
67	0x3f7e26df	0.9927806
68	0x3f7f774a	0.99791396
69	0x3f7fe14a	0.9995314
70	0x3f7fc922	0.9991628
71	0x3f7fa972	0.9986793
72	0x3f7f19a1	0.9964848
73	0x3f7b3e65	0.9814208
74	0x3f7d28b8	0.98890257
75	0x3f805076	1.0024555
76	0x3f7fb553	0.99886054
77	0x3f7ecb08	0.9952855
78	0x3f7ea3e8	0.9946885
79	0x3f7eb38c	0.99492717
80	0x3f7e8850	0.99426746
81	0x3f7f56de	0.99741924
82	0x3f7fab5e	0.9987086
83	0x3f7eea93	0.9957668
84	0x3f801b8c	1.0008407
85	0x3f7f7aa3	0.99796504
86	0x3f7ef2a4	0.9958899
87	0x3f7e5032	0.9934112
88	0x3f7f937e	0.9983443
89	0x3f7f4e99	0.99729306
90	0x3f7f2a70	0.9967413
91	0x3f7fcdcb	0.9992339
92	0x3f7f256a	0.99666464
93	0x3f7fc596	0.9991087
94	0x3f7e22d5	0.992719
95	0x3f7ef41a	0.9959122
96	0x3f7ff307	0.99980205
97	0x3f7f87ff	0.9981689
98	0x3f7e232a	0.99272406
99	0x3f7edeb8	0.9955859
100	0x3f7f34ef	0.99690145
101	0x3f80048e	1.000139
102	0x3f8003e5	1.0001189
103	0x3f806cc5	1.0033194
104	0x3f7ee0e7	0.99561924
105	0x3f7ef40e	0.9959115
106	0x3f7ecfcb	0.99535817
107	0x3f7f61ef	0.9975881
108	0x3f7cecdd	0.98798925
109	0x3f7f0c2b	0.9962794
110	0x3f7feaa1	0.9996739
111	0x3f7e5620	0.99350166
112	0x3f7fafaf	0.99877447
113	0x3f7fd354	0.99931836
114	0x3f7f2a32	0.9967376
115	0x3f7ed59a	0.9954468
116	0x3f7de8f9	0.99183613
117	0x3f7f9dfe	0.9985045
118	0x3f7f8b50	0.9982195
119	0x3f7fdcf4	0.9994652
120	0x3f7f0d66	0.9962982
121	0x3f7eb9f0	0.9950247
122	0x3f7f0148	0.9961133
123	0x3f7fec90	0.9997034
124	0x3f8020be	1.0009992
125	0x3f806289	1.003007
126	0x3f7e6ef3	0.99388045
127	0x3f7e4a74	0.99332356
128	0x3f7f4be8	0.997252
129	0x3f7f65f1	0.99764925
130	0x3f7f1f78	0.9965739
131	0x3f7f211e	0.9965991
132	0x3f7ea217	0.9946608
133	0x3f7e66df	0.9937572
134	0x3f7ef344	0.99589944
135	0x3f7d3586	0.98909795
136	0x3f7ec9f0	0.9952688
137	0x3f801810	1.0007343
138	0x3f7e57e3	0.99352854
139	0x3f7edf93	0.995599
140	0x3f7e88d1	0.99427515
141	0x3f7c993d	0.98671323
142	0x3f7f4a84	0.99723077
143	0x3f7fac77	0.99872535
144	0x3f7cdbc0	0.9877281
145	0x3f7da0b5	0.99073344
146	0x3f7f515e	0.9973353
147	0x3f8000ee	1.0000284
148	0x3f7e0e2b	0.9924037
149	0x3f7e9b03	0.9945528
150	0x3f8020ca	1.0010006
151	0x3f7ec552	0.99519837
152	0x3f7fbc40	0.9989662
153	0x3f7f769c	0.9979036
154	0x3f8014df	1.0006369
155	0x3f7ec5b4	0.9952042
156	0x3f7f43fb	0.99713105
157	0x3f7f7bb3	0.99798125
158	0x3f7daf75	0.9909585
159	0x3f7f04a8	0.9961648
160	0x3f7e8330	0.99418926
161	0x3f7f177f	0.9964523
162	0x3f7e83c5	0.99419814
163	0x3f7ee902	0.9957429
164	0x3f813dae	1.0096948
165	0x3f7fbf94	0.999017
166	0x3f7e74f6	0.9939722
167	0x3f7e9e5b	0.9946038
168	0x3f7f5c82	0.9975053
169	0x3f800866	1.0002563
170	0x3f7f7b23	0.99797267
171	0x3f7eee88	0.9958272
172	0x3f802b94	1.0013299
173	0x3f7ffdb4	0.99996495
174	0x3f7eaefa	0.99485743
175	0x3f7f19c4	0.9964869
176	0x3f7f78df	0.9979381
177	0x3f7f1175	0.9963601
178	0x3f7c4403	0.9854128
179	0x3f7e4a1e	0.99331844
180	0x3f7fbff2	0.9990226
181	0x3f7ed67e	0.9954604
182	0x3f7fb2a5	0.99881965
183	0x3f7ffa84	0.9999163
184	0x3f7f410f	0.99708647
185	0x3f7f2172	0.9966041
186	0x3f7fb34f	0.9988298
187	0x3f7df4ba	0.9920155
188	0x3f7f3562	0.9969083
189	0x3f7fbd10	0.9989786
190	0x3f7fed0e	0.9997109
191	0x3f7f0cd2	0.9962894
192	0x3f7f80ee	0.99806106
193	0x3f7e85f0	0.9942312
194	0x3f7eea61	0.99576384
195	0x3f7dd6bb	0.9915578
196	0x3f7e0bb5	0.99236614
197	0x3f7febfe	0.9996947
198	0x3f7d8901	0.99037176
199	0x3f7dab3f	0.99089426
200	0x3f7f4fc4	0.9973109
201	0x3f7e6e5c	0.99387145
202	0x3f7d4e92	0.98948014
203	0x3f7d692e	0.98988616
204	0x3f7cf466	0.9881042
205	0x3f7f4983	0.99721545
206	0x3f8000f7	1.0000294
207	0x3f7fb15f	0.9988002
208	0x3f7f14a8	0.99640894
209	0x3f7e6aa1	0.9938145
210	0x3f7f1c19	0.9965225
211	0x3f7f6355	0.99760944
212	0x3f7e84b5	0.99421245
213	0x3f8086fb	1.0041193
214	0x3f7c16b8	0.98472166
215	0x3f7f8de7	0.998259
216	0x3f7fa078	0.9985423
217	0x3f7e5e8e	0.9936303
218	0x3f7f1a02	0.9964906
219	0x3f7f27ae	0.9966992
220	0x3f7f3a11	0.9969798
221	0x3f7ec767	0.99523014
222	0x3f7e5775	0.993522
223	0x3f7fb872	0.99890816
224	0x3f7f9930	0.9984312
225	0x3f7ee4ce	0.9956788
226	0x3f801372	1.0005934
227	0x3f7ed6a2	0.99546254
228	0x3f7f0908	0.99623156
229	0x3f7dd657	0.9915518
230	0x3f7f0129	0.99611145
231	0x3f7e58aa	0.9935404
232	0x3f7eca2f	0.9952726
233	0x3f7f463e	0.99716556
234	0x3f7fe04f	0.9995164
235	0x3f800f24	1.000462
236	0x3f7fa1c3	0.99856204
237	0x3f7f5a9d	0.9974764
238	0x3f7fc55b	0.99910516
239	0x3f7f0504	0.9961703
240	0x3f7e9828	0.9945092
241	0x3f7eceb9	0.99534184
242	0x3f7e5575	0.9934915
243	0x3f7f1919	0.9964767
244	0x3f7eeba9	0.9957834
245	0x3f7f5b5c	0.9974878
246	0x3f7e670d	0.99375993
247	0x3f8026ae	1.0011804
248	0x3f7fc315	0.99907047
249	0x3f7f07c4	0.99621224
250	0x3f7f3c5e	0.9970149
251	0x3f7e5014	0.9934094
252	0x3f7f6d1a	0.9977585
253	0x3f7c3aa0	0.98526955
254	0x3f7fad88	0.9987416
255	0x3f7f2819	0.9967056

decoder_net.2.bias f4 [512]
0	0x3b59bc1a	0.003322369
1	0xba780455	-0.0009461095
2	0xbae4bc8a	-0.0017451209
3	0xbace1769	-0.001572353
4	0x3a9a6b7c	0.00117813
5	0xbbd2f625	-0.006438034
6	0xba2c0a63	-0.0006562827
7	0xbaa623dc	-0.0012675482
8	0xb91245e1	-0.00013949677
9	0x3b8b808d	0.004257268
10	0xbaaf662f	-0.0013381894
11	0xbb96c89c	-0.004601551
12	0x39a2a2f6	0.00031020463
13	0xba1b5db3	-0.0005926743
14	0x3b53421f	0.0032235456
15	0xbab2df46	-0.0013646863
16	0xba342c43	-0.00068730506
17	0xbaef4951	-0.0018256103
18	0xb9cad559	-0.000386874
19	0xbabd8378	-0.0014458736
20	0x3b0b3d6e	0.0021246332
21	0x3b25b43e	0.0025284435
22	0x3ac31d24	0.0014886004
23	0xbba0f7b9	-0.0049123433
24	0x3b861c10	0.004092701
25	0x3aed5b71	0.0018108917
26	0x3b27b573	0.002559033
27	0x3ab8afde	0.0014090498
28	0x3a56d78e	0.00081955723
29	0x3a814fde	0.0009865721
30	0x39d13c68	0.00039908593
31	0xbae1de0c	-0.0017232313
32	0x3a4c25ed	0.0007787634
33	0xbaf49091	-0.0018658807
34	0xbb0e5556	-0.0021718345
35	0xbad2148e	-0.0016027854
36	0xbabf97d8	-0.0014617397
37	0xbb7bba8d	-0.0038410753
38	0x3b271570	0.0025494955
39	0x3aa59fa3	0.0012636076
40	0xb94e09cb	-0.00019649339
41	0xb98979a8	-0.00026221317
42	0x3bcdf048	0.0062847473
43	0x39a304cc	0.00031093357
44	0x3b24b027	0.002512941
45	0x3a3f343e	0.00072938565
46	0xbbbd74ba	-0.005781737
47	0x3ac84520	0.001527939
48	0xbb7e27cb	-0.0038781043
49	0xbb138c5e	-0.0022514085
50	0x3a7473a1	0.00093250914
51	0xbb227441	-0.002478853
52	0xba37a6ef	-0.0007005771
53	0x3bddfcb7	0.0067745107
54	0xbb8f909a	-0.0043812515
55	0xba50847d	-0.00079543126
56	0xbb86610c	-0.0041009244
57	0x3a0fdd75	0.0005488017
58	0xb8010b08	-3.076627e-05
59	0x3a29f992	0.0006484027
60	0x39fcd70f	0.00048225417
61	0xbac3d502	-0.0014940801
62	0xbb1be51c	-0.0023787683
63	0x3a11c192	0.0005560155
64	0x3b90f9e5	0.004424321
65	0xbb9dfd36	-0.004821445
66	0xbb6e107a	-0.0036325739
67	0x3b8af90e	0.0042411154
68	0xba2910ad	-0.0006449323
69	0xba9d430e	-0.0011998133
70	0xbaf9b4a8	-0.0019051032
71	0xbac50360	-0.0015030913
72	0x3a44accb	0.0007502555
73	0xbb2e9fea	-0.002664561
74	0xbb531f96	-0.0032214872
75	0xbbb06174	-0.005382711
76	0xbade134c	-0.0016943007
77	0x3b07e281	0.0020734372
78	0x3b285f11	0.002569143
79	0x3b2186c7	0.0024646984
80	0x3b04afd2	0.0020246399
81	0x3b18d645	0.0023321074
82	0xbaddd8e9	-0.0016925606
83	0x3ac676cd	0.0015141607
84	0xbb6f298e	-0.0036493274
85	0xba35f38c	-0.00069408934
86	0x3abcb1d6	0.0014396261
87	0xba908e3c	-0.0011028717
88	0xba942489	-0.0011302392
89	0xb8beb287	-9.093159e-05
90	0x3a4a3521	0.00077136053
91	0xbb0d1fab	-0.0021533768
92	0x3a0b43ef	0.0005312552
93	0x3b2b4b76	0.0026137508
94	0xb9efebaa	-0.00045761216
95	0x3aa8cdb9	0.0012878693
96	0xbb2bcf9b	-0.0026216272
97	0xba803fc6	-0.0009784631
98	0xbbbe4b83	-0.0058073415
99	0xba858af8	-0.0010188511
100	0x3a65d89c	0.0008767934
101	0xbb4329f5	-0.0029779647
102	0xbafdaf3e	-0.0019354594
103	0x3bd9a3f5	0.0066418597
104	0x3addaefe	0.0016913114
105	0x3ab27614	0.0013615512
106	0x3afb6a83	0.0019181523
107	0x3871a37c	5.7611134e-05
108	0xba8bb86a	-0.0010659818
109	0x3a2334ff	0.00062258536
110	0x3b584e99	0.0033005832
111	0xb982e0d0	-0.0002496303
112	0xbadb2a25	-0.0016720934
113	0xbb0f2e62	-0.0021847715
114	0x39f4976b	0.00046652122
115	0xbb0c8b75	-0.0021445428
116	0x3b3d1d53	0.002885659
117	0x3b2e182e	0.0026564705
118	0xbc14c5aa	-0.00908033
119	0x3b467603	0.0030282743
120	0xba6df91e	-0.0009077954
121	0x3ad7e1f2	0.0016470535
122	0x3a9467d4	0.0011322447
123	0x3b3c901d	0.0028772422
124	0x3bae8f91	0.005327173
125	0xbbc257a3	-0.0059308573
126	0x3b5b0cb0	0.003342431
127	0x3b23b3b8	0.0024978947
128	0xb75c7fca	-1.3142775e-05
129	0x3b17145d	0.002305291
130	0xbad1f001	-0.0016016961
131	0x3a386d5e	0.000703534
132	0x3b22e8ec	0.002485807
133	0x3b661a98	0.0035111066
134	0xb9fccde6	-0.00048218592
135	0xba60edd6	-0.0008580362
136	0x3ac33a38	0.001489467
137	0xbb66f1f0	-0.003523942
138	0x3b74a3a7	0.003732899
139	0x3ada6414	0.0016661906
140	0xba1bf138	-0.0005948725
141	0xbb03b9aa	-0.0020099678
142	0x3aeb008e	0.0017929242
143	0xbac4f966	-0.001502794
144	0x3a51c2b4	0.00080017303
145	0x3bd8cc97	0.006616186
146	0xb92b9a17	-0.00016365234
147	0x3ba93a36	0.00516441
148	0xbbc1443b	-0.0058980263
149	0x3b20cba2	0.0024535437
150	0xbb86cc76	-0.004113729
151	0xba2ab0c6	-0.00065113266
152	0xbaedec79	-0.0018152139
153	0xba2ecf03	-0.00066684204
154	0x3b9a5701	0.0047100787
155	0x3960e3df	0.00021447193
156	0x3a94f14d	0.0011363417
157	0x3bcfc4ea	0.0063406127
158	0x3b8f9efd	0.0043829666
159	0x3a902f94	0.0011000508
160	0x3a402cd7	0.00073309004
161	0xb9d98263	-0.0004148661
162	0x3b47fa89	0.003051432
163	0xbade5d7c	-0.0016965116
164	0xbb4354ee	-0.002980526
165	0xbae5bb22	-0.0017527083
166	0xb9059e5c	-0.00012742862
167	0xbacb3901	-0.0015504659
168	0xb9a93759	-0.0003227543
169	0x3b7770fb	0.003775655
170	0xba5ec88c	-0.0008498512
171	0x3abbc16d	0.0014324613
172	0xbb8a46a7	-0.004219848
173	0xbb396868	-0.002829099
174	0x3a858fa2	0.0010189901
175	0x3a192c9c	0.0005843134
176	0xba24e8b2	-0.0006290778
177	0x3a28cb7b	0.00064390124
178	0x3b0da72c	0.0021614535
179	0xba942ff2	-0.0011305793
180	0x3b428d0d	0.0029686124
181	0x3ad7a6a9	0.0016452867
182	0x3b295bda	0.0025842101
183	0xbb29189d	-0.0025802024
184	0x3919c45a	0.00014664364
185	0x3a23afb1	0.00062441366
186	0x3b459118	0.0030146297
187	0x3bacd71f	0.005274668
188	0x39909e97	0.0002758398
189	0xbaf31b4e	-0.0018547566
190	0xbb26e770	-0.0025467537
191	0xbb0998a4	-0.0020995522
192	0xba8e5b14	-0.0010860884
193	0x3b320316	0.0027162484
194	0x3ac8c478	0.0015317341
195	0x3a2a481e	0.00064957316
196	0xba888de5	-0.0010418264
197	0xbb2e9076	-0.0026636398
198	0x3a054bb6	0.0005084829
199	0x3bcec16b	0.0063096783
200	0xb9bfc487	-0.00036576783
201	0xba854110	-0.0010166485
202	0xbb9e79d0	-0.0048362985
203	0x3b9943bd	0.0046772645
204	0x3a41b96f	0.00073899975
205	0xba64444a	-0.00087076856
206	0xbb51af4e	-0.003199536
207	0x3afd02eb	0.0019303238
208	0x3afa0405	0.0019074684
209	0xbabaa9f1	-0.001424132
210	0x3ad27165	0.0016055523
211	0xb9b42247	-0.00034357814
212	0x3a12d27d	0.0005600823
213	0xbbe5b4a4	-0.0070100594
214	0xbb8eeeca	-0.004361962
215	0x3a631f06	0.00086639856
216	0xbab82061	-0.0014047736
217	0x3b6ea2ad	0.003641288
218	0x3a491e2c	0.00076720375
219	0x39d2b7b8	0.00040191202
220	0xb9f4fb3b	-0.00046726488
221	0x3abc1807	0.0014350422
222	0x3b68606e	0.0035457867
223	0xbae50a47	-0.0017474376
224	0xba8826a5	-0.0010387494
225	0x3ae1b36f	0.0017219613
226	0xbb5e9d3e	-0.0033968235
227	0x3ae57daf	0.001750877
228	0x3a8596dd	0.0010192055
229	0x3bb992b4	0.0056632403
230	0x3aa0782e	0.0012242848
231	0x3b387f5f	0.002815209
232	0xba385066	-0.0007031023
233	0x38f0b024	0.000114769005
234	0xbb18806a	-0.00232699
235	0xba8dd6fd	-0.0010821518
236	0xbaaae19b	-0.0013037206
237	0xb990ffc6	-0.00027656386
238	0xbaf40dea	-0.0018619869
239	0x3a9859df	0.0011623463
240	0x3a6172df	0.0008600186
241	0x3adc1cf1	0.0016793293
242	0xba8d3326	-0.001077269
243	0x3a60ae4f	0.0008570896
244	0x3a8179e5	0.0009878246
245	0x3b20e78f	0.0024552082
246	0x3b58cf6a	0.0033082613
247	0xbb869255	-0.0041067996
248	0xbaf20fb6	-0.0018467817
249	0x3a889126	0.0010419234
250	0x392e053d	0.00016595885
251	0xbaa52809	-0.0012600432
252	0xb9f90889	-0.0004749934
253	0xba984c32	-0.0011619388
254	0xbac26ba0	-0.00148331
255	0xba9091cb	-0.0011029778

decoder_net.3.weight f4 [256, 512]
0	0xbd7ca946	-0.06168487
1	0x3b313aaa	0.0027043023
2	0x3cf83d15	0.030302564
3	0x3d6dee3c	0.058088526
4	0x3c491f47	0.0122755235
5	0xbd89375c	-0.06700012
6	0xbd061cfc	-0.032742485
7	0xbd0143ce	-0.031558804
8	0xbc95ccf2	-0.018286202
9	0x3d020d20	0.0317508
10	0x3ca426dc	0.02003806
11	0x3cb5a243	0.022172099
12	0x3cf32d67	0.029684735
13	0xbd4fcdd6	-0.05073341
14	0x3c70eaa5	0.014704381
15	0x3d8fff75	0.070311464
16	0x3d9e9f60	0.07745242
17	0x3d7b96b4	0.06142302
18	0xbc9d6bde	-0.019216474
19	0x38cc198e	9.732238e-05
20	0x3c78719a	0.0151638035
21	0x3d50f134	0.05101128
22	0x3d5d0f2d	0.05396955
23	0x3d431130	0.047623813
24	0x3cf1cdaf	0.029517023
25	0x3d2160b9	0.039398883
26	0xbda325da	-0.07966204
27	0xbdaf04e0	-0.08545852
28	0xbd0bad56	-0.034100853
29	0x3c828cfc	0.015936367
30	0xbda22e81	-0.07919026
31	0xbc92049c	-0.017824464
32	0xbd332bcd	-0.043742944
33	0x3d1a5d32	0.037686534
34	0x3dc79421	0.0974505
35	0xbd8bf575	-0.068339266
36	0x3d85cd38	0.06533283
37	0xbc92245b	-0.017839601
38	0xbd30fccf	-0.043209847
39	0x3d37d9f6	0.044885598
40	0xbd58949e	-0.052876107
41	0xbd1cec68	-0.038311392
42	0xbdcd4c4d	-0.10024319
43	0x3ce90d01	0.028448584
44	0xbcf3575d	-0.029704744
45	0xbc172634	-0.009225417
46	0x3c646574	0.013940204
47	0xbdbc6677	-0.09199231
48	0xbbaa5969	-0.005198647
49	0xbd7ed075	-0.06221052
50	0xbdd91414	-0.10599533
51	0x3dc80665	0.09766845
52	0x3c88b02a	0.016685564
53	0x3d3d2a70	0.04618305
54	0xbc973e25	-0.01846225
55	0x3ce82de9	0.028342204
56	0xbd5c491c	-0.05378066
57	0xbb65dd0f	-0.0035074388
58	0xbc28ccd4	-0.010302741
59	0x3d0ade1f	0.033903237
60	0x3d219a7a	0.03945396
61	0xbd408c01	-0.047008518
62	0xbd311f62	-0.04324282
63	0x3d7f4864	0.062324896
64	0x3dc723c0	0.09723616
65	0xbceffa83	-0.029294258
66	0x3d837d70	0.0642041
67	0x3bbe2801	0.0058031087
68	0xbc89a46d	-0.016802037
69	0x3c64f5d4	0.013974626
70	0xbd83f5e5	-0.06443385
71	0x3da1229e	0.07867931
72	0xbd79ffd3	-0.06103499
73	0x3d3eaaea	0.046549715
74	0xbd75541e	-0.059894674
75	0x3d3e96cd	0.046530534
76	0x3cf2bb99	0.02963047
77	0xbcc02c90	-0.023458749
78	0x3d8f6ea0	0.07003522
79	0xbd2df631	-0.042471115
80	0x3ce7a07e	0.02827477
81	0xbd93775f	-0.072005026
82	0xbd64ff9c	-0.05590783
83	0xbd21cb70	-0.039500654
84	0x3d7afdb6	0.061277114
85	0xbccb5ffc	-0.024826042
86	0x3dce581b	0.100753985
87	0x3be49638	0.0069759153
88	0xbb12b81b	-0.0022387567
89	0x3da8700f	0.082244985
90	0x3dc8879e	0.09791492
91	0x3dbc356a	0.091898754
92	0xbd8e0ceb	-0.06936058
93	0xbc658395	-0.014008422
94	0x3d74f284	0.059801593
95	0xbd92e101	-0.07171822
96	0x3dbebb51	0.093130715
97	0x3d80b72b	0.062849365
98	0x3ba724f4	0.0051008407
99	0xbd7febcf	-0.062480744
100	0x3d89b493	0.06723895
101	0xbd2bef85	-0.04197647
102	0x3d82df6a	0.06390269
103	0xbd865613	-0.06559386
104	0x3dab957f	0.083781235
105	0x3ba8286e	0.0051317727
106	0x3db013ed	0.085975505
107	0x3d87b83c	0.06626937
108	0xbd7eac86	-0.06217625
109	0x3d8285c8	0.06373173
110	0xbdade624	-0.084911615
111	0x3cefce65	0.029273221
112	0x3dc90050	0.09814513
113	0xbd4c5469	-0.049885187
114	0xbd3495f7	-0.04408833
115	0x3d4b6685	0.049658317
116	0x3db4145e	0.08792947
117	0xbbb569b2	-0.0055362815
118	0x3cad7048	0.021171704
119	0xbc30c24f	-0.010788514
120	0xbdb5ce59	-0.08877248
121	0xbd83d8e6	-0.064378545
122	0x3d8964ee	0.06708704
123	0xbd5bdd2c	-0.053677723
124	0xbc4ba073	-0.012428391
125	0x3c2186bf	0.009858786
126	0x3c5e10c7	0.013553805
127	0x3b829d5e	0.003986045
128	0xbd1f1067	-0.038834002
129	0xbc9ea8f5	-0.019367674
130	0x3cbe42e4	0.023225255
131	0xbbbe73c9	-0.0058121425
132	0xbd5828be	-0.05277323
133	0x3d59fd4c	0.05322008
134	0x3aa1213a	0.0012293227
135	0xbda2b7e6	-0.07945232
136	0xbd88ed18	-0.06685847
137	0x3c19d7e3	0.00938985
138	0x3d507356	0.050891243
139	0x3a93e601	0.0011283756
140	0x3d878e40	0.06618929
141	0xbd030634	-0.031988338
142	0x3a462d72	0.00075598725
143	0x3db20e40	0.08694124
144	0xbd4a64f0	-0.049412668
145	0x3cab7f96	0.020934861
146	0x3d921cb6	0.071343824
147	0xbda05406	-0.07828526
148	0xbd913e9c	-0.0709202
149	0xbd87b1c3	-0.06625702
150	0xbb14e086	-0.0022716834
151	0x3d73bc18	0.059505552
152	0x3cb4c2e2	0.022065584
153	0x3db55095	0.088532604
154	0x3c437c64	0.0119315125
155	0xbd80b03a	-0.062836125
156	0xbd87aeab	-0.06625112
157	0xbd234462	-0.039860137
158	0xbb462603	-0.003023506
159	0x3d87267e	0.06599139
160	0x3d20ddef	0.039274152
161	0xbc902400	-0.017595291
162	0x3d498251	0.049196545
163	0xbdb4f50f	-0.08835804
164	0xbd844b90	-0.06459725
165	0x3d9c0985	0.07619003
166	0xbdb23289	-0.08701045
167	0x3d760067	0.060058977
168	0x3d6f7009	0.058456454
169	0xbbd266a7	-0.0064209285
170	0xbc69001d	-0.014221218
171	0x3dafb7cc	0.08579978
172	0x3cca3f9d	0.024688536
173	0xbd00cee3	-0.031447303
174	0xbcde32c0	-0.027123809
175	0xbd460d67	-0.048352625
176	0x3cb86a77	0.022511704
177	0x3c27509a	0.010212088
178	0xbca6eea6	-0.020377468
179	0xbd9cccd0	-0.076562524
180	0xbdab406d	-0.083618976
181	0xbc240785	-0.010011558
182	0xbd5ae8ef	-0.0534448
183	0xbc330666	-0.0109268185
184	0x3db6e760	0.0893085
185	0x3d43ab04	0.047770515
186	0x3d6b3fc8	0.057433873
187	0x3d620169	0.055177126
188	0xbb690082	-0.0035553281
189	0x3cca8259	0.024720358
190	0x3d3cb03a	0.0460665
191	0x3d81d381	0.06339169
192	0x3d093282	0.033495434
193	0xbd409aa9	-0.047022495
194	0x3d92c85e	0.07167123
195	0xbd76c88a	-0.060249843
196	0xbd2c5574	-0.042073682
197	0x3cb091d4	0.021553911
198	0xbcea7762	-0.02862138
199	0x3d8ed71c	0.069746226
200	0x3d19c977	0.037545647
201	0xbda4eacd	-0.08052597
202	0x3d13cf78	0.03608653
203	0xbd8402fd	-0.064458825
204	0xbc05f8a3	-0.008176955
205	0xbd74348d	-0.05962043
206	0x3c4750d4	0.012165267
207	0xbd707cfe	-0.05871295
208	0x3b978073	0.0046234666
209	0x3d260e05	0.040540714
210	0xbd938ef3	-0.07205
211	0xbbe9585c	-0.007121129
212	0x3d43c15a	0.047791816
213	0xbc353802	-0.011060717
214	0xbcf13bf0	-0.029447526
215	0x3a3145a5	0.0006762392
216	0x3dc84456	0.09778659
217	0xbd79e295	-0.0610071
218	0x3cd001da	0.025391508
219	0xbd440548	-0.0478566
220	0xbd2052a3	-0.03914131
221	0x3c8d44c9	0.017244713
222	0x3dc4940d	0.09598551
223	0xbcb89959	-0.02253406
224	0x3bb5c771	0.005547457
225	0xbca38a38	-0.019963369
226	0xbc3f1f3b	-0.011665161
227	0x3c5995d4	0.013280351
228	0x3d1c203e	0.038116686
229	0xbca47135	-0.020073513
230	0x3d3b84d8	0.045780987
231	0xbd0c3f01	-0.034239773
232	0xbc648417	-0.013947508
233	0xbd227368	-0.03966084
234	0xbd5b847e	-0.05359315
235	0xbd43b762	-0.04778231
236	0x38b164e2	8.4588086e-05
237	0xbd3c1fa5	-0.045928616
238	0x3da32a63	0.07967069
239	0x3d43b27b	0.047777634
240	0xbdc2bddf	-0.09508871
241	0xbd959742	-0.07304241
242	0xbd6bf362	-0.057605155
243	0xbd8e9fe2	-0.06964089
244	0xbdb68a2a	-0.089130715
245	0xbcf16bc2	-0.029470328
246	0x3dba6293	0.09100833
247	0x3dc2a79f	0.095046274
248	0xbc0599c0	-0.008154333
249	0xbc967e98	-0.018370911
250	0x3d17cd83	0.037061226
251	0x3ca413a7	0.020028902
252	0x3d6d03cf	0.05786496
253	0x3d082bc4	0.033244863
254	0x3cbe6de8	0.023245767
255	0xbdaadb94	-0.083426625

decoder_net.3.bias f4 [256]
0	0xbc51d548	-0.012807198
1	0xbc3a46fe	-0.011369465
2	0xb92818f7	-0.00016031029
3	0xbc029ec9	-0.007972428
4	0xbc525db4	-0.012839723
5	0xbc574497	-0.013138912
6	0xbc523ec1	-0.0128323445
7	0xbc526a24	-0.012842689
8	0x3ad60fe5	0.0016331641
9	0xbc51f495	-0.012814661
10	0xbc51f6a5	-0.012815152
11	0x3ab4a2f7	0.0013781477
12	0xbc528df8	-0.012851231
13	0xbc523395	-0.012829681
14	0xba049a00	-0.0005058348
15	0xbc525e68	-0.012839891
16	0xba6eed8e	-0.0009114378
17	0xbbba7968	-0.0056907423
18	0x3ae57465	0.0017506002
19	0xbc178a52	-0.009249287
20	0xbba7cb76	-0.00512069
21	0xbbc5e2ec	-0.006039014
22	0xbae22719	-0.0017254084
23	0xbbab07a2	-0.0052194158
24	0xbb9ccd8e	-0.004785246
25	0x3ad7751d	0.0016438101
26	0xbc528eba	-0.0128514115
27	0x3bf7015f	0.0075380052
28	0x3b38acdc	0.0028179204
29	0xbc527569	-0.012845376
30	0xbb41747c	-0.0029518893
31	0xbc52287c	-0.012827035
32	0xb88fc9f1	-6.856386e-05
33	0xbc4df3a0	-0.012570292
34	0xbc5220dc	-0.012825217
35	0xbb7d83a5	-0.0038683203
36	0xbbaf3d95	-0.0053479173
37	0xbc528d0c	-0.012851011
38	0xbc52b485	-0.012860422
39	0xba368544	-0.0006962607
40	0xbb3f96b3	-0.002923411
41	0x3a0fee4e	0.0005490527
42	0xbb8c4226	-0.0042803464
43	0xbc16f0d8	-0.009212695
44	0x39aa6abf	0.0003250446
45	0xbc51df4a	-0.012809584
46	0xb924b36d	-0.000157071
47	0xbad1c6c0	-0.0016004667
48	0x3b736cd0	0.0037143715
49	0xbc52736a	-0.0128449
50	0xbb84d162	-0.0040532807
51	0xba8c6573	-0.0010711387
52	0x3a9ca87c	0.0011952068
53	0xbc4accab	-0.012377898
54	0xbc52760c	-0.012845527
55	0xbad1b8ff	-0.0016000568
56	0xbc575f07	-0.013145215
57	0xbba7fd3c	-0.0051266234
58	0x39604cfb	0.00021390982
59	0x3a8220dd	0.0009928007
60	0xbc5287cf	-0.012849762
61	0xbae0c3bb	-0.0017148176
62	0xbc526564	-0.012841556
63	0xbc52718a	-0.012844453
64	0xbb999358	-0.004686754
65	0xbc4fb08e	-0.012676371
66	0xbc525b2f	-0.012839123
67	0x3b28cc1b	0.0025756422
68	0x3ba95514	0.005167613
69	0xbc51e43f	-0.012810766
70	0xbb8c7411	-0.004286297
71	0x3aa78c21	0.001278285
72	0xbc08156a	-0.008305887
73	0xbc52349f	-0.012829929
74	0xbb56a3f4	-0.0032751532
75	0xb8dd89ba	-0.00010563755
76	0xba45bbf6	-0.0007542962
77	0xba908d8f	-0.0011028516
78	0xbc56f1a0	-0.013119131
79	0xbc5280b8	-0.012848072
80	0xb90e2f76	-0.00013559856
81	0xbc51f523	-0.012814793
82	0x3ba05310	0.0048927143
83	0xbbd6dcf7	-0.006557103
84	0xbc4df684	-0.012570981
85	0xbc53eec7	-0.012935347
86	0x3a8ef18e	0.0010905729
87	0xbc527ef8	-0.0128476545
88	0xbc3d19ba	-0.011541778
89	0x3ab902a9	0.0014115173
90	0x3b490677	0.003067402
91	0x3b89f932	0.0042106146
92	0xbc511bfe	-0.0127630215
93	0x3b08f51a	0.0020898045
94	0xbc5208e3	-0.012819502
95	0x3b622b75	0.0034510766
96	0xbbec4d9c	-0.0072114
97	0xbb820cc0	-0.003968805
98	0xbc52136b	-0.012822012
99	0xbc527761	-0.012845845
100	0x3b7bfc4f	0.0038449948
101	0xbc527470	-0.012845144
102	0xbab7f4c4	-0.0014034738
103	0xbbbcf2ab	-0.005766233
104	0xbc524e10	-0.012835994
105	0xbc52410f	-0.012832894
106	0x3aa611c6	0.0012670092
107	0xbba618d3	-0.0050688772
108	0x3aeea817	0.0018208054
109	0xbb03e491	-0.002012525
110	0xbc07178a	-0.008245358
111	0x3b182704	0.0023216614
112	0xbbbd0f20	-0.0057696253
113	0x3ae96bf6	0.0017808664
114	0xbc519c94	-0.012793679
115	0xbc4bee2b	-0.01244692
116	0xbc522fbd	-0.0128287645
117	0x3b5ef385	0.003401966
118	0xba217b72	-0.00061600574
119	0x3b525eb3	0.0032099902
120	0xba86a782	-0.001027331
121	0x3a2dc939	0.0006629411
122	0xbc528dd7	-0.0128512
123	0xbad23c9c	-0.0016039792
124	0xbb470246	-0.0030366345
125	0xbb6250d5	-0.0034533043
126	0xbbaf312a	-0.005346437
127	0x3ae34374	0.0017338828
128	0xba9cc0b6	-0.0011959288
129	0xbc527b41	-0.012846769
130	0x3b584d9d	0.0033005245
131	0xbc5244c7	-0.012833781
132	0x3a2227f0	0.0006185761
133	0xbab7ba06	-0.0014017231
134	0x3a86272c	0.0010235063
135	0xba3dfff4	-0.0007247918
136	0xbc521b81	-0.01282394
137	0xbc52152b	-0.01282243
138	0xba8938c8	-0.0010469193
139	0xbc525b8d	-0.01283921
140	0xbb8fcfeb	-0.0043887994
141	0x3984ce9a	0.00025330932
142	0xbc4b3205	-0.012402062
143	0xbc528d1f	-0.012851029
144	0xbbab1936	-0.0052215112
145	0xbc5207b2	-0.0128192175
146	0x3b4b333b	0.0031005878
147	0x3ad90c55	0.0016559461
148	0x3c02be11	0.007979886
149	0xbc5282d6	-0.0128485765
150	0x3b21bb8d	0.002467844
151	0x3a2fd29a	0.00067071023
152	0x39acc24f	0.00032951168
153	0x3ac42d43	0.0014967102
154	0x3b3f7b36	0.0029217727
155	0xbc525bd8	-0.01283928
156	0xbbc53eda	-0.0060194554
157	0xba98a4fd	-0.001164585
158	0xbb29636e	-0.0025846618
159	0xbb3e2fa0	-0.0029020086
160	0x3b3237dd	0.0027193942
161	0xbadc78a7	-0.0016820625
162	0xbc521d76	-0.012824407
163	0x3956dcb9	0.00020490856
164	0x3ab2168a	0.001358704
165	0xbbb70e5b	-0.005586428
166	0x3a64204c	0.00087023224
167	0x3b54a3fe	0.003244638
168	0xbc15a820	-0.009134322
169	0xbb8717ec	-0.0041227248
170	0x3b052c2b	0.0020320516
171	0xbc525021	-0.012836487
172	0xbb9e579d	-0.0048322217
173	0xbc51e32b	-0.012810509
174	0xbc52408d	-0.012832773
175	0x38e1faf9	0.00010775583
176	0x3b71ba69	0.003688479
177	0x3ac4645e	0.0014983525
178	0x3ae8e0d2	0.0017767197
179	0xbaea4310	-0.0017872769
180	0x3b77bb01	0.0037800672
181	0xb9fe2e0d	-0.00048480966
182	0xbba55acd	-0.0050462247
183	0xbc555b7a	-0.013022298
184	0xbb7539bb	-0.0037418443
185	0x3aa8f619	0.0012890726
186	0xb976513b	-0.00023490649
187	0xbbb5e21a	-0.005550635
188	0xbb17c69e	-0.0023159157
189	0xbc51d75e	-0.012807695
190	0x3aab52b7	0.0013070916
191	0xbb7c926d	-0.0038539425
192	0x3a1bb110	0.0005939165
193	0xbc523d78	-0.012832038
194	0xbbff6b65	-0.007794785
195	0xbb37ae51	-0.0028027485
196	0xbc538dc3	-0.012912217
197	0xbc5256cf	-0.01283808
198	0xba15ffff	-0.00057220453
199	0xbb4669e5	-0.003027552
200	0xbb93b6e6	-0.004507887
201	0x3b398e48	0.0028313566
202	0xbc4f22af	-0.012642547
203	0x3b8a05bb	0.004212109
204	0xbb9ac167	-0.0047227624
205	0x3af5dfe2	0.0018758739
206	0x3be5d59c	0.0070139896
207	0xbb66f712	-0.003524248
208	0xbb14758c	-0.0022653071
209	0xbb4f9b26	-0.003167817
210	0xbc52086e	-0.012819393
211	0xbc52bb51	-0.0128620425
212	0xbc52b844	-0.012861315
213	0xbc524331	-0.0128334025
214	0xbc527b0a	-0.012846718
215	0x3b8aac2c	0.0042319503
216	0xbbbab241	-0.005697519
217	0xbc527e4c	-0.012847494
218	0xbc521912	-0.01282336
219	0x3bdbbd2b	0.0067059
220	0x3b595fea	0.0033168742
221	0x3a85bd14	0.0010203444
222	0xbc527263	-0.012844655
223	0xbc5299a1	-0.012854011
224	0xbc526af3	-0.0128428815
225	0x37ed973c	2.8323026e-05
226	0x3a5420a7	0.0008092024
227	0xb99b02e0	-0.00029566046
228	0x3a14a0b0	0.0005669696
229	0x3a6176e0	0.00086007826
230	0xbb247903	-0.0025096543
231	0xba608f86	-0.00085663085
232	0x3aa859a1	0.0012844094
233	0xbc42af09	-0.011882552
234	0xbb59c4c3	-0.0033228851
235	0xba0e878d	-0.0005437069
236	0xbb4f54ec	-0.003163631
237	0xba48eb53	-0.00076644606
238	0xbbd6b403	-0.006552221
239	0xbc54b47d	-0.012982485
240	0x3b091ffa	0.00209236
241	0xbc526d70	-0.012843475
242	0xbc5290d1	-0.01285191
243	0xbc525eb7	-0.012839965
244	0xbc5269dd	-0.012842623
245	0xbc51c94c	-0.012804341
246	0xb9546160	-0.0002025417
247	0xbc45ded2	-0.01207705
248	0xbc52954f	-0.012852981
249	0x3b3e15f7	0.0029004791
250	0xbbc29fbd	-0.0059394524
251	0x3b0c0bc8	0.0021369327
252	0xbbd19d94	-0.0063969586
253	0xbc51e088	-0.01280988
254	0x3b1cea7f	0.0023943482
255	0xbc524f58	-0.0128363

decoder_net.4.weight f4 [256]
0	0x3f7f4cc5	0.99726516
1	0x3f7f6473	0.9976265
2	0x3f7ebbc2	0.99505246
3	0x3f7ecf53	0.995351
4	0x3f7f4cc5	0.99726516
5	0x3f7eea04	0.9957583
6	0x3f7f4cc5	0.99726516
7	0x3f7f4cc5	0.99726516
8	0x3f7f563c	0.9974096
9	0x3f7f4cc5	0.99726516
10	0x3f7f3910	0.99696445
11	0x3f7f96d2	0.9983951
12	0x3f7f4cc5	0.99726516
13	0x3f7f6e1f	0.99777406
14	0x3f7f06bf	0.9961967
15	0x3f7f4cc5	0.99726516
16	0x3f7ef9ea	0.9960009
17	0x3f7e58c8	0.9935422
18	0x3f7fd999	0.999414
19	0x3f7ee136	0.99562395
20	0x3f7dbfe4	0.99120927
21	0x3f7d4b54	0.98943067
22	0x3f7e3b64	0.9930937
23	0x3f7ddc19	0.9916397
24	0x3f7e1317	0.9924788
25	0x3f7f9092	0.9982997
26	0x3f7f4cc5	0.99726516
27	0x3f80ec02	1.0072024
28	0x3f7fef4f	0.9997453
29	0x3f7f4cc5	0.99726516
30	0x3f7e15a9	0.992518
31	0x3f7f4cc5	0.99726516
32	0x3f7f0b2b	0.99626416
33	0x3f7f73fd	0.9978636
34	0x3f7f4cc5	0.99726516
35	0x3f7dcaf6	0.9913782
36	0x3f7eab20	0.99479866
37	0x3f7f4cc5	0.99726516
38	0x3f7f4cc5	0.99726516
39	0x3f7eaf31	0.9948607
40	0x3f7e3729	0.9930292
41	0x3f7f2c85	0.99677306
42	0x3f7e9bde	0.99456584
43	0x3f7f2c18	0.99676657
44	0x3f7e01d1	0.9922152
45	0x3f7f4cc5	0.99726516
46	0x3f7eec2f	0.9957914
47	0x3f7d2467	0.9888367
48	0x3f801fbc	1.0009685
49	0x3f7f4cc5	0.99726516
50	0x3f7f1b00	0.99650574
51	0x3f7e12c1	0.99247366
52	0x3f7f9682	0.9983903
53	0x3f7f60f4	0.99757314
54	0x3f7f4cc5	0.99726516
55	0x3f7d6d1f	0.9899463
56	0x3f7f0d37	0.9962954
57	0x3f7e74c2	0.9939691
58	0x3f7e059d	0.99227315
59	0x3f7f2143	0.9966013
60	0x3f7f4cc5	0.99726516
61	0x3f7d00a7	0.9882912
62	0x3f7f4cc5	0.99726516
63	0x3f7f4cc5	0.99726516
64	0x3f7df956	0.9920858
65	0x3f7f481f	0.99719423
66	0x3f7f4cc5	0.99726516
67	0x3f7fa438	0.9985995
68	0x3f80546d	1.0025765
69	0x3f7f4cc5	0.99726516
70	0x3f7e34f4	0.9929955
71	0x3f7f464e	0.9971665
72	0x3f7f183f	0.9964637
73	0x3f7f4cc5	0.99726516
74	0x3f7d1ca6	0.9887184
75	0x3f7f3ea7	0.99704975
76	0x3f7e17ed	0.9925526
77	0x3f7edb8c	0.9955375
78	0x3f7f115d	0.9963587
79	0x3f7f4cc5	0.99726516
80	0x3f7ee285	0.9956439
81	0x3f7f4cc5	0.99726516
82	0x3f804116	1.0019863
83	0x3f7e9b00	0.9945526
84	0x3f7f3d35	0.9970277
85	0x3f7f2bbe	0.9967612
86	0x3f7f5814	0.9974377
87	0x3f7f4cc5	0.99726516
88	0x3f7f1be4	0.9965193
89	0x3f7f51df	0.997343
90	0x3f800ac7	1.0003289
91	0x3f801df4	1.0009141
92	0x3f7ef99f	0.9959964
93	0x3f7fa398	0.99859
94	0x3f7f4cc5	0.99726516
95	0x3f80063c	1.0001903
96	0x3f7edd78	0.99556684
97	0x3f7e8c97	0.99433273
98	0x3f7f4cc5	0.99726516
99	0x3f7f4cc5	0.99726516
100	0x3f802e74	1.0014176
101	0x3f7f4cc5	0.99726516
102	0x3f7d711d	0.9900072
103	0x3f7e7523	0.99397486
104	0x3f7f4cc5	0.99726516
105	0x3f7f4cc5	0.99726516
106	0x3f7f4bda	0.99725115
107	0x3f7be1ec	0.98391604
108	0x3f7f774d	0.99791414
109	0x3f7f5c72	0.99750435
110	0x3f7f054f	0.99617475
111	0x3f7f6548	0.9976392
112	0x3f7e1d6b	0.9926364
113	0x3f7f47ef	0.99719137
114	0x3f7f4cc5	0.99726516
115	0x3f7f3ef5	0.9970544
116	0x3f7f4cc5	0.99726516
117	0x3f7fe76a	0.99962485
118	0x3f7ebc9d	0.9950655
119	0x3f800e05	1.0004278
120	0x3f7e142d	0.99249536
121	0x3f7f50cf	0.9973268
122	0x3f7f4cc5	0.99726516
123	0x3f7e070f	0.9922952
124	0x3f7c0f8e	0.98461235
125	0x3f7effb4	0.9960892
126	0x3f7de4ae	0.9917706
127	0x3f7f54f0	0.9973898
128	0x3f7ec904	0.99525476
129	0x3f7f4cc5	0.99726516
130	0x3f7ffe4f	0.9999742
131	0x3f7f4cc5	0.99726516
132	0x3f7ec52d	0.99519616
133	0x3f7e474b	0.99327534
134	0x3f7f52e6	0.9973587
135	0x3f7ebc7a	0.9950634
136	0x3f7f4cc5	0.99726516
137	0x3f7f4cc5	0.99726516
138	0x3f7ebac6	0.99503744
139	0x3f7f4cc5	0.99726516
140	0x3f7d48eb	0.9893939
141	0x3f7eff39	0.9960819
142	0x3f7f34bd	0.9968985
143	0x3f7f4cc5	0.99726516
144	0x3f7d96dd	0.99058324
145	0x3f7f4cc5	0.99726516
146	0x3f7feea0	0.9997349
147	0x3f7fab60	0.9987087
148	0x3f80d53e	1.0065076
149	0x3f7f4994	0.99721646
150	0x3f7f6586	0.9976429
151	0x3f7f33f3	0.99688643
152	0x3f7eab61	0.99480253
153	0x3f7f02c2	0.99613583
154	0x3f7feb52	0.99968445
155	0x3f7f4cc5	0.99726516
156	0x3f7eff0c	0.9960792
157	0x3f7d254a	0.98885024
158	0x3f7d77ff	0.99011225
159	0x3f7e0c05	0.9923709
160	0x3f7fdbb0	0.9994459
161	0x3f7ec2ac	0.99515796
162	0x3f7f4cc5	0.99726516
163	0x3f7e93c1	0.99444205
164	0x3f7f62a5	0.99759895
165	0x3f7e8c96	0.9943327
166	0x3f7e8982	0.9942857
167	0x3f7fbd40	0.9989815
168	0x3f7f1d19	0.99653774
169	0x3f7e1702	0.9925386
170	0x3f7f762f	0.9978971
171	0x3f7f645c	0.9976251
172	0x3f7d4f26	0.98948896
173	0x3f7f4cc5	0.99726516
174	0x3f7f4cc5	0.99726516
175	0x3f7eb300	0.9949188
176	0x3f804e9c	1.002399
177	0x3f7f880c	0.99816966
178	0x3f7f94e9	0.99836594
179	0x3f7e4f74	0.99339986
180	0x3f804232	1.0020201
181	0x3f7e3b38	0.9930911
182	0x3f7cfed9	0.98826367
183	0x3f7f2e8a	0.9968039
184	0x3f7df890	0.992074
185	0x3f7f64ec	0.9976337
186	0x3f7e9f16	0.99461496
187	0x3f7f24f4	0.9966576
188	0x3f7cc4cf	0.98737806
189	0x3f7f4cc5	0.99726516
190	0x3f7f574b	0.99742573
191	0x3f7d5d57	0.9897055
192	0x3f7e6679	0.9937511
193	0x3f7f4cc5	0.99726516
194	0x3f7edd14	0.9955609
195	0x3f7e2b5d	0.9928492
196	0x3f7eff10	0.99607944
197	0x3f7f4cc5	0.99726516
198	0x3f7dc3a7	0.99126667
199	0x3f7dc375	0.9912637
200	0x3f7e7d14	0.99409604
201	0x3f800d34	1.0004029
202	0x3f7f2c4b	0.9967696
203	0x3f802c2c	1.001348
204	0x3f7cf594	0.9881222
205	0x3f7f508c	0.9973228
206	0x3f80d479	1.0064842
207	0x3f7e7132	0.9939147
208	0x3f7d82a1	0.9902745
209	0x3f7f2fb5	0.9968217
210	0x3f7f4cc5	0.99726516
211	0x3f7f4cc5	0.99726516
212	0x3f7f4cc5	0.99726516
213	0x3f7f4cc5	0.99726516
214	0x3f7f5181	0.9973374
215	0x3f804910	1.0022297
216	0x3f7d28d1	0.98890406
217	0x3f7f4cc5	0.99726516
218	0x3f7f4cc5	0.99726516
219	0x3f80ab6d	1.0052315
220	0x3f80044b	1.000131
221	0x3f7f0dfe	0.99630725
222	0x3f7f4d66	0.99727476
223	0x3f7f4cc5	0.99726516
224	0x3f7f4cc5	0.99726516
225	0x3f7ebdbf	0.9950828
226	0x3f7e34da	0.99299395
227	0x3f7f2b0e	0.9967507
228	0x3f7e4a1d	0.9933184
229	0x3f7fc911	0.9991618
230	0x3f7db6df	0.99107164
231	0x3f7e345d	0.9929865
232	0x3f7efe5a	0.9960686
233	0x3f7ef265	0.99588615
234	0x3f7e3d01	0.99311835
235	0x3f7ee513	0.9956829
236	0x3f7cc1cf	0.9873323
237	0x3f7dea60	0.9918575
238	0x3f7ee6c0	0.99570847
239	0x3f7f2801	0.99670416
240	0x3f7f835a	0.998098
241	0x3f7f4cc5	0.99726516
242	0x3f7f4cc5	0.99726516
243	0x3f7f4cc5	0.99726516
244	0x3f7f4cc5	0.99726516
245	0x3f7f4cc5	0.99726516
246	0x3f7ed328	0.9954095
247	0x3f7f2d16	0.9967817
248	0x3f7f4cc5	0.99726516
249	0x3f7fea56	0.99966943
250	0x3f7dfc42	0.9921304
251	0x3f7fb873	0.9989082
252	0x3f7f20d8	0.9965949
253	0x3f7f4cc5	0.99726516
254	0x3f7fdc24	0.9994528
255	0x3f7f4cc5	0.99726516
