Action_Net_499.pt (torch, 54946 bytes, 12 tensors)

decoder_net.0.weight f4 [32, 255]
00000000: 081e c53d d2aa 493e 7ea7 c03e b7c6 003e
00000010: 395b 8d3e 756c ae3e de28 bfbe ea85 83be
00000020: 4a06 8a3e 1e11 ba3d 5a36 94be 098d 133e
00000030: bbac edbe cf47 4ebe 1d79 753e e762 a6bc
00000040: 803a acbe d42f 7f3e d1f2 003d 1bfa 92bd
00000050: 4f0a f5be d536 20be d714 383d a838 89be
00000060: 4839 bc3d 3174 b7be 7a65 cc3e ee00 c23e
00000070: ef91 943e 2278 41bd f3ad fbbe 6bd3 4cbe
00000080: 3f66 09bd c273 e5be 434b c53e 9b8a 193e
00000090: c844 bd3e b9be dfbe d0cf 7cbe 291a df3d
000000a0: 3207 743b 6e49 8fbe 1544 c13e cb31 543e
000000b0: 9e46 bbbc f7fd e93e 8078 00bf 1582 dfbe
000000c0: 6ecb c13d 31da e73e b1e6 903e b85b 8abe
000000d0: 9827 ba3e 3b7b 823e 6f6a 063d 9c93 a23e
000000e0: ef49 ca3d f4ef ddb7 925e 0dbe ea4a 8bbe
000000f0: 2f3b a1be 1fb8 65bd 8cb1 afbe 7407 5d3e
00000100: 6d6d 243e 0781 f8be 547c bcbe 029a b23e
00000110: 18b2 80be f986 fdbb 8e98 a6be e581 e6bd
00000120: dfd2 853e ae8d 083e a41a 7a3e a03d 80bc
00000130: 5478 cebe f4f2 49bc 272a 993e 19ea ea3d
00000140: 7672 ef3d f3d0 d23d a45f d93e d754 803e
00000150: 9309 a6bd e0ce 92be 1276 cf3e 2237 84be
00000160: ff64 b2be 6c3c 263e 9623 abbe e939 debe
00000170: 690f c4be 510f fa3d 30ca a9be fad0 e03e
00000180: c60f 7bbc dbc9 5ebe 9bc8 a2be c945 16be
00000190: 4ff5 df3e 134e 9ebe 76b3 e6be eafb 193e
000001a0: 22c1 2f3e 4f37 ddbe 3fc1 66be 2e85 da3e
000001b0: 12a9 73be d759 5f3e cce7 73be 5931 dbbe
000001c0: 664f f6be 3aed c23e f716 373e 6b43 163e
000001d0: 7680 283e 6149 4e3e ccc8 ac3e 2fe6 c33e
000001e0: 7822 c73e e912 253e 271c b23d eb4e e63d
000001f0: e245 d0be 4351 5b3e 34ed 0c3e 3f0e 773e
00000200: f267 03be ecda d33e 204c 4a3d 6e24 ffbd
00000210: 1dcf 28bc 99aa 59be 74f8 a3bd e311 da3e
00000220: 2b58 2b3e f07a 51bd dd03 b63c 22c6 e13d
00000230: 75d2 93be bd9f 89be 422b e43e 54e5 603c
00000240: 8edf 163e dacc 71be e579 b6be c759 c93d
00000250: fc84 963e 5327 e7be 33b1 01bf 0a91 23be
00000260: 246e a43e 5c48 debe 3703 cc3e 454f e73e
00000270: 1c27 04be bd27 293d ab88 a7ba 6617 fa3e
00000280: 7a5c 9f3d 50e1 003e 9103 3cbe 3b72 5c3b
00000290: e1be 87be 26ad 373d 5eea 9abd 129c dd3d
000002a0: 9b69 af3d 4b11 dbbe 78c7 aa3e c89b 8c3e
000002b0: 7c10 b43e f83f bc3e 6950 033e 7b70 8b3e
000002c0: 0265 7b3e 211c 983e 6e3b 9abe fda0 713e
000002d0: 3b3b 26bd 2d26 453e 0e54 3b3e 06d5 bebe
000002e0: 0b2a 69be a145 b6be e783 08be ed67 243e
000002f0: 124e ed3d 55a9 ca3e 64da b8be 4b63 1f3e
00000300: 0bc4 d03e 0a38 c5be 29b5 c0be e1e1 f43d
00000310: 6f17 50be 5625 023e 34b1 77be 5a88 823d
00000320: bbf6 d8be 5b5d cb3e 9385 a3be eddd eabe
00000330: 71af 84be 312f 243c 5bea ef3e 6596 d43d
00000340: 2bf9 d6bd 4b47 b8be 00c2 683e 72bc 123d
00000350: b1a5 14be 21f6 0fbe dfb9 943d ce35 963e
00000360: eb05 9abe be27 f8bd 3e81 703e c262 afbe
00000370: ddac 53bc fcb9 ce3e 3031 b23e 9862 cdbe
00000380: 428b 70be 9250 a33d 532a a13e 06f8 4dbe
00000390: 4a6a e8be acc8 9cbc b709 a03e e4bd 83be
000003a0: 93b3 ebbe 3472 0a3d 3d2f d43e 7383 cfbe
000003b0: 7fd5 da3d 809a a13e 09b1 6c3c 1f4b 89be
000003c0: 9d93 39be af6d a8be 6d40 123d 700e 5fbe
000003d0: 3245 853c f43e e2bd 0c59 afbe 1a3a f73e
000003e0: e9af ef3d 8545 7c3e 3e0f 973e de5e 4d3e
000003f0: ef21 f3bd 517f 1dbe 413d 8dbe d8c3 d5be
0.09624869 0.19694069 0.37627786 0.12575804 0.2760866 0.3406712 -0.37335867 -0.25688106
0.26957923 0.09085296 -0.28947717 0.1440927 -0.46420845 -0.2014458 0.23971982 -0.020310832
-0.33638382 0.24920589 0.031481568 -0.0717661 -0.47859427 -0.15645917 0.04494175 -0.26801038
0.09190613 -0.35830835 0.3992117 0.37891334 0.29017588 -0.04723371 -0.4915615 -0.20002525
-0.033544775 -0.4481488 0.38533983 0.1499428 0.36966538 -0.43700197 -0.24688649 0.108936615
0.0037235734 -0.2798571 0.37747255 0.2072212 -0.022860821 0.45701572 -0.5018387 -0.43653932
0.09462629 0.45283654 0.28301004 -0.270231 0.36358333 0.25484642 0.032816347 0.31753242
0.09877383 -2.645699e-05 -0.13805607 -0.27205592 -0.31490466 -0.056083795 -0.34315145 0.21584874
0.16057368 -0.4853594 -0.36813605 0.34883124 -0.25135875 -0.0077370373 -0.32538265 -0.11255244
0.26137444 0.13335297 0.24424225 -0.015654385 -0.40326178 -0.012325991 0.29914972 0.11470432
0.116917536 0.1029376 0.4245578 0.25064728 -0.08107295 -0.28673458 0.40519768 -0.25823313
-0.3484268 0.16233987 -0.33425587 -0.43403557 -0.38293007 0.122099526 -0.3316207 0.43909436
-0.015323585 -0.21756689 -0.31793675 -0.14675058 0.43741843 -0.3091894 -0.45058793 0.15037504
0.17163518 -0.4320626 -0.22534655 0.42679733 -0.23794964 0.21811615 -0.23818892 -0.42811087
-0.4810745 0.38071615 0.17879854 0.14674155 0.16455254 0.2014518 0.33746946 0.38261554
0.38893485 0.16120495 0.08696776 0.11245521 -0.40678316 0.21417718 0.13762361 0.24126528
-0.1283262 0.41377962 0.049389005 -0.1245812 -0.010303286 -0.21256484 -0.08006373 0.4259177
0.16732852 -0.051142633 0.022218639 0.11024119 -0.28871503 -0.26879683 0.44564253 0.013726551
0.14733717 -0.23613301 -0.35639873 0.09831577 0.29398334 -0.4514719 -0.5066101 -0.15973297
0.3211528 -0.4341458 0.39846203 0.45177665 -0.12905544 0.041297663 -0.0012781819 0.48845977
0.077813104 0.1258595 -0.18360735 0.0033637423 -0.26512817 0.04484286 -0.07564233 0.10820784
0.085650645 -0.4278663 0.33355308 0.27462602 0.35168827 0.36767554 0.12823643 0.27234253
0.2455025 0.2970896 -0.30123466 0.23596568 -0.04058383 0.19252844 0.18293783 -0.372719
-0.22769944 -0.35599998 -0.13331567 0.1605527 0.11587156 0.39582315 -0.3610412 0.15565221
0.4077457 -0.38519317 -0.37638214 0.119571455 -0.20321439 0.12709555 -0.24188691 0.06373663
-0.4237574 0.39719662 -0.31937847 -0.4587244 -0.259151 0.010021017 0.46858487 0.10380248
-0.10496744 -0.35991892 0.22730255 0.035824247 -0.14516331 -0.14058734 0.072620146 0.29337925
-0.3008264 -0.12116955 0.23486802 -0.34255034 -0.012919632 0.4037627 0.34803152 -0.40114284
-0.23490623 0.07974352 0.31477603 -0.20114145 -0.45393592 -0.019138657 0.31257412 -0.25730813
-0.46035442 0.03380032 0.4144229 -0.40529975 0.106852524 0.31563187 0.014446505 -0.26815125
-0.18122716 -0.32896182 0.035705972 -0.21782851 0.016268346 -0.110471636 -0.34247625 0.48286515
0.11703474 0.24635895 0.29503816 0.2005572 -0.11871707 -0.15380599 -0.27585796 -0.4175098

decoder_net.0.bias f4 [32]
00000000: ab2e 06bd 66f0 aabb 2343 2a3c 2928 013d
00000010: dabd 5bbd 23eb 13bd 4301 c2bc 3ad5 843d
00000020: 6bec 803d f466 02bd f9ee 29bd c2a0 323b
00000030: d251 28bc f001 1abd 8745 4ebd 7ce3 99bc
00000040: 7356 38bc f3cf e2bb 86f6 cb3b d233 8cbd
00000050: 6a8a 493d 3a68 69bd 2a43 a9bc 2a86 703d
00000060: 8a54 e8bb b29b 23bd 5110 b63c 0deb efbc
00000070: ee68 8a3d 2823 85bc 746e 59bd 97c2 56bd
-0.03275935 -0.005216646 0.010391983 0.03153244 -0.053647853 -0.036112916 -0.023682242 0.06485982
0.06295093 -0.031836465 -0.041487668 0.0027256464 -0.010273414 -0.037599504 -0.050359275 -0.01878523
-0.01125108 -0.006921762 0.0062244562 -0.068458214 0.049204268 -0.056984164 -0.02066191 0.0587217
-0.007090156 -0.039943404 0.022224577 -0.029286886 0.06758295 -0.016252115 -0.053083852 -0.05243167

decoder_net.2.weight f4 [32, 32]
00000000: 195c c2bc e98e 173d 4700 debe bd71 a53e
00000010: cfe2 aa3e 13fa f53e 9b02 b53d e515 0fbe
00000020: facd 8ebd 48b1 20be 2075 e8be bcd1 303e
00000030: cfc1 8b3d f9d6 1dbe e7e3 8fbe 43f7 e8bd
00000040: d1fd 103e da5a bc3e d7dd 533e 816c b63e
00000050: d243 ce3e 34d1 79be 8070 babb 57c0 d3be
00000060: b5f0 91be 9239 483e 7dae 433e 9336 633e
00000070: 8c7d d83e aa87 523e 4446 77be 715c cfbd
00000080: a22e 513d 79ac 6c3e 20ed 77be f696 4bbe
00000090: 1830 513e f812 233e de2e e93e 0c83 d83e
000000a0: 4d8d 5ebe d0f5 403e 8d90 9dbe be95 e1bb
000000b0: f96e 0bbd 338a dd3d 0f4a d93e dd9b c5be
000000c0: d58d f23e 739e aa3e 11ce 67be 0a3c 1ebe
000000d0: f04c f7bd 2d0d 9a3e 4451 ebbd ef8f 473e
000000e0: 9957 40be c26c d53e f2d7 8ebd 0ac0 f13e
000000f0: d732 c2be 35f0 0abe 6f6c ac3e f97a 3c3e
00000100: ded7 73be 4a9f d2be 0da9 b8be ff4e d1be
00000110: d298 87be b62b a3be 5c44 25be b3c6 e53e
00000120: a52f ecbd 71af 95be 1dfc 743e 5d86 8cbe
00000130: 5623 7abe 0982 c5bd b917 80bd 9f56 93be
00000140: 6a8f c2be 9d2f 01bf 1532 48be abb6 743e
00000150: c4d6 d13c 925c c43e fc91 cc3d 9e0b b8be
00000160: 529c 7f3d 480a e3bd 5a22 983e 20bb 013e
00000170: 0a77 f13e abae dcbe 43f9 61be ec77 d1be
00000180: cd27 5a3d 88e5 a0be e3a3 4bbe 8ce8 f93e
00000190: 2493 45be 1212 6f3e dc75 9f3e dfb3 c33e
000001a0: 0648 d63e 775c 9c3e f951 4d3d f270 dc3e
000001b0: 50d1 f63e 48d5 b7be 0183 b73d 8def b83e
000001c0: 6ebd a7be 8f4f 3e3e 09df a33e b798 da3c
000001d0: 3852 1ebe 3e25 4fbd 17a8 e03e 9668 cabe
000001e0: 1c16 593e 2664 85be e231 b13e b156 5fbe
000001f0: d0a4 c73d 568a a63e 3c5b 61bd 1eb9 97bd
00000200: 20ba e73e 01af f23e be6b 893e 2d73 563c
00000210: c6ca 05bb 52a1 9ebe 042c ae3e 4821 6c3e
00000220: b894 cd3e 4e42 a7be aa6f 0b3e 7c78 d63d
00000230: d4d5 0ebe 61b8 51bd 55df c43d 5197 0cbe
00000240: 1678 f33e 7df3 e6be 2431 8dbd f8d5 6fbe
00000250: 2775 c03e 1c93 39be c249 eebd 90a8 dc3e
00000260: bd6a debe 70fb 27be ff68 e03e 45dd b43e
00000270: b5f4 13be 7fe8 bcbd 8210 72be dd28 d13d
00000280: f201 143e d9b4 ac3e 12f1 5f3e 8ef0 7e3e
00000290: 0a24 9abd a085 b7be ba4b 8c3e a0aa 6ebc
000002a0: d8b1 a7be ae21 653d 8d43 fa3e 55d2 2dbd
000002b0: 1bbf dcbe c151 9b3e deda c43e 2e84 a3be
000002c0: fab6 dfbe 5229 b9be 837b 513e 5b04 5fbe
000002d0: 4f00 f6be 9d38 06bd 8a84 80be 4733 15be
000002e0: a993 47be 26b1 2bbe 0ee3 a7be b458 cabd
000002f0: b4cc a1be b142 86bd 6435 9fbe 2811 f93c
00000300: 48f8 c03e 2288 5ebe 9718 35bd e2fa 8bbd
00000310: 4f18 20be a0ea bdbe ef43 cb3d 4c0c aebc
00000320: 2102 463d f5a4 dabd 090d a8be 3e09 22be
00000330: 1802 873e d29f a43e 461d 3cbe af78 953e
00000340: b3b9 87be 0c30 53bd 582d dabe 3708 adbd
00000350: f493 033e f049 903e 16d3 4b3e 48b8 833e
00000360: eca2 aebd 2444 043f e40b cbbe ef22 06be
00000370: 6333 d4bd 3503 b93e 16cb f83d bf49 023f
00000380: 3fae a6be 3230 1d3e 5696 d2be 7383 2c3e
00000390: bb59 5abe b0d4 62be 75a2 583d b518 843d
000003a0: bd46 003f 4506 cf3e c210 0f3d 1b99 363e
000003b0: f8bb 023e fe8f debd 5105 bebe 96cd cebe
000003c0: 2b62 6d3d 7b0f 4abe 41f3 ee3e 881e 63be
000003d0: 8f7a e93d 6e86 80be 33d7 003f 3f03 6c3e
000003e0: 5154 8d3e bcb6 113e de22 6cbd cdec 2dbe
000003f0: 10fd 69be a47e d8be 43bc 9bbd b103 40be
-0.023725556 0.037001524 -0.43359587 0.32313338 0.33376166 0.48042354 0.088383876 -0.13973196
-0.06972881 -0.15692627 -0.4540186 0.17267507 0.068240754 -0.15414037 -0.28103563 -0.113752864
0.14159323 0.36788064 0.20690094 0.35629657 0.40286118 -0.24396211 -0.0056896806 -0.4135768
-0.28503957 0.19553211 0.19109531 0.22188787 0.42283285 0.20559564 -0.24147898 -0.10125054
0.051069863 0.23112668 -0.2421155 -0.19881806 0.20428503 0.15925205 0.4554357 0.4228748
-0.2173359 0.1884377 -0.30774346 -0.0068843057 -0.03404138 0.10817375 0.42439315 -0.38595477
0.47373834 0.33324012 -0.22637202 -0.1545259 -0.120752215 0.30088177 -0.114901096 0.194885
-0.18783416 0.41684538 -0.06974782 0.47216827 -0.37929413 -0.13568194 0.33676478 0.18406285
-0.23812816 -0.41137153 -0.36066476 -0.40880582 -0.2648378 -0.31869286 -0.16139358 0.44878158
-0.11532525 -0.29235414 0.23924299 -0.2744626 -0.24427542 -0.09643943 -0.06254525 -0.28777024
-0.3800004 -0.5046328 -0.19550355 0.23897807 0.025615104 0.38351876 0.09988782 -0.35946363
0.062404938 -0.11085945 0.29713708 0.12669039 0.47161132 -0.4310201 -0.22067742 -0.40911806
0.053260613 -0.31425118 -0.19886737 0.48810232 -0.19294411 0.23346737 0.31144607 0.38223168
0.41851825 0.30539295 0.050127003 0.4305492 0.48206568 -0.35904908 0.08960534 0.36120263
-0.3276171 0.18585037 0.320061 0.026684148 -0.15461051 -0.050572626 0.43878242 -0.39532918
0.2119984 -0.2605297 0.3460837 -0.21810414 0.09748232 0.32527417 -0.05501865 -0.07408355
0.4525919 0.47399142 0.26840013 0.0130889835 -0.0020415052 -0.30982453 0.34017956 0.23059571
0.40152526 -0.32667774 0.13616815 0.10472199 -0.13948756 -0.051201228 0.0961291 -0.13729598
0.47552556 -0.45107642 -0.068941385 -0.23421466 0.3758938 -0.18122524 -0.11635162 0.43097353
-0.4344081 -0.1640451 0.43830106 0.35325065 -0.14448817 -0.092240326 -0.2363911 0.10212872
0.14453867 0.33731726 0.21869305 0.24896452 -0.07526405 -0.35844135 0.27401525 -0.014567047
-0.32752872 0.055940323 0.48879662 -0.042436916 -0.43114552 0.3033581 0.38448232 -0.31936783
-0.43694288 -0.36164337 0.20457272 -0.21779005 -0.4804711 -0.032768834 -0.2510112 -0.14570342
-0.19489922 -0.16766796 -0.32790416 -0.098802 -0.3160149 -0.06555689 -0.3109542 0.030403689
0.37689424 -0.21731618 -0.044212904 -0.068349615 -0.15634273 -0.37093067 0.09925067 -0.021246098
0.048341874 -0.10675994 -0.32822445 -0.15823838 0.26368785 0.32153183 -0.18370542 0.29193637
-0.26508865 -0.051559493 -0.4261272 -0.084488325 0.12849408 0.2818141 0.19904742 0.25726533
-0.08527169 0.51666474 -0.3965751 -0.13099264 -0.10361364 0.3613526 0.121481106 0.5089378
-0.32554814 0.15350416 -0.41130322 0.16847019 -0.21323292 -0.22151446 0.052889306 0.06450025
0.5010794 0.4043447 0.03492809 0.17831843 0.12767017 -0.10867308 -0.3711343 -0.40391225
0.05795495 -0.19732468 0.46669963 -0.22179615 0.11400329 -0.25102562 0.5032837 0.23048113
0.2760339 0.14229864 -0.05765044 -0.16984864 -0.22850442 -0.4228412 -0.076042674 -0.18751408

decoder_net.2.bias f4 [32]
00000000: acfd da3d e39c d7bd 88f1 27bd 1983 d23b
00000010: e3c2 f43d 102e a03d ba1a 153e 077f d4bd
00000020: 38d5 fcbc a273 febc a302 0a3e fc6b 3b3e
00000030: 2c5f 1f3d 76c9 01be 287e 17be 6a27 0e3d
00000040: 7e0b 23be db00 9fbd a373 1ebe 2326 c13d
00000050: 6763 e43a 60f9 25be d573 e43d 6a1f 1bbe
00000060: 405c b6bc ae27 1a3e 328f bc3d b2bb 1dbe
00000070: 3c12 c93c 9c2a 36bd e4b9 863d 3b1d 353e
0.10692915 -0.10527971 -0.041001827 0.0064243195 0.11951234 0.07821286 0.14560977 -0.10375791
-0.03086339 -0.031060997 0.13477568 0.18302912 0.038909122 -0.12674507 -0.14794219 0.034705557
-0.15922353 -0.07763835 -0.154738 0.09431102 0.0017424644 -0.1620841 0.11154906 -0.15148702
-0.022260785 0.15054199 0.09207 -0.15403631 0.024544828 -0.04447423 0.065784246 0.17686932

decoder_net.4.weight f4 [32, 32]
00000000: c950 683e 9fde 233e a34e d43e 1e92 763c
00000010: f442 973e 7da7 983e 3fef b93c bc8f 96be
00000020: 70ee d8be d1fb b23e 4de6 edbe 66fa 633e
00000030: 5954 5abe 6ab9 24bd 84be 873e 3802 ffbe
00000040: 5cda b13e 68fd 133d 6967 a23e 7337 e63d
00000050: eee4 843e c63e 13be a4f0 69be a9c8 6a3e
00000060: 5c7a eebe 62d3 b4be f315 ecb9 ceb5 e63e
00000070: 5389 ef3d cb37 5abe 9269 993e 55c5 763e
00000080: 22f0 313e bee9 eb3e d264 bd3e 1156 333e
00000090: 5c72 f7be e9f2 753e 4c1c 893e 2884 8abe
000000a0: 870a a53e 2a6a fa3e 060f 233e 3a44 a23e
000000b0: 4fb3 9e3e f8af d1bd f7f8 d8be be2c 3cbe
000000c0: b1e3 993e dfc5 c7be 19f3 d33e 1526 e93d
000000d0: 554b 44be 12e8 cd3e 07c3 cabe 2290 68bd
000000e0: cfec f2be f00d 633e cc6a ae3d c712 a13e
000000f0: 9aaa 73be 4f3e b33e e108 febe 22cc ce3e
00000100: afe7 573e f6ae 0a3e abb8 c6be d3ac 80be
00000110: 56be a7bd 3469 8a3e 028f ba3e 1207 ee3e
00000120: 4d9c ea3d 0027 fabd 70f1 d9be bd0b b0bb
00000130: 1e2a 9a3d 49c2 53be 1383 583e 1975 aebe
00000140: a006 aa3d 7f3c d7bb 8516 b8be 56c6 e9be
00000150: 3bed cebe 3d90 f43e e4b6 34be 1860 e53d
00000160: 11bc 1dbe 07cc c13d 836c d1be efed 6d3e
00000170: 2f3e cd3e a88c e6bc 99ae 863c 2187 d2be
00000180: 2dfb 9ebe 1afd c6be 2170 ea3e 0ff9 09bd
00000190: 5c85 2a3e bd5b 8bbd dd83 7a3e e2a3 b83e
000001a0: 2819 bdbe d208 a6be 4b67 09be 4865 363d
000001b0: 0f65 c9bd 3bb3 593e ca01 633e fe5e d83d
000001c0: 709f dcbe 6c4e 9fbe e9d6 803e 9d77 3fbe
000001d0: 720f b1be 8735 d8bd ca3d c43e b28f 043e
000001e0: 50f4 53be 15e0 d63e 79ae b3bd 1973 cb3e
000001f0: d578 f93e 03b3 c1be ef02 c3bd 1e52 c03e
00000200: 4619 f6be 607d b23e ff82 c83e f816 ea3e
00000210: 37f6 3cbe 6cc6 d53e 9211 d83d f36c cf3e
00000220: 31b5 5c3e f017 4b3c 1d90 fdbe 8ea7 9abe
00000230: ae3c d23e fb74 443e 9d76 17be 5af5 f73e
00000240: 1807 bbbe 158e ab3e 3584 f73e f2b3 38be
00000250: ee00 0b3e 2ee5 a53e d49c f1bd 8fd4 d33d
00000260: 8630 7c3e 9cf7 14be 93d3 8fbe 1158 143e
00000270: 37d7 dcbe 1225 e3be 2670 10bb 2158 7fbe
00000280: 3531 fd3d 082b ba3d 1d5c d1be 4d21 9ebe
00000290: fba1 003f bb22 c7bc 0be5 86bd e304 55be
000002a0: b05b 3e3e 8f34 433e 7f4f 4a3e 7325 47be
000002b0: 692f 873e b070 9d3e 29ab f33e e4ff ebbe
000002c0: be29 4a3e 8178 43be 2eba 22be ea1b b4be
000002d0: e594 fd3d 0a1c c6be 3510 8ebe 7e76 d4bc
000002e0: 2e08 4b3e 7ead 523e 73c8 a43e b785 02bf
000002f0: eb6a 65be 4e7f 923d ba7c a3be 72e9 93be
00000300: d280 48be c903 833e 8964 6b3e a607 50be
00000310: de99 83be 535b c43d 453f 153e 2ed6 e23e
00000320: ca28 a83e ed0e 08be ca70 1dbd d67e 883e
00000330: 1700 da3d 3428 7f3e e978 e53e 9a9e 283e
00000340: 8289 26bd 2df7 f4be 106a 63be 83dc 663e
00000350: 4953 ec3e 0f39 1c3e c530 b6be cc4e c6be
00000360: fed5 f23e 4923 14be 5874 10be 261e b0bd
00000370: 8dec 8e3e a566 e73e 6d98 523e bf51 a83e
00000380: c813 db3e e372 f8be 2693 4bbe 4d3b 8bbe
00000390: b8d1 843e e7cc b93e 0a41 823d 6116 b43e
000003a0: 86b1 f4be 185f cbbd 5258 6a3d 6499 73bd
000003b0: be7a c83e 5769 51be 4c01 d43e 5c06 09be
000003c0: a9d4 103d 849f aa3d 9757 d43e 6a02 bebd
000003d0: edcc 2cbd b54c b63e 787b fe3e b89e 8ebe
000003e0: cf19 1a3e 678e 87bc 2e0d f0be c139 dcbe
000003f0: f8c3 fcbd 0c76 f3bd 371c d13d 97af 84be
0.22687067 0.16002892 0.41466245 0.0150494855 0.2954327 0.29815283 0.02269709 -0.29406536
-0.42369413 0.34957746 -0.46464768 0.22263488 -0.21321239 -0.040215887 0.2651254 -0.4980638
0.34736907 0.03613034 0.3171952 0.11241045 0.2595591 -0.14379415 -0.22845703 0.22928108
-0.46577728 -0.35317522 -0.0004502978 0.4506058 0.116961144 -0.21310346 0.29963356 0.24098714
0.1737676 0.4607677 0.36990982 0.175133 -0.48329437 0.24018444 0.267794 -0.27053952
0.32234594 0.48909122 0.159237 0.31692678 0.30996177 -0.102386415 -0.42377445 -0.18376443
0.30056527 -0.3901815 0.41396406 0.11384217 -0.19169362 0.40216118 -0.3960192 -0.05677808
-0.47446296 0.22173285 0.08516464 0.31459638 -0.23795548 0.35008475 -0.4961615 0.40390116
0.21084474 0.13543305 -0.38812765 -0.25131854 -0.081906006 0.2703339 0.3643723 0.4648977
0.11455593 -0.1221447 -0.42567015 -0.005372493 0.075275645 -0.20679583 0.21143751 -0.34073713
0.08302045 -0.006568491 -0.3595468 -0.4565913 -0.40415367 0.47766295 -0.17647892 0.11199969
-0.15403773 0.09462743 -0.409031 0.23235296 0.40086505 -0.028143242 0.016440677 -0.4111872
-0.31051007 -0.38864976 0.45788673 -0.033684786 0.16652435 -0.06804607 0.24464364 0.36062533
-0.36933255 -0.32428604 -0.1341831 0.044530183 -0.098337285 0.21259777 0.22168651 0.10564993
-0.4309039 -0.3111452 0.25163963 -0.18697973 -0.34582096 -0.105570845 0.3832839 0.1294544
-0.20698667 0.41967836 -0.087735124 0.3973625 0.48725 -0.37831888 -0.09522044 0.3756265
-0.48066157 0.3486128 0.39162442 0.4572065 -0.18453299 0.41752946 0.10550226 0.4051281
0.21553494 0.012395844 -0.49524012 -0.3020596 0.4106192 0.1918525 -0.14791341 0.48429376
-0.3652885 0.33506837 0.48343053 -0.18037394 0.13574573 0.32401413 -0.11797491 0.10343277
0.24627885 -0.1454758 -0.28091106 0.1448672 -0.43132946 -0.4436422 -0.0022039502 -0.24935962
0.12362901 0.09090239 -0.4089059 -0.3088478 0.5024716 -0.024308553 -0.06586655 -0.20802645
0.18589664 0.19063018 0.19756888 -0.1944788 0.2640336 0.30750036 0.47591522 -0.46093667
0.19742486 -0.19088937 -0.15891334 -0.35177547 0.12381915 -0.38693267 -0.2774674 -0.025935408
0.19827339 0.20573995 0.3218418 -0.5098528 -0.22404067 0.07153188 -0.31931096 -0.28889042
-0.19580391 0.25588825 0.2298757 -0.20315418 -0.2570333 0.09587731 0.14574917 0.4430403
0.3284362 -0.13286944 -0.038437642 0.26659268 0.106445484 0.2491768 0.4481881 0.16466752
-0.04065848 -0.4784483 -0.22208428 0.22545056 0.46157292 0.15256141 -0.35584083 -0.38731992
0.47428888 -0.14466585 -0.14106882 -0.085995 0.2791485 0.451955 0.20565958 0.32874867
0.4278853 -0.48525152 -0.19880351 -0.2719368 0.25941253 0.3628914 0.063600615 0.35173324
-0.4779169 -0.09930247 0.057213135 -0.059472457 0.39156145 -0.2045034 0.4140724 -0.13381332
0.03535906 0.083312064 0.41473076 -0.09277804 -0.04218762 0.35605398 0.49703574 -0.27855468
0.15048908 -0.016547395 -0.46885055 -0.43012813 -0.123420656 -0.1188775 0.1021046 -0.25915214

decoder_net.4.bias f4 [32]
00000000: e493 b5bc dba3 fa3d d2cc 13bd 964a 913d
00000010: b1b8 053e 3454 fa3d 703b b93d dad9 e93d
00000020: ae96 73bd 2383 de3c a03a 9dbd 858c 20be
00000030: 8d6f 0f3e ae92 35be 8639 e6bd 8d4c 9ebd
00000040: a0bd 2ebe 6266 1dbe e972 eebd ef7f 0abb
00000050: 93a2 2ebe ce0d f1bd 203b 02be af97 12be
00000060: 0921 ca3c 36ca a2bb 3e2e fd3c a7d1 103e
00000070: 0d87 adbd 6ae4 91bd 90fe 6e3d 4ca4 103e
-0.022165246 0.12238284 -0.036084004 0.07094304 0.13058735 0.12223092 0.0904454 0.11418505
-0.05946987 0.02716214 -0.076771975 -0.15678604 0.14007397 -0.17731735 -0.112414405 -0.07729445
-0.17064524 -0.15371087 -0.11643011 -0.0021133383 -0.17054205 -0.11770211 -0.12717867 -0.14315675
0.024673956 -0.004967953 0.030905839 0.14142476 -0.084730245 -0.07123645 0.05834824 0.14125174

decoder_net.6.weight f4 [32, 32]
00000000: 2dc1 29be bcc4 f53e 018f 39bd 8b4e dd3b
00000010: 4a15 503e 4d76 c8be 4128 cb3e c296 243e
00000020: 5218 b73e 2b24 253e 069d d4be cb66 5e3e
00000030: 2d7f 13bd 1284 bc3e 9a00 4b3e a368 d53d
00000040: 617e 5e3e 6511 aa3e d290 293e c520 db3e
00000050: c45b ed3e 9b18 cfbe 45da adbe e755 bbbe
00000060: 5f2f d0be c6f1 893e 399d ae3e f63b 3d3d
00000070: 07a2 84bd 0e63 dbbe c6c3 eabe db57 0f3e
00000080: 94a8 093e 2822 3f3e f3f0 2bbd 0f05 183e
00000090: 83b3 053e 7832 59be 066f d93e a782 26bd
000000a0: 1a3d 0dbc 7c41 acbe 652f c43e e05f db3e
000000b0: 9eea d03d c5e5 aabe 0038 93be 62d1 febe
000000c0: 5d16 6cbd 267b 643e 6508 8bbe 95f8 6fbe
000000d0: 9edf 90be fee6 c63d b230 583e 5418 c4be
000000e0: d5e2 7cbe f037 483e 1f81 b23e 5dd0 9d3e
000000f0: ea5f 0dbe 0b75 9cbc 4f05 92be 847d 0d3e
00000100: 306c c53e 546b c0bc 9f14 b0be 475f f33e
00000110: 6418 453e 14f6 203e c32c e63e 46c6 17be
00000120: 4d35 1bbd 34ef d03d e44d ca3e cf8c 663e
00000130: 20ed 5abd a6e4 c03e 38be 8a3c 5960 6abe
00000140: 42d4 ad3b 2868 f83e 505a f0be 1ae7 e03e
00000150: d7c8 c2be 7047 99be cb62 e4be a93e a53e
00000160: 92b5 623d 0491 b1be 72e9 49be 46c6 aa3e
00000170: e6d5 f23e e93f 13bc 6c2a 0f3e 7445 42be
00000180: 659f 523e 0af7 123e e984 dfbe 47a2 dd3e
00000190: c957 c63e 9d26 d03e 52f3 943d 5ac5 e4bd
000001a0: 9dbf ba3e b547 bcbe daa2 d2be ed57 2a3d
000001b0: 5972 3a3e 764e d33d 7c71 293d 6935 de3d
000001c0: c992 b9bd 7a88 9fbe d806 e0be 833a abbd
000001d0: 0fda 673e 87fe 5bbe e951 60be 118d d0bd
000001e0: 4e4c c53e 9984 8d3e d6bb 78be 1eeb 1abd
000001f0: f6cb f1be 3c63 c93d 3e6b 43be 5702 473e
00000200: 976f da3d 21b8 413d e25b 1c3c 0270 b43e
00000210: 644d 823d 2ea3 883e 0e0f 5f3e 6de9 703d
00000220: 7e3a fabc 2ef8 c4be 8445 8c3c 3ce3 debe
00000230: 9a04 5cbd 2ce3 8dbe d1d5 dc3e 7988 afbe
00000240: c2e9 a1be d49c 563e 8fee b1be edb5 f9bd
00000250: b031 8abe 2951 293d 7df0 9d3e 1132 003f
00000260: 3d4c 3fbd b411 a9be 44d5 053d f10d 0b3e
00000270: 3de4 1a3e 0cf8 c23e 0e6a 11be daae ec3e
00000280: ff84 dabe cd10 813e 06f6 85be 6f17 c0be
00000290: 9ef8 e13e 2297 bf3e ca62 a93d 5b03 8d3c
000002a0: f1c5 89be bf5b 94be f860 d7bc 33e2 7ebc
000002b0: af98 ed3e f3f2 fd3d a372 24be 5e83 883e
000002c0: e64e a0be 12ea 223e b419 983e 1ac8 06be
000002d0: 4ae6 f83d c9b8 cfbe f877 ed3e 33a2 da3e
000002e0: 0126 d03e acec 053e 4855 b23e fc15 b53e
000002f0: 30c8 53bc ed51 563c c90f e1be 6a7f 6c3e
00000300: cad1 d73b 2638 a5be 0a28 b53e ab65 97bd
00000310: 4aa9 1a3d 0b26 74bd 4507 eb3e 5b48 963e
00000320: 5f6a fd3e d389 e4be f63a d7be 1505 223e
00000330: 0a3c f8bd b580 e5be 2bd3 b33d f4f5 3bbe
00000340: 5460 b6bd 9982 ab3e e5c8 7ebd c4d0 dc3e
00000350: 8a8d 07be 015b 8cbd 1f72 db3e 0be6 c1be
00000360: 2dae bc3d 991d 69be 57a0 96be 6766 b2be
00000370: d067 ee3e f93d a6be 97f3 f83e 4f30 b2be
00000380: 4c98 db3e ae6e dfbe 31b3 e9be 453c d23e
00000390: 0ea2 603e fef1 a93e 1681 eebe 98cb 8a3e
000003a0: 1d9b d03e 6712 adbe 02e5 00be 434f ab3e
000003b0: c21e 663d 7a60 3a3e 527e 063e a8d5 3dbd
000003c0: 081c a73d d9e8 4a3e 682b a83e 26ca a5be
000003d0: 7733 9e3e b8e0 c2be b17b 9d3e b495 b73d
000003e0: fbb8 683d 66a8 8e3e e6bc 88be 3cd7 a33d
000003f0: 71fd 3ebd 8ba6 883d 6fe8 a83e 0bd0 0cbe
-0.16577597 0.4800166 -0.045302395 0.006753748 0.20320621 -0.39152756 0.3967915 0.16073135
0.35760742 0.16127078 -0.4152605 0.217189 -0.036009956 0.36819512 0.19824448 0.104203485
0.21727897 0.33216396 0.16559151 0.4279844 0.46359074 -0.4044846 -0.3395559 -0.36588976
-0.4066114 0.2694227 0.34104326 0.04619976 -0.06476217 -0.4284901 -0.45852488 0.13998358
0.13443214 0.18665373 -0.041977834 0.1484568 0.1305676 -0.21210659 0.42467517 -0.040651944
-0.008620525 -0.3364371 0.3831741 0.42846584 0.10201 -0.33378425 -0.28753662 -0.4976912
-0.057638515 0.22312602 -0.27154842 -0.2343467 -0.28295606 0.09712027 0.21112326 -0.3829981
-0.24695905 0.19552588 0.34864137 0.3082303 -0.1380612 -0.01909878 -0.28519675 0.13817412
0.38559103 -0.023488678 -0.34390733 0.47533628 0.19247586 0.15718871 0.44956025 -0.14821729
-0.03789263 0.102018744 0.3951255 0.22514652 -0.053448796 0.37674445 0.016936406 -0.22888316
0.005304844 0.48516965 -0.46943903 0.43926316 -0.38043854 -0.29937315 -0.44606623 0.32274368
0.05534894 -0.3468095 -0.19717959 0.33354396 0.47428817 -0.008987405 0.13981026 -0.18971807
0.20568617 0.1435205 -0.4365609 0.4328787 0.3873885 0.4065446 0.07272972 -0.11170454
0.36474314 -0.36773458 -0.4113987 0.04158776 0.18207683 0.103176996 0.041367993 0.10850031
-0.090612 -0.3115881 -0.4375522 -0.083607696 0.22641777 -0.21483813 -0.21906246 -0.10183156
0.38534778 0.27640226 -0.24290404 -0.03782188 -0.47225922 0.098333806 -0.19083878 0.19434486
0.10665815 0.04729474 0.009543391 0.35241705 0.06362417 0.26686996 0.21783087 0.058816362
-0.03054547 -0.38470596 0.017122991 -0.4353274 -0.053715326 -0.2771238 0.4313188 -0.34283808
-0.31623656 0.20958263 -0.34752318 -0.12192903 -0.26991034 0.041337166 0.3084754 0.50076395
-0.046703566 -0.3302132 0.03267409 0.13579537 0.15126128 0.3807987 -0.14200613 0.4622715
-0.42679593 0.2520813 -0.26164263 -0.37517878 0.44134992 0.37419993 0.08270796 0.017213514
-0.2690883 -0.28976247 -0.026291355 -0.01555686 0.4640555 0.123998545 -0.16059355 0.26662725
-0.31310195 0.15909603 0.2970711 -0.1316227 0.12153299 -0.40570667 0.4638059 0.42701873
0.40653995 0.13078564 0.3483069 0.35368335 -0.012926146 0.013081056 -0.43957356 0.2309548
0.006586288 -0.322694 0.3538211 -0.073924385 0.037759103 -0.059606593 0.45903984 0.29352078
0.49495217 -0.44636402 -0.4203717 0.15822251 -0.121208265 -0.44824758 0.087805115 -0.18355542
-0.08905092 0.33498076 -0.062203307 0.43128026 -0.13237587 -0.06853295 0.42860505 -0.3787082
0.09212909 -0.22765197 -0.29419205 -0.34843752 0.46563578 -0.32469156 0.48623344 -0.34802482
0.4288963 -0.4363913 -0.45644525 0.41061607 0.21936819 0.33192438 -0.4658286 0.27108455
0.40743342 -0.33803102 -0.1258736 0.3345891 0.056181677 0.18200865 0.13134125 -0.046346337
0.081596434 0.19815387 0.32845616 -0.3238079 0.3089864 -0.38062072 0.30758432 0.089641005
0.056817036 0.27862853 -0.26706618 0.08000037 -0.04662842 0.066723906 0.32989833 -0.13751237

decoder_net.6.bias f4 [32]
00000000: dab5 babd bdc6 163e aafd 19be 8e42 03be
00000010: 3ed8 29be d693 29be f138 193d 8b5c 00be
00000020: 01b4 67bd c8de a1bd 5007 81bd 4d39 9fbd
00000030: d225 c13d 7744 a1bd 514d b9bd ff0e bd3d
00000040: 5d17 1b3e 31a1 0d3e f7b4 86bd 9e09 113d
00000050: bfc2 b5bd 6cab 59bb a8cd c63b bd5d d2bd
00000060: 7965 48bd a497 983d 7671 413d c877 313e
00000070: c317 3abd b65a 7ebd 2adb 1dbe fabb aa3d
-0.09116717 0.1472425 -0.15038171 -0.12818357 -0.16586396 -0.16560301 0.03740782 -0.12535302
-0.05656815 -0.0790382 -0.06300223 -0.07774601 0.09431042 -0.07874387 -0.0904795 0.09231376
0.15145631 0.13831021 -0.06577485 0.035409562 -0.088750355 -0.0033213748 0.0060669966 -0.102717854
-0.048924897 0.07450798 0.047227345 0.17330849 -0.045432817 -0.062098227 -0.15415636 0.08336635

decoder_net.8.weight f4 [32, 32]
00000000: 1c78 febe e781 3fbe 8d79 8cbe 1d73 e2be
00000010: c3c3 d3be ff47 aa3e 69f6 9dbe 380c 96be
00000020: 028b 65be 1835 57bd 104c 933e d2be f6be
00000030: 2368 5dbe 7b29 92bd 0d0c 193e 185e 98be
00000040: a0a4 0bbe efc8 85be 07dc cdbd 63c8 823e
00000050: 53d6 52be 4150 69bd 9c97 abbe 149d 073e
00000060: 6f30 9ebe 33c2 083e 7cfc 00bf 0a24 533e
00000070: e686 0d3e 3f3a bdbe 266c 90bd caea 9bbe
00000080: 3495 7abe e226 693e cf5c 98be c238 8e3e
00000090: 3a49 813e 9cd1 e53e 168a 27be e204 dabe
000000a0: 2ad8 9d3e 6b73 d2bd b384 5cbe b52a 70be
000000b0: e496 e83e 50c7 bcbe 34ba 033e 23ba b73d
000000c0: 4053 52be 5136 983e 7228 993e 0e40 b43e
000000d0: f0ba 1e3e 6455 133e b10f f73d fedb 1dbe
000000e0: 1c10 c4be 00a2 a23c eb65 163d 53b3 a03e
000000f0: 5e82 7d3d db20 133d b356 40be 28c8 cb3e
00000100: 09fe d53e 96f9 f13e c4bc 22bc 9619 8ebe
00000110: 24ad c2be c81e f8be fd25 babe b913 02be
00000120: ff06 ba3e 93c5 d5be 009c 16be 6c87 523e
00000130: f1c8 4d3e 6110 543d c325 9bbd 4f7e 073c
00000140: 4ca2 adbe 1ebb 8e3e 17b9 a53e 1006 0a3e
00000150: c3b6 c63e a57a a83e a62b febe 7452 5dbe
00000160: 7cac c7be b263 4f3e ad5c f4be 1067 0d3e
00000170: 1cbe d5be b4ad 933e cf98 bdbe 5724 f4be
00000180: ba7c 46be ab79 2a3e 9b83 5bbe c5ea 443e
00000190: 615c 6a3c e24f 8abe a602 3dbd f1c7 9b3e
000001a0: 5b6e 98be b007 db3e d5b1 123e 29b9 843e
000001b0: 0767 bbbd 111b b93e 5f6c c7be 871a 41be
000001c0: ac36 a33e 1389 8ebe acad d13e b08d 3fbe
000001d0: fa9a f8be 95f8 ed3e 4d4d d73e 4fc6 4e3e
000001e0: 2e32 e0be 76e9 cf3d 7b1e e6bd fa30 f43e
000001f0: cac8 083e 33c2 5fbd 67b6 fbbe 4a10 33be
00000200: 0d7f bb3e 3d36 c3be 2764 8e3d d279 c8be
00000210: 314a 07bd 8ce7 fabd f96b 5bbd feb0 5bbc
00000220: 6702 15be d434 3bbe 5683 743e 2714 893d
00000230: c7c8 7dbe 15d6 883e 48fb 003f 4ba9 8b3e
00000240: 913c 603e 20ba abbd 030a c03e 74f9 46be
00000250: d284 813e cde9 ec3e 22b7 81bd 5982 88be
00000260: 49bc 213e 7566 8cbd 7203 923e e8b7 5fbe
00000270: 4f46 ae3e 0431 b73e 96f2 823e 2a12 943d
00000280: fde6 50be ff72 b13e 8f36 65bd 70bf 4fbe
00000290: f608 d33e 9b28 d6bd 0018 873e 16ce 783e
000002a0: ba78 5cbe 7b66 c03e 971f a5bc a44f 8f3e
000002b0: f3e3 b9be ed79 493e 3794 e03e 8120 7dbe
000002c0: 3841 e23e 5d6c 8dbe e523 3f3e 1a35 583e
000002d0: 378d 303d 79f4 4b3e 77e2 ea3d a786 7abe
000002e0: 355a c2be 9406 afbe fdcc 0abd 466b e93c
000002f0: 5d90 4fbd 7af6 cd3c 8221 e6be 9c8f f5be
00000300: 414c 3abe e1b0 debe 092a 6c3e db1d 2cbe
00000310: baee 7ebe 785f 7e3d 049a bd3d b569 863e
00000320: 9a8f ba3c a0ba 323e 0290 063e 78c7 dc3e
00000330: 6c53 083e f126 3d3e 2c29 dc3b d6ca 613e
00000340: 6040 e4bc 2bc5 77be baf2 93be b5d1 9b3e
00000350: 171c 303d aada f93e 5d28 973e 6a20 dc3e
00000360: 578f 7fbd cc18 a03e 72e8 743d ba7e d73d
00000370: df0c 333e f09b 9bbe 9861 e33e 0eb7 373e
00000380: faef d9bd 5e68 c1be 3d3d 8abe c12f 0bbd
00000390: cc5b c93d 955a 4b3e 38f3 fb3e 63ad b53e
000003a0: 1bd9 cfbc fcad b5bd c93a c83e f7b1 613c
000003b0: 259b c73d f4af d6bc 5c07 d93e 2305 8d3e
000003c0: b06a 633e 914d 3e3e 8d5a 53bd 7e85 2d3e
000003d0: 1037 b2be 248f a5be b61b 273e d341 dc3d
000003e0: 274b a4be 89cd 523e 9ced 643e 5ee4 983e
000003f0: a97f 77be 432f 86be 9c77 1dbc d3ce c3bc
-0.4970101 -0.18701898 -0.27436486 -0.4422845 -0.41360292 0.33258054 -0.3085206 -0.29306197
-0.22416309 -0.05254087 0.2876897 -0.4819246 -0.21621756 -0.07136818 0.14946003 -0.29759288
-0.13637018 -0.26129863 -0.100517325 0.25543508 -0.2058957 -0.0569613 -0.33514106 0.13243514
-0.30896327 0.13355331 -0.5038526 0.20619217 0.13820991 -0.369585 -0.07051878 -0.30452567
-0.24470979 0.22768739 -0.29758307 0.27777678 0.2525118 0.44886482 -0.1636127 -0.4258185
0.30828983 -0.102759205 -0.21534996 -0.23453791 0.4542762 -0.36870813 0.12864 0.0897105
-0.2053957 0.2972894 0.2991367 0.3520512 0.15500998 0.14388043 0.1206354 -0.15415952
-0.3829354 0.019852638 0.03671829 0.31386814 0.061891906 0.035920005 -0.18783073 0.39801145
0.41795376 0.4726073 -0.009932701 -0.27753896 -0.3802272 -0.48460984 -0.36357108 -0.12702836
0.36333463 -0.417523 -0.14707947 0.20559472 0.20096184 0.051773433 -0.07575562 0.00826986
-0.33912885 0.27877134 0.32367775 0.13478875 0.3881131 0.3290607 -0.49642676 -0.21613485
-0.38998783 0.20252874 -0.47726956 0.13808846 -0.41746604 0.28843462 -0.37030646 -0.47683975
-0.19383517 0.16647975 -0.21436922 0.19230182 0.014304251 -0.2701407 -0.046145104 0.3042598
-0.29771695 0.42779303 0.1432565 0.25922516 -0.0915051 0.36153463 -0.38949868 -0.18857776
0.3187765 -0.27838954 0.40952814 -0.18706393 -0.48555738 0.46478716 0.42051163 0.20192836
-0.43788284 0.10151951 -0.112362824 0.47693616 0.13357845 -0.054628562 -0.491626 -0.17486683
0.3662037 -0.38127318 0.06952696 -0.39155442 -0.03302974 -0.12251195 -0.053569768 -0.013408897
-0.14551698 -0.18281871 0.23878226 0.06693297 -0.24783622 0.26725832 0.50383425 0.27277598
0.21898104 -0.0838511 0.37507638 -0.19431096 0.25296646 0.46272126 -0.06333758 -0.26661947
0.15794481 -0.0685548 0.28518254 -0.21847498 0.34038016 0.35779583 0.25575703 0.07230027
-0.20400615 0.34658048 -0.055960234 -0.20287871 0.41217774 -0.10456964 0.26385498 0.24297366
-0.21530429 0.37578186 -0.020156665 0.27990448 -0.36306724 0.19675417 0.4386308 -0.2471943
0.44190383 -0.27621737 0.18666036 0.21114007 0.043103423 0.19917478 0.11468976 -0.24465428
-0.37959448 -0.34184706 -0.0338869 0.028493535 -0.050674785 0.025141943 -0.4494744 -0.47961128
-0.18193151 -0.43494323 0.2306291 -0.16808264 -0.24895754 0.062102765 0.09257892 0.26252523
0.022773553 0.17454004 0.13140872 0.43120933 0.13313073 0.18471886 0.0067187753 0.22050032
-0.027862728 -0.24196307 -0.28896123 0.3043343 0.04299554 0.4879964 0.29522982 0.4299348
-0.06239256 0.3126892 0.05979199 0.10522218 0.17485379 -0.30392408 0.44410396 0.17940924
-0.10641475 -0.37774938 -0.26999846 -0.03398109 0.09831962 0.19858773 0.49209 0.35483846
-0.025372079 -0.088710755 0.3910735 0.01377534 0.09746388 -0.026206948 0.42388427 0.27542982
0.22208667 0.18584277 -0.051600028 0.16945454 -0.34807634 -0.3233577 0.16319165 0.107547425
-0.32088587 0.20586218 0.22356266 0.2986173 -0.24169792 -0.26207933 -0.009611037 -0.023902332

decoder_net.8.bias f4 [32]
00000000: 9dc4 45bd e186 173e 9299 0f3e af01 003d
00000010: c784 0abe f791 07bd a32a 123e 4ac0 fcbd
00000020: 9164 69bd cf6b a63d 5113 033d a7f1 123e
00000030: 2948 033d ed83 a3bb 4add ff3c 9154 29bd
00000040: 9f48 25be 8744 a8bd 978a 26be 59a5 f33d
00000050: e824 b2bb de36 c43c 73c0 55bc 41a6 e2bd
00000060: f7c9 fcbd 036c cfbc 2c38 1e3d c260 c2bd
00000070: efcb cdbd c28e ec3d bbf1 93bd 3a30 c03d
-0.04828321 0.14797546 0.14023426 0.031251606 -0.13527213 -0.033098187 0.14274077 -0.12341364
-0.056980673 0.081260316 0.032000843 0.14349996 0.03205124 -0.004990092 0.031233449 -0.041340414
-0.16140984 -0.082161956 -0.16263805 0.11896772 -0.0054365285 0.023951944 -0.013046372 -0.11066867
-0.12343209 -0.025320059 0.03862779 -0.09491111 -0.10048663 0.115506664 -0.07223841 0.093841985

decoder_net.10.weight f4 [5, 32]
00000000: 9dca 913e a536 ab3e 90dc d23e b185 1fbe
00000010: 255d 5fbd fa6e 8ebe ed1f d53c e6d9 d7bb
00000020: 7f94 ccbd 9d28 50be 1e30 b23e ff3f a83e
00000030: ae7c e3be 8ae0 e4be 4b44 8abe 2e34 44bd
00000040: 3c3b 26bd f722 ea3e 853c aeba 5a52 9cbd
00000050: 5393 b43e bf77 12be 119d c13e 4144 c4bd
00000060: 2642 2ebe da9e 4c3d 636d b7be 1cb5 e33e
00000070: 7173 0c3e 8cdb dc3e 6025 f73e 3a21 c33c
00000080: aa99 bbbc 6af4 50bd 4e2e 99be e8ff 6e3e
00000090: 57cb afbe 30e3 cc3e b5d6 503e 9a1c 18bd
000000a0: 4d4e 9c3e 7352 883d b22c ce3e eb8a 91be
000000b0: 0f64 bbbe b0a0 54be 14c1 a53e 3194 8d3e
000000c0: c496 26be b7e2 eebd f01a 723e 8bd5 eebe
000000d0: 6d87 573e 7e5c 403d 0ab2 fc3d 896a f4be
000000e0: 0db1 853c c50e a03d 253f bf3e e30a cf3e
000000f0: 7765 8dbd e388 e93e c229 ecbe 7c33 cbbb
00000100: 8331 043d 13d9 bdbe 220f 923e 5e7d e33e
00000110: 14ed 56be 5425 c3be 4187 273d fb11 da3e
00000120: d786 4abe 17d4 3bbe b796 613e d831 df3e
00000130: 3271 f03e 12be e03e b384 b43e 84d1 8c3e
00000140: dbb7 f5be 2399 e63e fddf 35be 6062 d2be
00000150: 8580 93be c60a bebe 3b7e bebe c5d2 d8bc
00000160: b4b4 6e3e 4d71 c4be c69c e1be ea93 883e
00000170: 4667 eb3d e37b 383e a280 6fbe a24f 673e
00000180: 3c79 44be 5df1 f53e 77af 053e 9f42 b8be
00000190: 5a4f 623e 7c6f f43e 4151 97be b794 123e
000001a0: 59e7 05be 91fd bdbe a432 433e 09c8 af3e
000001b0: 0e9c e93e f333 f93c fd99 163c 87fe f83a
000001c0: 00b6 a03e fd93 41bd 6fdf 083e b3b8 8cbc
000001d0: 497f 5cbe 3177 9b3e c45f 143e 7d74 383e
000001e0: 81fb 03bd 8d2f e13d 4cbe 043e ee08 ca3d
000001f0: c800 46be 493b bcbd 5d7d 96be 2f4e 5cbe
00000200: aeb4 fdbe 9392 b93d 22fc 96be 2ac7 babe
00000210: 3953 8dbc ac2a b3be fc66 f9be 755a 5c3e
00000220: cc9f 6e3e 1df7 94bd f923 e9be 9001 d93e
00000230: 7b85 de3e 23c1 f53e cc13 973e b39b d03e
00000240: 1be8 b8be bf90 f9be 7748 bdbe f698 fa3e
00000250: 2278 e5be 2a18 0dbe b1b2 f73e e73a f93e
00000260: 0576 1c3e ed00 fd3e a51b 9c3d f19f a03e
00000270: 92ef 9ebd d22f 8e3e a1eb 75be 55d8 ec3e
0.28474894 0.33440128 0.411839 -0.15578343 -0.05453219 -0.27819043 0.0260162 -0.006587255
-0.09989261 -0.20327993 0.34802336 0.32861325 -0.4443106 -0.4470256 -0.27005228 -0.047901325
-0.040583834 0.457298 -0.0013293183 -0.07632895 0.3526865 -0.14303492 0.37815145 -0.09583331
-0.17017421 0.04995618 -0.35825643 0.44474113 0.13715912 0.4313625 0.48270702 0.023819555
-0.022900421 -0.05101434 -0.2991814 0.23339808 -0.34334823 0.4001708 0.20394404 -0.03713665
0.3052849 0.06656351 0.40268475 -0.28426298 -0.36599776 -0.20764422 0.3237387 0.27652124
-0.1626845 -0.11664336 0.23643088 -0.46647295 0.21047755 0.046963207 0.12338646 -0.4773753
0.016319776 0.07815317 0.37352863 0.40437993 -0.069041185 0.4561225 -0.4612561 -0.006201206
0.03227378 -0.37079677 0.2852717 0.44431585 -0.20988876 -0.38114417 0.040900473 0.42591843
-0.19778 -0.18342625 0.2203015 0.43592715 0.4696136 0.43895012 0.3525749 0.27503598
-0.47991833 0.4503871 -0.17761226 -0.4109068 -0.2880899 -0.37117594 -0.3720568 -0.02646769
0.2331112 -0.38367692 -0.4406492 0.2667535 0.11494307 0.18016009 -0.23388913 0.22588971
-0.19186872 0.48035708 0.13055216 -0.35988328 0.22100583 0.47741306 -0.2955418 0.14314543
-0.13076533 -0.37107518 0.19062287 0.34332302 0.45626873 0.03042028 0.009191987 0.0018996753
0.31388855 -0.047260273 0.13366483 -0.017177915 -0.2153293 0.30364373 0.14489657 0.18013187
-0.032222275 0.10995398 0.12963217 0.098649845 -0.19336236 -0.09190995 -0.2939252 -0.215142
-0.4955191 0.0906116 -0.29489237 -0.36480075 -0.017251598 -0.34993494 -0.48711383 0.21518882
0.23303145 -0.072736956 -0.45535257 0.42384005 0.43461213 0.47998914 0.2950729 0.4074379
-0.36114582 -0.48743245 -0.3696935 0.48944825 -0.44818217 -0.13778749 0.48378518 0.4867775
0.15279396 0.4941477 0.0762246 0.31372026 -0.07760538 0.2777086 -0.24015667 0.46258798

decoder_net.10.bias f4 [5]
00000000: 858f e9bc e2e3 ed3d 1945 be3d 6596 cb3c
00000010: 3d79 b23c
-0.028510818 0.11615731 0.09290523 0.024851987 0.021786327
