Action_Net.pt (torch, 631029 bytes, 10 tensors)

decoder_net.0.weight f4 [512, 39]
-0.5553881 -0.4849938 -0.14140585 0.3550279 0.34392852 -0.4408849 0.47654784 -0.28249124
-0.24741854 -0.3898747 0.4403591 0.058265727 0.14449987 0.18217272 -0.34175065 -0.11866757
-0.06395969 0.1679552 -0.4506126 -0.29111594 -0.19307868 0.8980915 -0.08971446 -0.66172427
-0.5600487 -0.32259548 -0.22374669 0.002435847 0.24907693 0.67447937 -0.21439879 -0.31935364
0.20320348 -0.17074619 0.63656837 0.5736783 -0.2539871 0.44301614 -0.17070596 0.0051742014
0.14347066 -0.65443957 -0.32756442 -0.7924312 -0.009385375 0.07008907 0.63414544 0.7114746
-0.5557781 -0.567703 -0.39210102 0.1196573 -0.4053368 -0.011782184 0.34662062 0.6886364
0.32203668 0.16153802 0.120568365 0.883491 0.18029739 -0.963698 -0.5428484 0.49880934
-0.1664551 -0.021051574 0.21940579 -0.09984037 -0.25000888 -0.34495467 -0.13177602 0.00591759
-0.64151967 -0.16065545 -0.13006614 -0.09088356 -0.0015604366 -0.45553926 0.3633344 -0.19198085
-0.52069443 0.14652763 0.37074512 0.15260577 0.13342746 -0.38222864 0.10680401 -0.20254847
0.001688767 0.09018491 0.0030145694 -0.75573736 0.4365208 -0.4057462 -0.35715598 0.19700246
-0.21818887 -0.50687844 0.75002724 0.032539897 0.0025598176 0.24263506 0.06882664 0.1890002
0.041110657 -0.19256723 -0.30910972 -0.25098833 -0.7124467 -0.1835664 -0.43397376 -0.48277462
0.49308276 0.6133482 -0.020785749 0.27817455 -0.34113017 0.8431631 0.087921955 0.16848595
-0.50868213 0.029012678 0.12159329 -1.0140082 0.118996486 -0.07455105 0.08187139 0.025184168
-0.40946496 0.5930165 -0.6273057 0.21975428 0.30322307 0.26441437 -0.10390932 0.22612616
0.5630533 -0.40425953 -0.5345518 -0.06684613 -0.9714949 0.7658668 0.73399293 -0.40562168
-0.52379686 0.13511334 0.4167711 -0.05605099 0.501889 0.47790658 0.077963136 -0.40684065
-0.46650267 -0.054601558 0.9604198 -0.11840317 0.24155515 0.05310802 -0.2756446 -0.704345
-0.67340255 0.46326825 -0.45915276 -0.37759152 0.0220488 0.10970074 -0.7121397 0.5583633
0.45807743 0.030389048 -0.6625024 -0.15538567 0.08026385 -0.19893552 0.047799584 0.35968018
-0.052865967 -0.55886585 -0.32836664 0.055577774 -0.009746188 -0.31256405 0.09348154 0.5640854
0.73394 0.07546884 -0.12028295 0.029051151 0.34804603 -0.5979646 0.86661845 0.05836627
0.26378158 -0.10885567 0.48985994 0.12562928 -0.1744041 0.32320604 0.6407216 0.13225217
0.498707 -0.6635556 0.4979933 0.457675 -0.6328734 0.043915156 -0.092826664 0.046488598
-0.37712306 -0.13437496 -0.10813368 0.26247093 -0.20997567 -0.16101664 -0.48520133 -0.8453203
0.27962035 0.54687756 0.3977643 -0.4206955 0.31954044 -0.246012 -0.61801136 -0.09287679
-0.36173293 -0.05711834 0.86409295 0.40948904 0.38081753 0.6790427 0.31680217 0.210074
-0.23229082 -0.5858569 0.015661638 -0.98741233 -0.03440098 0.38752976 -0.092918925 0.019626262
-0.083457135 -0.16614039 0.24078476 -0.70133764 -1.069744 0.91604465 0.5948176 -0.6599749
0.47097597 -0.18911932 0.44868675 0.40140474 0.025852246 0.38789275 -0.38044375 0.48192772
00000000: ea2d 0ebf 1b51 f8be b2cc 10be 38c6 b53e
00000010: 6617 b03e aabb e1be 14fe f33e b1a2 90be
00000020: 495b 7dbe a89d c7be bf76 e13e 0ba8 6e3d
00000030: c6f7 133e 7c8b 3a3e f1f9 aebe fc07 f3bd
00000040: 4cfd 82bd 73fc 2b3e b2b6 e6be 260d 95be
00000050: 6bb6 45be 53e9 653f 37bc b7bd c366 29bf
00000060: 5a5f 0fbf 3c2b a5be da1d 65be bba2 1f3b
00000070: 060e 7f3e aeaa 2c3f 5b8b 5bbe 5282 a3be
00000080: 9314 503e 17d8 2ebe 25f6 223f 95dc 123f
00000090: 990a 82be 03d3 e23e 8bcd 2ebe 598c a93b
000000a0: f9e9 123e 5a89 27bf 86b6 a7be c5dc 4abf
000000b0: 1ec5 19bc dc8a 8f3d 5b57 223f 3323 363f
000000c0: 7947 0ebf fc54 11bf 77c1 c8be e30e f53d
000000d0: 4e88 cfbe 100a 41bc 4278 b13e 7a4a 303f
000000e0: fee1 a43e 396a 253e 8cec f63d 772c 623f
000000f0: e19f 383e eab4 76bf 1df8 0abf f063 ff3e
00000100: 3573 2abe 5a74 acbc e9ab 603e 1c79 ccbd
00000110: 2a01 80be e69d b0be 4bf0 06be 58e8 c13b
00000120: a23a 24bf dd82 24be 0f30 05be 2921 babd
00000130: 9087 ccba 713c e9be f706 ba3e a196 44be
00000140: 3b4c 05bf 570b 163e 4ed2 bd3e b044 1c3e
00000150: 35a1 083e 79b3 c3be 10bc da3d de68 4fbe
00000160: 9e59 dd3a deb2 b83d 1590 453b 0178 41bf
00000170: a87f df3e f7bd cfbe 26dd b6be 03bb 493e
00000180: e76c 5fbe c9c2 01bf c901 403f 8e48 053d
00000190: 9dc2 273b 5375 783e fbf4 8c3d 4589 413e
000001a0: a663 283d 5830 45be a143 9ebe 8b81 80be
000001b0: e862 36bf d5f8 3bbe cf31 debe 3c2e f7be
000001c0: 5875 fc3e 6304 1d3f e046 aabc e56c 8e3e
000001d0: 9da8 aebe 89d9 573f 6d10 b43d 9587 2c3e
000001e0: fe38 02bf ffab ed3c e705 f93d 05cb 81bf
000001f0: 6eb4 f33d 39ae 98bd 30ac a73d 074f ce3c
00000200: 64a5 d1be eecf 173f 1b97 20bf 4407 613e
00000210: 0e40 9b3e 5261 873e 69ce d4bd 9e8d 673e
00000220: 4324 103f 1bfb cebe 63d8 08bf a0e6 88bd
00000230: e4b3 78bf d90f 443f f6e6 3b3f a5ad cfbe
00000240: 8d17 06bf 275b 0a3e 0663 d53e b995 65bd
00000250: cc7b 003f 2cb0 f43e 23ab 9f3d 6b4d d0be
00000260: 70d9 eebe e2a5 5fbd 12de 753f 5c7d f2bd
00000270: 3c5a 773e cc87 593d 4a21 8dbe f44f 34bf
00000280: 1c64 2cbf 7f31 ed3e 1216 ebbe ad53 c1be
00000290: af9f b43c c8aa e03d ca4e 36bf e6f0 0e3f
000002a0: 2089 ea3e 74f2 f83c c299 29bf 6c1d 1fbe
000002b0: 6061 a43d c1b5 4bbe 7fc9 433d 0028 b83e
000002c0: fc89 58bd d511 0fbf ac1f a8be 85a5 633d
000002d0: 7aae 1fbc 6508 a0be 4073 bf3d e767 103f
000002e0: 7ee3 3b3f 688f 9a3d e856 f6bd aefc ed3c
000002f0: 1733 b23e 3514 19bf b5da 5d3f 7811 6f3d
00000300: 610e 873e b9ef debd ecce fa3e f6a4 003e
00000310: fd96 32be 437b a53e 5506 243f 1d6d 073e
00000320: 8656 ff3e c8de 29bf faf8 fe3e 6154 ea3e
00000330: fe03 22bf 61e0 333d e81b bebd d46a 3e3d
00000340: 4616 c1be 9799 09be 3175 ddbd 9762 863e
00000350: dd03 57be 8ce1 24be 4f6c f8be e966 58bf
00000360: 662a 8f3e 2b00 0c3f c3a7 cb3e 6765 d7be
00000370: ce9a a33e 92ea 7bbe fe35 1ebf 3036 bebd
00000380: 0f35 b9be ecf4 69bd 3235 5d3f 8ca8 d13e
00000390: 84fa c23e bed5 2d3f e533 a23e a31d 573e
000003a0: a5dd 6dbe b8fa 15bf d64c 803c 0ec7 7cbf
000003b0: 0be8 0cbd 4d6a c63e 474c bebd 41c7 a03c
000003c0: 93eb aabd b520 2abe 4890 763e dd8a 33bf
000003d0: 5fed 88bf e781 6a3f f745 183f 1df4 28bf
000003e0: c323 f13e 7fa8 41be 45ba e53e ec84 cd3e
000003f0: 17c8 d33c e199 c63e 86c9 c2be 3bbf f63e

decoder_net.0.bias f4 [512]
0.38338968 0.41480425 0.36487558 0.35474312 0.39357162 0.40418795 0.40586424 0.36190975
0.3777247 0.38516888 0.37098533 0.38795844 0.41881093 0.42668006 0.39831185 0.3991076
0.37054095 0.35544875 0.3217579 0.4062906 0.43532038 0.39973244 0.3820421 0.4024705
0.41083938 0.3991076 0.38938648 0.37802657 0.39784238 0.38149703 0.40650442 0.42125493
0.38120583 0.41768235 0.3867425 0.42809945 0.39754486 0.47701925 0.38623017 0.37313238
0.45973545 0.3990753 0.39223462 0.37555355 0.39188302 0.36702612 0.38828713 0.39972544
0.4052795 0.38767156 0.40322474 0.394483 0.40086737 0.38426685 0.39675543 0.3960359
0.3388171 0.39046994 0.40788937 0.40100306 0.42968914 0.41596457 0.36380643 0.3660794
0.41502237 0.37746587 0.41096553 0.3753573 0.3991076 0.41627836 0.408752 0.39639097
0.386325 0.38631222 0.3836042 0.3917366 0.40632343 0.4179027 0.41483837 0.39617485
0.40416157 0.40617463 0.3832169 0.38895717 0.38102588 0.39067972 0.432827 0.46334735
0.38795388 0.4165542 0.38975132 0.4196036 0.39998895 0.37922168 0.37577957 0.384668
0.4155412 0.3991076 0.39184314 0.40419772 0.38330984 0.40803307 0.37151814 0.39465716
0.4288663 0.41040358 0.40046322 0.40240726 0.379037 0.40025932 0.39474386 0.38308114
0.42445046 0.42727956 0.30358654 0.42756778 0.38713217 0.3905406 0.41020292 0.37606496
0.4092298 0.39304954 0.40525532 0.4308454 0.39624512 0.34773126 0.43079337 0.41323432
0.4131811 0.3646968 0.4121271 0.40961793 0.39622805 0.4465052 0.40988952 0.38519084
0.36742163 0.39265683 0.3922667 0.37994307 0.42647308 0.3920088 0.36747375 0.36546037
0.4104446 0.4760728 0.40100333 0.3991076 0.3761207 0.38386115 0.39016476 0.42412052
0.40257886 0.3733552 0.37962067 0.40318188 0.40633819 0.44108298 0.38852286 0.41833827
0.392047 0.41708714 0.37344906 0.4169202 0.40143308 0.40094754 0.3988891 0.40685973
0.39096928 0.41306347 0.40981466 0.40688482 0.4204391 0.42971116 0.42004478 0.39763936
0.39193463 0.38461313 0.39206684 0.39614013 0.42490163 0.4077475 0.40546528 0.41172263
0.43041065 0.40683407 0.32193848 0.39628473 0.37555403 0.36294937 0.38448417 0.39121425
0.4077364 0.4755472 0.42129406 0.4001703 0.37960136 0.41074643 0.47807723 0.39295298
0.3982189 0.4179232 0.3991076 0.34387535 0.39091796 0.40356877 0.38431183 0.39062774
0.3651851 0.39915934 0.39466012 0.36611632 0.3867945 0.42019907 0.416685 0.4345275
0.36636904 0.38934 0.37613633 0.41138697 0.43634474 0.3847814 0.37888682 0.3795732
0.41747183 0.40099397 0.4011243 0.39584705 0.39931265 0.39163557 0.44625002 0.3991076
0.40931424 0.4161727 0.41936263 0.39682618 0.40368298 0.39240542 0.38934076 0.39978206
0.37979952 0.39299133 0.40839273 0.45640966 0.40846482 0.3991076 0.38195246 0.39144766
0.3863555 0.40801612 0.3791728 0.3987799 0.39370584 0.3983812 0.41159672 0.35954913
00000000: a74b c43e 3961 d43e f9d0 ba3e e4a0 b53e
00000010: 3882 c93e b9f1 ce3e 70cd cf3e 3c4c b93e
00000020: 2265 c13e db34 c53e caf1 bd3e 7da2 c63e
00000030: 636e d63e cf75 da3e 88ef cb3e d557 cc3e
00000040: 8bb7 bd3e 61fd b53e 74bd a43e 5205 d03e
00000050: 50e2 de3e bba9 cc3e 069b c33e 9d10 ce3e
00000060: 8a59 d23e d557 cc3e aa5d c73e b38c c13e
00000070: ffb1 cb3e 9453 c33e 5921 d03e baae d73e
00000080: 692d c33e 76da d53e 1d03 c63e da2f db3e
00000090: 008b cb3e de3b f43e f6bf c53e 350b bf3e
000000a0: 7262 eb3e 9953 cc3e fad2 c83e 8e48 c03e
000000b0: e4a4 c83e d9ea bb3e 92cd c63e d0a8 cc3e
000000c0: cb80 cf3e e37c c63e 7973 ce3e adf9 c93e
000000d0: 7d3e cd3e a0be c43e 8723 cb3e 38c5 ca3e
000000e0: 6f79 ad3e adeb c73e e0d6 d03e 4650 cd3e
000000f0: 3700 dc3e 4ff9 d43e d644 ba3e c26e bb3e
00000100: d07d d43e 3543 c13e 136a d23e d52e c03e
00000110: d557 cc3e 7022 d53e f147 d13e c2f3 ca3e
00000120: 64cc c53e b7ca c53e c567 c43e b391 c83e
00000130: a009 d03e 58f7 d53e b265 d43e 6ed7 ca3e
00000140: 44ee ce3e 1ff6 cf3e 0135 c43e 6525 c73e
00000150: d315 c33e 2c07 c83e 809b dd3e dd3b ed3e
00000160: e4a1 c63e 9846 d53e 7c8d c73e 48d6 d63e
00000170: 5acb cc3e 5829 c23e 2e66 c03e 34f3 c43e
00000180: d1c1 d43e d557 cc3e aa9f c83e 01f3 ce3e
00000190: 3041 c43e b6e9 d03e a037 be3e 8110 ca3e
000001a0: 5d94 db3e 6b20 d23e 8409 cd3e 5308 ce3e
000001b0: 2311 c23e caee cc3e de1b ca3e 3623 c43e
000001c0: 9251 d93e 63c4 da3e b26f 9b3e 2aea da3e
000001d0: 3036 c63e f0f4 c73e 1e06 d23e 968b c03e
000001e0: 9186 d13e ca3d c93e a07d cf3e c597 dc3e
000001f0: a4e0 ca3e d509 b23e f390 dc3e 7393 d33e
00000200: 798c d33e 8ab9 ba3e 5302 d33e 71b9 d13e
00000210: 67de ca3e 549c e43e 0add d13e bc37 c53e
00000220: b01e bc3e 510a c93e 2ed7 c83e e687 c23e
00000230: ae5a da3e 61b5 c83e 8525 bc3e 9f1d bb3e
00000240: cb25 d23e d0bf f33e 4f50 cd3e d557 cc3e
00000250: e492 c03e 7389 c43e adc3 c73e 5326 d93e
00000260: d11e ce3e 6a28 bf3e a45d c23e db6d ce3e
00000270: 8f0b d03e a1d5 e13e 78ec c63e 6f30 d63e
00000280: 62ba c83e 728c d53e b734 bf3e 9176 d53e
00000290: a388 cd3e ff48 cd3e 313b cc3e eb4f d03e
000002a0: 202d c83e 0e7d d33e 3ad3 d13e 3553 d03e
000002b0: cb43 d73e 1a03 dc3e 1c10 d73e 6397 cb3e
000002c0: a8ab c83e 03ec c43e fcbc c83e e1d2 ca3e
000002d0: b58c d93e 48c4 d03e 2599 cf3e 4fcd d23e
000002e0: c95e dc3e 8e4c d03e 1fd5 a43e d5e5 ca3e
000002f0: 9e48 c03e 80d4 b93e 1cdb c43e 3c4d c83e
00000300: d3c2 d03e ec7a f33e dbb3 d73e 1fe3 cc3e
00000310: 1c5b c23e 5b4d d23e 8ac6 f43e 2231 c93e
00000320: 59e3 cb3e 08fa d53e d557 cc3e 6e10 b03e
00000330: 6626 c83e 91a0 ce3e 85c4 c43e 5c00 c83e
00000340: 8bf9 ba3e 9d5e cc3e e410 ca3e 9973 bb3e
00000350: ee09 c63e 5524 d73e bc57 d53e 637a de3e
00000360: b994 bb3e 9357 c73e f194 c03e 50a1 d23e
00000370: 9468 df3e 1102 c53e 74fd c13e 6b57 c23e
00000380: debe d53e 154f cd3e 2a60 cd3e 77ac ca3e
00000390: b572 cc3e 7584 c83e e27a e43e d557 cc3e
000003a0: a391 d13e 9714 d53e b3b6 d63e cd2c cb3e
000003b0: 89af ce3e 5de9 c83e ac57 c73e 3cb0 cc3e
000003c0: 1575 c23e 2936 c93e da18 d13e 87ae e93e
000003d0: 4d22 d13e d557 cc3e 468f c33e d46b c83e
000003e0: 63d0 c53e 7de7 d03e f022 c23e e12c cc3e
000003f0: d093 c93e 9ff8 cb3e cebc d23e d316 b83e

decoder_net.2.weight f4 [512]
0.7394602 0.80464137 0.82174873 0.7580796 0.777967 0.83500373 0.8164282 0.7694185
0.811835 0.78193676 0.8168105 0.8840669 0.8207426 0.8776734 0.73073053 0.77104545
0.7698101 0.78240585 0.8030803 0.85685337 0.80673695 0.77954215 0.7798264 0.8063165
0.79342103 0.80226374 0.79231423 0.7828236 0.7510058 0.7785839 0.8196246 0.827771
0.85690004 0.78910774 0.78745985 0.7846382 0.82212204 0.7796845 0.7908976 0.8293491
0.7712489 0.97053903 0.8200323 0.8049664 0.8543061 0.7550026 0.78643113 0.70023465
0.7823954 0.77200085 0.8235209 0.8184879 0.94810563 0.75900954 0.8125204 0.7826353
0.7723877 0.8193583 0.83187324 0.7995533 0.7924768 0.82509 0.7978998 0.8404906
0.857985 0.7795061 0.78364205 0.9212167 0.7861396 0.79358786 0.80987465 0.7621046
0.7217431 0.78935915 0.79359716 0.8809082 0.78549296 0.7669345 0.81467646 0.81491923
0.8129734 0.80476034 0.8079911 0.8766435 0.8080504 0.8000002 0.7992102 0.82334423
0.71789765 0.80739117 0.8295535 0.8349278 0.80180645 0.78716993 0.68487644 0.7930583
0.7864734 0.8056209 0.788809 0.7683308 0.71728706 0.8023224 0.7696712 0.78022605
0.75692457 0.829476 0.7654524 0.7908559 0.80509514 0.87235326 0.7831518 0.8046475
0.84593856 0.80412704 0.79186344 0.7177199 0.83586854 0.7705398 0.8012131 0.7599636
0.8484595 0.7890527 0.710427 0.7846844 0.81086737 0.83135307 0.8058232 0.8305833
0.8145919 0.80109626 0.7509326 0.7572431 0.7467677 0.7846816 0.8319959 0.7802886
0.84821594 0.8271021 0.85121226 0.84555787 0.79959506 0.87713337 0.7732826 0.833279
0.8144682 0.78593034 0.7865292 0.84294605 0.82295346 0.77566576 0.7692791 0.7601744
0.76136446 0.7891114 0.7775958 0.8582895 0.822115 0.7667644 0.797266 0.85031456
0.8205948 0.8182549 0.7552107 0.85289115 0.75529057 0.79316676 0.79630655 0.81159985
0.8043909 0.79134876 0.9998789 0.8350192 0.7844198 0.80322933 0.874575 0.82118976
0.77980804 0.8373146 0.8031842 0.8388787 0.8861486 0.80882 0.8035871 0.88176334
0.8041231 0.8649156 0.7246907 0.78450865 0.8174537 0.80900466 0.75826854 0.85784197
0.8118573 0.8223003 0.7442605 0.71039623 0.78446984 0.8117187 0.7903586 0.81644464
0.7784964 0.80778605 0.78815204 0.78969413 0.7980083 0.77738184 0.84727174 0.7552307
0.76263285 0.8006035 0.82757235 0.8319386 0.8244549 0.80819887 0.8306509 0.8349568
0.81016874 0.8134424 0.82158965 0.7891693 0.79519373 0.79898185 0.8179912 0.86247796
0.80753124 0.8551079 0.7944926 0.7524741 0.7678968 0.8308261 0.7831266 0.8011847
0.8326163 0.8659623 1.008399 0.79875857 0.8292569 0.82757753 0.7570485 0.78535587
0.76683575 0.7473372 0.79003346 0.82135344 0.8124399 0.7943473 0.8500163 0.93538016
0.7986018 0.8115778 0.72196466 0.7994072 0.82538986 0.8176484 1.0243163 0.75072145
00000000: 434d 3d3f fafc 4d3f 205e 523f 8111 423f
00000010: d828 473f cec2 553f 7001 513f 9cf8 443f
00000020: 6bd4 4f3f 022d 483f 7e1a 513f 3552 623f
00000030: 301c 523f 34af 603f 2811 3b3f 3c63 453f
00000040: 4612 453f c04b 483f ac96 4d3f be5a 5b3f
00000050: 5086 4e3f 1390 473f b4a2 473f c26a 4e3f
00000060: a41d 4b3f 2861 4d3f 1bd5 4a3f 2167 483f
00000070: eb41 403f 4651 473f ebd2 513f cde8 533f
00000080: cd5d 5b3f f702 4a3f f896 493f 0dde 483f
00000090: 9776 523f 6799 473f 4478 4a3f 3950 543f
000000a0: 9170 453f 3f75 783f a3ed 513f 4712 4e3f
000000b0: ceb3 5a3f da47 413f 8d53 493f 9442 333f
000000c0: 114b 483f d9a1 453f 44d2 523f 6c88 513f
000000d0: 0db7 723f 734e 423f 5601 503f c95a 483f
000000e0: 33bb 453f 77c1 513f a5f5 543f 86af 4c3f
000000f0: c2df 4a3f 1939 533f 2943 4c3f 642a 573f
00000100: e8a4 5b3f b68d 473f c49c 483f dcd4 6b3f
00000110: 7240 493f 9328 4b3f f253 4f3f 4919 433f
00000120: 28c4 383f 7113 4a3f 2f29 4b3f 3383 613f
00000130: 1116 493f d255 443f a38e 503f 8c9e 503f
00000140: 061f 503f c604 4e3f 81d8 4e3f b56b 603f
00000150: 64dc 4e3f d0cc 4c3f 0a99 4c3f b0c6 523f
00000160: 24c8 373f 30b1 4e3f 9e5d 543f d4bd 553f
00000170: 3043 4d3f f883 493f 1054 2f3f de05 4b3f
00000180: 5256 493f 2c3d 4e3f 63ef 493f 54b1 443f
00000190: 20a0 373f 0065 4d3f 2c09 453f e5bc 473f
000001a0: cfc5 413f 8a58 543f b0f4 433f 8875 4a3f
000001b0: b71a 4e3f 8b52 5f3f a37c 483f 61fd 4d3f
000001c0: 6e8f 583f 45db 4d3f 90b7 4a3f 7ebc 373f
000001d0: 7bfb 553f 1942 453f 4d1c 4d3f f98c 423f
000001e0: a434 593f 5cff 493f 8bde 353f 14e1 483f
000001f0: 0195 4f3f 8ed3 543f 6e4a 4e3f 1ba1 543f
00000200: 1889 503f a514 4d3f 1e3d 403f afda 413f
00000210: 2b2c 3f3f e5e0 483f affd 543f fec0 473f
00000220: ae24 593f f7bc 533f 0ce9 593f 7b76 583f
00000230: 43b2 4c3f d08b 603f d9f5 453f c651 553f
00000240: fd80 503f bb32 493f fa59 493f 50cb 573f
00000250: 14ad 523f 0892 463f 7aef 443f ca9a 423f
00000260: c8e8 423f 3403 4a3f 8510 473f dcb8 5b3f
00000270: 2176 523f ac4a 443f a019 4c3f 37ae 593f
00000280: 8012 523f 2779 513f 7d55 413f 1357 5a3f
00000290: b95a 413f fa0c 4b3f bfda 4b3f 02c5 4f3f
000002a0: 90ec 4d3f d595 4a3f 10f8 7f3f d1c3 553f
000002b0: bccf 483f 70a0 4d3f 26e4 5f3f 7e39 523f
000002c0: 80a1 473f 405a 563f 7b9d 4d3f c1c0 563f
000002d0: a2da 623f d40e 4f3f e2b7 4d3f 3ebb 613f
000002e0: 03db 4d3f 1c6b 5d3f 5485 393f 8fd5 483f
000002f0: a544 513f ee1a 4f3f e31d 423f 889b 5b3f
00000300: e1d5 4f3f 4682 523f db87 3e3f 87dc 353f
00000310: 04d3 483f cccc 4f3f f154 4a3f 8402 513f
00000320: 8a4b 473f 11cb 4e3f 55c4 493f 6529 4a3f
00000330: 464a 4c3f 7f02 473f cde6 583f cd56 413f
00000340: e83b 433f 5af4 4c3f c8db 533f eef9 543f
00000350: 7a0f 533f 1fe6 4e3f 8aa5 543f bbbf 553f
00000360: 3867 4f3f c33d 503f b353 523f 0007 4a3f
00000370: d191 4b3f 138a 4c3f df67 513f 5bcb 5c3f
00000380: 5eba 4e3f 5ae8 5a3f de63 4b3f 25a2 403f
00000390: e294 443f 05b1 543f fc7a 483f 711a 4d3f
000003a0: 5826 553f b5af 5d3f 3813 813f 717b 4c3f
000003b0: 2e4a 543f 1fdc 533f eecd 413f 150d 493f
000003c0: 594f 443f 7e51 3f3f a23f 4a3f 3844 523f
000003d0: 10fc 4f3f 585a 4b3f ab9a 593f 1375 6f3f
000003e0: 2b71 4c3f 90c3 4f3f add2 383f f3a5 4c3f
000003f0: c04c 533f 6851 513f cc1c 833f 482f 403f

decoder_net.2.bias f4 [512]
-0.038033523 -0.0152690625 -0.013118487 -0.038827818 -0.000987638 0.01228528 -0.003977061 -0.017296989
-0.00058107625 -0.0007670129 -0.018039446 -0.0030291637 0.037439004 0.015799351 -0.004441072 0.028324302
-0.007371248 0.016669046 -0.005543622 -0.02126605 -0.0007398839 0.0005464433 -0.009454032 -0.014848584
0.013213529 -0.0035330493 0.0038744067 -0.022109408 0.0015268098 -0.008194915 -0.024562307 0.03297977
0.0045052613 0.03138795 0.013304714 0.03479288 -0.010742212 0.02341599 -0.0029827552 0.004933194
0.04142041 0.011217517 -0.018400403 0.010592678 -0.022570942 -0.027903322 -0.0032126075 0.0050791157
-0.013263953 -0.004657801 -0.013845905 0.020787716 0.010743943 0.029971756 0.009379204 0.007958856
0.028168555 0.0024509544 0.02974246 0.0033813396 0.03718275 0.024511138 -0.009140404 -0.024536697
0.009559942 -0.020096252 0.02336798 -0.022085022 0.011660838 -0.014978448 0.019078394 -0.00477218
0.0092385365 0.013851207 0.0019499086 -0.0013483347 -0.0015477438 0.0061379154 0.029518198 -0.008025676
0.011422124 0.008355033 -0.005656413 0.04741536 0.0088760285 -0.002466533 0.00537918 -0.0040497347
-0.017664256 -0.008135478 0.0035858578 -0.0009031781 0.0054103048 -0.023535596 0.023304783 -0.007740715
0.019101838 -0.0060310485 -0.002213517 0.0013682373 -0.020995108 0.016391773 -0.02224057 -0.0242779
0.026070466 0.018867256 -0.007497775 0.0012995275 -0.012290677 0.009954446 -0.008219682 0.002263796
0.018753005 0.03586271 0.015973326 0.042582877 -0.004154232 0.0032758121 0.016848901 -0.01238099
0.028553205 0.0074674776 -0.0062871533 0.028906016 0.0040998813 -0.033257365 0.035265937 -0.018104808
-0.0003364318 -0.008828117 0.03410586 0.024389856 -0.010685286 -0.0020239954 -0.0030473417 0.021916272
-0.0124649545 -0.026266871 -0.003918827 0.0062407125 0.0102066165 -0.00011692162 -0.029228058 -0.038585868
-0.0013385217 0.016759668 0.0171936 -0.048228372 -0.011879749 0.020981427 0.01752386 -0.002388736
-0.0005157544 0.0053511905 -0.013235701 -0.0020246129 0.009484577 0.047045656 -0.008079344 0.001140404
0.019931013 -0.019196423 0.019744387 0.03184655 0.015661832 0.009643647 0.011350208 -0.0024310604
0.0036250518 0.0060979193 0.02836426 0.021577107 0.011254912 -0.0040590055 -0.027574655 0.0025994831
0.0030526905 0.004269997 -0.0026661372 -0.0070974003 0.02555907 0.012856146 0.0056174076 0.025971318
0.013742652 -0.003885892 -0.055267863 0.0052693128 -0.0031729615 -0.008837811 0.0042166556 -0.029925216
-0.00026466895 -0.010312668 0.00678345 -0.009959156 -0.0010752159 0.015302101 0.014785718 -0.0094561605
0.006820541 -0.005355821 0.009276827 0.011499036 0.00165522 -0.0040433505 -0.027986724 -0.018848687
-0.02255189 0.005456958 -0.02160742 -0.014817867 0.0060232887 0.016489135 -0.0042128344 0.045231797
-0.028872091 -0.0062337555 0.005407406 0.028851904 0.036416605 0.012428707 0.02508044 -0.020477507
0.022422206 0.006618112 0.009494605 0.007861983 0.044292163 -0.03656876 0.021136096 -0.0047918707
-0.016717948 -4.1624287e-05 0.008624333 0.009040362 -0.007017468 0.010625137 0.0017650693 -0.009571706
0.011546727 -0.0018767656 -0.0062567294 0.032785863 0.027691532 0.0017526157 -0.025534585 0.007564903
-0.014590166 0.010356665 -0.0019016948 0.011007118 0.01834296 0.01677319 -0.01030683 -0.03511308
00000000: 0ac9 1bbd 172b 7abc ecee 56bc eb09 1fbd
00000010: a273 81ba 3348 493c 0152 82bb 6ab2 8dbc
00000020: 5e53 18ba 5d11 49ba 76c7 93bc ef84 46bb
00000030: a459 193d a46d 813c 6986 91bb 5e08 e83c
00000040: 838a f1bb 868d 883c 46a7 b5bb 2436 aebc
00000050: c5f4 41ba 303f 0f3a 16e5 1abc 7a47 73bc
00000060: 8f7d 583c bb8a 67bb c2e9 7d3b ca1e b5bc
00000070: 3c1f c83a f743 06bc e436 c9bc cc15 073d
00000080: dfa0 933b a790 003d 04fc 593c fb82 0e3d
00000090: 1a00 30bc e4d2 bf3c 547a 43bb a1a6 a13b
000000a0: 73a8 293d adc9 373c 71bc 96bc e98c 2d3c
000000b0: b2e6 b8bc 8295 e4bc 9c8a 52bb b66e a63b
000000c0: 0d51 59bc 77a0 98bb efd9 62bc 004b aa3c
000000d0: 5d07 303c 5487 f53c 3cab 193c dd65 023c
000000e0: bec1 e63c 31a0 203b 76a6 f33c 7799 5d3b
000000f0: f04c 183d 95cb c83c a2c1 15bc 2f01 c9bc
00000100: 4ea1 1c3c e5a0 a4bc 356e bf3c a6eb b4bc
00000110: 190d 3f3c 2a68 75bc 4b4a 9c3c f35f 9cbb
00000120: 3b5d 173c 2cf0 623c 1394 ff3a 9bba b0ba
00000130: aadd caba 9120 c93b 26d0 f13c 207e 03bc
00000140: dc23 3b3c 8ce3 083c 6e59 b9bb 9c36 423d
00000150: c36c 113c 8fa5 21bb d543 b03b a3b3 84bb
00000160: a1b4 90bc ab4a 05bc b600 6b3b 42c3 6cba
00000170: ed48 b13b b9cd c0bc ace9 be3c d3a5 fdbb
00000180: 757b 9c3c 1aa0 c5bb a710 11bb 6d56 b33a
00000190: effd abbc 0a48 863c db31 b6bc 72e2 c6bc
000001a0: bb91 d53c 818f 9a3c e5af f5bb e854 aa3a
000001b0: d65e 49bc f917 233c d8ab 06bc 325c 143b
000001c0: e79f 993c c7e4 123d 7eda 823c 626b 2e3d
000001d0: 3920 88bb 02af 563b b506 8a3c a3d9 4abc
000001e0: 69e8 e93c beb1 f43b 7704 cebb 4fcc ec3c
000001f0: 4c58 863b e038 08bd 0473 103d 8950 94bc
00000200: 1d63 b0b9 cea3 10bc 96b2 0b3d 3ccd c73c
00000210: 5611 2fbc 02a5 04bb e9b5 47bb c189 b33c
00000220: cf39 4cbc 9f2d d7bc 8169 80bb e47e cc3b
00000230: a739 273c d133 f5b8 ae6f efbc 370c 1ebd
00000240: 5671 afba 924b 893c 98d9 8c3c 1d8b 45bd
00000250: 47a3 42bc 3ee1 ab3c 338e 8f3c 578c 1cbb
00000260: b133 07ba 0a59 af3b 8eda 58bc 5eaf 04bb
00000270: 3365 1b3c f2b2 403d 3a5f 04bc 9c79 953a
00000280: 5d46 a33c d141 9dbc fbbe a13c 8771 023d
00000290: 3e4d 803c 6300 1e3c 39f6 393c 6d52 1fbb
000002a0: 4792 6d3b 0ed1 c73b 2a5c e83c 79c2 b03c
000002b0: 8666 383c 6801 85bb 3ee4 e1bc 175c 2a3b
000002c0: a60f 483b 55eb 8b3b 5cba 2ebb 4f91 e8bb
000002d0: 4161 d13c 96a2 523c 3b12 b83b cdc1 d43c
000002e0: dc28 613c 73aa 7ebb 8e60 62bd 33aa ac3b
000002f0: 76f1 4fbb 77cc 10bc df2b 8a3b ba25 f5bc
00000300: 44c3 8ab9 77f6 28bc b447 de3b ba2b 23bc
00000310: 42ee 8cba aab5 7a3c cc3f 723c 03ee 1abc
00000320: d87e df3b e27f afbb d5fd 173c 7466 3c3c
00000330: f8f3 d83a 157e 84bb 6a44 e5bc 9068 9abc
00000340: bebe b8bc 48d0 b23b 0b02 b1bc a4c6 72bc
00000350: 025f c53b 3914 873c d10b 8abb fa44 393d
00000360: 2a85 ecbc 8844 ccbb 9c30 b13b d45a ec3c
00000370: 9429 153d c7a1 4b3c 7f75 cd3c 72c0 a7bc
00000380: c6ae b73c bfdc d83b 428f 1b3c 8ccf 003c
00000390: b36b 353d 20c9 15bd 9b25 ad3c 2005 9dbb
000003a0: 14f4 88bc bd95 2eb8 134d 0d3c 071e 143c
000003b0: caf2 e5bb 0e15 2e3c e659 e73a a5d2 1cbc
000003c0: 7c2e 3d3c cefd f5ba 4005 cdbb 784a 063d
000003d0: 5ad9 e23c 06b8 e53a e82d d1bc 01e3 f73b
000003e0: 970b 6fbc 00af 293c 4a42 f9ba 3357 343c
000003f0: fa43 963c ee67 893c fadd 28bc bcd2 0fbd

decoder_net.3.weight f4 [256, 512]
1.1415396 -0.36671954 -0.123381406 -0.538001 -0.3769032 -0.17128791 0.47178185 -0.7202571
-0.25345084 -0.019941697 -0.20578474 0.22842677 -0.14310828 0.20074917 -0.6313056 0.20583151
0.9003577 0.17686133 0.21598035 0.11224299 0.23769175 -0.3640797 -0.32932296 -0.054894168
0.041564927 0.5303142 -0.50520754 0.6216791 -0.22610496 0.08698276 -0.08533234 -0.13140874
0.72626287 -0.26434365 0.50259054 0.72087157 0.30064166 -0.16484082 0.46157223 -0.011145101
-0.0770038 0.5705961 -0.776706 -0.20061055 -0.17576097 0.4352631 -0.020844115 0.29837292
-0.059848666 0.5200116 -0.13466156 0.11532942 0.15432046 -0.6489496 -0.80752134 0.15897922
-8.2696e-05 -0.10072751 -0.78606296 0.34381142 -0.34453225 0.10310356 -0.8217884 0.59873027
-0.23945242 0.46849394 0.18536983 -0.09932511 -0.013994383 0.21028261 -0.038792774 -0.3936534
-0.37045905 -1.1217536 -0.069544144 0.13363168 0.42195207 -0.047438126 0.74570006 0.6777503
0.51526505 -0.2316777 0.046833947 -0.46591875 -0.028228216 0.52706397 -0.00564581 -0.044790283
-0.24729234 -0.0733099 -0.0778337 0.29137957 0.120321065 -0.23971502 0.2669857 0.36963293
-0.29333532 -0.029046774 -0.42429048 0.51086104 0.059158236 0.50646883 0.10233142 -0.38576192
-0.55269295 0.33300957 -0.14896998 -0.031357914 -0.412973 0.2315938 -0.54716605 0.20517068
-0.06375721 -0.6839415 -0.020817738 0.35758045 -0.18395504 0.113953054 -0.75372946 0.47409236
0.6849875 -0.27387908 -0.21186793 0.5289339 -0.11104891 -0.17594682 0.16838871 0.17012289
0.14779252 0.42760837 0.3690725 -0.35030803 0.26038718 -0.13222134 0.22330235 0.19266632
-0.3180716 -0.26044497 -0.30105075 -0.058690112 -0.10066433 0.44852287 0.12994209 -0.16205151
0.14665374 0.10396414 -0.5712828 -0.23801315 -0.13081737 -0.703427 -0.1791504 -1.226133
-0.35762358 -0.2788587 0.24783029 -0.30424425 -0.114737764 -0.0004925734 -0.59212 0.11670538
-0.40243986 0.06531573 -0.47962403 -0.9326227 -0.48126018 0.6191785 0.09258254 0.21523546
0.2777576 -0.48082313 0.7803863 0.8472249 -0.30639705 0.12750606 0.30854195 -0.08161049
-0.3294286 0.3093505 1.082577 -0.35071138 0.38902 -0.77198005 0.13421819 0.13220589
-0.24628095 -0.25875187 0.09437602 0.39598018 0.55821025 -0.35724282 0.31722927 -0.6250633
-0.03290977 0.17494279 -0.074224085 0.44433245 0.12020911 -0.07890239 0.1706528 0.27491355
-0.4365327 0.059097815 0.15167242 0.30622643 0.19631398 -0.42818704 0.0303676 0.28957623
0.08137657 0.24249141 -0.079246536 0.7930791 0.37119585 0.2677556 -0.23620646 0.43170488
-0.60604155 0.06678293 0.11013549 0.35170084 -0.18911967 0.42212632 -0.00043891006 -0.22483708
0.055816863 0.31338054 0.23646937 0.04907856 0.2150014 0.45349142 -0.12597771 0.46576717
0.46583667 0.41109848 0.14311445 0.17171028 -0.54224735 0.009557932 0.32436842 0.26103702
-0.3532555 0.6731792 -0.37487227 -0.15733473 0.59967864 -0.23188369 0.08506994 0.33789697
-0.08340635 0.21865058 -0.59705806 0.21612315 0.87017673 0.07383313 -0.10959137 -0.28322497
00000000: f81d 923f aac2 bbbe 64af fcbd 6fba 09bf
00000010: 75f9 c0be 1966 2fbe 648d f13e c562 38bf
00000020: 4fc4 81be c55c a3bc 3cb9 52be b5e8 693e
00000030: fa8a 12be 3191 4d3e 3e9d 21bf 7fc5 523e
00000040: d87d 663f 231b 353e f429 5d3e a7df e53d
00000050: 7765 733e a868 babe 059d a8be b5d8 60bd
00000060: fc3f 2a3d acc2 073f 4855 01bf 5d26 1f3f
00000070: 0f88 67be 0424 b23d b9c2 aebd 0390 06be
00000080: 5dec 393f 0d58 87be c6a9 003f 0a8b 383f
00000090: b4ed 993e 08cc 28be 3253 ec3e f199 36bc
000000a0: 2bb4 9dbd 9612 123f 34d6 46bf da6c 4dbe
000000b0: affa 33be ceda de3e 47c1 aabc 56c4 983e
000000c0: e023 75bd 7b1f 053f b8e4 09be d531 ec3d
000000d0: 2f06 1e3e 9021 26bf b8b9 4ebf 73cb 223e
000000e0: 146d adb8 3a4a cebd 6c3b 49bf 0d08 b03e
000000f0: 8866 b0be f627 d33d b960 52bf 6346 193f
00000100: 0433 75be 70de ef3e 97d1 3d3e f76a cbbd
00000110: b248 65bc 5354 573e 2ce5 1ebd f08c c9be
00000120: cfac bdbe 9f95 8fbf 296d 8ebd bed6 083e
00000130: 1a0a d83e 7b4e 42bd 33e6 3e3f 0b81 2d3f
00000140: 69e8 033f eb3c 6dbe f4d4 3f3d e78c eebe
00000150: dc3e e7bc aaed 063f 7d00 b9bb 0476 37bd
00000160: 343a 7dbe 8023 96bd 4667 9fbd b42f 953e
00000170: e46a f63d db77 75be 5ab2 883e 8740 bd3e
00000180: 0c30 96be 80f3 edbc 9a3c d9be cac7 023f
00000190: e84f 723d f1a7 013f 2393 d13d 9682 c5be
000001a0: 497d 0dbf 3b80 aa3e 968b 18be 2871 00bd
000001b0: 3271 d3be ed26 6d3e 1313 0cbf 4318 523e
000001c0: 2493 82bd ca16 2fbf f689 aabc c914 b73e
000001d0: b65e 3cbe 3860 e93d 6af4 40bf 3cbc f23e
000001e0: 575b 2f3f e139 8cbe e8f3 58be 3668 073f
000001f0: 9c6d e3bd 672b 34be 176e 2c3e b234 2e3e
00000200: ec56 173e 7cef da3e 12f7 bc3e 935b b3be
00000210: 7851 853e 0865 07be 5fa9 643e 524a 453e
00000220: 48da a2be 0b59 85be 5323 9abe 0b65 70bd
00000230: 1a29 cebd caa4 e53e 8a0f 053e d5f0 25be
00000240: 662c 163e 27eb d43d 973f 12bf b8b9 73be
00000250: fdf4 05be cb13 34bf 3473 37be edf1 9cbf
00000260: 701a b7be 91c6 8ebe 39c7 7d3e e7c5 9bbe
00000270: a2fb eabd 0b20 01ba 2d95 17bf 3b03 ef3d
00000280: 990c cebe 41c4 853d 4891 f5be 5cc0 6ebf
00000290: bc67 f6be 7b82 1e3f ea9b bd3d af66 5c3e
000002a0: 3f36 8e3e 732e f6be 66c7 473f bbe3 583f
000002b0: 13e0 9cbe f390 023e 36f9 9d3e 6723 a7bd
000002c0: deaa a8be 3063 9e3e e291 8a3f 7190 b3be
000002d0: a12d c73e 7ca0 45bf 7e70 093e fb60 073e
000002e0: 1331 7cbe 207b 84be 3748 c13d eabd ca3e
000002f0: dee6 0e3f 88e8 b6be e06b a23e 2604 20bf
00000300: 65cc 06bd 3424 333e cc02 98bd 8b7f e33e
00000310: 3230 f63d 9497 a1bd 9cbf 2e3e 78c1 8c3e
00000320: 3781 dfbe 8d10 723d 0450 1b3e b6c9 9c3e
00000330: 8806 493e 553b dbbe 79c5 f83c 5643 943e
00000340: c2a8 a63d ab4f 783e 024c a2bd 3b07 4b3f
00000350: 620d be3e 4317 893e 1be0 71be 6c08 dd3e
00000360: 8a25 1bbf 7dc5 883d b78e e13d 2212 b43e
00000370: 96a8 41be f120 d83e 831d e6b9 b13b 66be
00000380: 39a0 643d 6a73 a03e 0725 723e 9a06 493d
00000390: 5429 5c3e 0730 e83e 4d00 01be 0979 ee3e
000003a0: 2582 ee3e 807b d23e 988c 123e d2d4 2f3e
000003b0: b9d0 0abf df98 1c3c 9e13 a63e a5a6 853e
000003c0: e8dd b4be 7955 2c3f 42ef bfbe 5b1c 21be
000003d0: 8a84 193f eb72 6dbe 2639 ae3d d500 ad3e
000003e0: f3d0 aabd f0e5 5f3e ccd8 18bf 634f 5d3e
000003f0: e7c3 5e3f d335 973d 7171 e0bd dd02 91be

decoder_net.3.bias f4 [256]
0.4008873 0.41124088 0.40234393 0.38861942 0.4039521 0.4005201 0.3968262 0.39317647
0.4180034 0.4098386 0.39198124 0.39035198 0.3908692 0.42511812 0.43131116 0.40204662
0.39643013 0.39869916 0.40771538 0.40697542 0.38168997 0.40437692 0.40181926 0.39204094
0.4138151 0.40249363 0.41000775 0.39609686 0.40214986 0.42339557 0.40058008 0.3993749
0.4016993 0.016544342 0.40494552 0.40378845 0.3828286 0.42829475 0.3858225 0.39128068
0.4051138 0.41355377 0.3893883 0.38612562 -0.53970593 0.3982414 0.3902085 0.41202036
0.39253354 0.36926314 0.41502565 0.39488357 0.3993227 0.40129587 0.39142764 0.3843785
0.39104593 0.39727026 0.10093586 0.40835804 0.38965213 0.35841048 0.40307635 0.45409182
0.3931666 0.4044067 0.39574236 0.41659507 0.41734034 0.41461316 0.39892957 0.4076385
0.38674894 0.3802956 0.4075226 0.40715522 0.402862 0.41555747 0.3944633 0.38802382
0.38316235 0.42858282 0.041420206 0.41925508 0.4282681 0.40864167 0.42079973 0.41086754
0.38729706 0.38233802 0.414231 -0.2666143 0.42311987 0.40416065 0.4028433 0.36966684
0.43030575 0.3896352 0.39041883 0.37472486 0.4246361 0.40710497 0.400224 0.41545802
0.40609106 0.38802966 0.4079656 0.40677258 0.41753843 0.40613985 0.38331646 0.42763183
0.3959421 0.3865211 0.40710932 0.3837474 0.4314375 0.41184142 0.38636345 0.45596817
0.38266748 0.40258962 0.39085773 0.40026492 0.37810248 0.39234057 0.4040148 0.44033253
0.3991621 0.4028661 0.38572514 0.41104934 0.394449 0.3977741 0.38395494 0.40456668
0.3958757 0.41788453 0.41982216 0.3862655 0.40890247 0.41305792 -0.17653136 0.41032264
0.40744016 0.404932 0.40349948 0.39633855 0.4039698 0.40268412 0.19550027 0.4323196
0.42199203 0.4113332 0.38111597 0.39404437 0.39793748 0.5584087 0.40399152 0.39938253
0.39789647 0.379184 0.4164347 0.40003297 0.40188622 0.40437546 0.40050888 0.38870597
0.3952345 0.40043667 0.39288488 0.4155885 0.40236834 0.3992662 0.41641074 0.4031242
0.43515483 0.39891103 0.42340723 0.3944692 0.39646065 0.41498917 0.4254363 0.40781292
0.40120372 0.37962112 0.4012084 0.41105944 0.3940076 0.4176329 0.38460875 0.60986954
0.37286443 0.39117107 0.40597296 0.42089498 0.40293753 0.41309515 0.4142906 0.39797497
0.4025061 0.37854183 0.39798912 0.40370515 0.43579403 0.4220688 0.40158996 0.3791376
0.4198342 -0.424235 0.3974202 0.39389122 0.40065613 0.3812907 0.39442933 0.39672723
0.40755096 0.41549587 0.41005838 0.40638417 0.39100143 0.39771357 0.41797733 0.39722887
0.40565664 0.38763696 0.3777411 0.41244045 0.4027549 0.40158194 0.40923598 0.38987982
0.40452704 0.40465546 0.40716007 0.39988318 0.38969493 0.3934201 -0.06718602 0.42200986
0.4257183 0.3897697 -0.29337037 0.4007825 -0.06219271 0.39394686 0.42081225 0.39529222
0.41056818 0.37305668 0.44117838 0.40425104 0.4514779 0.40120587 0.4627597 0.40110865
00000000: 1a41 cd3e 2a8e d23e 0600 ce3e 20f9 c63e
00000010: cfd2 ce3e f810 cd3e ce2c cb3e 6d4e c93e
00000020: 8b04 d63e 5dd6 d13e c4b1 c83e 37dc c73e
00000030: 0220 c83e 15a9 d93e d1d4 dc3e 0ed9 cd3e
00000040: e4f8 ca3e 4c22 cc3e 12c0 d03e 155f d03e
00000050: de6c c33e 7e0a cf3e 41bb cd3e 97b9 c83e
00000060: 93df d33e a513 ce3e 89ec d13e 35cd ca3e
00000070: 96e6 cd3e 4ec7 d83e d518 cd3e de7a cc3e
00000080: 88ab cd3e 0088 873c 0555 cf3e 5cbd ce3e
00000090: 1c02 c43e 7349 db3e 878a c53e f155 c83e
000000a0: 136b cf3e 52bd d33e e75d c73e 42b2 c53e
000000b0: 2b2a 0abf 4ce6 cb3e 69c9 c73e 55f4 d23e
000000c0: 28fa c83e 0f10 bd3e 3e7e d43e 2e2e ca3e
000000d0: 0674 cc3e a776 cd3e 3469 c83e 42cd c43e
000000e0: 2c37 c83e 0267 cb3e 76b7 ce3d 4e14 d13e
000000f0: 7c80 c73e 9481 b73e 0660 ce3e b97e e83e
00000100: 224d c93e 650e cf3e be9e ca3e f34b d53e
00000110: a2ad d53e 2d48 d43e 7f40 cc3e feb5 d03e
00000120: f503 c63e 1bb6 c23e cda6 d03e a676 d03e
00000130: ee43 ce3e f3c3 d43e 18f7 c93e 0fab c63e
00000140: db2d c43e 356f db3e 3ca8 293d 9aa8 d63e
00000150: f545 db3e 7b39 d13e 1073 d73e 3b5d d23e
00000160: cd4b c63e cfc1 c33e 1616 d43e ab81 88be
00000170: 2ba3 d83e 25ee ce3e 7a41 ce3e f944 bd3e
00000180: 0951 dc3e 447e c73e fae4 c73e f0db bf3e
00000190: e769 d93e 1070 d03e 29ea cc3e eab6 d43e
000001a0: 2beb cf3e d3ab c63e dee0 d03e 7f44 d03e
000001b0: 99c7 d53e 90f1 cf3e 0e42 c43e 8ff2 da3e
000001c0: ecb8 ca3e 18e6 c53e a270 d03e 8a7a c43e
000001d0: 60e5 dc3e e1dc d23e 6ed1 c53e a974 e93e
000001e0: feec c33e 3a20 ce3e 811e c83e 86ef cc3e
000001f0: a696 c13e dde0 c83e 07db ce3e 4473 e13e
00000200: fa5e cc3e 7744 ce3e c47d c53e 0f75 d23e
00000210: 38f5 c93e 0ca9 cb3e be95 c43e 5d23 cf3e
00000220: 38b0 ca3e f6f4 d53e eef2 d63e 97c4 c53e
00000230: aa5b d13e 547c d33e a3c4 34be cf15 d23e
00000240: ff9b d03e 3f53 cf3e 7c97 ce3e e3ec ca3e
00000250: 21d5 ce3e 9d2c ce3e 3931 483e ff58 dd3e
00000260: 570f d83e 449a d23e a221 c33e 2fc0 c93e
00000270: 76be cb3e dff3 0e3f fad7 ce3e de7b cc3e
00000280: 16b9 cb3e 6824 c23e ee36 d53e 1fd1 cc3e
00000290: 08c4 cd3e 4d0a cf3e 800f cd3e 7804 c73e
000002a0: 2d5c ca3e 0906 cd3e 3528 c93e 04c8 d43e
000002b0: 3903 ce3e 9f6c cc3e ca33 d53e 4c66 ce3e
000002c0: 9dcc de3e 113e cc3e d5c8 d83e def7 c93e
000002d0: e4fc ca3e 7679 d43e c9d2 d93e dbcc d03e
000002e0: 936a cd3e b35d c23e 306b cd3e 6276 d23e
000002f0: 5dbb c93e fbd3 d53e 70eb c43e 6920 1c3f
00000300: 16e8 be3e 9347 c83e b0db cf3e 8c7f d73e
00000310: d44d ce3e 3581 d33e e61d d43e 60c3 cb3e
00000320: 4815 ce3e 3cd0 c13e 3bc5 cb3e 71b2 ce3e
00000330: 6520 df3e 6719 d83e 339d cd3e 531e c23e
00000340: 82f4 d63e 5435 d9be a97a cb3e 1cac c93e
00000350: cd22 cd3e 8938 c33e a4f2 c93e d51f cb3e
00000360: 85aa d03e e0bb d43e 2cf3 d13e 9611 d03e
00000370: 5731 c83e 1da1 cb3e 2001 d63e 9561 cb3e
00000380: 3ab2 cf3e 5a78 c63e 4867 c13e 652b d33e
00000390: e435 ce3e 269c cd3e 6187 d13e 549e c73e
000003a0: 2b1e cf3e 002f cf3e 4977 d03e 7dbd cc3e
000003b0: 1886 c73e 5c6e c93e d398 89bd ad11 d83e
000003c0: c0f7 d93e e58f c73e a434 96be 5d33 cd3e
000003d0: c8bd 7ebd 67b3 c93e b474 d73e be63 ca3e
000003e0: fe35 d23e 4901 bf3e 22e2 e13e fef9 ce3e
000003f0: 1c28 e73e db6a cd3e d7ee ec3e 1d5e cd3e

decoder_net.4.weight f4 [256]
0.743433 0.76072025 0.7187126 0.6934207 0.7570868 1.0148374 0.83516544 0.72321844
1.1370099 0.8236775 0.7764109 0.7471628 0.74738437 0.9169992 0.7710646 0.70339876
0.77788484 0.7529641 0.75429136 0.74440604 0.8571737 0.72017163 0.9071381 0.75535613
0.9175076 0.72601855 0.7497546 0.7794412 0.9930025 0.67483294 0.86358374 0.7111619
0.7727065 0.8032345 0.8318832 0.8030067 1.0173883 0.74437803 0.74858415 0.8224694
0.8139461 0.7302138 0.8344971 0.7410116 0.7982152 1.4603763 0.79687047 0.75700396
0.7677591 0.7885807 0.7396584 0.8042255 0.659773 1.2409837 0.67655843 0.7079028
0.71882206 1.1295236 0.8007683 0.7270984 0.83005744 0.9944563 0.7561553 0.6283211
0.86331785 0.75240904 0.7571898 0.7684436 0.7301683 0.82759213 0.9745555 0.7053976
0.72816837 1.0326768 0.7630424 0.77083075 0.7449367 0.7725748 0.95918924 0.68285775
0.9182263 0.77298135 0.79689693 1.2549219 0.755534 0.7674925 0.7712926 0.7868509
0.8278258 0.7603503 0.9520319 0.8025008 0.7897629 0.75017357 0.7459341 0.8813151
0.7653502 0.69772136 0.7332702 0.6806465 0.7310246 0.76036423 0.7738844 0.8078813
0.7787816 0.7335677 0.75822246 0.7423351 0.74826443 0.76681745 0.746573 0.7686118
0.6670862 0.7893656 0.7853079 0.8119975 0.7417369 0.76783353 0.8468046 0.67853045
0.90825355 0.7940903 0.7117833 0.83504426 0.77081126 0.7444141 0.7761283 0.7518492
0.76723075 0.9843005 0.7356315 0.881574 0.71083367 1.2360549 0.8761776 0.756875
0.7375967 0.74965775 0.85459566 0.7414583 0.74144167 0.7695028 0.8001007 0.76946986
0.64665633 0.78294915 0.74575466 0.71370465 0.741111 0.91418386 0.7911523 0.71716195
0.76907545 0.8444492 0.9520372 0.8046427 1.4102565 0.3380914 0.8753901 0.7454342
0.9216666 0.8283647 0.78395903 0.94996953 0.7927412 0.7213995 0.72594166 1.0264964
0.7742309 0.7827597 1.3644994 0.7688813 0.8493838 0.7496591 0.75450814 0.7682298
0.72813076 0.7084254 0.7466906 0.82804334 0.80540407 0.7612994 0.7511917 0.72987914
0.75713366 0.7403548 0.75465506 0.7689459 0.73179674 1.3393526 0.73486316 0.2940123
0.769985 0.7613897 0.7518657 0.760173 0.75365573 0.773906 0.74863553 0.729369
0.9348532 1.089073 0.86541504 0.7625629 0.7541113 0.7527743 0.75908375 0.82229036
0.73721975 0.79669404 0.7775042 0.74879134 0.983399 0.933725 0.7854669 0.72811747
0.7774205 0.8223367 0.7749803 0.7446782 0.81791174 0.6037207 0.779345 1.0335507
0.7861124 0.8395105 0.93922657 1.471044 0.76181453 0.76128244 0.743809 0.6870876
0.7632729 0.7344188 0.7514144 0.71549046 0.70190203 0.68508285 0.8008837 0.7650102
0.76678723 0.86948043 0.79521674 0.7001256 0.7978113 0.73913753 0.90143996 1.0036646
1.2253569 0.8230323 0.7369316 0.7575965 0.63489896 0.7685112 0.54691654 1.416368
00000000: a051 3e3f 90be 423f 8dfd 373f 0584 313f
00000010: 71d0 413f 31e6 813f 67cd 553f d824 393f
00000020: 8a89 913f 87dc 523f ddc2 463f 1046 3f3f
00000030: 9554 3f3f 76c0 6a3f 7d64 453f f111 343f
00000040: 7623 473f 41c2 403f 3d19 413f 6591 3e3f
00000050: bc6f 5b3f 2b5d 383f 343a 683f 055f 413f
00000060: c7e1 6a3f 5adc 393f ebef 3f3f 7589 473f
00000070: 6935 7e3f dac1 2c3f d313 5d3f b50e 363f
00000080: 18d0 453f c7a0 4d3f 4cf6 543f d991 4d3f
00000090: c839 823f 8f8f 3e3f 36a3 3f3f 5b8d 523f
000000a0: c65e 503f 4bef 3a3f 9aa1 553f f0b2 3d3f
000000b0: d557 4c3f 9ced ba3f b4ff 4b3f 03cb 413f
000000c0: dc8b 443f 6de0 493f 415a 3d3f b9e1 4d3f
000000d0: e2e6 283f 8ed8 9e3f ef32 2d3f 1e39 353f
000000e0: b904 383f 3b94 903f 27ff 4c3f 1f23 3a3f
000000f0: a57e 543f b094 7e3f 6593 413f a7d9 203f
00000100: 6602 5d3f e19d 403f 31d7 413f b8b8 443f
00000110: 4fec 3a3f 14dd 533f 787c 793f f094 343f
00000120: 3e69 3a3f c12e 843f bf56 433f 2a55 453f
00000130: 2cb4 3e3f 76c7 453f 6d8d 753f c4cf 2e3f
00000140: e110 6b3f 1be2 453f 7001 4c3f 48a1 a03f
00000150: ad6a 413f 637a 443f 6f73 453f 106f 493f
00000160: 64ec 533f 51a6 423f 5db8 733f b170 4d3f
00000170: e72d 4a3f 600b 403f 8af5 3e3f de9d 613f
00000180: feed 433f de9d 323f 99b7 3b3f d93e 2e3f
00000190: 6e24 3b3f 3ba7 423f 4a1d 463f 4fd1 4e3f
000001a0: 3b5e 473f 18cb 3b3f de1a 423f ac09 3e3f
000001b0: 428e 3f3f 264e 443f 681f 3f3f bec3 443f
000001c0: 29c6 2a3f dd13 4a3f f009 493f 11df 4f3f
000001d0: 78e2 3d3f bd90 443f 30c8 583f 2cb4 2d3f
000001e0: 4e83 683f 8049 4b3f 6e37 363f 76c5 553f
000001f0: e353 453f ec91 3e3f 58b0 463f 3079 403f
00000200: 3c69 443f 1efb 7b3f 5952 3c3f d5ae 613f
00000210: 32f9 353f 0c37 9e3f 2d4d 603f 8fc2 413f
00000220: 23d3 3c3f 92e9 3f3f c8c6 5a3f 36d0 3d3f
00000230: 1fcf 3d3f 23fe 443f 66d3 4c3f fafb 443f
00000240: 458b 253f 5b6f 483f c7e9 3e3f 59b5 363f
00000250: 73b9 3d3f f407 6a3f f588 4a3f ed97 373f
00000260: 21e2 443f d32d 583f b6b8 733f 10fd 4d3f
00000270: 4983 b43f 511a ad3e 9119 603f c7d4 3e3f
00000280: 58f2 6b3f b50f 543f 8ab1 483f 3431 733f
00000290: 16f1 4a3f a3ad 383f 50d7 393f 3c64 833f
000002a0: ff33 463f f162 483f eba7 ae3f 68d5 443f
000002b0: 3771 593f a9e9 3f3f 7227 413f b5aa 443f
000002c0: c766 3a3f 5e5b 353f 1d27 3f3f a6fa 533f
000002d0: f62e 4e3f 84e4 423f 194e 403f 5cd9 3a3f
000002e0: 83d3 413f e487 3d3f 1331 413f a3d9 443f
000002f0: 0857 3b3f e86f ab3f fe1f 3c3f c888 963e
00000300: bd1d 453f 6fea 423f 457a 403f b39a 423f
00000310: 95ef 403f b41e 463f 94a6 3f3f edb7 3a3f
00000320: 8a52 6f3f be66 8b3f d78b 5d3f 5237 433f
00000330: 700d 413f d1b5 403f 5053 423f 9f81 523f
00000340: 6fba 3c3f 24f4 4b3f 840a 473f cab0 3f3f
00000350: 09c0 7b3f 9a08 6f3f 5c14 493f e865 3a3f
00000360: 0805 473f a884 523f 1c65 463f 3ba3 3e3f
00000370: aa62 513f 718d 1a3f 2783 473f 644b 843f
00000380: aa3e 493f 29ea 563f 2771 703f 2b4b bc3f
00000390: 4706 433f 68e3 423f 446a 3e3f f9e4 2f3f
000003a0: da65 433f df02 3c3f b25c 403f 622a 373f
000003b0: daaf 333f 9761 2f3f b706 4d3f b5d7 433f
000003c0: 2b4c 443f 4596 5e3f 5393 4b3f 6e3b 333f
000003d0: 5d3d 4c3f 1e38 3d3f c5c4 663f 1578 803f
000003e0: 7fd8 9c3f 3fb2 523f 8da7 3c3f d8f1 413f
000003f0: bd88 223f 26bd 443f b902 0c3f 8c4b b53f

decoder_net.4.bias f4 [256]
-0.015739422 -0.0021717916 -0.020071136 -0.03437558 -0.023121646 -0.17773008 -0.07992369 -0.030661374
-0.051408418 -0.06058992 -0.054999072 -0.023967233 -0.041124 -0.12980402 -0.008582932 -0.017914318
-0.10285603 -0.026361734 -0.013802665 -0.03238807 -0.059955474 -0.03172498 -0.017254535 -0.07574676
-0.06847177 -0.023188185 -0.010544753 -0.018850826 -0.11016479 -0.034004007 -0.046378307 -0.030476557
-0.010147871 0.0059024547 -0.13802215 -0.015558227 -0.107508674 -0.020815108 -0.02541196 -0.048634984
-0.07496993 -0.015252071 -0.021607272 -0.01888281 0.0 -0.10681817 -0.018897068 0.0033120727
-0.018810878 -0.047061343 -0.0069054686 -0.08827398 -0.060401496 -0.062131476 -0.041644126 -0.040139034
-0.026107673 -0.0148965735 0.0011207301 -0.012426916 -0.026184963 -0.101920225 -0.011024011 -0.27832615
-0.038571946 -0.008296962 -0.010738306 -0.0025944992 -0.007980483 -0.22346 -0.099806994 -0.04025847
-0.026097609 -0.09668061 -0.008446389 -0.009197474 -0.019601896 -0.014150853 -0.16427444 -0.033629697
-0.18085223 0.004474315 0.00034268002 -0.06136563 -0.01925187 -0.013903465 -0.003027017 -0.014066787
-0.088748164 -0.038334068 -0.067761764 0.0052472213 -0.0016160425 -0.014438416 -0.006755492 -0.050030258
-0.016351497 -0.10021332 -0.024728857 -0.082708664 -0.013088163 -0.006908869 -0.013048917 -0.018321391
-0.0096852435 -0.04269243 -0.00810285 -0.016213387 0.0019896373 -0.00066359184 -0.02846239 0.004235244
-0.019804278 -0.027710356 -0.014617463 -0.049435817 -0.18462493 -0.007762412 -0.060963605 -0.22201593
-0.09067358 -0.03161891 -0.03639894 -0.03817304 -0.09100144 -0.030974977 -0.039059706 -0.03006686
-0.019549776 -0.08996602 -0.043097105 -0.0475598 -0.07038292 -0.071979456 -0.04455884 -0.0145731
-0.015125024 -0.016241394 -0.1654684 -0.05184944 -0.018278185 -0.0029642594 0.0029518886 -0.0108257765
-0.09672875 -0.015537303 -0.02228124 -0.0386156 -0.025679357 -0.104269065 -0.008308901 -0.021170732
0.0070843482 -0.08950091 -0.04890306 -0.027831908 -0.027786953 -0.45925152 -0.027390316 -0.01977185
-0.04744224 -0.035039134 -0.002746596 -0.022773042 -0.012605073 -0.041915048 -0.016696388 -0.118620254
-0.02922366 -0.034030523 -0.11185553 -0.028335089 -0.021283878 -0.04779654 -0.00013752101 -0.02278158
-0.21305168 -0.020316292 -0.005799284 -0.016132537 -0.031033706 -0.0016013404 0.012169563 -0.0158474
-0.02413727 -0.033534434 -0.02542697 -0.016269924 -0.02291892 -0.17515987 -0.023270516 -0.48451215
-0.062251914 -0.02132557 -0.0028970344 -0.0034661184 -0.013087378 -0.00029203072 -0.015519832 -0.027879326
-0.096162 -0.08195259 -0.041530345 -0.022338398 -0.0021528292 -0.011506438 -0.04739947 -0.03971231
-0.016771484 -0.0018248245 -0.021000367 -0.026102576 -0.08486269 -0.093445584 -0.039443597 -0.016759947
-0.0067482856 -0.179294 -0.028772185 -0.01753491 -0.021373523 -0.01654375 -0.00309179 -0.062651455
-0.005330586 -0.031481653 -0.03451041 -0.030286437 -0.01388926 -0.012321674 -0.0065275356 -0.04715525
-0.01772497 -0.012174275 -0.007464114 -0.016511902 -0.02029123 -0.029748216 0.003987943 -0.0061874967
-0.023393467 -0.03475636 -0.0031531507 -0.022057526 -0.0034513518 -0.029753719 -0.18263628 -0.024394872
-0.07046632 -0.05260062 -0.15856628 -0.014456075 -0.2317119 -0.022046452 -0.2794831 -0.09035237
00000000: f6ef 80bc 9e54 0ebb 396c a4bc 68cd 0cbd
00000010: 9b69 bdbc e0fe 35be 08af a3bd 902d fbbc
00000020: a291 52bd 232d 78bd b546 61bd ee56 c4bc
00000030: a471 28bd 58eb 04be 6d9f 0cbc 0cc1 92bc
00000040: 2fa6 d2bd 90f4 d7bc 9324 62bc 5aa9 04bd
00000050: df93 75bd 0df2 01bd 6259 8dbc 1e21 9bbd
00000060: ed3a 8cbd 26f5 bdbc e6c3 2cbc 0c6d 9abc
00000070: 149e e1bd c947 0bbd 2ef7 3dbd f9a9 f9bc
00000080: 4243 26bc 6169 c13b ae55 0dbe efe7 7ebc
00000090: 822d dcbd 7284 aabc be2c d0bc 7a35 47bd
000000a0: d689 99bd d3e3 79bc bc01 b1bc 1fb0 9abc
000000b0: 0000 0000 7cc3 dabd 06ce 9abc 5c0f 593b
000000c0: 4519 9abc 65c3 40bd 4547 e2bb fdc8 b4bd
000000d0: 8f67 77bd 937d 7ebd 0893 2abd d468 24bd
000000e0: c2df d5bc c210 74bc 76e5 923a 439a 4bbc
000000f0: d981 d6bc 8dbb d0bd 0e9e 34bc c480 8ebe
00000100: 9efd 1dbd fbef 07bc b8ef 2fbc 7908 2abb
00000110: 92c0 02bc b3d2 64be 9c67 ccbd 11e6 24bd
00000120: a7ca d5bc 7c00 c6bd b962 0abc 01b1 16bc
00000130: 2894 a0bc fbd8 67bc 8f37 28be 4bbf 09bd
00000140: 5431 39be 469d 923b bca9 b339 875a 7bbd
00000150: 19b6 9dbc 5ccb 63bc eb60 46bb 6278 66bc
00000160: 99c1 b5bd 2f04 1dbd aec6 8abd e2f0 ab3b
00000170: 63d1 d3ba 1b8f 6cbc 2d5d ddbb 87ec 4cbd
00000180: 93f3 85bc a43c cdbd 2c94 cabc 2963 a9bd
00000190: bc6f 56bc cb63 e2bb 20cb 55bc be16 96bc
000001a0: dbae 1ebc 42de 2ebd d1c1 04bc f0d1 84bc
000001b0: 9364 023b e5f4 2dba f529 e9bc cdc7 8a3b
000001c0: 953c a2bc d400 e3bc 157e 6fbc 367d 4abd
000001d0: 510e 3dbe d55b febb f9b4 79bd 2558 63be
000001e0: 12b3 b9bd d582 01bd 0e17 15bd 555b 1cbd
000001f0: f75e babd 3cbf fdbc 12fd 1fbd c74e f6bc
00000200: da26 a0bc 1b40 b8bd 9786 30bd 11ce 42bd
00000210: ec24 90bd f769 93bd 5583 36bd 03c4 6ebc
00000220: f3ce 77bc ac0c 85bc 8c70 29be 1460 54bd
00000230: 22bc 95bc 0544 42bb 7974 413b 995e 31bc
00000240: b919 c6bd 2c90 7ebc 2687 b6bc 642b 1ebd
00000250: 845d d2bc 058b d5bd 0f22 08bc 3e6e adbc
00000260: d223 e83b 414c b7bd 934e 48bd beff e3bc
00000270: 77a1 e3bc 0423 ebbe a861 e0bc 93f8 a1bc
00000280: cb52 42bd 3285 0fbd 3c00 34bb 888e babc
00000290: 8285 4ebc 1daf 2bbd ddc6 88bc 2def f2bd
000002a0: 7566 efbc 9763 0bbd 8314 e5bd fd1e e8bc
000002b0: 875b aebc 4ec6 43bd 8433 10b9 70a0 babc
000002c0: 382a 5abe 5a6e a6bc ec07 bebb 6228 84bc
000002d0: 663a febc 11e4 d1ba d962 473c 68d2 81bc
000002e0: 86bb c5bc 675b 09bd 394c d0bc 8148 85bc
000002f0: 75c0 bbbc 1c5d 33be cfa1 bebc fa11 f8be
00000300: ddfb 7ebd f6b2 aebc 2cdc 3dbb d127 63bb
00000310: 716c 56bc b31b 99b9 e546 7ebc 2f63 e4bc
00000320: 95f0 c4bd c2d6 a7bd b91b 2abd 04ff b6bc
00000330: 7b16 0dbb 8085 3cbc f225 42bd 60a9 22bd
00000340: 5a64 89bc f32e efba f608 acbc 12d5 d5bc
00000350: 7dcc adbd 6660 bfbd 9c8f 21bd 284c 89bc
00000360: b920 ddbb d998 37be a5b3 ebbc 5fa5 8fbc
00000370: 8717 afbc c286 87bc a19f 4abb 684f 80bd
00000380: 32ac aebb e8f2 00bd ca5a 0dbd 431b f8bc
00000390: c78f 63bc d9e0 49bc f0e4 d5bb dd25 41bd
000003a0: f533 91bc 9c76 47bc 8795 f4bb f843 87bc
000003b0: cb39 a6bc 88b2 f3bc 4aad 823b 7cc0 cabb
000003c0: a8a3 bfbc af5c 0ebd 17a5 4ebb fcb1 b4bc
000003d0: 1330 62bb 12be f3bc 0105 3bbe c1d7 c7bc
000003e0: a550 90bd bf73 57bd 335f 22be 2cd9 6cbc
000003f0: e245 6dbe c39a b4bc 6918 8fbe aa0a b9bd
