Action_Net.pt (torch, 798882 bytes, 10 tensors)

decoder_net.0.weight f4 [512, 85]
00000000: 3fc5 aabe a765 c23e 9027 ed3b 06e5 1dbf
00000010: e35b 7d3d e31a f0bd cbd3 e6be 92f0 b6bf
00000020: dd87 f6be ed30 713e a6ea 27be c9a8 9fbe
00000030: 8c5e 923e 5e2c 433f 4932 b13e 8846 80bf
00000040: 9d0f cabe 286b f4bd 1271 8c3f f505 863e
00000050: 1eb8 023f 9cac 753f 62f3 8c3e ddd3 6ebd
00000060: 6887 0a3e e3db 61bf 2c00 2f3f 8ad2 fe3e
00000070: 8e02 febe b176 97be 10bc 073f 75f8 0d3f
00000080: 6492 0dbe 3140 103f 621a 383e 83e0 81be
00000090: 9060 773e 4da9 13bf 0cd9 2d3f 1af7 0f3f
000000a0: 1d79 20bf ff5b 49bd 55d6 9fbe 109e d3be
000000b0: b770 67bd a154 d33e 5318 ee3e 665b e2be
000000c0: 4476 233f b2e7 60bf ec5f 753e b1f5 e9bd
000000d0: 9f40 2dbd 6a77 153f 0a34 6e3e b580 0abf
000000e0: 6d6b 923f 1599 ae3e 54d8 573e 79e3 443e
000000f0: 046b b63d 17be 5d3e 6236 003e 4ea5 d9be
00000100: f920 473d 48b3 4fbe 76db 473d 3d0d 3b3f
00000110: 08b2 93be 7b98 15bf 626c fb3e c1e4 5fbf
00000120: b093 ed3d 77aa 243d 285a 8fbd 0ed2 cdbe
00000130: c38e 1b3f 6120 6d3e bd44 323d b2ea 15bd
00000140: 543f 52bf 274c e13e 2ec5 b43e 4761 cb3e
00000150: a538 8dbe 381f c13e 2cb8 cd3e 3db8 1bbd
00000160: efa4 c33f caa0 28bb c990 633e d8de 68be
00000170: ba5b 1c3e 575d 62bd 646e e43e b309 343d
00000180: b44a 903e f5f0 573f 67ea cd3e 40bf c6bd
00000190: 1c03 c23d b724 f7be 5777 debd 28d4 a43d
000001a0: b7f7 a1bc 1dfb c03e 0c12 30be 9c9a 2c3f
000001b0: c42c 32bf 1d30 873e 2410 86be c538 5b3f
000001c0: 30e5 46bf dda5 2b3f b17a 243f 3691 a8be
000001d0: 7e86 3abe 40fd 05bf ca51 87bf 5c31 a83d
000001e0: 0e61 0dbe e584 aebe d754 0a3d f1e8 f4be
000001f0: 21a1 923e 7951 993e 99c1 533d 4117 9cbe
00000200: 3226 dbbe e7d0 583f 7a69 e73e 4535 4a3f
00000210: e9e5 993e ac41 303f fa51 1e3f 904d a4be
00000220: 92e0 ecbe b0d0 07be 0390 45bd 78ec 8fbe
00000230: 2461 803e 2886 1c3f 1da8 753f f7f7 08bf
00000240: 86f3 373e fc80 c73d 3361 21be 5eab 273d
00000250: 4602 89bf 08b5 85be 6197 86bf 8a20 d13e
00000260: f5d3 ec3e 2d06 7ebd d0d4 23be d6cc 1cbf
00000270: 3db5 9ebe e76f 38bd d731 04be ad16 9e3e
00000280: 7a68 b9be c6b9 adbd cd7f d1be c521 973e
00000290: 37c3 8fbe bd45 db3e 9059 80bf ab51 17bf
000002a0: 8f27 0a3e af67 ae3e 3a27 f5bd c876 273f
000002b0: 2f91 5cbe cb59 c63e 3241 adbe 7b1c a5bd
000002c0: 6848 22bf ae39 22be 82ca c73e 4fd6 e5be
000002d0: c46f a03e dafa 06bf 0e94 ce3d 653e 973c
000002e0: ffe7 ec3e 707f cb3e 7500 98bf b81a b6be
000002f0: d83a 0f3f 116a bd3e eda0 c2be 406b e23e
00000300: 39fc a0bf bfee 00bf ed6a cdbe fad0 223f
00000310: 1b52 28be 043a 55be af17 8e3e b194 8f3c
00000320: fa42 d33e 87be bebe 87e4 79bd 85b3 08be
00000330: c7c8 bb3e a86f e5bb 4759 d23e 69b3 fa3d
00000340: 133f 273e e063 dbbe 2dbe f3bc e4b4 723f
00000350: 458f 983e 08c0 eb3e 3595 393f 30e1 623e
00000360: 7919 293e cc95 67bf e32b 87bf 46be 70bf
00000370: 35bf 94bd dff5 7ebf a964 f9bd 857a 95bf
00000380: 70f1 b23e f6b9 393f 6bf9 5abe b517 953e
00000390: 71fe 4b3d e17d 31be d4f4 723f d4cf 89bf
000003a0: 0e42 463d 3a93 6b3e 0e5a 5a3f 07b8 843f
000003b0: 665a 7c3d 9006 193e ea58 1b3e 2405 97be
000003c0: 01bb 86be 3d76 293e f672 c93e e69b 31be
000003d0: f084 5c3e fb55 813d 3de8 0a3f 3ebd 003f
000003e0: 6db4 453f cf90 f1bd 61c9 86be eb5e dcbe
000003f0: ada9 e73e 102c 07be ea8b b23d 0865 9a3e
-0.33353612 0.3796818 0.0072373822 -0.6167759 0.061855208 -0.11723878 -0.4508346 -1.4292166
-0.4815053 0.2355382 -0.16398105 -0.3118346 0.2858776 0.76239574 0.34608677 -1.0021524
-0.39465037 -0.11934501 1.0972006 0.2617642 0.5106219 0.95966506 0.27529436 -0.058307517
0.13528216 -0.88226146 0.6835964 0.49770004 -0.49611324 -0.29582742 0.53021336 0.5545724
-0.13825375 0.5634795 0.17978814 -0.253666 0.2415793 -0.5768021 0.6790931 0.5623642
-0.62684804 -0.04916 -0.3121821 -0.4133153 -0.056503978 0.41275504 0.46502933 -0.44210356
0.63852334 -0.8785354 0.23962373 -0.11423815 -0.042297956 0.58385336 0.23262039 -0.5410264
1.1439034 0.34101167 0.21078616 0.19227399 0.0890713 0.21654545 0.12520745 -0.4250893
0.04861543 -0.20283234 0.04879328 0.73067075 -0.28846765 -0.5843579 0.49106127 -0.87458426
0.11600435 0.04020163 -0.06999618 -0.40199322 0.6076471 0.23156883 0.043522585 -0.036600776
-0.8212788 0.44003412 0.35306686 0.39722654 -0.2758228 0.3771913 0.40179574 -0.0380175
1.5284709 -0.0025730603 0.222232 -0.22741258 0.15269366 -0.055264797 0.4461547 0.043954562
0.28181994 0.84352046 0.40217897 -0.09704447 0.09473249 -0.482702 -0.10862606 0.08048278
-0.01977144 0.37691584 -0.17194384 0.67423415 -0.69599557 0.26403895 -0.2618419 0.856335
-0.7769346 0.6704996 0.6424971 -0.32923287 -0.18215367 -0.52339554 -1.0571835 0.082125396
-0.13806555 -0.34085765 0.033772316 -0.4783397 0.28638557 0.2994497 0.0516983 -0.3048649
-0.42802578 0.8469376 0.4519766 0.7898753 0.3005822 0.6885021 0.61843836 -0.32090425
-0.46265084 -0.13263202 -0.048233043 -0.281101 0.25074112 0.61142206 0.95959646 -0.53503364
0.1796399 0.09741399 -0.15759735 0.040934913 -1.0703819 -0.26114678 -1.0514947 0.40845138
0.4625546 -0.06201761 -0.1599915 -0.61250055 -0.3099765 -0.045028593 -0.12909637 0.30876675
-0.36212522 -0.08482699 -0.40917817 0.29517952 -0.28078625 0.42826644 -1.0027332 -0.5910899
0.13491653 0.3406348 -0.119703725 0.6541562 -0.21539758 0.38740382 -0.33838803 -0.08062073
-0.63391733 -0.15842316 0.3902169 -0.44890067 0.3133527 -0.5272652 0.10086833 0.01846237
0.4627075 0.39745665 -1.187514 -0.3556726 0.55949163 0.36994985 -0.38013402 0.4422245
-1.2576972 -0.503643 -0.4012064 0.6360012 -0.16437571 -0.20822912 0.27752444 0.017526956
0.41262037 -0.37254736 -0.061008956 -0.13349731 0.36676618 -0.007001836 0.41083738 0.12241251
0.16332655 -0.42849636 -0.029753769 0.9480727 0.29796806 0.46044946 0.72493297 0.22156215
0.16513623 -0.90462947 -1.0560268 -0.94040334 -0.07263032 -0.9959392 -0.121774025 -1.1678015
0.34949827 0.7254938 -0.21384208 0.2911965 0.0498032 -0.17333175 0.9490483 -1.0766549
0.04840284 0.23005381 0.8529366 1.0368661 0.06160965 0.1494391 0.15170637 -0.2949611
-0.26314548 0.1654901 0.3934552 -0.17344627 0.21535087 0.063152276 0.5426062 0.5028876
0.7722843 -0.11795198 -0.26325515 -0.43041167 0.4524664 -0.13200402 0.08718093 0.30155206

decoder_net.0.bias f4 [512]
00000000: d41e f63e 389b fd3e 02ef fd3e 2d4c fa3e
00000010: 4468 f83e b55f 043f e3b5 f43e f9c0 f73e
00000020: 3daf ee3e f3a6 003f 0770 f33e 3473 033f
00000030: bf19 ff3e 6a6c ff3e 2d4c fa3e 9a49 e73e
00000040: 6169 0e3f 7462 f83e 2d4c fa3e 386d f23e
00000050: 2d4c fa3e b383 ff3e a316 013f ae55 fd3e
00000060: 57dd ef3e dbdc f93e dde4 fc3e 3406 fd3e
00000070: d516 f23e dcbb f83e 75fe f83e 2d4c fa3e
00000080: 3e5a 003f 338e f53e dcd3 0a3f f103 083f
00000090: 036e fa3e 7671 003f 2d4c fa3e 2d4c fa3e
000000a0: 0928 ff3e 2537 fe3e 2d4c fa3e 2d4c fa3e
000000b0: 6816 f23e 8cee e93e f411 003f 2d4c fa3e
000000c0: ff09 ee3e 2d4c fa3e 8055 f43e 8ed3 003f
000000d0: a7d5 fd3e 2d4c fa3e 3479 fc3e c807 ef3e
000000e0: f192 ee3e 2d4c fa3e 12f0 f03e 7414 ed3e
000000f0: 2d4c fa3e bea5 ef3e f49c 043f 7a21 013f
00000100: 2d4c fa3e 3bae ec3e c392 ff3e f7b8 f53e
00000110: 830a 003f a657 f03e d263 ff3e d519 053f
00000120: 406a f93e c704 fd3e 6321 fb3e 611a 013f
00000130: 2d4c fa3e 729f f63e 1fc9 f33e 49eb f93e
00000140: e973 013f 2d4c fa3e 66dc f33e 39fc e73e
00000150: 2d4c fa3e 37be 0a3f 2d4c fa3e 2d4c fa3e
00000160: 94f2 f43e 94ed 003f 03e3 e53e 4dd0 f53e
00000170: 3bb4 fb3e 2a02 fa3e 2d4c fa3e 1326 f73e
00000180: ea10 f73e 1615 fc3e ca63 ff3e 81b9 f23e
00000190: 9b5c f13e ae33 eb3e 2d4c fa3e c1f5 e23e
000001a0: 61c2 023f 2d4c fa3e 321c fc3e 8021 063f
000001b0: cc3b f73e 7d8e 003f 887c 063f a4b6 fa3e
000001c0: d692 023f b454 fe3e 52ff f63e baa6 eb3e
000001d0: c89c ed3e e771 ea3e 2d4c fa3e 49e7 f83e
000001e0: 2d4c fa3e 4234 ed3e e184 033f 73e2 ee3e
000001f0: 721e 073f 2d4c fa3e fbe9 f93e 5e24 033f
00000200: 13ca f43e 2d4c fa3e a9dd f83e 80ee f63e
00000210: 2d4c fa3e 2d4c fa3e 9643 fd3e afcd 013f
00000220: f06e ee3e bac0 f53e 5c0f f83e f723 ef3e
00000230: ca8d ff3e d8c7 083f db5d fc3e 94c9 f53e
00000240: 2fe1 ff3e ccd5 f13e 2d4c fa3e 4bcc ef3e
00000250: 7121 f53e 4eff ff3e 2d4c fa3e b936 f33e
00000260: 86ea 023f 0eba f43e 2d4c fa3e 550d f43e
00000270: b1e5 f83e a03f f43e d8ad ea3e 382f f73e
00000280: fd6a f63e 2d4c fa3e 336d f63e a50d f93e
00000290: ceb7 f63e 043f 023f 13c0 f53e 914d f53e
000002a0: 7dd5 f83e 555d fe3e ace0 ee3e 8de2 f63e
000002b0: 5e30 fb3e 2d4c fa3e 2d4c fa3e cc56 043f
000002c0: 96bf f93e cf70 f63e 3b5f f63e 0b09 f63e
000002d0: def0 fb3e 6a66 fa3e da4e f43e 0415 ed3e
000002e0: c96f fb3e 84e4 f93e 5bec ee3e 99de ed3e
000002f0: 95dd 033f 2d4c fa3e 3deb f93e 9bb6 ff3e
00000300: 9d24 003f c2f2 fb3e a769 013f 40a9 f43e
00000310: a6e2 f43e c9c1 ea3e 2d4c fa3e 82c9 f43e
00000320: a44e f63e 46c4 f33e 2eb9 f23e 4506 003f
00000330: 2f9d fc3e c41f 0b3f a09a f43e 2d4c fa3e
00000340: c1e0 013f a683 073f 0a86 ee3e a55e fb3e
00000350: 2d4c fa3e 2d4c fa3e 5387 f13e 2d4c fa3e
00000360: 81e7 013f 2c0f fa3e 707d f93e f23d fa3e
00000370: 616a f43e a5db f03e 7233 e43e 52d2 f33e
00000380: b764 f83e b3be ee3e 12f7 ee3e e052 fc3e
00000390: 2d4c fa3e 6368 ff3e 444f f43e 2d4c fa3e
000003a0: 8c09 003f ac9e f43e e508 f23e bca7 f03e
000003b0: 2d4c fa3e 037e f43e 8c98 f73e 2d4c fa3e
000003c0: 94f7 fc3e d4ec f33e 2d4c fa3e 6f5e ee3e
000003d0: 2d4c fa3e 0698 f73e bebe 043f e3b4 003f
000003e0: 687e e93e 6538 013f 2d4c fa3e 7adc e73e
000003f0: 93b8 f63e 3be7 fa3e 2d4c fa3e 79d9 fe3e
0.48070395 0.49532485 0.4959641 0.48886243 0.48517048 0.5170854 0.4779502 0.48389414
0.4661807 0.50254744 0.47546408 0.5134766 0.4982433 0.498874 0.48886243 0.4517334
0.55629545 0.48512614 0.48886243 0.47348952 0.48886243 0.49905166 0.50425166 0.4947943
0.46848556 0.48801312 0.4939336 0.49418795 0.47283044 0.48580825 0.48631635 0.48886243
0.501377 0.47960052 0.5422952 0.53131014 0.48912057 0.5017313 0.48886243 0.48886243
0.49835232 0.49651447 0.48886243 0.48886243 0.4728272 0.4568981 0.50027394 0.48886243
0.46492 0.48886243 0.4772148 0.50322807 0.49577066 0.48886243 0.4931122 0.46685624
0.46596482 0.48886243 0.4705816 0.46304667 0.48886243 0.4680614 0.5180199 0.50441706
0.48886243 0.46226677 0.49916658 0.4799268 0.5001604 0.4694187 0.49880844 0.5199254
0.48713875 0.49417707 0.4904891 0.50430876 0.48886243 0.48168522 0.4761438 0.4881232
0.5056749 0.48886243 0.47629088 0.45309618 0.48886243 0.54196495 0.48886243 0.48886243
0.47841322 0.50362515 0.4489976 0.48010483 0.49160942 0.48829776 0.48886243 0.48271236
0.48255092 0.49234837 0.4988082 0.47407153 0.47140965 0.45937866 0.48886243 0.4432812
0.5107785 0.48886243 0.4924026 0.52394867 0.4828781 0.5021742 0.5253377 0.4896747
0.51005304 0.49673998 0.4824167 0.4602564 0.46408677 0.45790026 0.48886243 0.48613957
0.48886243 0.46328932 0.5137463 0.46657142 0.5278083 0.48886243 0.48811325 0.51227367
0.4781042 0.48886243 0.48606613 0.48228836 0.48886243 0.48886243 0.49465626 0.50704473
0.46569014 0.479986 0.48449218 0.46707126 0.49912864 0.5342994 0.49290356 0.48005354
0.4997649 0.47233427 0.48886243 0.4683555 0.47877076 0.4999947 0.48886243 0.47502688
0.51139104 0.47798198 0.48886243 0.47666422 0.4861274 0.47704792 0.45835757 0.48278213
0.481285 0.48886243 0.48130187 0.48643222 0.48187107 0.50877404 0.47998103 0.4791074
0.4860038 0.49680582 0.46655786 0.4821972 0.4906034 0.48886243 0.48886243 0.5169494
0.4877898 0.4813294 0.4811953 0.48053774 0.49207205 0.4890626 0.4771641 0.46305096
0.49108723 0.48807156 0.466647 0.4645889 0.5150998 0.48886243 0.48812285 0.49944004
0.5005587 0.49208647 0.5055184 0.47785378 0.4782917 0.4585097 0.48886243 0.47809988
0.48106873 0.47610682 0.47406906 0.50009567 0.49338672 0.54345345 0.4777422 0.48886243
0.5073357 0.52935255 0.4658664 0.49095646 0.48886243 0.48886243 0.47173557 0.48886243
0.5074387 0.488397 0.48728514 0.48875386 0.4773741 0.47042575 0.445705 0.476214
0.4851434 0.46629867 0.46672875 0.4928198 0.48886243 0.49884328 0.47716725 0.48886243
0.5001457 0.47777307 0.4727241 0.4700297 0.48886243 0.4775239 0.48358572 0.48886243
0.49407637 0.47641623 0.48886243 0.46556422 0.48886243 0.48358172 0.5185355 0.5027601
0.45604253 0.50476676 0.48886243 0.45285398 0.48187694 0.4900454 0.48886243 0.49775293

decoder_net.2.weight f4 [512]
00000000: 78ae 7b3f 5bf0 813f 8deb 783f 65f5 733f
00000010: 7b05 4a3f 3950 923f 8825 813f 3e64 7e3f
00000020: aeb8 7a3f 2c90 6e3f f631 793f 41b3 8b3f
00000030: 9023 853f 26e8 7d3f 04b8 783f 63bb 803f
00000040: 8ecc 953f 2c46 793f 0008 7b3f 70c8 7a3f
00000050: f7ee 813f 0d7c 623f b695 7d3f f59f 773f
00000060: 1871 573f 8107 733f 6fe1 773f c3a2 7a3f
00000070: 310e 703f 50f9 753f e1f0 763f afbc 783f
00000080: d98e 793f f9fb 763f 6d23 8f3f 7649 7a3f
00000090: 6d2e 753f dc45 7d3f 516d 7e3f 059b 7a3f
000000a0: d38d 813f 15c1 893f 04cb 773f e14e 7c3f
000000b0: ef13 7a3f b023 7f3f 9c33 933f a401 783f
000000c0: 866c 763f 47d7 7c3f 8267 723f ad4a 923f
000000d0: 1ad4 803f 7580 793f 6ea9 6a3f f76f 683f
000000e0: f906 7a3f 11f8 7b3f 675c 773f 699e 6c3f
000000f0: ea45 7a3f b085 633f b1ae 703f e25d 783f
00000100: e65d 793f 7dc1 743f 0acf 7f3f 6376 743f
00000110: 7a4c 6e3f 0624 773f 36f9 7a3f 90ca 893f
00000120: d710 763f b3d9 773f e8f7 923f 9ad8 783f
00000130: 007a 7c3f 0c9e 6a3f ebbc 783f 7a35 7a3f
00000140: 2d59 783f d9b0 7e3f 7e12 7b3f 585f 803f
00000150: 1f9d 7a3f 552d 913f 8b85 753f 66b2 7b3f
00000160: dc2b 7c3f abd6 8b3f 3075 7a3f 32fa 773f
00000170: 9306 7b3f 656e 7b3f 691b 763f f774 763f
00000180: 9913 7d3f d7f5 7a3f 8981 723f 47a1 833f
00000190: fcbd 7c3f 2e1f 5e3f a4f1 7c3f e50f 6e3f
000001a0: 0375 7f3f a939 763f ddf5 7b3f b7bb 773f
000001b0: bd2a 8e3f 6bdc 893f df2f 783f 2dfe 7d3f
000001c0: 4b5a 703f 2edc 813f 9284 743f 626c 633f
000001d0: 475d 743f 5608 723f 04b1 7d3f a40c 793f
000001e0: 10fb 7f3f a4f4 793f 82d9 7c3f 81c8 763f
000001f0: b4c1 6d3f 80ce 763f 2887 923f e24b 763f
00000200: f39e 713f c710 7a3f 71bf 713f d8f4 7f3f
00000210: 273a 803f 0749 773f 3c1d 7c3f 8e88 7b3f
00000220: 81fa 793f 3d3b 7c3f 783a 7f3f c4d7 753f
00000230: c8df 663f b3a7 7f3f d3aa 853f d652 793f
00000240: 1ebc 623f a645 723f f780 7d3f bbe7 713f
00000250: bbf3 803f 1e45 7b3f d049 763f 5486 7b3f
00000260: 440d 7d3f 9899 6c3f f796 783f 9a66 703f
00000270: 90e1 793f ceea 7c3f 9a1c 7c3f 275f 7a3f
00000280: e588 7b3f f3c9 723f 5d31 783f d0b6 7c3f
00000290: 399c 873f 7f0d 7f3f 918d 8c3f 37a0 743f
000002a0: b89b 593f 159e 7b3f c61b 5c3f fecd 7c3f
000002b0: 35d8 6e3f 1d55 743f 11d7 773f 6845 703f
000002c0: 5048 793f 37b4 7f3f 051b 8f3f 9468 5f3f
000002d0: 9653 7a3f fd2d 773f 89c4 7a3f 5eb1 723f
000002e0: 55a9 7c3f b1f7 7a3f 2502 763f d3df 783f
000002f0: cd3d 7d3f e7d6 7d3f bc06 7c3f 1823 8c3f
00000300: 692c 7e3f b0a9 7f3f d393 773f 82b5 6e3f
00000310: 0f7a 5e3f 70e7 743f 4934 763f 8c5f 803f
00000320: 215a 713f 1e7a 7a3f ed0d 4e3f 5c07 793f
00000330: aac8 953f 226f 8a3f 8be2 773f 3006 783f
00000340: 182a 8c3f 416b 803f 449e 673f 012e 773f
00000350: 783b 773f 337a 7a3f 2802 7d3f 8b77 7d3f
00000360: a80f b83f 862f 7e3f 5959 6c3f bd1d 783f
00000370: 5c17 7c3f c892 773f 518e 733f 3266 803f
00000380: db24 783f 7f5a 813f fb40 743f af16 773f
00000390: 497e 753f 94ae 573f 10c9 6a3f 0503 7c3f
000003a0: 41bf 763f b0b7 753f 1330 793f a839 783f
000003b0: 1c3d 7d3f 4f1f 773f 219c 653f 49b1 7d3f
000003c0: 774c 693f 4a5c 753f 4f95 7d3f 8455 793f
000003d0: 02ff 743f fff8 743f 4542 7d3f ed84 7c3f
000003e0: 29e1 733f f4a3 7e3f a128 7b3f 4764 6f3f
000003f0: 688e 713f b014 743f 3127 753f a7bc 6f3f
0.98313093 1.0151476 0.9723442 0.9529632 0.7891461 1.1430732 1.0089579 0.9937171
0.9793805 0.9318874 0.9734186 1.0914079 1.0401478 0.99182355 0.97155786 1.0057186
1.170305 0.973727 0.9805908 0.97962093 1.0151051 0.88470536 0.99056566 0.9672845
0.8415694 0.94933325 0.9682836 0.97904605 0.93771654 0.96083546 0.964613 0.9716291
0.97483593 0.9647823 1.1182686 0.9776834 0.95773965 0.9893472 0.99385554 0.9789279
1.0121406 1.0762049 0.9679415 0.9855786 0.97686666 0.9966383 1.1500125 0.96877503
0.96259344 0.9876599 0.9468919 1.1429039 1.0064728 0.97461635 0.9166478 0.90795845
0.9766689 0.98425394 0.9662537 0.92429215 0.9776293 0.88875866 0.9401656 0.97018254
0.974089 0.9560774 0.9992529 0.95493144 0.93085444 0.9653934 0.98036516 1.0764942
0.96119446 0.9681656 1.1481905 0.9720551 0.9862366 0.9164741 0.97163266 0.9773785
0.9701107 0.994886 0.9807509 1.0029097 0.97896 1.1341959 0.95906895 0.9831909
0.98504424 1.0924886 0.97835064 0.9686614 0.98056906 0.98215324 0.96135575 0.96272224
0.9885803 0.9803137 0.94728905 1.0283593 0.98727393 0.86766326 0.98806214 0.92993003
0.9978792 0.9618173 0.9842203 0.96770805 1.1106793 1.0770391 0.96948045 0.99215966
0.93887776 1.0145319 0.95514786 0.88837254 0.9545483 0.9454397 0.9909823 0.97284913
0.99992466 0.97638917 0.9876939 0.96399695 0.9287369 0.96408844 1.1447496 0.9620954
0.9438316 0.9768185 0.9443274 0.99982977 1.0017747 0.96595806 0.9848211 0.9825524
0.97647864 0.9852789 0.9969859 0.9603236 0.90185213 0.99865264 1.0442756 0.9739202
0.88568294 0.94637525 0.9902491 0.9449422 1.0074381 0.9815234 0.9620638 0.98251843
0.98848367 0.92421865 0.97105354 0.9390656 0.97609806 0.98795784 0.9848114 0.9780144
0.9825576 0.948394 0.9695032 0.9871645 1.059455 0.9962997 1.0980703 0.9555697
0.8500323 0.9828809 0.8597988 0.9875182 0.93298656 0.9544237 0.9681254 0.93855906
0.97375965 0.9988436 1.1180121 0.8726895 0.9778379 0.9655455 0.9795614 0.9480189
0.9869588 0.980342 0.9609702 0.9721653 0.98922426 0.9915604 0.98447776 1.094821
0.99286515 0.998683 0.96709937 0.9324571 0.86904997 0.95665646 0.9617353 1.0029159
0.9427815 0.97842586 0.8049 0.97276855 1.1701863 1.0815165 0.9683005 0.9688444
1.0950346 1.0032731 0.9047587 0.9655457 0.9657512 0.9784271 0.98831415 0.99010533
1.4379778 0.99291265 0.92323834 0.96920377 0.98473144 0.96708345 0.9513903 1.0031188
0.96931237 1.0105742 0.9541165 0.9651899 0.9589582 0.8425076 0.9171305 0.9844211
0.9638558 0.9598341 0.9733898 0.96962976 0.9892137 0.9653215 0.8969136 0.9909864
0.911323 0.95843947 0.9905595 0.9739611 0.9570161 0.9569244 0.98929244 0.9864033
0.9526544 0.9946892 0.9810887 0.93512386 0.9435792 0.95344067 0.95762926 0.93647236

decoder_net.2.bias f4 [512]
00000000: 4d0f d2bb a76c 383c 9117 45bc 7cd0 c13c
00000010: aaf9 38bb 91a8 44bc 3149 3cbc 4975 06bc
00000020: 218a a0bb e16f 7a3c 8ea4 8f3b 61fb 6abb
00000030: f074 423c ae73 bfbc dbed a63b f7eb 9dbc
00000040: 53b4 e1bb ee5b 06bb f1fa abba 5cdd c5ba
00000050: e97a 20bd ff56 413c bc0a 9a3c d8d2 0f3c
00000060: 75ad 9dba 116d a23c 40da 9e3b 2a8d d93b
00000070: a5d3 133d ba1f 0bba ba19 743c 73b5 b63b
00000080: 3fb7 883c af08 41bc 310c fdbb f68c cf3b
00000090: 4bb8 b63a ea11 5e3c 6823 83bc 267f 3039
000000a0: f4cd 003c d251 333c 109c 003c eb7f 19bc
000000b0: d057 d639 4fe8 a5bc e1cf 80bc 9d8f 213c
000000c0: f720 633c 4c8a 30bc 4f7c 15bc 0e62 b53c
000000d0: babc 1ebc b08c 953b 9dbe 923b 079e 3a3c
000000e0: bae3 87bb ad15 dabb 67d9 93bc becf d8bc
000000f0: f5ff be39 d460 b6bc 14d8 173d 18d8 a53c
00000100: 2407 a23b e63f bc3c 2a20 a1bc 1670 20bc
00000110: b291 eebb 2a6c 563c 5a61 493c 4aa6 08bc
00000120: cf85 383a 7a50 093c c07f 12bc bdc8 913b
00000130: 3e4b 2cbc b01e cebb 9e51 b4bc 7b98 7f3b
00000140: e1f3 a13c 3512 88bc bc42 12bb 2bb9 e8bc
00000150: 3c24 14bb 1dc8 ddbc c9c1 953c 1d8d 82bb
00000160: 0128 adbb 1e38 8b3c dd16 63bb bdfb 30bc
00000170: 4e6b 0bbb 32e7 0e3b af31 963c 69c8 5c3c
00000180: e1b3 46bc c8b5 40bb 29ba e13c 1bf4 84bc
00000190: caf4 d1bb 40e3 0bbd e53c 0abc 87f1 023b
000001a0: 4da6 9d3c c7ca 673c 7802 bfbb bb59 503b
000001b0: 253d bdbb 4bb7 923c f70c 993c 7e6d 8cbc
000001c0: f0e5 6b3b 0c81 153c 1151 bbbb 8888 05bd
000001d0: 4b51 bdbc 4ea0 f03b 4734 45bc a70b 063b
000001e0: e304 c3bc 89c8 8abb e1cf 933c 9eb5 c1bc
000001f0: 2aa9 cf3c 9a03 593c b941 86bc 6840 a83c
00000200: b777 21bc c7f7 d73a f2de 01ba 390d a0bc
00000210: 6dd4 c6bc c5f6 4a3c 9b58 81bb 0060 b2bb
00000220: e659 ec3a 1f47 04bc 1a7a 1abc d5d0 733c
00000230: f9d3 423c 07ae a33c a3b4 1d3b 3ff5 03bc
00000240: 5f6d 7c3c 297c fd3c a10b 47bc 1745 8fbc
00000250: f1b6 63bc 960b 2a3c 762c 803c 2a75 bdbb
00000260: 2c87 b3bb d19b 36bc 19f1 d53b 3b6b 54bc
00000270: b781 c5b9 efea 1cbc a278 babb 4dd7 cdba
00000280: 8b8c 99bb 3392 ea3c c0cc a9bb 5fe5 05bc
00000290: fdca 0bbb 31a2 59bc 413e 47bc 7f50 2bbc
000002a0: b29c 35ba bf59 3c3c 7f91 f9bc 11e8 22bc
000002b0: b3fa 4e3b b817 b53c 7017 ea3b d039 b1ba
000002c0: 730c d4ba a5ce a4bc 27fb 67bc 551c 29bb
000002d0: d11d 0e39 1f47 303c fb45 c7ba 4259 9c3c
000002e0: eb20 903b 14db 373b 44b7 943c 8d0f a43b
000002f0: c292 d23c 9b0a 50bc 9d2c 14bc b99d 523b
00000300: 5c56 ed3a a122 793b 246c 2c3c 4c40 33bc
00000310: 4f62 18bc 58c0 0a3c 1670 923c efcf e7bc
00000320: c6e6 0b3d b659 28b9 1bae 783b 1148 613c
00000330: 75a1 a83b 2411 c83b 9256 17bc f69a bd3b
00000340: ad6c a33c 2ecf 1d3d 1483 1a39 d2e0 1f3c
00000350: 4c39 463c be3a ceb9 7193 43bc 5846 51bc
00000360: 736d 553c 235a cfb9 2d0a a33c 708f a93a
00000370: 0a74 9abb ac45 2e3c cf56 b7bb 0e4a d3bc
00000380: 7577 0e3c 4e6b acbc 9146 cb3c e0f9 113c
00000390: 3598 8f3c 5452 153c 04a9 c0bb 2452 1bbc
000003a0: 3cbb 803c a0d8 873c b97e 363b 6110 a9bc
000003b0: af57 34bc 10c5 18bc f162 b1bb 0cdc 52bc
000003c0: ad39 e63b 2d5d 2fbc 3349 38bc d9e1 753a
000003d0: 54b9 ab3c ac77 6a3c b02e df3b 0744 8cbb
000003e0: 7e76 a83c 49ae 863c ab6c bfbb e128 0fbd
000003f0: 7f2d a9bc abe4 343c cbb1 943c 5f9d 8d3c
-0.0064105154 0.0112563735 -0.012029544 0.023658983 -0.0028224983 -0.01200308 -0.01149206 -0.008206674
-0.0048992787 0.015285463 0.00438363 -0.00358554 0.0118687 -0.02337059 0.0050942726 -0.019277556
-0.0068879514 -0.0020501572 -0.0013121051 -0.0015095877 -0.039179716 0.011800527 0.018803947 0.008778296
-0.0012029844 0.019827398 0.004847795 0.0066391425 0.03609051 -0.0005307157 0.014898712 0.0055758297
0.016688941 -0.0117818555 -0.0077224006 0.0063339425 0.0013940422 0.013554076 -0.016008094 0.00016832034
0.007861603 0.0109448 0.007849708 -0.009368877 0.00040882686 -0.020252375 -0.015724124 0.0098609
0.01386284 -0.01077516 -0.009123876 0.022141483 -0.009688551 0.0045638904 0.0044782893 0.011390216
-0.00414702 -0.006655416 -0.018048001 -0.026466247 0.00036430327 -0.022262968 0.037071303 0.020244643
0.004944699 0.022979688 -0.019668657 -0.009792348 -0.007280552 0.013087312 0.012291277 -0.008340428
0.0007038982 0.0083810035 -0.008941591 0.0044489787 -0.010515986 -0.0062902793 -0.022011574 0.0039000798
0.01976961 -0.016610244 -0.0022317609 -0.028408607 -0.0022604605 -0.02707296 0.01828088 -0.003984107
-0.00528431 0.016994532 -0.0034651079 -0.010802207 -0.0021273675 0.0021805284 0.018334238 0.013475516
-0.012127847 -0.0029405225 0.027554588 -0.01622968 -0.006407355 -0.03415227 -0.00843737 0.0019980387
0.019244337 0.014147467 -0.0058291517 0.0031791765 -0.0057751113 0.017909667 0.01868294 -0.017142054
0.0035995208 0.009125005 -0.005716451 -0.03260091 -0.023110053 0.0073433286 -0.01203639 0.0020453723
-0.023806041 -0.0042353314 0.01804346 -0.023646172 0.025349218 0.013245488 -0.01638876 0.020538524
-0.009855202 0.0016477042 -0.0004954181 -0.019537555 -0.024271214 0.012387936 -0.00394733 -0.005443573
0.0018032163 -0.008073597 -0.009428525 0.014881332 0.0118913585 0.019980444 0.0024063967 -0.008054077
0.0154069355 0.030942993 -0.012148769 -0.017489 -0.013898597 0.010378739 0.0156462 -0.0057817893
-0.00547876 -0.011145548 0.006528985 -0.012965019 -0.00037671413 -0.009577497 -0.00569065 -0.0015704423
-0.0046859435 0.028634166 -0.005181879 -0.008172362 -0.0021330707 -0.013283298 -0.012160839 -0.0104562035
-0.00069279515 0.0114960065 -0.030464886 -0.009943024 0.0031582534 0.022106037 0.0071439072 -0.0013521258
-0.0016178027 -0.020118067 -0.0141590005 -0.002580424 0.00013553283 0.010759144 -0.0015203351 0.01908553
0.0043984554 0.0028054165 0.018153794 0.0050067366 0.025704745 -0.012697841 -0.00904384 0.0032137467
0.0018107402 0.0038015025 0.01052383 -0.010940623 -0.009300782 0.00846871 0.017875712 -0.028297393
0.03415563 -0.00016055148 0.0037945572 0.013750092 0.0051462003 0.006105559 -0.009236949 0.005786295
0.019949282 0.03852766 0.00014735415 0.009758191 0.012098622 -0.00039335148 -0.011937008 -0.012773119
0.013026583 -0.00039549274 0.019902313 0.0012936424 -0.00471354 0.010636728 -0.005595065 -0.025792148
0.008695473 -0.02104726 0.024813922 0.0089096725 0.017528633 0.009113867 -0.005879523 -0.009480033
0.01571428 0.016582787 0.0027846529 -0.020637693 -0.0110072335 -0.009324327 -0.005413406 -0.012869846
0.0070259185 -0.010703367 -0.011247921 0.0009379662 0.020962395 0.014310759 0.0068109855 -0.0042805704
0.020564314 0.016440528 -0.0058418117 -0.034951095 -0.020651577 0.011040847 0.018151185 0.017286954

decoder_net.3.weight f4 [256, 512]
00000000: b9ab 253e f618 8e3f 3f8a 563e 4f8e 41bd
00000010: c4ec f93e 9916 cabe 7563 b93e 3470 f8bc
00000020: 0c68 db3e 92d3 6e3f 3329 6bbe 1f26 2c3f
00000030: 066f 14be 25fc 183f f3c4 2b3f 59a6 a5bd
00000040: b4ac 903d e59e 843d 2457 5eba f568 02be
00000050: 432b 203f 67a7 7d3e 7ec5 c13d a689 1dbf
00000060: 3a1a 47bf dd61 61be 1d2b b63e c482 8fbe
00000070: 1419 973c e120 54be af87 2cbf 2144 743f
00000080: e3ba 023e 65bb 233e 936e 143d d919 4fbf
00000090: 5f09 c5be 7094 b13d ae9c cebe 1efb 763e
000000a0: 26dc a3be 32cf 3cbd 07b9 19bf 3c4d 77be
000000b0: f487 62be f9b7 343e 57e6 bbbe 2764 28bf
000000c0: c942 683d 5600 563f d7f7 49be e311 343e
000000d0: 33e0 17bf eadb 943e d24d db3e 2001 01bf
000000e0: 62f7 53be fa0f 4abe 2aea d53e a146 203f
000000f0: a19e 8a3e 6030 acbe d92f 2e3f 2ea6 d13c
00000100: 3a52 a4bf 4d44 fabd 7552 763d d1de ed3e
00000110: d5fe f2bd 48b4 57bd ef81 9bbf 0d23 243e
00000120: a6f0 edbe 70c0 253f e829 bcbe b2eb 643e
00000130: a36c f0be 135a 253f 715d 95be 83f5 9abe
00000140: 19f1 9c3d bc92 df3e 8e01 883e 65fd ce3e
00000150: 20a9 ccbe 5f4d 48be 4c84 1ebf 09cc 5cbf
00000160: ae33 5cbe af59 abbf 6b8d b0be e0cf 8abe
00000170: cfe8 8abf 83b6 47bf c9b5 633e 6fd1 e53d
00000180: 0273 8fbf c8c3 a23e 49d1 07bf f3a1 053e
00000190: f72c 4d3f 95e5 a0bf ca6e 00bf 05fb 1bbf
000001a0: d8b4 e33e e00f e9be f94e bb3e f0fa 233e
000001b0: 3386 b43d 85e0 86be bf1b 103f eed8 3f3f
000001c0: f0ee 0d3f be2e 323f 741d 743e 050b e9bd
000001d0: 4ebc 103f dc83 10bd bff1 69bf a668 653e
000001e0: 4e43 32bf c6cf 2f3f c974 02be a861 07bf
000001f0: e421 4ebe 7619 143f cff2 333e 0c24 153f
00000200: bf87 8d3e f41c f73d a7a6 d3be 68bd 02bf
00000210: 2235 a1be 706f 82bf ee00 123f 8a4e f63b
00000220: 3a3d 42bf 8945 b2be 3ff6 933d 6223 7bbe
00000230: 9a2c 46bf 5a31 3bbe 1f09 9abe 2185 053f
00000240: 6dd3 853f 067e a73e b129 b0be 35d4 133f
00000250: dd96 fbbe e3cb 233f 331d 43bf 05c0 ecbe
00000260: 4ff2 dabd 711a e3be 1fdb 8d3d d3f6 213f
00000270: d240 02bf 2a67 c73d a556 a73e adfc 04be
00000280: d257 90be 9ffd ea3d 8019 69be 410c 83bd
00000290: 20ab c8bd 62d7 24bf 54f1 973e 6883 643d
000002a0: 8cab ccbe 36a5 ce3e 7de8 7ebe 47c2 263d
000002b0: bc4a a03f f7ae 37be db6f c7be 5d4c 2ebe
000002c0: b070 b7bf 7ace 34bf a246 593e 1b46 cc3e
000002d0: 6738 063f bac7 593e 8b55 513f d4a8 cdbe
000002e0: 3366 2dbc 7eae 07be 17ae 18be cc20 3dbd
000002f0: 7880 fcbe 84d2 643e bdb6 cf3e 3a60 25bf
00000300: 4836 393f 138e d53e 566c 563e 07f5 d93e
00000310: 6f93 d23e 13da f2be c6f1 e8be 2baa 3d3e
00000320: a85d a13e fcf2 c2be f0b1 053f 1884 56bf
00000330: 16b0 fd3d 1019 5cbd 9224 4cbf 6426 653d
00000340: 4ba4 08bf f4b3 1dbf 36ab a63c e614 47bb
00000350: 1f3c 0ebe 11a6 ab3e 7cf0 d3be a421 303e
00000360: 2478 66bf 9e4a 543f 91c6 6cbf a953 063f
00000370: b2d0 883e e1c6 573f 9cca 0dbf d0f1 a63d
00000380: 0b7f 73bf 4f2f 1bbf d162 3ebf 174e 783d
00000390: 20d7 f7bd 3dc2 54bf 4aa2 b2be d6f8 bf3e
000003a0: e9e7 753e defa 883f 6590 803e bdc4 edbd
000003b0: fda3 6dbf 7cc0 213e 0d35 9dbd 01f1 45bf
000003c0: 3031 f63e 19b7 72be ff2e 1ebe d0c1 1f3f
000003d0: 514d 483f c55f 99be 8927 6b3d ae39 813e
000003e0: 0675 37be 9ef2 283e 58a9 7e3e 1bb8 03be
000003f0: cee7 ebbe 19f9 61bf c3e7 f0be 2d44 413f
0.16178788 1.1101367 0.20951174 -0.047254857 0.4881345 -0.39470366 0.36208692 -0.03032694
0.4285282 0.9329158 -0.22964935 0.6724567 -0.14495477 0.5975974 0.67097396 -0.08088369
0.070641905 0.06475619 -0.0008481613 -0.1273535 0.6256601 0.2477089 0.09461497 -0.6153816
-0.77774394 -0.22009988 0.35579768 -0.28029454 0.018444575 -0.20715667 -0.67394537 0.95416456
0.12766604 0.15989454 0.036238264 -0.80898815 -0.38483712 0.0867089 -0.40353912 0.24119231
-0.32003897 -0.046096034 -0.60047954 -0.24150556 -0.22122175 0.17648305 -0.36699173 -0.6577782
0.056704316 0.8359426 -0.1972345 0.17584948 -0.59326476 0.2907403 0.4283281 -0.5039234
-0.20699838 -0.19732657 0.41780216 0.6260777 0.2707415 -0.33630657 0.6804176 0.025591936
-1.2837594 -0.122200586 0.06013723 0.46459058 -0.118650116 -0.052662164 -1.2149028 0.16028996
-0.46472663 0.6474676 -0.36750722 0.22355536 -0.46957883 0.6459057 -0.29172853 -0.30265436
0.07663173 0.43666637 0.26563686 0.404277 -0.39972782 -0.19560765 -0.6192062 -0.8624883
-0.21504089 -1.3386744 -0.34482893 -0.2711172 -1.0852298 -0.78012866 0.22237314 0.11221587
-1.1206973 0.31789994 -0.5305372 0.1305006 0.80146736 -1.2570063 -0.5016905 -0.609299
0.4447391 -0.45519924 0.3658369 0.16013694 0.08814659 -0.2634317 0.5629234 0.74940383
0.55442715 0.6960257 0.2383936 -0.11379055 0.5653733 -0.035282 -0.913845 0.22403201
-0.6963395 0.6867641 -0.12739863 -0.52883387 -0.20130116 0.5785135 0.17573093 0.5825813
0.2764263 0.12066069 -0.41338083 -0.5107026 -0.3148585 -1.0190258 0.5703267 0.007516687
-0.75874674 -0.34818676 0.07224702 -0.24525216 -0.77411807 -0.18280545 -0.30085084 0.52156264
1.0455147 0.32713336 -0.34406808 0.5774568 -0.49138537 0.6398298 -0.7621643 -0.4624025
-0.10690748 -0.4435611 0.0692656 0.6326725 -0.5088016 0.09736474 0.32683292 -0.12987013
-0.28192002 0.11474156 -0.22763634 -0.063988216 -0.097982645 -0.6439115 0.29676306 0.05578938
-0.3997463 0.4036042 -0.24893375 0.04071262 1.2522807 -0.17937838 -0.38952526 -0.17021318
-1.4331264 -0.7062756 0.2121835 0.39897236 0.52429813 0.21267596 0.81771153 -0.40167868
-0.010583448 -0.13250157 -0.1491016 -0.046173856 -0.49316764 0.2234593 0.40569106 -0.64599955
0.7234845 0.41709957 0.20939764 0.42569754 0.41128108 -0.47432002 -0.45496958 0.18521945
0.31516767 -0.38076007 0.52224636 -0.8379531 0.12387101 -0.05373484 -0.797433 0.055944815
-0.5337569 -0.6160271 0.020345312 -0.0030377447 -0.13890122 0.33525136 -0.41394413 0.17200333
-0.9002707 0.82926357 -0.9249049 0.52471405 0.26721722 0.8428784 -0.5538728 0.08151591
-0.9511573 -0.6061906 -0.7436953 0.060621347 -0.12101579 -0.83108884 -0.34889442 0.37494534
0.24014248 1.0701559 0.25110164 -0.116097905 -0.9282835 0.15796083 -0.07676134 -0.7732087
0.48084402 -0.23702659 -0.15447615 0.6240511 0.78242975 -0.2995588 0.05741075 0.2523932
-0.17915735 0.16498801 0.24869287 -0.128632 -0.4607529 -0.8827072 -0.4705182 0.75494653

decoder_net.3.bias f4 [256]
00000000: 29a9 003f 26cc fb3e 8f01 003f a290 fa3e
00000010: a461 f63e 5936 023f 9ec9 003f 3523 023f
00000020: 7766 f23e b555 013f 41f3 f83e cf9f f43e
00000030: cb36 f43e 7546 f03e ec94 fa3e c9a6 f93e
00000040: 31b5 fc3e 9478 fa3e 83ff f13e e885 ef3e
00000050: 5ec0 ff3e dddb fe3e 0d22 e73e 04fe fb3e
00000060: c445 fc3e c202 ff3e 8e0e f03e 4664 fb3e
00000070: 28e0 f03e 152c fe3e da48 ff3e b05c fa3e
00000080: 230b ee3e 8b8f 073f cc41 ff3e 76bc f33e
00000090: 1180 ff3e f500 fe3e 8fa5 063f 7609 f83e
000000a0: 9e6c f33e 685d f23e 21b7 e93e 8464 e63e
000000b0: 0597 f83e c0a4 f83e 028f fa3e 86f1 023f
000000c0: 764d f83e 3ced ea3e 695c ff3e 2d3b f93e
000000d0: 86ad fa3e 7300 053f 6499 003f 4f03 f43e
000000e0: 25b7 033f 0fad fb3e 6ee4 ee3e 367d f13e
000000f0: 2fce f63e 2e80 fd3e be1b 003f 3a4b d43e
00000100: e5ef ff3e dc2a f93e f826 023f 2800 f63e
00000110: 9224 e53e 8ebc fb3e a0b2 033f 18fa fd3e
00000120: 36c4 ed3e 78cd 013f ad25 f53e 690c fb3e
00000130: b870 eb3e 0b95 fe3e b8c6 f33e 59b2 033f
00000140: 971b f73e 9e12 033f e506 023f 633c 003f
00000150: 5684 fc3e 2bb7 fd3e 11e1 f53e 6afd fa3e
00000160: a81e 073f 2c7c f83e 0a5b f93e 98b9 f23e
00000170: 9b71 013f 5853 fc3e 3022 f73e c723 f13e
00000180: c34c f03e 90d1 fc3e bb1a ef3e 0bcb f23e
00000190: 0b5e 063f 3f16 023f aa96 fd3e 1847 fd3e
000001a0: 315b fa3e 9199 ed3e 302f fa3e 77fe fb3e
000001b0: 297e f23e 9f9e f53e 6f4d 053f 4224 f93e
000001c0: acbd ef3e 5e2c fb3e 9976 043f 2455 fe3e
000001d0: a4b7 fb3e 20bf 003f 811c f23e d272 fe3e
000001e0: 38b1 fe3e 0b58 fe3e efe0 fe3e 3672 e23e
000001f0: 5635 fb3e de92 f83e 97d5 f53e e7aa 003f
00000200: ed2d f13e 24fe f63e 0052 fa3e 873e f63e
00000210: d318 f53e c790 fb3e f5e7 033f f121 013f
00000220: c746 fe3e 8566 013f bd17 f73e 3893 f23e
00000230: 43cf f53e c7c6 f63e 2f57 053f 069a fc3e
00000240: b162 f93e 43d2 f23e 863f 073f 6ebd 013f
00000250: 3e9f f03e f31b fa3e eeb3 f93e ae4c f53e
00000260: 2ee3 fe3e 0999 f53e 8444 043f c216 fb3e
00000270: baf7 013f 2a9a fd3e c499 013f f518 ef3e
00000280: c06a 003f 0a53 ef3e 67d2 ef3e e93e b13e
00000290: 61ba 013f 402d f03e cf17 fe3e b754 f93e
000002a0: d8f5 033f 4785 003f bc71 ed3e 10a1 ff3e
000002b0: 4429 fe3e c1fe fb3e bc8b fb3e 1901 023f
000002c0: 239f ff3e ead2 f73e cc0a ee3e 9878 f43e
000002d0: a4e5 f73e 03a4 f83e c686 f43e 2975 013f
000002e0: 779a 013f d300 ed3e 4ff0 fa3e 0125 fe3e
000002f0: 33c6 033f 9a89 fb3e a260 003f c2a2 fc3e
00000300: 2a9c 053f d67d f43e 54b6 f63e 7541 fc3e
00000310: 0277 003f 2eac fa3e 1eca fe3e 0ae5 013f
00000320: 54cb 003f 5395 023f 126d f23e 77d5 f93e
00000330: b158 c73e 0fd0 043f a237 023f df92 ee3e
00000340: 9b49 f33e 3dac f23e bc2a fd3e 5a54 003f
00000350: 45ca f43e 23d9 fe3e f483 ea3e 77f6 fa3e
00000360: e9c9 003f 55be fa3e b98a 013f 1570 f63e
00000370: 008b fd3e 7ebc ba3e 1c23 ec3e 1a15 023f
00000380: 0be1 033f d991 f83e dc66 f43e 8319 f43e
00000390: 473f fb3e 1eaa fc3e b4ef ef3e 18e3 ef3e
000003a0: ce0d fe3e 3152 f83e 49bf f73e a782 fd3e
000003b0: 9d2b f93e d996 fd3e 5d08 ef3e 8a15 fb3e
000003c0: d757 003f 5e8c 033f bc60 fd3e eaba 093f
000003d0: 6614 fb3e 14fb 003f 3232 fa3e c401 fe3e
000003e0: 065b fa3e 51c6 f63e af7a ed3e aac2 ff3e
000003f0: 7505 f63e cf63 013f 30ec f43e 7375 fb3e
0.5025812 0.4917919 0.5000238 0.4893847 0.4812137 0.5086418 0.50307643 0.5083497
0.473438 0.50521404 0.48623088 0.47778174 0.47698054 0.46928754 0.48941743 0.4876006
0.49356988 0.4892012 0.47265252 0.4678185 0.49951452 0.49777117 0.45143166 0.49217236
0.49271977 0.49806792 0.46886104 0.4909994 0.47046018 0.49643007 0.4986027 0.4889884
0.46492872 0.52953404 0.49854887 0.47604722 0.49902394 0.49610105 0.5259637 0.48444718
0.47543806 0.47336888 0.4564753 0.44998562 0.4855272 0.48563194 0.4893723 0.51149786
0.48496598 0.4588412 0.4987519 0.4867796 0.48960513 0.5195381 0.50234056 0.47658774
0.5145133 0.4915547 0.46658653 0.4716584 0.4820418 0.49511856 0.5004233 0.41463643
0.49987713 0.48665512 0.5084071 0.48046994 0.44754463 0.49167293 0.51444435 0.4960487
0.4643876 0.50704145 0.47880307 0.49032906 0.45984435 0.49723086 0.47612548 0.5144401
0.48263237 0.5120028 0.5079177 0.5009214 0.49319714 0.4955381 0.48023275 0.49021465
0.5278115 0.48532236 0.4870227 0.47407222 0.50563973 0.49282336 0.4826827 0.47097608
0.46933565 0.49378633 0.4670008 0.47420534 0.5248725 0.50815195 0.4952901 0.49468303
0.488977 0.46406224 0.48864126 0.4921758 0.47361878 0.4797258 0.5207128 0.48660475
0.46824396 0.49057287 0.51743466 0.49674332 0.49163544 0.50291634 0.47287372 0.49696976
0.49744582 0.49676546 0.49780986 0.4422776 0.4906413 0.4854955 0.4801452 0.50260776
0.4710535 0.4824077 0.48890686 0.4809458 0.47870502 0.49133894 0.51525813 0.50442415
0.49663374 0.5054706 0.48260298 0.47377944 0.4800969 0.4819853 0.52086157 0.4933626
0.48708108 0.47426042 0.52831304 0.5067967 0.46996492 0.4884945 0.48770088 0.47910064
0.497827 0.4796832 0.51667047 0.490408 0.50768626 0.4953168 0.5062525 0.46698728
0.5016289 0.4674304 0.46840212 0.3461831 0.50675017 0.46909523 0.4962754 0.48697445
0.51547 0.50203365 0.46375835 0.49927568 0.49640858 0.492178 0.49130046 0.50782925
0.499261 0.48403102 0.46492612 0.47748256 0.4841739 0.4856263 0.47759074 0.505694
0.5062632 0.4628969 0.49011466 0.49637607 0.51474303 0.4912842 0.5014745 0.49342924
0.5219141 0.47752255 0.4818598 0.4926869 0.5018159 0.48959488 0.49763578 0.5074011
0.50310254 0.510091 0.4734884 0.48795673 0.38934854 0.5187997 0.5086614 0.4659643
0.47517094 0.47397032 0.49446666 0.5012871 0.4781057 0.49775037 0.45803797 0.49016163
0.5030809 0.48973337 0.506023 0.48132387 0.4952011 0.36471933 0.46120536 0.5081345
0.51515263 0.48548773 0.47734725 0.47675714 0.49071714 0.4934854 0.46862566 0.46852946
0.49619907 0.48500207 0.48388126 0.49513742 0.48666087 0.4952915 0.46686068 0.4903987
0.5013403 0.5138606 0.49487865 0.53800833 0.49039 0.50383115 0.4886642 0.49610722
0.4889757 0.48198178 0.46382663 0.49953204 0.48051038 0.5054292 0.47836447 0.49113044

decoder_net.4.weight f4 [256]
00000000: 3649 603f a4c6 603f 2d4c 7a3f 47c8 783f
00000010: b3dd 6f3f 809b 753f 9f1d 813f 2478 723f
00000020: 53ef 773f c342 723f e562 833f aa0d 773f
00000030: a39b 773f 2142 783f 2d4c 7a3f 2d4c 7a3f
00000040: be61 703f 2d4c 7a3f 953d 803f 5ef1 753f
00000050: 2d4c 7a3f 1d63 7a3f 2d4c 7a3f 392b 4b3f
00000060: 9911 883f 2d4c 7a3f 353c 723f 3d97 6c3f
00000070: 9491 743f 3e55 6f3f 06a0 6f3f 01d2 6b3f
00000080: 526c 723f 6199 843f 2d4c 7a3f a470 703f
00000090: ed94 6a3f dda3 883f f28c 673f 1e4d 6c3f
000000a0: 7e61 733f 60a9 773f 3a53 783f 2d4c 7a3f
000000b0: 18d3 6c3f a879 883f 2d4c 7a3f 508b 5d3f
000000c0: d467 723f 7ff3 6f3f 52ec 7a3f 2d4c 7a3f
000000d0: d7b7 733f 19bf 6d3f e689 6e3f 542b 813f
000000e0: 90c1 683f e030 773f 2d4c 7a3f eb3a 7a3f
000000f0: d153 783f f8bc 783f 9635 4e3f 2d4c 7a3f
00000100: 3d4b 713f 9edc 743f ba74 843f 9b01 813f
00000110: 2d4c 7a3f f485 773f 92de 8b3f 2d4c 7a3f
00000120: 2d4c 7a3f de4e 803f 06e2 773f 7512 8b3f
00000130: 8a2b 763f 6b7d 743f 2d4c 7a3f 866c 7b3f
00000140: 849b 713f e09a 903f 2d4c 7a3f c576 763f
00000150: 7a1b 7e3f 6ff7 863f e362 723f 2d4c 7a3f
00000160: c710 673f b66b 843f abb3 763f 9bca 703f
00000170: e9cf 703f 872b 803f d14b 753f 0632 773f
00000180: cb78 653f 9b14 743f 70a3 753f 1f3b 693f
00000190: 246e 7e3f 47ae 593f a123 6e3f 2d4c 7a3f
000001a0: 1c2d 803f ec9d 723f 4d5b 613f b9a0 8f3f
000001b0: 2d4c 7a3f 130b 763f 4715 8d3f df59 813f
000001c0: d3bd 7a3f 112a 733f 89e1 583f 68d6 713f
000001d0: 862f 6a3f 82a8 703f b0b5 743f 2d4c 7a3f
000001e0: 2d4c 7a3f 88f3 683f c2ac 863f 2d4c 7a3f
000001f0: 2d4c 7a3f eece 803f 1f26 663f 96b3 783f
00000200: 52b4 753f 46ea 753f a826 853f af0d 863f
00000210: 1647 6b3f 2d4c 7a3f bfd4 693f 9dd7 5a3f
00000220: 2d4c 7a3f 917e 623f eb33 743f 0a6b 813f
00000230: 6cfb 793f 15e3 853f 4abf 863f 6cf7 753f
00000240: 79ab 753f f47f 6e3f 9509 913f 2c54 883f
00000250: 4cbe 723f 10e3 6e3f 7f7f 7f3f 2d4c 7a3f
00000260: b0f9 993f 20aa 7e3f db19 593f 19c8 643f
00000270: 72aa 8a3f 3395 693f 2d4c 7a3f 5316 773f
00000280: 55f7 543f 6814 6d3f 9125 7b3f 2d4c 7a3f
00000290: 2979 693f 28e4 753f dc46 5f3f cf46 793f
000002a0: 2b6c 8f3f 2d4c 7a3f 7350 723f 2d4c 7a3f
000002b0: 476c 833f 8b4f 6e3f b34c 773f 2d4c 7a3f
000002c0: c2e8 493f 0b8b 6b3f d278 763f 2d4c 7a3f
000002d0: c00a 743f 8736 743f 2d4c 7a3f 2d4c 7a3f
000002e0: 6ed4 753f 2e21 773f 2d4c 7a3f f0f8 743f
000002f0: e713 7f3f a830 763f 6670 933f e446 793f
00000300: 7868 8f3f 5170 7d3f 7982 5c3f 4215 6e3f
00000310: e1ff 6f3f 2d4c 7a3f 3eb7 733f 66b9 853f
00000320: 6ab9 933f dcc2 9c3f 0198 873f 2f20 683f
00000330: 2d4c 7a3f 3ec9 6b3f f425 823f e362 6d3f
00000340: 2d4c 7a3f ec7a 733f e744 6c3f 3468 813f
00000350: 31bd 733f a5fe 893f 2d4c 7a3f 05ad 743f
00000360: 2d4c 7a3f 0873 723f 2d4c 7a3f 977f 7f3f
00000370: 2d4c 7a3f 2d4c 7a3f 043a 743f 220f 5e3f
00000380: ea82 7b3f 55ae 6f3f 39ef 693f 259f 663f
00000390: 05f9 793f 5535 743f 0d63 763f 95b7 763f
000003a0: 2a19 783f 3e78 7f3f 39d0 613f 2d4c 7a3f
000003b0: 9fb4 663f fd12 8a3f b9ae 7a3f 650d 833f
000003c0: 503b 783f d75a 863f cf98 6d3f 3110 733f
000003d0: 15cd 843f 5354 743f 2d4c 7a3f f094 6c3f
000003e0: 5abd 723f 2d4c 7a3f 70f1 733f 706c 873f
000003f0: a9df 723f b702 5b3f 0c5b 713f 8158 603f
0.8761171 0.878031 0.97772485 0.971806 0.9369766 0.959404 1.0087165 0.9471457
0.96849555 0.9463312 1.0264555 0.96505225 0.9672186 0.96975905 0.97772485 0.97772485
0.9389914 0.97772485 1.0018793 0.9607142 0.97772485 0.97807485 0.97772485 0.7936283
1.063037 0.97772485 0.9462312 0.9241827 0.95534635 0.93489444 0.9360355 0.92117316
0.94696534 1.0359308 0.97772485 0.93921876 0.9163349 1.0675007 0.9044944 0.9230517
0.95070636 0.9674282 0.97001994 0.97772485 0.92509604 1.0662127 0.97772485 0.865407
0.9468968 0.9373092 0.98016846 0.97772485 0.9520239 0.92869717 0.93179166 1.0091348
0.9092035 0.9655895 0.97772485 0.9774615 0.97002894 0.97163343 0.80550516 0.97772485
0.9425543 0.95649135 1.0348122 1.0078615 0.97772485 0.9668877 1.0927298 0.97772485
0.97772485 1.0024068 0.9682926 1.0865008 0.96160185 0.9550387 0.97772485 0.9821247
0.94377923 1.1297264 0.97772485 0.9627498 0.99260676 1.0544261 0.9468214 0.97772485
0.90259975 1.0345371 0.963679 0.9405915 0.94067246 1.0013283 0.9581881 0.96560705
0.8963744 0.9534394 0.9595251 0.91105837 0.9938681 0.8503155 0.93023115 0.97772485
1.0013766 0.9477222 0.8802994 1.1220924 0.97772485 0.9611065 1.1022118 1.0105551
0.979459 0.94986063 0.8471914 0.9446778 0.91478765 0.9400712 0.95589733 0.97772485
0.97772485 0.909966 1.0521472 0.97772485 0.97772485 1.006315 0.8990192 0.97149026
0.9597827 0.960606 1.0402422 1.0472926 0.91905344 0.97772485 0.9134025 0.8548525
0.97772485 0.88474375 0.9539172 1.0110791 0.97649264 1.0459925 1.0527127 0.9608066
0.9596477 0.9316399 1.1331049 1.0650687 0.9482162 0.9331522 0.9980392 0.97772485
1.2029324 0.9947834 0.8480508 0.89367825 1.0833266 0.91243285 0.97772485 0.9651844
0.831899 0.9260926 0.98104197 0.97772485 0.912005 0.96051264 0.872175 0.9737367
1.1204885 0.97772485 0.94654006 0.97772485 1.0267419 0.9309012 0.9660141 0.97772485
0.78870785 0.9200904 0.9627811 0.97772485 0.95328903 0.953957 0.97772485 0.97772485
0.96027267 0.96535003 0.97772485 0.9569235 0.99639744 0.96167994 1.1518676 0.97373796
1.1203756 0.98999506 0.86136585 0.93001187 0.93749815 0.97772485 0.9520148 1.0447204
1.1540959 1.2246966 1.0593263 0.9067411 0.97772485 0.92103946 1.0167832 0.92729014
0.97772485 0.9510944 0.92292637 1.0109925 0.9521056 1.0780836 0.97772485 0.95576507
0.97772485 0.94706774 0.97772485 0.9980406 0.97772485 0.97772485 0.95401025 0.8674184
0.98246634 0.93625385 0.9138065 0.90086585 0.976456 0.9539388 0.9624489 0.96373874
0.969134 0.9979285 0.8820835 0.97772485 0.90119356 1.0787045 0.97922856 1.0238463
0.96965504 1.0496472 0.9281129 0.9494658 1.0375086 0.9544117 0.97772485 0.9241476
0.9482018 0.97772485 0.9529028 1.0579967 0.9487253 0.8555102 0.9427955 0.87635046

decoder_net.4.bias f4 [256]
00000000: 167e 043b 752e a6bd 0000 0000 a2f3 1fb9
00000010: 9939 7bbc 87f8 a1bc 4ff5 5a3d 1c7f b73b
00000020: fb81 84bc f041 b03c 797f 2fbd 34e3 e4bc
00000030: a94b cdbc a053 a9bc 0000 0000 0000 0000
00000040: e3b1 abbc 0000 0000 8335 64bc e62b cabc
00000050: 0000 0000 3be1 ebbc 0000 0000 c6ad a6bc
00000060: e786 4bbd 0000 0000 b8cd acbc 135e 9abd
00000070: 7aa5 85bc 5b72 c83b cc29 323c 96f2 22bc
00000080: 4186 07bd 4a59 b7bc 0000 0000 3a1c 6fbc
00000090: 0340 553c 55ae a8bb c00c 013d 194c febb
000000a0: 04f9 19bd 9c6e c9bc e8b6 f1bc 0000 0000
000000b0: 3db1 60bc a8b6 f6bb 0000 0000 6652 bc3b
000000c0: ed12 66bc 185a 16bd 0f02 b7bb 0000 0000
000000d0: 4477 94bc 43cb e03c df5b 1e3c 6c61 3cbc
000000e0: 31d7 953c 5cb4 0c3c 0000 0000 33bb 91bc
000000f0: 8a6a 90bc 5c52 553c 45ef a2bc 0000 0000
00000100: ef2e a03c 9854 9c3c 9324 24bc a015 6abc
00000110: 0000 0000 4744 c1bb 2061 1fbc 0000 0000
00000120: 0000 0000 d69a ec3c b60e 4dbb b92f f7bc
00000130: 96f6 15bd de38 483c 0000 0000 f606 d2bc
00000140: b311 20bb 29da 28bd 0000 0000 6725 2f3c
00000150: aee3 a03b d6fb 62ba 771a 69bc 0000 0000
00000160: dfba a53c 4bdd 91bc 28cf 8bbb 24d4 56bc
00000170: b29e 393c f039 c63b 6c29 e2bc 5020 9abc
00000180: a2f0 4ebd c87e 49bc 36f5 09bd 1c8f 8abd
00000190: 5e57 173c b4c3 b3bb fbd0 c0bc 0000 0000
000001a0: fa41 d13b 8b71 33bd 2622 cebd e23b 8b3b
000001b0: 0000 0000 e149 0ebd ef6e 4fbc 3f12 dbbb
000001c0: f52b 20bb ec5b e1bb 2291 c53b 3e84 01ba
000001d0: ddbd f9ba 52a5 f83c 0590 90bc 0000 0000
000001e0: 0000 0000 61d5 80bd 0461 d8bc 0000 0000
000001f0: 0000 0000 9f7f 03bc 9c5d 1abb cd81 b23c
00000200: 2de7 8dbc 8faf aebc 8776 003b 21e1 6ebb
00000210: 7ec8 6bbd 0000 0000 3c16 923c 40b7 e43b
00000220: 0000 0000 53b6 033c b7fa 89bc 324b 40bc
00000230: 0431 4dbc 4085 bebc 1cd1 a03b 34bd 263a
00000240: 2ee4 08bc c690 51bd 3391 20bd 48b5 15bc
00000250: 2a4e 0dbd acaa 36bc fdf5 a4bc 0000 0000
00000260: 18dd 183e 7592 b3bb 77b8 433b 576c 04bd
00000270: a9b0 52bd af95 fe3b 0000 0000 01df b1bc
00000280: e25a 343a ad7b 59bd 8c40 ddbc 0000 0000
00000290: 5847 873c 53f5 14bd 3fe6 493b 5a0b c23a
000002a0: 45bc c5bc 0000 0000 e8a9 0ebd 0000 0000
000002b0: dd3b ecbb 71f8 84bc e749 acbb 0000 0000
000002c0: 0804 cb3b 13c6 4bbd 6b62 d0bc 0000 0000
000002d0: 17b7 8dbc 9eb6 3dbc 0000 0000 0000 0000
000002e0: 7f23 b23c ecda 09bd 0000 0000 f7d0 b7bb
000002f0: 5bf2 e1bc 09b3 443b b490 b5bb 303d e23a
00000300: f24a 82bd a09c 20bc 7230 dbbd 0427 fabb
00000310: cb7b 953c 0000 0000 f57e 0fbb 210b e8bc
00000320: 456f dabc 103f c9bc 07cb 76bc 8f6f 6dbd
00000330: 0000 0000 23cb fe3c 8a42 b3bc 1415 65bd
00000340: 0000 0000 890e 6bbc 16eb 803b e5ae c03c
00000350: b351 0bbc 18ad c73b 0000 0000 7612 babb
00000360: 0000 0000 b855 593a 0000 0000 818b cfba
00000370: 0000 0000 0000 0000 eda9 40bd d06e 21bc
00000380: ce0e 0abd 988a d2bb 6b97 3ebc 40fc 56bd
00000390: 6e21 85bb 3d57 463b 176d c6bc 11db ddbc
000003a0: 0aca 2e3c 2786 d4bc ecfd 99bc 0000 0000
000003b0: 6411 2abc 18de 22bd 7cfb 01bd efca 34bc
000003c0: 65bc abbc ad7f 78bc 8fa4 1fbc 8448 153d
000003d0: 2ec7 f7bb f3dc bb3c 0000 0000 614b 7abc
000003e0: 6d9d 51bc 0000 0000 99c8 22bd f31d 50bd
000003f0: da3a 90bc a2f4 f43b 8928 8bbc 974c 673c
0.0020216755 -0.0811433 0.0 -0.00015254182 -0.015333557 -0.019771827 0.0534566 0.0055998694
-0.01617526 0.021515816 -0.042846177 -0.02794037 -0.025060492 -0.020669758 0.0 0.0
-0.020958846 0.0 -0.013928774 -0.024679136 0.0 -0.028793922 0.0 -0.020346534
-0.0496892 0.0 -0.021094188 -0.075374745 -0.016314257 0.006117148 0.010874223 -0.009945532
-0.03308702 -0.022381444 0.0 -0.014594132 0.01301575 -0.005147735 0.0315063 -0.0077605364
-0.037590995 -0.024588875 -0.029506162 0.0 -0.013714132 -0.0075290985 0.0 0.0057471273
-0.014042598 -0.036707014 -0.005584962 0.0 -0.018123277 0.027440673 0.009665458 -0.011497837
0.018291088 0.008587923 0.0 -0.017789459 -0.017628927 0.013020124 -0.019889483 0.0
0.01955363 0.019083306 -0.010018486 -0.014287382 0.0 -0.005898032 -0.009727746 0.0
0.0 0.028882425 -0.0031289286 -0.030174123 -0.036612116 0.012220589 0.0 -0.025638085
-0.0024424612 -0.04122368 0.0 0.01069007 0.004909954 -0.00086587423 -0.014227501 0.0
0.020230709 -0.017805716 -0.0042666383 -0.013112102 0.01132934 0.006049387 -0.027607642 -0.018814236
-0.050522454 -0.012298293 -0.033681117 -0.06765577 0.009237139 -0.005485976 -0.02353715 0.0
0.006386039 -0.043809455 -0.10065107 0.004249082 0.0 -0.034738425 -0.012660726 -0.0066855247
-0.0024440263 -0.006877413 0.006029264 -0.0004940665 -0.0019053776 0.030352268 -0.017646799 0.0
0.0 -0.06290699 -0.026413448 0.0 0.0 -0.008026033 -0.002355433 0.02179041
-0.017322147 -0.021323947 0.0019601898 -0.0036450105 -0.05756425 0.0 0.017832868 0.006979853
0.0 0.008039075 -0.016843183 -0.011736678 -0.012523893 -0.023256898 0.0049077403 0.0006360591
-0.0083551835 -0.051163457 -0.039200973 -0.009137459 -0.03449837 -0.01114909 -0.020136828 0.0
0.1492809 -0.0054801055 0.0029864588 -0.032329883 -0.051438008 0.0077693085 0.0 -0.021712782
0.00068799977 -0.053096462 -0.027008317 0.0 0.016513512 -0.036366772 0.0030807403 0.0014804408
-0.024137625 0.0 -0.034830004 0.0 -0.0072092847 -0.016231747 -0.0052578333 0.0
0.006195549 -0.049749445 -0.025437554 0.0 -0.017299218 -0.011579184 0.0 0.0
0.021745441 -0.033656046 0.0 -0.0056096273 -0.027581384 0.003001394 -0.0055409316 0.0017260667
-0.06361951 -0.009802967 -0.107025996 -0.0076340456 0.018247506 0.0 -0.002189574 -0.02832562
-0.026664386 -0.024566203 -0.015063054 -0.05796772 0.0 0.031102723 -0.021882314 -0.055928305
0.0 -0.014346727 0.0039342744 0.023520896 -0.008503365 0.0060936324 0.0 -0.0056784702
0.0 0.0008290666 0.0 -0.0015834422 0.0 0.0 -0.047037054 -0.00985308
-0.033705525 -0.006425213 -0.011632781 -0.052486658 -0.004062823 0.00302644 -0.02422194 -0.027081998
0.010668287 -0.025942875 -0.018797837 0.0 -0.010380123 -0.039762586 -0.031733975 -0.011034711
-0.020963857 -0.015167159 -0.009743824 0.03644611 -0.007561586 0.022932505 0.0 -0.015276761
-0.012793881 0.0 -0.039742086 -0.05080981 -0.017606188 0.0074754516 -0.016987102 0.014117382
