Action_Net.pt (torch, 98338 bytes, 22 tensors)

decoder_net.0.weight f4 [128, 85]
00000000: 690e e9bd 3644 08bd d375 ea3d 93be 313d
00000010: b1e7 b7bd 0e3a 30bd ad2e 73ba 7787 2e3e
00000020: 8479 e1bd b21a 60bc b8df 11bd 22dc 293e
00000030: 01e9 003e 3932 c9bc 00b1 9abd 3982 273e
00000040: 35ba a9bc 0f62 40bd f62a 073e bf92 483d
00000050: 74b9 8e3c 3195 1a3e 5e1e aebd b688 073e
00000060: 4d12 a83d cc43 ddbd da19 1c3e d8aa 6a3d
00000070: 8410 fbbd f255 0e3e a2dc 0cbe 6c06 b33c
00000080: 0599 9b3d fd37 b53d 660e 18be df8a 153e
00000090: 5321 203e 6450 c33d 93d8 673d fc54 debd
000000a0: 431d 003e 52c2 1b3c 8a1e cbbc d84a 5cbd
000000b0: 5252 233c 1292 12bd e64f 01be 8e7e e2bd
000000c0: 6ed2 76bd 827e ffbc ad06 b3bd 163a 4abd
000000d0: 1c5c 04be 0f2e f5bd 8cc8 cb3d ea3e 59bd
000000e0: 1d51 5ebd 8aae 49ba 09d6 d13c b469 e0bd
000000f0: 2d00 9b3d e95b 8d3d 5b06 973d 657c fbbd
00000100: cfe1 193e 792e b83d 1850 403d dd90 bb3d
00000110: da61 c5bd eb90 823d 30e6 103e 710b 8e3d
00000120: 7ba3 07bc a918 21be 1afb 7cbd 3db9 e7bd
00000130: 845a 263e cb07 00bd 7f36 64bd 16b6 2bbe
00000140: 35f7 12be 53fb 7bbd 2826 823d e614 e1bc
00000150: 916c b23d b3fd 263e cd43 d5bd 0a96 573d
00000160: 8624 4e3c 757b 17be 7547 09bd 473b aa3c
00000170: 9b6f 5dbd 0de5 f9bd bf8f 1e3e 9a23 8f3d
00000180: a962 1bbe e719 24be d76d 243d b0b6 acbd
00000190: 7dd1 0b3d 7f78 843d 24b0 b23c d94a c73d
000001a0: a21a 953d 0fbc a7bc b6e0 1c3d ee7c 32bd
000001b0: fc5b b3bd 4b86 28be de91 923d 83fd 063e
000001c0: d566 45bd 6ea3 d43d 15b0 083e 69ea c03c
000001d0: bc90 953d 1241 173c ad7b c73d d9ba a63d
000001e0: e760 e73d 4a55 1c3e 47b6 80bd 5a3f 563d
000001f0: 4bfb 843d 41ca 07be c692 14be 3ae4 1dbd
00000200: 8030 993d 29f6 023e 61d8 86bd 1ed4 8dbd
00000210: 8c3a 18be d608 ce3d 0314 a7bd 2787 673d
00000220: 6dd5 783d 468b 54bc 820b 183e 00ef f23d
00000230: d86e f0bc 109c 6fbb 4b21 e23d 2788 c7bd
00000240: d425 11be 6622 d83d e62f b3bd 4dd8 883c
00000250: 73ad 5b3c 1569 f93d f1c4 c03c 6ddd 8d3c
00000260: c160 0a3d 83b3 93bd f255 25be 0eaf 123e
00000270: a9ac 0abe 3e32 f9bd b3a3 2bbd 3380 e03d
00000280: 444b 89bd f9a8 043e 1ca1 703d fbbe dd3d
00000290: eda5 7ebd 8bb1 a13d e608 193d b445 183e
000002a0: 0e6b 9dbd fc53 143e 8ccb d9bd a946 f0bd
000002b0: 9764 203e 65c4 a73d 752a c53d 1985 a9bd
000002c0: d9b1 0e3e 9005 37bd 8ece 103e eb06 de3d
000002d0: 14c7 13be 21d1 3ebd adc8 2a3e 37af db3d
000002e0: 7d30 823c cdf4 81bc 075b 843d 3a69 4cbd
000002f0: f6e5 50bd 105d aebd b093 eebb cef9 b4bd
00000300: 53a4 b7bd ecbd f63d 87ce e83d 001b acbd
00000310: 686e ecbc 8114 a7bd 0e4d 9a3d 4206 e4bd
00000320: 596b b5bd a4e5 743d 7477 b73c 163a 4e3d
00000330: 8f57 aabc eba1 283e 9320 dbbc d814 143e
00000340: 0d2e 823c 8b4a 213e 190c d1bd 8a92 ce3d
00000350: e3cd 4abd a023 b93d 6b11 0bbe 52c6 ce3d
00000360: c9af 47bd ac91 93bd f1ae 7cbd ec02 f43d
00000370: 08e9 eabc c769 aabc c252 1d3e 82dd ff3d
00000380: 5d94 7a3c a08c 4ebd 2a53 523d 5edf 35bd
00000390: aae6 153e b806 733d d7b9 e53d 60dd b83d
000003a0: 6a69 1dbd e6b1 0fbe 1844 56bd 3a6c 82bd
000003b0: 0096 703d 6f14 893d 10fc 193e 1ae4 d23d
000003c0: 4b0c 1e3e 1759 1e3d 5bf0 02be 452a 88bc
000003d0: 8cd3 37bc b1d3 83bd 2a86 c5bd 4162 0bbd
000003e0: 7057 b63d e6b9 4c3c 70ff 183e 5cea ffbd
000003f0: bf63 a73b dedf d33d 52b0 123d 993d c83d
-0.11379702 -0.033268176 0.114482544 0.043394636 -0.089797385 -0.043024115 -0.00092766696 0.17043863
-0.110095054 -0.01367824 -0.035613745 0.1658788 0.12588884 -0.02456008 -0.07553291 0.1635827
-0.020718673 -0.046968516 0.13199982 0.048968073 0.017422415 0.15095975 -0.08501886 0.13235745
0.082066156 -0.10803947 0.15244237 0.057291836 -0.122590095 0.13899973 -0.1375604 0.021853648
0.075975455 0.088485695 -0.14849243 0.14603756 0.15637712 0.09536818 0.056603026 -0.10856053
0.12511162 0.009506779 -0.024794836 -0.053782314 0.009968357 -0.035783835 -0.12628135 -0.11059295
-0.060259275 -0.031188253 -0.08741508 -0.0493718 -0.12925762 -0.119716756 0.09950361 -0.053038515
-0.054276574 -0.000769355 0.025614755 -0.10957661 0.07568393 0.06902296 0.07374259 -0.12279586
0.15027545 0.08993239 0.046951383 0.0915849 -0.09637804 0.06375297 0.1415031 0.06935776
-0.008278723 -0.15732063 -0.061762907 -0.11314628 0.16245466 -0.031257432 -0.055716034 -0.16768679
-0.14352114 -0.06151898 0.06354934 -0.027475785 0.08712114 0.16307716 -0.104133226 0.052633323
0.01258195 -0.14793189 -0.033515412 0.020780219 -0.054061513 -0.12201891 0.15484522 0.06989212
-0.15174355 -0.16025506 0.040143814 -0.084332824 0.03413533 0.06468295 0.021812506 0.09731073
0.072804704 -0.020475416 0.03830024 -0.043576173 -0.08757779 -0.16457479 0.07156728 0.13182645
-0.04819377 0.10382734 0.1334842 0.023549275 0.073029965 0.009231823 0.09740386 0.08141107
0.112977795 0.1526691 -0.06284767 0.05230651 0.06493243 -0.13260747 -0.14509115 -0.038547732
0.07479954 0.12789215 -0.0658424 -0.06925224 -0.14866084 0.10060279 -0.08158114 0.056525376
0.060750414 -0.0129726585 0.1484814 0.11861992 -0.02934973 -0.0036561526 0.110415064 -0.09742766
-0.14174587 0.10553436 -0.0874937 0.016704703 0.013408053 0.12178246 0.023531409 0.017317498
0.033783678 -0.072119735 -0.16146067 0.1432459 -0.13542427 -0.12167786 -0.041904163 0.10961952
-0.06703809 0.12955083 0.058747396 0.10827442 -0.062169958 0.07895192 0.037362 0.1487034
-0.07686435 0.14485162 -0.106345266 -0.11732227 0.15663372 0.08191756 0.09627239 -0.082773395
0.13935031 -0.04468304 0.14141294 0.10841163 -0.14431411 -0.04658616 0.16678114 0.10726779
0.015892262 -0.0158638 0.064626746 -0.04990504 -0.051000558 -0.08513844 -0.0072807893 -0.08836709
-0.08966889 0.120479435 0.11367517 -0.08403587 -0.02886124 -0.08158208 0.07534228 -0.11134006
-0.088583656 0.059789315 0.022395827 0.050348364 -0.020793704 0.16468017 -0.026748931 0.14461076
0.0158911 0.15751092 -0.102073856 0.10086544 -0.049512755 0.09039998 -0.13580863 0.1009642
-0.048751626 -0.07205519 -0.061690275 0.1191462 -0.028675571 -0.020802392 0.15363601 0.12493421
0.015294162 -0.05042708 0.051348843 -0.044402473 0.14638773 0.05933258 0.11217087 0.09026599
-0.03843061 -0.14032707 -0.052311033 -0.06368299 0.0587368 0.066933505 0.1503756 0.10297413
0.15434377 0.03865918 -0.12787001 -0.016621718 -0.01121987 -0.06436861 -0.096447304 -0.03402925
0.08903396 0.0124954935 0.14941192 -0.124958724 0.005108326 0.10345434 0.035812683 0.09777374

decoder_net.0.bias f4 [128]
00000000: af13 553a 0000 0000 0000 0000 d58d 34bb
00000010: 0301 44ba 927a c03b a017 bcba 8909 4db8
00000020: 0000 0000 7f21 9dba 8720 8d3b 78c4 333a
00000030: d7a3 47bb 6653 2a3a 4bc2 07ba 108f eaba
00000040: 05c7 7c3b a916 d43a 47d1 643c 5637 9e3a
00000050: a32e 873b 0000 0000 8efe 9eba f5a0 bebb
00000060: d91a 25bb 0000 0000 d9ac 8b39 0000 0000
00000070: 29a1 9e3b 0000 0000 0000 0000 0000 0000
00000080: 439f aa3b 6dc9 f13b 4646 163b 0000 0000
00000090: 7470 e6ba 6c9e c939 d66e 16b8 0000 0000
000000a0: fbf0 afb9 0000 0000 e06f 9fba 6344 0dbb
000000b0: 4995 af39 f72e 593a 5204 7c3b 8737 8c3b
000000c0: 63c7 033b aae5 22bb 0000 0000 0000 0000
000000d0: 0000 0000 544b b3ba 0000 0000 0000 0000
000000e0: 3b7a eb3a 0000 0000 0000 0000 0000 0000
000000f0: e1c8 393a 5030 a7ba 45b2 993b 9b64 aa3a
00000100: 61eb 803b 5197 4939 0000 0000 b626 613b
00000110: 5d43 b2ba a557 113c 3c1f 253c d53d e2b9
00000120: e8e1 25bb dbb5 31bb aeb5 19bb 54fc 573b
00000130: 4bf7 123b 80df ffba 23ca 0d3b e60d 7b3b
00000140: 9899 39ba ae70 14bb 3f86 4b3c 0000 0000
00000150: 0000 0000 a76f e53b b37e b93a 0000 0000
00000160: 0000 0000 af5e 7aba 4078 ca3b 14f3 66ba
00000170: e6c0 1ebb 0000 0000 220b aa3b 8d2f 843b
00000180: e071 0638 0000 0000 72fa bdbb 0000 0000
00000190: 0000 0000 b8f6 013c 1b76 923b 0000 0000
000001a0: afc8 9fbb 9af3 9f3a 0000 0000 3823 c0bb
000001b0: 9d72 8cbb 76ef 3dbb 1d73 2c3a 0000 0000
000001c0: 905e c1bb 0000 0000 0000 0000 bd6e d53a
000001d0: 5eec 3ebb 2636 23ba 0000 0000 7ee3 a2bb
000001e0: f555 0cbb c83c bf3a 504a 12b9 0000 0000
000001f0: fe6a 52bb d888 0cba 0541 aebb 3342 a53b
0.0008128238 0.0 0.0 -0.0027550359 -0.00074769574 0.0058739865 -0.0014350303 -4.888469e-05
0.0 -0.0011988132 0.004306856 0.0006857584 -0.0030462646 0.00064974127 -0.0005178793 -0.0017895419
0.0038570773 0.001618107 0.013965911 0.0012070935 0.0041254326 0.0 -0.0012130307 -0.0058175274
-0.0025193004 0.0 0.00026640928 0.0 0.004840989 0.0 0.0 0.0
0.0052069738 0.007378748 0.002293007 0.0 -0.0017581121 0.0003845574 -3.586601e-05 0.0
-0.00033558146 0.0 -0.0012164079 -0.0021555654 0.00033489827 0.00082848914 0.0038454724 0.0042790803
0.0020107857 -0.0024856129 0.0 0.0 0.0 -0.0013679066 0.0 0.0
0.0017965505 0.0 0.0 0.0 0.0007087123 -0.0012755487 0.004690441 0.0012999953
0.0039343094 0.00019225224 0.0 0.003435535 -0.0013600398 0.008870994 0.010078248 -0.00043152148
-0.0025311653 -0.002711645 -0.0023454237 0.0032956796 0.002242523 -0.0019521564 0.0021635375 0.0038307845
-0.0007080077 -0.002265017 0.0124221435 0.0 0.0 0.0070018354 0.0014152139 0.0
0.0 -0.0009550852 0.0061788857 -0.0008810025 -0.0024223863 0.0 0.0051893154 0.004033989
3.2054144e-05 0.0 -0.0057976777 0.0 0.0 0.0079323575 0.0044696457 0.0
-0.0048762183 0.0012203336 0.0 -0.0058635734 -0.004286124 -0.0028981841 0.00065784325 0.0
-0.0059011653 0.0 0.0 0.0016283613 -0.0029132585 -0.0006226025 0.0 -0.004970967
-0.002141354 0.0014590258 -0.00013951329 0.0 -0.003210723 -0.00053609675 -0.0053178095 0.005043292

decoder_net.2.weight f4 [128]
00000000: c53c 7e3f ceda 7f3f 34b0 803f df4f 7e3f
00000010: d833 813f 262c 803f 6850 803f bced 803f
00000020: edf6 7e3f e9f7 7e3f 0622 803f 67e3 7a3f
00000030: 480f 7f3f 8e87 7e3f 043d 803f 6a65 7f3f
00000040: 8ee4 7e3f 12ac 7f3f 6bcc 813f ba27 803f
00000050: 94a5 7e3f a3eb 7f3f e397 803f 0fa5 803f
00000060: 2aa1 803f 43ee 813f e427 7f3f e178 803f
00000070: 80a8 803f 0fe4 7e3f 675d 803f 7274 803f
00000080: 9c75 7d3f fb65 803f d461 803f 9c2e 7f3f
00000090: 72bb 7b3f 74cd 7f3f 1dcb 7e3f 35a9 7f3f
000000a0: 8e39 7f3f 0212 803f 558d 7f3f 3650 803f
000000b0: 11b2 7f3f 816b 803f c02f 803f c604 7e3f
000000c0: 0f59 7b3f b4a0 803f 1a4f 803f 3f11 803f
000000d0: e510 803f 8ddd 7e3f c880 803f 1eac 803f
000000e0: 6750 7e3f fb5b 803f 4eff 7d3f a10b 803f
000000f0: c548 803f 8c86 823f 4ce6 7e3f 377f 7f3f
00000100: 3400 803f d42c 7c3f aec2 7e3f bb66 803f
00000110: f2a0 803f d725 813f d803 813f ab3f 7f3f
00000120: 296e 803f 2e76 813f deba 7f3f 6030 7e3f
00000130: f801 803f 1a3d 7e3f c7fb 7e3f edd6 7d3f
00000140: 80aa 7d3f e1c5 7e3f 6ebf 813f 5993 803f
00000150: 263d 7e3f 7eee 7a3f 8784 7e3f 5c31 803f
00000160: 2fc6 803f c676 7f3f d7aa 7f3f f10a 7f3f
00000170: 20c5 7e3f 4d71 7f3f 0b93 803f b874 7f3f
00000180: f44c 803f 5aec 7f3f 334f 813f 45c1 7d3f
00000190: e89e 7f3f c7fe 803f 3f1e 7e3f 0a71 803f
000001a0: 0526 7e3f 0288 7f3f 812f 7f3f a03c 7e3f
000001b0: d7ec 7f3f 1a1b 803f 61e2 7f3f c5c6 7f3f
000001c0: fff1 7e3f 2b81 803f 59d7 7d3f 5280 803f
000001d0: 17bb 803f e97b 803f 1677 7f3f c8f5 7d3f
000001e0: bd33 7e3f 3a4e 7f3f cf10 7e3f a1b7 7f3f
000001f0: 735e 7d3f 7560 7f3f 2489 803f 90a2 7c3f
0.99311477 0.99943244 1.0053773 0.99340624 1.0093946 1.0013473 1.0024538 1.0072551
0.9959553 0.9959703 1.0010383 0.9800324 0.9963269 0.9942559 1.001862 0.9976412
0.99567497 0.99871933 1.0140508 1.0012124 0.994714 0.9996893 1.0046352 1.0050372
1.0049183 1.0150837 0.99670243 1.0036889 1.0051422 0.9956674 1.0028504 1.0035536
0.9900758 1.0031122 1.0029855 0.99680495 0.98332894 0.9992287 0.99528676 0.99867564
0.99697196 1.0005496 0.9982503 1.0024478 0.9988108 1.0032808 1.0014572 0.99226034
0.9818277 1.0049043 1.002414 1.0005263 1.0005156 0.9955681 1.0039301 1.0052526
0.99341434 1.002807 0.9921769 1.0003549 1.0022207 1.019731 0.99570155 0.9980349
1.0000062 0.985059 0.9951581 1.0031351 1.0049117 1.0089673 1.0079298 0.99706525
1.0033618 1.011419 0.9989451 0.99292564 1.0000601 0.99311984 0.9960293 0.99156076
0.9908829 0.9952069 1.0136545 1.0044967 0.99312055 0.9802016 0.9942097 1.0015063
1.0060481 0.9979061 0.99870056 0.9962607 0.9951954 0.9978226 1.0044874 0.99787474
1.0023484 0.9997002 1.0102295 0.9912303 0.99851847 1.0077752 0.992649 1.0034497
0.99276763 0.99816906 0.9968186 0.99311256 0.99970764 1.0008271 0.999548 0.99912673
0.99588007 1.0039419 0.9915672 1.003916 1.0057095 1.0037814 0.99791086 0.9920316
0.99297696 0.9972874 0.992444 0.9988957 0.98972243 0.99756557 1.0041852 0.9868555

decoder_net.2.bias f4 [128]
00000000: 3656 d33b c246 69ba 2e6c cbbb ed11 873b
00000010: 7768 03bc eaf1 943b 03e9 88bb 0466 0cbc
00000020: 7ce4 3d3b 36dd 473b 313b 833b 674f 843a
00000030: 41cc 4dbb 50d9 6939 ae41 29bb c39b 843a
00000040: d446 7f3b cda7 c03a 8b21 6e3c f655 3abb
00000050: 4929 7f3b 27d5 11b9 788e c3bb 4e48 a5bb
00000060: b84c b8bb ec4b 83bc 7450 063b 7786 8fbb
00000070: 15a9 af3b 7505 613b f4b0 62bb b53d a3bb
00000080: 628b a13b ba69 e63b e99a 113b 10ec 003b
00000090: ccf0 f9ba 71ab 2b39 259c 7b3b 7cbf 3939
000000a0: b9b1 39b9 0afb f5ba 8c31 973a 2625 7cbb
000000b0: c0c5 7539 427a 65bb 5da5 783b 61aa 913b
000000c0: 2d22 003b 7bbf c0bb 0b16 63bb c734 edba
000000d0: 86b9 d2ba 7156 97ba 4d2f a6bb 3975 d1bb
000000e0: deef ca3b 6226 7dbb 98fc e93b ae55 cfba
000000f0: 58fd 6fbb 946e c2bb 0cef 913b b675 863a
00000100: c86c 773b 9b95 be39 5efc 6e3b 21e5 91bb
00000110: b326 3dbb 5099 1f3c 5b72 203c 560d 17ba
00000120: 1493 8dbb a544 49bc 7c6c 9b39 ac8f 4c3b
00000130: 2fe6 0c3b 9ae4 ebba 9c22 153b 3c28 613b
00000140: 2362 58ba 23bb eb39 6cb3 5e3c c3c2 bbbb
00000150: 1347 ba3b f83f f73b 72e5 a6b8 3339 02bb
00000160: 55dc e5bb de19 303a fc63 d03b 58c1 3d3b
00000170: 0017 1ebb d0f4 803a 44d0 a83b 120b 783b
00000180: ca31 46bb 6642 afb9 0f07 12bc 0919 f93b
00000190: a06a 2d39 7239 0c3c 22b9 a83b 966f 98bb
000001a0: 7122 b9bb bcc4 5c3a 3d92 033b 1fd8 c1bb
000001b0: 44f4 83ba b989 07bb 3f55 123a 10ef e339
000001c0: eccd d0bb 2963 96bb 0227 ef3b e0ae 96bb
000001d0: 9d4f e9bb a23a a9bb 7971 b93a d4de adbb
000001e0: 1ba2 473b 4e6a 463a f9d0 d4b6 66aa 2d38
000001f0: ac91 82bb fa57 fa39 871d aabb 06fc b43b
0.006449486 -0.00088987884 -0.0062079644 0.00412201 -0.008020512 0.00454544 -0.004178168 -0.008569244
0.0028975299 0.0030496842 0.004004859 0.0010094465 -0.0031402262 0.00022301567 -0.0025826502 0.0010117221
0.003895213 0.0014698446 0.014534364 -0.0028432584 0.003893452 -0.00013907683 -0.0059679113 -0.00504402
-0.00562438 -0.016027413 0.002049473 -0.004380043 0.0053607323 0.0034335528 -0.0034590336 -0.0049817213
0.004929946 0.0070316466 0.0022217578 0.0019671954 -0.0019068955 0.00016371698 0.003839263 0.00017714308
-0.00017709182 -0.0018766832 0.0011535152 -0.003847429 0.00023438688 -0.0035015498 0.003794036 0.0044453596
0.001955162 -0.0058822013 -0.003465059 -0.0018097394 -0.0016077019 -0.0011546147 -0.0050715567 -0.006392148
0.006193145 -0.0038627614 0.007140707 -0.0015818381 -0.003661951 -0.005933592 0.0044535454 0.0010258469
0.0037754048 0.0003635109 0.003646634 -0.004452363 -0.0028862178 0.009741142 0.0097928895 -0.000576218
-0.0043205116 -0.012284433 0.0002964473 0.0031213565 0.0021499505 -0.0017997206 0.0022756224 0.0034356257
-0.00082543696 0.0004496212 0.013592582 -0.0057300045 0.0056847422 0.0075454675 -7.958234e-05 -0.001987052
-0.007014791 0.00067177217 0.0063595753 0.0028954353 -0.0024122596 0.0009838585 0.0051517803 0.0037848395
-0.003024208 -0.00033428072 -0.008912816 0.0076018614 0.00016538287 0.008558618 0.0051490227 -0.004651974
-0.0056498577 0.00084216497 0.0020076178 -0.005915656 -0.0010067304 -0.0020681454 0.00055821607 0.0004347493
-0.006372204 -0.0045894575 0.0072983513 -0.0045984834 -0.0071200863 -0.0051644603 0.0014148197 -0.005306104
0.0030461613 0.0007568941 -6.34242e-06 4.140511e-05 -0.0039846506 0.00047749263 -0.005191508 0.0055232076

decoder_net.3.weight f4 [64, 128]
00000000: 2ccf be3d bd7e 28be 2bea 13be 6652 c13d
00000010: 03a7 04be 4627 3f3d c82d 4b3d 17ae ca3d
00000020: 35de 013e f93e 283d 3218 65bc 5afe 27be
00000030: f94b b6bd 20a7 18bd 0592 903d bd27 e5bd
00000040: fda5 29bd 1d76 56b9 1642 40ba da93 02be
00000050: 558a cb3d 216e 973c 7cf5 153e e614 0ebe
00000060: 4baa 92bb a655 433d d927 9e3d 5cc8 10be
00000070: 9178 9ebd caa5 89bb a44e ebbd 068a 13be
00000080: 874c ac3c 4116 dc3d c53b 31be fffa 72bd
00000090: f56a 28be 7b00 e53c 0c3e 683d 0d51 28be
000000a0: 6a20 483d 8f60 80bd 82a7 15bd a7cc 0abe
000000b0: f794 86bc 3e66 a73d 967f b9bd 94f9 88bd
000000c0: 614e b5bd e0a0 adbd 5683 133e 70a2 ef3d
000000d0: ef97 aabd 1a5f 353e 5390 803d a6af 5b3d
000000e0: 739b 0ebe 7e22 42bd fd2e 1c3e 80c8 e73d
000000f0: 0d7a b33d b2f7 c9bd b955 0cbd d05b 9d3d
00000100: 07b2 373d a3a9 65bd 9df7 bebd 5a4e 16be
00000110: db64 ffbd b21a 97bd bc0f c73d d363 acbd
00000120: a7ba 5a3d 7071 02be 9640 16bc bbfa c3bd
00000130: eaf7 a0bd fe72 de3d 8cf8 483d f9b8 253e
00000140: cb49 493d 167e d1b9 a08f 143e 855d 02be
00000150: acda c93d 1ede 38bc cf91 40bc 7a82 e7bd
00000160: 4c2e 8dbb d7c0 efbd 5c56 d13d 505e f7bd
00000170: dd99 91bc 68d3 273e defd 39bc 6429 09be
00000180: 032c 283d b6e0 2b3d 9d7f bbbd fae3 1dbe
00000190: de3a 38be 8b1f c2bd 32a6 313c 57bf 25be
000001a0: 4112 0ebe 75ef 763d 6790 15be 4fe3 313b
000001b0: f112 363d 0c5f 1c3e 791e 533b 9a44 243d
000001c0: 5279 0d3e dbb6 2b3d 8481 1d3e aaec fabc
000001d0: 55a5 2b3e 763f e8bd a8a9 f33d 7e8c cc3c
000001e0: 5ffd f1bb 9273 323e b858 b93d e32a c23c
000001f0: 5805 01bd 84be 153e 4ebb e13b 1add 2d3d
00000200: bf52 82bc 82c0 8fbd ac8d c9bd 8c0b b93d
00000210: 6467 cd3c cc23 a83c cc72 083b 5b0c 8cbd
00000220: b82b 3abc de71 bebd 9f24 733c 85c1 d23d
00000230: 9c6c 27be baf0 193e 8fc0 66bd 8918 0c3e
00000240: f9ae 0f3e c808 a43d a201 293e 0962 21be
00000250: 14e9 27be 1055 c93b d26b bbbd eae0 b5bd
00000260: 3d98 adbc c9f8 f8bd 885f 50bb 8eeb cbbd
00000270: a6ff 403d 0e65 a73c ed00 fbbd 9337 a9bd
00000280: a880 a0bc 9a43 d23d 3a35 2e3e c5e9 793d
00000290: a561 82bc 78e6 2dbc 681e 233e 0bf3 d6bd
000002a0: c402 cebd 3da1 fe3c bb09 fdbd 5343 2f3e
000002b0: 84d8 c0bd 4728 cdbd dd5b e53d eab4 9abc
000002c0: 08f6 103e 5f87 a6bd f3c8 aa3d 6667 bf3c
000002d0: 3220 243d c3fe 2bbe 175e f7bc 9f18 91bc
000002e0: 44cd d2bd 0511 c53d f1d5 233e 9749 2c3e
000002f0: 3b4d ff3d 43a0 0bbd cbb3 c3bd 4fb7 e83d
00000300: 0aba 283e 4914 4bbd b2b5 e23d 5a5f b8bd
00000310: ef95 72bd 00d7 193e e2a4 303e 3825 16be
00000320: 5385 be3d 5087 163e 8ccb fa3c 4e57 823d
00000330: 5ca2 aa3d 4f64 403c 2b39 ea3d 5e87 f9bd
00000340: 5cd9 adbc 5fa5 78bd 6242 ca3d ea16 fdbd
00000350: 563d 9b3d c22a 52bd cfc3 003e 04b7 4fbc
00000360: 3975 ad3c c66f 813d f750 913d 369c 9e3d
00000370: 14ae f33d fb18 44bd b2df 8abd cb75 733d
00000380: b669 35be 3710 143d 4ab8 973d f376 0c3e
00000390: 942b 043e 3e77 bbbd 2707 03be 8123 4dbd
000003a0: b633 14be 56fd 9c3c 4bf9 ca3d bf77 d63d
000003b0: 8405 33be 9ab0 8d3d 62ed a8bd 248d a6bd
000003c0: 1f70 00be 180b 64bd 2fd8 9abd d53b bfbd
000003d0: 3efa 0b3e 10bd a8bc 13eb 783d 57e7 02bd
000003e0: 5e2e cf3d a220 ffbd 1376 25bd 846d dfbd
000003f0: 2516 dfbd da0a 76bd 96ce 30be 074d ee3b
0.09316859 -0.16454597 -0.14444797 0.094395444 -0.12954335 0.046668313 0.049604207 0.09896486
0.12682422 0.04107568 -0.013982819 -0.16405621 -0.089012094 -0.037268758 0.07059101 -0.1118922
-0.041418064 -0.00020452631 -0.00073340663 -0.12751713 0.09938494 0.01848513 0.14644426 -0.1387516
-0.004475867 0.047689103 0.07722444 -0.14138931 -0.0773784 -0.004200672 -0.11489609 -0.1440812
0.021032585 0.10746432 -0.17307957 -0.0593214 -0.16447051 0.02795433 0.056699798 -0.16437168
0.048859037 -0.06268417 -0.0365367 -0.13554631 -0.016428454 0.08173798 -0.09057538 -0.06688228
-0.0885284 -0.0847795 0.1440557 0.11700904 -0.0832976 0.1771206 0.06277528 0.05363431
-0.13926487 -0.047396176 0.152523 0.11317539 0.08763514 -0.09861697 -0.03426144 0.076835275
0.044847514 -0.05606998 -0.09324572 -0.14678326 -0.124704085 -0.073781386 0.09719798 -0.084174775
0.05340066 -0.12738585 -0.009170672 -0.095693074 -0.07859786 0.10861777 0.049065158 0.16183843
0.04914264 -0.00039957528 0.14507914 -0.12730987 0.098561615 -0.011283426 -0.0117535135 -0.11304183
-0.0043084975 -0.11706703 0.1022155 -0.120785356 -0.017773563 0.16389239 -0.011352031 -0.13394696
0.041057598 0.041962348 -0.091552 -0.15418997 -0.17991206 -0.094786726 0.010842847 -0.16186272
-0.13874151 0.060286958 -0.14605866 0.0027143543 0.044451658 0.15270633 0.0032214208 0.040104486
0.13815811 0.04192243 0.15381438 -0.030630428 0.16762288 -0.11340229 0.11897594 0.024969336
-0.0073849405 0.17426899 0.09050125 0.02370209 -0.031499237 0.14623457 0.0068887835 0.042447187
-0.015908597 -0.0701914 -0.09841475 0.090354055 0.025073715 0.020524882 0.0020820377 -0.06838294
-0.011362962 -0.09299062 0.014840274 0.10290817 -0.16350025 0.15033236 -0.056335982 0.13681234
0.1403159 0.080094874 0.16504529 -0.15760054 -0.16397506 0.0061441734 -0.091514245 -0.088807896
-0.021190757 -0.12156827 -0.0031795222 -0.09957038 0.047118805 0.020433929 -0.12256036 -0.08262553
-0.019592598 0.102668 0.17012492 0.061013956 -0.015915701 -0.01061403 0.15929568 -0.104955755
-0.10059121 0.031082744 -0.123553716 0.17115526 -0.09416297 -0.10017448 0.11199162 -0.018885095
0.14156353 -0.08131289 0.08339109 0.023364734 0.040069766 -0.16796403 -0.030196233 -0.017711936
-0.102930576 0.09622387 0.15999581 0.16824947 0.124659024 -0.034088384 -0.09555777 0.11363088
0.16477218 -0.049579892 0.11069812 -0.09002562 -0.05922502 0.15023422 0.17250398 -0.14662635
0.09302773 0.14700055 0.030614637 0.06364308 0.08331749 0.011742665 0.11436685 -0.12184022
-0.02122181 -0.060704585 0.09875943 -0.12357886 0.07580058 -0.05131031 0.12574695 -0.012677912
0.02117406 0.06320147 0.07095521 0.077446386 0.11898437 -0.047875386 -0.06780948 0.059438508
-0.17716107 0.036148276 0.07408197 0.1371725 0.12907249 -0.09153603 -0.12795697 -0.050082687
-0.14472851 0.019163769 0.0991083 0.104720585 -0.17482573 0.0691845 -0.08248402 -0.08132389
-0.12542771 -0.055674642 -0.07560765 -0.09337584 0.13669679 -0.020597965 0.06077106 -0.031958904
0.10116266 -0.12457396 -0.040395807 -0.1090956 -0.108928956 -0.060068943 -0.17266306 0.007272366

decoder_net.3.bias f4 [64]
00000000: 8839 723b 76e2 803b 7f8e 2d3b 89ed 72bc
00000010: 8a60 e0bb 673b 33ba 84fb 0a3c 4ea8 8238
00000020: feb6 71bc 7be3 a7bb 18b4 c2bb 3391 73bc
00000030: 87b0 73bc a7bd 3aba bd87 53bc 058f cb38
00000040: 6e0c 72bc d73c bcbb 797d 71bc 9d94 74bc
00000050: 1e78 2dba 3850 6bbc e227 d6bb cd94 21bc
00000060: ef90 5abc 38a1 f9bb 6976 72bc fd39 3abb
00000070: 2f8e 71bc 5c34 73bc 0f0e 52bb f2f2 36bb
00000080: c9f7 a43b 5a8c 0f3b 6834 87bb 6aa6 e9ba
00000090: 9012 9c3a bf2e 10bb 3f39 70bb f45e 9b3b
000000a0: 922d bcbb 3b51 9a3b 892f 42bc dc0c 6e3b
000000b0: a33c b83a 4613 73bc 5d85 72bc 3b12 1ebc
000000c0: f539 79bb ac62 a33b 6872 d0bb c7a7 75bc
000000d0: ae3e 6cbc 7fe8 7d3b f745 0ebb 1bc5 92bb
000000e0: 47ac a0bb 2ba4 73bc 227e 72bc b884 fb3b
000000f0: afa0 b03b 6622 12bc c6d2 273c 654e f8ba
0.003696056 0.0039332462 0.002648264 -0.014827141 -0.006847446 -0.000683716 0.008482818 6.230232e-05
-0.014753101 -0.0051235533 -0.005941879 -0.014866161 -0.01487363 -0.00071235973 -0.0129107805 9.706434e-05
-0.014773471 -0.0057445574 -0.014739388 -0.01492801 -0.0006617325 -0.014362387 -0.006535516 -0.009862137
-0.013340219 -0.0076180957 -0.014798739 -0.0028415911 -0.014743372 -0.014844026 -0.0032051837 -0.0027915803
0.005034421 0.0021903724 -0.0041261204 -0.0017826085 0.0011907388 -0.002200052 -0.0036655215 0.004741544
-0.005742737 0.0047093905 -0.011852154 0.0036323583 0.0014056157 -0.014836138 -0.014802304 -0.009647901
-0.003802893 0.004986128 -0.0063612945 -0.0149936145 -0.014419241 0.0038743315 -0.0021709183 -0.004479063
-0.0049033496 -0.014870684 -0.01480058 0.0076757334 0.0053902487 -0.008919334 0.010243123 -0.0018944262

decoder_net.4.weight f4 [64]
00000000: 9737 803f 57a0 803f dd56 7f3f 4dc4 7f3f
00000010: 1f6e 7e3f f98d 7f3f 8753 813f e386 7f3f
00000020: 4dc4 7f3f 0515 7d3f 6110 7f3f 4dc4 7f3f
00000030: 4dc4 7f3f a0ee 7f3f b8bd 7f3f aa70 7f3f
00000040: 4dc4 7f3f 0a9f 7e3f 4dc4 7f3f 4dc4 7f3f
00000050: 6611 803f f0f2 7e3f f456 7f3f 62c3 7e3f
00000060: f890 7f3f f9c2 7e3f 4dc4 7f3f 5454 7f3f
00000070: 4dc4 7f3f 6b7c 7f3f b4bb 7d3f e0dc 7f3f
00000080: 7c8b 803f 9cef 7f3f 57f2 7e3f ab08 7e3f
00000090: d5ec 7d3f 06fe 803f 3970 7e3f b040 813f
000000a0: e6da 7e3f d78a 803f 4581 7f3f a674 7f3f
000000b0: b263 7f3f 4dc4 7f3f 4dc4 7f3f c744 7e3f
000000c0: a34f 7f3f 3a64 813f 58e0 803f 4dc4 7f3f
000000d0: 54de 7f3f a76c 803f 6d39 7f3f a87a 7f3f
000000e0: 8d5c 7e3f c984 7f3f 4dc4 7f3f ce70 803f
000000f0: 9495 803f 8347 803f 2243 813f dd75 803f
1.0016965 1.0048932 0.9974192 0.99908906 0.9938678 0.9982601 1.0103616 0.99815196
0.99908906 0.988602 0.9963437 0.99908906 0.99908906 0.9997349 0.9989886 0.99781287
0.99908906 0.99461424 0.99908906 0.99908906 1.000531 0.99589443 0.99742055 0.9951688
0.9983058 0.99516255 0.99908906 0.9973805 0.99908906 0.9979922 0.9911454 0.99946404
1.0042567 0.9997499 0.9958853 0.99231976 0.991895 1.0077522 0.9938999 1.0097866
0.9955276 1.004237 0.99806625 0.99787366 0.997615 0.99908906 0.99908906 0.99323696
0.9973089 1.0108712 1.0068464 0.99908906 0.9994862 1.0033158 0.99697 0.99796534
0.9935997 0.9981199 0.99908906 1.0034425 1.0045648 1.0021824 1.0098612 1.0035969

decoder_net.4.bias f4 [64]
00000000: bbb2 9e3b f934 9a3b 2e9b 4d3b 0000 0000
00000010: b660 adbb dce1 9839 17d1 2b3c 3611 023a
00000020: 0000 0000 19f4 aabb 094a afbb 0000 0000
00000030: 0000 0000 7775 95b9 4cf2 49b8 3762 5c3a
00000040: 0000 0000 6725 c1bb 0000 0000 0000 0000
00000050: d225 833a 9d81 56bb 7ff7 92ba ef64 9ebb
00000060: e9c7 01ba 6dc4 efbb 0000 0000 2999 23bb
00000070: 0000 0000 8ccd deb9 7dc9 4abb ed5b e5ba
00000080: 121f da3b 00c7 673b 9ae4 3dbb d36c c4ba
00000090: c2c0 f83a feca 99ba 3db1 33bb 25ce cb3b
000000a0: 9628 a6bb 3861 d43b cee8 12ba 291e a43b
000000b0: 284a 203b 0000 0000 0000 0000 7774 32bb
000000c0: 5d1b 29bb 1c7f cb3b 3ebf fd3b 0000 0000
000000d0: 12b4 18ba ef30 9e3b 07f7 b4ba b0c2 05bb
000000e0: 325b 9bbb 3b9c 6aba 0000 0000 3702 143c
000000f0: a897 ec3b 144a c53a 1c06 3f3c fc18 0dba
0.0048430837 0.004706022 0.0031373012 0.0 -0.00529107 0.00029159978 0.010486863 0.0004961671
0.0 -0.005217087 -0.005349402 0.0 0.0 -0.00028507013 -4.814779e-05 0.0008406969
0.0 -0.0058943513 0.0 0.0 0.0010005778 -0.0032731064 -0.0011212676 -0.0048338096
-0.00049507484 -0.007317117 0.0 -0.0024963117 0.0 -0.00042496284 -0.003094285 -0.001749871
0.006656536 0.0035366416 -0.0028975368 -0.0014986045 0.0018978345 -0.001173347 -0.0027418875 0.0062196427
-0.005070756 0.006481316 -0.00056041486 0.005008478 0.0024458263 0.0 0.0 -0.0027230063
-0.0025803663 0.006210221 0.007743745 0.0 -0.00058251724 0.0048276107 -0.001380653 -0.0020410232
-0.004741096 -0.0008949672 0.0 0.009033731 0.0072202273 0.0015051984 0.011659171 -0.0005382446

decoder_net.6.weight f4 [32, 64]
00000000: 4f24 013e 4f0b 44be e7cf 37be 94ef 2e3e
00000010: e6cd f4bd 47d5 b8bd 8e3f 0cbe 0b01 4abd
00000020: e172 c23d 3842 7d3d 2d76 723e 4273 13bc
00000030: db74 5dbe e1ac 873d d858 0b3e cc7a aa3d
00000040: 6fcd 1f3e 8ad3 6ebe 82ee 503e 3d41 793e
00000050: e8a3 c33d 715e 023e 808b 80bc 9a09 a8bd
00000060: 5abd 7d3c 961e 94bd f9b9 c6bd 1227 b1bc
00000070: 0201 d9bd 235d f5bd 9085 943d f2cf f1bd
00000080: 3afe 463e 1cfe 073e 203e 1b3e 5c83 c03d
00000090: 9e43 6fbd d31a 17bd f3f5 513e b4b8 483e
000000a0: afc9 e83d 4980 b03d 1ca1 503d 2121 5dbe
000000b0: 2b90 243e 2237 923b 42d0 96bc 6554 57be
000000c0: b75a 773d 0ace b63d 391f 1d3d 0220 783e
000000d0: 53b1 a7bd c82b 703e 795e 57be 4aba 8a3d
000000e0: d3a3 c03d 8a30 32be e72f 00be e6d2 063e
000000f0: 3cd2 ae3d 3270 293d 306c a53c ef8c 49bd
00000100: 9a7c 203e 7a99 2abe 5b5a 283e 8642 51bd
00000110: 173a 4cbe d876 423e 95f4 7cbe f26b d2bd
00000120: 1619 733e 23f6 613e 7a8e 1f3e 6504 803c
00000130: 48fe 6dbd dca2 af3d 2280 1b3d 2336 64be
00000140: 30c7 f53d e69c 173c 6a86 72be 4eb7 9abd
00000150: 94a3 ab3d 88ae 9b3c 5d64 f43b 82b3 11be
00000160: fc76 e0bd 5cda 263e 2abb 713e 2d15 4a3e
00000170: 6bb0 673e cdf1 1c3e 2c7e 32bc ba28 52be
00000180: 3812 4c3c 7209 1bbd 4cff 983d 48ce bd3d
00000190: b8a1 e03d f4cb fbbd 83d0 203e eeb8 2ebe
000001a0: d9fc bb3d 42e5 80be 29c4 bf3d 79d4 f63d
000001b0: f69b d73d 6d76 04be d0fb f1ba a794 a3bd
000001c0: 591b d5bd aee0 1a3e a004 753e 17f1 673e
000001d0: e3c3 d63d 7d36 383c 83cf 93bd 8c13 0ebe
000001e0: c54a 443e 4927 70bd c79a 2bbe 2cbd a53b
000001f0: 6a3d bb3d d766 25be abe3 68be b24f 093e
00000200: ad1d 2c3e b8cd 0ebd 5571 00be 5901 7d3e
00000210: e847 633d 8d19 bb3d af8e 653e a355 813e
00000220: 56cb 99bd 464b ec3d 8ff5 a93d 230f e53c
00000230: 2c97 b4bd 785c 7e3c d36a 023e 13ac 22be
00000240: 96b4 cebb 4707 833d 5714 22be 6638 173e
00000250: e89d e03d 63a3 a0bd e492 82bc d0b6 063d
00000260: 32ca 013e 4f95 57bd 2d2a 05be 73c7 42be
00000270: 32a6 ccbd b06d 313d 42ce 38be a5cf 23bc
00000280: cd0b 0abe acaa c5bd aa05 26be c335 293e
00000290: a42f 793e b7ad 843e 1145 d1bd f0c7 093e
000002a0: 0801 2f3e fadb 9a3d af75 453d 7e53 3d3e
000002b0: 0eb6 173e f9df 3dbd dd68 813d 6dae a63d
000002c0: 5656 fcbd 253e 433d a53b 503e 5946 5fbe
000002d0: 59e5 2d3e 8fc7 a1bd b512 7a3e a380 6a3b
000002e0: 61e7 9c3c 695d 643e c9a0 023e 83ab 533e
000002f0: 64f2 033e 297a d83c be50 18bc 81da 283e
00000300: fe51 d2bd 95f2 a33d 84a7 193e 533e 01be
00000310: 9e4b a33d 59a6 0d3b 017f 83be 4634 1bbe
00000320: 7fd2 21be 79f7 9dbd b012 6d3e 329c 183e
00000330: d9a9 4abe 5bd2 4cbe 7191 05bd d7cc 19bc
00000340: 0f0b e4bd 6da6 e53a c580 ff3d 33b2 a93d
00000350: 6a8d 49be be39 c0bd 0d4c ee3d 1c49 d83d
00000360: 9765 0cbd 3d89 0cbe 655f 09bc 62c8 3e3c
00000370: 3b03 a73d 600c ecbd 5e67 3abe 3c99 09be
00000380: 754d 6abc 8128 903b e6c7 81bc 4752 10be
00000390: 4c52 3f3e ba52 e3bd ff0e 933c e07a 3abd
000003a0: 7428 30bd 7233 cbbd c2bf 38bc 8009 7cbd
000003b0: 2e3d 5d3e 5e50 77be 5ebf 14be c1a4 4cbe
000003c0: fc55 133d ff31 44bd 78c9 493e ff1c 0b3e
000003d0: 4c2b 8d3b 6705 0c3d 9a83 443e 0d26 db3d
000003e0: c384 ac3d 0b09 19be 766b 50be 8b16 0b3e
000003f0: 9d4a 2bbe e0d2 36be 6bd6 12be 5adc 1cbe
0.12611507 -0.19144939 -0.17950402 0.1708358 -0.119533345 -0.090250544 -0.13696119 -0.0493174
0.09494568 0.06183073 0.23677893 -0.008999648 -0.21626608 0.06624771 0.1360811 0.08324203
0.1560571 -0.23322883 0.20403484 0.24341293 0.09552747 0.12731339 -0.015691519 -0.08204956
0.015487039 -0.07232396 -0.0970344 -0.021625075 -0.10595895 -0.11980655 0.072520375 -0.118072405
0.19432917 0.13280529 0.15160418 0.09400055 -0.058414094 -0.036890816 0.20503978 0.19601709
0.11366593 0.086182185 0.050934896 -0.21594669 0.1607062 0.0044621387 -0.018409852 -0.21028288
0.060389247 0.089260176 0.038359854 0.2423096 -0.08188119 0.23454201 -0.21032132 0.06773813
0.09406247 -0.17401329 -0.12518273 0.13166389 0.08536193 0.041366763 0.02019319 -0.04920667
0.15672532 -0.16660109 0.16440718 -0.051088832 -0.19944035 0.18990648 -0.24702676 -0.10274495
0.23740038 0.2206655 0.15581694 0.015627095 -0.05810383 0.08575985 0.037963994 -0.22286277
0.120008826 0.009253716 -0.23684087 -0.07554494 0.083808094 0.019004121 0.0074582533 -0.14228633
-0.109601945 0.16294235 0.23606554 0.1973464 0.22625892 0.15326615 -0.0108943395 -0.20523348
0.012455516 -0.037850805 0.07470569 0.09267861 0.109683454 -0.1229476 0.15704541 -0.17062733
0.09179086 -0.2517491 0.093635865 0.12052245 0.10527794 -0.12935801 -0.0018461887 -0.079873376
-0.10405607 0.15124771 0.23927546 0.22650562 0.10486581 0.01124346 -0.07217314 -0.13874644
0.19169147 -0.058631215 -0.16758262 0.0050579514 0.09142573 -0.16152512 -0.22743098 0.13409308
0.16808195 -0.034864157 -0.12543233 0.24707545 0.055488497 0.09135733 0.2241771 0.25260648
-0.075094864 0.11537795 0.0829879 0.02796132 -0.08817896 0.015524976 0.12736063 -0.15885954
-0.0063081486 0.063978724 -0.15828072 0.14767608 0.10967618 -0.078436635 -0.015939184 0.032889187
0.12674788 -0.052632626 -0.1300437 -0.19021396 -0.09992637 0.043317497 -0.18047431 -0.009998237
-0.13481064 -0.09651694 -0.16213098 0.16524415 0.2433458 0.25913784 -0.102182515 0.13455176
0.17090237 0.075614884 0.048207935 0.18488881 0.14815542 -0.046356175 0.06318829 0.08138738
-0.12321155 0.047666688 0.20335253 -0.21804179 0.1698202 -0.07899391 0.24421199 0.003578224
0.019153299 0.22301258 0.12756647 0.20670895 0.12885433 0.026425438 -0.009296594 0.16489603
-0.10269545 0.08005253 0.15005308 -0.12621431 0.07973407 0.0021614044 -0.25682834 -0.1515666
-0.15802954 -0.07713217 0.2315166 0.14903334 -0.19791354 -0.20002119 -0.032609407 -0.0093872165
-0.11134922 0.0017520912 0.12475733 0.08285942 -0.19682851 -0.093860134 0.11635599 0.105608195
-0.03427657 -0.13724227 -0.00838456 0.011644455 0.08154913 -0.11525798 -0.18203494 -0.1343736
-0.014300694 0.0043993597 -0.01584239 -0.14093886 0.18683738 -0.11099763 0.017951487 -0.04552734
-0.04300733 -0.09921922 -0.011276187 -0.061532497 0.2160537 -0.24151751 -0.14526126 -0.19984724
0.035970673 -0.047899242 0.1970576 0.1358528 0.00430814 0.03418484 0.19190827 0.10700617
0.0842376 -0.14944856 -0.20353493 0.13582818 -0.16727681 -0.1785388 -0.14339606 -0.15318432

decoder_net.6.bias f4 [32]
00000000: 8e2d b6ba 4e94 93bb 70b4 553c 7278 fabb
00000010: 782b 1ebc daa6 8ebb e9d0 f9bb 23b8 fa3a
00000020: 9902 6dbb fa5d 23bc b549 08bc 891c 1dbc
00000030: 148f 5bbb 6c87 87ba 83b2 eb39 2b0e 1dbc
00000040: 8465 1dbc ff1e 03bc cc4e 1abc 8fdf 03bb
00000050: eb0c 113a 5e40 08bb b91a 1fbc 4da3 27bc
00000060: bb17 0e3c f812 5a39 8601 25bc 972a 433b
00000070: d374 67bb 5882 18bc 8872 20bc f48a 23bc
-0.0013899074 -0.0045037633 0.013043508 -0.0076437527 -0.009653918 -0.0043533863 -0.007623781 0.0019128363
-0.0036164878 -0.009971136 -0.008318354 -0.009589323 -0.003350203 -0.0010340041 0.00044955694 -0.009585897
-0.009606723 -0.0080029955 -0.009418201 -0.0020122265 0.0005533236 -0.002079032 -0.009710961 -0.010231805
0.00867265 0.00020797167 -0.010071164 0.0029780024 -0.0035317435 -0.00930842 -0.009792931 -0.0099818595

decoder_net.7.weight f4 [32]
00000000: 46b0 7e3f 07e8 7f3f 06b8 813f 05a9 7f3f
00000010: 4dc4 7f3f 8e16 803f 94f2 7f3f 2968 7e3f
00000020: 235f 7f3f 1fb7 7f3f 508b 803f 4dc4 7f3f
00000030: b873 7f3f 5c0a 7e3f 1fc6 7c3f 4dc4 7f3f
00000040: 4dc4 7f3f 7f04 7e3f 8a3c 803f 59e5 7c3f
00000050: ef13 803f bf22 7e3f b5c4 7f3f 68b5 7e3f
00000060: ac5a 813f c66f 7f3f 35fc 7e3f 1742 803f
00000070: 0db5 7f3f c4af 7f3f 4dc4 7f3f 4dc4 7f3f
0.9948772 0.9996342 1.0134284 0.9986728 0.99908906 1.0006883 0.9997952 0.99377686
0.9975454 0.99888796 1.0042515 0.99908906 0.9978595 0.9923456 0.9873981 0.99908906
0.99908906 0.9922561 1.0018475 0.98787457 1.0006083 0.9927177 0.99909526 0.99495554
1.0105796 0.9977993 0.9960359 1.0020169 0.99885637 0.9987757 0.99908906 0.99908906

decoder_net.7.bias f4 [32]
00000000: 52ff 1ab9 d0a2 8d39 cd18 703c 5af0 02ba
00000010: 0000 0000 ccd0 a53a 942e c5bb cf46 903a
00000020: 17af e5ba 9fbd 04ba b1ba cd3b 0000 0000
00000030: f035 e6ba b802 23ba efb7 c43a 0000 0000
00000040: 0000 0000 ec60 0bbc da0f 63bb f258 abba
00000050: 3698 ff3a a622 12bb 847a 2a3a 3efb 3bbb
00000060: 4fac 2a3c 4fef b03a bb6a ccbb 1dfb 5b3b
00000070: 70a3 f8ba 5e7c 63b9 0000 0000 0000 0000
-0.00014781699 0.0002701492 0.0146543505 -0.00049949216 0.0 0.0012650727 -0.0060175154 0.0011007431
-0.0017523494 -0.0005063656 0.006278359 0.0 -0.0017563682 -0.00062183617 0.001500843 0.0
0.0 -0.008506995 -0.00346469 -0.0013072772 0.0019500318 -0.0022298484 0.00065032416 -0.0028683688
0.010417058 0.0013499054 -0.006238309 0.0033566423 -0.0018969607 -0.00021694737 0.0 0.0

decoder_net.9.weight f4 [16, 32]
00000000: 1fe0 d0bb 086c 9abe 7530 303e 75c8 723e
00000010: 417a 263e 3d5e c8bd cb3a 2cbe 19fd f23c
00000020: 9700 77be 20d2 6e3d f1c7 67be 3972 3e3d
00000030: 9096 b7bd 8d1d 733e 6643 a9be 6ab0 6cbe
00000040: 4b1a 473e 4d46 08be b43c 883e 3274 83be
00000050: b603 e83d 2dea 633d 8f0d b43e cb25 633e
00000060: 9b85 2e3e b132 15bd 496d 9c3d 1443 623e
00000070: cfa8 84be a0d7 abbe e597 80bb aaed b3be
00000080: 3011 8c3c 8efe 863d 4e4d 853e 3280 823e
00000090: b47f acbe 1344 b33e d04d 7ebe 44d4 9bbe
000000a0: b3e2 cfbd 5e29 8a3d 16db b4bd f69f 50bd
000000b0: e8fd babc 84fa 8fbd d670 06be 3a88 133e
000000c0: 387f 183e 00a3 a7bd bc59 1f3e 6d0c 4c3e
000000d0: 406e 3bbd d583 58bd 7bc5 893e 3717 42bc
000000e0: a7c9 8d3e 4e08 ae3e 6e97 aebe ad01 ecbd
000000f0: 0133 8dbe 888d 623d a4d3 8e3e 4509 203e
00000100: b0bd a9bd 94b8 e83d d984 873e d0fd 6abe
00000110: 947d ed3d 3c48 29bd d16e 503d 35a8 e7bd
00000120: 5fd5 513e aaa3 243e 04cf 4dbd a504 833b
00000130: 035e 98be 1d90 abbe efc2 dabd b03d 56be
00000140: 6c90 adbc be7d a13e 5f3f 713d d03a 30be
00000150: c8fc eabc 372d 1fbe 10e1 75be 17aa 83be
00000160: 1611 7e3e 70e4 19be a0e6 32be 911b 34bc
00000170: 2a9a 703d 3d9c 863e 714e 813d 0493 813e
00000180: 5443 86be 039f 263e cb70 afbe c8e5 9abd
00000190: 77f5 99be 31c8 1bbb 98e9 9d3e 71da adbe
000001a0: 9899 33be 7ca7 843e 4aa1 9cbe 0c8e 84be
000001b0: 3e5c 2e3c 4093 c53d 914c 0d3e ec11 f83d
000001c0: 1f82 85be 5a56 27be 7634 783e 4045 a13e
000001d0: 4b52 0c3d 9441 52be a9e0 1e3e 268f 8abe
000001e0: f1ec 73be c353 d33d 1df2 923e fafb 6c3e
000001f0: 706b 9c3e 6ac2 eebd 02cc 3ebe 76a4 713e
00000200: 5963 7a3e 17f7 823e c0a4 b9be 909c aa3e
00000210: bbc6 0d3e 8aad 7c3e 03b8 903e daa5 12be
00000220: 2e8a a13e c745 f3bd 2f05 16be f293 a03e
00000230: 38b5 113e 3dea 953e 24ff 033e 511b 073e
00000240: 54c2 8e3e 5cf2 883e 3c5d 2c3e 3439 58bd
00000250: 1fae 08be 319c 163e c55c abbe 1050 b6bd
00000260: d443 8e3e f220 4dbe 0376 eb3c 1b54 31be
00000270: bd35 813e 1354 90be 6170 c63d b5bb 63be
00000280: 8080 a2be 8534 32be 2070 bebe 4fc7 963e
00000290: d316 4b3e 955b f83d 091e 3dbe 9fae 77be
000002a0: b6b5 343d 52f4 86bd 3bf8 55be 6272 1a3d
000002b0: 24ca 01be 50f1 d0bd 8239 a6be 4080 173e
000002c0: 75be 52be 5e26 983e f3a0 84bd d723 843d
000002d0: 0107 b1be 227f a1bd f6fa 2e3e 7133 cabd
000002e0: 6d70 b5be e50d 13be d506 43be 185a b3bc
000002f0: 8e64 45be 35c4 533d 4323 5abe 45c5 ffbd
00000300: 0001 693d 7053 0bbe 18c7 b33d cc04 62be
00000310: a880 71bd c9b3 993e 6f6b 2abe 5e12 9bbe
00000320: 94ab 48be b2ee 38be af20 e4bd 567c 8b3e
00000330: 51ac c3bd e9e5 913e 9bf9 743e 2092 113e
00000340: 42f3 323e 3359 ce3d 9c4f 97be 5384 4f3e
00000350: be75 24be 95db a1be 3a68 8e3e 0df7 89be
00000360: ff56 2cbd a9ce b8be 9a19 adbe 8923 163e
00000370: 8631 6a3d 9274 8a3e 5bb0 48be 93b2 4dbe
00000380: d5df 24be 0443 ae3e 0a50 6b3e c715 b3be
00000390: 312b 4abd 99e0 43be 27b4 d03d aeda 0dbe
000003a0: 385d 91be aba7 84be 3dac 0cbe a556 aebe
000003b0: f6e4 9fbe f41c adbe 0128 0ebe 69f5 cabd
000003c0: 729d 123e 2e70 ac3e 306c 3c3e 1d54 97be
000003d0: 3f42 a53c 73d7 13be 674f fabc a32d 273e
000003e0: 7733 01be 9eb3 aa3e 0791 1dbe 0e0f 70be
000003f0: b571 3cbe fb11 adbe 6fa0 213d 5ef9 86be
-0.0063743736 -0.30160546 0.17205985 0.23709281 0.16257574 -0.097835995 -0.16819303 0.029661702
-0.24121319 0.05830586 -0.22634865 0.04649565 -0.089642644 0.23741741 -0.33059233 -0.23114172
0.19443624 -0.13308068 0.26608813 -0.25674587 0.11328833 0.05564325 0.35166594 0.22182386
0.17043154 -0.036425296 0.07638032 0.22095901 -0.2591004 -0.33562946 -0.0039243572 -0.3514226
0.01709804 0.06591521 0.2603554 0.2548843 -0.3369118 0.35012874 -0.2483437 -0.30435383
-0.10150661 0.067461714 -0.0883085 -0.0509338 -0.02282615 -0.07030204 -0.13128981 0.14407435
0.1489228 -0.08185387 0.15561575 0.19926615 -0.04575944 -0.0528601 0.26908478 -0.011846355
0.2769291 0.3399071 -0.34099907 -0.11523757 -0.27577975 0.055310756 0.27895844 0.15628536
-0.08288133 0.113633305 0.26468542 -0.22948384 0.11596218 -0.041328654 0.050886933 -0.1131138
0.20491551 0.16078058 -0.050246254 0.0039983564 -0.29759225 -0.33508387 -0.10681712 -0.2092197
-0.02118703 0.31541246 0.058898326 -0.17209935 -0.028684989 -0.15544592 -0.24011636 -0.25715706
0.24811205 -0.15028548 -0.17470789 -0.0109929005 0.058740772 0.26291075 0.0631379 0.25307477
-0.26223242 0.16271596 -0.34265742 -0.075633585 -0.30070087 -0.0023770446 0.3084228 -0.3395572
-0.1753906 0.2590903 -0.30591804 -0.25889623 0.010642109 0.09647226 0.13798739 0.12112793
-0.26075837 -0.16341534 0.24238762 0.31498146 0.03425817 -0.20532829 0.15515389 -0.2706234
-0.23820855 0.10318711 0.28700343 0.23142996 0.30550718 -0.11658175 -0.1863251 0.23597893
0.2445196 0.2557914 -0.36258507 0.33322573 0.13845341 0.24675575 0.2826539 -0.1432108
0.31550735 -0.11878543 -0.14650415 0.31362873 0.14229286 0.29280272 0.12890297 0.13194014
0.27882636 0.26747406 0.16832441 -0.05278893 -0.13347672 0.1470802 -0.33469215 -0.089019895
0.27786124 -0.20032099 0.028742796 -0.1731724 0.25236312 -0.28189144 0.09689403 -0.22239573
-0.31738663 -0.17402847 -0.3719492 0.29448935 0.19832925 0.12126843 -0.18468489 -0.24187706
0.044118606 -0.06589569 -0.20895474 0.03770674 -0.12674767 -0.10202277 -0.3246575 0.14795017
-0.20580466 0.29716772 -0.06476011 0.064521484 -0.34575656 -0.07885577 0.17087922 -0.09873093
-0.35437337 -0.14360769 -0.19045575 -0.021893546 -0.1927664 0.05170079 -0.21302514 -0.12488798
0.05688572 -0.13606048 0.087782085 -0.22072142 -0.058960587 0.30019978 -0.16642545 -0.3028745
-0.19596702 -0.18059805 -0.111390464 0.27243298 -0.09554351 0.2849572 0.23923342 0.14215899
0.17475608 0.10075607 -0.29552925 0.20265321 -0.1606054 -0.3161284 0.27813894 -0.26946297
-0.042075153 -0.3609517 -0.33808595 0.14661993 0.057176135 0.2704206 -0.19598524 -0.20087652
-0.1610101 0.34035504 0.22979751 -0.34977552 -0.049357597 -0.19128646 0.10190611 -0.13852951
-0.28391433 -0.2590917 -0.13737579 -0.3405048 -0.3122937 -0.33811152 -0.13882448 -0.099100895
0.14317873 0.33679336 0.18400645 -0.2955636 0.02017319 -0.14437656 -0.03055544 0.16326003
-0.12617289 0.33340162 -0.15387355 -0.23443243 -0.18402751 -0.3380278 0.039459642 -0.26362127

decoder_net.9.bias f4 [16]
00000000: f7b4 803b 7889 8c3b 3784 743c 985a 09bc
00000010: b386 45bc 3a55 babc 66cb 8abc cf71 46bc
00000020: 07ab a83b 8865 13bc 1ac0 0b39 28aa b7bc
00000030: f745 adbc c022 b0bc fb32 573b 9fca 80bb
0.0039278227 0.0042888485 0.014924101 -0.008383416 -0.012056041 -0.022745717 -0.016942691 -0.012112095
0.005147341 -0.008996375 0.00013327636 -0.022420004 -0.021151526 -0.021500945 0.0032836783 -0.0039304043

decoder_net.10.weight f4 [16]
00000000: f17a 803f 8b81 7f3f ba41 823f 429f 7f3f
00000010: 0ec1 7e3f 4dc4 7f3f 3aa2 7f3f bb03 7d3f
00000020: adb6 803f 855b 7e3f e746 7f3f 4dc4 7f3f
00000030: fef0 7f3f 4dc4 7f3f a730 803f ba2b 7f3f
1.0037519 0.9980704 1.0176308 0.99852383 0.9951333 0.99908906 0.99856913 0.9883382
1.0055748 0.993584 0.99717563 0.99908906 0.999771 0.99908906 1.0014848 0.99676096

decoder_net.10.bias f4 [16]
00000000: ee68 b93b b6b9 7a3b dfe9 8e3c e771 41ba
00000010: 8200 1cbc 0000 0000 5a3b 0d39 c12e 47bc
00000020: 30ea 143c cd68 ccbb 9427 e93a 0000 0000
00000030: 9eff 5f3a 0000 0000 fa66 5c3b 3e82 f8ba
0.0056582605 0.0038257665 0.017445503 -0.00073793385 -0.009521605 0.0 0.00013468918 -0.012157143
0.009089038 -0.006238079 0.0017788284 0.0 0.0008544865 0.0 0.0033630715 -0.0018959714

decoder_net.12.weight f4 [16, 16]
00000000: 8ca8 56be 1618 6e3e 445a 573e 9d6b babe
00000010: d82c 8d3e 988f b5be 07a1 b33e 145e 0dbe
00000020: ca8e f33d 8b0e 483e 0713 893d f17b 0abe
00000030: 0e0e da3e a23a 9e3e acaa 5f3e 6056 92be
00000040: bffd 8a3d e4cd ce3e 6686 66be 282f 2d3e
00000050: 32fa 953d 5b61 d7be 4e53 8f3e 7183 e63c
00000060: e9b6 75bd 3b5f 8e3e 8554 18be bbb4 3d3e
00000070: f85c 253e 3e0c d8be eca9 6bbd f13d 0d3d
00000080: 5acf e1bd f84d af3e f1dc 10be 68c4 873e
00000090: 75b8 183e 0ccf 99be e939 cfbe 02fa 3b3e
000000a0: 3bd6 ab3c 8051 15be 898e d7be 6670 b8be
000000b0: d540 79be c106 c9bd 65d4 cc3e 757c babe
000000c0: a525 ebbd 2eff 863e d6b2 9dbe bd94 a43e
000000d0: db77 5cbd d97a 3ebb c286 bbbe ce14 debe
000000e0: e898 c23b eae4 43be bfa0 bebe f236 5dbe
000000f0: e495 8b3e afa8 423e ecbd 62be 271e 82be
00000100: 7772 d8be 75ed c2bd ea9b 8e3e aa91 193d
00000110: db20 913e 9789 dcbd 7a62 553e afa0 e1bd
00000120: 19a3 bbbe de48 4cbe ba44 d2be 62f8 6a3e
00000130: 3454 febc 4e11 bf3e 063e a3be cf7e a0be
00000140: 997a 693d fcbd c23d 66c1 cb3e dbc8 29be
00000150: 66e5 8c3b 2c02 8b3e 8548 ddbe 71a4 53bd
00000160: 473f d5be 7fad bfbe f633 b4be 8e90 3abe
00000170: b6eb cebe 24c7 db3e 3dbb a9be 55e1 c23e
00000180: 1667 8b3e 2a02 c23d 3eb0 b9be 368d bb3e
00000190: ee5a 14be 3328 0e3e 4ada 813e fceb ba3e
000001a0: 53e5 bcbe edcd 6c3d 948e 903e 88d6 593e
000001b0: 1129 88bc e8f7 1c3e 6d8f 903b e8d9 50be
000001c0: ae1b d93e 247d d8bd 90f4 14be b536 8ebe
000001d0: 0dce dcbe f94a 963e afe1 0abe 616c 4d3e
000001e0: 046b 15be 10a2 a53e c846 bd3e 87e4 c8be
000001f0: 51f3 383e f018 b2be 4d87 983e ef4f 56be
00000200: f896 113e 020d 41be e99f 93bd e049 4a3e
00000210: 0043 cbbe 1676 c43e e020 ebbd 43c9 c3bd
00000220: 9947 853e 98cb bd3e a7b3 f8bd fdab 5a3e
00000230: 8dc4 c9bd 4c01 153e cbe2 36be 5b3d a5be
00000240: e742 95bd 8120 69be c613 623e 84f9 38be
00000250: 9c90 dcbd b4cd f7bd fe3b a23e 4890 d3be
00000260: d636 d8be 583a 90be ea04 b9be b8b8 da3e
00000270: b5db f3bd 984f 593e 377e b23e 74e1 bebe
00000280: 48f1 c5be 4eba da3d 0e93 b4be ad6e 703e
00000290: 532d a03e dbd4 aa3d e9a4 333e 9c0b a13e
000002a0: 6c4f e13d 017e 5e3e 6630 0f3e a2e6 b7be
000002b0: 741c bfbe 31ea 98be 83d5 c4be 5fbe 713e
000002c0: f8a5 28be 61b0 913d 9b62 83be c754 c33d
000002d0: ec8b 8f3e 36fa 49be 7962 d63e bb94 99bd
000002e0: d1da 9ebe 0f0c 4cbd 3193 adbd 57ad 923e
000002f0: eead cc3e 3785 7b3e 4ca7 9ebc b07c 8abe
00000300: 9749 913e 27a4 bbbd 420c df3e 4ff7 bbbe
00000310: e8e9 bebe a6a6 ac3e 15f7 983e 901f 91be
00000320: 2b74 983e b627 14bc 65c7 bc3e 1742 a4bd
00000330: 127f 03be a4f5 eebd 9e50 553d 3e3e 2fbe
00000340: f12a 6f3e 2f06 ebbd 699d 5d3d ef27 883d
00000350: aee9 303d b1c9 04be b305 ddbd c147 15be
00000360: 6f5b ba3e 49db 733e 8873 77be 230d 063e
00000370: a361 b2bd bcc7 0f3e 03b5 aebe d8df 8a3e
00000380: f476 71bd 2282 a13e 8f28 ccbd 340d 48be
00000390: 8d86 60bd b6e7 833e fa95 bc3c 68d0 e13d
000003a0: 3c67 b1bd 9320 273e 33ab c23d 6149 c2be
000003b0: d114 d03e 2d0d fabc 83ff 08be 77ae 89be
000003c0: 8b09 af3e 2193 843e fe72 44be 192a b93e
000003d0: 71e0 98be 5635 56bc 62b2 003e 7c56 e03e
000003e0: 1ce5 9dbe b0d1 823e 58db 44bd 5f2d 493e
000003f0: 810e 7b3b 7c0a ee3d 76d5 743e f5f7 04be
-0.20962733 0.23251376 0.21030527 -0.36410227 0.27573276 -0.35461116 0.35083792 -0.13805419
0.11892469 0.19536798 0.06693082 -0.13523842 0.42588848 0.30904108 0.2184245 -0.28581524
0.067866795 0.40391457 -0.22512206 0.1691252 0.073231116 -0.42066464 0.27993244 0.028138848
-0.05998889 0.2780703 -0.14875992 0.18525974 0.16148746 -0.4219684 -0.057535097 0.0344829
-0.11025877 0.34239173 -0.14146782 0.26517034 0.14914115 -0.30040777 -0.4047387 0.18357089
0.020976176 -0.14581871 -0.42100933 -0.36023253 -0.24341138 -0.09815741 0.40005794 -0.36423078
-0.114817895 0.26366562 -0.30800503 0.32144728 -0.05382524 -0.0029064922 -0.3662625 -0.43375248
0.005938638 -0.19130293 -0.37232015 -0.21602991 0.27262795 0.1900966 -0.22142762 -0.2541363
-0.4227483 -0.095179476 0.27853328 0.03749243 0.2834538 -0.10768431 0.20838347 -0.11016976
-0.3664787 -0.19949672 -0.4106806 0.22946313 -0.03104601 0.3731789 -0.31883258 -0.31346747
0.057001684 0.09508893 0.3979599 -0.16580527 0.0042998074 0.27150095 -0.4321939 -0.051670495
-0.4164984 -0.37437055 -0.35195893 -0.18219206 -0.40414208 0.4292537 -0.33150664 0.3806254
0.27227086 0.09473069 -0.36267275 0.36631173 -0.14487812 0.13882522 0.25361854 0.36508167
-0.3689371 0.057813574 0.28233778 0.21273243 -0.016621144 0.15328944 0.004411629 -0.20395625
0.4240393 -0.10570744 -0.14546418 -0.27776113 -0.43125954 0.29354075 -0.13562654 0.20060875
-0.14591604 0.32350206 0.36968064 -0.39236853 0.18061568 -0.3478465 0.29790726 -0.2092893
0.14217746 -0.18852618 -0.07208235 0.19754744 -0.39699554 0.38371342 -0.1148088 -0.09559872
0.26031187 0.37069392 -0.12143641 0.21354671 -0.09851942 0.14551276 -0.17859952 -0.32273373
-0.07288151 -0.22766306 0.22077855 -0.18063933 -0.107697695 -0.12099782 0.31686395 -0.41321015
-0.42229337 -0.28169513 -0.36136562 0.42719054 -0.1190714 0.21221769 0.3486192 -0.37281382
-0.38660645 0.10680066 -0.35268444 0.2347972 0.3128458 0.0834138 0.17543377 0.3145417
0.11001477 0.21727754 0.13983306 -0.35918146 -0.37326396 -0.29866174 -0.38444147 0.23607777
-0.16469562 0.0711372 -0.25661168 0.09537654 0.2803644 -0.19724354 0.41872004 -0.07499071
-0.3102632 -0.049816187 -0.0847534 0.28647873 0.39976448 0.24562536 -0.019366883 -0.27048254
0.28376457 -0.09162169 0.4356404 -0.3671212 -0.3728783 0.33720893 0.2987601 -0.28344393
0.2977613 -0.009042671 0.36870876 -0.08020418 -0.12841442 -0.11667946 0.052078836 -0.17113587
0.23356225 -0.11475789 0.054105196 0.06648242 0.043191604 -0.12967564 -0.10792103 -0.14578153
0.36397883 0.2381412 -0.24165165 0.13090949 -0.08710029 0.14041036 -0.34122476 0.27123904
-0.058951333 0.31544596 -0.099686734 -0.19536287 -0.054815818 0.2576272 0.023020733 0.110260785
-0.086622685 0.1632102 0.0950531 -0.3794661 0.40640882 -0.03052386 -0.1337872 -0.2689092
0.34186968 0.258935 -0.19184491 0.3616493 -0.29858735 -0.01307424 0.12568048 0.43815982
-0.3083886 0.25550604 -0.048060745 0.19646214 0.0038308206 0.116230935 0.23909554 -0.12985213

decoder_net.12.bias f4 [16]
00000000: 1a08 84bc 7e50 523c 3d19 213b 282a 92bb
00000010: 0dce ecba e2f8 47bb 717c 4ebc 0675 643b
00000020: c13d ccba 43f9 9ebb 31be 28bb 54d4 4939
00000030: 12fa 863c aacf 89bc fd29 a83b b24d ff3b
-0.016117144 0.012836574 0.0024581694 -0.004460592 -0.0018066779 -0.0030513336 -0.012602911 0.003485979
-0.0015582369 -0.0048514917 -0.0025748129 0.00019247952 0.016476665 -0.016822655 0.0051319585 0.0077912444

decoder_net.13.weight f4 [16]
00000000: c35b 7b3f 66b2 813f 80fe 7d3f 4dc4 7f3f
00000010: 4dc4 7f3f a5e2 7f3f e3eb 7c3f 3355 803f
00000020: 36b5 7f3f 4dc4 7f3f 8a36 7f3f 41e9 7f3f
00000030: 37d4 813f 800c 7c3f 214f 803f 507f 803f
0.9818689 1.0132568 0.9921646 0.99908906 0.99908906 0.9995521 0.98797435 1.0026001
0.9988588 0.99908906 0.99692595 0.9996529 1.0142888 0.98456573 1.0024148 1.0038853

decoder_net.13.bias f4 [16]
00000000: 1424 77bc 563e 3d3c 05e2 2e3b 0000 0000
00000010: 0000 0000 f599 ab39 52c9 54bc aca5 8d3b
00000020: e3f4 aeba 0000 0000 b13f 1dbb 365e d539
00000030: 3288 793c 034e 7ebc 144a b33b ffd8 de3b
-0.015084285 0.011550507 0.002668501 0.0 0.0 0.0003273037 -0.012987452 0.004322728
-0.0013348128 0.0 -0.0023994262 0.00040696718 0.015230225 -0.015521529 0.0054714773 0.0068007703
