Action_Net_499.pt (torch, 402530 bytes, 12 tensors)

decoder_net.0.weight f4 [128, 255]
0	0xbf0e98fc	-0.55702186
1	0x3f4b915f	0.79518694
2	0x3f056776	0.52110994
3	0x3eee8142	0.4658299
4	0x3cd43cb6	0.025907855
5	0x3e0cf277	0.13764368
6	0xbeb5169b	-0.3536881
7	0xbeeab757	-0.45843002
8	0x3f450f08	0.7697606
9	0xbde6058b	-0.11231526
10	0xbf050f1e	-0.5197619
11	0x3e24b67a	0.16085234
12	0x3f09507f	0.5363845
13	0x3f10de01	0.5658875
14	0x3e5bdbc1	0.21470548
15	0x3ea21445	0.3165609
16	0x3f68133a	0.9065434
17	0x3e53eae9	0.2069508
18	0x3e4ad986	0.19809541
19	0xbf9361ad	-1.1514183
20	0xbe87ceb6	-0.26524895
21	0x3e4d1fad	0.20031615
22	0xbea0227e	-0.31276315
23	0xbeb49c33	-0.3527542
24	0x3ec04c84	0.37558377
25	0x3eb9f787	0.3632166
26	0xbefc0011	-0.492188
27	0x3e85b6c1	0.26115993
28	0x3ee18f0e	0.44054455
29	0xbeacbc31	-0.3373733
30	0x3ea96ee4	0.33092415
31	0x3ea0bc84	0.31393826
32	0x3ea82d0b	0.32846865
33	0xbd1995ea	-0.037496485
34	0xbf713a97	-0.94230026
35	0x3db70fbb	0.08938547
36	0xbecc7cde	-0.39939016
37	0x3ec22265	0.37916866
38	0xbe5084e3	-0.20363192
39	0xbe636b97	-0.22209011
40	0x3c2763fc	0.010216709
41	0x3f39c704	0.725693
42	0xbb8ea9eb	-0.004353752
43	0xbe71d3ed	-0.23616
44	0xbefd3f3d	-0.4946231
45	0xbf929be6	-1.1453826
46	0x3d1a8b0b	0.037730258
47	0xbed50931	-0.41608575
48	0xbefd493b	-0.49469933
49	0xbe9ab294	-0.3021437
50	0xbf23e258	-0.6401725
51	0xbebd69b4	-0.36994708
52	0x3edcaa4d	0.4309868
53	0x3e6a094e	0.22855112
54	0x3ea41611	0.32048085
55	0xbf01d867	-0.5072083
56	0xbdc93bad	-0.098258354
57	0x3edc9b20	0.430871
58	0x3e36241f	0.17787217
59	0x3d4a266e	0.049353056
60	0x3c14ab43	0.009074035
61	0x3d255c06	0.040370964
62	0x3f0f6b0e	0.5602273
63	0x3e4d0d9d	0.20024724
64	0x3ec6d6ad	0.3883566
65	0x3eb4c141	0.3530369
66	0xbcd5d4d4	-0.02610246
67	0x3f4b189c	0.79334426
68	0xbeb23a06	-0.34809893
69	0x3e83d129	0.25745514
70	0xbf12045a	-0.5703789
71	0xbcabe23c	-0.0209819
72	0xbf2f658d	-0.6851433
73	0x3e4ecf09	0.20196165
74	0xbd4f17ac	-0.050559685
75	0xbf3aed81	-0.7301865
76	0x3e908062	0.28222948
77	0xbe871874	-0.26385844
78	0xbf65f050	-0.8981981
79	0x3eafc5bc	0.34330547
80	0xbf615128	-0.8801446
81	0x3e90f5a8	0.2831242
82	0x3c2e5f24	0.0106428005
83	0xbf50fbe0	-0.8163433
84	0xbf3c8186	-0.7363514
85	0x3ebb601f	0.36596772
86	0x3efcc939	0.4937227
87	0x3f351bd0	0.70745564
88	0x3f79ead0	0.9762392
89	0x3fc01d47	1.5008935
90	0x3f1e4fbd	0.6184042
91	0xbf0cb16e	-0.54958236
92	0xbf193ddb	-0.5986001
93	0x3ebaf4a4	0.3651477
94	0x3f272649	0.65292794
95	0xbd385453	-0.045002293
96	0xbf85ad75	-1.044356
97	0x3f805abf	1.0027694
98	0x3f2b5afb	0.669357
99	0x3e30a849	0.17251696
100	0xbd8f857b	-0.07007881
101	0xbe99eee2	-0.30065066
102	0x3eb2ce52	0.34923035
103	0xbf4f83b5	-0.81060344
104	0xbe5f4ad0	-0.21805882
105	0x3d9792ef	0.07401072
106	0x3f4bf9d5	0.7967809
107	0xbe4399a7	-0.19101582
108	0x3f827786	1.0192726
109	0x3efa4fe1	0.48889068
110	0xbf88a44e	-1.0675142
111	0xbed8e5d5	-0.42362848
112	0xbf89df3a	-1.0771248
113	0xbe506647	-0.20351516
114	0xbf0fe272	-0.56204903
115	0xbedf3020	-0.43591404
116	0xbedcb6bf	-0.43108174
117	0x3f10518e	0.5637444
118	0x3f00ccec	0.50312686
119	0x3e866cfa	0.26255018
120	0x3eaf5ccd	0.3425049
121	0x3e450236	0.19239125
122	0xbe84404f	-0.25830314
123	0x3f23468f	0.6377954
124	0x3f1dc04f	0.61621565
125	0xbe8ce989	-0.27521923
126	0x3ddeed97	0.108851604
127	0xbf871365	-1.0552794
128	0xbf1d5868	-0.6146302
129	0xbe1671c6	-0.14691839
130	0xbebff839	-0.37494066
131	0x3f35f134	0.7107117
132	0xbf103e22	-0.5634481
133	0x3ca1b811	0.01974109
134	0x3c86cb0c	0.016454242
135	0x3da9c3be	0.08289288
136	0xbd79ea6d	-0.06101458
137	0x3f210478	0.62897444
138	0x3ead6c64	0.33871758
139	0xbd06021a	-0.032716848
140	0x3df490eb	0.119417034
141	0xbe9267e6	-0.28594893
142	0x3de07122	0.10959078
143	0xbe24b108	-0.16083157
144	0xbe7a80d7	-0.24463211
145	0x3ecf36ae	0.40471405
146	0xbedf6340	-0.4363041
147	0x3efdeee6	0.49596328
148	0x3f20b31f	0.6277332
149	0x3df431ef	0.119235866
150	0xbe569495	-0.20955117
151	0x3eb3a4b6	0.35086602
152	0x3e78399b	0.24240725
153	0xbece60f2	-0.40308338
154	0xbf67acf6	-0.9049829
155	0xbeb96068	-0.36206365
156	0x3f874174	1.056685
157	0x3ee17aa0	0.44038868
158	0xbec16716	-0.3777396
159	0x3f719bca	0.9437834
160	0xbded2ec6	-0.11581187
161	0xbdf691f7	-0.12039559
162	0xbd3c9882	-0.04604388
163	0xbf6b3417	-0.9187636
164	0xbebb4bec	-0.3658136
165	0xbe981c04	-0.29708874
166	0xbf1eb52b	-0.6199519
167	0x3f1f7442	0.6228677
168	0x3e234aad	0.15946455
169	0x3f1436ce	0.57896125
170	0xbdb1d30e	-0.086828336
171	0x3e2b2967	0.16715012
172	0x3dd95a6d	0.106129505
173	0xbe529e9d	-0.20568319
174	0xbc7cb0f3	-0.015423047
175	0x3e37f678	0.17965114
176	0xbe5e1db7	-0.21691023
177	0x3d86980d	0.0657197
178	0x3e017964	0.12643963
179	0xbd21fcdd	-0.03954779
180	0x3e265f1e	0.16247222
181	0xbd03e4e6	-0.032200716
182	0x3ed96edf	0.424674
183	0xbe676bda	-0.22599736
184	0xbedf0638	-0.43559432
185	0x3ce134a5	0.027490923
186	0x3f562f5c	0.83666015
187	0x3e91b9fb	0.28462204
188	0x3f308a3d	0.68960935
189	0xbe8d2a05	-0.2757112
190	0x3deb1bdc	0.11479923
191	0x3f37dcc1	0.7182122
192	0xbf1fd314	-0.62431455
193	0x3f16c4a6	0.5889381
194	0x3efe2836	0.49640054
195	0xbf189695	-0.5960477
196	0x3e11c80d	0.1423647
197	0xbf1c4d3c	-0.6105535
198	0xbe507493	-0.2035697
199	0x3ea2c820	0.31793308
200	0x3f3e9fb7	0.74462456
201	0xbebfbdcb	-0.37449488
202	0x3f835560	1.0260429
203	0xbf5ecbd6	-0.8702978
204	0x3e98094f	0.29694602
205	0x3e3c4635	0.18386157
206	0xbbe2ef48	-0.006925497
207	0xbe22b2ee	-0.15888569
208	0xbea8de50	-0.3298211
209	0xbe94a305	-0.29030624
210	0xbc16bde6	-0.009200549
211	0x3e1f93ab	0.15583675
212	0xbcd830f6	-0.026390534
213	0x3e8019de	0.25019735
214	0x3f2ac9e2	0.667143
215	0xbf05fe17	-0.52340835
216	0xbe5ce09b	-0.21570055
217	0xbf270d49	-0.65254647
218	0x3c9aa0ff	0.018875597
219	0x3eec817d	0.46192542
220	0xbe960902	-0.29303747
221	0xbf195181	-0.5988999
222	0xbea467a9	-0.32110336
223	0x3e4c1368	0.19929278
224	0xbf6d8c47	-0.9279217
225	0x3d638acf	0.0555523
226	0xbf447b35	-0.767505
227	0xbe84748b	-0.25870165
228	0xbe863597	-0.2621276
229	0x3e683da2	0.22679761
230	0x3e1a183c	0.15048307
231	0x3df552fe	0.1197872
232	0x3e99ee37	0.30064556
233	0x3faec1f1	1.3652936
234	0xbd97a9bf	-0.074054234
235	0x3f5fc318	0.87407064
236	0x3f553071	0.8327704
237	0xbed52310	-0.41628313
238	0xbeb68fec	-0.3565668
239	0xbd914f13	-0.0709516
240	0x3e5b8055	0.21435674
241	0x3f05a37f	0.522026
242	0xbee87014	-0.4539801
243	0x3f4a9edd	0.79148656
244	0x3ea17639	0.3153551
245	0xbdd99007	-0.10623174
246	0x3f63b7b7	0.889522
247	0x3e8550c1	0.26038173
248	0x3cdbe5af	0.02684292
249	0x3d26c2ca	0.04071311
250	0x3eb7bab0	0.3588462
251	0x3ee852bf	0.4537563
252	0x3caad08a	0.020851392
253	0xbe509eb4	-0.2037304
254	0x3e15c388	0.1462537
255	0xbeb24464	-0.34817803

decoder_net.0.bias f4 [128]
0	0xbcee4ab2	-0.029088352
1	0x3d6714c6	0.056416295
2	0xbd3bc74d	-0.045844365
3	0xbd31051d	-0.043217767
4	0xbbd1a070	-0.0063972995
5	0x3c729588	0.014806159
6	0x3d690d20	0.056897283
7	0x3c5a9b78	0.013342731
8	0x3d5dce58	0.054151863
9	0x3c839a6c	0.016064845
10	0xbd6bbbc9	-0.057552133
11	0x3c88365c	0.016627483
12	0x3c256fdc	0.01009747
13	0xbc6c2cdc	-0.014414992
14	0x3ca4ed74	0.020132758
15	0xbd155227	-0.0364553
16	0x3d67aaba	0.056559302
17	0xbd2dbd44	-0.042416826
18	0x3d7be14e	0.061494164
19	0x3d3aff3a	0.04565356
20	0x3d361dec	0.04446213
21	0xbc8b8e1a	-0.017035533
22	0xbd62b165	-0.055344958
23	0x3d314b66	0.043284796
24	0xbd502cea	-0.050824083
25	0xbd4ca861	-0.049965266
26	0xbb7c20dc	-0.0038471734
27	0xbd42e020	-0.047577024
28	0x3c453190	0.012035742
29	0x3d4bb91e	0.04973709
30	0xbc56caa0	-0.013109833
31	0xbc924962	-0.017857257
32	0xbd07195d	-0.032983173
33	0x3cac108c	0.021003984
34	0x3c277349	0.010220357
35	0x3d447390	0.04796177
36	0xbd7a7104	-0.061142936
37	0x3c937500	0.018000126
38	0xbd25c266	-0.040468596
39	0x3d0ea67e	0.034826748
40	0xbc8a5914	-0.016888179
41	0x3d63396e	0.05547469
42	0xbcaa79be	-0.020810004
43	0xbd7ad803	-0.06124116
44	0xbbf7b81c	-0.0075597893
45	0x3d6fa196	0.05850371
46	0xbd0ca508	-0.034337074
47	0x3c1f2ae8	0.0097148195
48	0xbcb3081e	-0.021854457
49	0xbcd8a2fc	-0.026444905
50	0x3cd332b8	0.02578102
51	0xbcabc24a	-0.020966668
52	0xbd31ad83	-0.043378364
53	0x3d6b18fc	0.057396874
54	0xbd4a387c	-0.049370274
55	0xbc28ea5c	-0.010309782
56	0x3d797be8	0.06090918
57	0xbbe34d14	-0.0069366787
58	0x3cbb3f40	0.022857308
59	0x3d4ae9ba	0.049539305
60	0xba9a7c4c	-0.0011786311
61	0xbc380c24	-0.011233363
62	0xbc3d0988	-0.011537917
63	0x3cc1f22c	0.023675047
64	0xbc081c5c	-0.008307543
65	0x3d6b5b08	0.05745986
66	0x3a4a0c8c	0.0007707558
67	0xbd4d9a0a	-0.05019573
68	0x3d4fb2da	0.050707676
69	0x3c6f369c	0.014600422
70	0x3c9bf70c	0.0190387
71	0x3a8abfd4	0.0010585734
72	0x3d31fc32	0.043453403
73	0xbd37be29	-0.044859085
74	0xbc6ea138	-0.014564805
75	0xbd70e1c4	-0.058809057
76	0xbc1421d4	-0.009041268
77	0xbd7f8c0b	-0.062389415
78	0x3d5d1864	0.05397834
79	0xbd5372d0	-0.051623166
80	0xbb5d2fc0	-0.0033750385
81	0xbd0db6a2	-0.034598
82	0x3cbd641c	0.023119025
83	0x3b46a6ac	0.0030311747
84	0x3b89b8c4	0.004202934
85	0x3d208306	0.039187454
86	0x3d52acf2	0.051434465
87	0x3d6ffab8	0.058588713
88	0xbcc362b4	-0.023850776
89	0xbce7d74e	-0.028300907
90	0x3d541ef2	0.051787324
91	0x3ce2f548	0.02770485
92	0x3bec8054	0.0072174463
93	0xbd024eb4	-0.03181334
94	0xbd44ba53	-0.048029255
95	0x3d15d2de	0.03657805
96	0x3c360a48	0.01111085
97	0x3d66e1be	0.05636763
98	0x3b1c61f8	0.0023862105
99	0x3d43d4e2	0.047810443
100	0x3bd42334	0.006473923
101	0x3b57f244	0.0032950798
102	0x3c6482ea	0.013947228
103	0x3d479ef8	0.04873559
104	0x3d1dd080	0.03852892
105	0x3d669b18	0.056300253
106	0x3c230ae4	0.009951327
107	0x3d0222aa	0.03177134
108	0x3c4d9968	0.012548782
109	0x3d33ddd2	0.043912716
110	0x3cc9bb18	0.024625346
111	0xbbf82664	-0.007572936
112	0x3c468a0c	0.012117874
113	0xbb8aa7ec	-0.0042314436
114	0xbcc09330	-0.023507684
115	0xbce5601a	-0.027999926
116	0xbaad7f50	-0.0013236795
117	0x3d43c41c	0.047794446
118	0x3d5ba2d8	0.053622097
119	0x3d255d9e	0.040372483
120	0x3cfd6034	0.030929662
121	0xbcf5154c	-0.029917382
122	0x3c07adc8	0.008281179
123	0x3d667ea0	0.056273103
124	0x3d11510c	0.035477683
125	0xbd3aaa76	-0.04557272
126	0xbd306b50	-0.04307109
127	0x3d7481d4	0.059694126

decoder_net.2.weight f4 [128, 128]
0	0xbdb055cc	-0.086101145
1	0xbeeb1312	-0.45912987
2	0xbd5604bf	-0.05225062
3	0xbeaa7ba8	-0.33297467
4	0xbee5a852	-0.4485498
5	0x3dc2fa97	0.095204525
6	0x3ed46477	0.414829
7	0x3e40a87d	0.18814273
8	0xbf00e3eb	-0.50347775
9	0x3cee725d	0.029107267
10	0x3df673d8	0.12033814
11	0xbec50929	-0.3848355
12	0x3ec4862f	0.38383624
13	0xbe2ff6d1	-0.17183997
14	0x3cb6c20c	0.022309326
15	0x3e8a85da	0.27055246
16	0x3e40f274	0.18842489
17	0xbf4b689d	-0.794565
18	0xbe7e0fbd	-0.24810691
19	0x3d8fec01	0.07027436
20	0xbe240d69	-0.1602074
21	0xbda9a6b2	-0.08283748
22	0x3fa295b3	1.2701935
23	0x3d238f83	0.039931785
24	0x3e8199e7	0.2531273
25	0xbf06bb8c	-0.52629924
26	0x3c49ceb7	0.012317351
27	0x3dc6c0e5	0.097047605
28	0x3eb89364	0.3604995
29	0x3e2f63b0	0.17127872
30	0x3ead5931	0.3385711
31	0xbf1b101e	-0.6057147
32	0xbf1dc58d	-0.61629564
33	0x3f88cf75	1.0688311
34	0x3ed33375	0.41250196
35	0x3e438993	0.19095449
36	0x3d8e24d4	0.06940618
37	0x3e0c965e	0.13729236
38	0x3ed41954	0.41425574
39	0x3ee9be52	0.45653015
40	0x3e9d5e9c	0.30736244
41	0xbf612f91	-0.87963206
42	0x3dd53ce8	0.104120076
43	0x3e9bd3e2	0.3043509
44	0x3e54cf82	0.20782283
45	0xbf56d032	-0.8391143
46	0xbf448081	-0.7675858
47	0xbe0528fa	-0.13003913
48	0xbdaa9dcd	-0.08330879
49	0x3e0a343b	0.13496487
50	0x3e5e6449	0.21717943
51	0xbef34df2	-0.47520405
52	0x3d75bb4a	0.059993066
53	0x3dc0d85d	0.09416268
54	0x3d566784	0.052344814
55	0x3f151227	0.58230823
56	0x3cb032f1	0.021508666
57	0xbde67470	-0.112526774
58	0x3ec45bf3	0.38351402
59	0x3d3d5f2e	0.04623335
60	0xbe570c26	-0.21000728
61	0xbe8784f2	-0.26468617
62	0xbdcf22f1	-0.101140864
63	0x3ed3ec34	0.41391146
64	0xbd069095	-0.032852728
65	0x3ec73169	0.38904884
66	0xbf0cc457	-0.5498709
67	0x3edd1be6	0.43185347
68	0xbeb2e356	-0.3493907
69	0x3d06f1f6	0.032945596
70	0xbf050b14	-0.5197003
71	0x3f62d41e	0.88604915
72	0xbe7bb118	-0.24579275
73	0x3ef5dab0	0.48018408
74	0x3e7de689	0.24794973
75	0xbf89cb19	-1.0765105
76	0xbe0b333d	-0.13593765
77	0x3eaf0b06	0.34188098
78	0xbf1f9ecf	-0.623517
79	0xbf5cdadc	-0.8627145
80	0x3ea6f06a	0.32605296
81	0x3f79cf2d	0.9758175
82	0xbe2fdbfe	-0.17173764
83	0x3eec8b1a	0.46199876
84	0x3da10392	0.07862009
85	0xbeff0dc5	-0.49815193
86	0xbd4999b0	-0.049218833
87	0x3ee7f104	0.45301068
88	0x3f278a1b	0.6544511
89	0xbf216e9a	-0.6305939
90	0xbed4fb0e	-0.4159779
91	0xbdc1a927	-0.094560914
92	0x3e153085	0.1456929
93	0x3e88d433	0.26724395
94	0xbbeda649	-0.0072524888
95	0xbf88f491	-1.0699636
96	0x3ef640b5	0.48096243
97	0xbf360c4d	-0.7111252
98	0xbf8c1b74	-1.0945878
99	0xbf37a65e	-0.7173823
100	0x3e44745b	0.19185011
101	0x3e854eff	0.26036832
102	0xbf201f42	-0.62547696
103	0x3f1b0b5d	0.60564214
104	0xbefa260f	-0.4885716
105	0x3e97d80f	0.29657027
106	0x3ebe02be	0.37111467
107	0xbf1f7c29	-0.6229883
108	0xbe62aa80	-0.22135353
109	0x3f5bd64f	0.85873884
110	0xbed173eb	-0.4090875
111	0xbf2b5587	-0.6692738
112	0x3edc6456	0.430453
113	0x3d8e07f6	0.06935112
114	0x3f21a730	0.6314573
115	0x3f0f987c	0.5609205
116	0xbe29e306	-0.16590509
117	0xbdcade2b	-0.099056564
118	0x3e19ba89	0.15012564
119	0x3e2d738a	0.16938606
120	0xbec349fc	-0.38142383
121	0x3ca434a1	0.020044627
122	0x3eb3735e	0.35048956
123	0xbe1fb83a	-0.1559762
124	0xbf0ee264	-0.55814195
125	0xbed3fad0	-0.41402292
126	0xbf36b393	-0.7136776
127	0x3f0d452b	0.55183667
128	0x3e104901	0.14090349
129	0xbeefc817	-0.46832344
130	0x3ee0fae9	0.4394143
131	0x3dc0fd15	0.094232716
132	0x3ed76f29	0.42076996
133	0x3e2cec9c	0.16887134
134	0x3c40939a	0.011753941
135	0x3dd314a9	0.10306675
136	0xbeaf2816	-0.3421027
137	0x3f16a78b	0.588494
138	0x3e180611	0.14846064
139	0xbe01c202	-0.12671664
140	0x3e7db287	0.24775134
141	0xbf977279	-1.1831809
142	0x3ef60220	0.48048496
143	0xbe1719a5	-0.14755876
144	0xbe65874f	-0.22414897
145	0xbe6a1d07	-0.22862636
146	0x3ddfd6eb	0.10929664
147	0xbfab284d	-1.3371674
148	0x3edfdc7e	0.4372291
149	0x3ece98f9	0.40351084
150	0xbe8c0726	-0.27349204
151	0xbf867525	-1.05045
152	0x3eff57ca	0.49871665
153	0xbf4cc521	-0.79988295
154	0xbf02f079	-0.5114818
155	0xbe8ecef8	-0.2789228
156	0xbf0b9b8e	-0.5453423
157	0xbea57f37	-0.3232362
158	0xbf43cdda	-0.7648598
159	0xbea5377b	-0.3226889
160	0x3eb3c310	0.35109758
161	0xbf11dfa0	-0.5698185
162	0xbe6bf6f4	-0.23043424
163	0x3f01b727	0.50670093
164	0x3e4abff3	0.19799785
165	0x3ec576fd	0.38567343
166	0xbe4cdf49	-0.20007052
167	0x3f5131ac	0.8171642
168	0x3ed53293	0.41640148
169	0x3edfc35e	0.4370374
170	0xbef89dac	-0.48557794
171	0x3f598936	0.8497499
172	0xbe9d64c9	-0.30740955
173	0xbf28d8b6	-0.65955675
174	0x3f0a75b5	0.54085857
175	0x3f19610c	0.59913707
176	0xbed1fa62	-0.4101134
177	0xbeaadd46	-0.33371943
178	0x3dcf8cf7	0.10134309
179	0xbeae2919	-0.3401573
180	0xbdf03d1c	-0.11730406
181	0xbf148814	-0.5802014
182	0x3f1d6d1a	0.614946
183	0xbebfcaee	-0.3745951
184	0xbc2e495c	-0.010637607
185	0xbe3bb25b	-0.18329756
186	0x3e5c2bdd	0.21501108
187	0xbdc0e8de	-0.09419416
188	0x3ebeabbf	0.37240407
189	0xbfa97eac	-1.3241782
190	0x3fe184d8	1.7618666
191	0xbdf5276c	-0.1197041
192	0x3ef63e3b	0.48094353
193	0xbe15cd4d	-0.14629097
194	0x3eee24e6	0.46512526
195	0x3f1a24be	0.60212314
196	0xbef086e2	-0.46977907
197	0x3fc5e9a5	1.5461928
198	0x3e5d4c3d	0.21611114
199	0xbf3ed809	-0.74548393
200	0x3ea3225a	0.31862146
201	0x3dfb5d2c	0.122736305
202	0xbf329347	-0.6975598
203	0x3e2b853f	0.16750048
204	0x3eefdc5a	0.46847802
205	0x3bdc59cd	0.0067245723
206	0xbf23c794	-0.6397641
207	0xbf1a998e	-0.60390556
208	0xbe97815b	-0.29590878
209	0xbdcd9a80	-0.10039234
210	0xbf263d7f	-0.64937586
211	0x3f596a34	0.8492768
212	0xbeefe783	-0.46856317
213	0x3e2e9358	0.17048395
214	0xbf9a6bdc	-1.2064166
215	0x3eb3d113	0.35120448
216	0x3f5b5e99	0.8569122
217	0x3f48a1f5	0.78372127
218	0xbf0b5a69	-0.5443483
219	0xbeb131d1	-0.3460832
220	0xbecc52f3	-0.39907035
221	0xbedfefaa	-0.43737537
222	0x3ea27959	0.31733206
223	0x3e98f996	0.2987792
224	0xbdd94b85	-0.10610107
225	0xbf3fff7d	-0.7499922
226	0x3eb3e537	0.35135815
227	0xbcdbd185	-0.026833305
228	0xbeeb6786	-0.4597742
229	0x3c237ba2	0.009978207
230	0xbe9813ea	-0.29702693
231	0xbdee2131	-0.116274245
232	0x3be836ba	0.007086602
233	0x3e0a4c90	0.13505769
234	0xbe20838f	-0.15675186
235	0x3e9c449f	0.30521104
236	0x3d38bec7	0.045103814
237	0xbe2f12b2	-0.17096975
238	0xbf30e4d4	-0.69099164
239	0xbef054af	-0.46939608
240	0xbf22da96	-0.63614786
241	0xbed0fc12	-0.40817314
242	0xbf4845d3	-0.78231543
243	0x3e7eaaac	0.24869794
244	0xbf1be8e5	-0.60902244
245	0xbea64ec9	-0.32481983
246	0x3e74ab6b	0.23893516
247	0xbf84155e	-1.0319021
248	0x3eb2d249	0.3492606
249	0x3ea32bf4	0.3186947
250	0xbf3267fe	-0.6968993
251	0xbf1bff7a	-0.609367
252	0x3f4d95c7	0.8030667
253	0xbf3a172f	-0.72691625
254	0xbf22203b	-0.6333043
255	0xbe964f31	-0.29357293

decoder_net.2.bias f4 [128]
0	0x3c47db7c	0.012198325
1	0x3b5c7050	0.003363628
2	0x3c8ae894	0.016956605
3	0x3c8eebb8	0.017446384
4	0x3d9bb26f	0.07602393
5	0x3da7017f	0.08154582
6	0x3d1f0af2	0.038828798
7	0x3da5c249	0.080936976
8	0xbda7edd0	-0.08199656
9	0x3d4544de	0.04816138
10	0xbd23c679	-0.0399842
11	0xbd933fee	-0.07189928
12	0xbb82d0bc	-0.003992168
13	0x3b3e99f4	0.0029083462
14	0x3c598628	0.013276614
15	0x3d46989a	0.048485376
16	0x3d672ab2	0.0564372
17	0xbc91ffcc	-0.017822169
18	0x3d262f9e	0.040572755
19	0xbc344810	-0.011003509
20	0xbc889ff0	-0.016677827
21	0xbd9ef81c	-0.07762167
22	0xb8ac9550	-8.229411e-05
23	0x3c8ab020	0.016929686
24	0x3b13fdc0	0.0022581667
25	0xbd619ad4	-0.055079296
26	0x3d20e772	0.039283223
27	0xbc040850	-0.0080586225
28	0x3d6a414a	0.05719117
29	0xbdb397e8	-0.08769208
30	0xbdaaf382	-0.08347227
31	0xbd1e08ea	-0.03858272
32	0xbc87e660	-0.016589344
33	0x3c03cb38	0.008044057
34	0xbd74948f	-0.05971199
35	0xbd193557	-0.037404384
36	0x3cbf700c	0.023368858
37	0x3d84c0ed	0.0648211
38	0x3d321d2a	0.043484844
39	0xbd9ba4a4	-0.07599762
40	0xbb3206bc	-0.0027164659
41	0xbd45867d	-0.04822396
42	0x3da90a81	0.082539566
43	0xbd68de58	-0.05685267
44	0x3c8ad1bc	0.016945712
45	0x3d7dc2c2	0.061953314
46	0x3d3a0fba	0.045425154
47	0x3d60d49a	0.054890253
48	0x3d8f7b19	0.07005901
49	0x3d0c3994	0.0342346
50	0x3dafd6c3	0.085858844
51	0x3d44a242	0.048006304
52	0x3c7e73d0	0.015530542
53	0xbdad3ace	-0.08458482
54	0x3db47049	0.08810479
55	0xbd29b077	-0.041428056
56	0xbd987ca6	-0.0744565
57	0x3d67d922	0.05660356
58	0xbd8ea600	-0.06965256
59	0x3cd89cf8	0.026442036
60	0x3cf21f24	0.029555865
61	0xbd11c78b	-0.03559069
62	0x3d8c3ecd	0.06847916
63	0xbbb549e8	-0.005532492
64	0xbdaf6b68	-0.08565408
65	0xbca93830	-0.020656675
66	0xbd1146fe	-0.035468094
67	0xbd0d03fd	-0.03442763
68	0xbd374f45	-0.04475333
69	0xbd7ed92a	-0.062218823
70	0xbdaa4f6c	-0.0831593
71	0x3d2004ae	0.039066963
72	0xbd9a3f5d	-0.07531617
73	0xbd0ddcdd	-0.03463446
74	0x3c4847dc	0.012224164
75	0x3da58dc5	0.08083681
76	0x3d4b9eaa	0.04971186
77	0xbd1b8b26	-0.0379745
78	0x3d6b1656	0.057394348
79	0xbd0939eb	-0.0335025
80	0x38a8b950	8.0453814e-05
81	0xbcf545c4	-0.029940493
82	0x3c906cdc	0.017630033
83	0x3d1e1c22	0.03860105
84	0xbb0cea74	-0.002150205
85	0x3d447252	0.047960587
86	0xbc1d2798	-0.009591959
87	0xbd4ed8db	-0.05049978
88	0x3d68c786	0.056830905
89	0x3d84e439	0.064888425
90	0x3cbe6578	0.023241743
91	0x3d6cb7c6	0.057792448
92	0xbd967b2f	-0.07347714
93	0xbd63e411	-0.055637423
94	0x3d8d0367	0.068854146
95	0xbd8581af	-0.06518876
96	0x3ba7b1e0	0.00511764
97	0x3d722fd2	0.059127636
98	0x3c59f590	0.013303176
99	0xbccb4e70	-0.024817675
100	0xbb9ca638	-0.004780557
101	0xbca370a0	-0.019951165
102	0xbc6fc80c	-0.014635097
103	0xbda4a7b9	-0.08039803
104	0x3dab7865	0.08372573
105	0xbd5321f2	-0.051546045
106	0x3cc71d34	0.024305917
107	0xbd6d65b4	-0.05795832
108	0x3cbcf1fc	0.023064606
109	0x3b4bde0c	0.0031107692
110	0xbd36a6a8	-0.04459253
111	0x3c082928	0.008310594
112	0xbc80a2d4	-0.015702643
113	0xbd8593a9	-0.065223046
114	0x3d72f7ca	0.05931834
115	0xbd9d755f	-0.076884024
116	0x3bedd124	0.0072575975
117	0x3d200d1a	0.039074995
118	0xbad821c2	-0.0016489553
119	0x3d0d9508	0.034565955
120	0xbc925338	-0.017861947
121	0x3af6c0d6	0.001882578
122	0xbc2e2454	-0.0106287785
123	0xbd347860	-0.04406011
124	0xbd8f3c4c	-0.069939226
125	0xbd9faf64	-0.07797125
126	0xbc9ecee8	-0.01938577
127	0xbd6e08a0	-0.058113694

decoder_net.4.weight f4 [128, 128]
0	0xbf1f76f6	-0.62290895
1	0x3e5296cc	0.20565337
2	0x3f7e2a7d	0.9928358
3	0xbf005ede	-0.50144756
4	0xbc4f510f	-0.012653603
5	0xbe3c41ef	-0.18384527
6	0xbdd18411	-0.10230268
7	0x3e6eed28	0.23332655
8	0xbf0e2245	-0.5552104
9	0xbeca9518	-0.39566875
10	0x3f3958ec	0.7240131
11	0x3e7dd669	0.24788822
12	0x3f12ceb8	0.5734668
13	0xbf3f8ee6	-0.7482742
14	0x3cb80f4b	0.02246823
15	0x3f1590f1	0.5842429
16	0xbea1964a	-0.31559974
17	0x3ea053a3	0.3131381
18	0x3e4685c4	0.19386965
19	0x3f29e296	0.6636137
20	0xbf1f78e0	-0.62293816
21	0xbda3ecdf	-0.08004164
22	0xbe1864a9	-0.14882149
23	0xbef47250	-0.47743464
24	0xbedfb50d	-0.43692818
25	0x3f2860a3	0.65772456
26	0x3d0aff4d	0.03393488
27	0x3edfecc9	0.4373534
28	0xbf1ca3ca	-0.6118742
29	0xbf58aba3	-0.84636897
30	0xbf40f433	-0.7537262
31	0x3e8056bc	0.25066173
32	0xbf14a494	-0.58063626
33	0x3f11390a	0.5672766
34	0xbe800a13	-0.25007686
35	0x3c58b4a4	0.013226662
36	0xbe7cdb40	-0.24693012
37	0x3f43228f	0.7622461
38	0x3cd89746	0.02643932
39	0x3eb022b4	0.34401476
40	0xbd9d6af2	-0.07686414
41	0xbeebfe43	-0.46092424
42	0xbfc6aee1	-1.5522119
43	0xbe8c5bfe	-0.27413934
44	0x3f17676e	0.59142196
45	0xbe377236	-0.17914662
46	0xbed8299c	-0.42219245
47	0x3db752ac	0.08951315
48	0x3d468440	0.048465967
49	0xbf0b62a6	-0.544474
50	0x3f7d690e	0.98988426
51	0x3d85da08	0.06535727
52	0x3e020f3b	0.12701122
53	0xbef83975	-0.48481336
54	0xbf05a715	-0.5220807
55	0x3ef6a217	0.4817054
56	0xbea76ad1	-0.32698682
57	0xbf1f5b83	-0.6224901
58	0xbcebc85b	-0.02878206
59	0xbebe0e1f	-0.3712015
60	0x3fae540a	1.3619397
61	0xbf1db8a9	-0.61609894
62	0x3c6590ed	0.014011604
63	0xbf0e31b0	-0.5554457
64	0xbe2ee921	-0.17081119
65	0x3d5b16b1	0.053488437
66	0x3f070bb1	0.52752215
67	0x3d871540	0.0659585
68	0x3efc8dd6	0.49326962
69	0xbe7123ef	-0.23548864
70	0xbeeed6eb	-0.46648344
71	0xbeca41d6	-0.39503354
72	0xbf0ee1cc	-0.5581329
73	0x3f09ce1e	0.53830135
74	0x3e0ff85a	0.14059582
75	0x3ee0b056	0.43884534
76	0xbee9d63f	-0.4567127
77	0xbe8c46d8	-0.273978
78	0x3e9059ee	0.2819361
79	0x3f2919e4	0.6605513
80	0xbf2f2279	-0.68411976
81	0xbec965b0	-0.39335394
82	0x3f3764d2	0.71638215
83	0xbf9f14d3	-1.242823
84	0xbf3cb3ff	-0.7371215
85	0xbf2f2156	-0.6841024
86	0x3f5fb192	0.87380326
87	0x3edf30dd	0.43591967
88	0x3ec34583	0.3813897
89	0xbf1037ad	-0.56334955
90	0x3eef1f2b	0.46703467
91	0xbeff8857	-0.49908707
92	0xbd47d73b	-0.048789244
93	0xbed069b4	-0.40705645
94	0x3e73047b	0.23732178
95	0xbdfd3aa0	-0.123646975
96	0xbf1fec90	-0.6247034
97	0x3b0b30a7	0.0021238716
98	0x3f18aafc	0.596359
99	0x3f5f6bd6	0.8727392
100	0xbed2993e	-0.4113254
101	0xbe106172	-0.14099672
102	0x3f185f87	0.59520763
103	0xbf07070e	-0.5274514
104	0x3eef2143	0.46705064
105	0xbebd2e70	-0.36949492
106	0x3f35fe8d	0.7109154
107	0x3f26b0bc	0.65113425
108	0x3ee051bc	0.43812358
109	0xbd8d0cc8	-0.068872035
110	0x3e3b76a7	0.18306981
111	0xbda1422f	-0.07873952
112	0xbe5d6a30	-0.21622539
113	0x3f4c7a41	0.79874045
114	0xbf27b01c	-0.65503097
115	0x3d7ac075	0.061218698
116	0x3e7642bc	0.24048895
117	0x3eba70c9	0.36414173
118	0xbe2b9fee	-0.16760227
119	0xbf05d15d	-0.5227259
120	0xbf1ff511	-0.62483317
121	0x3ed9178e	0.42400783
122	0xbfa0b35b	-1.2554735
123	0x3dfd22bd	0.123601414
124	0xbe92b4e2	-0.28653628
125	0xbf8dc8a4	-1.1076856
126	0xbd64e35a	-0.05588088
127	0x3f198329	0.5996576
128	0x3ec11391	0.3771024
129	0x3e980cbf	0.29697224
130	0x3e80145c	0.25015533
131	0xbde63713	-0.11240973
132	0x3f9fda4b	1.2488493
133	0x3e2f452e	0.17116234
134	0x3ea3a3c4	0.3196088
135	0xbf27cd4d	-0.6554764
136	0x3e905d95	0.28196397
137	0xbf931176	-1.1489704
138	0x3d66b824	0.056327954
139	0xbe8c75cf	-0.2743363
140	0x3f6a666c	0.91562533
141	0x3e611d73	0.2198389
142	0xbf5c081b	-0.8594987
143	0x3ecd16f2	0.40056568
144	0xbf3611a8	-0.7112069
145	0xbe843161	-0.25818923
146	0x3ebe1750	0.3712716
147	0x3ef99411	0.48745778
148	0x3f20c7fe	0.62805164
149	0x3f5b69b8	0.8570819
150	0x3e3482eb	0.17628066
151	0xbe945a72	-0.28975254
152	0xbf8e1b13	-1.1102012
153	0xbf213233	-0.6296722
154	0xbe7b15a4	-0.24519974
155	0x3f003d53	0.50093573
156	0x3f1d26dd	0.61387426
157	0x3e7e23e7	0.24818383
158	0x3dfbeec9	0.12301404
159	0x3f1583fd	0.58404523
160	0x3f1dd5a0	0.6165409
161	0x3ec429ab	0.3831304
162	0xbf49c63e	-0.7881812
163	0x3df864b9	0.12128586
164	0xbeb6b6c4	-0.35686314
165	0xbe383ec8	-0.17992699
166	0x3e0b0aa0	0.13578272
167	0x3b0c9358	0.0021450128
168	0xbea36f25	-0.31920734
169	0x3ce0a9f2	0.027424786
170	0xbf43ee3a	-0.7653538
171	0xbe16545a	-0.14680615
172	0x3ef6430e	0.48098034
173	0x3f0313bf	0.51202005
174	0xbe9e6b2c	-0.3094114
175	0xbd8670e6	-0.065645024
176	0xbe594453	-0.2121747
177	0x3f5bd27e	0.8586806
178	0x3e50ca76	0.20389733
179	0xbe8e3529	-0.27774933
180	0xbf379e20	-0.71725655
181	0xbe83721f	-0.25673005
182	0x3f232cd4	0.6374028
183	0xbec06f0c	-0.37584722
184	0xbef99e42	-0.48753554
185	0xbdf4fc01	-0.119621284
186	0x3f55c8f8	0.8350978
187	0x3e36d17d	0.17853351
188	0x3f9e2e64	1.2357907
189	0xbeac54c6	-0.33658427
190	0x3f5efee6	0.87107694
191	0x3f88e03c	1.0693431
192	0xbe595665	-0.21224363
193	0x3f2ac39c	0.66704726
194	0xbee4dbe9	-0.44699028
195	0x3efc6b8d	0.49300805
196	0x3ebae30b	0.36501345
197	0xbf3b1608	-0.7308049
198	0x3e1d8b34	0.15385133
199	0xbf8276f4	-1.0192552
200	0x3eb2255b	0.34794125
201	0xbe7a5592	-0.24446705
202	0x3e29408b	0.16528527
203	0x3e594e06	0.2122117
204	0x3e95b21a	0.29237443
205	0x3f0816b8	0.53159666
206	0xbf4c67d9	-0.7984596
207	0x3eab8ec0	0.33507347
208	0xbe02b77e	-0.12765309
209	0x3f11e5aa	0.56991065
210	0x3eadce17	0.33946297
211	0x3e31afd0	0.17352223
212	0x3f279913	0.6546795
213	0xbedbb4bf	-0.42911336
214	0x3c090c99	0.00836482
215	0xbf224178	-0.6338115
216	0xbeed9177	-0.46400043
217	0xbe719555	-0.23592122
218	0xbf359420	-0.70929146
219	0x3f2a712b	0.6657893
220	0xbf1c4541	-0.61043173
221	0xbe4ef5e6	-0.2021099
222	0x3ecc0d57	0.39853927
223	0xbe4b4187	-0.19849215
224	0xbec17f91	-0.37792638
225	0x3eda68ea	0.42658168
226	0xbf0b7b9d	-0.54485494
227	0xbebfcd94	-0.3746153
228	0xbe88a177	-0.26685688
229	0x3d4232d3	0.04741175
230	0x3ecd5176	0.40101212
231	0xbd940be0	-0.072288275
232	0xbf42e950	-0.76137257
233	0x3e1f7804	0.15573126
234	0xbf0d1631	-0.55111986
235	0xbee36e5d	-0.44420138
236	0x3d77d8ad	0.060509373
237	0x3e9c0b59	0.30477408
238	0x3d9a83ab	0.07544645
239	0xbeb8e806	-0.3611452
240	0x3e6e93e7	0.23298608
241	0x3dda4165	0.10657004
242	0x3f20898f	0.627099
243	0x3f83a6ff	1.0285338
244	0x3f724b33	0.94645995
245	0xbe29f8bb	-0.1659879
246	0x3f1ba70b	0.6080176
247	0x3f69e441	0.9136391
248	0xbe75ff94	-0.24023277
249	0xbe129eb5	-0.14318354
250	0xbfb7aed4	-1.4350228
251	0x3e151ec2	0.14562514
252	0x3d6358ae	0.055504493
253	0x3f5647c3	0.8370325
254	0x3f0b4fb9	0.5441852
255	0xbead69fc	-0.33869922

decoder_net.4.bias f4 [128]
0	0xbd298865	-0.04138984
1	0x3ca9035c	0.020631485
2	0x3da60137	0.081057005
3	0xbd48adf4	-0.04899402
4	0xbd9e2e91	-0.077237256
5	0xbd07371b	-0.033011537
6	0x3c600a94	0.013674397
7	0xbd8f9c0a	-0.07012184
8	0xbd5d8d8b	-0.054090064
9	0x3c12c890	0.008958951
10	0x3d963893	0.073350094
11	0x3d31cd12	0.04340846
12	0x3d641be6	0.05569067
13	0x3d0f6eb4	0.035017684
14	0x3ccc2b37	0.02492295
15	0x3da8ed95	0.0824844
16	0xbce4c71e	-0.027926978
17	0xbbfd1578	-0.0077235065
18	0x3c68fd50	0.014220551
19	0x3c0326c0	0.008004844
20	0x3a250744	0.0006295333
21	0xbd14a3f6	-0.036289178
22	0x3d9a9cff	0.07549476
23	0x3d4eb23a	0.05046294
24	0xbd8f5447	-0.069984965
25	0x3c885fe0	0.01664728
26	0xbda9571e	-0.082685694
27	0x3da0d3c5	0.07852892
28	0x3d06b1ce	0.03288441
29	0x3d3e2bb6	0.046428405
30	0x3db38e11	0.087673314
31	0x3d97d62b	0.07413896
32	0x3d519032	0.051162906
33	0xbce30e18	-0.027716681
34	0xbc11d2e0	-0.008900374
35	0x3d6603e6	0.05615606
36	0x3d8da581	0.06916333
37	0xbcce4f58	-0.025184318
38	0x3d9bff47	0.0761705
39	0x3d71aa32	0.0590002
40	0x3d9b00ad	0.07568488
41	0xbbd95e30	-0.0066335425
42	0x3b99146c	0.004671624
43	0xbd4450ee	-0.047928743
44	0xbda66b89	-0.081259795
45	0xbc3cfe34	-0.011535216
46	0x3c9792a0	0.018502533
47	0xbd7ff652	-0.06249077
48	0x3cd05aa0	0.025433838
49	0xbd9fabeb	-0.077964626
50	0xbda3a4ca	-0.079904154
51	0x3da73859	0.08165044
52	0xbd858223	-0.06518962
53	0xbaf81bac	-0.0018929145
54	0xbcc8f298	-0.02452974
55	0x3d2049be	0.039132826
56	0x3c4bae64	0.012431715
57	0xbd11cf46	-0.035598062
58	0xbd452bcd	-0.048137475
59	0xbd8fac83	-0.07015326
60	0xbcaa5900	-0.020794392
61	0x3d36755e	0.044545524
62	0xbc71ca68	-0.01475773
63	0xbd8dc192	-0.06921686
64	0x3cc59484	0.02411867
65	0xbdaeb381	-0.085303314
66	0xbd9b3dff	-0.07580184
67	0x3d568abe	0.05237841
68	0xbda920c6	-0.08258204
69	0xbadc98b0	-0.0016830172
70	0xbd7e38fc	-0.062066063
71	0x3d85bfb1	0.06530703
72	0xbd6691cc	-0.056291386
73	0xbdac6938	-0.084185064
74	0x3d85ab8d	0.06526861
75	0x3bedb384	0.007254066
76	0xbd8c96f6	-0.06864731
77	0x3d35ecb2	0.044415183
78	0xbd9abca4	-0.075555116
79	0x3ceadb18	0.028668925
80	0xbd108407	-0.03528216
81	0x3d41e0be	0.04733347
82	0x3d6bbd2e	0.057553463
83	0xbc3f820c	-0.01168872
84	0x3d92cecb	0.07168349
85	0x3c6f3e8c	0.014602315
86	0xbb7cc74d	-0.003857094
87	0x3d9e19a5	0.07719735
88	0x3d4b551a	0.049641706
89	0xbd2a8ceb	-0.041638296
90	0x3d15a204	0.036531463
91	0xbd4d24d4	-0.05008395
92	0x3bbe4df4	0.0058076326
93	0xbd92da9b	-0.07170602
94	0x3d663762	0.05620516
95	0xbdaad3da	-0.08341189
96	0xbc8dfe80	-0.01733327
97	0x3d4ed00e	0.050491385
98	0xbcfca052	-0.030838165
99	0x3db2383d	0.08702133
100	0x3cd8796c	0.026425086
101	0xbb03dd68	-0.0020120982
102	0x3d2d48e2	0.042305835
103	0xbd7e2afa	-0.062052704
104	0x3d390012	0.045166083
105	0xbdb12548	-0.08649689
106	0x3cde8ff4	0.027168252
107	0xbc44fd10	-0.012023225
108	0x3d974469	0.07386095
109	0xbc8ff260	-0.017571628
110	0x3c27af08	0.010234602
111	0xbda37507	-0.079813056
112	0x3d72e1d6	0.059297405
113	0xbdacb614	-0.08433166
114	0x3d427da6	0.04748311
115	0x3cd77ac8	0.026303664
116	0x3d91b431	0.07114447
117	0x3da6553d	0.08121727
118	0x3bfee3a8	0.0077786036
119	0xbd9223e2	-0.0713575
120	0x3d9d294f	0.076738946
121	0xbd4236b3	-0.047415446
122	0xbd972cae	-0.07381569
123	0x3d2a8a52	0.04163582
124	0xbd29bc25	-0.041439194
125	0x3d7edc66	0.062221907
126	0x3d813bc1	0.06310225
127	0xbce4d580	-0.027933836

decoder_net.6.weight f4 [128, 128]
0	0x3e87d2c1	0.2652798
1	0xbf3b787f	-0.7323074
2	0xbe7d48c3	-0.24734788
3	0xbe81b86f	-0.25336024
4	0x3ed446b7	0.414602
5	0xbf571015	-0.84008914
6	0x3f2de173	0.67922133
7	0xbe2185c0	-0.15773678
8	0x3cd22b0d	0.025655294
9	0xbe782967	-0.24234544
10	0x3f616ebe	0.88059604
11	0xbefc28fa	-0.49250013
12	0xbf25a76e	-0.647086
13	0x3f167266	0.5876831
14	0x3f451646	0.7698711
15	0xbd283ca6	-0.041073464
16	0x3eef2686	0.4670908
17	0xbf48a3da	-0.7837502
18	0xbe0b8cac	-0.13627881
19	0xbf18c141	-0.5966988
20	0x3eb9a2f5	0.3625714
21	0xbd09eb18	-0.03367147
22	0xbea6ca74	-0.32576334
23	0xbed68cbd	-0.4190425
24	0x3c2c78d2	0.010526853
25	0xbf0d14ae	-0.5510968
26	0xbdec4d50	-0.11538184
27	0xbeb876c5	-0.36028114
28	0x3ee3aa76	0.4446599
29	0xbed8b09c	-0.42322242
30	0xbf4064e5	-0.7515395
31	0xbe7b7d55	-0.24559529
32	0x3f43f2c5	0.7654231
33	0xbf2bd0de	-0.6711558
34	0xbf4aa26c	-0.79154086
35	0xbea682f0	-0.32521772
36	0x3c903f35	0.017608264
37	0x3e39d4e3	0.18147616
38	0xbf0cfbda	-0.55071795
39	0xbd109f57	-0.03530821
40	0x3e92f1a2	0.28699976
41	0xbe26a21c	-0.16272777
42	0x3e8fdd9c	0.28098762
43	0xbe5ff327	-0.21870099
44	0x3f69091f	0.9102954
45	0xbea8456a	-0.3286546
46	0xbe7ef435	-0.24897845
47	0xbf1cd6f3	-0.61265486
48	0x3f55de96	0.83542764
49	0xbe5a7cc2	-0.21336654
50	0xbe276012	-0.16345242
51	0xbf4bbd21	-0.7958546
52	0x3e7c91a4	0.24664932
53	0x3df89d7c	0.12139413
54	0xbe3b18a2	-0.18271115
55	0xbf29b252	-0.6628772
56	0x3d390eec	0.045180246
57	0xbf3d5739	-0.73961216
58	0x3e1ae099	0.1512474
59	0xbf49f508	-0.78889513
60	0x3ed27baf	0.41109988
61	0x3ea41f7c	0.3205527
62	0x3eeeed2a	0.46665317
63	0xbd85733a	-0.06516118
64	0x3f07b388	0.5300832
65	0xbf05186d	-0.51990396
66	0xbed7f08e	-0.42175716
67	0x3f0173ad	0.5056713
68	0x3f372ed3	0.71555823
69	0x3edbba03	0.42915353
70	0xbee93b09	-0.45552853
71	0x3eb610b2	0.35559613
72	0xbf187b68	-0.59563303
73	0xbf3dd778	-0.74156904
74	0xbdaa69ef	-0.083209865
75	0x3f27cee8	0.6555009
76	0x3f710350	0.9414568
77	0x3ec32d3a	0.38120443
78	0xbf509baf	-0.81487554
79	0xbef602c6	-0.4804899
80	0x3e706ebb	0.2347974
81	0x3eb6c32d	0.35695782
82	0x3f8e8b81	1.1136323
83	0x3de2a549	0.11066682
84	0x3ea7c10f	0.3276448
85	0xbe6eff1f	-0.23339508
86	0xbee374dd	-0.44425097
87	0xbeed6add	-0.46370593
88	0xbeee636d	-0.4656023
89	0xbf76dcad	-0.96430475
90	0x3ee6e4d8	0.4509647
91	0xbf2622db	-0.64896935
92	0xbec7ca4f	-0.39021537
93	0xbeec7f97	-0.46191093
94	0x3ed0c6a3	0.40776548
95	0x3f6593fe	0.89678943
96	0x3c29c114	0.010360975
97	0x3d8b3252	0.06796707
98	0x3e14f0a4	0.14544922
99	0x3fa1dc26	1.2645309
100	0xbdae6fbe	-0.08517407
101	0xbe6d4372	-0.2317026
102	0x3f54c1b4	0.8310807
103	0xbed02a53	-0.4065729
104	0x3f0549fa	0.52066004
105	0x3d9129e7	0.0708807
106	0xbea3a816	-0.31964177
107	0x3f3163fc	0.6929319
108	0xbebe29e7	-0.37141344
109	0x3e6536c8	0.22384179
110	0x3e9b611c	0.30347526
111	0x3eadbf3d	0.33934966
112	0xbea14427	-0.3149731
113	0xbd5a5439	-0.053302977
114	0xbed40363	-0.41408834
115	0x3e0d7a8c	0.13816279
116	0xbf2270b3	-0.63453215
117	0x3f2e1258	0.6799674
118	0x3e0522a1	0.13001491
119	0xbe9a4a80	-0.30134964
120	0x3df71999	0.12065429
121	0xbf14ae9f	-0.5807895
122	0x3ca706f9	0.020389067
123	0x3e8e1625	0.2775127
124	0x3f61961d	0.8811968
125	0x3b48d71e	0.0030645798
126	0x3eae93e7	0.34097216
127	0xbea5dbf3	-0.3239437
128	0xbe62040e	-0.22071859
129	0xbe9af720	-0.30266666
130	0xbe6c9082	-0.23102
131	0x3edaecae	0.42758697
132	0xbecf55af	-0.4049506
133	0xbfa0927c	-1.2544703
134	0xbe157e3b	-0.14598934
135	0xbe79f889	-0.24411215
136	0xbf84562a	-1.0338795
137	0x3f042f64	0.5163481
138	0xbe7b361c	-0.2453236
139	0x3ed5d234	0.41761935
140	0xbf1fd3f0	-0.62432766
141	0x3e316819	0.17324866
142	0xbea02d2f	-0.31284472
143	0xbe621870	-0.22079635
144	0xbeb4ccd7	-0.3531253
145	0xbee23ca6	-0.44186896
146	0x3e8929ca	0.26789695
147	0x3d4428b4	0.04789038
148	0xbf4a16c1	-0.7894097
149	0x3f8eb5f7	1.1149281
150	0x3f1039cd	0.56338197
151	0x3eaac8e8	0.33356404
152	0xbf2fea44	-0.68716836
153	0xbf1b3579	-0.6062847
154	0x3ea44892	0.32086617
155	0xbf20b10a	-0.6277014
156	0xbef781b6	-0.4834115
157	0xbedfb12f	-0.43689868
158	0x3ea3496a	0.31891948
159	0x3c4fc195	0.012680431
160	0xbf7b4a1e	-0.9815997
161	0xbe686a40	-0.22696781
162	0xbf264021	-0.649416
163	0x3e493ba8	0.19651663
164	0xbc0477bc	-0.0080851875
165	0xbe76a65d	-0.240869
166	0xbec77781	-0.38958362
167	0x3e530694	0.20607978
168	0xbf3f6361	-0.74761015
169	0x3e62c2ab	0.22144572
170	0x3e7103cd	0.23536606
171	0xbf324ce0	-0.6964855
172	0xbe7a0f72	-0.24419954
173	0xbde0da9d	-0.10979197
174	0x3d95748e	0.07297622
175	0x3d3b83a6	0.045779847
176	0x3b0fdf63	0.0021953217
177	0xbe418cfd	-0.18901439
178	0xbf340963	-0.70326823
179	0x3e726d34	0.2367447
180	0x3d919069	0.07107622
181	0xbf2eca83	-0.6827776
182	0x3ee18e68	0.4405396
183	0x3e3d8732	0.18508604
184	0xbef5471c	-0.47905815
185	0xbe4117ce	-0.18856737
186	0xbe610c76	-0.2197741
187	0x3e63eb95	0.22257836
188	0x3e0777df	0.13229321
189	0xbec146aa	-0.37749225
190	0xbf2a81f3	-0.66604537
191	0x3f39f147	0.72633785
192	0xbf15e141	-0.58546835
193	0x3f12c106	0.5732578
194	0xbecfd7d3	-0.40594348
195	0x3f2713bb	0.6526448
196	0xbdfaee78	-0.122525156
197	0xbd890895	-0.0669109
198	0x3e9b550f	0.30338332
199	0x3fe9448c	1.8224044
200	0x3e00548d	0.12532254
201	0x3ee6f6f4	0.45110285
202	0x3d1cb72c	0.038260624
203	0x3f32e020	0.6987324
204	0x3dfe9c51	0.12432159
205	0x3f3d8c7c	0.7404249
206	0xbf754432	-0.9580718
207	0x3ec9dca7	0.39426157
208	0xbe8368e3	-0.2566596
209	0x3e827c3d	0.2548541
210	0x3e04d81a	0.12973061
211	0xbc79c913	-0.015245694
212	0x3eb70a95	0.3575026
213	0xbed210ba	-0.41028386
214	0x3f34b81a	0.70593417
215	0x3e46382e	0.19357368
216	0x3eb0c76a	0.3452714
217	0x3f5af12c	0.8552425
218	0x3e73e277	0.23816858
219	0x3f620da6	0.88302076
220	0x3f76e529	0.9644342
221	0xbd4984c0	-0.049198866
222	0x3e0a9fd0	0.13537526
223	0x3f9b4308	1.2129831
224	0xbda4c2c8	-0.08044964
225	0xbec3397f	-0.38129804
226	0xbe7eb880	-0.24875069
227	0xbd7cf406	-0.061756156
228	0xbf4ea3f9	-0.8071895
229	0xbf6b4c43	-0.9191324
230	0xbe857162	-0.26063067
231	0xbed7a32b	-0.42116675
232	0x3f1801af	0.5937757
233	0xbf1e0b63	-0.61736125
234	0xbca30642	-0.019900445
235	0xbf837d6e	-1.0272653
236	0xbbd72ee3	-0.0065668686
237	0xbf09f8e4	-0.538954
238	0x3ee04d58	0.4380901
239	0xbe9344e3	-0.28763494
240	0x3e7c2871	0.24624802
241	0x3f116d5d	0.568075
242	0x3f2d70b1	0.6775008
243	0xbedf9048	-0.43664765
244	0xbd867553	-0.065653466
245	0xbe46da0a	-0.19419113
246	0xbf1bfd9f	-0.6093387
247	0x3eb09c20	0.34494114
248	0x3e6c3937	0.230687
249	0xbf66b3e9	-0.9011827
250	0x3db0eadc	0.08638546
251	0x3eae2e80	0.34019852
252	0xbe84ba8c	-0.25923574
253	0x3f3bbf99	0.7333923
254	0xbe1d381b	-0.15353434
255	0xbe406157	-0.18787132

decoder_net.6.bias f4 [128]
0	0x3d8a3d9f	0.067500345
1	0x3b423220	0.0029631928
2	0x3c23fa5c	0.010008421
3	0x3d1d3a72	0.038385816
4	0x3da39601	0.07987595
5	0xbd522595	-0.051305372
6	0x3d8c625f	0.068547
7	0x3d67f33a	0.056628443
8	0xbc953efe	-0.018218514
9	0x3d0cfb30	0.03441924
10	0x3d52fbfa	0.051509835
11	0x3d42386e	0.047417097
12	0x3d9fde4b	0.07806071
13	0x3d50d3ee	0.050983362
14	0xbd6b6fd8	-0.05747971
15	0x3da349b9	0.07973046
16	0xbd685eab	-0.056730907
17	0xbcab1018	-0.020881698
18	0xbd23c799	-0.039985273
19	0xbc8225b8	-0.015887126
20	0xbce50952	-0.027958546
21	0x3d701c46	0.058620714
22	0xbc0dc2b4	-0.008652378
23	0xbc415a50	-0.011801317
24	0xbc9d618c	-0.019211553
25	0xbcce7894	-0.02520398
26	0xbdabee51	-0.083950646
27	0xbcec4962	-0.028843585
28	0x3d3679f6	0.044549905
29	0x3d9eefb7	0.07760566
30	0x3d090e56	0.033460937
31	0x3d7df832	0.062004276
32	0xbdae7789	-0.08518893
33	0x3db366bf	0.08759832
34	0x3d701f02	0.05862332
35	0xbd8cd0f9	-0.06875796
36	0xbc90d414	-0.017679252
37	0x3dacbb3f	0.08434152
38	0xbd99e346	-0.07514052
39	0xbbe1766c	-0.006880572
40	0xbca0ad00	-0.019613743
41	0x3cf74150	0.03018251
42	0xbd28c19e	-0.041200273
43	0xbdaa783e	-0.083237156
44	0xbd82b578	-0.06382269
45	0xbd8f0d28	-0.06984931
46	0x3cb94b44	0.022618897
47	0xbd95d5bd	-0.07316158
48	0xbc7d3538	-0.015454583
49	0xbd01f293	-0.031725477
50	0xbcdc9576	-0.026926737
51	0xbc417a78	-0.011808984
52	0x3d8af10f	0.067842595
53	0x3cf82a14	0.030293502
54	0xbda7cec6	-0.08193736
55	0x3b125ec0	0.0022334307
56	0x3d90ea99	0.07075996
57	0xbd79bb62	-0.060969718
58	0xbdafaa99	-0.08577461
59	0xbbe14ccc	-0.00687561
60	0xbc8f0ab8	-0.017461166
61	0x3c331b8c	0.010931861
62	0xbc817a78	-0.015805468
63	0xbda8b17a	-0.08236976
64	0xbc507538	-0.01272326
65	0x3d89dfab	0.067321144
66	0x3ca8daa8	0.020612076
67	0xbd8c5aba	-0.06853242
68	0x3c8c0088	0.017090097
69	0x3d88dbc9	0.06682546
70	0x3bb65d78	0.0055653416
71	0x3d857f8f	0.065184705
72	0xbd8254c2	-0.063638225
73	0x3db1f473	0.08689203
74	0xbd1001a8	-0.03515783
75	0xbd37e7d7	-0.044898834
76	0x3db31037	0.08743327
77	0xbd84c461	-0.06482769
78	0xbd1d59b7	-0.038415637
79	0xbcd1f3c8	-0.02562894
80	0x3d9f9235	0.07791559
81	0xbc8b579c	-0.017009549
82	0xbc9b21dc	-0.018937044
83	0xbd81a179	-0.063296266
84	0x3dafdf7f	0.0858755
85	0xbd987fae	-0.07446228
86	0x3cee7a30	0.029110998
87	0x3d6eb79e	0.05828058
88	0xbc73d678	-0.014882676
89	0x3da0a0ef	0.07843196
90	0xbcefb59e	-0.029261407
91	0x3cfcf5cc	0.030878924
92	0x3d950013	0.07275405
93	0xbd8dd148	-0.06924683
94	0x3bf96d0c	0.0076118764
95	0xbd570c86	-0.052502178
96	0xbd1b0faa	-0.037856735
97	0xbd01f5ae	-0.03172844
98	0xbdb28685	-0.08717064
99	0xbd8bc665	-0.0682495
100	0x3d8d393f	0.068956845
101	0x3da77ac3	0.08177712
102	0xbd7d881e	-0.06189739
103	0xbc2a3010	-0.010387436
104	0xbccc4564	-0.024935432
105	0x3d3cfbba	0.046138503
106	0x3d976fbf	0.07394361
107	0x3d89856d	0.06714902
108	0x3d98bb6b	0.07457622
109	0x3d3ac83a	0.045601107
110	0xbce8e460	-0.02842921
111	0x3c0aab6c	0.008463722
112	0x3c1416f8	0.009038679
113	0xbdb03f69	-0.086058445
114	0x3d91e0a9	0.07122929
115	0xbd92253e	-0.0713601
116	0xbbb44148	-0.005500946
117	0xbaf34720	-0.0018560626
118	0x3d7ef312	0.06224353
119	0xbba6b574	-0.005087549
120	0xbd4225b0	-0.047399223
121	0xb9d248a7	-0.00040108452
122	0x3d8af6af	0.067853324
123	0x3d8f9a63	0.07011869
124	0x3d46e762	0.048560508
125	0xbcb628a4	-0.022236176
126	0x3ca6add8	0.020346567
127	0x3cdc7fe8	0.02691646

decoder_net.8.weight f4 [128, 128]
0	0xbe0ce86a	-0.13760534
1	0xbe3c46e0	-0.18386412
2	0x3d858bfa	0.06520839
3	0x3e3c47c7	0.18386756
4	0xbf0785e8	-0.529387
5	0x3cf2d2cf	0.029641537
6	0x3f32141f	0.6956195
7	0x3e8e9db7	0.27854702
8	0xbe0fbbd7	-0.14036499
9	0x3f85f810	1.0466328
10	0xbe08caea	-0.13358656
11	0x3e6da0f2	0.23205927
12	0xbcdf48b0	-0.02725634
13	0x3e9c0e92	0.30479866
14	0x3f1b1bc0	0.6058922
15	0x3ddf019b	0.10888978
16	0xbe660455	-0.2246259
17	0xbed0f583	-0.4081231
18	0x3f9303c8	1.1485529
19	0xbf34075e	-0.7032374
20	0xbf62613b	-0.8842961
21	0x3e02ab53	0.12760668
22	0x3e565bc8	0.2093345
23	0x3f87f2fe	1.062103
24	0xbe9d7a50	-0.3075738
25	0x3e67ef6b	0.22649924
26	0xbde1029e	-0.10986827
27	0xbd6c9292	-0.057756968
28	0xbe3f9836	-0.18710408
29	0x3ec31009	0.3809817
30	0xbda1095c	-0.07863113
31	0xbe33f46b	-0.17573707
32	0xbdcc3a3c	-0.09972045
33	0xbd414aaa	-0.047190346
34	0xbe7432af	-0.2384746
35	0xbf5aafc0	-0.85424423
36	0xbf0370aa	-0.51343787
37	0x3f1d1c29	0.61371094
38	0xbe95ee35	-0.292833
39	0xbe50aef6	-0.20379242
40	0xbe98fe30	-0.2988143
41	0x3f07601e	0.5288104
42	0xbda72ff9	-0.08163447
43	0x3d8d5594	0.06901088
44	0x3f0c4c0c	0.5480354
45	0x3c9f915a	0.019478489
46	0x3f0145c0	0.50497055
47	0x3f19bafd	0.60050946
48	0x3e9c8c79	0.30575922
49	0xbe81371a	-0.25237352
50	0x3f4541ab	0.77053326
51	0xbd890e24	-0.0669215
52	0x3da80607	0.082042746
53	0xbd8a66d8	-0.06757897
54	0xbd5c7b1e	-0.05382835
55	0xbf2304a5	-0.6367896
56	0xbe2673a9	-0.16255058
57	0x3efd8b46	0.4952032
58	0x3e101a46	0.14072523
59	0xbe805504	-0.25064862
60	0xbea9c9c6	-0.33161753
61	0x3f19c541	0.6006661
62	0xbeba26a3	-0.36357602
63	0xbf05af80	-0.52220917
64	0xbedacdc4	-0.42735112
65	0xbee76a70	-0.45198393
66	0x3e9053f6	0.28189057
67	0xbec18c23	-0.37802228
68	0xbf5ae5a7	-0.8550667
69	0x3f37cf35	0.7180055
70	0xbeb6944c	-0.35660017
71	0x3d4d7deb	0.050168913
72	0x3f3b3707	0.7313084
73	0xbef4857b	-0.47758088
74	0xbdfed617	-0.12443178
75	0xbe9c2be7	-0.30502245
76	0xbea7c7d2	-0.32769638
77	0xbf1bedd9	-0.609098
78	0xbf2706be	-0.6524466
79	0x3f4099f3	0.7523491
80	0x3f02f9a6	0.51162183
81	0xbe833d34	-0.25632632
82	0xbd4bfc86	-0.049801372
83	0xbed99051	-0.42492917
84	0x3ea15f40	0.31517982
85	0x3f60f207	0.87869304
86	0xbedd6786	-0.43243045
87	0x3fa31fdd	1.2744099
88	0xbfb63e7f	-1.4237822
89	0x3f14ba2c	0.58096576
90	0xbecee4fa	-0.4040907
91	0xbe1c6993	-0.15274648
92	0x3f624b47	0.88396114
93	0xbae2c9d0	-0.0017302576
94	0x3f4efbe0	0.8085308
95	0x3f2d412e	0.6767758
96	0x3ef27509	0.47354916
97	0x3eaa9588	0.33317208
98	0xbdf2f284	-0.118626624
99	0x3ef6db09	0.48213986
100	0x3ee54241	0.4477711
101	0xbe26d52a	-0.16292253
102	0x3f011fca	0.5043913
103	0xbdf809b4	-0.12111226
104	0x3eef0366	0.4668228
105	0xbe351594	-0.17684013
106	0x3ecb0805	0.39654556
107	0xbdb31a0a	-0.08745201
108	0x3dc30e19	0.09524173
109	0xbf1541b0	-0.58303356
110	0x3e6ed373	0.23322849
111	0xbf8198bb	-1.0124735
112	0x3d8eebe0	0.06978583
113	0x3e55ccf6	0.20878968
114	0x3f0dd869	0.5540834
115	0x3ea946ae	0.33061737
116	0x3f5cd47e	0.8626174
117	0x3e0c1b77	0.13682352
118	0x3ea6158e	0.3243832
119	0x3f3439af	0.7040052
120	0x3ef69024	0.48156846
121	0x3f0952cc	0.53641963
122	0x3de7d7b8	0.11320442
123	0xbe2ddb8e	-0.16978285
124	0x3cdf3cd7	0.02725069
125	0x3e82cbb2	0.25546032
126	0x3d840db7	0.064479284
127	0xbf06b926	-0.52626264
128	0xbef3edfc	-0.47642505
129	0x3b8589bc	0.004075257
130	0xbf03e317	-0.51518387
131	0xbf45e84a	-0.7730757
132	0xbeda3e76	-0.4262578
133	0xbf2ddd09	-0.679154
134	0x3ee2b151	0.44275907
135	0x3e1f6eb4	0.15569574
136	0xbf21fb74	-0.6327431
137	0xbef66226	-0.48121756
138	0xbe6064d8	-0.21913469
139	0xbf7376b9	-0.9510303
140	0xbde6f9d1	-0.112781174
141	0xbf46958b	-0.77571934
142	0xbef16668	-0.47148442
143	0x3f03ef91	0.51537424
144	0xbf16ad28	-0.58857965
145	0xbec8ca16	-0.3921668
146	0xbe294bcf	-0.16532825
147	0xbf157063	-0.58374614
148	0x3faef76d	1.3669258
149	0xbe846306	-0.258568
150	0xbf2d761f	-0.67758363
151	0x3ea0282b	0.31280646
152	0x3f2ce9e9	0.6754442
153	0xbd5283a6	-0.05139508
154	0xbf084424	-0.53228974
155	0x3eacc550	0.33744287
156	0x3dc62f10	0.09676945
157	0x3c792278	0.015205972
158	0xbf15c1ab	-0.5849864
159	0xbf9303f8	-1.1485586
160	0xbef26e94	-0.4734999
161	0xbf166969	-0.58754593
162	0xbf25e333	-0.64799803
163	0xbf07138b	-0.52764195
164	0xbe8271c3	-0.25477418
165	0xbed52d8b	-0.4163631
166	0x3f102e75	0.5632089
167	0xbd87c1d0	-0.06628764
168	0xbd34f124	-0.044175282
169	0x3e7d6cf3	0.24748592
170	0xbf3e58fc	-0.7435453
171	0xbf5a303b	-0.85229844
172	0x3f12c5cb	0.5733306
173	0x3e5a7049	0.21331896
174	0xbe9d15b2	-0.30680615
175	0x3f16a0bd	0.5883902
176	0x3c93ba19	0.018033074
177	0xbd42f2be	-0.04759478
178	0x3ea521f7	0.32252476
179	0x3cd1e7b9	0.02562319
180	0x3ed34311	0.41262105
181	0x3f4771d6	0.77908075
182	0xbf12104a	-0.57056105
183	0x3dd26608	0.10273367
184	0x3f34e0d1	0.7065554
185	0xbf0bea06	-0.54653966
186	0x3e3603f2	0.17774943
187	0x3ec02a1f	0.37532136
188	0xbe3ab776	-0.18234047
189	0xbe5ba42d	-0.21449347
190	0xbec5a9e5	-0.38606182
191	0xbe3c12c8	-0.1836654
192	0xbdbc9814	-0.09208694
193	0x3ec8321c	0.3910073
194	0x3f224005	0.63378936
195	0xbe6c6e94	-0.23089057
196	0x3f5aecdd	0.85517675
197	0x3d0a3495	0.033741552
198	0xbe0d6427	-0.13807736
199	0xbed6cd92	-0.41953713
200	0xbc037081	-0.0080224285
201	0x3dd70db5	0.10500661
202	0xbf286e40	-0.6579323
203	0x3eef45cd	0.4673294
204	0xbe51e511	-0.20497538
205	0x3f50303b	0.81323594
206	0xbe7b4d60	-0.24541235
207	0xbf194a9d	-0.59879476
208	0x3d1d5e47	0.038419988
209	0xbe706f1a	-0.23479882
210	0xbecd7d00	-0.4013443
211	0xbf5a85f1	-0.8536063
212	0xbf467ca0	-0.7753391
213	0xbedd86fc	-0.43267047
214	0x3d867fac	0.0656732
215	0x3da33874	0.07969752
216	0xbef7d503	-0.48404703
217	0xbf534c94	-0.82538724
218	0x3e84a435	0.2590653
219	0x3edb72de	0.42861074
220	0x3d9db32e	0.077001914
221	0xbec3adec	-0.3821863
222	0xbdb59b35	-0.08867494
223	0x3f80f03f	1.0073317
224	0x3e265aad	0.16245528
225	0xbe7aaab3	-0.24479179
226	0x3e0f252b	0.13979022
227	0x3e87708d	0.26453057
228	0xbf762d33	-0.9616272
229	0x3e8b26e9	0.27178124
230	0xbece3194	-0.402722
231	0xbf491c5d	-0.78558904
232	0xbe119023	-0.1421514
233	0xbd6c9205	-0.057756443
234	0x3f513750	0.81725025
235	0xbeb05556	-0.34440106
236	0x3f160adc	0.5861032
237	0x3fb4aa20	1.4114418
238	0x3e65af2c	0.22430104
239	0x3eacfed8	0.3378818
240	0xbec4ff47	-0.3847601
241	0xbf91130e	-1.133394
242	0xbeb6b304	-0.35683453
243	0xbe6ea578	-0.23305309
244	0xbe25a0f8	-0.16174686
245	0x3f297c20	0.66205025
246	0xbec84ef6	-0.39122742
247	0x3e77629e	0.24158713
248	0xbe20ca51	-0.15702178
249	0xbec0a901	-0.3762894
250	0x3e824e9e	0.25450605
251	0x3f1e8ec5	0.619366
252	0xbefdffef	-0.49609324
253	0x3ed2cc77	0.4117162
254	0xbe8d4f25	-0.27599445
255	0x3f420e01	0.7580262

decoder_net.8.bias f4 [128]
0	0xbd571f8a	-0.052520312
1	0x3d7fda1a	0.062463857
2	0xbd0f68ca	-0.035012044
3	0x3db49ccb	0.088189684
4	0x3d525fbe	0.051360838
5	0x3c79c7e4	0.015245412
6	0x3ce4c5b4	0.027926303
7	0x3b1b23ac	0.0023672385
8	0x3d2f1bee	0.042751245
9	0x3cdc9d48	0.026930466
10	0xbd1e8f27	-0.03871074
11	0x3d6bc786	0.057563327
12	0xbcd5ecd4	-0.026113905
13	0x3d7e0846	0.06201961
14	0x3d7a96a6	0.061178826
15	0x3d1c526e	0.03816455
16	0x3d90d0cd	0.070710756
17	0xbd24dc77	-0.040249314
18	0x3bf5ea10	0.007504709
19	0xbd5678eb	-0.05236141
20	0xbd36bb3e	-0.04461216
21	0x3d079540	0.03310132
22	0x3d6b16fe	0.057394974
23	0xbd971cf0	-0.07378566
24	0xbda00187	-0.07812791
25	0x3d3449d6	0.044015728
26	0xb96ea9d4	-0.00022760715
27	0x3c94aaf0	0.018147916
28	0xbcc5fe48	-0.024169102
29	0xbd313126	-0.043259762
30	0xbd93b286	-0.07211785
31	0x3d0ad012	0.033889838
32	0xbb484a4c	-0.0030561863
33	0xbd9d7747	-0.07688766
34	0xbd5fe471	-0.054661218
35	0xbd15741b	-0.03648768
36	0xbda43840	-0.08018541
37	0xbc378768	-0.011201717
38	0xbd0536ad	-0.032522846
39	0xbd3e1494	-0.046406344
40	0xbca7e84c	-0.02049651
41	0x3db385b3	0.087657355
42	0xbd92dac0	-0.071706295
43	0xbda113a0	-0.07865071
44	0x3c078210	0.008270755
45	0xbd8c4331	-0.06848753
46	0xbc1e66a8	-0.00966803
47	0xbc56f9dc	-0.013121095
48	0xbd5af1e1	-0.05345333
49	0x3c388fc8	0.011264749
50	0x3d154837	0.036445823
51	0xbd5d8972	-0.054086156
52	0xbcf262f4	-0.0295882
53	0x3ce1f98c	0.027584814
54	0x3bab0f90	0.005220361
55	0xbd83e6cd	-0.06440506
56	0xbd12c28e	-0.035830073
57	0x3bcf4dc8	0.006326411
58	0x3d0e2d22	0.03471101
59	0xbcd382f4	-0.02581928
60	0x3d50191a	0.05080519
61	0x3db01419	0.08597583
62	0x3c802390	0.015641958
63	0x3cf7ed38	0.030264482
64	0xbd3f33f4	-0.046680406
65	0xbd4df216	-0.0502797
66	0x3cbe6998	0.02324371
67	0xbcaeab88	-0.021322027
68	0x3d995d3d	0.07488487
69	0xbc52e444	-0.012871806
70	0xbd1bc8bb	-0.03803323
71	0x3d03b240	0.032152414
72	0xbce87f1a	-0.02838092
73	0xbda93985	-0.08262924
74	0xbcc76628	-0.024340704
75	0xbd9543cc	-0.07288322
76	0xbda4b8cc	-0.0804306
77	0xbc0f2689	-0.008737215
78	0xbd0c9173	-0.0343184
79	0xbce55e6a	-0.027999122
80	0xbd6478a8	-0.05577913
81	0x3c610f8c	0.013736617
82	0xbd356408	-0.04428485
83	0xbd312090	-0.043243945
84	0xbd180c1a	-0.037120916
85	0xbd82cff3	-0.063873194
86	0xbcb87548	-0.022516862
87	0xbd52598a	-0.051354922
88	0xbd598136	-0.05310174
89	0x3d6464d8	0.055760235
90	0xbcd23f88	-0.02566506
91	0xbd00480c	-0.03131871
92	0xbd899702	-0.067182556
93	0xbbf42730	-0.0074509606
94	0xbda03c74	-0.078240305
95	0x3d01f550	0.03172809
96	0xbcd8ec8a	-0.026479978
97	0x3d5f63a2	0.054538377
98	0xbd1f87d8	-0.03894791
99	0xbd686140	-0.05673337
100	0xbd1e2e77	-0.03861853
101	0xbd6828a6	-0.05667939
102	0xbd8996ba	-0.06718202
103	0x3cbe5818	0.023235366
104	0xbd7bac9c	-0.06144391
105	0x3a46330c	0.0007560707
106	0xbcd7ed22	-0.02635819
107	0x3d67cc72	0.05659146
108	0x3d6a2fea	0.0571746
109	0xbd881374	-0.066443354
110	0x3d42d732	0.047568507
111	0xbd76e0cc	-0.060272977
112	0xbda709a0	-0.08156133
113	0x3d71c5ea	0.059026636
114	0xb97695aa	-0.00023516142
115	0xbd60c997	-0.05487975
116	0x3d3eaeee	0.046553545
117	0x3d99e375	0.07514087
118	0x3d35cf9a	0.044387437
119	0x3d816c2f	0.063194625
120	0xbccbfe5e	-0.024901565
121	0x3c1c0bb0	0.009524271
122	0xbd962b54	-0.07332483
123	0x3d063a72	0.03277058
124	0x3d2c004a	0.041992463
125	0x3d84451d	0.06458495
126	0x3d79672e	0.060889415
127	0xbd2e19e2	-0.042505153
