Action_Net.pt (torch, 54882 bytes, 12 tensors)

decoder_net.0.weight f4 [32, 255]
0	0x3dc99280	0.09842396
1	0x3e4faa0e	0.20279714
2	0x3ec2937f	0.38003156
3	0x3e0672c0	0.13129711
4	0x3e8f31ca	0.27967674
5	0x3eb11e20	0.34593296
6	0xbebf14a0	-0.37320423
7	0xbe813b1d	-0.25240412
8	0x3e8c76ac	0.2743429
9	0x3db17a49	0.08665902
10	0xbe96d55c	-0.29459655
11	0x3e13a0b6	0.14416775
12	0xbeee1690	-0.4650159
13	0xbe4ad53e	-0.19807908
14	0x3e74e1ac	0.23914212
15	0xbcb9b00f	-0.02266696
16	0xbeaa5b37	-0.33272716
17	0x3e7b04a6	0.24513492
18	0x3cea5185	0.028603325
19	0xbd961636	-0.07328455
20	0xbef5fea0	-0.48045826
21	0xbe1f48ae	-0.15555069
22	0x3d3ec016	0.046569906
23	0xbe8720e9	-0.26392296
24	0x3db09409	0.086219855
25	0xbeb7e98b	-0.35920367
26	0x3eccb7e5	0.3998405
27	0x3ec0f466	0.3768646
28	0x3e953f0d	0.29149666
29	0xbd3af25c	-0.04564129
30	0xbef7bb8a	-0.48385268
31	0xbe4e2107	-0.20129786
32	0xbd0ac141	-0.033875708
33	0xbee4fb83	-0.44723138
34	0x3ec3de60	0.38255596
35	0x3e198682	0.14992717
36	0x3ebbd694	0.36687148
37	0xbee0e950	-0.43928003
38	0xbe793c09	-0.24339308
39	0x3de15f19	0.110044666
40	0x3b6b2bc7	0.0035884248
41	0xbe8edb82	-0.27901846
42	0x3ec44b58	0.38338733
43	0x3e506d59	0.20354213
44	0xbcaf5077	-0.021400673
45	0x3ee93436	0.45547646
46	0xbf014bd1	-0.5050631
47	0xbedf6af7	-0.43636295
48	0x3dc039a2	0.093859926
49	0x3ee83e82	0.4536019
50	0x3e8ec6a0	0.27885914
51	0xbe8ac9e3	-0.27107152
52	0x3eb7b05a	0.35876733
53	0x3e85f807	0.26165792
54	0x3d28bd13	0.04119594
55	0x3ea3e808	0.32012963
56	0x3dccf03b	0.10006758
57	0xba8ecea8	-0.0010895329
58	0xbe0c2b6d	-0.1368844
59	0xbe8bdfa8	-0.27319074
60	0xbea02efb	-0.31285843
61	0xbd63ead1	-0.05564386
62	0xbeae8fa1	-0.34093955
63	0x3e5eb1c9	0.21747507
64	0x3e26dbc8	0.16294777
65	0xbefa6842	-0.48907667
66	0xbeb89994	-0.3605467
67	0x3eb50d86	0.3536188
68	0xbe7d0138	-0.24707496
69	0xbc3dac88	-0.011576779
70	0xbea7a9cf	-0.3274674
71	0xbde6f83b	-0.11277815
72	0x3e8675d3	0.26261768
73	0x3e052a92	0.1300452
74	0x3e78f155	0.24310811
75	0xbc63bde5	-0.013900255
76	0xbece2922	-0.40265757
77	0xbc3b5e6c	-0.011436086
78	0x3e9bc4ee	0.30423683
79	0x3de65017	0.11245745
80	0x3dfb568e	0.12272368
81	0x3ddbef8a	0.10739048
82	0x3ed8ce85	0.42345062
83	0x3e8027a8	0.25030255
84	0xbda6f26f	-0.08151709
85	0xbe92d170	-0.28675413
86	0x3ece2f27	0.4027035
87	0xbe84ba8a	-0.25923568
88	0xbeb1201a	-0.34594804
89	0x3e26695d	0.1625113
90	0xbeabaacf	-0.33528754
91	0xbede4294	-0.4341017
92	0xbec3484e	-0.38141102
93	0x3df5e9bc	0.12007472
94	0xbea9dbdd	-0.33175555
95	0x3ee04fd7	0.43810913
96	0xbc34dc5d	-0.011038867
97	0xbe5dad39	-0.2164811
98	0xbea3e3f8	-0.32009864
99	0xbe17c297	-0.14820324
100	0x3edf2571	0.43583253
101	0xbe9beeb9	-0.30455568
102	0xbee71721	-0.45134833
103	0x3e1cefae	0.15325806
104	0x3e30ac13	0.17253141
105	0xbeddadf6	-0.43296784
106	0xbe67a317	-0.22620808
107	0x3eda8f9c	0.4268769
108	0xbe73156b	-0.23738639
109	0x3e5d6147	0.2161914
110	0xbe72eb02	-0.23722461
111	0xbedaa489	-0.42703655
112	0xbef6eaa9	-0.48225906
113	0x3ec2e261	0.38063338
114	0x3e38a844	0.18032938
115	0x3e15cae3	0.14628176
116	0x3e28860c	0.16457385
117	0x3e4f5fa2	0.20251325
118	0x3ead1223	0.338029
119	0x3ec2e6df	0.38066766
120	0x3ec73e2e	0.38914627
121	0x3e25c08b	0.1618673
122	0x3db1373c	0.08653113
123	0x3de7643d	0.11298416
124	0xbecfb157	-0.40564987
125	0x3e5b5057	0.21417366
126	0x3e0c6851	0.13711669
127	0x3e7956b6	0.24349484
128	0xbe027c4b	-0.12742727
129	0x3ed39a82	0.41328818
130	0x3d500edd	0.050795425
131	0xbe0049c8	-0.12528145
132	0xbc4a8eaa	-0.012363115
133	0xbe5c7ae8	-0.2153126
134	0xbd974457	-0.07386082
135	0x3eda964e	0.42692798
136	0x3e2a352e	0.16621849
137	0xbd4f8542	-0.050664194
138	0x3c8a1664	0.01685638
139	0x3de65156	0.11245982
140	0xbe942535	-0.28934637
141	0xbe87f713	-0.2655569
142	0x3ee401c8	0.4453261
143	0x3c79837e	0.015229104
144	0x3e14d6ae	0.14535019
145	0xbe72aa8a	-0.23697868
146	0xbeb5b66a	-0.35490733
147	0x3dcb954d	0.09940586
148	0x3e95dc3b	0.29269585
149	0xbee5c39b	-0.44875798
150	0xbf029418	-0.51007223
151	0xbe1f3f3a	-0.15551463
152	0x3ea447bc	0.3208598
153	0xbedd1f57	-0.43187973
154	0x3ecb9877	0.3976476
155	0x3ee6d722	0.45086008
156	0xbe05567e	-0.13021275
157	0x3d3751c6	0.04475572
158	0xb9a97b25	-0.00032325942
159	0x3ef9f9dd	0.48823443
160	0x3da300fe	0.079591736
161	0x3e0388fa	0.12845221
162	0xbe3bb0b4	-0.18329126
163	0x3bce74c1	0.0063005392
164	0xbe86f87d	-0.26361457
165	0x3d3eab15	0.046549875
166	0xbd97659c	-0.07392427
167	0x3ddfd66b	0.10929569
168	0x3daec51e	0.08533691
169	0xbeda54f1	-0.4264293
170	0x3eaaba94	0.33345473
171	0x3e8c913c	0.27454555
172	0x3eb402d0	0.35158396
173	0x3ebc3184	0.36756527
174	0x3e04993a	0.12949076
175	0x3e8c0f58	0.27355456
176	0x3e7ca4b8	0.2467221
177	0x3e98b9d2	0.2982927
178	0xbe99864d	-0.29985276
179	0x3e72e17b	0.23718826
180	0xbd20e327	-0.03927913
181	0x3e466a04	0.19376379
182	0x3e3c989a	0.18417588
183	0xbebe1d29	-0.37131622
184	0xbe67c562	-0.2263389
185	0xbeb58e3a	-0.35460073
186	0xbe072699	-0.13198318
187	0x3e25ae47	0.16179763
188	0x3defe1a2	0.11712958
189	0x3ecb4332	0.39699703
190	0xbeb822eb	-0.3596414
191	0x3e20aa09	0.15689863
192	0x3ed15d70	0.408916
193	0xbec47f8e	-0.38378567
194	0xbebffceb	-0.3749765
195	0x3df774de	0.120828375
196	0xbe4eb4b2	-0.20186117
197	0x3e036e46	0.12835035
198	0xbe764b79	-0.24052228
199	0x3d85241a	0.065010265
200	0xbed83cea	-0.42233974
201	0x3ecbf724	0.3983699
202	0xbea2cfaa	-0.3179906
203	0xbeea228c	-0.45729482
204	0xbe83fbe0	-0.25778103
205	0x3c39502c	0.011310618
206	0x3ef08168	0.4697373
207	0x3dd72be4	0.10506418
208	0xbdd4431b	-0.10364362
209	0xbeb78fd2	-0.35851914
210	0x3e6a031e	0.22852752
211	0x3d17fca8	0.037106186
212	0xbe134783	-0.14382748
213	0xbe0e9857	-0.139253
214	0x3d975432	0.07389106
215	0x3e96d3e3	0.29458532
216	0xbe9950ca	-0.2994445
217	0xbdf56f19	-0.11984081
218	0x3e71c1bc	0.2360906
219	0xbeaeac11	-0.3411565
220	0xbc3e6f3e	-0.011623202
221	0x3ecf53c5	0.404936
222	0x3eb2cced	0.3492197
223	0xbecca98f	-0.39973113
224	0xbe6f260c	-0.23354357
225	0x3da5e9c0	0.08101225
226	0x3ea1c779	0.31597498
227	0xbe4c958c	-0.19978923
228	0xbee7af4d	-0.4525093
229	0xbc9225f6	-0.017840367
230	0x3ea0a704	0.31377423
231	0xbe830a53	-0.25593814
232	0xbeeaf832	-0.45892483
233	0x3d0fb305	0.035082836
234	0x3ed4c881	0.41559222
235	0xbececa2e	-0.40388626
236	0x3ddd6a83	0.10811331
237	0x3ea2378b	0.31683
238	0x3c80e63a	0.01573478
239	0xbe88972a	-0.2667783
240	0xbe3832b3	-0.1798809
241	0xbea7b762	-0.32757097
242	0x3d1780ab	0.03698794
243	0xbe5daa8d	-0.21647091
244	0x3c8fd1c1	0.017556073
245	0xbddf8806	-0.10914616
246	0xbeaea25b	-0.34108242
247	0x3ef7d0c3	0.4840146
248	0x3df24353	0.11829247
249	0x3e7d8535	0.24757846
250	0x3e97ad28	0.29624295
251	0x3e4ea218	0.20179021
252	0xbdf069ad	-0.11738906
253	0xbe1c2061	-0.15246727
254	0xbe8c88ff	-0.2744827
255	0xbed570a1	-0.41687492

decoder_net.0.bias f4 [32]
0	0xbd00d90e	-0.031457
1	0xbc088129	-0.008331575
2	0x3c33c69a	0.010972643
3	0x3d094aea	0.03351871
4	0xbd67592d	-0.05648153
5	0xbd1a86d8	-0.037726253
6	0xbca48407	-0.020082487
7	0x3d82a186	0.063784644
8	0x3d78866a	0.060675062
9	0xbd0426bd	-0.032263506
10	0xbd2c5040	-0.04206872
11	0x3a948b88	0.0011333087
12	0xbc3fbfb2	-0.011703419
13	0xbd1d7a3e	-0.038446657
14	0xbd5356a8	-0.051596314
15	0xbc8352b6	-0.01603065
16	0xbc3baf6f	-0.011455401
17	0xbb9fbd3b	-0.004874853
18	0x3b96450f	0.004585869
19	0xbd89aad6	-0.067220375
20	0x3d55d7a9	0.052207623
21	0xbd689924	-0.05678667
22	0xbc9dc42f	-0.019258587
23	0x3d7e17f2	0.062034555
24	0xbbfe748c	-0.0077653583
25	0xbd303f8e	-0.04302936
26	0x3cac4516	0.021029036
27	0xbcf6c34d	-0.030122424
28	0x3d8bbf03	0.06823542
29	0xbc6f107b	-0.014591332
30	0xbd55c20a	-0.052187003
31	0xbd5a0afe	-0.05323314

decoder_net.2.weight f4 [32, 32]
0	0xbccea411	-0.025224717
1	0x3d1f8734	0.0389473
2	0xbedeaa28	-0.43489194
3	0x3ea46adf	0.32112786
4	0x3ea92da4	0.33042634
5	0x3ef5d903	0.4801713
6	0x3db78fa0	0.08962941
7	0xbe109174	-0.14117986
8	0xbd915d95	-0.070979275
9	0xbe223f37	-0.15844427
10	0xbee939ef	-0.45552012
11	0x3e2f7034	0.17132646
12	0x3d8711b9	0.06595177
13	0xbe1dbd0e	-0.1540415
14	0xbe8f338f	-0.27969024
15	0xbde9be7a	-0.11413284
16	0x3e0fb929	0.14035477
17	0x3ebc78d6	0.3681094
18	0x3e52aa79	0.20572843
19	0x3eb55eaf	0.354238
20	0x3ecef60d	0.40422097
21	0xbe781060	-0.24224997
22	0xbbd30816	-0.006440173
23	0xbed4de6a	-0.41575938
24	0xbe91ee1a	-0.2850197
25	0x3e470ad3	0.19437723
26	0x3e4271fa	0.18988791
27	0x3e636718	0.22207296
28	0x3ed8b3e6	0.42324752
29	0x3e51633a	0.20448008
30	0xbe786d5a	-0.24260464
31	0xbdd373cb	-0.1032482
32	0x3d46320b	0.04838757
33	0x3e6db20a	0.23212448
34	0xbe79f0e8	-0.24408305
35	0xbe4df86b	-0.20114295
36	0x3e4c0759	0.19924678
37	0x3e25ff14	0.16210586
38	0x3eea9a84	0.4582101
39	0x3ed73dee	0.42039436
40	0xbe612fd5	-0.21990903
41	0x3e3dd390	0.18537736
42	0xbe9e710f	-0.30945632
43	0xbc1d5880	-0.00960362
44	0xbd1a75a9	-0.037709866
45	0x3de3a94a	0.11116274
46	0x3eda1b43	0.42598924
47	0xbec80413	-0.39065608
48	0x3ef10dd2	0.47080857
49	0x3eabfd04	0.33591473
50	0xbe6aa1d6	-0.22913298
51	0xbe1ce81c	-0.15322918
52	0xbdf2dda4	-0.11858681
53	0x3e9b4130	0.30323172
54	0xbdefe766	-0.117140576
55	0x3e44eb74	0.19230443
56	0xbe43395b	-0.19064848
57	0x3ed3fefc	0.41405475
58	0xbd9405c1	-0.0722766
59	0x3ef293d0	0.47378397
60	0xbec08a91	-0.37605718
61	0xbe0df02f	-0.13861154
62	0x3eab06c8	0.3340361
63	0x3e3a08c8	0.18167412
64	0xbe777d0d	-0.24168797
65	0xbed141c7	-0.40870497
66	0xbeb9f144	-0.36316884
67	0xbed2a3d7	-0.41140625
68	0xbe89371a	-0.26799852
69	0xbea1a31a	-0.3156975
70	0xbe21497b	-0.15750687
71	0x3ee36aea	0.44417506
72	0xbdf3be02	-0.119014755
73	0xbe978b62	-0.29598528
74	0x3e720f3f	0.23638628
75	0xbe8e4153	-0.27784213
76	0xbe7eb042	-0.24871925
77	0xbdc20402	-0.09473421
78	0xbd70a728	-0.058753163
79	0xbe95833b	-0.29201683
80	0xbec436fa	-0.38323194
81	0xbf005ade	-0.5013865
82	0xbe4bc893	-0.19900732
83	0x3e7566f6	0.23965058
84	0x3ce6a944	0.028156884
85	0x3ec5cb05	0.38631454
86	0x3dc7ca73	0.09755411
87	0xbeb9d43c	-0.36294734
88	0x3d7332b6	0.059374534
89	0xbde9e169	-0.11419947
90	0x3e967809	0.29388455
91	0x3e03688d	0.12832852
92	0x3ef33d1f	0.4750757
93	0xbede8da1	-0.4346743
94	0xbe656a3f	-0.22403811
95	0xbed384dc	-0.413123
96	0x3d666dc7	0.056257036
97	0xbea1bdfc	-0.3159026
98	0xbe488601	-0.19582368
99	0x3efb63b0	0.49099493
100	0xbe4510ea	-0.19244733
101	0x3e6b8965	0.2300163
102	0x3e9d83c6	0.30764598
103	0x3ec67176	0.3875844
104	0x3ed7d8e7	0.4215767
105	0x3e9dc1d9	0.30811957
106	0x3d55ecaa	0.052227654
107	0x3ede211a	0.4338463
108	0x3ef74c61	0.4830046
109	0xbeb912f0	-0.3614726
110	0x3db3a960	0.0877254
111	0x3eba9b90	0.3644681
112	0xbea60c01	-0.32431033
113	0x3e3a7c43	0.18211465
114	0x3ea56715	0.32305208
115	0x3cc35cff	0.023848055
116	0xbe20c0ff	-0.15698622
117	0xbd597b5f	-0.05309617
118	0x3ee145c4	0.4399854
119	0xbec8d93f	-0.39228246
120	0x3e5d1f2d	0.21593924
121	0xbe83b6b9	-0.25725344
122	0x3eb2bf35	0.34911504
123	0xbe5f726f	-0.21820997
124	0x3dc13034	0.09433022
125	0x3ea8176a	0.32830364
126	0xbd539a7f	-0.05166101
127	0xbd90f57e	-0.07078074
128	0x3eea42de	0.4575414
129	0x3ef0cecc	0.47032773
130	0x3e8b9c2d	0.2726759
131	0x3c94f33e	0.018182393
132	0x3a8fa4f4	0.0010959194
133	0xbea07720	-0.31340885
134	0x3eab3800	0.33441162
135	0x3e724806	0.23660287
136	0x3ed00c6a	0.4063447
137	0xbea43093	-0.3206831
138	0x3e0fc06f	0.14038251
139	0x3de0f077	0.10983365
140	0xbe0ab2d8	-0.13544786
141	0xbd58fa42	-0.05297304
142	0x3dc03c9c	0.0938656
143	0xbe0592e5	-0.13044317
144	0x3ef5ca32	0.48005825
145	0xbee8e174	-0.45484507
146	0xbd83dfbc	-0.06439158
147	0xbe6d1f3a	-0.23156443
148	0x3ebe2abe	0.37141985
149	0xbe3eb126	-0.18622264
150	0xbde5cbe5	-0.112205304
151	0x3edf6748	0.43633485
152	0xbedbf2e8	-0.4295876
153	0xbe230d93	-0.15923147
154	0x3ee1fca8	0.44138074
155	0x3eb363e1	0.3503714
156	0xbe1836bb	-0.14864628
157	0xbdb2d165	-0.08731345
158	0xbe6cf790	-0.23141313
159	0x3dda7e65	0.10668639
160	0x3e14d1da	0.14533177
161	0x3eacefc1	0.33776668
162	0x3e608e37	0.2192925
163	0x3e7f7089	0.24945273
164	0xbd9b8888	-0.07594401
165	0xbeb832f6	-0.3597638
166	0x3e8b3e89	0.27196148
167	0xbc61c42a	-0.013779679
168	0xbea70fd1	-0.32629254
169	0x3d6ad1df	0.057329055
170	0x3efa5eb4	0.48900378
171	0xbd282f4c	-0.04106073
172	0xbedd33d7	-0.43203613
173	0x3e9a4e7c	0.30138004
174	0x3ec4f5e2	0.38468844
175	0xbea1fed3	-0.31639728
176	0xbedef6ba	-0.43547612
177	0xbeb9daa3	-0.3629962
178	0x3e52a67f	0.20571326
179	0xbe60205c	-0.21887344
180	0xbef61b37	-0.48067638
181	0xbd08a0c9	-0.03335646
182	0xbe7ff3d2	-0.24995354
183	0xbe14eb8a	-0.14542976
184	0xbe45265e	-0.19252917
185	0xbe2a88e1	-0.16653778
186	0xbea79b67	-0.3273575
187	0xbdcccf3d	-0.10000465
188	0xbea2a46d	-0.31766072
189	0xbd83c845	-0.06434683
190	0xbe9e988c	-0.3097576
191	0x3cf58721	0.029971661
192	0x3ec18c87	0.37802526
193	0xbe5c5eca	-0.21520534
194	0xbd340a50	-0.043955147
195	0xbd89f340	-0.067358494
196	0xbe19e0bc	-0.15027136
197	0xbebebfbd	-0.3725566
198	0x3dc83569	0.09775812
199	0xbcae17e6	-0.02125163
200	0x3d4a08d0	0.04932481
201	0xbdd790ac	-0.10525641
202	0xbea7729a	-0.32704622
203	0xbe20ce26	-0.1570364
204	0x3e88ecb3	0.26743087
205	0x3ea37962	0.31928545
206	0xbe3dee55	-0.18547948
207	0x3e97646d	0.29568806
208	0xbe870703	-0.26372537
209	0xbd590a0e	-0.052988105
210	0xbed95a61	-0.42451766
211	0xbdae575c	-0.08512756
212	0x3e02d1de	0.1277537
213	0x3e8faf3e	0.28063387
214	0x3e4de378	0.20106304
215	0x3e83e4a2	0.2576037
216	0xbdad1c54	-0.08452669
217	0x3f0484b8	0.5176501
218	0xbeca7036	-0.39538735
219	0xbe075a2a	-0.13217989
220	0xbdd7a5db	-0.10529681
221	0x3eb9cd30	0.36289358
222	0x3dfa8936	0.12233202
223	0x3f0255ae	0.50911987
224	0xbea682e6	-0.32521743
225	0x3e1d4f3c	0.15362257
226	0xbed2b4d1	-0.41153577
227	0x3e2c2d61	0.16814186
228	0xbe583432	-0.21113661
229	0xbe6286aa	-0.22121683
230	0x3d5a1b10	0.053248465
231	0x3d82f4dd	0.0639436
232	0x3f003c89	0.5009237
233	0x3ecf0034	0.40429842
234	0x3d0d5f00	0.034514427
235	0x3e364d7d	0.17802997
236	0x3e05c66f	0.13063978
237	0xbddc32ab	-0.10751852
238	0xbebe7422	-0.37197977
239	0xbece5e26	-0.40306205
240	0x3d6cf570	0.057851255
241	0xbe49b049	-0.19696154
242	0x3eeeedc9	0.4666579
243	0xbe616b04	-0.2201348
244	0x3de9c0ce	0.11413728
245	0xbe807ec6	-0.2509672
246	0x3f010e20	0.5041218
247	0x3e6c3d72	0.23070315
248	0x3e8d0720	0.27544498
249	0x3e11d849	0.14242662
250	0xbd6c9bc5	-0.05776574
251	0xbe2e2853	-0.1700757
252	0xbe69c6f1	-0.22829796
253	0xbed84f8d	-0.42248192
254	0xbd9bdbac	-0.076102585
255	0xbe3f6406	-0.186905

decoder_net.2.bias f4 [32]
0	0x3ddd8921	0.10817171
1	0xbdd1e165	-0.10248069
2	0xbd191ee6	-0.037382983
3	0x3b52c0c5	0.0032158357
4	0x3dea95f1	0.1145438
5	0x3d9dfbd9	0.07714052
6	0x3e13d01e	0.14434859
7	0xbdd49c4e	-0.10381375
8	0xbd02238f	-0.031772193
9	0xbcf7968b	-0.030223152
10	0x3e08f12d	0.13373251
11	0x3e3ecf72	0.18633822
12	0x3d15463b	0.03644393
13	0xbe0331df	-0.12811993
14	0xbe18b89a	-0.1491417
15	0x3d1089b9	0.035287593
16	0xbe254fa0	-0.16143656
17	0xbda93bac	-0.08263335
18	0xbe1e7932	-0.1547592
19	0x3dc57607	0.096416526
20	0x3b2218d0	0.0024734028
21	0xbe262a2b	-0.16227023
22	0x3de9ab99	0.11409683
23	0xbe1c6788	-0.15273869
24	0xbcd36223	-0.025803631
25	0x3e1a1cbe	0.15050027
26	0x3db7e6e9	0.089795895
27	0xbe1dfd42	-0.15428641
28	0x3cb131d5	0.021630207
29	0xbd37545e	-0.044758193
30	0x3d82f379	0.06394095
31	0x3e37ab27	0.17936383

decoder_net.4.weight f4 [32, 32]
0	0x3e6a5c92	0.22886875
1	0x3e24e317	0.16102253
2	0x3ed40dc5	0.41416755
3	0x3ca1d3c8	0.019754305
4	0x3e9694e9	0.29410484
5	0x3e981465	0.2970306
6	0x3cb43959	0.022000002
7	0xbe9714ee	-0.29508156
8	0xbed9653e	-0.42460054
9	0x3eb245a7	0.34818766
10	0xbeee9682	-0.46599203
11	0x3e657e30	0.22411418
12	0xbe5b51d5	-0.21417935
13	0xbd1ffc2e	-0.039058857
14	0x3e87703b	0.26452813
15	0xbeff8839	-0.49908617
16	0x3eb11860	0.3458891
17	0x3d1879d9	0.037225578
18	0x3ea34a85	0.3189279
19	0x3de29f5a	0.1106555
20	0x3e85b7e2	0.26116854
21	0xbe14ae85	-0.14519699
22	0xbe6aca60	-0.22928762
23	0x3e6a9e45	0.22911938
24	0xbeeeee91	-0.46666387
25	0xbeb41162	-0.35169512
26	0xba70ac7e	-0.0009180977
27	0x3ee7a672	0.45244175
28	0x3deb43a2	0.11487509
29	0xbe586743	-0.21133141
30	0x3e9937e3	0.2992545
31	0x3e78d2db	0.24299185
32	0x3e357787	0.17721377
33	0x3eed5a8b	0.4635814
34	0x3ebf39b7	0.3734872
35	0x3e37921c	0.1792683
36	0xbef947c6	-0.4868757
37	0x3e722046	0.23645124
38	0x3e892419	0.26785353
39	0xbe8c625c	-0.27418792
40	0x3ea3b03a	0.31970388
41	0x3ef909e3	0.48640355
42	0x3e1fa3c8	0.15589821
43	0x3ea3f155	0.3202006
44	0x3e9cd583	0.30631647
45	0xbdca69a4	-0.098834306
46	0xbedaf5a6	-0.4276554
47	0xbe3fc616	-0.18727908
48	0x3e97fe32	0.29686123
49	0xbec6d17c	-0.388317
50	0x3ed5ad1a	0.4173363
51	0x3de2dfa2	0.11077811
52	0xbe406157	-0.18787132
53	0x3ecbf7f9	0.39837626
54	0xbeccceb5	-0.40001455
55	0xbd5cc6ed	-0.053900648
56	0xbef4bad0	-0.47798777
57	0x3e6547b8	0.2239064
58	0x3da7526b	0.08170017
59	0x3ea2b4ac	0.31778467
60	0xbe77d4ad	-0.24202223
61	0x3eb4f143	0.35340318
62	0xbeff8864	-0.49908745
63	0x3ed06835	0.40704504
64	0x3e54989a	0.20761338
65	0x3e06dec2	0.13170913
66	0xbec975c3	-0.39347658
67	0xbe80b898	-0.25140834
68	0xbda1080d	-0.07862864
69	0x3e8bf290	0.27333498
70	0x3eba382f	0.3637099
71	0x3eef98bf	0.46796224
72	0x3df93a6f	0.121693484
73	0xbdf5d883	-0.12004187
74	0xbed98c75	-0.42489973
75	0xbc2df0d1	-0.010616497
76	0x3da23583	0.07920363
77	0xbe577b00	-0.21043015
78	0x3e5c0aa4	0.21488434
79	0xbeac8d62	-0.33701617
80	0x3db0e5d6	0.08637588
81	0xbc0c111c	-0.008549001
82	0xbeb936ee	-0.3617472
83	0xbee7a080	-0.4523964
84	0xbed0a368	-0.4074967
85	0x3ef64910	0.48102617
86	0xbe313d14	-0.17308456
87	0x3dd9377d	0.10606287
88	0xbe1a2c67	-0.15056
89	0x3dbbcd99	0.09170074
90	0xbecf3dff	-0.40476987
91	0x3e6ae427	0.22938596
92	0x3ece8311	0.4033437
93	0xbd02a3f9	-0.031894658
94	0x3ca9a505	0.02070857
95	0xbed2bea0	-0.4116106
96	0xbe9ec333	-0.310083
97	0xbec6ef9f	-0.3885469
98	0x3eeaa016	0.4582526
99	0xbd00931f	-0.031390306
100	0x3e28db26	0.16489848
101	0xbd8b3aa1	-0.06798292
102	0x3e73cc46	0.23808393
103	0x3eb92390	0.36159945
104	0xbebc5edc	-0.36791122
105	0xbea607d4	-0.32427847
106	0xbe0864bc	-0.13319677
107	0x3d312495	0.043247778
108	0xbdc9b66f	-0.098492496
109	0x3e591602	0.21199802
110	0x3e62252b	0.22084491
111	0x3dd8330f	0.10556614
112	0xbedc844e	-0.4306969
113	0xbe9f1572	-0.3107105
114	0x3e80b7ff	0.25140378
115	0xbe3ec417	-0.1862949
116	0xbeb0e37d	-0.3454856
117	0xbdd82362	-0.10553624
118	0x3ec40f48	0.3829291
119	0x3e043f21	0.12914707
120	0xbe53aabe	-0.20670602
121	0x3ed64f55	0.418574
122	0xbdb449db	-0.08803149
123	0x3ecc6fd0	0.39929056
124	0x3ef91eab	0.4865621
125	0xbec1bb59	-0.37838247
126	0xbdcba63e	-0.099438176
127	0x3ec042a4	0.37550843
128	0xbef63fd3	-0.4809557
129	0x3eb1d2ab	0.3473104
130	0x3ec7dc10	0.39035082
131	0x3eea9e12	0.45823723
132	0xbe3ce2a5	-0.18445833
133	0x3ed657b6	0.41863793
134	0x3dcf41c7	0.10119968
135	0x3ed05424	0.40689194
136	0x3e5ef256	0.21772131
137	0x3c548ca3	0.0129729835
138	0xbefcd133	-0.49378356
139	0xbe9b908c	-0.30383718
140	0x3ed2c1c0	0.41163445
141	0x3e430012	0.19042996
142	0xbe164023	-0.14672904
143	0x3ef86d2d	0.48520795
144	0xbeba6394	-0.36404097
145	0x3eab6757	0.3347728
146	0x3ef6fabb	0.48238167
147	0xbe374e21	-0.17900898
148	0x3e09fa0c	0.13474292
149	0x3ea66c72	0.32504612
150	0xbdeed9a3	-0.11662605
151	0x3dd0d2de	0.1019647
152	0x3e7d6533	0.24745636
153	0xbe15f54d	-0.14644356
154	0xbe8f28be	-0.2796077
155	0x3e14dc75	0.14537223
156	0xbedc4a29	-0.4302533
157	0xbee3991a	-0.44452745
158	0xbb86e1bb	-0.0041162646
159	0xbe7fdfdb	-0.24987738
160	0x3dfa0632	0.12208213
161	0x3db7d894	0.08976856
162	0xbed1915f	-0.40931222
163	0xbe9eab13	-0.30989894
164	0x3f009d85	0.50240356
165	0xbcbe35a8	-0.023218945
166	0xbd8a25b9	-0.06745476
167	0xbe52f1e4	-0.20600086
168	0x3e3fd0d6	0.18732008
169	0x3e444561	0.19167091
170	0x3e4b9ebf	0.19884776
171	0xbe495aea	-0.19663587
172	0x3e87ba6e	0.26509422
173	0x3e9c6f62	0.30553728
174	0x3ef3cd69	0.47617653
175	0xbeeb53c3	-0.45962343
176	0x3e4b6999	0.19864501
177	0xbe43c1f7	-0.1911696
178	0xbe243e44	-0.16039377
179	0xbeb35c54	-0.35031378
180	0x3dfa8d89	0.12234027
181	0xbec55ece	-0.38548893
182	0xbe8d6b12	-0.2762075
183	0xbcdf4f25	-0.027259419
184	0x3e4c699a	0.19962159
185	0x3e50eaaf	0.20402025
186	0x3ea526c1	0.3225613
187	0xbf027a94	-0.5096829
188	0xbe6496c8	-0.22323143
189	0x3d8fb307	0.07016569
190	0xbea45735	-0.32097784
191	0xbe947dec	-0.2900232
192	0xbe45e4c7	-0.19325553
193	0x3e83d311	0.25746968
194	0x3e6b89d9	0.23001803
195	0xbe4b4ca8	-0.19853461
196	0xbe8467d4	-0.25860465
197	0x3dc05395	0.09390942
198	0x3e13dbe4	0.1443935
199	0x3ee174f7	0.4403455
200	0x3ea6f719	0.32610396
201	0xbe09da73	-0.13462238
202	0xbd258c43	-0.040416967
203	0x3e89fcca	0.26950675
204	0x3dd5cf88	0.10439974
205	0x3e808cac	0.25107324
206	0x3ee485ec	0.44633424
207	0x3e2689b1	0.16263463
208	0xbd2fd10b	-0.04292397
209	0xbef40773	-0.47661933
210	0xbe611fd1	-0.21984793
211	0x3e63ffc6	0.22265539
212	0x3eed7a39	0.4638231
213	0x3e19eae4	0.1503101
214	0xbeb71e80	-0.35765457
215	0xbec5992c	-0.38593423
216	0x3ef1c88e	0.47223324
217	0xbe1210e7	-0.1426426
218	0xbe120c3b	-0.14262478
219	0xbdacbf3b	-0.08434912
220	0x3e8d7862	0.27630907
221	0x3ee8820b	0.45411715
222	0x3e52717c	0.20551103
223	0x3ea93fd7	0.33056518
224	0x3edb027b	0.4277533
225	0xbef84717	-0.48491737
226	0xbe4c0fc2	-0.19927886
227	0xbe8b041c	-0.27151573
228	0x3e84c9fc	0.25935352
229	0x3eb9a04c	0.3625511
230	0x3d850f84	0.064971
231	0x3eb3dfc4	0.35131657
232	0xbef4f354	-0.47841895
233	0xbdcb3270	-0.099217296
234	0x3d68c2f6	0.056826554
235	0xbd72b1cb	-0.059251588
236	0x3ec86357	0.3913829
237	0xbe516270	-0.20447707
238	0x3ed3e089	0.41382244
239	0xbe0917a7	-0.13387929
240	0x3d10117c	0.035172924
241	0x3daa9972	0.083300486
242	0x3ed46785	0.4148523
243	0xbdbf17dc	-0.09330723
244	0xbd2bcf1b	-0.041945558
245	0x3eb62b00	0.3557968
246	0x3efe5db1	0.49680856
247	0xbe8ebb05	-0.2787706
248	0x3e19f494	0.15034705
249	0xbc85d08f	-0.0163348
250	0xbef00a65	-0.4688293
251	0xbedc30b8	-0.4300592
252	0xbdfdf345	-0.123999156
253	0xbdf315d1	-0.118693955
254	0x3dd1fd89	0.10253436
255	0xbe84758b	-0.25870928

decoder_net.4.bias f4 [32]
0	0xbcaa3b14	-0.020780124
1	0x3e00fa57	0.12595497
2	0xbd2231b3	-0.039598178
3	0x3d9140eb	0.0709246
4	0x3e049218	0.12946355
5	0x3df7a11a	0.120912746
6	0x3dbdaa86	0.092610404
7	0x3dea0d7e	0.11428355
8	0xbd7395fd	-0.05946921
9	0x3cd2043e	0.025636788
10	0xbda08f04	-0.07839778
11	0xbe213792	-0.15743855
12	0x3e120ed1	0.14263465
13	0xbe34671c	-0.17617458
14	0xbde7cae9	-0.11317999
15	0xbd9d5d29	-0.076837845
16	0xbe2c0643	-0.16799264
17	0xbe1dc1a1	-0.15405895
18	0xbdedf646	-0.116192386
19	0xbb723c43	-0.0036962188
20	0xbe30def7	-0.17272554
21	0xbdf3a5f3	-0.11896887
22	0xbe03cefb	-0.12871926
23	0xbe14eda9	-0.14543785
24	0x3ccab0a8	0.02474244
25	0xbb14a9d0	-0.0022684224
26	0x3d0a42df	0.03375518
27	0x3e11525e	0.14191577
28	0xbdb54939	-0.08851857
29	0xbd93a256	-0.072086975
30	0x3d66da87	0.056360748
31	0x3e0dc0a6	0.13843021

decoder_net.6.weight f4 [32, 32]
0	0xbe2829d4	-0.16422206
1	0x3ef68267	0.48146364
2	0xbd425d48	-0.04745224
3	0x3bd48604	0.0064857025
4	0x3e4e5164	0.20148236
5	0xbec7a000	-0.38989258
6	0x3ecc73f1	0.39932206
7	0x3e221d01	0.15831377
8	0x3eb619ba	0.35566503
9	0x3e22afc5	0.15887363
10	0xbed3ef05	-0.41393295
11	0x3e5c8695	0.21535714
12	0xbd12fd43	-0.03588606
13	0x3ebb4bf6	0.3658139
14	0x3e4a3736	0.19747624
15	0x3dd11e96	0.10210912
16	0x3e5bc8f5	0.21463378
17	0x3ea896f3	0.32927665
18	0x3e27a922	0.16373113
19	0x3edb073b	0.42778954
20	0x3eedf94f	0.4647927
21	0xbecdcd2d	-0.401956
22	0xbeaf2077	-0.34204456
23	0xbebc5580	-0.3678398
24	0xbed09310	-0.407372
25	0x3e88d436	0.26724404
26	0x3ead3774	0.3383137
27	0x3d346ec8	0.04405096
28	0xbd8896ef	-0.06669413
29	0xbedcd9b1	-0.43134835
30	0xbeeab4fb	-0.45841202
31	0x3e0cb4ab	0.13740794
32	0x3e08f095	0.13373025
33	0x3e3e669f	0.18593834
34	0xbd2a94e6	-0.041645907
35	0x3e180160	0.14844275
36	0x3e069fe0	0.13146925
37	0xbe52f3a5	-0.20600756
38	0x3ed92522	0.42411143
39	0xbd252b47	-0.040324476
40	0xbc008d75	-0.007846226
41	0xbeac2cb2	-0.3362785
42	0x3ec48491	0.3838239
43	0x3edbc18b	0.429211
44	0x3dcf3bd5	0.10118834
45	0xbeaaf6cb	-0.33391413
46	0xbe93ca71	-0.28865388
47	0xbefe884d	-0.49713364
48	0xbd6d3557	-0.057912197
49	0x3e6415be	0.22273919
50	0xbe8ad090	-0.27112246
51	0xbe6dbe00	-0.2321701
52	0xbe916198	-0.2839477
53	0x3dc63aaa	0.09679158
54	0x3e58138a	0.21101204
55	0xbec3e347	-0.38259336
56	0xbe7dfd17	-0.24803577
57	0x3e48872f	0.19582818
58	0x3eb28ca5	0.34872928
59	0x3e9de98c	0.30842245
60	0xbe0e2933	-0.13882904
61	0xbc9c3fa7	-0.01907332
62	0xbe91b416	-0.28457707
63	0x3e0d956a	0.13826528
64	0x3ec5a6fc	0.3860396
65	0xbcbd4263	-0.023102945
66	0xbeafc343	-0.3432866
67	0x3ef17234	0.47157443
68	0x3e43557b	0.19075577
69	0x3e0c1bb4	0.13682443
70	0x3ee54f19	0.4478691
71	0xbe1749eb	-0.14774291
72	0xbd222baf	-0.03959244
73	0x3dd33fc3	0.10314896
74	0x3ec8c01b	0.39209065
75	0x3e64e09b	0.22351305
76	0xbd5339bf	-0.051568743
77	0x3ec150c4	0.37756932
78	0x3cad161b	0.021128705
79	0xbe6a18e4	-0.22861058
80	0x3be410b6	0.00696
81	0x3ef938e4	0.48676217
82	0xbef049cf	-0.4693131
83	0x3ede8095	0.43457475
84	0xbec1f327	-0.37880823
85	0xbe998a1a	-0.29988176
86	0xbee3c851	-0.44488767
87	0x3ea55de5	0.32298198
88	0x3d6af308	0.05736068
89	0xbeb1693e	-0.34650606
90	0xbe4906df	-0.19631527
91	0x3eaade20	0.33372593
92	0x3ef44cbc	0.47714794
93	0xbc2632a5	-0.010143911
94	0x3e0ce2a1	0.13758327
95	0xbe412426	-0.18861446
96	0x3e5443ab	0.20728938
97	0x3e142149	0.14465822
98	0xbee00cb9	-0.43759707
99	0x3ede4f8e	0.4342007
100	0x3ec6fdf2	0.3886562
101	0x3ecc43bc	0.39895427
102	0x3d975eb2	0.073911086
103	0xbde6caf3	-0.11269178
104	0x3eb9a4d3	0.36258563
105	0xbebd2030	-0.3693862
106	0xbed20b5b	-0.4102429
107	0x3d250363	0.040286433
108	0x3e3ca185	0.1842099
109	0x3dcc3440	0.099709034
110	0x3d25bb0c	0.040461585
111	0x3ddb5d23	0.10711124
112	0xbdbdb5fb	-0.09263226
113	0xbea0b132	-0.3138519
114	0xbee0d418	-0.43911815
115	0xbdaede5b	-0.08538505
116	0x3e68ac1c	0.22721905
117	0xbe5b55b9	-0.2141942
118	0xbe61414f	-0.2199757
119	0xbdd46db9	-0.103724904
120	0x3ec18c30	0.37802267
121	0x3e8cd9a4	0.27509797
122	0xbe79f496	-0.24409708
123	0xbd1fdb4b	-0.039027493
124	0xbef13eb9	-0.47118166
125	0x3dc6bc5b	0.09703895
126	0xbe3fa61c	-0.1871571
127	0x3e45ad5b	0.19304411
128	0x3de1ad26	0.110193536
129	0x3d4f7365	0.05064716
130	0x3bac5fee	0.005260459
131	0x3eb58b6b	0.3545793
132	0x3d7e355d	0.06206261
133	0x3e8953d2	0.26821762
134	0x3e650a34	0.22367173
135	0x3d5e9d04	0.05434896
136	0xbd0d9ea3	-0.034575116
137	0xbec773a4	-0.38955414
138	0x3ca7f27f	0.020501373
139	0xbee07c49	-0.43844822
140	0xbd57d9b8	-0.052697867
141	0xbe90c036	-0.28271645
142	0x3edb80df	0.42871758
143	0xbeb1b481	-0.34708026
144	0xbea4c2cc	-0.32179868
145	0x3e505276	0.20343956
146	0xbeb410d1	-0.3516908
147	0xbdf8de7a	-0.12151809
148	0xbe88dd32	-0.2673126
149	0x3d3a3558	0.04546103
150	0x3e9b5708	0.30339837
151	0x3efdfc32	0.49606472
152	0xbd5e3b4d	-0.054255772
153	0xbeab3723	-0.33440503
154	0x3ce3fab9	0.027829515
155	0x3e06da82	0.13169292
156	0x3e17c035	0.14819415
157	0x3ec10f75	0.37707105
158	0xbe0f6d6f	-0.1400659
159	0x3eea2850	0.4573388
160	0xbed9bc17	-0.42526314
161	0x3e8170a2	0.25281245
162	0xbe86698e	-0.26252407
163	0xbebf1845	-0.37323204
164	0x3ee2444a	0.44192725
165	0x3ebe955a	0.3722332
166	0x3dae65de	0.085155234
167	0x3c867689	0.016413944
168	0xbe8a5cd9	-0.27023962
169	0xbe94e495	-0.29080644
170	0xbcd4105f	-0.025886713
171	0xbc8616fd	-0.016368384
172	0x3eee74a1	0.46573356
173	0x3df95c23	0.12175777
174	0xbe24bf9b	-0.16088717
175	0x3e87f201	0.26551822
176	0xbea0f621	-0.3143778
177	0x3e204f44	0.15655237
178	0x3e97d7c9	0.29656819
179	0xbe06e837	-0.1317452
180	0x3df9d09e	0.12197994
181	0xbecf143b	-0.40445122
182	0x3eed0498	0.46292567
183	0x3ed9e59c	0.4255799
184	0x3ecfab17	0.4056022
185	0x3e04c36a	0.1296517
186	0x3eb1a481	0.3469582
187	0x3eb49272	0.3526798
188	0xbc424d0b	-0.011859189
189	0x3c4de301	0.012566329
190	0xbee14142	-0.439951
191	0x3e6b894c	0.23001593
192	0x3be5e2e1	0.0070155715
193	0xbea4ea2e	-0.32209915
194	0x3eb4bcd4	0.35300314
195	0xbd979369	-0.07401163
196	0x3d1ace26	0.037794255
197	0xbd6d4a5b	-0.05793224
198	0x3eeba265	0.46022335
199	0x3e95e737	0.29277965
200	0x3efd0e99	0.494252
201	0xbee50466	-0.44729918
202	0xbed6bfc4	-0.4194318
203	0x3e21cb95	0.15800317
204	0xbdf79aa6	-0.12090044
205	0xbee650f3	-0.44983634
206	0x3db2e60c	0.08735284
207	0xbe3ca55a	-0.18422452
208	0xbdb96ed0	-0.09054339
209	0x3eaaa843	0.33331499
210	0xbd811460	-0.06302714
211	0x3edd09d3	0.43171558
212	0xbe0763fc	-0.13221735
213	0xbd8a6538	-0.06757587
214	0x3edadf76	0.42748612
215	0xbec245a7	-0.37943766
216	0x3db94deb	0.09048065
217	0xbe69beff	-0.22826765
218	0xbe97271e	-0.29522032
219	0xbeb2aa73	-0.34895667
220	0x3eee3d0d	0.46530953
221	0xbea6dd08	-0.32590508
222	0x3ef93f85	0.48681274
223	0xbeb2a198	-0.3488891
224	0x3edc6db5	0.4305245
225	0xbede87b7	-0.43462917
226	0xbeeaa912	-0.45832115
227	0x3ed29af2	0.4113384
228	0x3e5f71ab	0.21820705
229	0x3eaad403	0.33364877
230	0xbeecbfb1	-0.4624
231	0x3e89bc00	0.26901245
232	0x3ecfd14a	0.40589362
233	0xbeade020	-0.33960056
234	0xbdfe722d	-0.12424121
235	0x3eaa6d0c	0.3328632
236	0x3d6aa83b	0.057289343
237	0x3e3938d0	0.18088078
238	0x3e05d37d	0.13068958
239	0xbd45f65d	-0.048330653
240	0x3da2fd40	0.0795846
241	0x3e48a5a5	0.19594438
242	0x3ea75789	0.32683972
243	0xbea5b2de	-0.32363027
244	0x3e9ec4d9	0.31009558
245	0xbec174a9	-0.37784317
246	0x3e9c7c42	0.3056355
247	0x3db400d4	0.087892205
248	0x3d6085ac	0.05481498
249	0x3e8db628	0.27678037
250	0xbe89b92e	-0.26899093
251	0x3da00309	0.07813079
252	0xbd48e205	-0.049043674
253	0x3d8235fd	0.06357954
254	0x3ea8c0ee	0.32959694
255	0xbe0ebca1	-0.13939144

decoder_net.6.bias f4 [32]
0	0xbdb67ebc	-0.089108914
1	0x3e165553	0.14680986
2	0xbe1a2cb8	-0.15056121
3	0xbe01cad4	-0.12675029
4	0xbe2573cd	-0.16157456
5	0xbe288ada	-0.16459218
6	0x3d1c35c8	0.038137227
7	0xbdfcfcdf	-0.12352919
8	0xbd62510a	-0.055253066
9	0xbda6db2f	-0.08147275
10	0xbd85976f	-0.06523024
11	0xbd9f3615	-0.07773987
12	0x3dbf4d2c	0.09340891
13	0xbd9bcd65	-0.07607535
14	0xbdba78a5	-0.09105042
15	0x3dbe5803	0.09294131
16	0x3e19f0b7	0.15033232
17	0x3e0e5246	0.13898572
18	0xbd87a042	-0.066223636
19	0x3d0dc475	0.034611184
20	0xbdb5dd63	-0.08880117
21	0xbbc2091e	-0.005921497
22	0x3bedcaa6	0.0072568236
23	0xbdd6abd1	-0.1048199
24	0xbd47c39c	-0.048770532
25	0x3d9aa6d4	0.07551351
26	0x3d4cf827	0.050041344
27	0x3e2fb906	0.17160425
28	0xbd317274	-0.04332204
29	0xbd7d37f2	-0.06182093
30	0xbe1f1321	-0.15534641
31	0x3dac8a0c	0.08424768

decoder_net.8.weight f4 [32, 32]
0	0xbefea100	-0.49732208
1	0xbe3f4cee	-0.1868169
2	0xbe8a06a8	-0.26958203
3	0xbee24832	-0.44195706
4	0xbed3059b	-0.41215214
5	0x3eaa2f9f	0.33239457
6	0xbe9df830	-0.30853415
7	0xbe9609bb	-0.293043
8	0xbe65c48a	-0.22438255
9	0xbd560b7b	-0.052257042
10	0x3e937996	0.288037
11	0xbef6bbe0	-0.48190212
12	0xbe5d21ce	-0.21594927
13	0xbd93790e	-0.07200824
14	0x3e18e586	0.14931306
15	0xbe97f07b	-0.2967566
16	0xbe0aef69	-0.1356789
17	0xbe85b3bc	-0.2611369
18	0xbdce2eeb	-0.10067543
19	0x3e829615	0.25505129
20	0xbe529cfd	-0.20567699
21	0xbd680583	-0.05664588
22	0xbeab2ea1	-0.33434013
23	0x3e06ee3d	0.13176818
24	0xbe9e1b12	-0.30880028
25	0x3e0897b1	0.13339116
26	0xbf011442	-0.50421536
27	0x3e53155a	0.20613614
28	0x3e0ece84	0.13945967
29	0xbebd43ea	-0.36965877
30	0xbd911059	-0.07083196
31	0xbe9b48a1	-0.3032885
32	0xbe7973c2	-0.24360564
33	0x3e6a39e8	0.22873652
34	0xbe9586f4	-0.29204524
35	0x3e8ed229	0.27894714
36	0x3e82b502	0.25528723
37	0x3ee59117	0.44837257
38	0xbe27dedf	-0.16393612
39	0xbeda1c82	-0.42599875
40	0x3e9d9d6c	0.30784166
41	0xbdd1301c	-0.10214254
42	0xbe5ce750	-0.21572614
43	0xbe70ae33	-0.23503952
44	0x3ee8b938	0.4545381
45	0xbebd2d17	-0.36948463
46	0x3e033c66	0.12816009
47	0x3db909fd	0.09035108
48	0xbe50df09	-0.20397581
49	0x3e97ca01	0.29646304
50	0x3e98b75e	0.29827398
51	0x3eb42f7c	0.35192478
52	0x3e1e93fa	0.15486136
53	0x3e131ed6	0.14367232
54	0x3df8eb32	0.12154235
55	0xbe1cd6fe	-0.15316388
56	0xbec41774	-0.38299143
57	0x3c9cecc4	0.019155867
58	0x3d191715	0.03737553
59	0x3ea079a0	0.31342793
60	0x3d8063c4	0.06269029
61	0x3d1173b2	0.035510726
62	0xbe3fc2b6	-0.1872662
63	0x3ecc7bb7	0.39938137
64	0x3ed4730b	0.4149402
65	0x3eefa0ee	0.46802467
66	0xbc067a31	-0.008207844
67	0xbe8fb1d5	-0.28065363
68	0xbec25eaa	-0.37962848
69	0xbef6d2f7	-0.48207828
70	0xbeb842d8	-0.35988498
71	0xbdfd4851	-0.12367309
72	0x3eb8c6e2	0.36089236
73	0xbed41b5e	-0.4142713
74	0xbe1436e0	-0.14474058
75	0x3e54dc99	0.20787276
76	0x3e4b66f6	0.19863495
77	0x3d612928	0.05497089
78	0xbd93e9c3	-0.07222321
79	0x3b5fead1	0.003416706
80	0xbeaec6c2	-0.34136015
81	0x3e908ade	0.28230947
82	0x3ea77baf	0.3271155
83	0x3e0d3d36	0.13792881
84	0x3ec88955	0.39167276
85	0x3eaa4c79	0.3326147
86	0xbeff792d	-0.49897137
87	0xbe5fe017	-0.21862827
88	0xbec60a47	-0.38679716
89	0x3e5358d8	0.2063936
90	0xbef66500	-0.48123932
91	0x3e109045	0.14117534
92	0xbed71ed1	-0.420157
93	0x3e9554ab	0.2916616
94	0xbebf0557	-0.3730876
95	0xbef519e1	-0.47871307
96	0xbe4a5db8	-0.19762313
97	0x3e264401	0.16236879
98	0xbe5e1ab2	-0.21689871
99	0x3e40cb0f	0.1882746
100	0x3c618a08	0.013765819
101	0xbe889f80	-0.2668419
102	0xbd2f2669	-0.04276124
103	0x3e9d6ade	0.30745596
104	0xbe99898a	-0.29987746
105	0x3edc2c8d	0.4300274
106	0x3e166ba2	0.14689496
107	0x3e867541	0.26261333
108	0xbdc10a56	-0.094257995
109	0x3ebad696	0.3649184
110	0xbec59b7b	-0.38595185
111	0xbe45a42b	-0.19300906
112	0x3ea13b71	0.31490663
113	0xbe8ca90c	-0.27472723
114	0x3ed38425	0.41311756
115	0xbe3c9074	-0.1841448
116	0xbef6ecf6	-0.48227662
117	0x3eef9404	0.46792614
118	0x3ed55524	0.4166652
119	0x3e4b1a94	0.19834358
120	0xbede857a	-0.4346121
121	0x3dd7d420	0.105385065
122	0xbdedb400	-0.11606598
123	0x3ef5c862	0.48004442
124	0x3e0526e6	0.1300312
125	0xbd524d7e	-0.051343434
126	0xbefd4263	-0.49464712
127	0xbe365863	-0.17807154
128	0x3ebbbde0	0.366683
129	0xbec305e3	-0.3809043
130	0x3d90c9fc	0.070697755
131	0xbec802df	-0.3906469
132	0xbd08b551	-0.03337604
133	0xbdfb7e08	-0.12279898
134	0xbd5d3d3a	-0.05401347
135	0xbc60cc8d	-0.013720644
136	0xbe151b20	-0.14561129
137	0xbe3ae763	-0.1825233
138	0x3e73d286	0.23810777
139	0x3d87fcfa	0.06640048
140	0xbe7d258f	-0.24721359
141	0x3e886890	0.26642275
142	0x3f00d4df	0.50324816
143	0x3e8c20f9	0.27368906
144	0x3e613dd0	0.21996236
145	0xbdac604e	-0.08416806
146	0x3ebfa885	0.37433258
147	0xbe473bc0	-0.19456387
148	0x3e8180d3	0.25293598
149	0x3eecccda	0.4625004
150	0xbd7f1a16	-0.062280737
151	0xbe883085	-0.26599517
152	0x3e216241	0.15760137
153	0xbd8d80a7	-0.06909304
154	0x3e91f8ca	0.28510123
155	0xbe601b9d	-0.21885534
156	0x3eaf1c90	0.3420148
157	0x3eb6f11a	0.3573082
158	0x3e8301f3	0.25587425
159	0x3d9530b6	0.072846815
160	0xbe4fbbe8	-0.20286524
161	0x3eb5ed1b	0.3553246
162	0xbd228959	-0.039681766
163	0xbe4d12f9	-0.20026769
164	0x3eda5e06	0.4264986
165	0xbde1f469	-0.11032946
166	0x3e844360	0.25832653
167	0x3e7390cb	0.23785703
168	0xbe5890e0	-0.21149015
169	0x3ebe2289	0.37135723
170	0xbca635ab	-0.020289263
171	0x3e8cbe9c	0.27489173
172	0xbeb8d9a2	-0.3610354
173	0x3e42f272	0.19037798
174	0x3eddc51c	0.43314445
175	0xbe7427e2	-0.23843339
176	0x3ee38b00	0.44441986
177	0xbe9001f3	-0.28126487
178	0x3e3a29c9	0.18180002
179	0x3e526fe4	0.20550495
180	0x3d16ff93	0.03686483
181	0x3e44e5bd	0.19228263
182	0x3df47ed0	0.1193825
183	0xbe799977	-0.24374948
184	0xbec5482a	-0.3853162
185	0xbeb1f53a	-0.34757406
186	0xbce99369	-0.028512673
187	0x3cc75bfe	0.024335857
188	0xbd28dbd0	-0.041225255
189	0x3ca0944e	0.019601967
190	0xbee40e38	-0.44542098
191	0xbef1f470	-0.47256804
192	0xbe3b67a9	-0.18301262
193	0xbedf2833	-0.43585357
194	0x3e686260	0.22693777
195	0xbe2d88c3	-0.16946702
196	0xbe7fe00f	-0.24987815
197	0x3d809312	0.062780514
198	0x3dbf2739	0.09333653
199	0x3e86b6f4	0.26311457
200	0x3cba571b	0.022746613
201	0x3e328b28	0.17435896
202	0x3e079945	0.13242061
203	0x3edd2e4e	0.4319939
204	0x3e076905	0.13223656
205	0x3e3e5012	0.18585232
206	0x3bf66826	0.0075197397
207	0x3e6013b8	0.21882522
208	0xbcf088f2	-0.029362176
209	0xbe76c9c8	-0.24100411
210	0xbe9359c1	-0.28779414
211	0x3e9c0d7f	0.30479047
212	0x3d31b271	0.043383066
213	0x3ef9fec7	0.48827192
214	0x3e96636a	0.29372722
215	0x3edba297	0.42897484
216	0xbd7d2c38	-0.06180975
217	0x3ea09506	0.31363696
218	0x3d7206c3	0.05908848
219	0x3dd8e9f7	0.105915
220	0x3e31057b	0.17287247
221	0xbe9b2c56	-0.30307263
222	0x3ee3081d	0.44342127
223	0x3e366ed1	0.1781571
224	0xbddb2356	-0.10700099
225	0xbec23329	-0.37929657
226	0xbe89bf50	-0.26903772
227	0xbd0d83a9	-0.03454939
228	0x3dc9accf	0.09847414
229	0x3e4cb56c	0.19991082
230	0x3efca1cc	0.4934219
231	0x3eb652ee	0.35610145
232	0xbcd76915	-0.026295224
233	0xbdb22f83	-0.087004684
234	0x3ec892ac	0.39174402
235	0x3c75ca8b	0.015001903
236	0x3dc6468a	0.09681423
237	0xbccca221	-0.024979653
238	0x3ed9b045	0.42517295
239	0x3e8c0419	0.27346876
240	0x3e62dfd4	0.22155696
241	0x3e3f8904	0.18704611
242	0xbd4e3e75	-0.050352532
243	0x3e2f23c3	0.17103486
244	0xbeb13b96	-0.34615773
245	0xbea4b165	-0.3216659
246	0x3e264455	0.16237004
247	0x3ddb0d9c	0.10695955
248	0xbea37ce6	-0.31931227
249	0x3e5400a2	0.20703366
250	0x3e63a436	0.2223061
251	0x3e997afe	0.29976648
252	0xbe78e2f2	-0.24305323
253	0xbe857a88	-0.26070046
254	0xbc2db67d	-0.010602591
255	0xbcc74767	-0.02432604

decoder_net.8.bias f4 [32]
0	0xbd44947d	-0.047993172
1	0x3e18358b	0.14864175
2	0x3e0c1788	0.13680851
3	0x3ce22067	0.027603341
4	0xbe09ca61	-0.13456108
5	0xbce6ffed	-0.028198207
6	0x3e110299	0.14161147
7	0xbdff28a5	-0.12458924
8	0xbd656947	-0.056008603
9	0x3da8c75f	0.08241152
10	0x3cf99c2e	0.03046998
11	0x3e11bd60	0.14232397
12	0x3cf82cac	0.030294739
13	0xbbc87783	-0.0061177625
14	0x3cee9526	0.029123854
15	0xbd243c61	-0.040096644
16	0xbe257277	-0.16156946
17	0xbdadcb59	-0.08486051
18	0xbe277eb0	-0.16356921
19	0x3df5d841	0.12004138
20	0xbbdf340a	-0.0068116235
21	0x3cc51830	0.024059385
22	0xbc27f6f9	-0.010251754
23	0xbde5865b	-0.11207267
24	0xbdfabdb0	-0.12243211
25	0xbcb7e0db	-0.022446087
26	0x3d269e92	0.04067857
27	0xbdc0b08f	-0.09408676
28	0xbdd06b31	-0.10176695
29	0x3debcbc6	0.11513476
30	0xbd8f7d38	-0.070063055
31	0x3dc12743	0.09431317

decoder_net.10.weight f4 [5, 32]
0	0x3e916470	0.2839694
1	0x3eab2d7b	0.33433136
2	0x3ed1c702	0.40972143
3	0xbe2249fe	-0.15848538
4	0xbd57159c	-0.052510843
5	0xbe8f5b89	-0.27999523
6	0x3cd67cdc	0.026182584
7	0xbbfc5cdc	-0.0077014994
8	0xbdc6d55f	-0.09708666
9	0xbe52ba82	-0.2057896
10	0x3eb26ae2	0.3484717
11	0x3ea747c8	0.32671952
12	0xbee2292d	-0.4417204
13	0xbee56e06	-0.44810504
14	0xbe891ea0	-0.26781178
15	0xbd48f81d	-0.049064744
16	0xbd2ac756	-0.041694008
17	0x3ee913d0	0.45522928
18	0xbb14bf19	-0.002269691
19	0xbd9c7877	-0.07640164
20	0x3eb36cb1	0.35043862
21	0xbe1130e8	-0.14178813
22	0x3ec0d17d	0.37659827
23	0xbdc6a0e6	-0.09698658
24	0xbe303034	-0.17205888
25	0x3d55f708	0.05223754
26	0xbeb867f3	-0.36016807
27	0x3ee607f2	0.44927937
28	0x3e091aac	0.13389081
29	0x3edaebcf	0.42758033
30	0x3ef80b21	0.4844599
31	0x3cd55177	0.026039822
32	0xbcaf6cbd	-0.021414155
33	0xbd5512f9	-0.052020047
34	0xbe98b9a8	-0.29829144
35	0x3e6f08a4	0.2334314
36	0xbeaf9514	-0.34293425
37	0x3ecd4007	0.4008791
38	0x3e5074c2	0.2035704
39	0xbd1595f3	-0.036519956
40	0x3e9ce46b	0.3064302
41	0x3d895051	0.06704772
42	0x3ecde64a	0.4021476
43	0xbe911e55	-0.28343454
44	0xbebb4ab2	-0.36580426
45	0xbe55a3b0	-0.20863223
46	0x3ea58ae0	0.32332516
47	0x3e8e6626	0.27812308
48	0xbe2507f2	-0.16116312
49	0xbded1d19	-0.115778156
50	0x3e7246bd	0.23659797
51	0xbeedfec4	-0.46483433
52	0x3e583d4e	0.21117136
53	0x3d39332f	0.045214828
54	0x3dfb6734	0.12275544
55	0xbef3c97a	-0.47614652
56	0x3c8d7c07	0.017271055
57	0x3d9f2c29	0.07772095
58	0x3ebf95ed	0.37419072
59	0x3ecf6770	0.40508604
60	0xbd8c4e55	-0.06850878
61	0x3ee95cec	0.45578706
62	0xbeec4f51	-0.46154264
63	0xbbcbe67d	-0.0062225447
64	0x3d0da79d	0.034583677
65	0xbebe8f97	-0.37218925
66	0x3e9300a1	0.28711417
67	0x3ee46125	0.44605365
68	0xbe57244b	-0.21009938
69	0xbec206c5	-0.3789579
70	0x3d255d7d	0.04037236
71	0x3edab5c4	0.427168
72	0xbe4abbcd	-0.19798203
73	0xbe3a0e83	-0.18169598
74	0x3e60adf2	0.21941355
75	0x3ee0237a	0.43777066
76	0x3eef993f	0.46796605
77	0x3ee0c1cc	0.43897855
78	0x3eb3b584	0.35099423
79	0x3e8e0cb8	0.2774408
80	0xbef47515	-0.47745577
81	0x3ee791e2	0.45228487
82	0xbe34fd37	-0.17674719
83	0xbed1907e	-0.4093055
84	0xbe926b2b	-0.28597388
85	0xbebeca01	-0.37263492
86	0xbebde443	-0.37088212
87	0xbcc7fd83	-0.024412876
88	0x3e70d447	0.23518477
89	0xbec53387	-0.38515875
90	0xbee085dc	-0.43852127
91	0x3e87dcc3	0.26535615
92	0x3defc405	0.1170731
93	0x3e3a017b	0.18164627
94	0xbe70d3c5	-0.23518284
95	0x3e65cdca	0.22441784
96	0xbe427f4f	-0.18993877
97	0x3ef4ad3e	0.47788423
98	0x3e064b58	0.13114679
99	0xbeb66934	-0.3562714
100	0x3e64f051	0.22357298
101	0x3ef50cda	0.47861367
102	0xbe9763a3	-0.29568204
103	0x3e160637	0.14650808
104	0xbe025d71	-0.12730958
105	0xbebcfe61	-0.36912826
106	0x3e431b44	0.1905337
107	0x3eb050bf	0.34436604
108	0x3ee8d715	0.45476595
109	0x3d017443	0.031605016
110	0x3bf79991	0.0075561483
111	0x3b77287d	0.0037713342
112	0x3ea18f42	0.3155461
113	0xbd3cd6a2	-0.046103127
114	0x3e08f11f	0.1337323
115	0xbbb6f0c8	-0.0055829026
116	0xbe5b3189	-0.21405615
117	0x3e9aee33	0.30259857
118	0x3e13335d	0.14375062
119	0x3e3a54df	0.18196438
120	0xbcfcefcf	-0.030876068
121	0x3ddd6770	0.10810745
122	0x3e05dad1	0.13071753
123	0x3dd09107	0.10183912
124	0xbe431e40	-0.19054508
125	0xbdaca122	-0.08429171
126	0xbe966466	-0.29373473
127	0xbe5ad867	-0.21371613
128	0xbf00d53d	-0.50325376
129	0x3dc82f3b	0.097746335
130	0xbe99f919	-0.3007286
131	0xbebd84f7	-0.37015507
132	0xbc8dea33	-0.017323589
133	0xbeb64207	-0.3559725
134	0xbef89451	-0.48550656
135	0x3e5a4943	0.2131701
136	0x3e6e553d	0.23274703
137	0xbd9dc541	-0.07703639
138	0xbee823e8	-0.45339894
139	0x3ed67540	0.4188633
140	0x3ee0600f	0.43823287
141	0x3ef58387	0.4795191
142	0x3e988863	0.29791555
143	0x3ecc1275	0.39857832
144	0xbebd140f	-0.36929366
145	0xbefc4282	-0.4926949
146	0xbebdab93	-0.37044963
147	0x3ef9733e	0.48720735
148	0xbee89320	-0.45424747
149	0xbe096451	-0.13417174
150	0x3ef658fa	0.4811476
151	0x3ef70bc5	0.48251167
152	0x3e15ab72	0.14616182
153	0x3efef39a	0.49795228
154	0x3d8f2dbc	0.06991145
155	0x3e9f8d13	0.3116232
156	0xbdaaadb4	-0.083339125
157	0x3e8cf165	0.2752792
158	0xbe724be3	-0.23661761
159	0x3eee478f	0.4653897

decoder_net.10.bias f4 [5]
0	0xbcd9ba7e	-0.026578184
1	0x3dec279c	0.115309924
2	0x3dba1492	0.09085955
3	0x3cc3694f	0.023853926
4	0x3ce437eb	0.027858695
