Action_Net_499.pt (torch, 54946 bytes, 12 tensors)

decoder_net.0.weight f4 [32, 255]
0	0x3df06a0e	0.11738978
1	0x3e48bae0	0.19602537
2	0x3eca4b79	0.39510706
3	0x3e0bebf3	0.13664226
4	0x3e8cc040	0.27490425
5	0x3eb26f48	0.34850526
6	0xbec62a9f	-0.38704392
7	0xbe884f3b	-0.26622948
8	0x3e8c578c	0.27410543
9	0x3dccee21	0.10006357
10	0xbe9410d4	-0.2891909
11	0x3e176d7d	0.1478786
12	0xbee8d3ee	-0.4547419
13	0xbe3ef652	-0.18648651
14	0x3e812580	0.25223923
15	0xbc5d35b3	-0.013501572
16	0xbeace283	-0.33766565
17	0x3e7d7192	0.24750355
18	0x3d0db6e7	0.034598257
19	0xbd90790b	-0.07054337
20	0xbef63502	-0.48087317
21	0xbe392869	-0.18081822
22	0x3d5e484d	0.05426817
23	0xbe8ae8e6	-0.27130812
24	0x3dad50cc	0.084626764
25	0xbeb61d0e	-0.35569042
26	0x3ec5d106	0.38636035
27	0x3ec542b9	0.38527468
28	0x3e96b0f0	0.29431868
29	0xbd712a42	-0.05887819
30	0xbefedb57	-0.49776718
31	0xbe47ae7e	-0.19500157
32	0xbd24432f	-0.040103134
33	0xbeec07ca	-0.46099693
34	0x3ec97de3	0.39353856
35	0x3e110175	0.14160712
36	0x3ec20ec6	0.37901896
37	0xbee4d22c	-0.44691598
38	0xbe831654	-0.25602973
39	0x3de836f3	0.11338606
40	0xbbf18957	-0.0073711085
41	0xbe949843	-0.29022416
42	0x3ebb1220	0.36537266
43	0x3e52f3aa	0.20600763
44	0xbcc603cd	-0.024171734
45	0x3ef3ddbd	0.4763011
46	0xbef9c71c	-0.4878472
47	0xbee88c60	-0.45419598
48	0x3dcb494e	0.09926091
49	0x3ee850ce	0.4537415
50	0x3e90a725	0.2825252
51	0xbe8cf0a6	-0.2752735
52	0x3eb7c0c1	0.35889247
53	0x3e851542	0.2599278
54	0x3cebf691	0.028804095
55	0x3ea2223b	0.3166674
56	0x3dcb8efb	0.09939381
57	0x39a2c2e0	0.0003104424
58	0xbe0d5aa3	-0.13804106
59	0xbe8803fa	-0.26565534
60	0xbea1541a	-0.31509477
61	0xbd865fa5	-0.065612115
62	0xbeaf1f16	-0.34203404
63	0x3e595ddc	0.21227211
64	0x3e1108fe	0.14163586
65	0xbef99d54	-0.48752844
66	0xbebbe3c4	-0.3669721
67	0x3eb6e744	0.35723317
68	0xbe8606db	-0.26177105
69	0xbbb1d82f	-0.0054273824
70	0xbea3fde1	-0.32029632
71	0xbde06c38	-0.10958141
72	0x3e7c5739	0.24642648
73	0x3e024f17	0.12725483
74	0x3e7a7deb	0.24462096
75	0xbceaa851	-0.028644713
76	0xbecc37a8	-0.39886212
77	0xbbbb1800	-0.005709648
78	0x3e98007c	0.2968787
79	0x3defdc26	0.11711912
80	0x3dd5037c	0.10401055
81	0x3dc9a3dd	0.098457076
82	0x3ed22070	0.41040373
83	0x3e80f82a	0.25189334
84	0xbda6fd78	-0.08153814
85	0xbe8ad316	-0.2711417
86	0x3ed02f07	0.4066088
87	0xbe85062a	-0.25981265
88	0xbeab7ee9	-0.33495262
89	0x3e203c2d	0.15647955
90	0xbea39c29	-0.31955078
91	0xbedc623c	-0.43043697
92	0xbecebb1b	-0.40377125
93	0x3dfc1b1f	0.123098604
94	0xbea0ead6	-0.31429166
95	0x3ee20906	0.4414751
96	0xbca22ebd	-0.019797677
97	0xbe597dc8	-0.21239388
98	0xbe9d4a5d	-0.30720797
99	0xbe18af69	-0.14910664
100	0x3edef162	0.43543535
101	0xbea32f76	-0.31872147
102	0xbeecb02b	-0.46228155
103	0x3e17eed7	0.14837204
104	0x3e2e9e0d	0.17052479
105	0xbed8c8c2	-0.42340666
106	0xbe663edf	-0.22484921
107	0x3edd4274	0.43214762
108	0xbe718753	-0.23586778
109	0x3e575b29	0.21030869
110	0xbe766ec9	-0.24065699
111	0xbee18ad7	-0.4405124
112	0xbef686c7	-0.48149702
113	0x3ec30ded	0.38096562
114	0x3e1d841c	0.15382427
115	0x3e122700	0.1427269
116	0x3e308480	0.17238045
117	0x3e45efea	0.19329801
118	0x3ea8cef7	0.32970402
119	0x3ec439a6	0.38325232
120	0x3ec503c5	0.38479438
121	0x3e245826	0.16049251
122	0x3db88843	0.09010365
123	0x3ddcd097	0.10781973
124	0xbecf04e8	-0.4043343
125	0x3e64a006	0.22326669
126	0x3dfedef3	0.12444868
127	0x3e5f20b8	0.21789825
128	0xbdfccdd7	-0.12343948
129	0x3ed45cc1	0.41477016
130	0x3d759877	0.059959855
131	0xbdf3cf15	-0.11904732
132	0xbc683abb	-0.014174159
133	0xbe4d06c0	-0.20022106
134	0xbd96fa87	-0.07372003
135	0x3ed93a5f	0.42427346
136	0x3e2989df	0.165565
137	0xbd641aa2	-0.05568946
138	0x3c9c19e9	0.019055324
139	0x3dea9aa4	0.114552766
140	0xbe937a76	-0.28804368
141	0xbe8c281d	-0.27374354
142	0x3ee18547	0.44046995
143	0x3b4fc859	0.003170511
144	0x3e1805b2	0.14845923
145	0xbe6b70da	-0.22992268
146	0xbebc046c	-0.36722124
147	0x3dca78af	0.098863
148	0x3e8a582f	0.27020404
149	0xbef0c77c	-0.47027194
150	0xbefd467b	-0.49467835
151	0xbe29cd0d	-0.16582127
152	0x3ea5a634	0.32353365
153	0xbee498ab	-0.44647726
154	0x3ecc47ca	0.3989852
155	0x3ee7a676	0.45244187
156	0xbde6e389	-0.11273868
157	0x3d01cd56	0.031689964
158	0xbca35e39	-0.01994239
159	0x3ef8d6c3	0.4860135
160	0x3d65e437	0.056125846
161	0x3dfa678d	0.12226782
162	0xbe2ecf7d	-0.17071338
163	0xbbab4b46	-0.005227479
164	0xbe8793de	-0.2648
165	0x3cd674db	0.026178768
166	0xbd8deb1a	-0.06929608
167	0x3dc00b24	0.09377125
168	0x3dc6568c	0.09684476
169	0xbed16d71	-0.4090381
170	0x3eab05f8	0.3340299
171	0x3e8cceb4	0.27501452
172	0x3eb452e4	0.3521949
173	0x3ebc8648	0.36821198
174	0x3e05b587	0.13057528
175	0x3e8cbde3	0.27488622
176	0x3e7df5e7	0.24800836
177	0x3e996ed9	0.29967383
178	0xbe9959a9	-0.29951218
179	0x3e742e13	0.23845701
180	0xbd1da5ad	-0.03848808
181	0x3e47a26f	0.19495557
182	0x3e3dce9f	0.18535851
183	0xbebe0163	-0.37110433
184	0xbe674a65	-0.22586973
185	0xbeb56f4f	-0.35436484
186	0xbe068169	-0.13135304
187	0x3e26d98f	0.1629393
188	0x3df20e12	0.1181909
189	0x3ecc0d5b	0.3985394
190	0xbeb80455	-0.35940805
191	0x3e21d2ff	0.15803145
192	0x3ed22a8b	0.41048083
193	0xbec46547	-0.38358518
194	0xbebfe13d	-0.3747653
195	0x3df9a502	0.12189676
196	0xbe4e2e55	-0.20134862
197	0x3e0489bb	0.12943165
198	0xbe75d6d9	-0.24007739
199	0x3d8721be	0.06598233
200	0xbed82b11	-0.42220357
201	0x3eccc1b1	0.39991525
202	0xbea2a7ad	-0.3176855
203	0xbeea196b	-0.45722517
204	0xbe83c5d3	-0.25736865
205	0x3c47b715	0.012189646
206	0x3ef15cb1	0.4714103
207	0x3dd94d2a	0.10610421
208	0xbdd2ddf6	-0.10296242
209	0xbeb77135	-0.35828558
210	0x3e6b4bb7	0.22978102
211	0x3d1bc57b	0.03803013
212	0xbe12a7b9	-0.14321794
213	0xbe0df665	-0.13863523
214	0x3d995a0e	0.0748788
215	0x3e978731	0.2959533
216	0xbe99241d	-0.29910365
217	0xbdf41906	-0.11918835
218	0x3e730df3	0.2373579
219	0xbeae8933	-0.3408905
220	0xbc30af31	-0.010783956
221	0x3ed01f05	0.40648666
222	0x3eb38dff	0.35069272
223	0xbecc9267	-0.39955446
224	0xbe6eae69	-0.2330872
225	0x3da7f66e	0.082012996
226	0x3ea28023	0.31738386
227	0xbe4c0ded	-0.19927187
228	0xbee7a481	-0.45242694
229	0xbc8b5c84	-0.017011888
230	0x3ea15ef3	0.31517753
231	0xbe82d425	-0.25552478
232	0xbeeaef11	-0.45885518
233	0x3d1377fb	0.036003094
234	0x3ed5965b	0.41716275
235	0xbeceb4b7	-0.4037225
236	0x3ddf8ec2	0.10915901
237	0x3ea2f0d5	0.31824365
238	0x3c8829ae	0.016621437
239	0xbe886361	-0.2663832
240	0xbe37a3a9	-0.17933525
241	0xbea791bd	-0.32728377
242	0x3d1b495b	0.037911754
243	0xbe5d2b01	-0.21598436
244	0x3c971c14	0.018446006
245	0xbdde27ce	-0.10847436
246	0xbeae7f77	-0.34081623
247	0x3ef8aea1	0.4857073
248	0x3df47112	0.11935629
249	0x3e7ed6a7	0.24886571
250	0x3e986163	0.297618
251	0x3e4fde2f	0.202996
252	0xbdef1156	-0.116732284
253	0xbe1b84c1	-0.1518736
254	0xbe8c5747	-0.27410337
255	0xbee30d3c	-0.44346035

decoder_net.0.bias f4 [32]
0	0xbcfb1a10	-0.030652076
1	0xbbda3a03	-0.0066597476
2	0x3cf3c5dd	0.029757435
3	0x3d3c04ba	0.045902945
4	0xbd4a6066	-0.04940834
5	0xbd0f1ee3	-0.034941565
6	0xbcdf34ff	-0.02724695
7	0x3d601bfa	0.05471418
8	0x3d8026db	0.06257411
9	0xbcd26d84	-0.025686987
10	0xbcc2de9c	-0.023787789
11	0x3b8d1b20	0.004306212
12	0xba6217fa	-0.00086247886
13	0xbcb64f18	-0.022254512
14	0xbd2bf3c2	-0.041980512
15	0xbd09ef5f	-0.033675548
16	0xbc061edb	-0.008186067
17	0x3b503d1c	0.0031774705
18	0x3ba0ce73	0.004907423
19	0xbd7e8671	-0.062139932
20	0x3d617513	0.05504329
21	0xbd22be31	-0.039732162
22	0xbc8aa70d	-0.01692536
23	0x3d61f9c7	0.055169847
24	0xbb74b993	-0.0037342056
25	0xbd3bc302	-0.04584027
26	0x3d022368	0.031772047
27	0xbca220e1	-0.019791069
28	0x3d82b1df	0.063815825
29	0xbc6b1ee1	-0.014350624
30	0xbd36fc25	-0.044674058
31	0xbd4505e0	-0.048101306

decoder_net.2.weight f4 [32, 32]
0	0xbcb8c8d2	-0.022556696
1	0x3d29ed29	0.04148594
2	0xbeddffdb	-0.43359265
3	0x3ea8eda8	0.32993817
4	0x3ea88994	0.32917464
5	0x3ef64bc8	0.48104692
6	0x3db29f65	0.08721808
7	0xbe082348	-0.13294709
8	0xbd8edae1	-0.069753416
9	0xbe2463cc	-0.16053694
10	0xbee94842	-0.4556294
11	0x3e31cf78	0.173643
12	0x3d94145b	0.07230445
13	0xbe21a432	-0.15785292
14	0xbe9719ba	-0.29511815
15	0xbddd3305	-0.10800747
16	0x3e1199d4	0.14218837
17	0x3ebeb62a	0.37248355
18	0x3e54b21e	0.20771071
19	0x3ebf449f	0.3735704
20	0x3ecc445e	0.3989591
21	0xbe7f95ee	-0.24959537
22	0xbbdd9593	-0.0067622154
23	0xbed544c0	-0.41654015
24	0xbe9173be	-0.28408617
25	0x3e4a2cff	0.19743727
26	0x3e43098d	0.19046612
27	0x3e5eb925	0.21750315
28	0x3ed8ea82	0.42366415
29	0x3e53e50a	0.2069284
30	0xbe76f519	-0.24116935
31	0xbdcbeccf	-0.09957277
32	0x3d217257	0.039415684
33	0x3e814974	0.25251353
34	0xbe827206	-0.25477618
35	0xbe537d54	-0.20653278
36	0x3e44e094	0.19226295
37	0x3e29c95a	0.16580716
38	0x3ef1a631	0.47197106
39	0x3ed45853	0.41473636
40	0xbe6ae840	-0.22940159
41	0x3e31ff2e	0.173825
42	0xbe9ebc90	-0.31003237
43	0xbc98d837	-0.018657787
44	0xbd2ed121	-0.04267991
45	0x3de22320	0.11041856
46	0x3edee71c	0.43535697
47	0xbec71e91	-0.38890508
48	0x3eecda05	0.46260086
49	0x3eb14fa2	0.34631068
50	0xbe75059b	-0.2392792
51	0xbe0c84c3	-0.1372252
52	0xbde59b5b	-0.11211272
53	0x3e9f28bf	0.31085774
54	0xbe00ec28	-0.12590086
55	0x3e368082	0.1782246
56	0xbe485b56	-0.19566092
57	0x3ecffb0e	0.40621227
58	0xbd9fb151	-0.07797492
59	0x3ef3a0d8	0.47583652
60	0xbebfbfc3	-0.3745099
61	0xbe162964	-0.14664227
62	0x3ea6b43c	0.32559383
63	0x3e2c4d9a	0.16826478
64	0xbe807e40	-0.2509632
65	0xbed2452f	-0.41068408
66	0xbec02239	-0.3752611
67	0xbed4f76c	-0.41595018
68	0xbe8d3271	-0.27577546
69	0xbe9c1cd4	-0.30490744
70	0xbe15e3e1	-0.1463771
71	0x3eded2b2	0.43520123
72	0xbe05a583	-0.13051419
73	0xbe9d7109	-0.307503
74	0x3e78affc	0.24285883
75	0xbe959a7a	-0.2921942
76	0xbe80748a	-0.25088912
77	0xbdada9b1	-0.08479632
78	0xbd80edff	-0.06295394
79	0xbe9cd866	-0.3063385
80	0xbeca8618	-0.3955543
81	0xbefb0332	-0.49025875
82	0xbe56df6d	-0.20983668
83	0x3e80d847	0.25165007
84	0x3d1c1231	0.038103286
85	0x3ecb041b	0.3965157
86	0x3db5bb39	0.088736005
87	0xbebef6b3	-0.37297592
88	0x3d489ed7	0.048979606
89	0xbe00fe2c	-0.12596959
90	0x3e91e6a4	0.28496277
91	0x3e09f912	0.13473919
92	0x3efc2dbd	0.49253646
93	0xbee46b19	-0.4461296
94	0xbe716210	-0.23572564
95	0xbed89487	-0.42300817
96	0x3d2f90e0	0.042862773
97	0xbea288ec	-0.31745088
98	0xbe564521	-0.20924808
99	0x3ef3aaf3	0.4759136
100	0xbe2bba67	-0.16770326
101	0x3e7d4446	0.24733075
102	0x3ea5733a	0.32314473
103	0x3eb8f702	0.36125952
104	0x3ed08643	0.40727434
105	0x3e9d6312	0.30739647
106	0x3d4f6f11	0.05064303
107	0x3ed73931	0.4203582
108	0x3ef7e3f5	0.48416105
109	0xbeafb33e	-0.34316438
110	0x3dd94439	0.106087156
111	0x3eaf64cd	0.34256592
112	0xbeade2f2	-0.33962208
113	0x3e4a8470	0.19777083
114	0x3e9f0310	0.31057024
115	0x3c89b425	0.016809532
116	0xbe129161	-0.1431327
117	0xbd22dbe7	-0.039760496
118	0x3eddd487	0.43326208
119	0xbecb7d74	-0.3974415
120	0x3e49aa91	0.19693972
121	0xbe8b6871	-0.2722812
122	0x3eac07ad	0.33599606
123	0xbe50f5f2	-0.2040632
124	0x3de5b092	0.11215319
125	0x3ea0e738	0.31426406
126	0xbd88575b	-0.06657287
127	0xbda617de	-0.08110021
128	0x3ee7ccde	0.4527349
129	0x3ef34b99	0.47518614
130	0x3e88c696	0.2671401
131	0x3c492d59	0.012278878
132	0xbb800fab	-0.003908118
133	0xbea059df	-0.31318566
134	0x3ead49ef	0.3384547
135	0x3e64c130	0.2233932
136	0x3eccd5a9	0.4000676
137	0xbea69590	-0.32535982
138	0x3dfb7456	0.12278049
139	0x3dcad5ab	0.09904035
140	0xbe18b8d6	-0.1491426
141	0xbd5aaf31	-0.05338973
142	0x3dc8db51	0.09807456
143	0xbe09ebcb	-0.13468854
144	0x3ef32cde	0.47495168
145	0xbee65b89	-0.4499171
146	0xbd9031cf	-0.0704075
147	0xbe725a21	-0.23667194
148	0x3ec1fb36	0.3788697
149	0xbe39d9d2	-0.18149498
150	0xbde8c3b1	-0.1136545
151	0x3edcd45d	0.4313077
152	0xbedf19f7	-0.43574497
153	0xbe296f50	-0.16546369
154	0x3edc90bc	0.43079174
155	0x3eb2ee8d	0.34947625
156	0xbe131273	-0.14362507
157	0xbdbdb22e	-0.09262501
158	0xbe72aa9d	-0.23697896
159	0x3dcd91fc	0.1003761
160	0x3e1927c5	0.14956577
161	0x3eaba832	0.3352676
162	0x3e63bfee	0.22241184
163	0x3e827cd7	0.2548587
164	0xbda1ed57	-0.07906597
165	0xbeb86487	-0.36014196
166	0x3e8bd7c0	0.27313042
167	0xbbc4672e	-0.0059937453
168	0xbea5fe08	-0.32420373
169	0x3d40b138	0.04704401
170	0x3efc0d8b	0.49229082
171	0xbd20f781	-0.039298538
172	0xbed676ad	-0.41887417
173	0x3e992d78	0.29917502
174	0x3ebcca4f	0.368731
175	0xbea231a4	-0.31678498
176	0xbede6b3d	-0.4344119
177	0xbeb8a6bd	-0.3606471
178	0x3e558bf0	0.20854163
179	0xbe54b7ed	-0.20773287
180	0xbefcdbee	-0.49386543
181	0xbd1f23b5	-0.038852412
182	0xbe8094bc	-0.25113475
183	0xbe14c1c7	-0.14527045
184	0xbe4759bf	-0.19467829
185	0xbe28ba56	-0.16477332
186	0xbea54810	-0.32281542
187	0xbdd59b12	-0.10429968
188	0xbea2dcd8	-0.31809115
189	0xbd811d17	-0.063043766
190	0xbe9e00ff	-0.30860135
191	0x3d10550d	0.03523736
192	0x3eb6cbaf	0.35702273
193	0xbe51f748	-0.20504487
194	0xbd81b3d0	-0.06333125
195	0xbdaa094e	-0.08302556
196	0xbe28c663	-0.16481929
197	0xbeb29659	-0.3488033
198	0x3e000c7c	0.12504762
199	0xbd267915	-0.040642817
200	0x3ce6bdee	0.028166737
201	0xbe022488	-0.12709248
202	0xbea3cce8	-0.3199227
203	0xbe387da0	-0.18016672
204	0x3e838574	0.25687754
205	0x3eb020db	0.34400067
206	0xbe259aca	-0.16172329
207	0x3e871b7d	0.2638816
208	0xbe91cb77	-0.28475544
209	0xbcfb2ac8	-0.030660048
210	0xbee5ce72	-0.44884068
211	0xbd92537d	-0.071448304
212	0x3e131585	0.14363678
213	0x3e9ad269	0.30238655
214	0x3e3541a7	0.17700826
215	0x3e73a06a	0.23791662
216	0xbdd7e626	-0.10541944
217	0x3efd0820	0.4942026
218	0xbed35b81	-0.4128075
219	0xbdea16af	-0.11430108
220	0xbda56930	-0.080767035
221	0x3ead3def	0.33836314
222	0x3dcc7e8a	0.09985073
223	0x3efa9cd0	0.48947763
224	0xbeac98e0	-0.33710384
225	0x3e2a2789	0.16616644
226	0xbed71c00	-0.4201355
227	0x3e22726b	0.1586396
228	0xbe6b2b58	-0.22965753
229	0xbe60b9d5	-0.2194589
230	0x3d60806f	0.054809984
231	0x3d4bfcf9	0.0498018
232	0x3efc63f5	0.4929501
233	0x3ecd413b	0.4008883
234	0x3ccf8f10	0.025336772
235	0x3e2f0557	0.1709188
236	0x3dd1be2c	0.102413505
237	0xbddbe74c	-0.10737476
238	0xbeb8a116	-0.360604
239	0xbecd8498	-0.40140224
240	0x3d45c8a6	0.048287056
241	0xbe477438	-0.19477928
242	0x3eea4368	0.45754552
243	0xbe608c48	-0.21928513
244	0x3e0add90	0.13561082
245	0xbe776730	-0.24160457
246	0x3efee2ce	0.49782413
247	0x3e5bcbfb	0.21464531
248	0x3e8cac20	0.2747507
249	0x3e0b06f5	0.13576873
250	0xbd93d380	-0.07218075
251	0xbe2f2550	-0.17104077
252	0xbe6547e0	-0.223907
253	0xbedc2b15	-0.4300162
254	0xbdab22af	-0.08356225
255	0xbe4dd381	-0.20100214

decoder_net.2.bias f4 [32]
0	0x3dd928d2	0.10603489
1	0xbdc09c60	-0.09404826
2	0xbcdfa938	-0.02730237
3	0x3c9254af	0.017862646
4	0x3df76dbd	0.12081478
5	0x3d996b6e	0.07491194
6	0x3e2bfe9b	0.16796343
7	0xbdc2b32c	-0.095068306
8	0xbc6180b1	-0.013763593
9	0xbc8ffdc6	-0.017577063
10	0x3e142c48	0.14470017
11	0x3e2ddf45	0.16979702
12	0x3d38a3f4	0.045078233
13	0xbe0d5757	-0.13802849
14	0xbe067c7f	-0.13133429
15	0x3d04e8bd	0.03244852
16	0xbe1e5345	-0.15461452
17	0xbd87990a	-0.06620987
18	0xbe083e67	-0.13305055
19	0x3dc12bfd	0.09432218
20	0xbc9f9522	-0.019480292
21	0xbe1028a5	-0.14078005
22	0x3de43813	0.11143508
23	0xbe1d8881	-0.15384103
24	0xbc55484c	-0.013017725
25	0x3e29bc88	0.16575825
26	0x3dbf6ad4	0.09346548
27	0xbe17d3ad	-0.14826842
28	0x3cb73dec	0.022368394
29	0xbcfb28c8	-0.030659094
30	0x3da7b41f	0.08188652
31	0x3e2ba488	0.16761982

decoder_net.4.weight f4 [32, 32]
0	0x3e6577b6	0.22408947
1	0x3e1fdc9d	0.15611501
2	0x3ed30637	0.4121568
3	0xbafc6bb7	-0.0019258176
4	0x3e99e854	0.30060065
5	0x3e98d176	0.29847306
6	0x3c960ce5	0.018316695
7	0xbe99cd6c	-0.30039537
8	0xbed9e065	-0.42554012
9	0x3eb1418d	0.34620324
10	0xbef4796c	-0.47748888
11	0x3e6866b7	0.22695433
12	0xbe59a836	-0.21255574
13	0xbd2f298f	-0.042764243
14	0x3e85f537	0.26163647
15	0xbeffe25f	-0.49977395
16	0x3eb1f48f	0.34756896
17	0x3cf07b6b	0.029355725
18	0x3ea17c7f	0.31540295
19	0x3ded5b31	0.11589659
20	0x3e841b68	0.2580216
21	0xbe117efd	-0.14208598
22	0xbe6bc9ca	-0.23026195
23	0x3e6b516d	0.2298028
24	0xbeef9e4f	-0.46800467
25	0xbeb6b454	-0.35684454
26	0xba8c0b7d	-0.0010684576
27	0x3ee322b7	0.44362423
28	0x3df1bf26	0.11804037
29	0xbe5ce83f	-0.2157297
30	0x3e949c67	0.29025576
31	0x3e707150	0.23480725
32	0x3e40d42f	0.18830942
33	0x3ef170e6	0.47156447
34	0x3ec6a9b0	0.38801336
35	0x3e3719d9	0.17880954
36	0xbefd1442	-0.49429518
37	0x3e6842ef	0.22681783
38	0x3e8c5ed8	0.2741611
39	0xbe941e3b	-0.28929314
40	0x3e996fb3	0.29968032
41	0x3efcb808	0.49359155
42	0x3e1e1963	0.15439372
43	0x3ead0e37	0.33799908
44	0x3e986678	0.29765677
45	0xbdb54b7b	-0.088522874
46	0xbee143ae	-0.43996948
47	0xbe4d6d99	-0.2006134
48	0x3e9297d7	0.2863147
49	0xbec5ffdb	-0.38671765
50	0x3edb4abc	0.42830455
51	0x3dcb11df	0.09915518
52	0xbe361fbf	-0.17785548
53	0x3ec4bce5	0.38425365
54	0xbed25d13	-0.41086635
55	0xbd22d186	-0.0397506
56	0xbefbffff	-0.49218747
57	0x3e6f419b	0.2336487
58	0x3d90b940	0.07066584
59	0x3ea6c093	0.32568797
60	0xbe80d446	-0.25161952
61	0x3ebaf657	0.36516067
62	0xbeffbfdf	-0.49951074
63	0x3ed2ab05	0.41146103
64	0x3e5984e5	0.21242101
65	0x3e12d69e	0.14339682
66	0xbec34f59	-0.38146475
67	0xbe871ef0	-0.2639079
68	0xbdadd42d	-0.08487735
69	0x3e867766	0.2626297
70	0x3eb99c18	0.36251903
71	0x3eeb6322	0.4597407
72	0x3de17c58	0.11010045
73	0xbdfa8120	-0.1223166
74	0xbedac95e	-0.42731756
75	0x3aab68aa	0.0013077457
76	0x3d8d4799	0.06898422
77	0xbe4d04c9	-0.20021357
78	0x3e4facfb	0.2028083
79	0xbeb13e34	-0.3461777
80	0x3d9f1f45	0.07769636
81	0xbb7abf2d	-0.0038260922
82	0xbeb74419	-0.35794142
83	0xbeece577	-0.46268818
84	0xbeccde00	-0.40013123
85	0x3ef39aa5	0.47578922
86	0xbe3af140	-0.18256092
87	0x3e0177b3	0.12643318
88	0xbe23a3b0	-0.1598041
89	0x3dc36739	0.095411725
90	0xbed6372a	-0.41838962
91	0x3e6e8788	0.23293889
92	0x3ecd2bb3	0.40072402
93	0xbcc4add4	-0.024008669
94	0x3d010f64	0.03150882
95	0xbed28ea4	-0.4112445
96	0xbe994a32	-0.2993942
97	0xbec60f96	-0.38683766
98	0x3eed22e7	0.4631569
99	0xbcaed03d	-0.02133953
100	0x3e2306c2	0.15920547
101	0xbd886e22	-0.06661631
102	0x3e74e4f7	0.23915468
103	0x3ebaa392	0.3645292
104	0xbebfd679	-0.37468317
105	0xbeaaaf67	-0.33336946
106	0xbe0f3182	-0.1398373
107	0x3d16407c	0.03668259
108	0xbdc8b47f	-0.09800052
109	0x3e5fcd44	0.21855646
110	0x3e646274	0.22303182
111	0x3dd1fcf4	0.10253325
112	0xbede6807	-0.43438742
113	0xbe9bde7c	-0.3044318
114	0x3e86616f	0.2624621
115	0xbe44068d	-0.19143124
116	0xbead8adc	-0.33895004
117	0xbdeb7d6b	-0.11498531
118	0x3ec2e4b5	0.38065115
119	0x3e05c61b	0.13063852
120	0xbe566113	-0.20935468
121	0x3eda69e3	0.4265891
122	0xbdb8ee9e	-0.090298876
123	0x3ed43736	0.41448373
124	0x3ef77a46	0.48335475
125	0xbec039f1	-0.37544206
126	0xbdd65664	-0.104656965
127	0x3ec5a1ac	0.38599908
128	0xbef3a3b9	-0.47585848
129	0x3eb67a15	0.35640016
130	0x3ed00724	0.40630448
131	0x3eef282c	0.46710336
132	0xbe43c989	-0.19119848
133	0x3ed3e997	0.41389152
134	0x3df5be2c	0.11999163
135	0x3ed0add6	0.40757626
136	0x3e4caa36	0.19986805
137	0x3c95e482	0.018297438
138	0xbef959d6	-0.48701352
139	0xbe9bc647	-0.3042471
140	0x3ed12522	0.40848643
141	0x3e4bfff2	0.19921854
142	0xbe1a4992	-0.15067127
143	0x3ef60bc7	0.4805586
144	0xbebd3be2	-0.3695975
145	0x3eaf69b3	0.3426033
146	0x3efbf112	0.4920736
147	0xbe40dd98	-0.18834531
148	0x3e11aebe	0.14226815
149	0x3e9f5630	0.31120443
150	0xbdf7ed62	-0.12105824
151	0x3de44e8d	0.11147795
152	0x3e78e568	0.24306262
153	0xbe1070b1	-0.14105488
154	0xbe92c231	-0.2866378
155	0x3e20b34c	0.15693396
156	0xbedfb031	-0.4368911
157	0xbee0092f	-0.43757007
158	0x3c2257b1	0.009908603
159	0xbe783bd5	-0.24241574
160	0x3e105dcb	0.14098279
161	0x3dc56596	0.096385166
162	0xbed0400f	-0.40673873
163	0xbe94599a	-0.2897461
164	0x3efa623a	0.48903066
165	0xbd021d11	-0.031766
166	0xbd919137	-0.07107776
167	0xbe63e340	-0.22254658
168	0x3e429bc6	0.19004735
169	0x3e3e61a6	0.18591937
170	0x3e4458e3	0.19174533
171	0xbe3cb113	-0.18426923
172	0x3e82d7f9	0.255554
173	0x3ea35631	0.31901696
174	0x3ef10380	0.47072983
175	0xbef223a0	-0.47292805
176	0x3e3ed8f3	0.18637447
177	0xbe3b189c	-0.18271106
178	0xbe14d76f	-0.14535306
179	0xbeb98d51	-0.36240628
180	0x3e0de559	0.1385702
181	0xbecb0fbe	-0.39660448
182	0xbe946cf1	-0.28989366
183	0xbccd6dfa	-0.025076855
184	0x3e3eee59	0.1864561
185	0x3e5f127a	0.21784392
186	0x3ea328cb	0.3186706
187	0xbefe7f88	-0.49706674
188	0xbe71f102	-0.23627093
189	0x3da5bc7a	0.0809259
190	0xbeb6cbfd	-0.35702506
191	0xbe8ca6ee	-0.27471107
192	0xbe4fd0c6	-0.20294484
193	0x3e802948	0.25031495
194	0x3e609299	0.21930923
195	0xbe437706	-0.19088373
196	0xbe8239d4	-0.25434744
197	0x3dcd9166	0.10037498
198	0x3e161c19	0.14659156
199	0x3ee48297	0.44630882
200	0x3eb6e762	0.35723406
201	0xbe0b4f43	-0.13604455
202	0xbd20e0b2	-0.039276786
203	0x3e8abcb8	0.27097106
204	0x3de38332	0.11109008
205	0x3e78e099	0.24304427
206	0x3eebcbbb	0.46053872
207	0x3e303218	0.17206609
208	0xbd0ce78d	-0.03440051
209	0xbef9c2e2	-0.48781496
210	0xbe6c356a	-0.23067251
211	0x3e6f8aef	0.23392843
212	0x3ee8e7d6	0.45489377
213	0x3e2c86cd	0.16848297
214	0xbeb2a1de	-0.3488912
215	0xbece6c19	-0.40316847
216	0x3ef60ad6	0.48055142
217	0xbe1a9a25	-0.15097864
218	0xbe02ec0a	-0.12785354
219	0xbdcbeebc	-0.09957644
220	0x3e927626	0.28605765
221	0x3ee5b189	0.4486201
222	0x3e336e4c	0.17522544
223	0x3ea6a22c	0.32545602
224	0x3edda8b8	0.43292785
225	0xbef917fe	-0.48651117
226	0xbe5099c0	-0.20371151
227	0xbe888992	-0.26667458
228	0x3e8415ae	0.2579779
229	0x3eb8a530	0.36063528
230	0x3d83f541	0.06443263
231	0x3eaefa79	0.3417547
232	0xbeedeff6	-0.46472138
233	0xbdc94039	-0.098267026
234	0x3d51956a	0.051167883
235	0xbd45a4d5	-0.0482529
236	0x3ec725e5	0.388961
237	0xbe4f70a4	-0.20257813
238	0x3ed41172	0.4141956
239	0xbe0cb031	-0.13739087
240	0x3d015d3e	0.031583063
241	0x3da5cbdc	0.08095524
242	0x3ed5da7c	0.41768253
243	0xbdc0af50	-0.09408438
244	0xbd21a533	-0.039464187
245	0x3eb875d6	0.36027402
246	0x3efd1bdf	0.49435326
247	0xbe90dcc5	-0.28293434
248	0x3e14ba07	0.14524089
249	0xbc548f49	-0.012973615
250	0xbeef163f	-0.4669666
251	0xbede6574	-0.43436778
252	0xbdffb491	-0.12485612
253	0xbdee788a	-0.11644085
254	0x3d9dbf8d	0.07702551
255	0xbe834638	-0.2563951

decoder_net.4.bias f4 [32]
0	0xbcbd9d59	-0.023146318
1	0x3e0bf259	0.13666667
2	0xbd01c830	-0.031685054
3	0x3d99eec8	0.07516247
4	0x3e0b04c6	0.1357604
5	0x3e08a8ae	0.13345596
6	0x3dac6f4f	0.08419668
7	0x3defc968	0.11708337
8	0xbd46f59e	-0.048574083
9	0x3c8d012b	0.017212471
10	0xbd98556e	-0.074381694
11	0xbe2bb6e9	-0.16768993
12	0x3e1393bd	0.14411826
13	0xbe2dbf2f	-0.16967462
14	0xbdda50a3	-0.106599115
15	0xbd809ae7	-0.06279545
16	0xbe29e604	-0.1659165
17	0xbe0967e1	-0.13418533
18	0xbdc4bc6e	-0.096062526
19	0x3c84c82e	0.016208734
20	0xbe20b265	-0.15693052
21	0xbdfa4e4f	-0.122219674
22	0xbdd9bb5f	-0.10631441
23	0xbe09584b	-0.13412587
24	0x3d1a7e93	0.037718367
25	0x3b2e80e6	0.0026627122
26	0x3d1bd5ec	0.03804581
27	0x3e247971	0.16061951
28	0xbd95b191	-0.07309259
29	0xbd8206c1	-0.063489445
30	0x3d772812	0.06034095
31	0x3e1a06a4	0.15041596

decoder_net.6.weight f4 [32, 32]
0	0xbe2a9803	-0.1665955
1	0x3efafa9b	0.49019322
2	0xbd6250a4	-0.055252686
3	0xbc16a004	-0.009193424
4	0x3e216382	0.15760615
5	0xbec0ff3b	-0.37694725
6	0x3ed4aa46	0.41536158
7	0x3e13bd09	0.1442758
8	0x3eb26772	0.34844548
9	0x3e181bf0	0.14854407
10	0xbed76fb2	-0.42077404
11	0x3e50aabf	0.20377634
12	0xbd22334f	-0.039599713
13	0x3eb8aa89	0.36067608
14	0x3e41a548	0.18910706
15	0x3db99bcf	0.09062921
16	0x3e59f247	0.21283828
17	0x3ea83eb6	0.32860345
18	0x3e1ee086	0.15515336
19	0x3ed9fbc8	0.42574906
20	0x3ef319c4	0.47480595
21	0xbecbc463	-0.3979827
22	0xbeaed276	-0.34144944
23	0xbec043a1	-0.37551597
24	0xbec9aced	-0.39389744
25	0x3e86b2b3	0.26308212
26	0x3ea9d204	0.33168042
27	0x3d128c48	0.035778314
28	0xbdbb4085	-0.091431655
29	0xbee58cb1	-0.44833902
30	0xbef6e77f	-0.48223493
31	0x3e049d8f	0.12950729
32	0x3e000664	0.12502438
33	0x3e396afa	0.18107215
34	0xbd0ba7d9	-0.03409562
35	0x3e0012e6	0.12507209
36	0x3dfe35dc	0.124126166
37	0xbe5a44e9	-0.2131535
38	0x3ed701a4	0.4199344
39	0xbcedf5b2	-0.02904782
40	0xbc26bad9	-0.010176384
41	0xbea70f07	-0.32628652
42	0x3ebe7344	0.37197316
43	0x3edf7ac5	0.43648353
44	0x3ded32bb	0.11581942
45	0xbea56876	-0.3230626
46	0xbe96255a	-0.29325372
47	0xbefbf482	-0.49209982
48	0xbd2ed466	-0.042683028
49	0x3e74e8af	0.23916887
50	0xbe8c0b3e	-0.27352327
51	0xbe804cea	-0.2505868
52	0xbe9317e1	-0.28729156
53	0x3dbf0063	0.09326246
54	0x3e766fc4	0.24066073
55	0xbec092dd	-0.37612048
56	0xbe81cca1	-0.25351432
57	0x3e4eb53d	0.20186324
58	0x3eba618b	0.36402544
59	0x3ea14e5d	0.315051
60	0xbdf81e4f	-0.12115156
61	0xbd3f6d95	-0.046735365
62	0xbe97e9fc	-0.29670703
63	0x3e19f62b	0.15035312
64	0x3ec23229	0.37928894
65	0xbcfb4609	-0.030673044
66	0xbeac465f	-0.3364744
67	0x3ef9386a	0.48675853
68	0x3e4f16cb	0.20223539
69	0x3e32eca4	0.17473084
70	0x3ee038bf	0.43793294
71	0xbe1158f2	-0.14194086
72	0xbcdbeab4	-0.026845314
73	0x3ddf61c2	0.10907318
74	0x3ec7c31e	0.3901605
75	0x3e6d5519	0.23176993
76	0xbd842174	-0.06451693
77	0x3ec6adb3	0.38804397
78	0x3c858ce7	0.016302539
79	0xbe60c58f	-0.21950363
80	0x3c9a9ce2	0.018873636
81	0x3efcea92	0.49397713
82	0xbee7bd21	-0.4526148
83	0x3ede546c	0.43423784
84	0xbec56a48	-0.3855765
85	0xbe9ff0c4	-0.31238377
86	0xbedf1cf9	-0.43576792
87	0x3eaa1458	0.33218646
88	0x3dae5fff	0.085144036
89	0xbeab7192	-0.33485085
90	0xbe4055de	-0.18782756
91	0x3eaf564b	0.34245524
92	0x3ef5c12f	0.4799895
93	0x3cb0e2bf	0.021592496
94	0x3e085599	0.13313903
95	0xbe39c6e3	-0.18142276
96	0x3e4fa347	0.20277129
97	0x3e1298d3	0.1431611
98	0xbedea461	-0.43484786
99	0x3ee987f7	0.45611545
100	0x3ebf15bb	0.37321267
101	0x3ecd0ebd	0.40050307
102	0x3d924312	0.07141699
103	0xbdeec6ff	-0.11659049
104	0x3ebeb56a	0.37247783
105	0xbeb6fe12	-0.35740715
106	0xbedd0959	-0.43171194
107	0x3d077468	0.033069998
108	0x3e2cc9ba	0.16873828
109	0x3de82c56	0.113365814
110	0x3d47386a	0.048637785
111	0x3deb05a9	0.11475689
112	0xbd964c5b	-0.073387824
113	0xbe98f2e3	-0.29872808
114	0xbee4847c	-0.44632328
115	0xbdd9c59d	-0.10633395
116	0x3e6be35f	0.23035954
117	0xbe6645d8	-0.22487581
118	0xbe670326	-0.22559795
119	0xbdc288d3	-0.094987534
120	0x3ed582b6	0.41701287
121	0x3e8e028d	0.2773632
122	0xbe764962	-0.24051431
123	0xbd10190e	-0.035180144
124	0xbef53360	-0.4789076
125	0x3e03f092	0.12884739
126	0xbe6a0640	-0.22853947
127	0x3e4ee82d	0.20205756
128	0x3ddb4902	0.107072845
129	0x3d5a1a30	0.05324763
130	0x3b5f63b7	0.0034086534
131	0x3eb27dd2	0.34861618
132	0x3c9212ad	0.017831171
133	0x3e9207cf	0.28521582
134	0x3e6ca23e	0.23108765
135	0x3d3992f3	0.045306157
136	0xbd0d473b	-0.03449176
137	0xbec8a61d	-0.39189234
138	0x3bf1d52d	0.007380149
139	0xbee4ec45	-0.4471151
140	0xbd6e85dd	-0.05823313
141	0xbe8f29c4	-0.27961552
142	0x3ede53ae	0.43423218
143	0xbeb43fd4	-0.35204947
144	0xbe9fead4	-0.31233847
145	0x3e562677	0.2091311
146	0xbebd630f	-0.36989638
147	0xbe060788	-0.1308881
148	0xbe86c351	-0.2632089
149	0x3d350aec	0.04419987
150	0x3ea14b3f	0.3150272
151	0x3efe7c06	0.49703997
152	0xbcecc06c	-0.028900348
153	0xbeabeaa7	-0.33577463
154	0x3cf43895	0.029812137
155	0x3e044fba	0.12921038
156	0x3e0522e2	0.13001588
157	0x3ebbf5c8	0.36710954
158	0xbe3c960b	-0.18416612
159	0x3ee9f2d8	0.45693088
160	0xbed8e404	-0.42361462
161	0x3e83d73e	0.25750154
162	0xbe88f0f0	-0.2674632
163	0xbebdfdec	-0.3710779
164	0x3edc3ba9	0.43014267
165	0x3ec2de04	0.3806001
166	0x3db04983	0.08607771
167	0x3c25189e	0.01007667
168	0xbe8c02eb	-0.27345976
169	0xbe9898f8	-0.29804206
170	0xbcb5ad24	-0.022177286
171	0xbcab61bb	-0.020920625
172	0x3ee94c47	0.45566007
173	0x3df546b7	0.119763784
174	0xbe265d75	-0.16246589
175	0x3e8580dd	0.26074877
176	0xbea39115	-0.31946626
177	0x3e1f9640	0.1558466
178	0x3e99f61d	0.30070582
179	0xbe01e281	-0.1268406
180	0x3e026c65	0.12736662
181	0xbecf95de	-0.40544027
182	0x3eea5b1d	0.4577264
183	0x3ed85803	0.42254648
184	0x3ed43e5a	0.4145382
185	0x3e05d69e	0.13070151
186	0x3eaefef9	0.34178904
187	0x3eb28211	0.34864858
188	0xbce75f78	-0.028243765
189	0x3cd71ea7	0.026259733
190	0xbede2664	-0.43388665
191	0x3e6688fb	0.22513191
192	0x3b134691	0.002247248
193	0xbea496ad	-0.32146206
194	0x3eb3cbc4	0.35116398
195	0xbda3e779	-0.08003134
196	0x3c67f6fc	0.014158007
197	0xbd23fafa	-0.04003427
198	0x3ef230c2	0.47302824
199	0x3e91fdfd	0.2851409
200	0x3efe6b77	0.49691364
201	0xbeea6a9b	-0.4578446
202	0xbed9df94	-0.4255339
203	0x3e219f24	0.15783364
204	0xbe0ab668	-0.13546145
205	0xbee9706d	-0.45593587
206	0x3d9d8b7f	0.076926224
207	0xbe420f3e	-0.18951127
208	0xbdc286d1	-0.094983704
209	0x3eaa59b1	0.33271554
210	0xbd90a781	-0.07063199
211	0x3edfac12	0.43685967
212	0xbe05909d	-0.13043447
213	0xbd90f889	-0.07078654
214	0x3ed83d4c	0.42234266
215	0xbec36934	-0.381662
216	0x3dd3a48b	0.103341185
217	0xbe673a3d	-0.2258081
218	0xbe99218a	-0.299084
219	0xbeb47d01	-0.3525162
220	0x3ee6e7a7	0.45098612
221	0xbea6cae8	-0.3257668
222	0x3ef1f3f4	0.47256434
223	0xbeb5ce7d	-0.355091
224	0x3edca6b9	0.4309595
225	0xbedf49e8	-0.43611073
226	0xbeeca289	-0.46217754
227	0x3edb0f5a	0.4278515
228	0x3e56ea78	0.2098788
229	0x3ea32d27	0.31870386
230	0xbef0c3f5	-0.47024503
231	0x3e8589f2	0.26081806
232	0x3ecdda34	0.40205538
233	0xbeb5310f	-0.3538899
234	0xbe025958	-0.12729394
235	0x3eaa3665	0.33244625
236	0x3d0c68b9	0.03427956
237	0x3e383730	0.17989802
238	0x3ded3ce0	0.115838766
239	0xbd5cc10c	-0.05389504
240	0x3d8cfda9	0.06884319
241	0x3e4060be	0.18786904
242	0x3e9e8b25	0.30965534
243	0xbea97542	-0.33097273
244	0x3e9ff32b	0.3124021
245	0xbec51e1c	-0.38499534
246	0x3e96f6a7	0.29485056
247	0x3dab542c	0.08365664
248	0x3d86dafb	0.06584736
249	0x3e896156	0.26832074
250	0xbe8c5a55	-0.27412668
251	0x3d9abb42	0.07555248
252	0xbd8df164	-0.06930807
253	0x3d9d14f5	0.07670013
254	0x3eb4aa5d	0.35286227
255	0xbe16e666	-0.14736328

decoder_net.6.bias f4 [32]
0	0xbda74c3f	-0.0816884
1	0x3e0f3484	0.13984877
2	0xbe2247bd	-0.15847678
3	0xbe08123b	-0.13288204
4	0xbe249024	-0.1607061
5	0xbe23e793	-0.16006307
6	0x3d24be45	0.040220518
7	0xbdf43f4c	-0.119261354
8	0xbd3115c0	-0.043233633
9	0xbdaf108a	-0.085480765
10	0xbd4ee0da	-0.050507404
11	0xbda0ef1c	-0.078581065
12	0x3ddfd6de	0.109296545
13	0xbd9bfdfc	-0.07616803
14	0xbdba9ed9	-0.09112329
15	0x3dc74b0e	0.097311124
16	0x3e23488e	0.15945646
17	0x3e167a1c	0.14695019
18	0xbcdb3642	-0.02675927
19	0x3cd9e6d3	0.026599323
20	0xbdbb395d	-0.091418006
21	0xbc6d2b22	-0.014475616
22	0x3c8f3207	0.01747991
23	0xbdccc35a	-0.09998198
24	0xbce868bd	-0.028370256
25	0x3da5d36e	0.08096968
26	0x3d3164a5	0.043308873
27	0x3e2595e7	0.16170464
28	0xbd73d013	-0.059524607
29	0xbd97692c	-0.07393107
30	0xbe25aebb	-0.16179936
31	0x3dab0864	0.0835121

decoder_net.8.weight f4 [32, 32]
0	0xbefaf3fa	-0.49014264
1	0xbe2891e3	-0.16461901
2	0xbe843408	-0.25820947
3	0xbee4ddf3	-0.44700584
4	0xbed641ea	-0.41847163
5	0x3ea679f7	0.32514927
6	0xbea51271	-0.32240632
7	0xbe9b67b9	-0.30352572
8	0xbe5c9723	-0.21542029
9	0xbd6264e4	-0.055271998
10	0x3e98bea2	0.2983294
11	0xbefb458a	-0.49076492
12	0xbe627231	-0.22113873
13	0xbda762a5	-0.08173112
14	0x3e0b4ac6	0.13602743
15	0xbe8f363e	-0.2797107
16	0xbe08ab71	-0.1334665
17	0xbe8ad1b6	-0.27113122
18	0xbdea9280	-0.11453724
19	0x3e838f54	0.25695288
20	0xbe5a1fdd	-0.21301217
21	0xbd8b3a7c	-0.067982644
22	0xbea65e22	-0.32493693
23	0x3e11413e	0.14185044
24	0xbea557a1	-0.32293418
25	0x3df03d62	0.11730458
26	0xbefd9ea8	-0.49535108
27	0x3e495558	0.19661462
28	0x3e35f5ce	0.17769548
29	0xbec34869	-0.38141182
30	0xbd7a7337	-0.061145034
31	0xbe987066	-0.29773253
32	0xbe77b612	-0.24190548
33	0x3e6ff0b7	0.23431669
34	0xbe90874d	-0.28228226
35	0x3e8ee54f	0.27909324
36	0x3e832b9c	0.2561921
37	0x3ee42ad6	0.4456393
38	0xbe3c3bcc	-0.18382186
39	0xbee14e15	-0.44004884
40	0x3ea41f06	0.3205492
41	0xbde98c15	-0.11403672
42	0xbe4c1619	-0.19930305
43	0xbe755bbb	-0.23960774
44	0x3eec849b	0.4619492
45	0xbec61bbb	-0.38693032
46	0x3de52a6a	0.111897305
47	0x3dd2095f	0.10255694
48	0xbe4ad96f	-0.19809507
49	0x3e935ec3	0.28783235
50	0x3e95cb4a	0.2925666
51	0x3eae198e	0.34003872
52	0x3e0d5347	0.13801299
53	0x3e07c86e	0.13260052
54	0x3e0d9407	0.13825999
55	0xbe269de9	-0.16271175
56	0xbecad172	-0.3961292
57	0x3c431453	0.011906701
58	0x3d2d9d3e	0.042386286
59	0x3e9d0b94	0.30672896
60	0x3db3344b	0.087502085
61	0x3c8ce89c	0.01720076
62	0xbe38d794	-0.18050987
63	0x3ed4c865	0.4155914
64	0x3ee0d377	0.43911335
65	0x3efca8e2	0.49347597
66	0xbcee7406	-0.029108059
67	0xbe7e201c	-0.24816936
68	0xbecd8708	-0.40142083
69	0xbefd2a10	-0.49446154
70	0xbecb5ed1	-0.39720777
71	0xbe20cfc7	-0.15704261
72	0x3ec5f364	0.38662255
73	0xbeea785e	-0.45794958
74	0xbe1b0ad5	-0.15140851
75	0x3e4b12ac	0.19831342
76	0x3e6ddd0f	0.23228858
77	0x3cb19e7e	0.02168202
78	0xbddf9d97	-0.1091873
79	0x3cda6e71	0.02666399
80	0xbea1ee3c	-0.3162707
81	0x3e7f601a	0.24939004
82	0x3e9725d6	0.29521054
83	0x3db1702d	0.08663974
84	0x3eb508bf	0.35358235
85	0x3e97dd88	0.29661202
86	0xbef18304	-0.4717027
87	0xbe4c791e	-0.19968078
88	0xbed860c1	-0.42261317
89	0x3e386b4c	0.1800968
90	0xbee78a67	-0.4522278
91	0x3def5395	0.11685864
92	0xbece8623	-0.40336713
93	0x3e841cd9	0.2580326
94	0xbeb0f34f	-0.3456063
95	0xbee7cef0	-0.45275068
96	0xbe4c9b19	-0.1998104
97	0x3e2791fb	0.16364281
98	0xbe5cf9be	-0.21579644
99	0x3e41941e	0.18904158
100	0x3c5cab50	0.013468578
101	0xbe8a6252	-0.27028137
102	0xbcf3194d	-0.02967515
103	0x3ea14ff7	0.3150632
104	0xbe9bcc58	-0.3042934
105	0x3ede5a82	0.43428427
106	0x3e0f2887	0.13980304
107	0x3e85c934	0.26130068
108	0xbdc0b6fa	-0.094099
109	0x3ebe7e34	0.3720566
110	0xbec019f2	-0.37519795
111	0xbe50cdc3	-0.20390992
112	0x3ea1b749	0.31585148
113	0xbe8ac5bb	-0.2710398
114	0x3ed4e37b	0.41579804
115	0xbe3b9a27	-0.18320523
116	0xbef3780a	-0.4755252
117	0x3ef1b060	0.47204876
118	0x3ed20b8c	0.41024435
119	0x3e552a87	0.20817004
120	0xbedbff11	-0.42968038
121	0x3ddf02f0	0.10889232
122	0xbdee0714	-0.11622444
123	0x3ef71aee	0.48262733
124	0x3de93103	0.11386301
125	0xbd2a13f9	-0.041522954
126	0xbefe285a	-0.4964016
127	0xbe39f820	-0.18161058
128	0x3ebdee38	0.3709581
129	0xbec37b4a	-0.3818
130	0x3d5d44a7	0.05402055
131	0xbec89c55	-0.39181772
132	0xbd28fe77	-0.0412583
133	0xbdf38208	-0.11890036
134	0xbd7fd606	-0.062459968
135	0xbc6993fe	-0.0142564755
136	0xbe15f917	-0.14645801
137	0xbe39972f	-0.18124078
138	0x3e75371c	0.23946804
139	0x3d8b0c54	0.06789461
140	0xbe813afc	-0.25240314
141	0x3e84fec6	0.25975627
142	0x3efd8a57	0.49519607
143	0x3e8e7d0d	0.2782978
144	0x3e5e4060	0.21704245
145	0xbdafe350	-0.08588278
146	0x3ebfa319	0.3742912
147	0xbe406436	-0.18788227
148	0x3e8109c8	0.25202775
149	0x3eeb5afa	0.45967847
150	0xbd782424	-0.06058134
151	0xbe8aef7a	-0.2713583
152	0x3e1f4d43	0.15556817
153	0xbd90522f	-0.07046925
154	0x3e9162cb	0.28395686
155	0xbe61320c	-0.21991748
156	0x3eb49638	0.35270858
157	0x3eb6e293	0.35719737
158	0x3e8191b6	0.2530648
159	0x3d9449b8	0.07240623
160	0xbe37acf1	-0.17937066
161	0x3eb7b4f7	0.35880253
162	0xbda146aa	-0.07874806
163	0xbe31fc6e	-0.1738145
164	0x3ec957bd	0.39324751
165	0xbdfde510	-0.12397206
166	0x3e6e06ca	0.23244777
167	0x3e5dc232	0.21656111
168	0xbe468938	-0.19388282
169	0x3eab8b4a	0.33504707
170	0xbd2c2745	-0.042029638
171	0x3e8546d0	0.26030588
172	0xbea9806e	-0.33105797
173	0x3e31991a	0.1734356
174	0x3ed25f9b	0.41088566
175	0xbe63cd5b	-0.22246306
176	0x3eef2ac7	0.46712324
177	0xbe9d31db	-0.307021
178	0x3e227d40	0.15868092
179	0x3e2722c7	0.1632186
180	0x3bc3649a	0.0059629204
181	0x3e35b68d	0.17745419
182	0x3e091f47	0.13390838
183	0xbe6671ae	-0.22504303
184	0xbecf21de	-0.40455526
185	0xbeba2f1c	-0.36364067
186	0xbc671fad	-0.014106673
187	0x3a7505c1	0.00093468657
188	0xbd6be205	-0.057588596
189	0xbbff4c69	-0.007791091
190	0xbedae991	-0.42756322
191	0xbeeea9de	-0.46613973
192	0xbe396598	-0.18105161
193	0xbee06f0b	-0.4383472
194	0x3e806240	0.2507496
195	0xbe1f80f0	-0.1557653
196	0xbe7048aa	-0.23465219
197	0x3d7943b3	0.06085558
198	0x3dcba688	0.09943873
199	0x3e849972	0.2589832
200	0x3cb514f0	0.02210471
201	0x3e2ece94	0.17070991
202	0x3df27205	0.11838154
203	0x3edde5fc	0.43339527
204	0x3e139fa1	0.14416362
205	0x3e3fec89	0.18742575
206	0x3c5a5669	0.013326266
207	0x3e5d1750	0.21590924
208	0xbcb38120	-0.021912158
209	0xbe789f29	-0.24279465
210	0xbe9434eb	-0.28946623
211	0x3e973a5b	0.2953671
212	0x3d1c9524	0.03822817
213	0x3ef9d967	0.48798677
214	0x3e955ef5	0.2917401
215	0x3edf18c9	0.43573597
216	0xbd7482a4	-0.0596949
217	0x3ea2f5da	0.31828195
218	0x3d8ab50c	0.06772813
219	0x3ddaee31	0.10689963
220	0x3e14389f	0.14474724
221	0xbe9b81d5	-0.3037249
222	0x3ee68070	0.45019865
223	0x3e3ce3ff	0.18446349
224	0xbddbd472	-0.1073388
225	0xbebf2811	-0.37335256
226	0xbe8e7bb2	-0.27828747
227	0xbd2a4ae9	-0.041575346
228	0x3db7e02e	0.08978306
229	0x3e460e47	0.19341384
230	0x3efac0b5	0.4897515
231	0x3eb6e9b4	0.35725176
232	0xbc9d3391	-0.019189628
233	0xbdc3d2db	-0.09561702
234	0x3ecf5a8f	0.40498778
235	0x3c316ab7	0.010828665
236	0x3dc77721	0.09739519
237	0xbcdb30e8	-0.026756719
238	0x3ed887aa	0.42291003
239	0x3e8b6f4f	0.2723336
240	0x3e646af2	0.22306421
241	0x3e3b6efd	0.18304057
242	0xbd65c00a	-0.056091346
243	0x3e2360f1	0.15954949
244	0xbeb4ba90	-0.35298586
245	0xbea6afcd	-0.32556
246	0x3e297725	0.16549356
247	0x3deabb9c	0.11461565
248	0xbea78fec	-0.3272699
249	0x3e4f99d0	0.20273519
250	0x3e63dca3	0.22252135
251	0x3e97a189	0.2961543
252	0xbe6c897c	-0.23099321
253	0xbe874f69	-0.26427773
254	0xbbf2d741	-0.007410914
255	0xbcd2161d	-0.02564531

decoder_net.8.bias f4 [32]
0	0xbd203241	-0.039110426
1	0x3e23a76a	0.15981832
2	0x3e301f5e	0.17199466
3	0x3cbd3a1f	0.023099003
4	0xbe08862f	-0.13332437
5	0xbb7b3127	-0.0038328858
6	0x3e12074c	0.14260596
7	0xbdf51270	-0.11966407
8	0xbd740be8	-0.059581667
9	0x3d7596bb	0.0599582
10	0x3d11e4ba	0.03561852
11	0x3e25e3c3	0.16200165
12	0x3d01ba7b	0.031671982
13	0x3a41c23c	0.0007391309
14	0x3cdf42ac	0.027253471
15	0xbd1ec6d5	-0.03876384
16	0xbe25d38b	-0.16193978
17	0xbd8595c4	-0.06522706
18	0xbe21a888	-0.15786946
19	0x3e005009	0.12530531
20	0x3c0e622a	0.008690396
21	0x3cc6715c	0.024223976
22	0xbc5b20ef	-0.013374551
23	0xbdc15c41	-0.09441424
24	0xbe034171	-0.12817933
25	0xbce4933a	-0.027902234
26	0x3d4521b3	0.04812784
27	0xbdc69702	-0.09696771
28	0xbdd6504a	-0.10464533
29	0x3de9ff20	0.11425614
30	0xbd87056c	-0.06592831
31	0x3dcb9172	0.09939851

decoder_net.10.weight f4 [5, 32]
0	0x3e90c055	0.28271738
1	0x3ebc338f	0.36758086
2	0x3ed1cb62	0.4097548
3	0xbe1d8ee9	-0.15386547
4	0xbd649a81	-0.05581141
5	0xbe916eb9	-0.28404787
6	0x3d03f4ac	0.03221576
7	0x3c352ee0	0.011058539
8	0xbdbb3cc1	-0.09142447
9	0xbe550945	-0.20804317
10	0x3eb7f177	0.3592641
11	0x3ea8fde2	0.33006197
12	0xbee20909	-0.44147518
13	0xbee87583	-0.45402154
14	0xbe8a0fd8	-0.26965213
15	0xbd4ca3f9	-0.049961064
16	0xbd5422cd	-0.051791
17	0x3eebf971	0.46088746
18	0x3bb31763	0.0054654344
19	0xbd81fbd5	-0.06346861
20	0x3eb38d59	0.35068777
21	0xbe13d050	-0.14434934
22	0x3eba792f	0.3642058
23	0xbdc1d6c3	-0.09464791
24	0xbe310135	-0.17285617
25	0x3d5ad160	0.05342233
26	0xbeb97cfb	-0.36228165
27	0x3ee6bbd6	0.45065182
28	0x3e122056	0.14270148
29	0x3ee2bd95	0.44285265
30	0x3efc0d05	0.49228683
31	0x3d08b495	0.03337534
32	0xbcac8cee	-0.021063294
33	0xbd4d63be	-0.05014395
34	0xbe951395	-0.29116502
35	0x3e6f3f97	0.23364101
36	0xbeb089f8	-0.34480262
37	0x3ed0e625	0.40800586
38	0x3e5f1252	0.21784332
39	0xbd0590ea	-0.032608904
40	0x3e9afdfe	0.30271906
41	0x3d99c43a	0.0750813
42	0x3ece2382	0.40261465
43	0xbe92e47f	-0.28689954
44	0xbebf13e5	-0.37319866
45	0xbe534b9f	-0.20634316
46	0x3ea58c2f	0.32333514
47	0x3e92056e	0.28519768
48	0xbe287dab	-0.16454189
49	0xbde8b08d	-0.113617994
50	0x3e8c5a2d	0.2741255
51	0xbef81c33	-0.48459014
52	0x3e5d78c7	0.21628104
53	0x3d6cec33	0.057842445
54	0x3dfff6a2	0.12498213
55	0xbef79872	-0.48358494
56	0x3ca06829	0.019580917
57	0x3d91be80	0.07116413
58	0x3ec2d84f	0.38055655
59	0x3ed273d6	0.41104
60	0xbd4f2e1b	-0.05058108
61	0x3ee64b1e	0.44979185
62	0xbeef3296	-0.46718282
63	0xbca4fcf6	-0.020140152
64	0x3c80cba7	0.015722109
65	0xbec0ca6d	-0.3765444
66	0x3e916efe	0.28404993
67	0x3ee39f65	0.44457546
68	0xbe57fe2e	-0.21093056
69	0xbec51fa0	-0.3850069
70	0x3d4a3dda	0.049375392
71	0x3edf11c1	0.43568233
72	0xbe4c4122	-0.19946721
73	0xbe3dcb5a	-0.18534604
74	0x3e673ad0	0.22581029
75	0x3ee19e82	0.44066244
76	0x3ef3e5f2	0.47636372
77	0x3ee7bd33	0.45261535
78	0x3eb77686	0.35832614
79	0x3e87f52a	0.26554233
80	0xbefa9fd9	-0.4895008
81	0x3ee87c07	0.45407125
82	0xbe29023c	-0.16504759
83	0xbed21bae	-0.41036743
84	0xbe945f49	-0.28978947
85	0xbebeddbd	-0.37278548
86	0xbebac92a	-0.364816
87	0xbcf8ce7a	-0.030371893
88	0x3e6b11ea	0.22956052
89	0xbec4a939	-0.38410357
90	0xbee56a5e	-0.44807714
91	0x3e86c6ef	0.2632365
92	0x3de36eeb	0.1110514
93	0x3e319e97	0.17345653
94	0xbe7154e5	-0.23567541
95	0x3e66009b	0.22461168
96	0xbe705dcb	-0.23473279
97	0x3efd0920	0.49421024
98	0x3e0a1133	0.13483123
99	0xbeb94b61	-0.36190322
100	0x3e5c2198	0.2149719
101	0x3ef5bbec	0.47994936
102	0xbe94ee53	-0.29088077
103	0x3de2e9b0	0.110797286
104	0xbe3c7636	-0.18404469
105	0xbebc7631	-0.36808923
106	0x3e4b2d90	0.198416
107	0x3ead7900	0.33881378
108	0x3ee6a2ff	0.4504623
109	0x3d7560b3	0.059906673
110	0x3c1315db	0.008977379
111	0xbd0e6c39	-0.034771178
112	0x3e920d96	0.2852599
113	0xbd273225	-0.040819306
114	0x3e111e7d	0.14171787
115	0xbd87824b	-0.06616648
116	0xbe599449	-0.21247973
117	0x3ea82d28	0.3284695
118	0x3e4d59f2	0.20053843
119	0x3e1f5401	0.15559389
120	0xbd3900b6	-0.045166694
121	0x3de215c5	0.110393085
122	0x3e088bba	0.13334551
123	0x3c8ce2e7	0.01719804
124	0xbe36f637	-0.17867361
125	0xbdd230a4	-0.10263184
126	0xbe9a016e	-0.30079216
127	0xbe772306	-0.24134454
128	0xbef3cf69	-0.4761918
129	0x3da7a2c2	0.081853405
130	0xbe96d67b	-0.2946051
131	0xbeb854a1	-0.36002067
132	0xbc5dc719	-0.013536238
133	0xbeb2a448	-0.34890962
134	0xbefafd2c	-0.4902128
135	0x3e60fef9	0.21972264
136	0x3e72b5fe	0.23702237
137	0xbda724f2	-0.08161344
138	0xbeea42d8	-0.45754123
139	0x3ed9b4c1	0.42520717
140	0x3edeeec7	0.43541548
141	0x3ef714bb	0.48258004
142	0x3e98395f	0.2973127
143	0x3ed9ec4d	0.42563096
144	0xbeb07e3f	-0.34471318
145	0xbef8e9bb	-0.48615822
146	0xbec02b03	-0.37532815
147	0x3efd139f	0.49429032
148	0xbee3fd14	-0.4452902
149	0xbe0ac6e2	-0.1355243
150	0x3efd2ab0	0.4944663
151	0x3efa33ad	0.4886755
152	0x3e203fbe	0.15649316
153	0x3efe1410	0.4962468
154	0x3d9e5bab	0.07732328
155	0x3eaa2514	0.33231413
156	0xbdac36a0	-0.084088564
157	0x3e8dd645	0.27702537
158	0xbe74fa5c	-0.2392363
159	0x3eef990c	0.46796453

decoder_net.10.bias f4 [5]
0	0xbcbccd7b	-0.0230472
1	0x3de07561	0.10959888
2	0x3dc4bb3e	0.09606026
3	0x3cb19d48	0.021681443
4	0x3c9ca7cf	0.019122986
