Action_Net_999.pt (torch, 54946 bytes, 12 tensors)

decoder_net.0.weight f4 [32, 255]
000000 c5 29 e4 3d 15 3b 43 3e e4 e5 c8 3e 16 b7 08 3e
       0.111407794 0.19065507 0.39237893 0.13351092
000010 c2 64 8c 3e a9 3d b2 3e 90 11 c6 be 34 0b 88 be
       0.27420622 0.34812668 -0.38685274 -0.26571047
000020 69 e3 8b 3e 5b 24 cb 3d 7b db 94 be 04 b7 16 3e
       0.27321938 0.09919044 -0.290737 0.14718252
000030 d9 41 e9 be ef 67 40 be 8f 6d 80 3e 1c bc 67 bc
       -0.4555805 -0.18789648 0.25083587 -0.01414397
000040 9d 52 ad be 96 4a 7d 3e 1a a6 07 3d 66 cb 8e bd
       -0.3385209 0.24735484 0.03311739 -0.06972389
000050 3e ef f5 be 06 eb 3a be 57 6e 58 3d f5 d5 8a be
       -0.4803409 -0.18253717 0.052839603 -0.2711636
000060 98 dd ae 3d 88 5c b6 be f5 09 c6 3e f3 e7 c4 3e
       0.085383594 -0.3561747 0.38679472 0.38458213
000070 15 fc 95 3e 19 24 71 bd 80 c8 fe be 35 bc 48 be
       0.29293886 -0.058872316 -0.49762344 -0.19603045
000080 fb 14 21 bd 1f a3 eb be ef 43 c9 3e e6 31 11 3e
       -0.03932665 -0.4602289 0.39309642 0.14179191
000090 78 e3 c1 3e e4 8f e4 be e1 96 82 be 39 c3 e9 3d
       0.37868857 -0.4464103 -0.25505736 0.11414189
0000a0 e5 60 ea bb de ed 94 be 5e 68 bb 3e 6e 3a 52 3e
       -0.007152664 -0.29087728 0.36603063 0.20530102
0000b0 ab 28 c1 bc 8b 29 f3 3e 0b 74 fa be 20 6f e8 be
       -0.023578962 0.47492632 -0.4891666 -0.45397282
0000c0 4e f0 c9 3d b5 1a e8 3e ef 12 90 3e b6 48 8c be
       0.098602876 0.45332876 0.28139445 -0.27399224
0000d0 3f 06 b7 3e c3 d4 84 3e d3 fd ef 3c a7 1a a2 3e
       0.35746953 0.25943574 0.029295838 0.3166096
0000e0 12 05 cb 3d 97 25 57 ba 42 ba 0c be 12 75 88 be
       0.099130765 -0.00082072004 -0.13742927 -0.26651818
0000f0 2b 5e a1 be 58 77 86 bd 18 db af be 51 47 59 3e
       -0.31517157 -0.06565732 -0.34346843 0.21218611
000100 54 74 11 3e ee c3 f9 be ed 1f bc be a9 70 b6 3e
       0.14204532 -0.48782295 -0.36743107 0.35632828
000110 c7 9b 86 be 13 12 ad bb 8e f1 a3 be b0 fb e1 bd
       -0.26290724 -0.0052816956 -0.3202023 -0.11034334
000120 d8 97 7a 3e f2 96 02 3e ad 44 7a 3e 72 6d e8 bc
       0.24471986 0.12752894 0.2444026 -0.0283725
000130 df 12 cd be fa 4b c8 bb ba 17 98 3e 16 92 ee 3d
       -0.4005346 -0.0061125727 0.29705602 0.116489574
000140 f8 69 d5 3d f3 50 c7 3d b6 bd d1 3e 65 13 81 3e
       0.104206026 0.09732237 0.4096505 0.2521011
000150 c1 80 a6 bd 21 23 88 be b5 92 cf 3e a4 6a 87 be
       -0.081300266 -0.265893 0.40541616 -0.26448548
000160 88 ae ad be 0e 0e 20 3e 66 d3 a3 be d9 1e dc be
       -0.3392222 0.15630361 -0.31997222 -0.42992285
000170 ca 4b ce be a7 1e fc 3d 8f 46 a1 be 2f d4 e1 3e
       -0.40292197 0.12310534 -0.31499144 0.44107196
000180 08 b4 9d bc 89 11 5a be 1c 78 9d be 36 e0 18 be
       -0.019250885 -0.21295752 -0.307557 -0.1492928
000190 52 cf de 3e 07 02 a3 be 71 e1 ec be d0 59 17 3e
       0.43517548 -0.31837484 -0.46265748 0.14780354
0001a0 d1 73 2f 3e 01 ed d8 be b5 af 66 be c3 0e dd 3e
       0.17134024 -0.4236832 -0.22527964 0.43175325
0001b0 83 96 71 be 3c 80 57 3e a0 d8 76 be 9d 67 e1 be
       -0.23592572 0.21045011 -0.24106073 -0.44024363
0001c0 43 47 f6 be 25 0e c3 3e f1 c0 1c 3e be 94 12 3e
       -0.48101243 0.3809673 0.15307976 0.14314553
0001d0 d3 53 30 3e 75 be 46 3e 3d 3d a8 3e b5 2a c4 3e
       0.17219476 0.19408591 0.3285922 0.38313833
0001e0 d7 e9 c4 3e 5c 4b 24 3e 0c a7 b9 3d 98 95 dd 3d
       0.38459656 0.16044372 0.09065065 0.10819548
0001f0 64 b8 ce be ef 07 65 3e 42 b1 ff 3d 54 b6 5f 3e
       -0.40375054 0.22366308 0.12484981 0.21846896
000200 8a a1 fd bd b1 2f d4 3e 1d 81 76 3d 9a 7e f5 bd
       -0.12384327 0.41442636 0.060181726 -0.11987038
000210 eb f8 6b bc 82 7f 4d be 2e d9 97 bd 3d 47 d9 3e
       -0.014402608 -0.20068172 -0.074144706 0.42437163
000220 65 49 29 3e 98 92 64 bd 9d ee 98 3c a7 52 ea 3d
       0.16531904 -0.055803865 0.018668467 0.11441546
000230 25 4c 93 be 43 e9 8b be 89 7b e1 3e 72 a1 83 3b
       -0.2876903 -0.27326402 0.44039562 0.0040170485
000240 39 77 17 3e e2 22 6c be 11 08 bc be 9a 43 cb 3d
       0.14791574 -0.23060182 -0.36724904 0.09925003
000250 ea 3a 8a 3e 8e a6 f0 be f6 59 fd be 76 df 28 be
       0.26998073 -0.4700207 -0.49482697 -0.16491494
000260 60 b2 a5 3e db 64 e4 be 8a 3b cc 3e 30 a1 e7 3e
       0.32362652 -0.44608197 0.39889175 0.45240164
000270 41 ab e7 bd 6c 4e 01 3d 95 9f 9f bc fd a6 f8 3e
       -0.11311961 0.03156893 -0.019485274 0.48564902
000280 86 c4 67 3d f9 9f f8 3d 1d 3c 2e be 3d 55 9d bb
       0.056583904 0.12139887 -0.17015119 -0.004801421
000290 c9 64 87 be 41 6e da 3c bc 1b 8d bd d3 06 c1 3d
       -0.2644408 0.026663901 -0.068900555 0.0942513
0002a0 b3 c8 c6 3d 95 87 d1 be 04 04 ab 3e c0 cc 8c 3e
       0.09706249 -0.40923753 0.334015 0.27499962
0002b0 f0 50 b4 3e 54 84 bc 3e 67 e7 00 3e e5 55 8a 3e
       0.35218 0.36819708 0.12588273 0.27018657
0002c0 d3 25 79 3e db 06 97 3e bf bd 9b be ff 5d 6f 3e
       0.24330835 0.29497418 -0.30418202 0.233757
0002d0 20 d4 30 bd 5b d2 42 3e 7f 00 39 3e 2f 65 c0 be
       -0.04317105 0.19025557 0.18066595 -0.37577197
0002e0 a9 12 6c be 65 d3 b7 be a1 4b 0b be 6f 0b 22 3e
       -0.23053993 -0.3590347 -0.13603069 0.15824674
0002f0 ed 71 e8 3d 69 a3 c9 3e 6b 68 ba be df 04 1d 3e
       0.113498546 0.39382485 -0.3640779 0.1533389
000300 99 c0 cf 3e 69 c7 c6 be e5 43 c2 be dd 08 f0 3d
       0.40576628 -0.38824013 -0.37942424 0.117204405
000310 99 f6 52 be 30 77 ff 3d 1d 9f 7a be 2b 0f 7b 3d
       -0.20601882 0.12473905 -0.2447476 0.061293762
000320 33 8d da be bf 57 ca 3e c3 0b a5 be 8d 7b ec be
       -0.4268585 0.3952007 -0.32235536 -0.46188012
000330 e9 29 86 be 46 e5 f5 3b bf f2 ee 3e 05 b1 cf 3d
       -0.2620385 0.007504138 0.46669576 0.10141186
000340 4b 72 dc bd 4b d5 b9 be a3 7b 66 3e 20 93 08 3d
       -0.10763987 -0.36295542 0.22508101 0.033343434
000350 f1 71 17 be 9d c0 12 be dd bf 8f 3d 33 1f 95 3e
       -0.14789559 -0.14331289 0.07019017 0.29125366
000360 33 88 9b be 5b ad fd bd df 3d 6e 3e 49 ed b0 be
       -0.3037735 -0.123865806 0.2326579 -0.34556034
000370 11 6e 7d bc 13 b5 cd 3e 01 26 b1 3e 89 f4 ce be
       -0.015468136 0.4017721 0.34599307 -0.4042094
000380 ad 76 73 be 3d 5c 9e 3d 25 18 a0 3e 31 d6 50 be
       -0.2377574 0.07732437 0.3126842 -0.20394208
000390 a3 06 ea be 6f bb b1 bc f5 f6 9e 3e 3b 38 85 be
       -0.45708188 -0.02169582 0.31047788 -0.26019463
0003a0 33 51 ed be a0 45 00 3d 69 2c d3 3e d9 16 d1 be
       -0.46351013 0.0313164 0.4124482 -0.40837744
0003b0 9d f2 d5 3d d7 88 a0 3e ab 8d 43 3c 77 c7 8a be
       0.104466654 0.313544 0.011935632 -0.27105305
0003c0 e1 6d 3c be d3 f5 a9 be 00 17 08 3d 45 f3 61 be
       -0.1840129 -0.33195361 0.03322506 -0.22065456
0003d0 7a 72 61 3c 23 bc e7 bd 8d e3 b0 be af 44 f6 3e
       0.0137602035 -0.11315181 -0.34548607 0.48099276
0003e0 ed d4 ea 3d 93 06 7a 3e 65 f9 95 3e 1b 0e 4b 3e
       0.114663936 0.2441657 0.29291835 0.198296
0003f0 ab a5 f8 bd f9 4e 20 be 5d bb 8e be e6 45 e1 be
       -0.12140974 -0.15655126 -0.27877322 -0.4399864

decoder_net.0.bias f4 [32]
000000 7d bb 10 bd 03 91 9d bb 87 22 cd 3c 6c 5f 37 3d
       -0.035335053 -0.0048085465 0.025040878 0.044768736
000010 82 3a 41 bd 1c 20 15 bd 37 57 d3 bc d0 b6 5c 3d
       -0.047174938 -0.036407575 -0.025798423 0.05388528
000020 31 b1 84 3d d3 7c bb bc d2 b8 dc bc 3f cc cd 3b
       0.06479109 -0.02288667 -0.026943598 0.0062804515
000030 f5 d7 86 bb 50 c5 d1 bc a3 33 29 bd 20 88 09 bd
       -0.0041150996 -0.025606781 -0.04130901 -0.033577085
000040 73 b3 33 bc e3 e0 6c ba 99 67 66 3b 37 36 84 bd
       -0.010968077 -0.0009036196 0.0035156964 -0.06455653
000050 62 fd 63 3d f9 fb 2e bd 61 72 9a bc 9d 58 54 3d
       0.055661567 -0.04272077 -0.018853368 0.05184232
000060 e5 d8 c8 bb a9 0d 30 bd f7 a9 fa 3c e0 5c 8c bc
       -0.0061293715 -0.042981777 0.030598624 -0.01713413
000070 e4 07 86 3d ff 58 36 bc d2 a9 27 bd 38 7d 3e bd
       0.06544474 -0.011129617 -0.040933438 -0.046506137

decoder_net.2.weight f4 [32, 32]
000000 f0 21 a6 bc ba 59 1e 3d 47 96 dc be 90 b0 a9 3e
       -0.020279855 0.03865979 -0.43083403 0.3314252
000010 b6 0c a8 3e 1d ed f4 3e 07 ec ac 3d 03 d1 06 be
       0.32822198 0.47837153 0.08443456 -0.13165669
000020 a6 48 8a bd b1 24 23 be 3b 51 ea be ee de 33 3e
       -0.06752138 -0.15931965 -0.457651 0.1756551
000030 e5 e5 93 3d 53 af 23 be 77 42 98 be 85 e7 d7 bd
       0.07221583 -0.1598485 -0.2973821 -0.10542206
000040 f1 5e 14 3e 78 67 bd 3e 1e 45 57 3e 0b de bd 3e
       0.14489342 0.36993003 0.2102246 0.37083468
000050 66 58 cb 3e 9c eb 80 be c6 30 8e bb a8 39 d4 be
       0.3971588 -0.25179756 -0.0043393103 -0.41450238
000060 f5 49 90 be 4a e4 4c 3e a1 0c 45 3e c7 b5 5b 3e
       -0.28181425 0.2000896 0.19243099 0.21456061
000070 31 6f d7 3e 22 8f 56 3e 1b a7 74 be 38 db c6 bd
       0.4207702 0.20953038 -0.2389187 -0.097097814
000080 eb 8e 2e 3d b7 74 7d 3e 4a 8a 81 be 2e d1 4f be
       0.042616766 0.24751554 -0.2530082 -0.2029464
000090 8b 84 45 3e 4f b3 28 3e 1c c2 f0 3e 23 eb d5 3e
       0.19288842 0.16474651 0.47023094 0.41780958
0000a0 49 4e 68 be 25 98 35 3e e6 e0 9f be f9 93 85 bc
       -0.22686113 0.1773382 -0.3122627 -0.01630591
0000b0 79 45 2d bd 1b b3 de 3d 00 51 dd 3e 70 ff c6 be
       -0.042302582 0.108740054 0.4322586 -0.38866758
0000c0 0f 0b ee 3e c4 9e b0 3e 7c b9 72 be f2 a1 0b be
       0.46492812 0.3449613 -0.23703569 -0.13635996
0000d0 56 a6 ed bd dd 90 9d 3e e6 df fc bd 86 9c 3a 3e
       -0.11603992 0.30774584 -0.12347393 0.18223771
0000e0 9f 3a 47 be 9e 43 d1 3e 02 6f 9a bd 7c 88 f2 3e
       -0.19455956 0.408719 -0.07540704 0.47369754
0000f0 11 16 c0 be 53 ca 13 be b6 7b a7 3e 09 f0 30 3e
       -0.37516835 -0.1443265 0.3271157 0.17279066
000100 8a 82 7f be c3 53 d1 be f6 5c be be 30 ec d4 be
       -0.2495214 -0.40884218 -0.371803 -0.41586447
000110 18 1c 8e be bc 1b 9e be b1 9e 19 be 06 23 df 3e
       -0.2775581 -0.30880535 -0.15001942 0.43581408
000120 f4 45 03 be 7b 53 9e be 1a 80 77 3e 2c 76 94 be
       -0.12819654 -0.30923066 0.2416996 -0.28996408
000130 73 e2 80 be 76 a6 b3 bd 59 b4 83 bd b7 6f 9a be
       -0.25172767 -0.08771984 -0.06430883 -0.30163357
000140 19 14 c9 be 43 df fc be 52 d5 53 be 42 a5 7d 3e
       -0.39273146 -0.49389085 -0.20686844 0.24770072
000150 e3 88 1b 3d 52 47 ca 3e 84 83 b9 3d 9f 2a bf be
       0.037972342 0.39507538 0.09058288 -0.37337205
000160 f9 e7 56 3d 7f 5f fc bd c6 b3 92 3e 5a cf 06 3e
       0.05246732 -0.12322902 0.2865278 0.13165036
000170 a6 d0 f9 3e dd eb e2 be 32 27 6e be 98 50 d9 be
       0.48792 -0.44320574 -0.2325714 -0.424443
000180 f1 06 41 3d 78 c4 a3 be d5 7f 51 be 11 df f5 3e
       0.04712576 -0.3198583 -0.2045892 0.4802175
000190 64 e6 30 be 2e 90 78 3e 89 e8 a2 3e 7e 65 bb 3e
       -0.17275387 0.2427375 0.31818035 0.3660087
0001a0 59 ec d2 3e 2a 81 9c 3e a7 a7 48 3d e6 97 d9 3e
       0.41195944 0.30567294 0.04898801 0.42498702
0001b0 38 de f5 3e 20 12 b2 be bd 24 cf 3d 07 03 b2 3e
       0.48021102 -0.34779453 0.10114429 0.34767935
0001c0 b9 8d ab be 3b e3 45 3e 05 62 a1 3e f6 10 62 3c
       -0.33506563 0.19324963 0.31520095 0.013797989
0001d0 53 0e 17 be 06 91 34 bd e2 86 df 3e 52 e1 c9 be
       -0.14751558 -0.044083618 0.43657595 -0.39429718
0001e0 9b 57 4e 3e 52 0c 89 be df 08 ae 3e 20 55 56 be
       0.20150606 -0.26767212 0.33991143 -0.2093091
0001f0 c3 be db 3d f0 47 a3 3e 06 be 7e bd be d0 a2 bd
       0.10729744 0.3189082 -0.06219294 -0.07949971
000200 71 80 e6 3e f9 d5 f4 3e 0e a3 87 3e 9b 93 19 3c
       0.45019868 0.47819498 0.26491588 0.009373571
000210 f1 fa 26 ba 8b 72 9f be ff 8e ae 3e c7 97 61 3e
       -0.00063697906 -0.31142077 0.34093472 0.22030555
000220 cd 7d cb 3e 01 38 a7 be 22 ef fd 3d c0 55 c5 3d
       0.39744416 -0.32659915 0.123991266 0.09635496
000230 c9 c0 15 be ee b2 51 bd ee b6 cd 3d b3 1c 0c be
       -0.14624323 -0.05119603 0.10044657 -0.13682823
000240 b8 ed f1 3e e2 5a e5 be 74 00 95 bd f8 89 72 be
       0.47251678 -0.447959 -0.07275477 -0.23685443
000250 a4 8a c3 3e 73 44 37 be 97 5d ec bd 2f 71 db 3e
       0.38191712 -0.17897205 -0.11541288 0.4285979
000260 6e 21 e0 be 63 e2 2b be dd 6c db 3e 99 42 b4 3e
       -0.43775505 -0.16785578 0.42856494 0.3520706
000270 b5 ea 10 be 29 8a c2 bd 57 af 74 be e5 d0 c8 3d
       -0.14152034 -0.09499008 -0.23895012 0.098054685
000280 3a e0 1a 3e 69 c6 aa 3e 59 d6 65 3e b6 fd 82 3e
       0.15124598 0.333545 0.22445048 0.2558419
000290 50 b8 a1 bd 6d 75 b9 be 69 cb 8a 3e 09 39 a7 bb
       -0.07896483 -0.362224 0.27108315 -0.0051032347
0002a0 4f 22 a5 be 5a b7 44 3d 7e 37 fb 3e c3 d5 1a bd
       -0.32252738 0.04802642 0.49065775 -0.037801515
0002b0 64 5e d6 be 08 65 98 3e e9 ff bb 3e 8f 31 a1 be
       -0.4186889 0.2976458 0.3671868 -0.31483123
0002c0 14 61 dd be ff ae b9 be c9 7b 57 3e 18 f7 56 be
       -0.43238127 -0.36266324 0.21043314 -0.20992696
0002d0 d4 86 fd be 88 fd 25 bd d0 3f 7f be a1 50 13 be
       -0.49516928 -0.04052499 -0.24926686 -0.14386226
0002e0 e1 9b 45 be 3f a3 26 be 37 82 a4 be c6 c7 d9 bd
       -0.19297744 -0.16273211 -0.32130596 -0.10633807
0002f0 b2 08 a4 be 2a 20 7a bd fa 19 9d be 00 2d 17 3d
       -0.32037884 -0.06106583 -0.3068388 0.03690815
000300 05 25 b8 3e 22 23 55 be a5 68 7a bd 4f 67 a5 bd
       0.35965744 -0.20814183 -0.061134953 -0.08076345
000310 91 72 28 be 59 82 b3 be 31 1b fc 3d be 0e 1f bd
       -0.16449954 -0.35060385 0.12309874 -0.03883242
000320 e7 9d f9 3c 97 37 00 be 8e b9 a4 be bc 50 36 be
       0.030470802 -0.12521206 -0.32172817 -0.17804235
000330 df 88 83 3e cc 41 af 3e af d0 27 be b7 bd 87 3e
       0.25690362 0.34229887 -0.163882 0.26511928
000340 79 a3 90 be 3c 91 05 bd fa 96 e4 be cb a4 93 bd
       -0.2824972 -0.03260921 -0.44646436 -0.07209166
000350 90 61 10 3e 65 85 99 3e 25 3f 37 3e 6b 61 76 3e
       0.14099717 0.29984584 0.17895181 0.240606
000360 d8 1e d5 bd bf 57 fe 3e 05 58 d2 be 8b 94 ee bd
       -0.104062736 0.4967632 -0.4108278 -0.11649426
000370 78 84 a9 bd 4e 72 ae 3e 3c 73 d0 3d ff 22 fc 3e
       -0.082772195 0.34071583 0.10178229 0.4924545
000380 76 7e ad be 8e a7 28 3e 05 e9 d8 be db fb 21 3e
       -0.33885545 0.16470167 -0.4236528 0.15818731
000390 f3 78 69 be e6 6e 5c be 8e ec 6e 3d dd d7 48 3d
       -0.22800045 -0.2152668 0.058331065 0.04903399
0003a0 03 21 fb 3e 61 4d ce 3e ee 79 da 3c 84 c8 2c 3e
       0.49048623 0.4029341 0.026669469 0.16873366
0003b0 16 5f d1 3d 5e 39 d5 bd 56 6a b7 be f9 d7 cf be
       0.10223214 -0.104113325 -0.35823315 -0.40594462
0003c0 27 ce 39 3d 32 a0 43 be d6 ab e8 3e 6c 6c 5c be
       0.045362618 -0.19104078 0.454436 -0.21525735
0003d0 74 66 0b 3e 19 b0 75 be e5 bc fd 3e 49 13 5c 3e
       0.13613302 -0.23992957 0.49558178 0.21491732
0003e0 6d c7 8a 3e 5f 01 08 3e f7 06 98 bd 16 f5 2b be
       0.27105275 0.13281773 -0.074232034 -0.16792712
0003f0 e3 89 60 be 46 b9 dd be 81 8c b1 bd c4 cd 4c be
       -0.219276 -0.43305415 -0.08669377 -0.20000368

decoder_net.2.bias f4 [32]
000000 e3 2b d4 3d cf 0a c6 bd 10 10 f3 bc bd 6a 5a 3c
       0.10359933 -0.0967003 -0.029670745 0.013331112
000010 dd 75 fc 3d f4 a8 95 3d 52 6c 29 3e be 61 bd bd
       0.12327168 0.07307616 0.16545227 -0.092471585
000020 84 bf 5e bc 2c 3d a0 bc be a3 13 3e 80 17 2e 3e
       -0.013595466 -0.019560419 0.14417931 0.17001152
000030 cc 22 39 3d 3c b6 09 be 80 96 09 be eb ac 01 3d
       0.0451992 -0.13448423 -0.13436317 0.031659048
000040 c0 fc 1f be 1b c9 8e bd 0e bc 0a be b8 cb bf 3d
       -0.1562376 -0.069719516 -0.135483 0.09365028
000050 ff 03 80 bc 64 24 0e be 7f c5 e2 3d 77 99 1a be
       -0.015626905 -0.1388107 0.11072826 -0.15097605
000060 c0 a3 34 bc d1 30 27 3e 04 98 c4 3d a1 21 16 be
       -0.011025369 0.16327216 0.09599307 -0.14661266
000070 f3 d5 b6 3c f1 9a 0d bd 5e 31 a5 3d 0e 0e 2d 3e
       0.022318816 -0.03457159 0.08066057 0.16899893

decoder_net.4.weight f4 [32, 32]
000000 6e a3 6a 3e bc 34 24 3e d6 d9 d4 3e c6 3f 49 3b
       0.22913906 0.16035742 0.41572446 0.0030708178
000010 2e 9e 97 3e 45 f7 96 3e af b3 a8 3c b8 c8 9b be
       0.2961287 0.29485527 0.020593492 -0.30426574
000020 c2 e3 db be bd 2f b2 3e 86 36 f3 be ae 2a 6b 3e
       -0.42947203 0.34802046 -0.47502536 0.229655
000030 92 c4 5d be d8 85 1a bd f5 0b 84 3e aa f1 00 bf
       -0.21657017 -0.0377253 0.25790372 -0.5036875
000040 ec ef af 3e 4c 36 06 3d 7f 19 a4 3e 98 48 e3 3d
       0.34362733 0.032766625 0.32050702 0.110978305
000050 2f 10 87 3e ba be 15 be 53 81 70 be 15 89 6f 3e
       0.26379535 -0.14623538 -0.23486833 0.23392136
000060 04 d1 f1 be 16 c6 b4 be 80 32 af bb 1e 14 e6 3e
       -0.4722978 -0.35307378 -0.0053465962 0.44937223
000070 1a 21 e9 3d 10 09 59 be e2 2f 93 3e 28 69 75 3e
       0.11383267 -0.21194863 0.2874747 0.23965895
000080 d7 c7 3d 3e 1d 7d ef 3e cb b4 c4 3e 86 dc 36 3e
       0.18533264 0.4677514 0.38419184 0.1785756
000090 e2 fe fa be 3d 51 6c 3e 5b ba 8a 3e 0d b4 91 be
       -0.49022585 0.23077865 0.27095303 -0.2845768
0000a0 02 44 9b 3e d2 29 fb 3e 0e c6 1b 3e b1 56 ab 3e
       0.30325323 0.49055344 0.1521227 0.33464578
0000b0 28 51 9a 3e 52 a9 be bd 8d 17 df be fb 81 49 be
       0.30140042 -0.09309639 -0.43572655 -0.1967849
0000c0 32 80 94 3e 7f 71 c7 be 21 56 d9 3e 66 a2 d3 3d
       0.29004055 -0.38953778 0.42448524 0.103337094
0000d0 38 e6 3a be 94 8c c6 3e 68 23 d0 be 39 e1 35 bd
       -0.18251884 0.38779128 -0.40652013 -0.044404242
0000e0 cf a9 f9 be 52 b0 6b 3e 27 31 9a 3d 3d 2a a5 3e
       -0.48762366 0.2301648 0.07528906 0.32258788
0000f0 7f 41 7e be 8f 46 b9 3e 46 77 01 bf 5d d4 d0 3e
       -0.24829672 0.36186644 -0.5057262 0.4078702
000100 95 94 5b 3e 82 a7 13 3e d6 30 c3 be b3 3a 85 be
       0.21443398 0.14419368 -0.38123196 -0.26021346
000110 41 94 af bd 99 7b 86 3e 83 47 b9 3e 80 a6 eb 3e
       -0.08573199 0.26266173 0.36187372 0.46025467
000120 f5 a0 df 3d f7 b0 fb bd f6 61 da be 36 4b a1 3a
       0.10919372 -0.12289613 -0.42652863 0.001230574
000130 1c c6 8b 3d 03 27 4c be c4 ef 4f 3e 27 85 b1 be
       0.06824896 -0.19936757 0.20306307 -0.346719
000140 1f fa 9d 3d e1 f7 45 bb 84 75 b6 be 20 5c ed be
       0.077137224 -0.0030207562 -0.35636532 -0.46359348
000150 5a 1f cc be 92 32 f3 3e 01 7e 3b be e7 4a 01 3e
       -0.3986767 0.4749952 -0.18309785 0.12626229
000160 f8 c4 23 be 7c c5 c4 3d 85 30 d6 be e8 5e 71 3e
       -0.15993106 0.0960798 -0.41833892 0.2357136
000170 e5 9c cc 3e 63 f4 bd bc 54 8d ce 3c a6 b9 d1 be
       0.3996345 -0.023187822 0.025213875 -0.4096195
000180 8d aa 99 be 7d 0f c5 be 13 6d ee 3e e2 89 d1 bc
       -0.30012932 -0.3848838 0.46567592 -0.025578443
000190 c3 ef 20 3e e6 07 8f bd ba 35 78 3e ed 8e b8 3e
       0.15716462 -0.069839284 0.24239245 0.36046544
0001a0 08 c8 c0 be af 9c a8 be b7 d9 0d be 6e 6e 23 3d
       -0.37652612 -0.3293204 -0.13852583 0.039900236
0001b0 4c 03 cd bd 29 0b 62 3e 29 9f 60 3e c1 07 cd 3d
       -0.100103945 0.2207457 0.21935715 0.100112446
0001c0 75 8c df be 51 30 9b be 8b cd 86 3e cd da 45 be
       -0.43661848 -0.303103 0.26328692 -0.19321747
0001d0 bb 99 ac be 78 48 ef bd e1 98 c1 3e 0c a0 09 3e
       -0.33711037 -0.11683744 0.3781195 0.1343996
0001e0 a7 8b 59 be 57 5f db 3e 6e 3d c0 bd db a0 d3 3e
       -0.2124468 0.42846176 -0.09386717 0.4133366
0001f0 93 c5 f6 3e 64 6c bf be dc 6b c6 bd 18 fd c5 3e
       0.48197612 -0.37387383 -0.09688541 0.38669658
000200 ca b4 f5 be 4d 9f b6 3e e1 cc d0 3e 9a 4a eb 3e
       -0.47989494 0.35668412 0.4078131 0.45955354
000210 84 24 44 be dc 84 d2 3e 88 22 fe 3d 38 c2 ce 3e
       -0.19154555 0.4111699 0.1240893 0.40382552
000220 27 6e 4c 3e 81 11 c1 3c 77 71 f9 be 1b 45 9a be
       0.19963895 0.023567917 -0.4871938 -0.30130848
000230 93 eb d0 3e d9 16 4c 3e c2 b3 1d be ca 84 f5 3e
       0.4080473 0.1993059 -0.15400603 0.47952873
000240 ea 97 bd be b6 0c af 3e 9d 20 fb 3e 67 6c 40 be
       -0.37029964 0.34189385 0.4904832 -0.18791352
000250 2d 6f 11 3e f7 1d 9f 3e c3 34 fa bd 19 fe ea 3d
       0.14202566 0.3107755 -0.12217095 0.114742465
000260 98 cb 76 3e 73 52 10 be ff 4d 94 be 8b ad 1c 3e
       0.24101102 -0.14093952 -0.28965756 0.15300576
000270 b2 9f df be 2f 3e e0 be ea 6d a3 3c 7c 24 7a be
       -0.43676525 -0.43797442 0.019949872 -0.2442798
000280 af 21 0e 3e 76 91 c5 3d 15 fe cf be f0 ba 96 be
       0.13880037 0.09646885 -0.40623537 -0.29439497
000290 ee 67 fa 3e 72 2a 06 bd 09 2d 8c bd 2c 83 65 be
       0.48907417 -0.032755323 -0.06844527 -0.2241332
0002a0 e4 61 42 3e 51 6e 40 3e de f2 43 3e a1 22 3c be
       0.18982655 0.18792082 0.19135615 -0.18372585
0002b0 7c d3 82 3e cb 42 a3 3e f3 1a f0 3e 0a 48 f2 be
       0.25551975 0.31886896 0.4689556 -0.47320586
0002c0 64 ad 3e 3e 2c c1 3b be ed af 15 be 92 67 b9 be
       0.18620831 -0.18335408 -0.14617892 -0.3621183
0002d0 85 be 0d 3e bc 4d cb be 4e b0 94 be f8 75 c0 bc
       0.13842209 -0.39707744 -0.2904076 -0.023493752
0002e0 ef 09 3e 3e 02 f1 5e 3e 80 44 a2 3e e5 ff ff be
       0.18558477 0.21771625 0.31692886 -0.4999992
0002f0 1e 2e 72 be 66 14 a5 3d 3b e2 b2 be 30 42 8d be
       -0.23650405 0.08060531 -0.34938225 -0.2758956
000300 1e f9 4c be 61 77 81 3e 2d c2 61 3e af 07 41 be
       -0.20016906 0.2528639 0.22046728 -0.18850587
000310 10 55 83 be a8 63 ca 3d 8e 94 17 3e b3 e3 e3 3e
       -0.25650835 0.09882289 0.14802763 0.44509658
000320 d0 b6 b5 3e 8c 93 0a be 83 17 1c bd 60 04 8b 3e
       0.35491037 -0.13532847 -0.03810836 0.27151775
000330 61 4d df 3d 1a 20 7b 3e 6c d1 ea 3e 12 4e 2e 3e
       0.10903431 0.24523965 0.458629 0.17021969
000340 84 b6 14 bd 29 d8 f8 be 21 5a 69 be bd 0f 6d 3e
       -0.036306873 -0.48602417 -0.22788288 0.23150535
000350 1e 61 ea 3e ea 5d 2a 3e 70 d3 b3 be c2 5d cd be
       0.4577722 0.16637388 -0.35122252 -0.40110594
000360 f9 2b f5 3e c7 d6 18 be 6c 4e 05 be b1 a8 c4 bd
       0.4788511 -0.14925681 -0.13018197 -0.09602488
000370 2c 16 91 3e e0 a2 e6 3e 49 3a 31 3e a9 ce a7 3e
       0.28337228 0.4504614 0.1730739 0.32774857
000380 dd 80 de 3e 44 fa f7 be 0d f8 4e be 59 24 88 be
       0.4345769 -0.48433125 -0.20211811 -0.2659023
000390 f4 04 83 3e 1e ad b7 3e 65 e2 87 3d e6 e7 ad 3e
       0.25589716 0.35874265 0.06634978 0.33965987
0003a0 3c e1 ee be 11 44 c6 bd 4c cb 55 3d 85 26 41 bd
       -0.46656215 -0.096809514 0.052195832 -0.047155876
0003b0 e6 36 c6 3e 57 22 4d be 07 e1 d2 3e 70 84 0e be
       0.3871376 -0.20032631 0.41187307 -0.13917708
0003c0 62 5a f4 3c f1 4f a8 3d a8 fe d6 3e 38 f4 c4 bd
       0.029828254 0.082183726 0.41991162 -0.096168935
0003d0 c6 ca 15 bd cc 70 b7 3e 80 e0 fb 3e e9 96 8f be
       -0.036570333 0.35828245 0.49194717 -0.28044823
0003e0 83 96 12 3e e8 85 3b bc c7 71 f0 be e6 39 dd be
       0.14315228 -0.0114455 -0.46961805 -0.43208236
0003f0 1c 28 02 be 6c 4b eb bd 7a df a6 3d b9 48 82 be
       -0.12710613 -0.11488995 0.081480935 -0.25446108

decoder_net.4.bias f4 [32]
000000 10 bd 9b bc 3b 1a 08 3e fc 37 fd bc 7a f4 9d 3d
       -0.01901105 0.13291256 -0.030910484 0.07712646
000010 fd 34 0b 3e b2 9c 08 3e 3c bb b0 3d f0 8a f3 3d
       0.13594432 0.13341025 0.08629462 0.118917346
000020 33 7f 3e bd 0c d6 8d 3c 06 0a 94 bd 8e e8 29 be
       -0.046508025 0.01731398 -0.07228474 -0.16592619
000030 51 5b 12 3e bd 10 2f be 97 7a d1 bd 50 f7 7d bd
       0.14292647 -0.17096229 -0.1022846 -0.062003434
000040 27 a2 27 be 55 33 09 be 93 d1 cb bd f1 e5 73 3c
       -0.1637045 -0.13398488 -0.099520825 0.014886365
000050 12 c5 25 be 0d 7f f9 bd 1e 8a db bd 26 10 0a be
       -0.16188458 -0.12182436 -0.10719703 -0.13482723
000060 0c e6 14 3d e9 f8 d8 3a 5d 37 0f 3d ac df 23 3e
       0.036352202 0.0016553673 0.034964908 0.16003293
000070 ac fb 92 bd e4 f5 83 bd 0c 14 83 3d 2b 57 17 3e
       -0.07176909 -0.06443384 0.06400308 0.14779346

decoder_net.6.weight f4 [32, 32]
000000 ec f2 2c be f3 f3 f9 3e 41 2d 58 bd e6 fa 27 bc
       -0.16889542 0.4881893 -0.052777532 -0.01025269
000010 31 9c 21 3e 21 56 c1 be b2 3a d3 3e 89 c1 15 3e
       0.15782239 -0.37761024 0.41255718 0.14624609
000020 0e 4d b3 3e f1 6a 1b 3e 26 2c d9 be 33 21 51 3e
       0.35019726 0.15177514 -0.42416495 0.20422821
000030 2a 79 21 bd 3c 17 ba 3e 7a e6 42 3e 65 d2 be 3d
       -0.03942219 0.3634585 0.19033232 0.09317473
000040 78 23 5d 3e 7e 93 aa 3e ed d4 1c 3e e1 3d d8 3e
       0.21595562 0.33315653 0.153156 0.4223471
000050 21 3e f2 3e dd 39 cd be f0 7b ad be 66 f2 be be
       0.47313026 -0.4008321 -0.3388362 -0.3729431
000060 e2 e6 c9 be fe 35 87 3e 7e 05 aa 3e 05 31 1c 3d
       -0.39433962 0.2640838 0.33207315 0.038132686
000070 f0 1b b4 bd bd cc e5 be cc dd f7 be e9 f8 07 3e
       -0.08794391 -0.44882765 -0.48411405 0.13278545
000080 f1 e7 fd 3d 6e 17 38 3e 23 66 08 bd 82 1b fe 3d
       0.12397755 0.17977688 -0.03330053 0.124075904
000090 ee 8c 00 3e 09 75 59 be 0f 31 d7 3e 12 d0 e5 bc
       0.1255376 -0.21236052 0.42029616 -0.028053317
0000a0 b8 9b 10 bc 70 1c a7 be 34 ea be 3e ab f6 e0 3e
       -0.008826189 -0.32638884 0.37288058 0.43938193
0000b0 f3 f7 e7 3d 9e 33 a5 be bd 5f 98 be 3e 74 fb be
       0.113265894 -0.32265943 -0.29760543 -0.49112123
0000c0 80 c8 30 bd 80 d9 73 3e b0 a4 8a be a6 f3 7e be
       -0.04315996 0.23813438 -0.27078772 -0.24897632
0000d0 11 d5 93 be 74 0b be 3d 78 1a 76 3e a4 39 c0 be
       -0.28873494 0.09279528 0.24033535 -0.37543976
0000e0 25 94 82 be 93 61 4f 3e a2 86 bb 3e 6f b4 a1 3e
       -0.2550365 0.20252065 0.36626154 0.31582972
0000f0 fd a9 fc bd a2 60 45 bd 4b b3 98 be 0d b6 19 3e
       -0.1233711 -0.04818786 -0.2982429 0.15010853
000100 5c 9a c4 3e 0a 05 da bc c7 a5 ae be 9b d4 fa 3e
       0.38399017 -0.026613731 -0.34110853 0.4899033
000110 03 86 53 3e e7 16 33 3e 14 da e2 3e f4 aa 15 be
       0.2065659 0.17489205 0.44307005 -0.14615995
000120 f7 3e fe bc 16 14 d5 3d 0f 89 ca 3e 59 0a 6b 3e
       -0.031035883 0.10404222 0.39557692 0.22953166
000130 1a 73 7e bd 3c 28 c4 3e 57 ef 89 3c 4c 29 65 be
       -0.06212149 0.38311946 0.016837759 -0.22379035
000140 bc 44 5a 3c c8 c7 f9 3e ca 74 e5 be 2d 19 e1 3e
       0.013322052 0.48785233 -0.44815665 0.4396452
000150 b7 96 c3 be d3 38 9d be 52 ad e1 be de a4 a7 3e
       -0.38200924 -0.30707416 -0.44077545 0.3274297
000160 5f 7f ad 3d 21 95 ad be f7 0a 42 be 57 ed ac 3e
       0.0847156 -0.3390284 -0.18949495 0.33774826
000170 6b 5e f4 3e c6 bb b6 3c 39 41 0a 3e 3f 2f 3f be
       0.47728285 0.022306334 0.13501443 -0.18670367
000180 a9 29 4c 3e 6e 6b 0e 3e 4e 19 dd be fe 70 e6 3e
       0.19937767 0.13908169 -0.43183368 0.4500808
000190 96 88 c2 3e 22 63 ce 3e dd 63 93 3d f1 d3 e6 bd
       0.37994832 0.40310007 0.07196782 -0.11270893
0001a0 6c eb c0 3e 5f d5 b6 be 5a 73 db be cb cf 21 3d
       0.37679613 -0.35709664 -0.42861444 0.039504807
0001b0 fd 99 28 3e 13 73 eb 3d a5 d2 2f 3d 0f ea f2 3d
       0.16464992 0.11496558 0.042925496 0.118610494
0001c0 aa 53 99 bd e6 7e 9a be 38 eb e1 be aa 27 d2 bd
       -0.07486661 -0.3017494 -0.4412477 -0.102614716
0001d0 02 f8 66 3e 72 f9 66 be ff d1 67 be a7 8b bd bd
       0.22555545 -0.22556093 -0.22638701 -0.09255152
0001e0 5a c8 d2 3e 58 47 8f 3e 17 f5 6f be f3 95 03 bd
       0.4116848 0.27984118 -0.23433338 -0.032125425
0001f0 0a bf f5 be 6d 79 fa 3d 86 57 6d be 7b 63 4e 3e
       -0.47997314 0.122301914 -0.23177919 0.20155136
000200 86 fd db 3d 5d 9c 5a 3d da d0 59 3b ec d9 b2 3e
       0.10741715 0.053371776 0.0033236057 0.34931886
000210 e2 3e ab 3c 90 00 91 3e fe 6b 6c 3e d0 38 38 3d
       0.020904008 0.28320742 0.23088071 0.044976056
000220 11 d9 0e bd d5 64 c8 be 6f e8 f6 3b 5f ed e4 be
       -0.03487498 -0.3913943 0.0075350325 -0.4471235
000230 42 31 6d bd 59 26 8f be 8f a1 de 3e 6d 2a b4 be
       -0.057908304 -0.27958944 0.43482634 -0.35188618
000240 af 1e a0 be 47 31 56 3e 4f 30 bd be ff f3 05 be
       -0.3127341 0.20917235 -0.3695092 -0.13081358
000250 4e a3 86 be 5c cc 34 3d cc 16 a1 3e 56 60 fe 3e
       -0.26296467 0.044140205 0.31462705 0.49682873
000260 6e 9d ea bc fa 3f ac be fa f0 ee 3c 5d 00 04 3e
       -0.028639521 -0.3364256 0.029167641 0.12890764
000270 63 47 08 3e e8 2f bc 3e 00 19 3f be 3e ef e9 3e
       0.13308482 0.367553 -0.1866188 0.4569034
000280 ed 29 da be 54 f3 82 3e 29 24 88 be 71 a0 bf be
       -0.42610112 0.2557627 -0.26590088 -0.37427095
000290 36 ee dc 3e 17 31 c3 3e 4c c5 ae 3d b7 87 3c 3c
       0.4315049 0.3812339 0.08533725 0.011506966
0002a0 2b f9 8a be 85 34 98 be a5 47 b8 bc 71 c0 90 bc
       -0.27143225 -0.2972757 -0.0224951 -0.017669888
0002b0 f0 c4 e7 3e 7b c8 f7 3d 65 47 2b be a6 4c 86 3e
       0.4526744 0.120987855 -0.16726454 0.26230353
0002c0 9a 3e a3 be 81 b1 1f 3e 5b 38 9a 3e 3e d9 01 be
       -0.318837 0.15595056 0.3012112 -0.12680528
0002d0 e5 99 00 3e ae 89 d0 be e6 ae ea 3e 1f 15 d9 3e
       0.12558706 -0.4073004 0.45836562 0.42398927
0002e0 3d 91 d3 3e dc cf 07 3e 1e 9c b0 3e 8c 51 b3 3e
       0.41321746 0.13262886 0.34494108 0.35023153
0002f0 15 1c eb bc 01 d4 bc 3c 05 0b df be 10 49 67 3e
       -0.028699914 0.02305031 -0.43563095 0.22586465
000300 04 58 dd 3b 6e cf a2 be 8a f1 b1 3e 11 84 9d bd
       0.006754877 -0.3179888 0.34754592 -0.07691205
000310 15 c5 91 3c 29 53 2a bd a9 ff f3 3e 83 80 90 3e
       0.017794171 -0.041583214 0.4765599 0.28223047
000320 d5 79 fc 3e cf f5 eb be e6 8b d7 be ef 08 1e 3e
       0.493117 -0.46085975 -0.42098922 0.15433095
000330 aa 2e 06 be 0e 47 eb be 1a 9c a6 3d 6d 4f 45 be
       -0.13103738 -0.45952648 0.08135243 -0.1926858
000340 17 dd ca bd b5 bd a7 3e 9b 62 8b bd c0 79 e1 3e
       -0.09905451 0.32761922 -0.06805917 0.440382
000350 bb 72 02 be 34 39 87 bd 93 75 d6 3e 79 54 c5 be
       -0.12739079 -0.066027075 0.41886577 -0.3854101
000360 6b 96 d4 3d 40 37 6b be 46 a3 9a be d0 5d b6 be
       0.103802525 -0.22970295 -0.30202693 -0.35618448
000370 13 2f e8 3e 78 3e a6 be f4 eb f2 3e 1a ab b7 be
       0.45348415 -0.32469535 0.47445643 -0.35872728
000380 a6 f6 dd 3e 9b 8b de be c2 94 ed be ba ca db 3e
       0.4335224 -0.43465886 -0.46402556 0.42928106
000390 a4 16 5b 3e 62 c6 a2 3e 03 9a ef be 07 c8 84 3e
       0.21395355 0.3179198 -0.4679719 0.2593386
0003a0 c4 f4 cc 3e 8b 63 b6 be 4c 44 fe bd 51 2c aa 3e
       0.4003049 -0.3562282 -0.1241537 0.33236936
0003b0 31 5d 10 3d 52 0f 36 3e 88 f4 ed 3d ff 9b 62 bd
       0.035245124 0.17779282 0.11618906 -0.05532455
0003c0 28 a4 86 3d 95 33 3c 3e b5 c1 9f 3e 92 07 a8 be
       0.06574279 0.18379052 0.31202474 -0.32818276
0003d0 8e 7b a0 3e b5 ab c3 be 4a 9d 95 3e f8 0c a7 3d
       0.31344265 -0.3821694 0.29221565 0.081567705
0003e0 50 ba 85 3d 97 72 88 3e a6 6c 8c be e9 9e 96 3d
       0.06529677 0.26649925 -0.27426642 0.073545285
0003f0 41 c0 8d bd 08 7d 9c 3d fd 0f b5 3e 9d 83 19 be
       -0.06921435 0.07641035 0.3536376 -0.14991613

decoder_net.6.bias f4 [32]
000000 74 7a ac bd 5d 6c 0e 3e 63 83 1d be 55 00 0b be
       -0.084217936 0.13908525 -0.15382151 -0.13574345
000010 8a 68 24 be 91 6c 25 be 84 8b 33 3d c6 3f f0 bd
       -0.16055503 -0.16154696 0.043834224 -0.11730914
000020 11 c3 34 bd 91 4a a8 bd 13 30 5b bd 96 d6 a0 bd
       -0.044131342 -0.082173474 -0.053512644 -0.07853429
000030 7d 30 e2 3d c2 75 9f bd 70 96 b8 bd f9 dc c7 3d
       0.11044405 -0.077861324 -0.09013069 0.09758944
000040 39 df 1e 3e 70 ce 12 3e f6 aa ec bc 29 fd e5 3c
       0.1551484 0.14336562 -0.028890114 0.028074818
000050 d0 f4 ba bd cf 43 6c bc a8 ce 82 3c 36 1d cf bd
       -0.091287255 -0.014420464 0.015967682 -0.101129934
000060 1f 82 d0 bc a5 51 a5 3d 1f 9f 48 3d e6 15 25 3e
       -0.025452672 0.08072213 0.048979875 0.16121635
000070 3b ee 68 bd 54 9e a2 bd 0f 5b 24 be 80 64 b2 3d
       -0.05686782 -0.07940355 -0.16050361 0.08710575

decoder_net.8.weight f4 [32, 32]
000000 c9 4a fc be 5e 3a 2f be 32 34 88 be 09 79 e3 be
       -0.49275807 -0.17112109 -0.26602322 -0.4442828
000010 cb 36 d4 be 03 6f a7 3e 3d c3 a2 be a4 0d 9a be
       -0.41448054 0.32701883 -0.3178958 -0.30088532
000020 81 f3 5f be b1 6e 59 bd 06 23 96 3e 01 ad fc be
       -0.21870233 -0.05308408 0.29323596 -0.49350742
000030 02 6d 63 be b5 a8 a0 bd 8c 8a 0f 3e 86 a0 8d be
       -0.22209552 -0.07844678 0.14017695 -0.27661532
000040 0b 17 0c be bf fc 88 be 48 1b e3 bd 90 4e 85 3e
       -0.13680665 -0.2675533 -0.11089188 0.260365
000050 2d 77 55 be d5 73 83 bd 34 43 a8 be ba f8 0e 3e
       -0.20846243 -0.064185776 -0.32863772 0.13962069
000060 87 81 a3 be 27 21 f0 3d cf a0 fe be 2f 0b 4c 3e
       -0.3193476 0.11725073 -0.49732062 0.19926141
000070 64 f6 38 3e 42 0b c1 be ae 4b 85 bd 0f 2a 9b be
       0.1806274 -0.37703902 -0.065085754 -0.30305526
000080 8a da 71 be 5a 9b 76 3e 2e 9f 93 be 39 15 92 3e
       -0.23618522 0.240827 -0.28832382 0.28531817
000090 e3 15 81 3e 7c a3 e4 3e 27 fc 41 be 02 ab e4 be
       0.2521201 0.4465598 -0.18943845 -0.4466172
0000a0 13 ee a6 3e 9c 8c f7 bd 82 3f 4e be 7e e1 75 be
       0.3260351 -0.12087366 -0.20141414 -0.240118
0000b0 87 6d ef 3e 6b 7e c9 be 1c 56 d9 3d c7 02 c7 3d
       0.4676325 -0.39354262 0.10612127 0.097173266
0000c0 45 e0 44 be 65 27 90 3e c8 96 92 3e 8d 51 aa 3e
       -0.19226177 0.28155056 0.28630662 0.33265343
0000d0 15 72 07 3e 6f fa ff 3d f1 02 14 3e 77 cd 1f be
       0.13227113 0.12498938 0.14454247 -0.15605722
0000e0 25 65 ce be 96 d1 b7 3b 2e 9c 4e 3d 2f e0 9a 3e
       -0.40311542 0.0056097014 0.050441913 0.30249164
0000f0 0d 53 a8 3d 6d 2f 3c 3c f2 1d 32 be 9c 20 d7 3e
       0.08218966 0.011485917 -0.17394236 0.42017066
000100 88 69 e0 3e cf 3c fc 3e a9 c0 e4 bc 03 a3 7f be
       0.43830514 0.49265143 -0.027923899 -0.24964528
000110 2b 32 cd be 6e 3a fd be 63 f9 ca be 5f a9 1f be
       -0.40077338 -0.4945864 -0.39643392 -0.15591954
000120 2a 90 c5 3e 46 ca e9 be 6b 14 1b be bb fa 4a 3e
       0.3858655 -0.45662135 -0.15144508 0.19822209
000130 25 ee 6c 3e f1 76 b9 3c 30 9d dd bd 11 f3 df 3c
       0.2313772 0.022639723 -0.10820997 0.027337583
000140 a1 5f a2 be 41 39 80 3e ee a2 97 3e 74 e0 b3 3d
       -0.31713584 0.2504368 0.29616493 0.087830454
000150 8c 57 b5 3e 5c aa 98 3e 83 21 f2 be f6 84 4d be
       0.35418355 0.29817474 -0.47291192 -0.20070252
000160 97 d9 d7 be 9c e1 38 3e fa b1 e8 be 93 2f f0 3d
       -0.42158195 0.18054813 -0.45448285 0.11727824
000170 d0 24 ce be 64 86 84 3e e4 7e b1 be e8 27 e8 be
       -0.4026246 0.25883782 -0.34667122 -0.45342946
000180 c3 d5 4b be f9 03 2b 3e 29 30 58 be b1 bb 40 3e
       -0.19905762 0.16700734 -0.21112122 0.18821599
000190 7d d1 3f 3c 68 7d 8a be d1 bf 00 bd e4 01 a1 3e
       0.011707661 -0.27048802 -0.03143293 0.31446755
0001a0 56 46 9b be 04 26 de 3e bc 85 11 3e f7 23 86 3e
       -0.303271 0.4338838 0.14211172 0.26199314
0001b0 4c a9 c0 bd 09 39 be 3e 91 da c0 be eb f2 51 be
       -0.09407291 0.3715289 -0.37666753 -0.20502822
0001c0 42 38 a2 3e 58 60 8b be 1b 39 d4 3e 71 bf 3c be
       0.31683546 -0.27221942 0.41449818 -0.18432404
0001d0 45 75 f4 be 2c 05 f1 3e 83 c6 d2 3e 56 b6 55 3e
       -0.4774572 0.47074258 0.41167077 0.20870337
0001e0 81 c0 dc be fa a6 df 3d be d7 ec bd d7 f0 f6 3e
       -0.4311562 0.1092052 -0.11564587 0.4823062
0001f0 f9 0a e7 3d ef c7 30 bd 09 5c fd be b5 ea 37 be
       0.1128139 -0.04315942 -0.4948428 -0.17960627
000200 71 82 bf 3e b6 4e c5 be 8d c0 39 3d 39 66 c5 be
       0.37404206 -0.38536614 0.045349646 -0.38554552
000210 58 2b 26 bd 68 9a ee bd c7 15 7d bd 0d 83 97 bc
       -0.04056868 -0.116505444 -0.061788347 -0.018495107
000220 5e d7 13 be d9 d2 3e be ae 71 6f 3e 36 b0 84 3d
       -0.14437625 -0.1863512 0.23383209 0.06478922
000230 2e 99 7d be ea c3 83 3e 9a 1c fd 3e 83 9d 8d 3e
       -0.24765465 0.25735408 0.49435884 0.27659234
000240 c7 ae 60 3e e2 09 b5 bd 46 72 be 3e bf 56 44 be
       0.21941672 -0.088397756 0.3719656 -0.19173716
000250 6d cc 81 3e 75 cb e9 3e ac 3d 6f bd dd a3 88 be
       0.25351277 0.45663038 -0.058408424 -0.26687518
000260 b9 80 1c 3e 16 c6 9a bd 3e 84 94 3e e3 fc 62 be
       0.15283479 -0.07557313 0.29007143 -0.22166781
000270 0f 25 b4 3e 9f cb b6 3e 74 b8 82 3e f9 bd 8c 3d
       0.35184523 0.35702226 0.25531352 0.06872172
000280 b2 51 3e be 1a 6f b6 3e 92 9b 8e bd a9 13 3a be
       -0.18585852 0.3563164 -0.069632664 -0.18171562
000290 b3 7f cb 3e 98 e4 01 be 57 ad 73 3e 72 73 65 3e
       0.39745864 -0.12684858 0.23796593 0.2240732
0002a0 8d ce 4c be cc 9f af 3e 44 17 1e bd bd e5 85 3e
       -0.20000668 0.34301603 -0.038596407 0.2615184
0002b0 45 2b ad be 75 1a 38 3e 0d 7f d5 3e eb 93 5d be
       -0.33822075 0.17978843 0.41698495 -0.21638457
0002c0 f5 c6 eb 3e cf 9e 99 be 4f 71 29 3e a2 30 2f 3e
       0.4605023 -0.30003974 0.1654713 0.17108396
0002d0 e0 ed 31 3c 6e f9 3c 3e 74 21 02 3e be d9 6d be
       0.0108599365 0.18454525 0.12708074 -0.23227593
0002e0 c8 97 cb be a0 51 b7 be d0 05 ba bc 15 ff c9 3b
       -0.39764237 -0.35804462 -0.02270785 0.0061644414
0002f0 35 14 54 bd 7a 2f ef ba 7d 6a de be 25 51 f0 be
       -0.051777083 -0.0018248402 -0.4344062 -0.46936908
000300 26 d7 39 be 8e 9f dd be 38 5f 84 3e 99 f7 23 be
       -0.18148479 -0.43285793 0.25853896 -0.1601242
000310 a2 f7 73 be be c9 6f 3d 7c 96 c4 3d fe 46 85 3e
       -0.23824933 0.058542006 0.09599015 0.26030725
000320 36 98 bc 3c de c3 30 3e 32 61 fe 3d c1 d8 df 3e
       0.023021799 0.17262217 0.12420882 0.43720058
000330 48 03 11 3e 29 44 3f 3e 0c cd 34 3c db 1d 5c 3e
       0.14161408 0.18678345 0.011035215 0.21495764
000340 95 9c af bc f0 65 79 be 95 9d 94 be 74 4c 97 3e
       -0.021436969 -0.24355292 -0.29026476 0.29550517
000350 44 f4 0d 3d 37 99 f9 3e 94 ed 95 3e ca 5b de 3e
       0.034656778 0.48749706 0.2928282 0.43429404
000360 5f a1 76 bd 95 3e a4 3e 22 2c 85 3d fb 6c db 3d
       -0.06021249 0.32078996 0.06502558 0.10714146
000370 96 5c 13 3e 29 f1 9c be 83 0a e7 3e b2 97 41 3e
       0.14390787 -0.3065274 0.45125207 0.18905523
000380 7e 69 de bd c6 93 c1 be d4 7e 90 be d7 1e 25 bd
       -0.10859965 -0.37808055 -0.28221762 -0.040312614
000390 0b f5 bc 3d d3 95 46 3e 2c 07 fc 3e 8e 62 b7 3e
       0.09226426 0.19393091 0.49224222 0.3581738
0003a0 86 64 ac bc 8e 8c c2 bd 4a 5e cd 3e 8e 8c 1b 3c
       -0.021044027 -0.09499465 0.40111 0.00949396
0003b0 60 35 c7 3d 33 24 d0 bc a6 a2 d9 3e fb 17 8c 3e
       0.09726977 -0.025407886 0.42506903 0.27362046
0003c0 b3 e3 62 3e 59 44 3d 3e 48 3a 5e bd dd e0 24 3e
       0.22157173 0.18483104 -0.0542548 0.16101404
0003d0 46 5d b3 be 8a a6 a5 be 60 77 27 3e f2 c5 e7 3d
       -0.350321 -0.32353622 0.16354132 0.11317052
0003e0 20 85 a6 be 32 18 50 3e 40 ca 62 3e 54 11 98 3e
       -0.3252344 0.2032173 0.22147465 0.2970072
0003f0 0f 27 6c be 70 0c 86 be fa 0e 1d bc d9 0c e4 bc
       -0.23061775 -0.26181364 -0.00958609 -0.027838157

decoder_net.8.bias f4 [32]
000000 7d 0f 2f bd 04 09 2a 3e 83 1f 2f 3e 1b 61 c7 3c
       -0.04273938 0.16605002 0.17101865 0.024338296
000010 fe 21 06 be 07 44 2e bc 59 e6 12 3e de d8 f8 bd
       -0.13098904 -0.010636336 0.14345683 -0.12150739
000020 2f 25 7c bd 9b 4c 85 3d cc 83 15 3d 1b fa 22 3e
       -0.0615589 0.06508752 0.036502644 0.1591572
000030 01 db 01 3d e3 5c 80 ba ac 6c d5 3c 96 e9 12 bd
       0.031703 -0.0009793307 0.026052795 -0.035867296
000040 a8 70 26 be a2 8b 84 bd 57 60 1e be 57 7d fe 3d
       -0.16253912 -0.06471945 -0.15466438 0.124262504
000050 eb 20 b9 3b 5c 74 ce 3c 9c 74 8e bc d9 f0 be bd
       0.005649676 0.025201969 -0.017389588 -0.09323282
000060 f8 46 fd bd 15 84 eb bc 19 08 37 3d 46 ba cb bd
       -0.12367052 -0.028749505 0.044685457 -0.09947638
000070 60 f9 ce bd a0 e5 e6 3d b8 10 88 bd 61 50 c3 3d
       -0.10106158 0.11274266 -0.06643814 0.095368154

decoder_net.10.weight f4 [5, 32]
000000 97 71 91 3e a1 6c bc 3e f1 ba d2 3e c5 bb 1b be
       0.28406975 0.36801627 0.4115825 -0.15208347
000010 f5 94 68 bd dc 9f 90 be 2b f7 fd 3c 58 cc 22 3c
       -0.05678268 -0.28246963 0.031001648 0.009936415
000020 75 bf bd bd f9 59 53 be 14 48 b7 3e e0 cb a8 3e
       -0.09265033 -0.2063979 0.3579718 0.32968044
000030 65 0a e3 be 18 90 e9 be cd ee 8a be ab 99 44 bd
       -0.44343868 -0.45617747 -0.27135316 -0.04799811
000040 7e c1 4d bd ef 10 ec 3e 18 80 2a 3b 70 dc 83 bd
       -0.050233357 0.4610667 0.0026016291 -0.064385295
000050 eb 62 b4 3e aa 08 15 be 90 29 bb 3e f2 a5 c2 bd
       0.35231718 -0.14554086 0.36555147 -0.09504308
000060 29 52 2f be 3a cc 54 3d a4 1b b8 be 52 82 e6 3e
       -0.17121185 0.051952578 -0.35958588 0.45021302
000070 57 6b 14 3e 9c 43 e3 3e d9 65 fb 3e 17 7e 03 3d
       0.14494072 0.4438752 0.4910114 0.03210267
000080 03 dc a7 bc ef 74 49 bd 9c cb 94 be cd db 6f 3e
       -0.020490652 -0.049183782 -0.29061592 0.23423691
000090 ef d7 b0 be b7 20 d1 3e e9 85 5e 3e 07 39 06 bd
       -0.34539744 0.40845272 0.2173077 -0.03276923
0000a0 09 d5 9a 3e 8f 14 9b 3d b6 ea cd 3e a2 d4 92 be
       0.30240658 0.075722806 0.40218133 -0.2867785
0000b0 55 6f bf be 0c 09 54 be fa 34 a5 3e 22 74 92 3e
       -0.37389627 -0.20706576 0.3226698 0.28604227
0000c0 93 97 27 be 1f 2b e8 bd 6b 9c 8b 3e 3b 0a f8 be
       -0.16366415 -0.1133635 0.27267775 -0.48445305
0000d0 32 24 5e 3e a4 9f 67 3d c2 18 00 3e 36 83 f7 be
       0.21693495 0.05654873 0.12509444 -0.48342294
0000e0 06 cf a6 3c 86 e7 90 3d 8d 35 c3 3e 9c 98 d2 3e
       0.020362388 0.070754096 0.38126794 0.41132057
0000f0 15 4e 4d bd 31 9f e6 3e 16 56 ef be 96 53 a5 bc
       -0.050123293 0.45043328 -0.46745366 -0.020181458
000100 2f f8 92 3c 51 d2 bf be a0 70 92 3e 0c c1 e4 3e
       0.017940609 -0.37465146 0.2860155 0.44678533
000110 52 e8 59 be 4b 2c c4 be c3 7b 43 3d ce 62 de 3e
       -0.2128003 -0.38315043 0.04772545 0.43434757
000120 aa 99 4d be c4 29 3c be 45 97 65 3e bf 30 e1 3e
       -0.2007815 -0.18375307 0.22420986 0.43982503
000130 2e 9a f2 3e d3 f0 e5 3e 8f 35 b6 3e 0d 78 89 3e
       0.47383255 0.44910297 0.35587737 0.26849404
000140 e3 77 f9 be dd cf e8 3e 31 fe 2b be c5 40 d2 be
       -0.4872428 0.45471087 -0.16796185 -0.4106504
000150 b7 0c 93 be 76 bc bf be da e0 ba be e4 ce fc bc
       -0.28720638 -0.37448472 -0.36499673 -0.030860372
000160 66 92 6d 3e 52 95 c5 be 92 da e3 be bd 2c 87 3e
       0.23200378 -0.38590485 -0.44502693 0.2640132
000170 42 42 e8 3d ae 5e 33 3e 97 bb 72 be 9c 38 65 3e
       0.11340763 0.17516586 -0.23704372 0.22384876
000180 ac 14 6c be 65 97 00 3f 13 6c 06 3e 6d 49 bb be
       -0.2305476 0.5023101 0.13127165 -0.36579457
000190 68 f0 58 3e 2e c9 f4 3e dd 36 95 be 3d 84 ed 3d
       0.21185458 0.47809738 -0.2914342 0.11597488
0001a0 62 f1 33 be f7 ec bc be 9a 2b 4a 3e 00 4c ab 3e
       -0.17572549 -0.3689954 0.19743195 0.3345642
0001b0 fc 2e e7 3e 5d c0 6b 3d 3d cc 1a 3c 00 44 08 bd
       0.45153034 0.0575565 0.009448108 -0.033267975
0001c0 90 44 93 3e 5a 74 4a bd 3b 10 13 3e 2a d8 7b bd
       0.28763247 -0.049427368 0.1436166 -0.061485447
0001d0 d8 c6 5d be 17 bb a3 3e 68 30 42 3e 99 8e 26 3e
       -0.21657884 0.31978676 0.18963778 0.16265334
0001e0 6a cf 32 bd 6d 99 e6 3d 90 e5 00 3e b2 cf e2 3c
       -0.043654837 0.112597324 0.12587571 0.027686927
0001f0 9e 10 3c be 3f 88 d8 bd 8b b6 98 be 8b 60 70 be
       -0.18365714 -0.10572862 -0.2982677 -0.23474328
000200 e0 b0 f2 be e1 40 a8 3d 4d b0 95 be 0b 20 b7 be
       -0.4740057 0.082155 -0.2923607 -0.35766634
000210 fd 04 78 bc f6 44 b1 be 3b 0a fc be 90 29 5f 3e
       -0.015137908 -0.34622926 -0.49226555 0.21793199
000220 9e 09 71 3e 7e 87 a1 bd 62 6d eb be 7a 66 d9 3e
       0.23538825 -0.07887171 -0.4598189 0.42460996
000230 99 8d dd 3e f3 1a f6 3e f7 ed 96 3e fd 6c db 3e
       0.43272093 0.48067436 0.29478428 0.4285659
000240 66 3d af be a6 d0 f8 be 97 4c c1 be b0 2c fc 3e
       -0.3422653 -0.48596686 -0.37753746 0.49252844
000250 40 f0 e2 be af 5a 0c be c4 4c fd 3e b3 e3 f9 3e
       -0.4432392 -0.13706468 0.4947263 0.48806533
000260 0a c9 22 3e 8f c2 fc 3e 51 98 a4 3d f8 55 aa 3e
       0.15897003 0.49367186 0.080368645 0.33268714
000270 af 96 a6 bd 87 44 8e 3e d9 3d 77 be 86 86 ee 3e
       -0.08134209 0.27786657 -0.24144687 0.46587008

decoder_net.10.bias f4 [5]
000000 d8 29 ca bc 98 6c df 3d 64 a9 c0 3d 95 62 d1 3c
       -0.024678156 0.109093845 0.09407309 0.025559703
000010 29 21 86 3c
       0.016373234
