Action_Net_499.pt (torch, 54946 bytes, 12 tensors)

decoder_net.0.weight f4 [32, 255]
000000 92 69 b1 3d f7 6b 50 3e ad 1c c3 3e 11 c2 0b 3e
       0.08662714 0.20353685 0.38107815 0.13648249
000010 16 f1 85 3e f6 35 ad 3e 32 9a c5 be 1b 84 83 be
       0.26160496 0.3383023 -0.38594204 -0.25686726
000020 8a 76 8b 3e 3c 6c b8 3d c5 07 94 be 62 7c 25 3e
       0.27238876 0.09005019 -0.28912178 0.1616073
000030 58 76 ec be dc f0 3b be c0 66 7e 3e 2e 1b 98 bc
       -0.4618404 -0.183536 0.24843884 -0.018567648
000040 6a e7 ae be a4 1e 83 3e 74 d0 97 3c 7f 10 7c bd
       -0.3416093 0.25609314 0.018532015 -0.06153917
000050 26 d5 f6 be 5c 28 2f be 05 8f 4f 3d 0d 71 88 be
       -0.48209494 -0.1710524 0.050673503 -0.2664875
000060 a7 26 c6 3d 00 b3 b6 be b7 93 c7 3e 31 b1 c8 3e
       0.09675341 -0.3568344 0.38979885 0.39197686
000070 f9 d5 94 3e cc 89 27 bd 6c 3b f7 be cc 0f 4f be
       0.29069498 -0.040902898 -0.48287523 -0.2022087
000080 6d 1c 22 bd ad 11 eb be bd 09 c0 3e d6 f8 19 3e
       -0.03957789 -0.45911923 0.3750743 0.1503633
000090 b9 13 c3 3e f9 20 de be 77 24 82 be 18 7b f5 3d
       0.38100985 -0.4338453 -0.25418445 0.11986369
0000a0 8a 9c dc bb be df 86 be e7 a0 ba 3e 29 d3 47 3e
       -0.006732528 -0.26342577 0.36450884 0.19514145
0000b0 a0 4a ae bc 3b 17 f7 3e 0a 07 02 bf 1e 87 e5 be
       -0.021275818 0.4825991 -0.5079199 -0.4482965
0000c0 9a c9 c7 3d 3f 30 e2 3e d9 25 97 3e 08 28 8b be
       0.09755249 0.44177434 0.29521063 -0.2717898
0000d0 11 9a b7 3e e5 d7 8a 3e 8c 37 ea 3c 5a 7e a2 3e
       0.3585973 0.2711784 0.02859094 0.31737024
0000e0 2d c6 d1 3d 3b c4 b3 bb 65 0f 04 be ec f7 85 be
       0.10242877 -0.005486039 -0.12896498 -0.26165712
0000f0 d2 f0 9f be d3 27 88 bd 7e ac ae be 22 ee 55 3e
       -0.3123842 -0.06648221 -0.34115976 0.20891622
000100 c5 3f 1d 3e 02 03 f6 be 59 ab c0 be 3d 10 bb 3e
       0.15356357 -0.4804917 -0.37630728 0.36535826
000110 2a ff 84 be 66 ad 71 bb 62 e6 a1 be 1d cb 01 be
       -0.25975925 -0.0036877035 -0.3162108 -0.12675138
000120 2f 48 7c 3e e6 e6 07 3e 52 90 7c 3e 4c 3e ce bc
       0.24636911 0.13271675 0.24664429 -0.02517619
000130 67 63 ca be 54 87 ea ba 35 15 95 3e 54 c6 e6 3d
       -0.39528963 -0.0017893114 0.29117742 0.11268297
000140 d7 36 f6 3d 6d 5c b3 3d 93 44 cf 3e 03 46 7a 3e
       0.120221786 0.08757863 0.40482005 0.2444077
000150 b9 db ac bd 49 ec 8e be 71 ef ce 3e 15 fd 82 be
       -0.08440346 -0.27914646 0.40417054 -0.2558371
000160 d0 ef b0 be d2 8f 26 3e 26 15 aa be 72 ac db be
       -0.34557962 0.162658 -0.3321926 -0.42905003
000170 81 4b c8 be 47 87 f7 3d c0 e2 a6 be 87 07 de 3e
       -0.39120105 0.12086349 -0.32594872 0.43365118
000180 20 c7 00 bc 8e cd 53 be 6f 1b a2 be d4 59 1f be
       -0.007859975 -0.20683882 -0.31661555 -0.1556161
000190 6d 32 e1 3e d4 de a5 be ba e6 e7 be 0a 5c 18 3e
       0.43983784 -0.32396567 -0.45293218 0.1487886
0001a0 98 ba 37 3e 39 8d de be 68 e8 61 be 39 0e db 3e
       0.17942274 -0.4346712 -0.22061312 0.4278429
0001b0 e9 7d 75 be 06 bd 54 3e 3a 91 82 be 5b 27 dd be
       -0.23973812 0.20775232 -0.25501424 -0.43194088
0001c0 e8 b4 f3 be fa 65 bf 3e 7f 32 2e 3e 29 4c 10 3e
       -0.47598958 0.3738249 0.1701145 0.14091553
0001d0 8f cf 28 3e 1e 85 4b 3e 24 78 ad 3e 32 f3 c6 3e
       0.16485427 0.19874999 0.33880723 0.38857418
0001e0 85 b8 c4 3e 15 ec 2f 3e ba c9 c1 3d 59 52 e1 3d
       0.38422027 0.17179902 0.094623044 0.11002035
0001f0 99 f4 cb be 92 78 63 3e 62 77 08 3e 9c 3e 69 3e
       -0.3983505 0.22213963 0.13326791 0.2277779
000200 b2 22 06 be b3 dd d2 3e 42 ce 80 3d ab c6 07 be
       -0.13099173 0.41184768 0.062893406 -0.1325938
000210 d6 27 6b bc 84 fb 54 be ce 4d a1 bd e7 2e de 3e
       -0.014352759 -0.2079907 -0.07876168 0.4339516
000220 56 2f 27 3e 63 0d 44 bd 50 26 0b 3d 64 59 00 3e
       0.16326651 -0.04786433 0.033972085 0.125341
000230 f9 ba 90 be 8f de 87 be 50 f4 e1 3e fe 4b 34 3c
       -0.2826765 -0.26536986 0.44131708 0.011004446
000240 cf 16 15 3e 64 29 70 be 81 fc b7 be b1 7f c9 3d
       0.14559482 -0.2345329 -0.35934833 0.09838808
000250 6b 18 8e 3e 74 5b ea be c6 a1 00 bf 91 2c 1f be
       0.27753004 -0.45772898 -0.50246847 -0.15544344
000260 0a 69 a0 3e a1 fa df be c0 89 cc 3e 34 ae e8 3e
       0.31330138 -0.43745902 0.39948845 0.45445406
000270 19 62 03 be 75 a4 23 3d 80 59 17 bc a6 4d fa 3e
       -0.1283039 0.03995176 -0.009237647 0.48887366
000280 67 40 43 3d 4c ac fe 3d bb 65 3c be 32 b6 0e bb
       0.04766884 0.12435207 -0.18398182 -0.0021776077
000290 e4 e0 87 be 71 1a 19 3d 0a 35 9f bd 99 d0 c4 3d
       -0.26538765 0.037378732 -0.07773788 0.09610099
0002a0 df 7e b7 3d e1 56 d4 be 78 c7 aa 3e c8 9b 8c 3e
       0.089597456 -0.41472533 0.33355308 0.27462602
0002b0 7c 10 b4 3e f8 3f bc 3e 29 d4 02 3e 36 32 8b 3e
       0.35168827 0.36767554 0.12776245 0.27186745
0002c0 86 e8 7a 3e d9 dd 97 3e b6 79 9a be 7d 24 71 3e
       0.24502763 0.29661444 -0.30170983 0.23549075
0002d0 04 2d 28 bd f2 a9 44 3e df d7 3a 3e 56 13 bf be
       -0.041058555 0.19205454 0.18246411 -0.3731944
0002e0 80 a6 69 be fe 83 b6 be 83 00 09 be 74 eb 23 3e
       -0.22817421 -0.35647577 -0.13379101 0.16007787
0002f0 01 55 ec 3d 34 6b ca 3e ae 18 b9 be d0 e6 1e 3e
       0.11539651 0.39534914 -0.36151642 0.15517735
000300 c0 85 d0 3e 57 76 c5 be 73 f3 c0 be 0a e9 f3 3d
       0.40727043 -0.3856685 -0.37685737 0.11909683
000310 0e 94 50 be cd a8 01 3e 76 2d 78 be 75 8f 81 3d
       -0.20368978 0.12662049 -0.24236092 0.063261904
000320 cd 34 d9 be 03 1f cb 3e d6 c3 a3 be 30 1c eb be
       -0.42423096 0.39672098 -0.31985348 -0.45919943
000330 b4 ed 84 be 79 67 1c 3c 18 ac ef 3e 79 9d d3 3d
       -0.25962603 0.009546154 0.46810985 0.1033277
000340 1d f2 d7 bd 8e 85 b8 be a7 45 68 3e 77 ca 10 3d
       -0.10544226 -0.36039394 0.2268282 0.035349336
000350 29 22 15 be 9d 72 10 be dd c0 93 3d 82 f7 95 3e
       -0.14563812 -0.14106221 0.0721452 0.29290396
000360 2e 44 9a be 9b 20 f9 bd b3 04 70 3e 0c a1 af be
       -0.30130142 -0.12164422 0.23439293 -0.34302557
000370 73 74 5b bc 9f 7b ce 3e ec f2 b1 3e e0 a0 cd be
       -0.013394463 0.4032869 0.34755647 -0.401618
000380 b9 07 71 be ae 57 a2 3d 27 ec a0 3e 55 74 4e be
       -0.23538102 0.0792688 0.3143017 -0.20161565
000390 5a a8 e8 be 60 ac a0 bc 71 cb 9f 3e 2b fc 83 be
       -0.45440942 -0.019613445 0.312099 -0.25778326
0003a0 d6 f1 eb be 23 80 08 3d d7 f0 d3 3e d7 c1 cf be
       -0.46082944 0.033325326 0.41394684 -0.40577576
0003b0 ad dc d9 3d 72 5c a1 3e 54 e9 64 3c 52 89 89 be
       0.10637794 0.31515843 0.013971645 -0.2686258
0003c0 e5 0f 3a be f2 ab a8 be 9b 4e 10 3d ff 8a 5f be
       -0.18170126 -0.32943684 0.035231214 -0.21830367
0003d0 67 61 81 3c c5 37 e3 bd 53 97 af be d3 fb f6 3e
       0.015793515 -0.110946216 -0.3429514 0.48239002
0003e0 16 b7 ee 3d fb c8 7b 3e 32 d1 96 3e 60 e2 4c 3e
       0.116560146 0.24588387 0.29456478 0.2000823
0003f0 d2 1a f4 bd d6 fb 1d be af 7b 8d be 72 67 d8 be
       -0.11919178 -0.15428099 -0.27633426 -0.42266423

decoder_net.0.bias f4 [32]
000000 b1 20 08 bd 1e 2f ac bb d4 33 14 3c 9e d8 e4 3c
       -0.033234302 -0.0052546402 0.00904556 0.027935322
000010 a8 e6 46 bd f1 6f 11 bd be c8 ce bc b0 b6 8b 3d
       -0.048559815 -0.035507146 -0.025242206 0.06821954
000020 e0 51 7a 3d a1 01 f2 bc f4 e2 27 bd 34 b8 a2 3b
       0.06111324 -0.029541792 -0.040987924 0.0049658064
000030 52 45 14 bc 84 a6 2b bd 6e 62 46 bd be b8 97 bc
       -0.00904973 -0.04190685 -0.048433714 -0.01852071
000040 3a 26 20 bc 57 a1 15 bc 85 59 02 3c 11 b3 8d bd
       -0.009774739 -0.009132705 0.007955913 -0.0691892
000050 c1 11 37 3d 0a 5f 66 bd b2 ac 96 bc e6 68 6c 3d
       0.044694666 -0.05624298 -0.018392894 0.057717226
000060 0a f7 26 bc ad 6d 20 bd c7 b5 d7 3c a1 00 eb bc
       -0.010190735 -0.039167095 0.026331795 -0.028686823
000070 5b ce 80 3d 1c 63 7e bc 2b 1d 61 bd 5c 2e 6a bd
       0.06289359 -0.015526559 -0.054959457 -0.057173118

decoder_net.2.weight f4 [32, 32]
000000 83 20 cd bc f9 21 1b 3d 39 59 de be bd 8b a4 3e
       -0.025039917 0.037874196 -0.43427446 0.32137862
000010 5b 73 a7 3e 6e 2e f5 3e be 92 b6 3d 88 f7 0c be
       0.32705197 0.47886986 0.089147076 -0.137663
000020 b0 1c 90 bd f7 c0 17 be ff 35 e9 be 92 e0 2e 3e
       -0.07036722 -0.14819704 -0.45549008 0.17077854
000030 13 86 93 3d 25 68 16 be e0 04 90 be 1e 6a e9 bd
       0.07203307 -0.14688165 -0.2812872 -0.11397193
000040 64 af 11 3e fd 99 bc 3e bc 87 53 3e 5f ab b3 3e
       0.14227062 0.36836234 0.20657247 0.35091683
000050 a8 be ce 3e 88 21 7a be be 4f 0b bc da db d3 be
       0.40379834 -0.24426854 -0.008502899 -0.4137867
000060 3c dc 90 be 28 45 47 3e c5 39 40 3e 76 d9 62 3e
       -0.28293025 0.19459975 0.18772037 0.22153267
000070 e1 80 d8 3e 0a ca 51 3e b2 bb 77 be a9 e7 cc bd
       0.42285827 0.20487228 -0.24192694 -0.10005123
000080 a2 fb 3f 3d 0c 80 75 3e 80 58 7d be 28 b1 4f be
       0.046870835 0.23974627 -0.24740791 -0.20282423
000090 c9 9a 41 3e e7 5d 24 3e 16 24 eb 3e 7e 11 d8 3e
       0.18906702 0.16051446 0.4592597 0.42200845
0000a0 8e 75 61 be a7 9e 3b 3e 47 67 9f be 3f a7 53 bc
       -0.220175 0.1832224 -0.31133482 -0.012918293
0000b0 6d 73 22 bd ad f8 e1 3d 29 db dc 3e c3 7e c5 be
       -0.03966086 0.11033759 0.43135956 -0.38573274
0000c0 af e8 f0 3e 3c 29 ac 3e e5 cc 6b be 3d b7 1c be
       0.47052523 0.3362521 -0.2302738 -0.15304275
0000d0 97 42 ee bd c6 d1 9b 3e 89 1b ef bd 4a 68 43 3e
       -0.11633795 0.30433482 -0.11675174 0.19082752
0000e0 42 13 3f be 55 cf d3 3e 0b 35 95 bd a9 ad f1 3e
       -0.1865969 0.4136912 -0.07285508 0.47202805
0000f0 95 84 c1 be 73 9f 0e be cc a4 aa 3e 9b 4a 36 3e
       -0.37796465 -0.13928013 0.33328855 0.17801897
000100 db 2a 75 be 48 dd d2 be 78 f0 b8 be 35 12 d1 be
       -0.2394213 -0.4118445 -0.36120963 -0.40834203
000110 f8 bf 8f be b0 51 a2 be 50 8a 21 be d8 fe e5 3e
       -0.28076148 -0.31702948 -0.15775418 0.44920993
000120 36 75 ed bd 5c 82 97 be f0 cb 78 3e 04 5c 8c be
       -0.11594622 -0.29591644 0.24296546 -0.27413952
000130 77 7d 74 be 0a e6 bf bd b6 e5 80 bd 07 77 93 be
       -0.23875986 -0.09370048 -0.06293814 -0.28801748
000140 ad ae c2 be 0e b9 00 bf 53 4b 49 be 46 d3 77 3e
       -0.38023892 -0.5028237 -0.1965764 0.24201688
000150 7c 9a e9 3c 1b b1 c5 3e 25 5e c6 3d df 32 ba be
       0.028516047 0.38611683 0.096859254 -0.36366937
000160 78 98 79 3d 64 4b e8 bd a0 be 99 3e 6d 30 02 3e
       0.06093642 -0.113425046 0.30028248 0.12713785
000170 d9 97 f2 3e a2 b1 dd be 91 f5 63 be 7f 05 d2 be
       0.47381476 -0.43299586 -0.22261645 -0.41019818
000180 60 86 5f 3d 1a ca 9e be e2 49 4a be 1d 35 fa 3e
       0.05457151 -0.31013566 -0.19754747 0.48868647
000190 f0 b7 3a be bd f3 6d 3e ff f6 9e 3e aa 29 c1 3e
       -0.18234229 0.2323751 0.31047818 0.377271
0001a0 18 5d d6 3e c0 d6 9b 3e 1c 3b 50 3d f0 40 de 3e
       0.418679 0.3043728 0.05083762 0.43408918
0001b0 7d fb f5 3e 2e ba b9 be 27 bf b3 3d ce 3c bb 3e
       0.48043433 -0.36274856 0.08776694 0.36569828
0001c0 85 52 a8 be b7 b7 3d 3e eb a9 a3 3e 7d 92 f4 3c
       -0.32875457 0.18527113 0.31965575 0.029855007
0001d0 e4 ad 1d be 0f 1c 52 bd 62 7b e2 3e 8e 18 ca be
       -0.15398365 -0.05129629 0.4423476 -0.3947186
0001e0 a6 eb 55 3e 6e 7e 84 be 56 ee b2 3e b9 85 5f be
       0.20890674 -0.25877708 0.3494746 -0.21828355
0001f0 40 b7 c7 3d 74 10 a7 3e 87 fe 62 bd 3f 5b 91 bd
       0.09751749 0.3262974 -0.055418517 -0.07097482
000200 9b 6d ea 3e 34 82 ef 3e fb 7e 8b 3e be bc 8f 3c
       0.45786747 0.46779025 0.27245316 0.017546054
000210 96 76 7a bc fb 6b a3 be 0e 25 aa 3e 63 a3 70 3e
       -0.015287062 -0.3191832 0.33231395 0.23499827
000220 93 14 d0 3e 94 bb a7 be a7 df 04 3e fd c5 da 3d
       0.40640697 -0.32760298 0.12975942 0.106822945
000230 fe 69 04 be dc 87 6c bd cd 19 b4 3d 4b 91 04 be
       -0.12931058 -0.057746753 0.087939836 -0.1294605
000240 fd 7c f5 3e 97 4d e9 be 65 e4 83 bd 38 8a 75 be
       0.4794692 -0.4556701 -0.06440047 -0.23978508
000250 ec 0f bd 3e ff b5 3e be 2b 1f dd bd 4b f0 dd 3e
       0.3692621 -0.18624114 -0.107969604 0.4334739
000260 0d 59 db be 42 8c 22 be c4 b6 e2 3e 5f 70 af 3e
       -0.42841378 -0.15873817 0.44280064 0.3426542
000270 a1 c1 1b be f3 6a b1 bd d4 74 6c be 8a 0e d7 3d
       -0.15210582 -0.08662977 -0.23091441 0.1050082
000280 b6 c8 11 3e 75 db aa 3e ba 6b 5e 3e 6a 7a 7c 3e
       0.14236721 0.33370557 0.21720782 0.24656072
000290 c4 ea a7 bd c0 25 b7 be 45 a6 8c 3e 1a 43 87 bc
       -0.08199075 -0.35770988 0.27470604 -0.016511489
0002a0 35 50 a8 be 48 41 71 3d 53 35 fb 3e 0e 28 34 bd
       -0.32873693 0.058900148 0.4906412 -0.04398351
0002b0 3d 3e da be 59 f1 9d 3e 43 3b c4 3e 43 98 a4 be
       -0.4262561 0.30848196 0.38326463 -0.32147416
0002c0 f1 5c df be 7f 7a b8 be 34 1d 51 3e 32 1a 65 be
       -0.43625596 -0.36030957 0.20421296 -0.22373274
0002d0 13 a7 f5 be 47 a5 05 bd ba 91 81 be 98 8d 14 be
       -0.4797903 -0.032628324 -0.25306493 -0.14507139
0002e0 2a ae 48 be 4f 05 2d be b4 7d a9 be 7f 0f cd bd
       -0.19597688 -0.16896556 -0.33103716 -0.10012721
0002f0 a9 25 a1 be b3 e2 87 bd 4d 72 9f be c5 92 f9 3c
       -0.31474045 -0.06635036 -0.31141892 0.030465493
000300 d8 ff c1 3e 36 0e 63 be 41 38 2c bd a0 16 87 bd
       0.37890506 -0.2217339 -0.042045835 -0.06596112
000310 0a 3a 2a be 4f a7 be be 4e 00 c3 3d 85 1c a0 bc
       -0.16623703 -0.3723702 0.095215425 -0.01954485
000320 e4 f3 56 3d ac e9 e8 bd 52 9a a7 be 6e a9 20 be
       0.052478686 -0.113726944 -0.32734925 -0.15689632
000330 0d 3c 86 3e 30 7a a3 3e 77 b8 3c be d1 c9 97 3e
       0.2621769 0.3192916 -0.18429743 0.2964616
000340 52 40 84 be 3a a4 63 bd 10 af d8 be 49 a1 ab bd
       -0.25830323 -0.05557654 -0.42321062 -0.08380372
000350 2a ab 00 3e 2a 89 8e 3e fb a2 4e 3e 3e 4d 84 3e
       0.12565294 0.27839023 0.2017936 0.2584018
000360 f7 92 ac bd 62 31 05 3f e7 eb c7 be 19 19 0c be
       -0.08426469 0.5202848 -0.39047167 -0.13681449
000370 6c f4 de bd 6d c1 ba 3e 18 14 00 3e 77 70 03 3f
       -0.108864635 0.36475697 0.12507665 0.5134348
000380 f9 5a a6 be 57 05 20 3e 4e 21 d2 be 57 74 2d 3e
       -0.32491282 0.15627037 -0.41041034 0.16938911
000390 8a a8 66 be 42 51 66 be 99 8e 57 3d c6 ba 86 3d
       -0.2252523 -0.22491935 0.052626226 0.06578593
0003a0 3f 5a 00 3f d7 dd ce 3e 00 6d df 3c e2 f8 37 3e
       0.50137705 0.40403625 0.027273655 0.17966035
0003b0 dd 4a 02 3e c2 94 d8 bd 76 f6 bd be bf 57 cd be
       0.1272387 -0.10575248 -0.37102097 -0.40106007
0003c0 1d c9 6a 3d c2 68 4b be f4 4a ef 3e e5 8f 67 be
       0.057320703 -0.1986418 0.46736872 -0.22613485
0003d0 84 29 ef 3d ed 8a 80 be 19 ee 00 3f 5c 0f 69 3e
       0.1167784 -0.25105992 0.5036331 0.22759765
0003e0 ba 4f 8e 3e 9f 5b 13 3e 88 6c 63 bd 3b df 31 be
       0.27795202 0.1439042 -0.055523425 -0.17370312
0003f0 a2 bf 6b be 1d 37 d8 be 5c 36 99 bd 7c 53 41 be
       -0.23022321 -0.42229548 -0.07481071 -0.18879503

decoder_net.2.bias f4 [32]
000000 e7 ed db 3d ca 4d d0 bd f3 8f 21 bd 25 10 be 3b
       0.10738736 -0.10171087 -0.03944392 0.0058002644
000010 7b fc e9 3d 47 89 a1 3d 24 cb 11 3e da bc d4 bd
       0.1142511 0.07887512 0.14237648 -0.10387583
000020 cd 7d 09 bd 51 b4 f1 bc 56 5d 0c 3e bb c1 37 3e
       -0.03356724 -0.029504927 0.1370748 0.17944996
000030 db e9 20 3d 81 9c 01 be cd 21 16 be 0f c4 07 3d
       0.039285522 -0.12657358 -0.14661331 0.03314596
000040 8d 63 22 be 35 b8 99 bd e3 b5 1c be 2c a5 b9 3d
       -0.15858288 -0.07505838 -0.1530376 0.09064707
000050 d8 29 19 3b 04 ec 1e be 4d dc e5 3d ba a9 19 be
       0.0023370888 -0.1551972 0.1122366 -0.15006152
000060 e8 d0 db bc 8d 37 17 3e c1 63 b7 3d 0a 45 1f be
       -0.026833013 0.14767285 0.089545734 -0.1555368
000070 f3 6c c2 3c 70 c6 44 bd f9 37 8a 3d 2c 16 30 3e
       0.023733592 -0.048040807 0.06748957 0.17195958

decoder_net.4.weight f4 [32, 32]
000000 07 a6 64 3e 76 95 22 3e e2 96 d2 3e 84 20 12 3c
       0.2232896 0.15877327 0.4113074 0.008918885
000010 74 24 99 3e 70 29 99 3e 4c f3 e9 3c 24 86 96 be
       0.29910624 0.29914427 0.028558396 -0.29399216
000020 03 da d9 be 74 f7 b2 3e 3e 26 ef be a4 1a 62 3e
       -0.42549142 0.34954417 -0.46708864 0.22080475
000030 97 63 58 be 87 76 32 bd 9f 2c 87 3e 1d 90 fe be
       -0.2113174 -0.043570068 0.2640123 -0.49719325
000040 6a b9 b2 3e b5 15 14 3d 1c bd a1 3e a8 52 ea 3d
       0.34907085 0.036153514 0.31589592 0.11441547
000050 d8 47 84 3e 12 48 12 be 40 15 68 be d1 b6 68 3e
       0.25836062 -0.14285305 -0.22664356 0.22725989
000060 4c 7a ed be 66 c8 b5 be d5 6c c9 39 39 05 e6 3e
       -0.46382368 -0.35504454 0.00038418794 0.4492586
000070 d6 5d eb 3d b1 d4 5b be 69 0a 97 3e 62 73 75 3e
       0.11492507 -0.21467854 0.2950013 0.23969796
000080 00 9a 31 3e 88 5d ec 3e 27 ad bd 3e 80 24 35 3e
       0.17343903 0.4616511 0.37046167 0.17689705
000090 3e 95 f6 be 3a 05 75 3e 65 42 8d 3e 7b de 8b be
       -0.48160738 0.23927775 0.27589718 -0.27318177
0000a0 74 81 a3 3e 24 72 fa 3e 4a e9 22 3e da fb a3 3e
       0.31934702 0.48915207 0.15909305 0.32028085
0000b0 78 a7 9e 3e 82 34 ce bd ae ad d9 be a8 7d 3d be
       0.30987144 -0.10068609 -0.4251532 -0.18504965
0000c0 ab a3 99 3e 2a 3c c8 be 5d aa d4 3e 2c 39 e6 3d
       0.3000768 -0.39108402 0.41536227 0.112413734
0000d0 fb b4 42 be 68 45 ce 3e d3 f8 ca be b5 65 5d bd
       -0.19014351 0.40287328 -0.39642963 -0.054052074
0000e0 25 13 f4 be 87 a7 62 3e 7b d2 ab 3d 31 9e a0 3e
       -0.47670856 0.22134219 0.08389755 0.3137069
0000f0 c4 4e 74 be ba c8 b3 3e f6 83 fc be c4 b1 ce 3e
       -0.23858172 0.3511408 -0.49319428 0.4037
000100 c7 34 60 3e 67 b6 10 3e df 33 c3 be 91 04 7e be
       0.21895133 0.14132081 -0.38125512 -0.2480643
000110 22 43 b2 bd e2 e7 86 3e 1f 34 b9 3e 7a 04 ea 3e
       -0.08704211 0.26348788 0.36172578 0.4570654
000120 61 10 db 3d 15 00 fe bd 12 35 db be 18 ea 05 36
       0.106964834 -0.124023594 -0.42813927 1.9954805e-06
000130 d3 9d 89 3d 79 3c 4c be d1 52 50 3e 8c 5e b2 be
       0.06719556 -0.19944943 0.20344092 -0.3483776
000140 50 d6 9a 3d c8 50 b0 b9 d4 b0 b4 be 08 d4 ed be
       0.07560408 -0.00033629523 -0.3529116 -0.4645083
000150 be 67 c9 be 6c 20 f1 3e b6 8b 3c be 0e c7 f6 3d
       -0.39336962 0.47095048 -0.1841267 0.120496854
000160 46 bb 24 be 17 26 cf 3d 37 df d5 be 53 56 78 3e
       -0.16087064 0.10114687 -0.41771862 0.2425168
000170 a4 c7 c9 3e 08 cb b5 bc b1 50 c4 3c f5 b4 ce be
       0.39410126 -0.02219154 0.023964258 -0.40372434
000180 f9 7b 9d be 42 63 c7 be 1d 79 ea 3e cf 70 f8 bc
       -0.30758646 -0.38942915 0.45795527 -0.030327229
000190 e2 f6 26 3e 2b 4b 88 bd f7 d6 77 3e 4e 6a b8 3e
       0.16305116 -0.06654962 0.24203096 0.36018604
0001a0 21 77 bb be 00 20 a6 be 28 a6 01 be 9d d2 39 3d
       -0.36614326 -0.3244629 -0.1266104 0.045366872
0001b0 78 be c9 bd 26 be 5a 3e e8 d9 64 3e d7 54 d7 3d
       -0.09850782 0.21361598 0.2234875 0.10514229
0001c0 e4 3f dd be 26 15 9e be 08 8f 81 3e 67 4a 3e be
       -0.43212807 -0.3087551 0.25304437 -0.1858307
0001d0 cf 4e b1 be 71 bf d5 bd 65 f5 c3 3e c5 ca 02 3e
       -0.3463044 -0.10436905 0.3827316 0.12772663
0001e0 57 97 55 be c0 95 d8 3e 56 03 b1 bd 60 11 cc 3e
       -0.20858513 0.4230175 -0.086432144 0.39857006
0001f0 3a b7 f9 3e 25 1e c1 be 97 52 c3 bd a4 e2 c1 3e
       0.48772603 -0.3771831 -0.09537237 0.37868226
000200 b1 e4 f2 be 07 57 b5 3e ed 77 cc 3e e9 3d f1 3e
       -0.47440103 0.3541796 0.39935246 0.47117546
000210 75 b6 42 be 76 f6 d2 3e 30 1b cd 3d 39 da cc 3e
       -0.19014914 0.4120366 0.10014951 0.4001024
000220 b5 54 56 3e b9 cb 6b 3c 5a d4 f6 be 26 34 96 be
       0.2093075 0.014391833 -0.48208886 -0.2933666
000230 3d ba ce 3e 3b 20 4c 3e aa c7 1a be 88 b5 f5 3e
       0.40376464 0.1993417 -0.15115228 0.4799006
000240 ca 00 be be 93 98 ac 3e 7f c0 f9 3e 78 c7 3e be
       -0.37109977 0.33710155 0.48779675 -0.18630779
000250 88 25 11 3e bb 7c a4 3e 65 7d fd bd 51 23 e1 3d
       0.14174473 0.32126412 -0.12377433 0.10993064
000260 17 ca 75 3e 9e 73 10 be 97 f3 91 be a6 11 18 3e
       0.24002872 -0.14106604 -0.28506157 0.14850482
000270 4e 06 de be 80 27 e0 be cb 2d b9 b8 82 12 7b be
       -0.43364185 -0.43780136 -8.830017e-05 -0.24518779
000280 62 c4 ff 3d aa 35 bc 3d 62 dc d1 be 47 51 9d be
       0.12488629 0.09189923 -0.4098845 -0.30726072
000290 6d c2 ff 3e b3 19 d6 bc 6e c6 7e bd ab ef 58 be
       0.49953023 -0.026135301 -0.062200956 -0.21185176
0002a0 e5 2a 41 3e ce 6f 43 3e 9e 44 46 3e 33 dd 46 be
       0.18864019 0.19085619 0.19362113 -0.19420318
0002b0 2f fb 86 3e 02 0b 9e 3e a6 28 f2 3e 68 2a ed be
       0.26363513 0.30867773 0.47296637 -0.46321416
0002c0 f5 37 48 3e 0a 69 41 be 31 8c 1f be 46 ce b4 be
       0.19552596 -0.18887725 -0.15580823 -0.35313624
0002d0 5d a7 01 3e 39 18 c9 be fe 9a 8f be c8 db dc bc
       0.126615 -0.39276293 -0.28047937 -0.026960269
0002e0 ea a8 48 3e 98 5c 53 3e b0 91 a4 3e d4 19 02 bf
       0.19595686 0.2064079 0.321424 -0.5082066
0002f0 cc 39 6b be 66 e4 94 3d 56 b6 a7 be 3f 1f 92 be
       -0.22971267 0.07270126 -0.327563 -0.28539464
000300 4d 49 48 be 82 8f 83 3e 04 a8 6d 3e 1b 79 4d be
       -0.19559212 0.25695425 0.23208624 -0.2006573
000310 0e 95 83 be 7e e2 c2 3d b9 26 19 3e 3b 07 e3 3e
       -0.25699657 0.09515856 0.14956178 0.44341454
000320 c4 9d ab 3e f5 f4 05 be f2 a9 1e bd 88 5a 89 3e
       0.33518803 -0.13081725 -0.03873629 0.26826882
000330 f3 72 da 3d 41 2c 7f 3e be 35 e5 3e 70 7d 27 3e
       0.10666456 0.24919225 0.44767565 0.16356444
000340 4f ef 26 bd cb 87 f4 be c9 b8 62 be b2 57 66 3e
       -0.040755566 -0.47759852 -0.22140802 0.2249439
000350 2f 8c ed 3e 0e b2 18 3e 04 8a b5 be 24 42 c6 be
       0.46396014 0.14911672 -0.3545686 -0.38722336
000360 69 14 f3 3e 74 4b 14 be 54 39 0f be 8e 8e ad bd
       0.4747651 -0.14481908 -0.13986713 -0.08474456
000370 4d 45 8e 3e 9a 36 e8 3e 95 7f 4e 3e 30 20 a8 3e
       0.27787247 0.45354158 0.20165856 0.32837057
000380 af 64 db 3e bf 57 f8 be 8e c4 4c be 8b 50 8b be
       0.42850253 -0.48504445 -0.19996855 -0.27209887
000390 22 1b 85 3e 5c 51 b9 3e 1b b3 89 3d d7 0f b3 3e
       0.25997263 0.36194885 0.06723615 0.34973022
0003a0 c5 fb f2 be b1 27 d0 bd 32 74 4d 3d cb 18 75 bd
       -0.4745771 -0.101638205 0.05015964 -0.059838098
0003b0 02 b3 c8 3e a1 e4 51 be 53 0e d3 3e 15 70 0a be
       0.39199072 -0.20497371 0.41221866 -0.13519318
0003c0 62 ac 0e 3d 41 b0 af 3d ef 34 d5 3e 63 da bf bd
       0.034832366 0.0857854 0.41641948 -0.09367826
0003d0 05 73 27 bd 48 7d b3 3e df 44 fe 3e 74 4c 8f be
       -0.040881176 0.3505652 0.4966192 -0.27988017
0003e0 c5 9c 19 3e 0f 83 86 bc 11 e8 ef be 64 31 db be
       0.15001209 -0.016419915 -0.4685674 -0.4281112
0003f0 1d 11 02 be c6 ef f1 bd 2f 11 c5 3d ef c4 83 be
       -0.1270184 -0.11813311 0.09622418 -0.25736186

decoder_net.4.bias f4 [32]
000000 f7 6d c2 bc 7c 03 fc 3d 19 f8 ee bc 55 2f 93 3d
       -0.023734076 0.12305352 -0.029171037 0.07186762
000010 6e 4b 0b 3e c9 2e fe 3d 00 17 ba 3d 2e 9b eb 3d
       0.13602993 0.12411267 0.09086418 0.115042076
000020 c7 31 79 bd 28 69 e9 3c c3 26 a2 bd 48 89 22 be
       -0.060838487 0.028492525 -0.079175495 -0.15872681
000030 f5 6d 12 3e 4e dd 36 be 17 9a e6 bd 84 8d 92 bd
       0.14299758 -0.17857859 -0.11259859 -0.07155898
000040 71 0e 2f be c4 02 18 be 7b 48 ea bd 72 b7 82 bb
       -0.17095353 -0.14844805 -0.11439606 -0.0039891535
000050 0f 28 30 be 31 19 f0 bd 95 bf fc bd 5a 1f 14 be
       -0.17202781 -0.11723555 -0.12341229 -0.14465085
000060 ab f4 d7 3c 3e 18 d2 ba 8c 0d eb 3c 1e a0 16 3e
       0.026361784 -0.0016028953 0.028692983 0.14709517
000070 6e 33 b3 bd 9f 51 92 bd e7 31 80 3d fe 07 10 3e
       -0.08750044 -0.07144474 0.06259518 0.14065549

decoder_net.6.weight f4 [32, 32]
000000 e7 62 2a be 7d 25 f6 3e a7 8e 36 bd 02 ae a7 3b
       -0.16639291 0.48075476 -0.044569638 0.005117179
000010 68 b3 4e 3e 8a 6a cb be c2 1b cc 3e 32 b6 25 3e
       0.20185626 -0.3972972 0.39864928 0.16182783
000020 21 61 b9 3e ad 5e 26 3e 1a ef d5 be 26 36 5e 3e
       0.36206916 0.16247053 -0.41783983 0.21700343
000030 25 11 26 bd da 68 bc 3e fd 0f 4f 3e 1e 47 d5 3d
       -0.040543694 0.36798745 0.20220943 0.10413955
000040 86 df 5f 3e 1c 51 aa 3e 09 ac 29 3e b9 9f db 3e
       0.21862611 0.33265007 0.16569532 0.42895296
000050 97 95 ed 3e e3 0a cf be 1d 32 b3 be e7 ca ba be
       0.4640319 -0.40437993 -0.3499917 -0.36482927
000060 80 99 d0 be 8a ad 89 3e 08 d1 ac 3e de 9b 40 3d
       -0.4074211 0.26890212 0.33753228 0.047023647
000070 6e 2e 84 bd b8 28 db be 2c 13 eb be d4 1a 0f 3e
       -0.06454168 -0.42804503 -0.45913064 0.13975078
000080 61 f9 06 3e a7 96 3d 3e cd 40 1f bd 8a 4f 17 3e
       0.13181068 0.185145 -0.03888016 0.14776435
000090 da f0 02 3e f7 df 58 be 5e 91 d8 3e f9 ea 11 bd
       0.1278719 -0.21179186 0.42298406 -0.035624478
0000a0 4d 5b df bb f3 53 aa be fc 2e c3 3e c7 ee dc 3e
       -0.006816304 -0.33267173 0.38121784 0.43150923
0000b0 c6 8b db 3d 43 cb a8 be 9f c8 92 be eb cd fc be
       0.10720019 -0.32967576 -0.28668687 -0.49375853
0000c0 dc 0f 4f bd 19 65 6a 3e 6e 49 89 be 93 75 72 be
       -0.050552234 0.22890128 -0.26813835 -0.23677664
0000d0 89 7b 91 be c8 de bf 3d 3a 0c 59 3e f7 4b c2 be
       -0.28414562 0.09368664 0.2119607 -0.37948582
0000e0 83 d0 7a be 14 67 46 3e fa 8d b4 3e 9b 87 9f 3e
       -0.24493603 0.19375259 0.3526457 0.31158146
0000f0 c0 e9 0c be 2f 6c 1f bc 02 d7 96 be e8 c2 11 3e
       -0.13761044 -0.009730383 -0.29460913 0.14234507
000100 f0 3c c5 3e b2 ce be bc f2 35 b0 be f4 3b f3 3e
       0.38523054 -0.02329192 -0.34416157 0.47506678
000110 53 aa 45 3e 81 31 2b 3e 2e b5 e5 3e 1c ed 19 be
       0.19303255 0.16718103 0.44864792 -0.15031856
000120 9c 38 1e bd 91 c9 c4 3d 10 64 cb 3e 00 97 68 3e
       -0.038628206 0.09608758 0.3972478 0.22713852
000130 67 13 61 bd 58 fd c0 3e ac 26 25 3c f3 f0 6d be
       -0.054950144 0.37693286 0.010080021 -0.23236446
000140 3f fa 60 3b 2f 9e f6 3e d5 f4 ec be af 76 e1 3e
       0.0034328846 0.4816756 -0.46280542 0.4403586
000150 e3 57 c2 be 09 52 9a be 56 cf e4 be a6 dc a4 3e
       -0.37957677 -0.30140713 -0.44689435 0.3219959
000160 6f 6a 5d 3d 92 e9 ae be 24 34 4b be 5f 1a aa 3e
       0.05405658 -0.34162575 -0.19844109 0.33223245
000170 6f 95 f0 3e cb 62 03 bc 6f fc 10 3e 5d 76 44 be
       0.4698901 -0.00801916 0.14158796 -0.19185777
000180 b7 9f 50 3e 56 e2 12 3e 45 4b df be 52 8f de 3e
       0.20373426 0.14344153 -0.43612114 0.4346872
000190 27 4c c6 3e 2b 98 d1 3e 75 54 9e 3d 1f 37 e7 bd
       0.38729975 0.40936407 0.07730953 -0.112898104
0001a0 3c 29 bb 3e 15 fa ba be 48 ea d5 be 7e 56 29 3d
       0.36554897 -0.36518922 -0.41780305 0.04134225
0001b0 01 3d 3a 3e 9b 3c d8 3d 2d c6 2d 3d da 3c df 3d
       0.18187334 0.105584346 0.042425323 0.109002784
0001c0 4a c9 b6 bd 50 64 9e be 06 cd e1 be e8 05 b7 bd
       -0.089251116 -0.30935907 -0.44101733 -0.089366734
0001d0 5d f5 67 3e e0 37 5d be 45 2d 61 be 36 58 ce bd
       0.22652192 -0.21603346 -0.21989925 -0.10075419
0001e0 29 d7 c2 3e 48 94 8b 3e 50 e6 73 be 3f d2 1c bd
       0.3805478 0.27261567 -0.23818326 -0.038286444
0001f0 78 91 f0 be 82 33 a8 3d d9 9b 4d be b8 13 47 3e
       -0.46985984 0.08212949 -0.20078982 0.19441116
000200 e2 73 dd 3d 4c 8c 4d 3d 5e 21 f5 3b 85 0c b4 3e
       0.108131185 0.050182626 0.0074807843 0.35165802
000210 51 72 71 3d 25 5a 84 3e 28 74 64 3e 61 ee 66 3d
       0.05894691 0.25850025 0.22309935 0.05637968
000220 c5 9a f6 bc 7b 43 c6 be 53 c9 78 3c 06 eb de be
       -0.030103097 -0.3872336 0.015184718 -0.43538684
000230 4e ff 59 bd f5 77 8e be 74 94 e3 3e 07 07 b0 be
       -0.053221993 -0.27825895 0.44449198 -0.3438036
000240 09 94 a0 be 51 77 55 3e ee 3a b1 be 12 cf f1 bd
       -0.31362942 0.20846297 -0.34615272 -0.11807074
000250 f2 4b 88 be 02 13 2f 3d 18 17 99 3e 6c 9e ff 3e
       -0.26620442 0.042742737 0.29900432 0.49925554
000260 0e 59 36 bd 2d c7 a9 be e6 45 0a 3d 87 65 08 3e
       -0.044518523 -0.33159772 0.033758067 0.1331998
000270 ff 9d 1e 3e eb 26 c2 3e 3c 0e 29 be 04 5d eb 3e
       0.15489958 0.37920317 -0.16509336 0.45969403
000280 4a 57 d9 be 1f 05 82 3e ac d8 86 be f2 1e c0 be
       -0.4244941 0.25394532 -0.26337183 -0.3752361
000290 4b 8f e6 3e 43 95 bc 3e 4e 18 b1 3d f6 45 91 3c
       0.450312 0.36832628 0.08647214 0.017733555
0002a0 2d 9e 8a be 48 1e 95 be 3c 82 c6 bc 15 22 62 bc
       -0.27073804 -0.29124665 -0.024232022 -0.013802071
0002b0 44 6f ef 3e 3f a9 f8 3d 9c fd 23 be 83 de 86 3e
       0.46764576 0.12141656 -0.16014713 0.26341638
0002c0 5d 5b a1 be df 2c 20 3e 9c 4b 98 3e 41 52 05 be
       -0.31515017 0.15642117 0.29745185 -0.13019659
0002d0 95 d8 fb 3d 42 fa cd be 02 c1 ed 3e 04 93 d9 3e
       0.12297169 -0.40229994 0.46436316 0.42494977
0002e0 60 7e cf 3e 45 d0 06 3e cc 9c b0 3e 75 38 b4 3e
       0.40526104 0.13165386 0.34494627 0.35199323
0002f0 f7 31 0e bc a0 74 9a 3b 70 bd db be 68 63 6b 3e
       -0.008678905 0.00471361 -0.42917967 0.22987139
000300 f5 cf 18 3c e8 6d a4 be 63 2d b4 3e 41 f4 91 bd
       0.009326925 -0.32115102 0.35190877 -0.07126666
000310 53 d2 1c 3d f1 35 8b bd c2 58 ed 3e 0a a3 94 3e
       0.03828652 -0.06797398 0.4635678 0.2903064
000320 cf 4f fe 3e aa 0e e6 be 7d f5 d7 be 88 6c 1c 3e
       0.49670264 -0.44933063 -0.4217948 0.15275776
000330 09 c1 00 be f0 17 e7 be 55 5d bd 3d a4 09 3f be
       -0.12573637 -0.4513545 0.09246317 -0.18656021
000340 5a 9a bd bd cf 4d aa 3e d8 1c 88 bd 71 17 dd 3e
       -0.09257956 0.33262488 -0.066461265 0.43181947
000350 70 18 06 be d2 57 8a bd d8 7f d5 3e cf 5e c2 be
       -0.1309526 -0.06755032 0.416991 -0.37962958
000360 4f 51 c2 3d e4 17 69 be 43 9d 96 be 27 22 b3 be
       0.09488165 -0.2276302 -0.29416856 -0.34986994
000370 f0 bd ec 3e 8d 14 a6 be f9 a3 f4 3e be 82 b3 be
       0.4623866 -0.32437554 0.4778135 -0.35060686
000380 13 08 dc 3e 30 1f de be 78 d6 ea be 57 ad d4 3e
       0.4297491 -0.4338317 -0.45866752 0.41538498
000390 c7 45 45 3e 34 ca ad 3e e1 19 ed be 51 ef 88 3e
       0.19264899 0.3394333 -0.46308807 0.26745084
0003a0 1a 22 ce 3e 29 a1 af be e4 f2 fe bd b2 bc a9 3e
       0.40260392 -0.34302643 -0.124486715 0.33151776
0003b0 b7 5e 53 3d 0f 48 39 3e c4 33 07 3e 93 62 53 bd
       0.051604 0.18093894 0.13203341 -0.05160768
0003c0 28 b8 a2 3d c2 92 47 3e 1f 22 a4 3e f7 55 a5 be
       0.07945281 0.19489577 0.32057282 -0.32292148
0003d0 b4 bb 9f 3e 12 52 c1 be ea c9 a1 3e 4e 53 b0 3d
       0.31197894 -0.37757927 0.3159936 0.08609639
0003e0 f3 a5 6f 3d cf 49 8c 3e 92 9b 88 be 23 82 9d 3d
       0.05850787 0.2740006 -0.2668119 0.07690837
0003f0 dd db 62 bd b5 6e 64 3d 40 b9 a9 3e 12 07 10 be
       -0.05538546 0.05576964 0.33149147 -0.14065197

decoder_net.6.bias f4 [32]
000000 45 b7 bb bd 85 df 13 3e 74 b5 18 be 66 1d 04 be
       -0.09165815 0.14440735 -0.14912969 -0.1290184
000010 9e e4 27 be 4e d7 27 be c1 1f 1e 3d e0 40 fa bd
       -0.16395804 -0.16390726 0.0386045 -0.12219405
000020 2a 3d 66 bd 85 22 a7 bd cc bb 73 bd ba c7 9e bd
       -0.056210674 -0.08160881 -0.05950527 -0.077529386
000030 a2 2a c4 3d 87 ff 9e bd b1 d5 b8 bd d6 93 be 3d
       0.09578444 -0.07763582 -0.090251334 0.09305541
000040 07 25 19 3e 55 a8 0c 3e 48 1f 85 bd be 4d 20 3d
       0.14955531 0.13736089 -0.06500107 0.03913664
000050 d1 dc b6 bd 43 95 86 bb dc 0b da 3b 72 5c d2 bd
       -0.08928836 -0.004107149 0.006654246 -0.10271539
000060 6e 0e 3e bd ec 77 92 3d 36 c7 42 3d f5 d8 30 3e
       -0.04640048 0.071517795 0.047553264 0.17270263
000070 bf 93 43 bd fc 26 90 bd 98 49 1e be 4c 68 a8 3d
       -0.047748324 -0.07038686 -0.15457761 0.08223018

decoder_net.8.weight f4 [32, 32]
000000 c2 58 ff be 2a b9 42 be aa 0b 8d be 43 bb e4 be
       -0.49872404 -0.19015947 -0.2754796 -0.4467412
000010 2b dc d6 be e0 5c af 3e 9d 2a 9c be 6a d9 94 be
       -0.4196485 0.34250546 -0.3050126 -0.29072124
000020 ed 6d 67 be 58 7c 3c bd db 4a 93 3e f0 a3 f3 be
       -0.22600527 -0.04601702 0.28768048 -0.47586012
000030 06 e5 5d be f8 01 87 bd 0f af 1c 3e 60 e5 9b be
       -0.21669397 -0.065921724 0.15301155 -0.30448437
000040 53 0c 0c be 5f f9 83 be a9 d6 ca bd 31 06 88 3e
       -0.13676576 -0.25776193 -0.099042244 0.26567224
000050 91 19 4c be a9 49 4b bd ec 4e ac be d4 73 05 3e
       -0.19931628 -0.049630795 -0.33653963 0.13032466
000060 f8 b1 9a be bb f0 0c 3e 79 f8 01 bf e5 e8 5a 3e
       -0.30213904 0.13763706 -0.50769764 0.21377905
000070 dc 8f fc 3d a3 54 bc be 7d 9c 93 bd 3e 6d 9c be
       0.123321265 -0.36783323 -0.07207582 -0.30552095
000080 28 bf 76 be 2d 00 6e 3e cf 74 97 be 50 13 90 3e
       -0.24096358 0.23242255 -0.29581305 0.28139734
000090 f7 84 81 3e fa 5d e6 3e 62 50 2c be 7d d7 db be
       0.25296757 0.44993573 -0.16827539 -0.42937842
0000a0 7f d4 9e 3e f4 14 d7 bd 51 0c 61 be 38 0d 73 be
       0.31021497 -0.10502043 -0.21977355 -0.23735511
0000b0 20 70 eb 3e 77 0d bd be 28 51 fd 3d 94 ff c2 3d
       0.45983982 -0.36924335 0.12368995 0.09521404
0000c0 05 0d 4f be d3 a7 96 3e c4 8e 98 3e bb 51 b2 3e
       -0.2021981 0.29424915 0.29796422 0.3482798
0000d0 c6 c3 17 3e 6c 7f 0e 3e 82 f8 fd 3d 99 c7 1e be
       0.14820775 0.13915795 0.12400915 -0.15505828
0000e0 14 c8 c6 be 76 52 58 3c 3e bf 21 3d a8 8e 9e 3e
       -0.38824522 0.013203254 0.039489023 0.30968213
0000f0 96 b5 85 3d dc ba 0b 3d aa 18 3c be 6a b2 cb 3e
       0.065287754 0.03411375 -0.18368784 0.39784557
000100 3f 50 d8 3e 23 24 f7 3e 00 33 44 bb 6d 11 8a be
       0.42248723 0.48269758 -0.0029937625 -0.2696642
000110 7a 48 c0 be 4f 03 f9 be ae ff bd be b3 92 09 be
       -0.37555295 -0.48635337 -0.3710913 -0.13434868
000120 93 88 bb 3e 20 87 d8 be f2 0b 16 be 89 41 53 3e
       0.36627635 -0.42290592 -0.14652994 0.20630468
000130 38 04 54 3e aa 73 33 3d 0c 89 ac bd c9 5d 49 3c
       0.20704734 0.043811478 -0.08424577 0.0122904265
000140 c2 d6 aa be 2f 20 8b 3e 3b 48 a2 3e 60 8d fc 3d
       -0.33366972 0.27172992 0.31695732 0.12331653
000150 4d 8d c2 3e 36 7f a2 3e e8 16 fa be ed f7 58 be
       0.3799843 0.3173768 -0.488456 -0.21188326
000160 14 37 cd be 41 8d 4b 3e b4 03 ee be 06 aa 08 3e
       -0.40081084 0.19878103 -0.464872 0.13346109
000170 b3 c3 d0 be e7 60 90 3e a4 f0 b8 be 1c 61 f0 be
       -0.40774307 0.2819893 -0.36121094 -0.4694909
000180 17 3d 48 be 47 83 2a 3e 53 b7 5b be 5a 17 44 3e
       -0.19554554 0.16651641 -0.21456651 0.19149533
000190 a3 06 8e 3c 80 b9 8a be 13 b3 3a bd 24 d9 9b 3e
       0.017337149 -0.2709465 -0.045580935 0.30439103
0001a0 1c cc 97 be ad fa d8 3e bf a5 13 3e e3 23 84 3e
       -0.2964791 0.4237875 0.14418696 0.2580863
0001b0 41 5e be bd 9f 14 b7 3e c8 cc c6 be 60 39 44 be
       -0.09295321 0.3575792 -0.3882811 -0.19162512
0001c0 f7 15 a3 3e dc 14 8f be cb bc d0 3e 69 01 44 be
       0.31852695 -0.27945602 0.40769038 -0.19141163
0001d0 04 37 f8 be e8 93 ec 3e 3a c8 d6 3e 91 44 52 3e
       -0.48479474 0.46206594 0.41949636 0.20533969
0001e0 ee cd df be dc 43 d0 3d 31 4f e3 bd 44 e1 f3 3e
       -0.437118 0.10169193 -0.11099089 0.47632802
0001f0 32 9c 07 3e 2c af 64 bd f7 05 fc be e0 78 30 be
       0.13243178 -0.05583112 -0.492233 -0.1723361
000200 48 55 bc 3e 14 26 c3 be 9d c0 89 3d 3e 55 c7 be
       0.36783814 -0.3811499 0.06726191 -0.38932222
000210 74 f5 16 bd 00 e9 00 be 56 0d 5a bd 55 f7 6e bc
       -0.036855176 -0.12588882 -0.053235374 -0.014585336
000220 28 15 16 be e4 e8 3a be 56 b7 6e 3e 67 ee 87 3d
       -0.14656508 -0.18252903 0.23312125 0.066372685
000230 d3 ed 79 be 76 3a 8b 3e f8 d4 00 3f 53 6e 8e 3e
       -0.24407129 0.2719304 0.50324965 0.27818546
000240 23 a0 60 3e 18 60 a9 bd ca 67 c0 3e 25 9b 47 be
       0.21936087 -0.082702816 0.37579185 -0.19492777
000250 2f b7 80 3e 50 9f ee 3e c9 4a 83 bd 84 14 89 be
       0.25139758 0.4660592 -0.064107485 -0.26773465
000260 bd 86 22 3e 6e 5a 8f bd b5 67 92 3e 09 08 61 be
       0.15871711 -0.0699967 0.28594747 -0.21975721
000270 33 d3 ab 3e dd ef b6 3e c0 3e 83 3e e5 c3 8b 3d
       0.3355957 0.35729876 0.25633812 0.06824473
000280 5f f1 52 be 87 8c ad 3e fb d4 88 bd 8d 2b 52 be
       -0.20599888 0.33896276 -0.06681248 -0.20524426
000290 d7 79 ce 3e 9f d2 e9 bd c2 e9 87 3e 00 db 77 3e
       0.4032733 -0.11417126 0.2654553 0.24204636
0002a0 d9 78 5d be 84 13 bf 3e 04 ba df bc 8e ff 8d 3e
       -0.21628131 0.37319577 -0.027310379 0.27734035
0002b0 98 95 b9 be 7a 6e 4a 3e 57 90 e1 3e bf 6e 79 be
       -0.36246943 0.19768706 0.44055435 -0.24358653
0002c0 9d a3 e1 3e f3 a7 8c be cf 05 40 3e 29 8a 54 3e
       0.4407014 -0.27471885 0.18752216 0.20755829
0002d0 39 2e 32 3d 16 30 4f 3e 54 68 e5 3d 5e 8a 7d be
       0.043501113 0.20233187 0.1120154 -0.24759814
0002e0 b4 9d c1 be 6c be ab be 0c 25 15 bd 92 8f e6 3c
       -0.3781563 -0.33543718 -0.036412284 0.028144632
0002f0 fa 4c 25 bd ca 16 cf 3c 6a 5e e7 be 91 35 f6 be
       -0.040356614 0.025279421 -0.4518922 -0.48087743
000300 e2 66 39 be a6 d5 df be fe 89 69 3e 8b 7b 2a be
       -0.18105653 -0.43717688 0.22806546 -0.1664869
000310 91 dd 7a be 92 b4 80 3d 38 97 b8 3d 6f 7f 84 3e
       -0.24498583 0.06284441 0.09013218 0.25878474
000320 e9 4b c6 3c 7c b6 2e 3e 1e b4 04 3e 6d cf dc 3e
       0.024206119 0.170618 0.12959334 0.43127003
000330 71 3a 08 3e 22 e0 38 3e 3c 6f 77 3b e6 bd 66 3e
       0.13303544 0.1805425 0.003775551 0.22533378
000340 f9 e1 db bc f8 bf 79 be ae 30 95 be 9e 16 99 3e
       -0.02684115 -0.24389637 -0.29138702 0.29900068
000350 bf dd 1b 3d 29 63 f7 3e 7b aa 97 3e 44 5e dd 3e
       0.03805327 0.4831784 0.29622254 0.4323598
000360 7c 2e 86 bd 89 24 a0 3e a5 05 7d 3d 2b d4 d4 3d
       -0.06551835 0.31277874 0.06177296 0.1039203
000370 f9 eb 3a 3e df 56 9c be 13 c3 e3 3e d8 1e 3c 3e
       0.18254079 -0.30535027 0.44484767 0.18371141
000380 34 13 de bd f8 ef c1 be b2 5a 89 be f9 d0 18 bd
       -0.108435065 -0.37878394 -0.26827008 -0.037308667
000390 5c a5 c7 3d 45 2d 4b 3e 41 70 fc 3e 23 93 b6 3e
       0.09748337 0.19841488 0.49304393 0.3565913
0003a0 c3 74 cb bc 53 a4 b5 bd 5a a8 c9 3e 2b 2b 75 3c
       -0.02483595 -0.08869233 0.39386255 0.014963905
0003b0 bf 59 c2 3d 09 98 df bc fd e5 d9 3e 6f 6d 89 3e
       0.09489774 -0.027294176 0.4255828 0.26841304
0003c0 3f 17 62 3e 5f a6 3f 3e 0c 43 51 bd e9 ab 2c 3e
       0.2207918 0.1871581 -0.05108933 0.16862454
0003d0 97 01 b1 be ae a5 a4 be 9a 84 25 3e 80 1a dd 3d
       -0.34571525 -0.32157654 0.16163865 0.1079607
0003e0 d2 ff a3 be 56 40 55 3e 80 b5 62 3e 55 85 99 3e
       -0.32031113 0.20825323 0.2213955 0.29984537
0003f0 62 42 7a be c8 5b 85 be db fd 2f bc d7 1d d1 bc
       -0.24439386 -0.26046586 -0.010741676 -0.025526924

decoder_net.8.bias f4 [32]
000000 e0 35 55 bd 71 44 1b 3e 2a cb 17 3e 8e b8 00 3d
       -0.052053332 0.15162827 0.14823595 0.031426005
000010 c9 6c 0a be 1e 65 08 bd cd f5 13 3e dc 59 fe bd
       -0.1351806 -0.033299558 0.14449234 -0.12419483
000020 83 a1 6d bd cc fb 97 3d 28 60 09 3d 7d fa 12 3e
       -0.058015358 0.07421073 0.033538967 0.14353366
000030 46 ce ee 3c 06 39 bb bb ee 4e f1 3c cb 83 2d bd
       0.029151093 -0.005713585 0.029456582 -0.042362016
000040 be 09 25 be 14 31 a4 bd e9 98 23 be b0 91 f2 3d
       -0.16116998 -0.080171734 -0.159763 0.11844194
000050 36 73 60 bb f3 67 ca 3c 8f ea 48 bc b9 8e d9 bd
       -0.0034248359 0.02470777 -0.012262954 -0.10622925
000060 06 e8 ff bd db 2d d3 bc c9 e8 22 3d 02 81 c3 bd
       -0.12495427 -0.025778702 0.039772782 -0.09546091
000070 bc 5d d0 bd 8f 72 e2 3d 2b ae 91 bd 0c 5c bc 3d
       -0.101741284 0.110570066 -0.07113298 0.09197244

decoder_net.10.weight f4 [5, 32]
000000 38 ec 8f 3e d1 17 aa 3e cf 95 d2 3e 9d ab 22 be
       0.28109908 0.33221295 0.4112992 -0.15885778
000010 97 af 55 bd ad 92 8f be 12 c9 d0 3c 9c 8a 25 bc
       -0.05216941 -0.28041592 0.025486503 -0.010103848
000020 b8 bc ca bd 9a 4f 4e be 9d f8 b1 3e 17 6b a7 3e
       -0.098992765 -0.20147553 0.3475999 0.3269889
000030 2b dd e1 be 01 83 e4 be ea b2 89 be b7 af 5e bd
       -0.4411405 -0.44631198 -0.26894313 -0.054366793
000040 48 be 3a bd db 5f e9 3e ee f6 31 ba 83 40 a2 bd
       -0.045591623 0.45580944 -0.00067888096 -0.07922461
000050 8a 81 b3 3e 10 12 14 be cb 41 c1 3e 45 5f c3 bd
       0.35059768 -0.14460015 0.3774551 -0.095396556
000060 c7 ea 30 be d7 94 52 3d 2a b5 b8 be 88 17 df 3e
       -0.1727706 0.051411476 -0.36075717 0.4357264
000070 07 6b 0b 3e 7b e7 db 3e 2e f4 f7 3e d1 41 c4 3c
       0.13615046 0.42950043 0.48428482 0.023957165
000080 dc ca 02 bd cf 21 32 bd 2a 8a 98 be a0 72 6e 3e
       -0.031931743 -0.043489274 -0.2979291 0.23285913
000090 0c 0a b1 be d4 fa cb 3e 57 d0 52 3e fd b2 15 bd
       -0.34577978 0.39839804 0.20587288 -0.03654765
0000a0 53 9d 9a 3e 65 50 84 3d a3 7a ce 3e 66 bf 91 be
       0.30198154 0.064606465 0.4032794 -0.28466338
0000b0 1b ae bb be 9c d3 4d be c2 64 a6 3e 20 68 8a 3e
       -0.3665627 -0.20100254 0.32498747 0.27032566
0000c0 4a 62 29 be 40 52 ee bd 39 b2 78 3e d2 10 f0 be
       -0.165414 -0.11636782 0.24286737 -0.46887833
0000d0 da a8 54 3e 6e db 46 3d 90 92 03 3e a3 8c f3 be
       0.20767537 0.04854911 0.12848878 -0.47568235
0000e0 8e 1e 5e 3c fd fc a1 3d ba 4e be 3e ad ff cd 3e
       0.0135570895 0.07909582 0.3716944 0.40234128
0000f0 5c 6d 85 bd f5 64 e6 3e 58 af eb be fb b2 ca bb
       -0.06514999 0.449989 -0.46032214 -0.006185887
000100 d6 f1 03 3d e4 af be be 24 cb 91 3e bf 0d e4 3e
       0.032213055 -0.3724357 0.28475296 0.44541737
000110 82 88 57 be e4 e2 c2 be c0 54 28 3d b3 5d db 3e
       -0.21048167 -0.3806373 0.04109645 0.42844924
000120 76 21 4c be 63 d9 3b be a5 9e 60 3e 14 66 e0 3e
       -0.1993464 -0.18344645 0.21935518 0.4382788
000130 d5 27 f0 3e f0 b8 e0 3e 23 69 b4 3e 23 30 8c 3e
       0.4690539 0.43891096 0.35236463 0.27380475
000140 ec 0a f6 be 21 71 e7 3e 86 e4 31 be ab 19 d1 be
       -0.48055208 0.45203498 -0.17372331 -0.40839896
000150 58 7e 91 be 78 aa bd be c0 02 bd be 23 bc d6 bc
       -0.28416705 -0.3704412 -0.3691616 -0.026212757
000160 ea 27 6e 3e c2 e1 c4 be 82 7d e1 be 3a 4a 89 3e
       0.23257414 -0.3845349 -0.44041067 0.26814443
000170 ce 5e ed 3d 93 23 37 3e 44 bd 70 be 26 db 64 3e
       0.11590348 0.17884664 -0.23509699 0.22349223
000180 2b 65 46 be 30 bb fe 3e 24 56 06 3e 38 7e b8 be
       -0.1937453 0.49752188 0.13118798 -0.36033797
000190 bc a9 5e 3e 5a d4 f5 3e cc 50 96 be 07 8c 0b 3e
       0.21744436 0.48013574 -0.29358518 0.13627635
0001a0 11 59 06 be 40 06 bb be da 75 46 3e 3b f4 b0 3e
       -0.13119914 -0.36528206 0.19380894 0.34561333
0001b0 8a d0 e7 3e da 72 17 3d 24 55 02 3c 3f b8 11 3b
       0.4527629 0.036974765 0.007954869 0.0022235063
0001c0 46 5f a0 3e 43 8a 2c bd d5 ad 09 3e 9d b9 dd bc
       0.31322688 -0.042124044 0.13445218 -0.027066046
0001d0 51 6b 5b be 25 0e 9c 3e 68 23 22 3e 5f c9 3e 3e
       -0.21427657 0.3047954 0.15833819 0.18631504
0001e0 f4 a2 02 bd 43 5b dc 3d 73 d5 07 3e e6 df bc 3d
       -0.031893685 0.10759594 0.13265018 0.09222393
0001f0 98 8b 3c be 26 4b c3 bd 32 1c 97 be ee 75 61 be
       -0.18412626 -0.09535818 -0.295137 -0.22017643
000200 96 15 f9 be cc 7b 96 3d 29 e6 92 be 0d e4 b6 be
       -0.4864928 0.07347831 -0.28691223 -0.35720864
000210 e3 f6 6e bc c8 ae af be 05 11 fa be 64 36 5e 3e
       -0.01458523 -0.34313035 -0.4884111 0.21700436
000220 c6 ea 6c 3e 79 f9 80 bd f8 57 ea be e7 08 db 3e
       0.23136434 -0.06297583 -0.4577024 0.4278023
000230 01 a3 dc 3e cb 22 f7 3e 83 96 95 3e 14 fe d6 3e
       0.43093112 0.48268732 0.29216394 0.4199072
000240 34 cf b3 be d7 b9 f6 be 22 c9 ba be 82 c9 fa 3e
       -0.3511902 -0.4818866 -0.36481577 0.48981863
000250 1b 24 e0 be 1f 0b 0c be 15 70 fa 3e b1 06 fa 3e
       -0.43777546 -0.13676117 0.48913637 0.4883323
000260 b4 c3 23 3e 5f bd f9 3e 90 92 ac 3d b2 43 a1 3e
       0.15992624 0.4877729 0.08426392 0.3149696
000270 94 f4 95 bd 8a 5c 8f 3e 08 01 7b be 3d 00 ea 3e
       -0.0732204 0.2800029 -0.24512112 0.45703307

decoder_net.10.bias f4 [5]
000000 19 58 d7 bc e4 30 f1 3d 44 00 bc 3d ad ee b4 3c
       -0.026287125 0.11776903 0.09179738 0.022086466
000010 ff a8 61 3c
       0.013773202
