Action_Net.pt (torch, 958818 bytes, 22 tensors)

decoder_net.0.weight f4 [512, 85]
00000000: 2468 c8bc 20fd 973c 1ccf 093b 8526 b83d
00000010: d7fd 353d 1d74 963d fb0b 693c 3d98 7fbd
00000020: 94d0 a0bd fcfb cdbc 292c 93bd 41e0 75bd
00000030: 3f43 9cbd 75ca 20bd 8713 c2bc 0861 73bd
00000040: 0e0f b5bd caac 93bd 2a2d d3bd 56ac 3c3d
00000050: 70e4 973c 3a20 e73a f47a d3bd 64aa 133d
00000060: 6333 4cbd afde a93d 2bae 8f3d 50d1 aa3d
00000070: c119 7c3a dbd1 4c3d 075a d3bc 252b 38bd
00000080: f8ce 9a3d b56d 253b 36d0 1b3d bee9 62bd
00000090: 558b a1bd eb7b 1f3d 1378 c4bb 3471 37bd
000000a0: 03e0 053d 8f3f 3cbd e721 69bd 631e ee3c
000000b0: a1c4 4abd 1e2c 03bd c29a 85bd 705a 413d
000000c0: 7e33 303c 0db9 c8bd 9324 acbd 43ab bc3d
000000d0: 3b8c a53d 821c d4bd d0fb 8ebd dc58 ab3d
000000e0: a041 99bd dbcc d9bc 5f1d bc3d cd9e ad3d
000000f0: e0de 97bd 5d88 6ebd 71da 5c3d 3f9f d3bd
00000100: 27af a93d 07e4 9fbd 9301 cdbd d275 b1bd
00000110: c85f bc3d 097b e03c 3756 9d3c 6eb8 f2ba
00000120: 661f acbd 242d a73d 53d3 e8bc 87ab ad3d
00000130: 92c3 a13c 7636 69bb 0879 3dbc f3e0 eabc
00000140: b2e4 9c3b 1b11 b6bd 1bdc 673d ce2f a03d
00000150: f7c8 b73d cea0 98bd c674 583d 27a4 e5bc
00000160: 831a 863d fb4f 223d eb10 28bd 7034 eabc
00000170: 1bad 04bd 02c4 9abb 2011 753c 070e ab3b
00000180: 5731 a93d a60c 9bbc 4847 f3bc 2762 693d
00000190: 9e6d 47bd 9b74 dcba ff9c 203d 3c7e 303c
000001a0: ae5d 86bd d5d0 813c 4263 8f3d 7910 09bd
000001b0: 03c1 603d e9a3 a53d 7e03 bcbd b16a bf3a
000001c0: 0590 fbbc 2537 be3d 2af8 4e3d 219e 91bd
000001d0: 3189 5ebd a29b a8bd 9c44 2f3d 1772 5a3d
000001e0: 95ec 73bd 7a0c 553d 0815 c8bd 1fb0 c63d
000001f0: fb6a c83d 32ec 1b3b 2fbc 213d 5b76 be3d
00000200: c4a6 adbd 6732 abbb a9f3 85bc 5d1d a6bd
00000210: 0c99 af3b f5b5 0d3c bca9 9ebd d341 a93c
00000220: 32cc 13bc cfba 213d a57a f93c 5201 2abd
00000230: fd4c 8b3b 55bb fe3c b4ce 17bd 19ea a03d
00000240: 7561 8fbd b91a c03d e141 7a3d aaea 15bd
00000250: 7c5c f0bc 6a84 533d 4f76 c4bd 9266 143b
00000260: b23b 993c 0b87 a4bc b62e b23d e311 633d
00000270: 4d8d f83c f65d a7bd 4256 15bd d379 a1bc
00000280: a92f 423c ce1f d1bc 9742 803d 6821 f3bc
00000290: 3d2d bdbc e55d ac3d 46e8 af3d 5067 f13c
000002a0: 9de6 473d 13ae a73d b281 c9bd fdfb 69bd
000002b0: 4970 95bd bb60 833d c42b 61bd 70fe 213c
000002c0: 0777 b0bd ed4b 953c 1362 97bc 1d74 e6bb
000002d0: 7fe2 6ebd 9266 2abd eeb6 79bd 2a56 b73d
000002e0: dd2a a43d 41ab ab3d e269 e63c 8ad3 c8bd
000002f0: 5fc8 19bc 2e6b 173d e1ef 9ebd 9590 133a
00000300: 32a7 84bd dc9d d3bc 69b9 4b3d 9aeb 9ebd
00000310: d9da ecbc 0d35 13bd 3fa6 99bd a9e6 073d
00000320: d305 72bd 7f59 1d3b e6d2 573d ac96 2bbd
00000330: 6a1c c3bc 7d1e 8f3c 9580 2b3d 7644 c73d
00000340: 518a f93c d45d c7bc 0e0e 173d 4a77 41bb
00000350: dc82 4d3d aa0f 9cbd 8e2c 833d a481 1fbd
00000360: 1ade 353c 773a 943d 907e 513d f4de 4a3d
00000370: f00a f13b 579d 89bb 44c1 bd3d 2c01 d03b
00000380: 96c2 99bd 18d1 a3bd ae8f a5bd f7e1 853d
00000390: 160e 4d3d bbf2 a13d 3f4b e73b 6f86 963d
000003a0: 639f 253d 4794 cfbc 1a5f a43d b73f 66bd
000003b0: 7694 963a 1a92 423c a8e8 7f3c 8149 c03d
000003c0: 2f1b 46bd 705c 95bc fc27 a53c d094 673d
000003d0: 1f05 89bd 862b 103d f9c4 0d3d bb2e 963d
000003e0: f12d c7bc 92c7 58bc 28e0 0abd 5acd 27bb
000003f0: 202c 98bd 71da a13d 1914 dd3c b82d 713d
-0.02446372 0.018553317 0.0021027988 0.08991722 0.044431534 0.073463656 0.014224048 -0.062401045
-0.07852283 -0.02514457 -0.07186157 -0.06002832 -0.07630014 -0.039255578 -0.023690952 -0.059418708
-0.08840762 -0.07210691 -0.10311349 0.04606279 0.018541545 0.0017633506 -0.10326186 0.03605117
-0.049853694 0.08294427 0.07015642 0.083407044 0.0009616875 0.05000482 -0.025799764 -0.04496302
0.075590074 0.0025242392 0.038040362 -0.055398695 -0.078879036 0.038936537 -0.0059957593 -0.044785693
0.032684337 -0.04595905 -0.056917097 0.029067224 -0.049503926 -0.032024495 -0.06523658 0.04720539
0.010754464 -0.09800921 -0.084054135 0.09212353 0.080833875 -0.10357 -0.06981623 0.08366558
-0.0748322 -0.02658694 0.091852896 0.084775545 -0.07415557 -0.058235515 0.05391926 -0.10333108
0.08285361 -0.07807165 -0.10010066 -0.086650506 0.09197956 0.027402418 0.01920615 -0.0018518099
-0.08404426 0.08162907 -0.02842108 0.08479982 0.019746576 -0.003558544 -0.011564501 -0.028671717
0.004788005 -0.08889981 0.056606393 0.07821618 0.08973878 -0.07452546 0.05284574 -0.028032375
0.065480255 0.039627057 -0.04103176 -0.028589457 -0.03239165 -0.004723073 0.014957696 0.005220178
0.08261364 -0.01892693 -0.029697075 0.05697837 -0.048688523 -0.0016819419 0.039212223 0.010772284
-0.06560837 0.01584665 0.07001354 -0.033462975 0.05487157 0.08087904 -0.091803536 0.001460394
-0.030708322 0.09287862 0.050529636 -0.07110239 -0.054330055 -0.082328096 0.04279004 0.05333146
-0.059551794 0.05201385 -0.097696364 0.09701561 0.0978603 0.0023791906 0.039486106 0.09299918
-0.08479074 -0.0052245143 -0.016351538 -0.08111069 0.005358821 0.008649339 -0.07747218 0.02066127
-0.009020852 0.039484795 0.03045399 -0.041505165 0.004251121 0.031095186 -0.03706236 0.078571506
-0.0700101 0.09380097 0.061097983 -0.036600746 -0.029340975 0.05163995 -0.09592878 0.0022644144
0.018705223 -0.020083925 0.08700316 0.05543698 0.030340815 -0.081722185 -0.036459215 -0.01971141
0.011852183 -0.025527861 0.06262701 -0.029679015 -0.02309286 0.084163465 0.085892245 0.029468209
0.048803914 0.08187499 -0.098391905 -0.05712508 -0.07296807 0.06414934 -0.05497338 0.009887323
-0.08616453 0.01822468 -0.018479383 -0.0070328848 -0.058321472 -0.041601725 -0.06096547 0.08951981
0.08015988 0.083822735 0.02812666 -0.09805973 -0.009386151 0.03696745 -0.07760597 0.00056291494
-0.064772025 -0.02583211 0.049737368 -0.07759781 -0.028912948 -0.035939265 -0.07502412 0.03317896
-0.059087586 0.0024009643 0.052691363 -0.04189174 -0.02381726 0.017470593 0.041870672 0.09729855
0.030461462 -0.024336733 0.036878638 -0.0029520565 0.050173625 -0.07620175 0.064049825 -0.038941994
0.011100316 0.07237714 0.05114609 0.04952903 0.00735604 -0.0041996646 0.09265378 0.006347796
-0.075078174 -0.07998866 -0.08084045 0.0653724 0.05006226 0.07907625 0.0070585306 0.0734986
0.040435206 -0.025339259 0.08025952 -0.056213107 0.0011488337 0.011875654 0.015619434 0.0938902
-0.048365768 -0.018232554 0.020160668 0.056538403 -0.0669043 0.035197757 0.034611676 0.07333132
-0.024313899 -0.013231175 -0.03390518 -0.0025604577 -0.07430291 0.079029925 0.026987122 0.05888149

decoder_net.0.bias f4 [512]
00000000: e848 b43b 0000 0000 2f6b ebba 0000 0000
00000010: 6185 bfba 0000 0000 3197 57bb 0000 0000
00000020: 2be2 0bbb 33b7 633b 0000 0000 ff22 b7ba
00000030: 9f55 c43a f904 08bb 0000 0000 4182 7abb
00000040: 753a 26bb dc26 07bb ab0d f3ba ebc8 4bbb
00000050: fbbd 51b9 5d67 d5ba 3797 00ba 2a80 1dbb
00000060: 0000 0000 929d bfba 2c31 df3a 4f16 e03b
00000070: bc95 1e3b 0000 0000 c8cb 9aba 5f3a 8eba
00000080: 0000 0000 1843 28bb 0000 0000 3979 a6ba
00000090: 762f 89ba a91e 96ba 33d3 803a afc4 d33a
000000a0: 6c83 3fb9 aca0 deb9 6adc da3b 488f d8b8
000000b0: 3fe7 803a cdfd 323b 0000 0000 7565 073b
000000c0: 46a4 65bb 2e57 f2ba 8325 253b aa2b 1fbb
000000d0: 3124 e13a 09e9 a43b 3df5 b8b9 0000 0000
000000e0: 7883 1ebb a5e7 8939 ca06 d13a 7d3c b6ba
000000f0: 0000 0000 12b5 8aba 87fe b4ba acf6 093b
00000100: 0000 0000 0000 0000 0000 0000 6ee0 78bb
00000110: 0000 0000 26a5 f63a f611 d2ba e73e 90ba
00000120: 0000 0000 f7cd 09bb ee20 82ba 0000 0000
00000130: 0000 0000 bd88 fbba 0000 0000 fc7a 5eba
00000140: d06c 1a3b bd8a 933b a79c 05bb 0000 0000
00000150: 6fe1 bab9 0000 0000 0000 0000 82e8 e038
00000160: 0000 0000 032e fcb9 a361 8cba bba1 17bb
00000170: 0000 0000 899d 283b a4b7 4bba 0000 0000
00000180: 0000 0000 0000 0000 e08c d8bb 0610 00bb
00000190: 5ef2 2f3b 0000 0000 58b4 b6ba a480 f03b
000001a0: 0000 0000 0000 0000 210a 29bb 94e2 6fbb
000001b0: 78b1 8fb9 046a 143a c551 df3b eafb 5fba
000001c0: 75d6 b3ba 3685 a7ba 0000 0000 d872 df3a
000001d0: 5ada aa38 95d1 313b 4356 eabb 2c90 dd3a
000001e0: dc45 89b7 e019 4a3b 0000 0000 5d21 7c3b
000001f0: e3ab ee3b 0000 0000 0000 0000 320f af39
00000200: 0000 0000 91c9 eb38 5031 28bb 0000 0000
00000210: a0ac 25bb 0000 0000 d8af 4cbb 318b 15ba
00000220: 9f70 043a 0000 0000 ed20 22bb 2449 11ba
00000230: 3435 c1bb 7d17 98ba c212 9939 0000 0000
00000240: f462 513a 0000 0000 0000 0000 db5d 5c3b
00000250: 28d3 98bb 288b 33bb 158a b3ba f0f8 6639
00000260: 0000 0000 8ca7 a93a def0 dd3b aeb8 62b9
00000270: 843b f43a 7df1 883b 8bf8 863a 0000 0000
00000280: 0bcd ba3a fbc1 4ab9 0000 0000 30ec 3c3a
00000290: 8c76 72b9 270d 0cbb 19cc 36ba eae4 423a
000002a0: 0000 0000 1e29 a33b ad92 3cba 3b7b 0abb
000002b0: 0000 0000 7926 36bb 84e1 9b3a 8c38 273b
000002c0: 0000 0000 aaf6 33bb ce0a 113b 0784 35b9
000002d0: 55ce 843a 186c 3f3b 8619 013c 7006 bdb9
000002e0: 85a6 dcb9 573a fdba 3f34 463b 0000 0000
000002f0: 866f 98ba 0000 0000 0000 0000 447d 49bb
00000300: 1781 fbba a67b f33a b415 02ba b00c 1ab9
00000310: 23f9 0e3a 0000 0000 2382 aeba 0000 0000
00000320: f5d0 99b9 dd5c 22bb 6c8d 47bb 84ab 41bb
00000330: 6ca2 7eba 4784 93bb 5b20 1cbb 064b bc3b
00000340: 794a d63a 90a3 11ba 656f 7e3a b78a 53ba
00000350: 53be 5d3a 725b 2bbb 131a dcba f843 9e3a
00000360: 9319 1dba 0000 0000 d91e 1ebb 68b4 d7b7
00000370: f10f e9ba 8a37 8939 4870 d8b9 0000 0000
00000380: 6134 923b 2e3e 30b9 0000 0000 0000 0000
00000390: 0000 0000 0000 0000 0000 0000 6f55 cd3b
000003a0: f1b1 603a 0000 0000 0000 0000 6ba6 b3ba
000003b0: c379 a1b9 05fb f3ba 2231 32ba 0000 0000
000003c0: acf3 873b 09a8 1fbb 3d36 723a 7538 d2ba
000003d0: 1682 193b 8ece 423b e977 813b 2b8e 03bb
000003e0: 0000 0000 0000 0000 0000 0000 c4ab 85ba
000003f0: 13bb 1cba d076 483a 0805 a9ba 281e 983a
0.005501855 0.0 -0.001796102 0.0 -0.0014611894 0.0 -0.0032896514 0.0
-0.0021344523 0.0034746646 0.0 -0.0013972222 0.001497913 -0.0020754917 0.0 -0.003822461
-0.0025364433 -0.0020622527 -0.0018543502 -0.0031095098 -0.00020002566 -0.0016281415 -0.0004905345 -0.002403269
0.0 -0.0014619103 0.0017028204 0.006838597 0.0024198135 0.0 -0.0011809999 -0.0010851136
0.0 -0.0025674757 0.0 -0.0012700922 -0.0010466415 -0.0011453229 0.0009828567 0.0016156639
-0.00018264138 -0.0004246285 0.0066791074 -0.00010326371 0.0009834542 0.0027311922 0.0 0.0020659838
-0.0035040542 -0.0018489116 0.002519936 -0.00242875 0.0017176924 0.005032663 -0.00035277932 0.0
-0.0024187248 0.00026303265 0.0015947458 -0.0013903525 0.0 -0.0010582528 -0.0013808765 0.002105157
0.0 0.0 0.0 -0.0037975567 0.0 0.0018817529 -0.0016027081 -0.0011005074
0.0 -0.0021027306 -0.0009928027 0.0 0.0 -0.0019190531 0.0 -0.0008486954
0.0023563392 0.004502623 -0.0020387562 0.0 -0.00035644646 0.0 0.0 0.0001072446
0.0 -0.00048099467 -0.001071025 -0.002313717 0.0 0.0025728664 -0.00077712 0.0
0.0 0.0 -0.0066085905 -0.00195408 0.0026847343 0.0 -0.0013939245 0.007339554
0.0 0.0 -0.002579339 -0.0036603557 -0.0002740731 0.00056615495 0.0068151676 -0.0008544313
-0.0013720529 -0.0012780789 0.0 0.0017047776 8.146903e-05 0.0027132977 -0.0071513965 0.0016903928
-1.6364203e-05 0.0030838177 0.0 0.0038472035 0.007283674 0.0 0.0 0.00033389922
0.0 0.00011243218 -0.0025664158 0.0 -0.0025279894 0.0 -0.003123274 -0.000570464
0.0005052182 0.0 -0.0024738864 -0.000554221 -0.005896235 -0.001160368 0.0002919641 0.0
0.00079874624 0.0 0.0 0.0033625278 -0.0046638437 -0.0027396176 -0.0013697768 0.00022027246
0.0 0.001294361 0.0067730984 -0.00021621838 0.001863346 0.0041791783 0.001029746 0.0
0.0014251781 -0.00019336485 0.0 0.00072068255 -0.0002312308 -0.0021370144 -0.0006973162 0.00074346235
0.0 0.004979267 -0.0007193487 -0.002113058 0.0 -0.0027793928 0.001189277 0.0025515882
0.0 -0.0027460256 0.0022131684 -0.00017310689 0.0010132293 0.0029208716 0.00787962 -0.00036053685
-0.00042085737 -0.0019319755 0.0030243543 0.0 -0.0011629916 0.0 0.0 -0.003074483
-0.0019188252 0.0018576279 -0.00049623405 -0.00014691311 0.00054539944 0.0 -0.001331393 0.0
-0.0002933812 -0.002477459 -0.0030449284 -0.0029551694 -0.0009713534 -0.0045018527 -0.0023822996 0.005746248
0.0016349099 -0.0005555684 0.000970593 -0.00080696814 0.00084588415 -0.0026147035 -0.0016792439 0.00120747
-0.00059928856 0.0 -0.0024127273 -2.5714005e-05 -0.001778124 0.00026172056 -0.00041282387 0.0
0.0044618105 -0.00016807832 0.0 0.0 0.0 0.0 0.0 0.006266288
0.0008571437 0.0 0.0 -0.0013706213 -0.00030799033 -0.0018614238 -0.00067974825 0.0
0.004148921 -0.0024361631 0.00092396495 -0.0016038554 0.0023423485 0.0029725167 0.003951062 -0.0020073752
0.0 0.0 0.0 -0.0010198285 -0.0005978804 0.0007647099 -0.0012895176 0.0011605667

decoder_net.2.weight f4 [512]
00000000: 63a5 803f 5656 7f3f 4305 7f3f 5509 7f3f
00000010: 8562 7f3f ce6d 803f 1cf0 7e3f dd92 7f3f
00000020: 88a6 7e3f c2b6 7f3f 516b 7f3f c257 803f
00000030: efa9 7c3f d034 7f3f 3349 7f3f 2717 7f3f
00000040: e263 7f3f e603 803f c548 7d3f 2c84 7c3f
00000050: 388f 7e3f 0a2d 7e3f 14b8 7e3f 0340 7e3f
00000060: 97e1 7e3f 33e9 7e3f f052 7e3f 8d4e 803f
00000070: 3199 7f3f 8ff6 7e3f 1bdb 7e3f 8c9c 7e3f
00000080: 910e 7f3f 444d 7d3f 6587 7f3f f9f7 7f3f
00000090: 8a0b 7d3f 67d2 7e3f 8417 7e3f 639c 7e3f
000000a0: 54f5 7d3f 067c 7f3f 388f 803f 4b6a 7e3f
000000b0: dc20 7f3f e545 7f3f ead0 7f3f 607a 7e3f
000000c0: ad69 7e3f 83b9 7e3f d717 7d3f b041 7f3f
000000d0: 568a 7f3f b419 803f ccc5 7f3f 0990 7f3f
000000e0: 0664 803f 6694 7e3f 67e9 7e3f 36e9 7e3f
000000f0: cddb 7e3f 5c1d 7f3f 38cd 7e3f f731 803f
00000100: 145b 7e3f 9b06 803f 817b 7f3f 67ff 7e3f
00000110: 4b4f 7f3f 999a 7e3f a7ff 7f3f ce5f 7f3f
00000120: e31b 7f3f a4b7 7c3f f818 7f3f 39c1 7f3f
00000130: a7ee 7f3f 80bb 7e3f cf44 7f3f 8596 7e3f
00000140: 61be 7e3f b9da 7d3f ee80 7f3f 9c31 7f3f
00000150: 2a83 7f3f 7aa4 7f3f 7d05 7f3f 2a12 7c3f
00000160: dc15 803f 19c7 7e3f 55f7 7e3f d69c 7f3f
00000170: 1293 7f3f 84df 7f3f 6811 7e3f 85e3 7e3f
00000180: 0348 803f 7789 7f3f fb7f 7e3f bb7e 7e3f
00000190: 3a95 7f3f af30 7f3f 7bcb 7f3f 237c 803f
000001a0: 671d 7f3f aeb0 7e3f 6d0a 7f3f 655f 803f
000001b0: 8365 7d3f f34c 7e3f cf44 803f 6fdf 7d3f
000001c0: 3fa3 7f3f 1d0c 803f 9961 7f3f 0ba2 803f
000001d0: a1d3 7e3f 827d 7f3f 6e1b 7f3f 38ae 7f3f
000001e0: 782a 803f ced6 7e3f 191c 7f3f 90fa 7f3f
000001f0: e57b 803f e7f7 803f a604 7e3f f3d3 7e3f
00000200: d77f 7f3f d46b 7e3f 0d9d 7e3f 3ee2 7e3f
00000210: 6034 7f3f 4716 7e3f b580 7e3f 4c48 7d3f
00000220: 60ff 7e3f 0420 7f3f 3be1 7e3f f4ed 7e3f
00000230: 7a7f 7d3f cb88 7d3f f14f 7e3f bfc7 7f3f
00000240: 2170 7c3f 4a14 7e3f a48e 7f3f 059b 7f3f
00000250: 067c 7d3f cb3a 7f3f b421 803f 2597 7c3f
00000260: bfb3 7f3f 2471 7f3f f176 803f bebd 7e3f
00000270: 8991 7f3f 4109 803f b410 7e3f d15c 7f3f
00000280: 4229 7f3f d07d 7f3f 45dc 7f3f 0c65 7f3f
00000290: c248 7f3f 3f35 7f3f 01d3 7e3f 8b46 7f3f
000002a0: 7f82 7f3f cf27 803f d197 7f3f bb82 7e3f
000002b0: 5c6c 803f 23b2 7f3f 65f6 7e3f 1e88 7f3f
000002c0: 3b65 7f3f 703d 7f3f 972c 7d3f 3cf7 7c3f
000002d0: be47 7f3f a33b 7d3f 8099 803f b930 7f3f
000002e0: a420 7f3f 1f00 7f3f 0b4a 7f3f 3f34 7e3f
000002f0: 1a04 7f3f 411d 803f a79d 7f3f 6d4a 7e3f
00000300: 6c26 803f 2c27 7f3f c414 7f3f 0544 813f
00000310: 5e82 7e3f ac63 7f3f b215 7d3f 3487 7e3f
00000320: 4b52 7f3f 9628 7e3f 750b 7d3f 968d 7e3f
00000330: 6c10 7d3f d30f 7f3f 7b43 803f 806b 803f
00000340: 3af9 7e3f 50c5 7e3f fa26 7f3f e44f 7e3f
00000350: d879 7f3f e86b 803f 4cc6 7b3f 5a51 7f3f
00000360: e67f 7f3f 5e30 7f3f ee1e 7f3f d3fa 7e3f
00000370: d092 7e3f 1c70 7d3f 3784 7e3f 0348 803f
00000380: 078a 7d3f 3e59 7e3f b156 803f 62cc 7f3f
00000390: ed6d 7f3f f9bb 7d3f d5bb 7e3f 116e 803f
000003a0: 5508 7f3f 0a52 7f3f b6b4 7f3f a318 803f
000003b0: 517f 7f3f 46ef 7c3f ccb7 7f3f f165 7f3f
000003c0: 204f 803f 6f7f 7e3f 4d40 7f3f 1317 803f
000003d0: 3dd1 7e3f 02c7 7f3f ba90 803f 6ce9 7f3f
000003e0: 1534 7f3f d676 7f3f 734b 7f3f 4667 7e3f
000003f0: bf7d 7f3f ce77 7a3f 3188 7f3f 2477 7f3f
1.0050472 0.99741113 0.99617404 0.99623615 0.99759704 1.003351 0.9958513 0.9983347
0.99472857 0.9988824 0.99773127 1.0026782 0.986968 0.9968996 0.9972107 0.996447
0.99761784 1.000119 0.9893916 0.9863918 0.99437284 0.99287474 0.9949963 0.99316424
0.9956297 0.99574584 0.993453 1.0023972 0.99843127 0.9959497 0.9955308 0.9945762
0.996316 0.98946023 0.9981597 0.9998775 0.9884573 0.995398 0.9925463 0.9945738
0.99202466 0.9979862 1.0043707 0.9938094 0.99659514 0.99716026 0.9992815 0.9940548
0.9938 0.9950182 0.988645 0.99709606 0.9982046 1.0007844 0.9991119 0.99829155
1.0030525 0.9944519 0.99574894 0.995746 0.9955414 0.99654174 0.9953189 1.0015248
0.99357724 1.0002016 0.99797827 0.99608463 0.99730366 0.9945465 0.9999947 0.9975556
0.99651927 0.98717713 0.99647474 0.9990421 0.9997353 0.9950485 0.9971437 0.99448425
0.99509245 0.9916187 0.99806106 0.9968507 0.99809515 0.99860346 0.9961775 0.98465216
1.0006671 0.9952255 0.9959615 0.9984869 0.99833786 0.9995043 0.9924531 0.9956592
1.0021976 0.9981913 0.9941403 0.99412125 0.99837077 0.9968366 0.9991986 1.0037884
0.9965424 0.9948834 0.99625283 1.0029112 0.9898302 0.99336165 1.0020999 0.9916906
0.9985847 1.0003697 0.997583 1.0049452 0.9954167 0.99800885 0.9965123 0.9987521
1.001296 0.99546516 0.9965225 0.99991703 1.003781 1.0075654 0.9922584 0.9954216
0.99804443 0.9938328 0.9945839 0.9956397 0.9968929 0.9925274 0.9941514 0.9893844
0.9960842 0.99658227 0.99562424 0.9958184 0.9902264 0.99036855 0.9934073 0.99914163
0.98608595 0.9924971 0.9982703 0.99845916 0.9901737 0.99699086 1.0010285 0.9866813
0.99883646 0.99782014 1.0036298 0.99508274 0.99831444 1.0002824 0.99244237 0.99751
0.9967233 0.9980135 0.9994548 0.9976356 0.99720395 0.9969062 0.99540716 0.99717015
0.99808496 1.0012149 0.9984103 0.9941823 1.0033069 0.9988119 0.9959472 0.99817073
0.9976384 0.9970312 0.98896164 0.9881475 0.99718845 0.98919123 1.0046844 0.9968372
0.9965918 0.9960956 0.99722356 0.9929847 0.99615633 1.0008928 0.99849933 0.99332315
1.0011725 0.99669147 0.9964106 1.0098883 0.99417675 0.9976146 0.9886123 0.99425054
0.99734944 0.9928068 0.9884561 0.99434793 0.9885318 0.9963352 1.0020593 1.0032806
0.9959904 0.99519825 0.9966885 0.99340653 0.99795294 1.003293 0.9834945 0.9973351
0.9980453 0.9968318 0.9965657 0.9960148 0.9944277 0.9899919 0.99420494 1.0021976
0.9903874 0.9935492 1.0026456 0.9992124 0.9977711 0.9911495 0.9950536 1.003359
0.9962209 0.99734557 0.9988512 1.0007519 0.99803644 0.988026 0.99889827 0.99764925
1.0024147 0.994132 0.9970749 1.0007042 0.9953802 0.99913037 1.0044167 0.9996555
0.99688846 0.99790704 0.997245 0.9937633 0.9980125 0.9783906 0.99817187 0.9979117

decoder_net.2.bias f4 [512]
00000000: 3b78 c53b 5c27 7fb9 bb87 953a dd8b 873a
00000010: c1c0 b4b9 6636 cdbb e457 8a3a 783c 8dba
00000020: 15cb 0cbb 5210 763b 2e06 03ba d423 b8bb
00000030: 7141 d23a 6a0f 06ba 9c3b 9e38 2b8e 9bba
00000040: 8ea9 b9b9 b63d 45bb fdd3 373b 2243 50bb
00000050: 8679 f6b8 d332 4d3b dba0 0bba 858d 15bb
00000060: 53a0 d83a fb8c c03a 3b3b ef3a 73f6 eb3b
00000070: 1a87 2b3b 7a20 aa3a e7ca 93ba d64e 8bba
00000080: 287a 803a 5f4d 78ba 15ac 6dba d7bf 27bb
00000090: c8ed 97ba 1782 91ba 71c6 8e3a 2d70 d93a
000000a0: 2f58 14b9 a82c 4aba a5ed e43b 808f 6337
000000b0: df64 873a 232b 413b 8823 10bb 04d2 0d3b
000000c0: be24 73bb 85db e7ba dfcd 303b e7c0 9138
000000d0: a9b8 fc3a ae56 ae3b 83d0 f0ba 8788 97ba
000000e0: e6e6 b4bb ee77 ac39 1656 ec3a 9928 c73a
000000f0: 0219 e63a 7ced 86ba 3e4b 233a c8a6 143b
00000100: 8a69 733b 903d 4abb af87 48ba b7e2 8e3a
00000110: 7c2e b4b8 299a 5a3a c897 3cbb 7220 b9b9
00000120: 0eec 303a e604 1cbb 294d 85ba 6d14 feba
00000130: bb84 26bb 52c7 153b c37d e538 49dd 2d3b
00000140: 14bc 2a3b f0d4 7c3b f959 80ba dcd7 da39
00000150: dd46 5dba 7674 b1ba 9aab 973a abab f138
00000160: b618 6abb c90d 083b 6247 963a b36a b0ba
00000170: bf17 95ba d45b 313b c1e9 fe3a c100 cd3a
00000180: ae72 a7bb f80f 83ba 3dc3 c2bb dfae 07bb
00000190: 48ee 3b3b e836 d339 436c 2ebb 2a39 fc3b
000001a0: 617f 373a 3566 173b 7ecc 893a f225 76bb
000001b0: 68c8 57b9 112d 243a 8f9b e63b 2013 5fba
000001c0: 6e7d 0bbb b6a0 4cbb 8666 beb9 6855 00b9
000001d0: d447 fd3a c2c9 383b adbf 05bc fad7 e63a
000001e0: 2e0e 5738 2cbb 573b e97b 443a 4b88 7e3b
000001f0: cedc fc3b 82d8 2bbc e473 a33b 0f08 b339
00000200: 1617 5cba cad3 8039 4d5a f8ba 57fb dc3a
00000210: 705e b139 2076 9b3b 597d 50bb 55f1 04ba
00000220: 0ca6 1c3a cb3a 383a fda3 d13a 017b ba3a
00000230: ea07 cdbb 974c b1ba a39c a239 d182 00bb
00000240: 061b 5539 fbc1 9e3b 763e 8dba 2bad 633b
00000250: d19e 9abb f2b6 66b9 20f6 83bb ee2b 53b9
00000260: 774d dfba ae3f 0dba 14ea e93b 4952 34b9
00000270: 6c80 043b ae94 8e3b 729b 833b 2165 9eb9
00000280: c082 e83a b60c 89ba d8c9 0bbb 19ac 4f3a
00000290: 808a bfba 30ae 9139 10ea 39ba 38a9 5c3a
000002a0: 4acc 4eba b263 a63b 0e55 9dba 4e21 3e3b
000002b0: 93d8 ccbb 068c d3ba c148 b33a 7432 6eba
000002c0: 56bb b3b9 d9bb b3b9 e1c6 193b 4520 f838
000002d0: dc1e 893a f92e 293b 5706 053c 8c84 a8b9
000002e0: 9b78 223a 53bf 873a fb91 523b f64a 8d3b
000002f0: e5ee ca3a 6d65 77bb dad6 b1ba fb64 47bb
00000300: c8ee 8abb 732c 043b 64fe 643a aa64 07b9
00000310: 89d9 363a 933a d1b9 068b 4cba b0fa 423b
00000320: 1d08 50b9 495c 2dbb ad58 43bb 734f c3ba
00000330: 19c6 d2ba c468 0cb7 5d06 75bb 2d9f bf3b
00000340: b78d f33a b299 06ba 6a5e 8a3a 2a0e 803b
00000350: 5a30 613a c96d cbbb 2cb8 d3ba 5fcc b43a
00000360: ccbc 63ba ac7f e639 f349 3f3a 006b 62b9
00000370: cc69 ea3a 8c55 943b ec4c 2a3b c4e2 a6bb
00000380: 2ac3 aa3a 0e59 7c3b b684 b8bb 2246 04bb
00000390: 07fa 14ba 60c2 c83b e93f 143b eab2 d83b
000003a0: 9570 6f3a 7ad3 e2b8 1dde d5ba fb22 96bb
000003b0: 2b8e 93ba 8d5a cf37 d979 dbba a3c2 bdb9
000003c0: 4041 8e3b dd04 553b 3edd 8c3a 6788 6cbb
000003d0: 3a3a 203b 2230 4e3b bce6 823b d2ff 24bb
000003e0: bdf4 cd39 8a21 2aba c482 24b8 81a8 86ba
000003f0: 6a3c 3fba 6174 6b3a e4c8 70ba b2a9 b13a
0.0060262955 -0.00024333358 0.0011408249 0.0010341365 -0.00034475888 -0.0062625883 0.0010554758 -0.0010775467
-0.002148335 0.0037546349 -0.0004998174 -0.0056195054 0.0016041232 -0.0005113991 7.54513e-05 -0.0011867931
-0.00035412278 -0.0030096597 0.002804994 -0.0031778296 -0.000117528296 0.0031310811 -0.00053263985 -0.0022819948
0.0016527273 0.0014690453 0.0018251905 0.00720101 0.0026173056 0.001297965 -0.001127568 -0.0010628353
0.000980203 -0.00094719784 -0.0009066475 -0.0025596523 -0.001159125 -0.0011101392 0.001089288 0.0016589217
-0.00014147231 -0.0007712343 0.0069863372 1.3563666e-05 0.0010329745 0.0029475174 -0.0021993835 0.0021640072
-0.0037100757 -0.0017689323 0.0026978177 6.95007e-05 0.0019281107 0.0053203916 -0.0018372688 -0.0011561074
-0.0055206893 0.0003289575 0.0018031027 0.0015194594 0.001755506 -0.0010294165 0.00062291685 0.0022682417
0.0037141764 -0.0030859448 -0.0007649613 0.0010901307 -8.591727e-05 0.00083390117 -0.0028776992 -0.00035310123
0.0006749042 -0.002380663 -0.001017009 -0.001938475 -0.0025408703 0.00228544 0.00010942996 0.0026529601
0.0026052045 0.003857907 -0.0009792439 0.00041741028 -0.00084410404 -0.0013538736 0.0011571527 0.00011523751
-0.0035720295 0.002076017 0.0011465366 -0.0013459533 -0.0011374875 0.002706279 0.0019448326 0.0015640483
-0.0051101064 -0.0009999266 -0.0059436844 -0.0020703597 0.0028675962 0.00040285964 -0.0026614822 0.007697244
0.0006999877 0.0023101692 0.0010513214 -0.0037559238 -0.00020578655 0.0006262819 0.007037587 -0.0008509625
-0.0021284479 -0.003122372 -0.0003631601 -0.00012238848 0.0019323775 0.002819643 -0.008163375 0.0017611973
5.12732e-05 0.003291796 0.00074952707 0.003883856 0.0077167517 -0.010488631 0.0049881805 0.00034147545
-0.0008395774 0.00024571858 -0.001894781 0.0016859573 0.00033830432 0.004744306 -0.0031812994 -0.00050713617
0.00059756706 0.0007027804 0.0015994307 0.0014227332 -0.006257047 -0.0013526854 0.0003101575 -0.0019609223
0.0002032333 0.0048449016 -0.0010776061 0.0034740667 -0.0047186394 -0.00022002662 -0.004027143 -0.00020138893
-0.0017036636 -0.0005388212 0.0071385 -0.00017196791 0.0020218147 0.00435122 0.0040163333 -0.00030211455
0.0017739162 -0.0010456059 -0.0021330025 0.0007922068 -0.001461342 0.00027786335 -0.0007092068 0.00084175495
-0.0007888718 0.0050778026 -0.0012003498 0.002901155 -0.0062514036 -0.0016139753 0.0013678299 -0.00090864976
-0.00034281117 -0.00034281498 0.0023464488 0.00011831572 0.0010461467 0.0025815351 0.008119187 -0.00032142212
0.0006197781 0.0010356702 0.0032130468 0.0043119146 0.0015482573 -0.0037749663 -0.0013568059 -0.003042518
-0.0042398907 0.0020168095 0.0008735417 -0.00012912104 0.0006975164 -0.00039907228 -0.00078026985 0.0029751472
-0.00019839448 -0.0026452711 -0.0029807494 -0.0014900997 -0.0016080766 -8.369043e-06 -0.0037387826 0.0058478327
0.0018581663 -0.0005134597 0.0010556702 0.0039079385 0.0008590274 -0.006208156 -0.001615291 0.0013793817
-0.0008687496 0.00043964142 0.0007297091 -0.000215929 0.0017884313 0.0045267995 0.002598579 -0.0050929505
0.0013028134 0.003850523 -0.0056310548 -0.0020183404 -0.0005683009 0.006126687 0.0022621101 0.006613125
0.00091339025 -0.0001081591 -0.0016316805 -0.0045818067 -0.0011257579 2.4718489e-05 -0.0016744687 -0.00036193905
0.0043412745 0.003250412 0.0010747088 -0.0036092044 0.0024448768 0.0031461795 0.003994791 -0.0025176895
0.0003928299 -0.0006489983 -3.9222432e-05 -0.0010273607 -0.0007295074 0.00089818804 -0.00091852085 0.0013554601

decoder_net.3.weight f4 [256, 512]
00000000: cdb6 7dbd 6648 753b 1951 003d 1026 723d
00000010: b429 5a3c 4110 87bd 26d8 01bd 9502 fabc
00000020: d3aa 99bc a401 023d 8da5 ac3c 3253 be3c
00000030: aea2 213d 2db6 64bd 9c13 813c d32d 903d
00000040: 29c0 a03d 78e7 7f3d 1b06 9dbc d381 103b
00000050: 13a9 8b3c a2e2 583d 0d0a 653d 7f16 393d
00000060: 1043 fa3c a5cb 253d a8f2 a4bd 7a1a b7bd
00000070: cfdf 0fbd 8316 8b3c 6edb a4bd 388f abbc
00000080: 64ef 2ebd ca67 113d 8fb1 c93d 0ad6 85bd
00000090: d5bb 8a3d c6c1 c4bc bced 23bd acde 373d
000000a0: b162 53bd d4a6 18bd 0a3b d1bd 704f 093d
000000b0: e4d3 efbc 193a 01bc 5f4a 753c 32da c3bd
000000c0: 618d 8f3a 1f3e 78bd b090 cebd 881f ca3d
000000d0: 9fbb 833c 210e 373d 88d6 8ebc 00c1 f03c
000000e0: b9ae 53bd 4ae1 6abb ffc2 7ebc 94fd 0e3d
000000f0: 2edc 253d d7a9 41bd 77bc 29bd 50d1 243d
00000100: 3449 c93d 60a8 e7bc 149b 853d 3d80 e63b
00000110: 6025 81bc 30b9 e63b 93b2 81bd 903f a33d
00000120: eeb3 75bd 8e08 4b3d feed 83bd a2c9 423d
00000130: 0c47 fb3c 38a9 b7bc 5f9c 913d 5caf 29bd
00000140: 68a0 e23c 487d 8fbd cbab 61bd bf8a 1dbd
00000150: 4530 7f3d 5fc3 c2bc c872 d03d 57b0 56bb
00000160: 5a58 9bba d68e a73d 501c ca3d 640c bf3d
00000170: ade5 8bbd f56b 62bc 257e 733d 1bbe 90bd
00000180: 2ce8 c03d dad6 823d eb80 113c 4dc5 7ebd
00000190: 87ad 853d a4bf 27bd ae27 843d 6e75 88bd
000001a0: e3b6 ad3d 2801 ca3b 3139 b23d 61e3 883d
000001b0: a5c5 80bd cbdb 813d c632 b1bd 50c2 e83c
000001c0: 6d4e c93d e321 48bd f74b 30bd e479 343d
000001d0: 48f4 bd3d 5542 d7bb 9097 cf3c d8d2 31bc
000001e0: 365e 9bbd 5d6e 84bd 0388 8b3d b92f 62bd
000001f0: cbea 5dbc e333 333c d0ed 6e3c 4775 e9bb
00000200: 03c9 1abd 6315 abbc e75c ce3c 0ca7 9cbb
00000210: 4f75 53bd 2833 5e3d 949e 2538 9794 99bd
00000220: e964 8ebd 4b85 2a3c acc5 543d 142b 0e3b
00000230: 3faa 8b3d fed9 0dbd d2f8 faba 9b2b b43d
00000240: a252 47bd 8020 b43c b43d 943d 097b 9fbd
00000250: b806 93bd 6de8 84bd 4fa4 9eba f2d7 663d
00000260: 864d bd3c 1e6f b73d be63 4e3c ee7e 85bd
00000270: 9fcf 85bd 31b0 2ebd c5f5 913c 0c4b 893d
00000280: 550f 213d 94ef 90bc 91dd 4d3d cdfb b4bd
00000290: 763f 42bd a73a 9e3d ce48 b7bd 2005 613d
000002a0: 78b8 733d 9d7c 06bc 8809 58bc 51a7 b13d
000002b0: 4ce8 d23c 5dc7 f8bc 9220 d8bc b5f7 42bd
000002c0: 53e5 c03c b131 303c f0b6 94bc 19c9 a0bd
000002d0: 3904 aebd 9025 85bc 22a5 61bd e409 0cbc
000002e0: c9e7 b83d 8ee3 473d 113f 623d fe3f 663d
000002f0: 62fb d4ba f81c d33c 4ff0 403d 5ce0 7e3d
00000300: 96eb 0c3d 1bc0 69bd bde7 943d 1cc4 3fbd
00000310: 76b8 3abd d1fb b83c f1a7 81bc b902 913d
00000320: bcb3 1f3d 38d3 8fbd ebe5 173d 0755 80bd
00000330: d07e a33b 1fa0 77bd 445b 553c 07ba 77bd
00000340: eb97 533b c193 183d 4e20 92bd a356 c8bb
00000350: 2a04 203d ea23 24bc fbf0 dcbc f6f0 ea3a
00000360: 4e46 ca3d 9798 75bd e5ca d83c e040 59bd
00000370: ab23 10bd 5133 5b3c 83fd c43d bede afbc
00000380: 91b5 643b df57 99bc 0f99 2dbc 87f0 6a3c
00000390: 716c 203d 27ef 9bbc 7bcb 3f3d 93a6 28bd
000003a0: f7a0 76bc 2a25 1ebd 6741 57bd 611c 3fbd
000003b0: d9ba a33a a656 2fbd fc4a a53d edfc 473d
000003c0: 3b45 ccbd 6d31 93bd e538 76bd 45ba 8dbd
000003d0: 7865 b8bd a5c7 f7bc 8435 a33d 34c9 c33d
000003e0: 6849 e9bb 1d00 8ebc d11f 1c3d 63e2 a63c
000003f0: f84f 713d 6300 af3c a2e5 c63c 06ee b4bd
-0.06194191 0.0037427186 0.03132734 0.05911833 0.013315607 -0.06594897 -0.031700276 -0.03051881
-0.018758213 0.031739846 0.021075035 0.02323303 0.039461784 -0.0558378 0.01575642 0.0703999
0.07849152 0.062476605 -0.01916795 0.0022050038 0.017048394 0.05295051 0.05591779 0.04518747
0.030549556 0.040477414 -0.080540955 -0.08940597 -0.03512555 0.016978508 -0.080496654 -0.020942315
-0.04270877 0.03549937 0.0984832 -0.06534965 0.06774107 -0.02401818 -0.040021643 0.04489009
-0.05160779 -0.037268475 -0.10216339 0.033523023 -0.029275842 -0.007887387 0.014971345 -0.09563102
0.0010952168 -0.06060612 -0.10086191 0.09869295 0.016080676 0.04469121 -0.01743628 0.029388905
-0.0516803 -0.003583985 -0.01554942 0.0349098 0.040493183 -0.047281113 -0.0414395 0.04023868
0.098284155 -0.02827853 0.065237194 0.00703433 -0.015764892 0.007041119 -0.063328885 0.07971108
-0.059986047 0.049568705 -0.06441878 0.047555573 0.030673526 -0.022419557 0.071099035 -0.041427
0.027664378 -0.070063174 -0.055095475 -0.038462397 0.062301893 -0.0237748 0.10178143 -0.0032758915
-0.0011851892 0.08181541 0.098686814 0.09328535 -0.068309166 -0.013819684 0.059446473 -0.0706751
0.09419283 0.06388636 0.008880834 -0.06219988 0.06527238 -0.040954247 0.06452881 -0.06663023
0.084821485 0.0061646886 0.08702315 0.06683994 -0.06287698 0.0634075 -0.086522624 0.028412968
0.09829412 -0.048860442 -0.043041196 0.044061556 0.092751086 -0.0065691867 0.025340825 -0.010853492
-0.07586329 -0.064663626 0.068130516 -0.055221293 -0.013544749 0.010937664 0.014583066 -0.0071245763
-0.037789356 -0.020884221 0.025190784 -0.0047806557 -0.051625546 0.054248005 3.9486753e-05 -0.074990444
-0.06952841 0.010407756 0.051946327 0.0021693157 0.06819581 -0.03463172 -0.001914764 0.087973796
-0.04866279 0.021988153 0.072383314 -0.07787139 -0.07179016 -0.06489644 -0.0012103411 0.056358285
0.023108255 0.08956741 0.012597023 -0.065183505 -0.06533741 -0.042648498 0.017817387 0.06703767
0.039321262 -0.017692365 0.05026013 -0.0883709 -0.047423802 0.07726031 -0.08949433 0.05493653
0.059502095 -0.008208421 -0.013185866 0.08674491 0.025745533 -0.030368501 -0.026382718 -0.047599513
0.02354685 0.010754035 -0.018153638 -0.07850856 -0.08496899 -0.016253263 -0.055089124 -0.00854728
0.090285845 0.048800997 0.055235926 0.05621337 -0.0016249234 0.02577065 0.047104176 0.062225685
0.03440436 -0.05706797 0.07270763 -0.046817884 -0.045586072 0.022581013 -0.015827151 0.070805974
0.038989767 -0.07022709 0.0370845 -0.06266218 0.0049894825 -0.060455438 0.013022248 -0.060480144
0.0032286595 0.037250284 -0.07135068 -0.0061138435 0.03906647 -0.010018328 -0.026970377 0.0017924595
0.09876691 -0.059959974 0.026463935 -0.053040385 -0.035190266 0.013378934 0.09618666 -0.021468516
0.003489826 -0.018718658 -0.010595574 0.014339573 0.039165918 -0.019034935 0.046824913 -0.041174483
-0.015053025 -0.03860966 -0.052552607 -0.046657924 0.0012491598 -0.042807244 0.08070943 0.048825193
-0.09974142 -0.071871616 -0.060112853 -0.06920294 -0.09003729 -0.030246565 0.07969192 0.09559861
-0.0071193464 -0.017334038 0.03811628 0.020371621 0.058914155 0.02136249 0.02427942 -0.08834462

decoder_net.3.bias f4 [256]
00000000: 1c63 62bc d340 4dbc 58f2 013a e67a cebb
00000010: 3ce9 62bc eaf4 4cbc 82d7 62bc 2bd2 62bc
00000020: b644 b43a bc9e 62bc 557b 67bc d77b 2a3b
00000030: 8b13 63bc e303 63bc d878 76b9 6ae3 62bc
00000040: 59a0 093b 95d4 93bb 0785 8e3a f3fc 6ebb
00000050: b302 46bb 3150 d2bb d586 a3bb 27fd 1aba
00000060: da3f 62bc 9306 353a 2d13 63bc 627e 063c
00000070: ef92 073b aef3 62bc 4322 cbbb 5184 62bc
00000080: 19c7 923a 30e1 5ebc 8ea7 62bc 8b8e 6abb
00000090: e656 99bb bfb3 56bc 1832 63bc 25cd 8c3a
000000a0: 4a45 45bb 4db2 e33a f82f 82bb 6f68 7dbb
000000b0: 257b 00ba 2366 62bc 4a75 d639 3640 83bb
000000c0: 0822 523b 7efa 62bc 3aed 2ebb 1ff9 8aba
000000d0: 40a8 143b ae8b 63bc 3d0b 63bc 8a26 a33a
000000e0: 8d32 61bc b864 e6bb 5dd4 4a3a e574 203b
000000f0: b511 63bc b816 20bb eb07 63bc 6be5 62bc
00000100: 06a8 90bb 742b 61bc 18aa 62bc a8ef e43a
00000110: e115 dd3b d465 62bc a3b1 9fbb 954c 2c3a
00000120: 3aa4 92bb 18cf 62bc a279 8cbb fd51 78ba
00000130: a3c1 9fbb 2f33 f138 e45f 54bc 0a18 63bc
00000140: df24 8c3a 0b95 62bc 1557 9b3b c328 3ebc
00000150: c3d8 4dbc 1280 63bc ad72 763a 28f8 62bc
00000160: a7d9 51bc 46c3 c93a d486 2a3b 1a5a c93a
00000170: 5b8e 60bc 4c2a ca3a 6eb3 62bc 4cf5 313b
00000180: 18cd 2cbc 524f 3bbb d58e 62bc bcf5 62bc
00000190: fbc1 743a ebe7 62bc 6cfc 27bb 434a a9bb
000001a0: 08bc 62bc 6dbb 62bc b2c1 373a bc9b aebb
000001b0: c1f4 893a 29c4 e0ba d183 f1bb 7e01 8c3a
000001c0: 2ad4 07bc bd7a afb9 105a 62bc ff62 5fbc
000001d0: 4cd3 62bc 482a 323b 0495 c7b9 862b 6e3a
000001e0: f8bb d9ba c1cf e5b9 db19 63bc 75c1 403a
000001f0: 336e 14bb 29f3 4ebc 8090 d5bb 3f6c 7938
00000200: 4aee 58b8 0a0f 63bc 69fa ac39 f3d1 62bc
00000210: ccab 003a 84e2 19bb 64f9 db3a f372 83bb
00000220: 749f 62bc 38aa 62bc eaf8 1bbb 1edf 62bc
00000230: 7ab1 c6bb 26b0 1ab9 92c5 63bc f206 63bc
00000240: 3de7 c2bb 2c87 62bc 9766 47ba 441f 3d3b
00000250: 35a5 be3b de22 63bc b82d bb3a dc45 48bb
00000260: fc5a 0cbb 4b24 623a 41a6 753b 0d14 63bc
00000270: c378 65bc 11a7 fab8 307e 95bb e42d 7abb
00000280: b3b1 0c3b 80e6 0c3b 55b9 62bc 0a83 a33a
00000290: f87a 3f3b 1d3d 73bb 11eb 0e38 3e71 013b
000002a0: ffd5 54bc 46e4 adbb 6e9a b3b9 5ad7 62bc
000002b0: 0ff3 d1bb bd7d 62bc 62bc 62bc 4518 3d3a
000002c0: cfe8 1e3b b357 923a db35 4a3a 68fd 9bbb
000002d0: 1b89 8e3b 3a7b 3b3b 0a49 8bbb 5c19 61bc
000002e0: 736d 08bb 46e7 6b3a ca0d 0b3b ea1e 8ebb
000002f0: 98be d5bb 9d52 62bc 720a 2a3b 82a6 60bb
00000300: dd27 c6bb b6ca 62bc aa70 0cbc 76ef 52bb
00000310: 00df 64bc c8ee 62bc e823 3136 3f1f 3a3b
00000320: a378 15bc 4c8a 823b 3fb7 61bc 07b1 e03b
00000330: 3bb2 823b d829 733b 1e2c 3b3b f4f1 213b
00000340: 5845 efbb 4d72 913a 8cb6 62bc e02c 63bc
00000350: 2243 63bc b6d4 62bc f0a6 62bc 9477 113b
00000360: ab88 b0bb 0cdc 62bc c7af 62bc cf2d 1d3a
00000370: e9a9 ba3b 81b7 b7ba 28eb 5fbc 46f0 62bc
00000380: bef8 62bc 2ade 2139 b7af 9839 82fd da3a
00000390: 415b c0b9 df8b 3aba 085b 77bb 2c0e 8e3a
000003a0: 8960 653b a3de 33bc 992f a0bb 2254 133b
000003b0: fe43 b0ba 5e90 c7ba 2a0a c5bb 7ca7 67bc
000003c0: 7b60 af3b effa 62bc af38 63bc aedc 62bc
000003d0: eacd 62bc d679 62bc f8a8 9ab9 7320 62bc
000003e0: 2c1d 63bc 9857 ac3b 1c8b bdbb a9d6 ed3a
000003f0: 21ab 18bc cf71 62bc 7c93 653b ebe8 62bc
-0.013817575 -0.012527662 0.00049570715 -0.0063012717 -0.013849553 -0.012509564 -0.013845326 -0.013844053
0.0013753388 -0.013831791 -0.014128526 0.0026013756 -0.01385964 -0.013855907 -0.00023505406 -0.013848165
0.0021000116 -0.0045114257 0.0010873385 -0.0036466687 -0.0030214011 -0.006418251 -0.0049904385 -0.00059123564
-0.013809169 0.00069055817 -0.013859552 0.008208843 0.0020686944 -0.013852043 -0.0061991527 -0.013825492
0.0011198252 -0.013603494 -0.013833893 -0.0035790529 -0.0046795486 -0.013104378 -0.013866924 0.001074229
-0.0030101114 0.0017371863 -0.0039730035 -0.0038666984 -0.00049011625 -0.013818297 0.00040904648 -0.0040054573
0.0032063741 -0.013853667 -0.002669169 -0.0010602808 0.0022683293 -0.013888283 -0.01385766 0.0012447399
-0.013744962 -0.0070310496 0.0007737333 0.0024483737 -0.013859202 -0.0024427604 -0.013856868 -0.013848643
-0.004414561 -0.01374327 -0.013834499 0.0017466443 0.006746993 -0.013818223 -0.004873471 0.0006572691
-0.0044751437 -0.01384332 -0.0042869607 -0.00094726664 -0.004875378 0.00011501309 -0.012962315 -0.013860712
0.0010692141 -0.01382948 0.0047406056 -0.011606398 -0.012563887 -0.013885515 0.00094012433 -0.01385311
-0.01280824 0.0015393279 0.0026020305 0.0015361935 -0.013705815 0.0015423982 -0.013836725 0.0027154265
-0.010546945 -0.0028581214 -0.013827999 -0.013852533 0.00093367667 -0.013849239 -0.0025632633 -0.0051663234
-0.013838775 -0.013838631 0.0007009759 -0.0053286236 0.0010525213 -0.0017148304 -0.00737045 0.0010681597
-0.00829033 -0.00033470048 -0.013815418 -0.013634442 -0.013844322 0.0027185846 -0.00038067263 0.0009085465
-0.0016611805 -0.00043833072 -0.013861145 0.0007353046 -0.0022648692 -0.012631216 -0.00651747 5.946704e-05
-5.1720337e-05 -0.013858566 0.00032992967 -0.013844001 0.0004908412 -0.002348096 0.0016782698 -0.0040115057
-0.013831962 -0.013834529 -0.0023799487 -0.013847141 -0.0060636373 -0.00014752205 -0.013902085 -0.013856636
-0.005947976 -0.013826173 -0.00076065346 0.0028857747 0.005818034 -0.013863293 0.0014280593 -0.0030559218
-0.0021416536 0.0008626624 0.0037483128 -0.013859761 -0.014005843 -0.000119520475 -0.004562162 -0.0038174326
0.0021468222 0.0021499693 -0.013838132 0.0012474966 0.0029217582 -0.0037115284 3.407436e-05 0.0019751335
-0.012990474 -0.0053067533 -0.000342566 -0.013845289 -0.0064071487 -0.013823924 -0.013838859 0.0007213394
0.0024247651 0.0011165052 0.00077137136 -0.004760433 0.0043498403 0.0028607384 -0.0042506503 -0.013738956
-0.002081719 0.0008999001 0.0021217936 -0.0043371813 -0.0065229647 -0.013813642 0.0025946167 -0.0034278934
-0.0060472325 -0.013842275 -0.008571783 -0.0032186187 -0.013969183 -0.013850875 2.6395956e-06 0.0028399972
-0.009123 0.0039837714 -0.013776599 0.006857041 0.003988532 0.0037103798 0.0028560231 0.0024710866
-0.0073019676 0.0011096686 -0.013837468 -0.0138656795 -0.013870986 -0.01384466 -0.013833746 0.0022196518
-0.005387386 -0.013846409 -0.013835854 0.0005995901 0.0056965244 -0.001401648 -0.013666905 -0.013851231
-0.01385325 0.00015436919 0.00029122617 0.0016707631 -0.00036689083 -0.00071161793 -0.0037743468 0.0010837964
0.0035000166 -0.010978374 -0.0048884866 0.0022480567 -0.0013447998 -0.001522552 -0.0060131745 -0.0141390525
0.0053520775 -0.013853773 -0.013868495 -0.013846559 -0.013843039 -0.013822993 -0.0002949906 -0.013801682
-0.013861936 0.0052594654 -0.0057844054 0.0018145639 -0.009318144 -0.013821079 0.0035030534 -0.013849477

decoder_net.4.weight f4 [256]
00000000: c54c 7f3f 832a 7f3f 33fa 7e3f ea32 803f
00000010: c54c 7f3f 9f58 803f c54c 7f3f c54c 7f3f
00000020: 2c24 7f3f c54c 7f3f 872b 7f3f e20f 803f
00000030: c54c 7f3f c54c 7f3f fa7a 7f3f c54c 7f3f
00000040: b3dd 7f3f c995 7e3f 296c 7f3f 9a20 7e3f
00000050: fac9 7c3f ec28 7e3f 65e2 7c3f 10e3 7e3f
00000060: 7710 7f3f a3eb 7e3f c54c 7f3f 5d25 813f
00000070: cfa1 7f3f c54c 7f3f ecd6 7e3f c54c 7f3f
00000080: f48a 7f3f 21bd 7f3f c54c 7f3f 9abf 7d3f
00000090: bde5 7e3f 1d4c 7f3f c54c 7f3f 3f26 7f3f
000000a0: ffae 7d3f 0d24 7f3f 0d6e 7b3f 2e18 7f3f
000000b0: bddd 7d3f c54c 7f3f fe16 7f3f e0f9 7c3f
000000c0: 88e7 7f3f c54c 7f3f fecc 7c3f c735 7e3f
000000d0: 8fef 7f3f d926 7f3f c54c 7f3f c86f 7e3f
000000e0: 7439 7f3f bffb 7e3f cb7e 7e3f a22e 7f3f
000000f0: c54c 7f3f d0bd 7b3f c54c 7f3f c54c 7f3f
00000100: dd2e 7d3f 040e 7f3f c54c 7f3f 6180 7f3f
00000110: 089f 803f c54c 7f3f 9a15 7e3f 8332 7f3f
00000120: b597 7d3f c54c 7f3f 06e0 7d3f 2fcc 7e3f
00000130: 8c85 7e3f 2724 7f3f 6291 7f3f c54c 7f3f
00000140: 5345 7f3f c54c 7f3f 2f54 803f 27c8 7e3f
00000150: d149 7f3f ca26 7f3f be45 7f3f c54c 7f3f
00000160: c9a5 7f3f 666e 7f3f 53a4 7f3f 5672 7f3f
00000170: c8f9 7e3f 7591 7f3f c54c 7f3f 77d6 7f3f
00000180: e805 7f3f f0c6 7d3f c54c 7f3f c54c 7f3f
00000190: 9874 7f3f c54c 7f3f 5e04 7c3f 3936 7d3f
000001a0: c54c 7f3f c54c 7f3f e1e8 7e3f 668c 7d3f
000001b0: 0759 7f3f 2b1f 803f 0935 7f3f 544a 7f3f
000001c0: 980c 7d3f a5f6 7d3f c54c 7f3f 5825 7f3f
000001d0: c54c 7f3f 73a3 7f3f 06df 7e3f 0361 7f3f
000001e0: 6f78 7d3f bdc0 7e3f c54c 7f3f 4b20 7f3f
000001f0: 691e 833f 6224 7f3f f27a 7f3f 147b 7e3f
00000200: 7636 7f3f c54c 7f3f b1e2 7e3f c54c 7f3f
00000210: ba9d 7e3f 02a2 7d3f d690 7f3f 96a0 7d3f
00000220: c54c 7f3f c54c 7f3f 8e3e 7e3f c54c 7f3f
00000230: fff9 7f3f f3c0 7e3f 1931 7f3f c54c 7f3f
00000240: 7c54 7d3f c54c 7f3f d6bd 7e3f 5703 803f
00000250: 3b96 803f c54c 7f3f 7923 7f3f 0fae 7d3f
00000260: fe85 7d3f f2dc 7e3f 7421 803f c54c 7f3f
00000270: ae4e 7f3f d136 7d3f 6432 7d3f 9692 7d3f
00000280: 0995 7f3f 34d9 7f3f c54c 7f3f 067e 7e3f
00000290: 4c13 803f f47d 7f3f f829 7e3f f559 7f3f
000002a0: ef02 7f3f 6606 7e3f a6a6 7e3f c54c 7f3f
000002b0: 29be 7e3f c54c 7f3f c54c 7f3f 3ea8 7e3f
000002c0: a6f2 7f3f db39 7f3f 9e34 7f3f 0496 7d3f
000002d0: 095b 803f 5156 7f3f 32cd 7a3f d551 7f3f
000002e0: e5d1 7d3f bb0c 7f3f 4394 7f3f 030c 7e3f
000002f0: 3f40 7e3f c54c 7f3f a19f 7f3f 8392 7e3f
00000300: 41ad 7e3f c54c 7f3f 2f1d 7f3f 8cba 7d3f
00000310: 4e36 7f3f c54c 7f3f ec32 7d3f 0bfe 7f3f
00000320: 1438 7f3f a847 803f 8629 7f3f f88a 803f
00000330: 036d 7f3f ce0c 803f f7cb 7f3f ee7d 7e3f
00000340: e340 7e3f cbb0 7c3f c54c 7f3f c54c 7f3f
00000350: c54c 7f3f c54c 7f3f 7569 7f3f 5448 7f3f
00000360: cb50 7e3f c54c 7f3f c54c 7f3f 2d34 7f3f
00000370: b760 803f 8d7a 7e3f 2534 7f3f c54c 7f3f
00000380: c54c 7f3f c4d0 7e3f 1e79 7d3f f29b 7f3f
00000390: d955 7e3f f1a4 7e3f 444a 7d3f 1c40 7f3f
000003a0: 87ed 7f3f 07e1 7f3f 6184 7e3f 877d 7f3f
000003b0: 6a50 7e3f 0153 7d3f 4598 7e3f 8111 7f3f
000003c0: 2a28 803f c54c 7f3f c54c 7f3f c54c 7f3f
000003d0: c54c 7f3f c54c 7f3f fab5 7e3f 4d4f 7f3f
000003e0: c54c 7f3f 6b58 803f f9e4 7e3f 8fa9 7f3f
000003f0: ec4f 7f3f c54c 7f3f de1b 803f c54c 7f3f
0.99726516 0.9967424 0.99600524 1.0015538 0.99726516 1.0027045 0.99726516 0.99726516
0.9966457 0.99726516 0.9967579 1.0004847 0.99726516 0.99726516 0.9979702 0.99726516
0.9994766 0.99447304 0.99774414 0.99268496 0.9874569 0.9928119 0.9878295 0.9956522
0.996345 0.99578303 0.99726516 1.0089527 0.99856275 0.99726516 0.99546695 0.99726516
0.998214 0.9989796 0.99726516 0.99120486 0.995693 0.99725515 0.99726516 0.99667734
0.9909515 0.99664384 0.982148 0.9964627 0.9916647 0.99726516 0.9964446 0.9881878
0.99962664 0.99726516 0.98750293 0.9930081 0.9997491 0.9966865 0.99726516 0.99389315
0.9969704 0.99602884 0.9941222 0.9968053 0.99726516 0.98336506 0.99726516 0.99726516
0.9889963 0.9963076 0.99726516 0.99805266 1.0048532 0.99726516 0.9925171 0.9968645
0.9905961 0.99726516 0.9916996 0.9953031 0.99422526 0.9966454 0.9983121 0.99726516
0.99715155 0.99726516 1.0025691 0.9952416 0.9972201 0.9966856 0.99715793 0.99726516
0.99862343 0.9977783 0.99860114 0.9978384 0.99599886 0.99831325 0.99726516 0.9993662
0.9961839 0.9913168 0.99726516 0.99726516 0.9978728 0.99726516 0.98444164 0.9891086
0.99726516 0.99726516 0.99574095 0.99042356 0.9974522 1.0009512 0.996903 0.9972279
0.9884734 0.99204475 0.99726516 0.9966636 0.99726516 0.9985878 0.99559057 0.99757403
0.9901189 0.99512845 0.99726516 0.9965865 1.0243655 0.9966489 0.99796975 0.9940655
0.99692476 0.99726516 0.99564654 0.99726516 0.9945942 0.9907533 0.9983038 0.9907316
0.99726516 0.99726516 0.993142 0.99726516 0.9999084 0.9951317 0.9968429 0.99726516
0.9895704 0.99726516 0.99508417 1.0001019 1.0045847 0.99726516 0.996635 0.9909372
0.9903258 0.99555886 1.0010209 0.99726516 0.9972943 0.9891177 0.98905015 0.990518
0.99836785 0.999408 0.99726516 0.99411047 1.0005889 0.99801564 0.9928279 0.9974664
0.9961385 0.99228513 0.99473035 0.99726516 0.9950891 0.99726516 0.99726516 0.9947547
0.9997963 0.99697655 0.9968966 0.9905703 1.0027782 0.99741083 0.97969353 0.9973424
0.991484 0.996288 0.99835604 0.9923708 0.9931678 0.99726516 0.9985295 0.9944231
0.99483114 0.99726516 0.99653906 0.9911277 0.9969224 0.99726516 0.98905826 0.99997014
0.99694943 1.0021868 0.99672735 1.004241 0.99775714 1.0003908 0.999206 0.99410903
0.9931776 0.98707265 0.99726516 0.99726516 0.99726516 0.99726516 0.9977029 0.9971974
0.9934203 0.99726516 0.99726516 0.9968899 1.0029515 0.9940575 0.9968894 0.99726516
0.99726516 0.995373 0.99012935 0.9984733 0.99349743 0.9947043 0.98941445 0.997072
0.9997181 0.9995274 0.99420744 0.99800915 0.9934145 0.9895478 0.99451095 0.99636084
1.0012257 0.99726516 0.99726516 0.99726516 0.99726516 0.99726516 0.99496424 0.9973038
0.99726516 1.0026983 0.99568135 0.998681 0.99731326 0.99726516 1.0008504 0.99726516

decoder_net.4.bias f4 [256]
00000000: 0000 0000 846c cfba c9d9 5e3a 0861 30bb
00000010: 0000 0000 bd60 633b 0000 0000 0000 0000
00000020: 7ef1 e63a 0000 0000 64b2 05ba 6ddb 863b
00000030: 0000 0000 0000 0000 662b 6639 0000 0000
00000040: 2e1c 4c3b 3c34 75bb d215 cf3a b021 67bb
00000050: d527 23bb fe17 ddbb 6f22 bbbb ef15 b5b9
00000060: fc28 aeba 33d9 8d3a 0000 0000 1f12 2b3c
00000070: cf49 1b3b 0000 0000 c124 6ebb 0000 0000
00000080: f467 053b 36d2 eb3a 0000 0000 18dc 73bb
00000090: 5d92 93bb a339 033a 0000 0000 c362 e23a
000000a0: 854b 3ebb 3486 333b b9fa 8fbb e607 38bb
000000b0: 573d a1b9 0000 0000 af8e 183a 6f20 83bb
000000c0: e4b5 8d3b 0000 0000 30f7 40bb d4b5 88ba
000000d0: 15b1 5c3b 23e7 1cba 0000 0000 4ed9 da3a
000000e0: 31cf 083a 04dc 56ba febe e63a 81b6 533b
000000f0: 0000 0000 b294 27bb 0000 0000 0000 0000
00000100: 2235 8ebb 9cf2 78ba 0000 0000 1e6a 253b
00000110: e904 103c 0000 0000 aa9e a6bb e1eb a93a
00000120: c521 b1bb 0000 0000 13e0 82bb 856b 57ba
00000130: 986f 6abb e68d ac39 ab51 833a 0000 0000
00000140: f810 043b 0000 0000 06f9 d43b 6f6d 08bb
00000150: 89b7 81b9 45aa 24ba c7db 933a 0000 0000
00000160: 1163 9b39 b47b 0a3b bdf9 6b3b a567 123b
00000170: 0b04 a9ba b686 053b 0000 0000 4ef4 683b
00000180: 8049 eaba cc5e 57bb 0000 0000 0000 0000
00000190: 31ad aa3a 0000 0000 51fc 1bbb ffab a7bb
000001a0: 0000 0000 0000 0000 7a90 643a 44cc e1bb
000001b0: 8e3f c43a 825a a4b9 e756 8aba d27a 063b
000001c0: f137 0fbc 8d91 1d38 0000 0000 82f7 84ba
000001d0: 0000 0000 881b 5c3b 1852 77b9 7b95 ce3a
000001e0: a256 b7ba cdbd 1438 0000 0000 2f91 c83a
000001f0: e663 68b9 9200 0aba 299a eeba 7648 223a
00000200: ef2c 8a39 0000 0000 add1 113a 0000 0000
00000210: fe7e 6e3a 1849 07bb 74dd 123b 7a01 8fbb
00000220: 0000 0000 0000 0000 019c 1dbb 0000 0000
00000230: e881 aebb 2684 b239 1fbb e7b9 0000 0000
00000240: 3d3f d2bb 0000 0000 516f c1b9 9527 823b
00000250: 39b2 fa3b 0000 0000 e984 063b adff 6dbb
00000260: 88e9 06bb 3a6a b83a 3549 a93b 0000 0000
00000270: d8fd 46ba 6d33 d23a 020c adbb 3014 7abb
00000280: 5ed4 303b e826 503b 0000 0000 dede f93a
00000290: 47de 8a3b 2b36 a2b9 8e91 d139 3b14 3c3b
000002a0: c557 65ba c164 a9bb c6e1 71b9 0000 0000
000002b0: 80a5 94bb 0000 0000 0000 0000 f40a a13a
000002c0: d8cd 703b a009 f43a 2173 863a f1dc a4bb
000002d0: a34c d33b d951 893b 6622 7bbb 309c 7739
000002e0: 49d5 e2ba d6da a03a 934a 543b a419 19bb
000002f0: acd6 01bc 0000 0000 5edb 593b 7516 cdba
00000300: 8821 ddbb 0000 0000 890e 92ba 6f62 52bb
00000310: 18ad 6cba 0000 0000 e5b2 3239 2b87 7f3b
00000320: 32be 36ba 838f bc3b 7b12 afb9 86cd 083c
00000330: 9725 b63b e59d b13b b1d4 583b b215 713b
00000340: aaf2 25bb 2c17 f83a 0000 0000 0000 0000
00000350: 0000 0000 0000 0000 3fad 0f3a b67d 3d3b
00000360: 8ae4 a6bb 0000 0000 0000 0000 f9d6 6e3a
00000370: 64f4 e43b be99 b5ba 100f 94b9 0000 0000
00000380: 0000 0000 36c5 2b3a 3458 623a 8bd3 123b
00000390: 565b 20b9 237c 39b9 134a 89bb 4380 cc3a
000003a0: 410b aa3b 3bec 98b9 0da5 2fbb e39d 4a3b
000003b0: 5993 91ba b41e afba 71a0 a5bb 07b6 76ba
000003c0: 7f6a ed3b 0000 0000 0000 0000 0000 0000
000003d0: 0000 0000 0000 0000 c148 2b39 4a86 4bba
000003e0: 0000 0000 2a1b ea3b 48d9 96bb 39da 1f3b
000003f0: 5474 d9b9 0000 0000 8ce1 973b 0000 0000
0.0 -0.0015825187 0.00085010804 -0.0026913304 0.0 0.0034695112 0.0 0.0
0.0017619578 0.0 -0.00051001296 0.004115513 0.0 0.0 0.00021950676 0.0
0.0031144726 -0.0037415167 0.001579935 -0.0035267882 -0.0024895568 -0.006747245 -0.005710892 -0.00034539352
-0.0013287361 0.0010822177 0.0 0.010441332 0.0023695116 0.0 -0.0036337825 0.0
0.002035615 0.0017991725 0.0 -0.0037210044 -0.004503532 0.0005005842 0.0 0.0017271865
-0.0029036712 0.0027393224 -0.004393902 -0.002808088 -0.00030754015 0.0 0.00058196014 -0.004001669
0.0043246616 0.0 -0.002944421 -0.0010430166 0.0033674885 -0.000598537 0.0 0.0016696842
0.0005218862 -0.0008196237 0.0017604528 0.0032304826 0.0 -0.0025570807 0.0 0.0
-0.00433983 -0.0009496601 0.0 0.0025240253 0.008790233 0.0 -0.005084832 0.0012963974
-0.005405637 0.0 -0.003993997 -0.0008217621 -0.0035772081 0.0003291212 0.0010018846 0.0
0.0020151716 0.0 0.0064994125 -0.002081718 -0.00024741542 -0.00062814757 0.0011280709 0.0
0.00029637714 0.0021130862 0.003600701 0.002233961 -0.0012894882 0.0020374483 0.0 0.0035546008
-0.0017874688 -0.00328629 0.0 0.0 0.0013021586 0.0 -0.0023801515 -0.005116939
0.0 0.0 0.00087190385 -0.0068908054 0.0014972554 -0.0003134795 -0.0010554463 0.0020519984
-0.008741365 3.756727e-05 0.0 -0.0010144564 0.0 0.0033585746 -0.00023586338 0.0015761101
-0.0013987611 3.5462715e-05 0.0 0.0015302057 -0.00022162459 -0.0005264367 -0.0018203902 0.0006190607
0.0002635489 0.0 0.0005562555 0.0 0.0009097903 -0.0020642933 0.0022409828 -0.0043641897
0.0 0.0 -0.0024049284 0.0 -0.0053255446 0.00034049264 -0.0004419917 0.0
-0.00641623 0.0 -0.00036894766 0.0039720037 0.0076506403 0.0 0.0020525998 -0.0036315725
-0.0020585973 0.0014069744 0.0051661977 0.0 -0.0007590926 0.0016037055 -0.0052809725 -0.0038159005
0.002698205 0.0031761471 0.0 0.0019063612 0.0042379233 -0.00030939406 0.00039972033 0.0028698582
-0.00087487354 -0.0051694815 -0.00023067658 0.0 -0.0045363307 0.0 0.0 0.001228659
0.0036743786 0.0018618591 0.00102577 -0.005031221 0.006448345 0.004190665 -0.0038320064 0.0002361394
-0.0017305996 0.001227225 0.0032393083 -0.002336123 -0.007924717 0.0 0.0033242325 -0.0015646952
-0.006748382 0.0 -0.0011143248 -0.0032102128 -0.00090284785 0.0 0.00017042046 0.0038990478
-0.00069710903 0.0057544126 -0.0003339237 0.008349782 0.0055586803 0.005420434 0.0033085758 0.0036786613
-0.002532164 0.0018927804 0.0 0.0 0.0 0.0 0.0005480833 0.002891404
-0.005093162 0.0 0.0 0.0009111013 0.0069871414 -0.0013855023 -0.00028239982 0.0
0.0 0.0006552519 0.0008634359 0.0022403921 -0.00015292814 -0.0001768922 -0.0041897385 0.001560219
0.00518933 -0.00029167705 -0.0026801259 0.0030916862 -0.0011106535 -0.0013360591 -0.0050545265 -0.00094112795
0.0072453613 0.0 0.0 0.0 0.0 0.0 0.00016334934 -0.0007763846
0.0 0.0071443515 -0.0046035387 0.0024391545 -0.00041476137 0.0 0.0046350416 0.0
