Action_Net.pt (torch, 402402 bytes, 12 tensors)

decoder_net.0.weight f4 [128, 255]
-0.5563364 0.79420346 0.5204543 0.46524876 0.02587526 0.13747232 -0.35324106 -0.45786127
0.76880693 -0.1121737 -0.51910627 0.16065118 0.5356997 0.56517226 0.21443726 0.31615856
0.9054109 0.20669003 0.19784954 -1.1499878 -0.26492113 0.20006283 -0.31237572 -0.35230717
0.37510693 0.36276564 -0.49157706 0.2608321 0.4399932 -0.33695605 0.33050692 0.31355083
0.32805142 -0.03744992 -0.94110817 0.08927371 -0.39888352 0.37869182 -0.2033786 -0.22181444
0.010204136 0.7247989 -0.004348397 -0.23586197 -0.49399844 -1.1439521 0.03768369 -0.4155642
-0.49407348 -0.30177116 -0.6393678 -0.36948514 0.43045035 0.228268 0.32007852 -0.50658244
-0.09813542 0.43033457 0.17764865 0.04929159 0.009062859 0.040320672 0.5595125 0.19999392
0.38786486 0.35258988 -0.026069865 0.7923608 -0.3476668 0.2571273 -0.56966364 -0.020955823
-0.684279 0.20170833 -0.050496355 -0.72926265 0.28187186 -0.2635306 -0.89706564 0.34287333
-0.8790419 0.28276658 0.010629296 -0.81533 -0.7354275 0.36550578 0.49311176 0.70656157
0.9750173 1.4990177 0.61762935 -0.5488969 -0.59785503 0.36468577 0.6521233 -0.044946413
-1.0430447 1.0015177 0.66852254 0.17230089 -0.069989406 -0.30027813 0.34879822 -0.80959016
-0.21778315 0.07391759 0.7957974 -0.1907774 1.0180209 0.48827973 -1.0662029 -0.42309204
-1.0757539 -0.20326184 -0.5613338 -0.4353627 -0.4305453 0.56302917 0.502501 0.26222235
0.34207276 0.19215283 -0.2579753 0.6369907 0.6154408 -0.2748765 0.10871377 -1.0539681
-0.61385536 -0.14673212 -0.37447873 0.70981765 -0.5627328 0.019715993 0.016433753 0.08278857
-0.060938213 0.6281996 0.33830035 -0.03267587 0.11926802 -0.2855913 0.10945295 -0.1606304
-0.24432664 0.4042074 -0.43575275 0.49533743 0.6269583 0.119086854 -0.2092904 0.3504339
0.24210177 -0.40257674 -0.90385044 -0.3616166 1.0553737 0.43983734 -0.37726277 0.9425913
-0.11566658 -0.12024658 -0.04598614 -0.9176013 -0.36535168 -0.2967162 -0.61917704 0.62209284
0.15926339 0.578246 -0.0867203 0.16694151 0.105995394 -0.20542242 -0.015403955 0.17942762
-0.216642 0.065637745 0.12628317 -0.0394975 0.16227105 -0.03215974 0.42413756 -0.22571424
-0.43504298 0.027456464 0.83561707 0.28426442 0.6887451 -0.27536848 0.114653945 0.7173181
-0.6235397 0.58819306 0.4957747 -0.59530264 0.14218588 -0.60977864 -0.20331638 0.31753075
0.7437007 -0.37403294 1.0247316 -0.8691951 0.2965735 0.1836306 -0.0069168825 -0.15868452
-0.32940388 -0.2899486 -0.009188907 0.15564303 -0.026357938 0.24988443 0.6663085 -0.5227527
-0.21543233 -0.6517418 0.018852314 0.46134427 -0.29266495 -0.59815484 -0.32070103 0.19904691
-0.9267594 0.055483382 -0.7665513 -0.25837383 -0.26179978 0.22651449 0.1502968 0.11963819
0.30027303 1.3635651 -0.0739611 0.87296796 0.8317273 -0.4157616 -0.35611975 -0.0708622
0.21408851 0.52137035 -0.45341384 0.7905031 0.31496766 -0.10609763 0.88841933 0.2600539
0.026809392 0.040662818 0.35839915 0.45319006 0.020825315 -0.20347708 0.14606744 -0.3477459
00000000: 106c 0ebf eb50 4b3f 7e3c 053f 1635 ee3e
00000010: 5af8 d33c 8bc5 0c3e 03dc b4be cb6c eabe
00000020: 88d0 443f 53bb e5bd 26e4 04bf be81 243e
00000030: 9e23 093f 21af 103f 7195 5b3e 89df a13e
00000040: 02c9 673f 8da6 533e 1299 4a3e cd32 93bf
00000050: bea3 87be 45dd 4c3e b6ef 9fbe 9b61 b4be
00000060: 040e c03e 6bbc b93e fdaf fbbe c98b 853e
00000070: ca46 e13e 8185 acbe 3438 a93e bc89 a03e
00000080: 5bf6 a73e 1665 19bd 77ec 70bf 23d5 b63d
00000090: 763a ccbe e5e3 c13e 7b42 50be 5323 63be
000000a0: 402f 273c 6c8c 393f ff7c 8ebb cd85 71be
000000b0: 5ded fcbe 066d 92bf 375a 1a3d d5c4 d4be
000000c0: 33f7 fcbe c081 9abe 9cad 23bf 282d bdbe
000000d0: fd63 dc3e 16bf 693e 55e1 a33e 63af 01bf
000000e0: 39fb c8bd d054 dc3e 87e9 353e fae5 493d
000000f0: 637c 143c 4a27 253d 363c 0f3f 35cb 4c3e
00000100: 3996 c63e a986 b43e 7890 d5bc 28d8 4a3f
00000110: 6201 b2be 31a6 833e 7ad5 11bf 8cab abbc
00000120: e92c 2fbf a18c 4e3e 44d5 4ebd f5b0 3abf
00000130: 8251 903e 7ced 86be 18a6 65bf 188d af3e
00000140: e408 61bf c8c6 903e 8026 2e3c 78b9 50bf
00000150: fa44 3cbf 9323 bb3e 2579 fc3e 38e1 343f
00000160: bc9a 793f d0df bf3f f51c 1e3f 8284 0cbf
00000170: 070d 19bf 18b8 ba3e 8df1 263f bb19 38bd
00000180: 7d82 85bf bb31 803f 4b24 2b3f a56f 303e
00000190: 9b56 8fbd 0ebe 99be ae95 b23e 4d41 4fbf
000001a0: 8c02 5fbe 1b62 973d 61b9 4b3f 275b 43be
000001b0: 824e 823f cdff f93e 5679 88bf 859f d8be
000001c0: 4eb2 89bf df23 50be 92b3 0fbf dce7 debe
000001d0: 6f70 dcbe ae22 103f e8a3 003f 0242 863e
000001e0: 2924 af3e b6c3 443e 5715 84be d311 233f
000001f0: 878d 1d3f 9dbc 8cbe 53a5 de3d 6de8 86bf
00000200: a025 1dbf f240 16be adbb bfbe 9cb6 353f
00000210: 420f 10bf 6f83 a13c 14a0 863c 0e8d a93d
00000220: 599a 79bd b0d1 203f b435 ad3e 22d7 05bd
00000230: cb42 f43d 0639 92be de28 e03d 4c7c 24be
00000240: c330 7abe 46f4 ce3e fc1a dfbe de9c fd3e
00000250: 5780 203f cfe3 f33d 3950 56be 126c b33e
00000260: 87e9 773e 8a1e cebe be62 67bf d025 b9be
00000270: 7c16 873f 5c32 e13e 9628 c1be aa4d 713f
00000280: 9ae2 ecbd d743 f6bd f65b 3cbd ebe7 6abf
00000290: 600f bbbe 30eb 97be 6382 1ebf 7a41 1f3f
000002a0: f115 233e ee07 143f 6a9a b1bd b7f2 2a3e
000002b0: 1d14 d93d 415a 52be df60 7cbc e0bb 373e
000002c0: 67d7 5dbe 156d 863d 6050 013e 21c8 21bd
000002d0: 622a 263e eeb9 03bd 8f28 d93e a221 67be
000002e0: f4bd debe 61ec e03c 00eb 553f 1b8b 913e
000002f0: 9951 303f 19fd 8cbe b0cf ea3d 29a2 373f
00000300: 4ca0 1fbf d293 163f 2ed6 fd3e c165 18bf
00000310: 2d99 113e 741a 1cbf 2b32 50be 6493 a23e
00000320: 2b63 3e3f 3f81 bfbe 682a 833f 9283 5ebf
00000330: 7bd8 973e a909 3c3e 04a7 e2bb 327e 22be
00000340: a0a7 a8be 2574 94be 128d 16bc e360 1f3e
00000350: 9aec d7bc b4e1 7f3e 3293 2a3f 1fd3 05bf
00000360: 4b9a 5cbe 8dd8 26bf 2b70 9a3c 5135 ec3e
00000370: 2ed8 95be ad20 19bf ed32 a4be f4d2 4b3e
00000380: 1b40 6dbf 8b42 633d b53c 44bf 9349 84be
00000390: 9f0a 86be 6af3 673e 68e7 193e de04 f53d
000003a0: 63bd 993e 4d89 ae3f eb78 97bd d47a 5f3f
000003b0: 15ec 543f b4de d4be 5455 b6be 3320 91bd
000003c0: 053a 5b3e 8778 053f dc25 e8be 695e 4a3f
000003d0: 7143 a13e b749 d9bd 736f 633f c925 853e
000003e0: 5f9f db3c 0e8e 263d 1880 b73e 8708 e83e
000003f0: da99 aa3c 4c5c 50be b492 153e c00b b2be

decoder_net.0.bias f4 [128]
-0.02905203 0.056345515 -0.045786623 -0.04316375 -0.006389383 0.014787532 0.056826502 0.013325967
0.054084808 0.016044356 -0.05747949 0.016606994 0.010084897 -0.014396831 0.020107612 -0.036410596
0.05648852 -0.04236446 0.061417796 0.045595817 0.04440625 -0.017014112 -0.05527604 0.04323078
-0.050760753 -0.049901936 -0.0038424004 -0.04751742 0.012020841 0.04967562 -0.013093535 -0.017834906
-0.032942194 0.020977907 0.010207784 0.047902167 -0.061066568 0.017977774 -0.040418305 0.034783907
-0.016866758 0.055405773 -0.020783927 -0.061164793 -0.0075502433 0.058431067 -0.034294233 0.009702712
-0.021827448 -0.02641144 0.025748424 -0.02094059 -0.043324348 0.05732423 -0.049308807 -0.010296743
0.060832813 -0.006928064 0.022828437 0.049477838 -0.0011771759 -0.011219393 -0.011523481 0.023645245
-0.008297298 0.057387218 0.0007697954 -0.0501324 0.050644346 0.014582261 0.019014485 0.0010572346
0.043399386 -0.044803206 -0.014546644 -0.05873568 -0.0090300925 -0.062311184 0.053911284 -0.051557973
-0.0033708476 -0.03455516 0.023090154 0.003027333 0.004197579 0.039139025 0.051369272 0.05851607
-0.023820974 -0.028265517 0.05172213 0.02767039 0.007208366 -0.031774223 -0.04796965 0.036531486
0.01109688 0.056296848 0.0023831837 0.047750838 0.006465774 0.0032910053 0.0139299985 0.04867412
0.03848049 0.056229472 0.009938754 0.031732224 0.012532949 0.043858234 0.024594612 -0.00756339
0.012102507 -0.0042260885 -0.023477882 -0.027964536 -0.0013220496 0.04773484 0.05355504 0.040322192
0.030890547 -0.029880129 0.008270934 0.056202322 0.03543298 -0.04551498 -0.043017074 0.05961962
00000000: 86fe edbc 8eca 663d c18a 3bbd 79cc 30bd
00000010: 085e d1bb 6847 723c e8c2 683d 2855 5a3c
00000020: 0888 5d3d 746f 833c 9d6f 6bbd 640b 883c
00000030: 203b 253c b0e0 6bbc b8b8 a43c 4723 15bd
00000040: 8260 673d 5b86 2dbd 3a91 7b3d aec2 3a3d
00000050: 54e3 353d 2e61 8bbc 2169 62bd c212 313d
00000060: 82ea 4fbd f965 4cbd c8d0 7bbb a0a1 42bd
00000070: 10f3 443c aa78 4b3d 4486 56bc 821a 92bc
00000080: 65ee 06bd dcd9 ab3c 8d3e 273c 1035 443d
00000090: f020 7abd 2046 933c aa8d 25bd 9279 0e3d
000000a0: 282c 8abc 2af1 623d 0e43 aabc ef87 7abd
000000b0: 0868 f7bb 6a55 6f3d 1c78 0cbd 20f8 1e3c
000000c0: 7acf b2bc ce5c d8bc 5cee d23c 9a8b abbc
000000d0: df74 31bd d0cc 6a3d 08f8 49bd acb3 28bc
000000e0: d42b 793d d004 e3bb b402 bb3c 46a9 4a3d
000000f0: 784b 9aba 8cd1 37bc fccc 3cbc acb3 c13c
00000100: 64f1 07bc dc0e 6b3d 18cc 493a a257 4dbd
00000110: 7270 4f3d 70ea 6e3c 44c4 9b3c e892 8a3a
00000120: 8ec3 313d 9183 37bd 0c55 6ebc d394 70bd
00000130: f4f2 13bc 033a 7fbd 14d2 5c3d 742e 53bd
00000140: 70e9 5cbb b689 0dbd 9027 bd3c 3866 463b
00000150: d88b 893b 3e50 203d 9668 523d 8cae 6f3d
00000160: 3424 c3bc 168d e7bc 96da 533d 04ad e23c
00000170: 2834 ec3b b025 02bd d37b 44bd 0aa2 153d
00000180: b0cf 353c 8697 663d 302f 1c3b 6296 433d
00000190: d8de d33b e8ad 573b a63a 643c 845e 473d
000001a0: b89d 1d3d e050 663d 28d6 223c a6f9 013d
000001b0: 0057 4d3c b1a4 333d a47a c93c 50d6 f7bb
000001c0: 9849 463c 007b 8abb b054 c0bc e215 e5bc
000001d0: a048 adba 9c85 433d 885c 5b3d e228 253d
000001e0: 2c0e fd3c 2cc7 f4bc d082 073c 6834 663d
000001f0: 2c22 113d ea6d 3abd ac32 30bd b433 743d

decoder_net.2.weight f4 [128, 128]
-0.08599311 -0.45854872 -0.052185427 -0.33255744 -0.44798356 0.095085315 0.41430745 0.18790431
-0.5028519 0.029070945 0.12018913 -0.38435867 0.3833594 -0.1716239 0.022281386 0.27020973
0.18818647 -0.79358155 -0.24779399 0.07018495 -0.16000624 -0.08273317 1.2685841 0.039881494
0.25281438 -0.5256436 0.012301984 0.09692467 0.36005247 0.17106265 0.33815387 -0.6049696
-0.6155208 1.0675198 0.41198042 0.19071607 0.0693205 0.13712099 0.4137342 0.4559639
0.306975 -0.87852937 0.10398969 0.30396348 0.20756206 -0.8380712 -0.76663214 -0.12987521
-0.083204485 0.1347935 0.21691121 -0.474608 0.05991856 0.09404347 0.05227962 0.581593
0.021481657 -0.11238521 0.38303718 0.046175607 -0.20974651 -0.26435834 -0.101014204 0.41338992
-0.03281175 0.3885571 -0.54918545 0.43131703 -0.34895855 0.032904617 -0.51904464 0.88494647
-0.24548727 0.47958803 0.24763681 -1.0751396 -0.13576628 0.34144884 -0.6227421 -0.86164165
0.32565063 0.9745956 -0.17152157 0.46141762 0.07852323 -0.49752608 -0.049157366 0.45244443
0.6536464 -0.62981904 -0.41545635 -0.094441704 0.14551409 0.26691613 -0.0072434084 -1.0686523
0.48036638 -0.7102311 -1.0932169 -0.71648824 0.19161169 0.2600405 -0.6247021 0.6048971
-0.48796067 0.29619774 0.37065274 -0.6222134 -0.22107786 0.85766596 -0.40858087 -0.6684393
0.42991656 0.06926544 0.63066375 0.5602052 -0.16569647 -0.09893363 0.14993937 0.16917744
-0.380947 0.020019481 0.35005742 -0.15578249 -0.5574565 -0.41350138 -0.7127835 0.5511512
0.14072467 -0.4677423 0.43886295 0.09411351 0.42024842 0.16866273 0.01173904 0.102936365
-0.34167057 0.58774894 0.14827438 -0.12656018 0.24743842 -1.1816908 0.47988892 -0.1473725
-0.22386585 -0.22834323 0.10915881 -1.3354985 0.43667775 0.4030042 -0.2731493 -1.0491387
0.4980908 -0.79886967 -0.510856 -0.27858007 -0.5446569 -0.32283387 -0.7639061 -0.32228658
0.35066545 -0.56910324 -0.23014367 0.5060751 0.19775198 0.3851966 -0.1998172 0.8161509
0.41587994 0.43648607 -0.484967 0.84867704 -0.30702212 -0.6587223 0.5401731 0.598392
-0.40960675 -0.3333022 0.10121643 -0.33972517 -0.11715877 -0.57948613 0.61417115 -0.37413317
-0.010624103 -0.18306659 0.21474285 -0.09407495 0.37194213 -1.3225093 1.7596612 -0.119555086
0.48034748 -0.14610471 0.46454412 0.6013781 -0.46919793 1.5442854 0.21584292 -0.74456006
0.31821913 0.12258357 -0.6966955 0.16729186 0.46789688 0.0067161904 -0.6389594 -0.6031605
-0.29553625 -0.10026568 -0.6485712 0.8482039 -0.46798202 0.17026788 -1.2049265 0.35077187
0.8558393 0.7827378 -0.54366285 -0.34565106 -0.39857092 -0.43682402 0.31692973 0.29840666
-0.10596696 -0.7490683 0.3509204 -0.026799778 -0.45919305 0.009965634 -0.2966544 -0.11612896
0.0070777545 0.13488632 -0.15655814 0.3048236 0.045047935 -0.17075369 -0.6901274 -0.46881494
-0.6353432 -0.4076665 -0.78133196 0.24838501 -0.6082476 -0.3244175 0.23863713 -1.0305908
0.34882846 0.31829238 -0.696035 -0.60859215 0.8020534 -0.72599876 -0.63249964 -0.2932004
00000000: 281d b0bd e6c6 eabe 63c0 55bd f844 aabe
00000010: 1a5e e5be 17bc c23d 1b20 d43e fd69 403e
00000020: e7ba 00bf 3126 ee3c b825 f63d a9ca c4be
00000030: af47 c43e 2dbe 2fbe 7487 b63c ee58 8a3e
00000040: f4b3 403e 2928 4bbf b5bd 7dbe 21bd 8f3d
00000050: add8 23be 0270 a9bd f760 a23f c75a 233d
00000060: e370 813e 9490 06bf 438e 493c 7180 c63d
00000070: cc58 b83e 0c2b 2f3e 8122 ad3e 4adf 1abf
00000080: c592 1dbf 7da4 883f 19ef d23e 134b 433e
00000090: e8f7 8d3d 7269 0c3e f8d4 d33e 1a74 e93e
000000a0: d42b 9d3e 4de7 60bf 8cf8 d43d 1aa1 9b3e
000000b0: 268b 543e d68b 56bf 0142 44bf 02fe 04be
000000c0: 1d67 aabd 4f07 0a3e f91d 5e3e d2ff f2be
000000d0: 2a6d 753d dd99 c03d 2823 563d 47e3 143f
000000e0: 4dfa af3c 382a e6bd 731d c43e a222 3d3d
000000f0: cac7 56be fa59 87be 89e0 cebd d8a7 d33e
00000100: 9d65 06bd f5f0 c63e 6b97 0cbf 96d5 dc3e
00000110: b2aa b2be fec6 063d 1ce0 04bf da8b 623f
00000120: 0461 7bbe 908c f53e 8194 7d3e 2d9e 89bf
00000130: 5106 0bbe 62d2 ae3e 076c 1fbf 8c94 5cbf
00000140: aebb a63e 197f 793f 5aa3 2fbe ee3e ec3e
00000150: cad0 a03d bdbb febe 3c59 49bd cca6 e73e
00000160: 5f55 273f d23b 21bf b2b6 d4be a76a c1bd
00000170: a501 153e 3ba9 883e 1d5a edbb 99c9 88bf
00000180: 95f2 f53e b5d1 35bf 88ee 8bbf c66b 37bf
00000190: db35 443e 0724 853e 7aec 1fbf 89da 1a3f
000001a0: fbd5 f9be 3ba7 973e 32c6 bd3e 6149 1fbf
000001b0: 3c62 62be ff8f 5b3f 8331 d1be d71e 2bbf
000001c0: 061e dc3e 0adb 8d3d 2e73 213f 9c69 0f3f
000001d0: 56ac 29be b79d cabd b589 193e da3c 2d3e
000001e0: 7c0b c3be e5ff a33c ba3a b33e 7285 1fbe
000001f0: 78b5 0ebf 74b6 d3be fb78 36bf 3f18 0d3f
00000200: 211a 103e eb7b efbe a5b2 e03e 95be c03d
00000210: cd2a d73e ecb5 2c3e 1a55 403c 4dd0 d23d
00000220: 72ef aebe b776 163f 3dd5 173e fe98 01be
00000230: 7f60 7d3e a541 97bf 00b4 f53e d1e8 16be
00000240: 173d 65be cfd2 69be a78e df3d 9df1 aabf
00000250: 3a94 df3e 9156 ce3e 3ada 8bbe 2d4a 86bf
00000260: c205 ff3e b982 4cbf 75c7 02bf 0ca2 8ebe
00000270: a26e 0bbf 7b4a a5be 5a8f 43bf bf02 a5be
00000280: 6c8a b33e c0b0 11bf c8aa 6bbe 238e 013f
00000290: 7f7f 4a3e 7d38 c53e e19c 4cbe 44ef 503f
000002a0: 37ee d43e 1a7b df3e 984d f8be e642 593f
000002b0: 0132 9dbe 06a2 28bf c948 0a3f 3830 193f
000002c0: fab7 d1be 96a6 aabe 8f4a cf3d 75f0 adbe
000002d0: f0f0 efbd 3459 14bf 523a 1d3f 628e bfbe
000002e0: b810 2ebc cf75 3bbe 8de5 5b3e 5eaa c0bd
000002f0: 336f be3e fc47 a9bf 943c e13f 4cd9 f4bd
00000300: 1bf0 f53e 799c 15be bad8 ed3e eaf3 193f
00000310: b63a f0be 25ab c53f ed05 5d3e 7d9b 3ebf
00000320: 9eed a23e 180d fb3d a35a 32bf 8f4e 2b3e
00000330: 2e90 ef3e 7d13 dc3b d892 23bf ba68 1abf
00000340: 8750 97be 1858 cdbd c308 26bf e423 593f
00000350: 579b efbe b45a 2e3e 083b 9abf 5f98 b33e
00000360: 4918 5b3f 8161 483f 7d2d 0bbf 2df9 b0be
00000370: 7d11 ccbe 66a7 dfbe 9d44 a23e c2c8 983e
00000380: 3505 d9bd f1c2 3fbf d7ab b33e 358b dbbc
00000390: 5a1b ebbe e646 233c 16e3 97be 05d5 edbd
000003a0: 82ec e73b a41f 0a3e c750 20be d711 9c3e
000003b0: 2f84 383d 0eda 2ebe 30ac 30bf 8308 f0be
000003c0: daa5 22bf aab9 d0be 5f05 48bf a458 7e3e
000003d0: 1db6 1bbf 0d1a a6be 4b5d 743e 66ea 83bf
000003e0: a599 b23e 38f7 a23e 5a2f 32bf b2cc 1bbf
000003f0: 5f53 4d3f 0edb 39bf 7feb 21bf 5d1e 96be

decoder_net.2.bias f4 [128]
0.012182958 0.003359437 0.016935185 0.017424963 0.07592707 0.08144524 0.03878037 0.08083639
-0.08189225 0.048101775 -0.03993391 -0.07180987 -0.003987279 0.0029047374 0.01325985 0.04842391
0.05636642 -0.017799817 0.040522464 -0.010989539 -0.016657338 -0.07752481 -8.2192244e-05 0.016908266
0.0022553727 -0.05501038 0.039234795 -0.008048378 0.05712039 -0.08758405 -0.08336796 -0.03853429
-0.016568854 0.008033812 -0.059637483 -0.03735782 0.023339987 0.064739145 0.043430828 -0.07590076
-0.0027130898 -0.048164356 0.08243526 -0.056781888 0.016924292 0.061875083 0.045368038 0.054821335
0.0699696 0.034191757 0.08575081 0.0479467 0.015510984 -0.08448051 0.08799303 -0.0413759
-0.074363366 0.056532778 -0.069566876 0.026408652 0.029518612 -0.035545986 0.06839348 -0.005525507
-0.08554605 -0.020630598 -0.03542339 -0.03438479 -0.044697452 -0.06214059 -0.08305499 0.039018534
-0.075223036 -0.03459162 0.012208797 0.08073623 0.049650393 -0.037926853 0.057321705 -0.033460636
8.035195e-05 -0.02990324 0.017607681 0.03855262 -0.0021475274 0.047900982 -0.009579852 -0.05043645
0.056760125 0.06480647 0.023212872 0.057719804 -0.07338401 -0.055568505 0.068768464 -0.0651068
0.0051112706 0.05905313 0.013286412 -0.024786942 -0.0047745034 -0.019926019 -0.014616936 -0.08029745
0.08362142 -0.051480852 0.024275184 -0.057885677 0.023035735 0.0031069275 -0.04453665 0.008300349
-0.015683085 -0.06514109 0.059243836 -0.07678717 0.007248517 0.039026566 -0.001646918 0.034523115
-0.017839596 0.0018802497 -0.010615274 -0.04400423 -0.069853544 -0.07787439 -0.019361556 -0.05804105
00000000: 089b 473c 002a 5c3b a8bb 8a3c ccbe 8e3c
00000010: a77f 9b3d c3cc a63d 2ad8 1e3d 8d8d a53d
00000020: 20b7 a7bd 5e06 453d bd91 23bd 0e11 93bd
00000030: b8a7 82bb 685d 3e3b d83f 593c 2658 463d
00000040: 7ae0 663d ecd0 91bc e2fa 253d 780d 34bc
00000050: f874 88bc 54c5 9ebd a05e acb8 3483 8a3c
00000060: e0ce 133b 9052 61bd aab4 203d 58dd 03bc
00000070: 12f7 693d 445f b3bd d2bc aabd 22d6 1dbd
00000080: 68bb 87bc 40a0 033c 6f46 74bd 8304 19bd
00000090: 8033 bf3c f595 843d 86e4 313d dc71 9bbd
000000a0: 18ce 31bb fd47 45bd d1d3 a83d 2094 68bd
000000b0: d0a4 8a3c ba70 7d3d d6d3 393d 568c 603d
000000c0: 394c 8f3d a80c 0c3d 1f9e af3d c263 443d
000000d0: c821 7e3c 1e04 adbd b135 b43d c779 29bd
000000e0: d24b 98bd ea8e 673d 1479 8ebd f556 d83c
000000f0: 04d1 f13c ab98 11bd e111 8c3d 500f b5bb
00000100: c432 afbd 8001 a9bc 1e18 11bd 11d7 0cbd
00000110: ad14 37bd 2287 7ebd bc18 aabd e6d1 1f3d
00000120: 890e 9abd f1af 0dbd 6807 483c 0959 a53d
00000130: 365e 4b3d 3059 1bbd 2aca 6a3d 050e 09bd
00000140: a082 a838 a4f7 f4bc fc3d 903c 5ae9 1d3d
00000150: 88bd 0cbb d233 443d d0f4 1cbc 7396 4ebd
00000160: 4e7d 683d 41b9 843d ec28 be3c 9a6b 6c3d
00000170: 5b4a 96bd cd9b 63bd 7bd6 8c3d b756 85bd
00000180: 727c a73b b2e1 713d 40af 593c fc0d cbbc
00000190: 7073 9cbb e43b a3bc e07b 6fbc fd72 a4bd
000001a0: b541 ab3d 96dd 52bd c0dc c63c 8819 6dbd
000001b0: 70b5 bc3c 989d 4b3b 106c 36bd 30fe 073c
000001c0: d079 80bc b168 85bd aaa9 723d 9742 9dbd
000001d0: f884 ed3b 52da 1f3d 66dd d7ba 1c68 0d3d
000001e0: 5824 92bc b672 f63a b0eb 2dbc c83d 34bd
000001f0: 600f 8fbd 9c7c 9fbd 209c 9ebc 74bc 6dbd

decoder_net.4.weight f4 [128, 128]
-0.6221341 0.2053926 0.9915841 -0.5008217 -0.012637771 -0.1836143 -0.10217602 0.23303598
-0.55452496 -0.395177 0.723119 0.2475753 0.5727515 -0.74735034 0.02244029 0.5834978
-0.31520772 0.31275067 0.19362378 0.6627792 -0.6221633 -0.07994106 -0.14863522 -0.4768386
-0.43637684 0.6568901 0.03389204 0.43680206 -0.61109936 -0.8452961 -0.7527725 0.2503488
-0.579921 0.56656134 -0.24976394 0.013209898 -0.24662465 0.7612924 0.02640601 0.34358263
-0.07676728 -0.4603431 -1.5502449 -0.27379662 0.5906769 -0.1789231 -0.4216709 0.089401394
0.0484045 -0.54378855 0.98863256 0.06527531 0.12685476 -0.4842024 -0.52142507 0.48110935
-0.3265845 -0.62171525 -0.028745739 -0.37073955 1.3602111 -0.6153241 0.013993909 -0.5547602
-0.17059512 0.05342138 0.5268665 0.06587654 0.49265867 -0.23519062 -0.4659023 -0.3945418
-0.55744743 0.5376159 0.14041701 0.438294 -0.45614645 -0.27363527 0.28157848 0.65971684
-0.6832555 -0.3928622 0.7154881 -1.2412733 -0.73619765 -0.68323815 0.8727006 0.43536833
0.38091287 -0.5626343 0.46645352 -0.49846122 -0.048727777 -0.4065498 0.23702376 -0.12349102
-0.62392855 0.002121194 0.59561396 0.8716365 -0.41080385 -0.14081791 0.5944626 -0.52679574
0.4664695 -0.36903298 0.7100213 0.6503296 0.43757224 -0.06878635 0.18283884 -0.07864266
-0.21595716 0.79772717 -0.65421665 0.06114233 0.24019092 0.3636798 -0.16739365 -0.5220702
-0.6240583 0.4234714 -1.2539238 0.12344654 -0.28617865 -1.1063147 -0.0558101 0.59891254
0.37662557 0.29659972 0.2498424 -0.11226817 1.2472996 0.17094627 0.31920648 -0.65464616
0.28160635 -1.1475399 0.056257173 -0.27399358 0.91449285 0.21956323 -0.8584258 0.40005904
-0.71031284 -0.2578614 0.37080967 0.48684683 0.6272768 0.856009 0.17605714 -0.28939492
-1.1088303 -0.62889737 -0.24489427 0.5003099 0.6130994 0.2478709 0.1228613 0.5833015
0.61576605 0.38265356 -0.7871977 0.12113313 -0.3564161 -0.17970347 0.13561136 0.0021423353
-0.318805 0.027390327 -0.7644001 -0.14661989 0.4803843 0.51138896 -0.30902398 -0.06556307
-0.21190648 0.8576077 0.203644 -0.2774066 -0.7163625 -0.25640222 0.6365981 -0.37537038
-0.4869246 -0.11947227 0.8340547 0.17830999 1.234241 -0.33616704 0.86997426 1.0680318
-0.21197541 0.6662128 -0.44642416 0.4923971 0.3645515 -0.72988105 0.15365762 -1.0180035
0.34750912 -0.24416158 0.16507666 0.21194348 0.2920019 0.530941 -0.7974514 0.33465624
-0.12749663 0.5691954 0.3390396 0.17330617 0.6538748 -0.42857692 0.008354575 -0.6330068
-0.4634193 -0.2356232 -0.7083974 0.66495484 -0.6096569 -0.20185658 0.39804754 -0.19824629
-0.37744954 0.42604524 -0.5441695 -0.37415338 -0.26652905 0.047352146 0.40050548 -0.07219887
-0.7604189 0.15553755 -0.5504344 -0.44365004 0.060433004 0.30438665 0.07535332 -0.36069816
0.2326955 0.10643593 0.6263241 1.0272225 0.94526786 -0.16577928 0.60724276 0.91250664
-0.23993474 -0.14300473 -1.4332347 0.14544633 0.055435576 0.8359894 0.54349977 -0.338282
00000000: 2e44 1fbf 7052 523e 75d8 7d3f da35 00bf
00000010: a70e 4fbc 6305 3cbe a941 d1bd fca0 6e3e
00000020: 59f5 0dbf a454 cabe 541e 393f 6184 7d3e
00000030: d89f 123f 5a52 3fbf b3d4 b73c 1d60 153f
00000040: e862 a1be db20 a03e 5045 463e e6ab 293f
00000050: 1846 1fbf 23b8 a3bd d533 18be 3024 f4be
00000060: c96c dfbe f329 283f 61d2 0a3d 85a4 df3e
00000070: 0271 1cbf 5365 58bf b3b5 40bf b82d 803e
00000080: b475 14bf 2a0a 113f 1ec2 7fbe 546e 583c
00000090: 2c8b 7cbe 0fe4 423f 6b51 d83c 10ea af3e
000000a0: 2a38 9dbd 17b2 ebbe 6d6e c6bf 122f 8cbe
000000b0: 9a36 173f 9e37 37be 40e5 d7be 1418 b73d
000000c0: cc43 463d ba35 0bbf 0617 7d3f 10af 853d
000000d0: 37e6 013e 61e9 f7be 1d7c 05bf f753 f63e
000000e0: 1536 a7be bb28 1fbf 2f7c ebbc 93d1 bdbe
000000f0: 661b ae3f e185 1dbf b546 653c c404 0ebf
00000100: 7db0 2ebe 61d0 5a3d b9e0 063f 48ea 863d
00000110: c23d fc3e cfd5 70be bf8a eebe 6201 cabe
00000120: e0b4 0ebf 32a1 093f 7ac9 0f3e 1268 e03e
00000130: 078c e9be ec19 8cbe 0e2b 903e 34e3 283f
00000140: d5e9 2ebf 3c25 c9be 3a2a 373f 0be2 9ebf
00000150: 7377 3cbf b2e8 2ebf 4e69 5f3f 99e8 de3e
00000160: 0307 c33e cd08 10bf ffd2 ee3e 4f36 ffbe
00000170: c796 47bd 4c27 d0be 5bb6 723e dce8 fcbd
00000180: c8b9 1fbf bb03 0b3b 287a 183f 9223 5f3f
00000190: e254 d2be 9232 10be b32e 183f 16dc 06bf
000001a0: 17d5 ee3e e4f1 bcbe f5c3 353f 007c 263f
000001b0: 7809 e03e dcdf 8cbd 1b3a 3b3e 670f a1bd
000001c0: e023 5dbe d937 4c3f be7a 27bf 6170 7a3d
000001d0: 9cf4 753e 3d34 ba3e 3e69 2bbe 65a6 05bf
000001e0: 49c2 1fbf 3ed1 d83e 9380 a0bf 8ad1 fc3d
000001f0: 0286 92be b89b 8dbf 2299 64bd 5552 193f
00000200: 11d5 c03e ebdb 973e b0d6 7f3e dbec e5bd
00000210: 83a7 9f3f 8a0c 2f3e 086f a33e e496 27bf
00000220: b52e 903e 96e2 92bf ec6d 663d e348 8cbe
00000230: 341c 6a3f 2fd5 603e cbc1 5bbf 8ad4 cc3e
00000240: 10d7 35bf 6906 84be c4da bd3e fd43 f93e
00000250: 3695 203f 6823 5b3f 5348 343e 922b 94be
00000260: 27ee 8dbf 6bff 20bf 90c5 7abe 4f14 003f
00000270: 15f4 1c3f dfd1 7d3e b59e fb3d 3f53 153f
00000280: d8a2 1d3f 2beb c33e ca85 49bf a514 f83d
00000290: 2c7c b6be 3004 38be b4dd 0a3e 6c66 0c3b
000002a0: 693a a3be ae61 e03c baaf 43bf 8623 16be
000002b0: eef4 f53e 63ea 023f 6438 9ebe ee45 86bd
000002c0: 03fe 58be 2e8c 5b3f 0e88 503e 3d08 8ebe
000002d0: 8863 37bf 2747 83be 18f8 223f 8c30 c0be
000002e0: 2e4e f9be e1ad f4bd 9c84 553f e596 363e
000002f0: 9cfb 9d3f 161e acbe a2b6 5e3f 44b5 883f
00000300: 1510 59be ec8c 2a3f b591 e4be 791b fc3e
00000310: 7fa6 ba3e 7cd9 3abf 6c58 1d3e f04d 82bf
00000320: b7ec b13e 7e05 7abe db09 293e b607 593e
00000330: 4681 953e c0eb 073f c625 4cbf 1058 ab3e
00000340: 7a8e 02be cab6 113f 9996 ad3e 2c77 313e
00000350: 5764 273f 6f6e dbbe a1e1 083c bc0c 22bf
00000360: 4b45 edbe 3547 71be 8859 35bf 7b3a 2a3f
00000370: 7912 1cbf 7eb3 4ebe e3cc cb3e 1301 4bbe
00000380: 1141 c1be 9a22 da3e b14e 0bbf 0891 bfbe
00000390: 7f76 88be 53f4 413d 0e0f cd3e 00dd 93bd
000003a0: d0aa 42bf 3c45 1f3e 45e9 0cbf 1926 e3be
000003b0: 9988 773d 91d8 9b3e d752 9a3d 6ead b8be
000003c0: bb47 6e3e 15fb d93d c756 203f 077c 833f
000003d0: 13fd 713f 0bc2 29be 4374 1b3f 099a 693f
000003e0: 74b1 75be d56f 12be 3c74 b7bf e2ef 143e
000003f0: 6a10 633d 6703 563f cd22 0b3f 4c33 adbe

decoder_net.4.bias f4 [128]
-0.041337688 0.020605408 0.08095642 -0.048932552 -0.0771404 -0.03297056 0.013657168 -0.07003243
-0.05402301 0.008947775 0.07325696 0.043354444 0.05562175 0.03497298 0.024892217 0.08238009
-0.027891856 -0.0077138646 0.0142028555 0.007994777 0.0006287475 -0.036244474 0.07540163 0.05039961
-0.06989743 0.01662679 -0.082581386 0.07843206 0.032843433 0.046370663 0.08756528 0.07404583
0.051099576 -0.027682222 -0.008889198 0.05608528 0.06907765 -0.025152653 0.07607364 0.058925696
0.07559175 -0.0066251606 0.004665803 -0.04786914 -0.08115921 -0.011520781 0.01847925 -0.062412538
0.025402173 -0.07786777 -0.07980357 0.08154986 -0.065107666 -0.001890528 -0.024499007 0.039084397
0.012416348 -0.03555336 -0.04807787 -0.07006385 -0.020768315 0.044489644 -0.014739104 -0.06913118
0.024088867 -0.08519528 -0.07570871 0.052313216 -0.08247773 -0.0016809218 -0.061987832 0.06522507
-0.056220606 -0.084080756 0.06518666 0.0072449856 -0.06856163 0.044359304 -0.07546198 0.028632943
-0.035237458 0.047273867 0.05748082 -0.011674285 0.07159408 0.014584154 -0.003852321 0.07710049
0.04958024 -0.041586142 0.036484897 -0.05002062 0.005800415 -0.07161661 0.05613438 -0.08330758
-0.017311849 0.050428055 -0.030799981 0.086913295 0.026392173 -0.002009537 0.04225368 -0.061974473
0.045110203 -0.086388856 0.027134439 -0.012008324 0.07376782 -0.017549276 0.010221887 -0.07971247
0.0592229 -0.08422735 0.047423504 0.026271068 0.07105506 0.081116684 0.0077688247 -0.0712681
0.07664209 -0.04735584 -0.073722556 0.041583665 -0.04138704 0.062143676 0.06302402 -0.027898533
00000000: b551 29bd accc a83c 7bcc a53d 806d 48bd
00000010: c9fb 9dbd 230c 07bd 50c2 5f3c 2a6d 8fbd
00000020: 3b47 5dbd b099 123c bf07 963d 6e94 313d
00000030: a2d3 633d d43f 0f3d c3ea cb3c e5b6 a83d
00000040: 767d e4bc 96c4 fcbb 18b3 683c 86fc 023c
00000050: 88d2 243a 1675 14bd 2b6c 9a3d d26f 4e3d
00000060: 6226 8fbd e834 883c 6e20 a9bd fda0 a03d
00000070: d686 063d 2aef 3d3d 6d55 b33d 57a5 973d
00000080: ca4d 513d d4c5 e2bc 00a4 11bc aeb9 653d
00000090: 9578 8d3d f00c cebc 7fcc 9b3d 125c 713d
000000a0: d9cf 9a3d e017 d9bb 98e3 983b 6e12 44bd
000000b0: cd36 a6bd a8c1 3cbc cc61 973c 4aa4 7fbd
000000c0: 3818 d03c 2379 9fbd 0e70 a3bd 9d03 a73d
000000d0: 2b57 85bd 98cb f7ba 24b2 c8bc f616 203d
000000e0: f06d 4b3c 66a0 11bd 4ded 44bd a37d 8fbd
000000f0: 5022 aabc c63a 363d 487c 71bc a694 8dbd
00000100: 0456 c53c dd7a aebd 2b0d 9bbd 6246 563d
00000110: 16ea a8bd 6052 dcba f4e6 7dbd b994 853d
00000120: 9447 66bd 8832 acbd 9580 853d 5867 ed3b
00000130: 0a6a 8cbd 1ab2 353d d08b 9abd a28f ea3c
00000140: 2755 10bd 3ea2 413d 0271 6b3d 8045 3fbc
00000150: eb9f 923d 60f2 6e3c 3977 7cbb dde6 9d3d
00000160: a614 4b3d 3b56 2abd 3071 153d 6ce2 4cbd
00000170: 6811 be3b bbab 92bd 2aed 653d 2a9d aabd
00000180: 94d1 8dbc a68d 4e3d 3e50 fcbc 99ff b13d
00000190: 6634 d83c 70b2 03bb 3212 2d3d f2d8 7dbd
000001a0: 7ac5 383d a4ec b0bd 0b49 de3c 90be 44bc
000001b0: 9513 973d 80c3 8fbc b479 273c 4b40 a3bd
000001c0: b693 723d 647f acbd 263f 423d 6c36 d73c
000001d0: 5185 913d 8120 a63d a091 fe3b 02f5 91bd
000001e0: 87f6 9c3d 33f8 41bd dafb 96bd a253 2a3d
000001f0: 7585 29bd 5e8a 7e3d bd12 813d 778b e4bc

decoder_net.6.weight f4 [128, 128]
0.26495197 -0.7313835 -0.24703495 -0.25304732 0.41408047 -0.83904606 0.67836446 -0.15754306
0.025623629 -0.24203996 0.87949336 -0.49188918 -0.64628136 0.586938 0.76891744 -0.04102131
0.46650964 -0.7827667 -0.13610744 -0.59595376 0.36212435 -0.033628628 -0.325361 -0.41852096
0.010513814 -0.55041134 -0.11523655 -0.3598341 0.44410855 -0.42268598 -0.75058585 -0.24528982
0.76446944 -0.67032135 -0.7905574 -0.3248154 0.017585913 0.18125264 -0.5500325 -0.035263505
0.28664213 -0.16252661 0.28063 -0.21842532 0.90916294 -0.32823735 -0.24866553 -0.61188
0.83438456 -0.21309832 -0.16325125 -0.79487115 0.24634385 0.12124139 -0.18248019 -0.66204274
0.045124367 -0.7386883 0.15106113 -0.78791165 0.4105822 0.32015038 0.46607202 -0.06507923
0.5294275 -0.5192483 -0.42123562 0.5050455 0.71466416 0.4286171 -0.45496228 0.3551491
-0.594888 -0.7406452 -0.08310556 0.6546698 0.94026995 0.3807276 -0.81386226 -0.47989386
0.23450683 0.3565108 1.1122614 0.11052898 0.32723302 -0.23310451 -0.44369963 -0.46312478
-0.46502116 -0.9631122 0.45039845 -0.6481647 -0.38972363 -0.4613298 0.40725884 0.89565694
0.010347936 0.06788139 0.1452704 1.2629216 -0.085066035 -0.23141202 0.8300376 -0.40606627
0.5200044 0.0707913 -0.31923944 0.6920676 -0.3709515 0.22355866 0.30310273 0.33893022
-0.31458566 -0.053235922 -0.4135668 0.13799143 -0.6337275 0.67910314 0.129851 -0.3009771
0.12050238 -0.58007425 0.020363921 0.27716997 0.8800941 0.003060738 0.34054002 -0.32354137
-0.22044292 -0.30229414 -0.23072943 0.42705053 -0.40444395 -1.2529206 -0.14580429 -0.24380668
-1.0325682 0.5156925 -0.24501812 0.4170978 -0.6235528 0.1730326 -0.3124573 -0.22052068
-0.35267827 -0.44131762 0.26756737 0.047830775 -0.7884262 1.1135572 0.5626667 0.3331468
-0.6863041 -0.6055396 0.32046384 -0.62692654 -0.48280054 -0.43634734 0.31851715 0.012664598
-0.9803778 -0.22668469 -0.64861137 0.19627076 -0.008074943 -0.24057098 -0.38909188 0.20581901
-0.7466863 0.22117005 0.2350693 -0.69562125 -0.24389407 -0.109654136 0.072884426 0.045722105
0.0021925278 -0.18877597 -0.70237434 0.23644668 0.070986815 -0.6819133 0.43998826 0.18485507
-0.4784621 -0.18832895 -0.21949843 0.22230269 0.1321293 -0.3770154 -0.6652109 0.725439
-0.5847233 0.57254255 -0.40543684 0.65184015 -0.12237242 -0.066828944 0.3030108 1.8201394
0.12516607 0.4505366 0.038212195 0.6978681 0.124165125 0.739501 -0.95687973 0.39376983
-0.25633177 0.2545412 0.1295667 -0.015226602 0.35705557 -0.40977722 0.7050401 0.19333158
0.34483927 0.8541696 0.23787056 0.8819181 0.9632385 -0.0491374 0.1352039 1.211493
-0.08034906 -0.3808212 -0.24843776 -0.06167978 -0.80617625 -0.9179701 -0.26030284 -0.4206452
0.59303063 -0.6165864 -0.0198753 -1.025954 -0.0065587196 -0.53826857 0.43753874 -0.2872773
0.24594255 0.56735975 0.6766663 -0.4360963 -0.06557151 -0.19394526 -0.60856384 0.344509
0.23039643 -0.9000502 0.086277425 0.33976638 -0.2589079 0.7324684 -0.15334062 -0.1876329
00000000: c9a7 873e f33b 3bbf bbf6 7cbe 6b8f 81be
00000010: 5b02 d43e b9cb 56bf 4ba9 2d3f f852 21be
00000020: a5e8 d13c 53d9 77be 7a26 613f e6d8 fbbe
00000030: b272 25bf 9241 163f c6d7 443f f605 28bd
00000040: 5ada ee3e 6663 48bf c05f 0bbe 6d90 18bf
00000050: 5d68 b93e 2cbe 09bd b895 a6be 6148 d6be
00000060: 2242 2c3c c2e7 0cbf 2401 ecbd 2d3c b8be
00000070: 3262 e33e 4c6a d8be 6526 40bf 412d 7bbe
00000080: 45b4 433f 2e9a 2bbf f861 4abf 344e a6be
00000090: 5510 903c 4b9a 393e eece 0cbf 7770 10bd
000000a0: c2c2 923e 606d 26be bcae 8f3e e3aa 5fbe
000000b0: e7be 683f ba0e a8be 2da2 7ebe 2ba4 1cbf
000000c0: 3a9a 553f 7236 5abe 562b 27be ad7c 4bbf
000000d0: 9041 7c3e 684d f83d 16dc 3abe a27b 29bf
000000e0: 54d4 383d ad1a 3dbf c5af 1a3e 94b4 49bf
000000f0: d537 d23e c0ea a33e fea0 ee3e 4248 85bd
00000100: 9088 073f 75ed 04bf 32ac d7be a94a 013f
00000110: 3bf4 363f b373 db3e d1f0 e8be 1ad6 b53e
00000120: 944a 18bf ec9a 3dbf 3f33 aabd 7198 273f
00000130: 88b5 703f baee c23e 4759 50bf a6b4 f5be
00000140: 8f22 703e 9588 b63e 955e 8e3f 055d e23d
00000150: 168b a73e f3b2 6ebe 992c e3be b11e edbe
00000160: 4117 eebe 858e 76bf a09a e63e 1fee 25bf
00000170: db89 c7be 6b33 ecbe 3b84 d03e c649 653f
00000180: 648a 293c 6605 8b3d c4c1 143e 6aa7 a13f
00000190: 1a37 aebd 46f7 6cbe 587d 543f ebe7 cfbe
000001a0: 021f 053f 07fb 903d 5a73 a3be 582b 313f
000001b0: 5bed bdbe 90ec 643e 4830 9b3e 4388 ad3e
000001c0: 5f11 a1be e90d 5abd 07bf d3be a04d 0d3e
000001d0: f73b 22bf b4d9 2d3f a9f7 043e ac19 9abe
000001e0: f4c9 f63d bf7f 14bf 3dd2 a63c 39e9 8d3e
000001f0: d94d 613f aa96 483b 435b ae3e 37a7 a5be
00000200: cabb 61be 4cc6 9abe 5644 6cbe 5ea6 da3e
00000210: 4713 cfbe b45f a0bf b84d 15be 75a8 79be
00000220: 322b 84bf 6c04 043f 08e6 7abe d88d d53e
00000230: 28a1 1fbf 752f 313e 67fa 9fbe 2cd0 61be
00000240: 3f92 b4be 62f4 e1be 97fe 883e 34ea 433d
00000250: 4dd6 49bf 0b89 8e3f ed0a 103f 3892 aa3e
00000260: a0b1 2fbf a504 1bbf d613 a43e 427e 20bf
00000270: a231 f7be eb68 dfbe ae14 a33e 2d7f 4f3c
00000280: 0afa 7abf 0820 68be 650b 26bf 34fb 483e
00000290: c44c 04bc 3d58 76be 0d37 c7be 38c2 523e
000002a0: d526 3fbf 677a 623e 02b6 703e 3c14 32bf
000002b0: 5ebf 79be 5992 e0bd 6e44 953d 1a47 3b3d
000002c0: 83b0 0f3b 7d4e 41be cece 33bf 141f 723e
000002d0: 8961 913d df91 2ebf 2446 e13e a64a 3d3e
000002e0: fcf8 f4be 4ed9 40be 32c4 60be 51a3 633e
000002f0: e74c 073e 2a08 c1be 434b 2abf 5fb6 393f
00000300: 6db0 15bf 2692 123f 6b95 cfbe ffde 263f
00000310: 649e fabd 9ddd 88bd 3b24 9b3e 54fa e83f
00000320: 892b 003e bcac e63e 6484 1c3d 7ca7 323f
00000330: 494a fe3d f04f 3d3f 12f6 74bf 339c c93e
00000340: eb3d 83be 3953 823e 22ad 043e ff78 79bc
00000350: fdcf b63e 52ce d1be 827d 343f b7f8 453e
00000360: c68e b03e dcaa 5a3f 5794 733e 62c5 613f
00000370: cc96 763f 4c44 49bd e472 0a3e 3412 9b3f
00000380: 0c8e a4bd fffa c2be 7866 7ebe f0a3 7cbd
00000390: 9161 4ebf 1700 6bbf 6a46 85be cf5e d7be
000003a0: dbd0 173f 9bd8 1dbf 86d1 a2bc 7652 83bf
000003b0: 87ea d6bb f8cb 09bf 1405 e03e 0316 93be
000003c0: 5dd8 7b3e 7d3e 113f 013a 2d3f 0448 dfbe
000003d0: 5b4a 86bd 9699 46be d7ca 1bbf 7c63 b03e
000003e0: 0bed 6b3e b169 66bf 38b2 b03d dcf5 ad3e
000003f0: 948f 84be 0d83 3b3f 5305 1dbe d722 40be

decoder_net.6.bias f4 [128]
0.067414664 0.0029594675 0.009995848 0.038337387 0.07977537 -0.051242042 0.06846132 0.056557663
-0.018196162 0.034376398 0.051444642 0.047357492 0.07796385 0.050920032 -0.057407066 0.079629876
-0.056660127 -0.02085562 -0.03993498 -0.015867569 -0.027923156 0.05854807 -0.008641668 -0.011786416
-0.019187339 -0.025172316 -0.08384634 -0.028807264 0.044494025 0.0775088 0.03341996 0.061926045
-0.0850809 0.08749028 0.05855068 -0.06867228 -0.0176569 0.08423721 -0.07504739 -0.0068719573
-0.019589528 0.030144326 -0.04114812 -0.08313285 -0.063744456 -0.06976363 0.022590958 -0.07306845
-0.015435119 -0.031686362 -0.02689321 -0.011794083 0.06775691 0.030255318 -0.08183348 0.0022306368
0.07067055 -0.06089335 -0.085666575 -0.0068669952 -0.017439745 0.0109183565 -0.01578591 -0.08226545
-0.012707427 0.06723546 0.020585999 -0.06844674 0.017068677 0.0667435 0.0055583566 0.06510275
-0.063559994 0.086784 -0.035113126 -0.044842955 0.08732524 -0.06474573 -0.038367208 -0.025597274
0.07781873 -0.016988128 -0.01891376 -0.063218035 0.08576747 -0.07436915 0.029074676 0.058207937
-0.01486405 0.0783351 -0.029225085 0.030840715 0.07266464 -0.06916115 0.0076023303 -0.052436985
-0.03781017 -0.031689323 -0.087062605 -0.06816382 0.06887116 0.081676535 -0.06181916 -0.010374397
-0.024904408 0.04608076 0.073850475 0.06706334 0.07448309 0.045543365 -0.02839382 0.0084530115
0.009027503 -0.08595041 0.07113988 -0.07127069 -0.0054939613 -0.0018537343 0.062165298 -0.0050812624
-0.04733962 -0.00040058975 0.06776764 0.07002928 0.04849904 -0.022208236 0.020321421 0.026882932
00000000: b310 8a3d a0f3 413b a0c5 233c aa07 1d3d
00000010: 4561 a33d 2de3 51bd 7335 8c3d 02a9 673d
00000020: 1e10 95bc 44ce 0c3d 9eb7 523d eef9 413d
00000030: 83ab 9f3d 8691 503d ac23 6bbd fd14 a33d
00000040: 7314 68bd 68d9 aabc dd92 23bd b4fc 81bc
00000050: 1abf e4bc 1ad0 6f3d c895 0dbc d01b 41bc
00000060: c42e 9dbc 2c36 cebc a1b7 abbd 36fd ebbc
00000070: 5e3f 363d efbc 9e3d 5ee3 083d 2aa6 7d3d
00000080: e53e aebd 1b2e b33d d6d2 6f3d 0da4 8cbd
00000090: 34a5 90bc 8f84 ac3d 72b2 99bd 282e e1bb
000000a0: 387a a0bc 3cf1 f63c ee8a 28bd 8e41 aabd
000000b0: 748c 82bd 3ce0 8ebd ac10 b93c e9a4 95bd
000000c0: 95e3 7cbc 8fc9 01bd 264f dcbc f83b 41bc
000000d0: 23c4 8a3d 00da f73c 5098 a7bd e02f 123b
000000e0: b9bb 903d 4e6b 79bd f571 afbd 8804 e1bb
000000f0: ccdd 8ebc e8e2 323c 7451 81bc ca7a a8bd
00000100: d032 50bc bfb2 893d f8a3 a83c ce2d 8cbd
00000110: 9cd3 8b3c d1b0 883d e022 b63b 9754 853d
00000120: be2b 82bd cfbb b13d c8d2 0fbd 3fad 37bd
00000130: 93d7 b23d 6999 84bd ef26 1dbd 60b1 d1bc
00000140: 6d5f 9f3d b02a 8bbc 08f1 9abc 7578 81bd
00000150: dba6 af3d da4e 98bd 042e ee3c 726b 6e3d
00000160: 5888 73bc 276e a03d 7269 efbc aba5 fc3c
00000170: 33d1 943d 5ca4 8dbd f81c f93b 2ac8 56bd
00000180: d6de 1abd aacc 01bd e14d b2bd 7999 8bbd
00000190: 530c 8d3d 0746 a73d 1636 7dbd 60f9 29bc
000001a0: 5404 ccbc 2ebf 3c3d eb3e 973d 8158 893d
000001b0: 978a 983d ae8b 3a3d 289a e8bc 807e 0a3c
000001c0: 18e8 133c c506 b0bd c9b1 913d 5ef6 91bd
000001d0: b006 b4bb 00f9 f2ba 0aa1 7e3d b880 a6bb
000001e0: 30e7 41bd 3f06 d2b9 c3c9 8a3d 836b 8f3d
000001f0: eea6 463d 0cee b5bc 1c79 a63c 9839 dc3c

decoder_net.8.weight f4 [128, 128]
-0.13743398 -0.18363315 0.065126434 0.18363659 -0.52873135 0.029604284 0.69475526 0.2782043
-0.14018618 1.0453215 -0.13342264 0.2317687 -0.02722188 0.30441123 0.6051471 0.108751945
-0.22434278 -0.40761647 1.1471224 -0.7023446 -0.88319343 0.12745021 0.20907372 1.0607917
-0.30718637 0.22621612 -0.10973044 -0.057684325 -0.18687311 0.38050488 -0.078534275 -0.17551626
-0.09959698 -0.04713074 -0.23817657 -0.85317135 -0.5127822 0.6129361 -0.29246047 -0.2035391
-0.29844177 0.52815473 -0.08153389 0.0689252 0.54734993 0.019454274 0.5043447 0.5997644
0.3053718 -0.2520606 0.7695796 -0.066839546 0.08193844 -0.06749329 -0.053761296 -0.63598496
-0.16234942 0.49457735 0.14054641 -0.2503357 -0.3312003 0.59992105 -0.3631141 -0.5215535
-0.42681468 -0.45141768 0.28153294 -0.37754545 -0.85399383 0.7171114 -0.35615313 0.050105583
0.7303845 -0.47698483 -0.12427532 -0.30463502 -0.32728276 -0.60832316 -0.65164196 0.7513954
0.510996 -0.2559985 -0.049739905 -0.42439273 0.3147924 0.87759036 -0.431894 1.2728006
-1.4219941 0.5802505 -0.40358406 -0.15255277 0.88285846 -0.001728104 0.8075175 0.67594135
0.4729531 0.33275485 -0.11847761 0.4815438 0.44720486 -0.16272137 0.50376546 -0.12095952
0.46624166 -0.17661661 0.39605382 -0.087343976 0.09512252 -0.5823183 0.23293792 -1.0112218
0.06970015 0.2085289 0.55339795 0.33020014 0.8615445 0.13665216 0.32398087 0.7031111
0.4809724 0.5357342 0.11306286 -0.1695694 0.027216231 0.2551474 0.06439733 -0.525607
-0.475829 0.004070135 -0.5145282 -0.772122 -0.42572135 -0.67829937 0.44220772 0.15550202
-0.63193846 -0.48062152 -0.21885902 -0.9498382 -0.11263961 -0.77473587 -0.47088838 0.5147186
-0.5878346 -0.39167506 -0.16511963 -0.5830143 1.3651973 -0.25824016 -0.67674917 0.31241903
0.6746097 -0.051330157 -0.5316341 0.33702564 0.09664893 0.01518688 -0.58424133 -1.1471281
-0.47290385 -0.5868009 -0.6471934 -0.5269863 -0.25446126 -0.41584155 0.5624936 -0.06620568
-0.044119403 0.247173 -0.7426214 -0.85122555 0.5726153 0.21305074 -0.30641872 0.5876451
0.018010722 -0.047535174 0.32212242 0.025591524 0.4120995 0.7780973 -0.5698458 0.10260543
0.70566136 -0.5458542 0.17752591 0.37484938 -0.1821095 -0.21422525 -0.38558498 -0.18343443
-0.09197146 0.39051557 0.6329847 -0.2306 0.85410386 0.03369871 -0.137906 -0.4190156
-0.008012184 0.10487623 -0.6570978 0.46674827 -0.20472206 0.81222266 -0.24510688 -0.5980497
0.03837156 -0.23450825 -0.40083766 -0.8525334 -0.77435565 -0.43213403 0.065591246 0.07959694
-0.48343608 -0.82434416 0.25873747 0.4280743 0.07690506 -0.38170946 -0.08856318 1.00608
0.16225411 -0.24448632 0.13961886 0.26420274 -0.9604351 0.2714385 -0.40221536 -0.78460556
-0.14197259 -0.0576838 0.816237 -0.34396893 0.58535814 1.4096537 0.22401792 0.33746457
-0.38428327 -1.1319635 -0.3563875 -0.23276252 -0.1615457 0.6612158 -0.3907357 0.24128166
-0.15682806 -0.37581256 0.25419313 0.6185911 -0.4954674 0.41119465 -0.27565172 0.7570725
00000000: 7ebb 0cbe 540a 3cbe 0261 853d 3b0b 3c3e
00000010: f05a 07bf af84 f23c 7bdb 313f cb70 8e3e
00000020: f78c 0fbe 18cd 853f f29f 08be c654 6d3e
00000030: 6c00 dfbc cadb 9b3e ecea 1a3f 57b9 de3d
00000040: 1dba 65be 1bb3 d0be e8d4 923f dbcc 33bf
00000050: f718 62bf 4f82 023e 6c17 563e 06c8 873f
00000060: 8847 9dbe 33a5 673e 5aba e0bd 6646 6cbd
00000070: aa5b 3fbe 89d1 c23e 94d6 a0bd 89ba 33be
00000080: 80f9 cbbd 2a0c 41bd 8fe4 73be 7069 5abf
00000090: b245 03bf 61e9 1c3f 61bd 95be 8e6c 50be
000000a0: 5ccd 98be 2635 073f 3dfb a6bd a828 8d3d
000000b0: 201f 0c3f 925e 9f3c bc1c 013f 298a 193f
000000c0: b159 9c3e 160e 81be 2b03 453f 2ce3 88bd
000000d0: 57cf a73d ec39 8abd ce34 5cbd e9cf 22bf
000000e0: ed3e 26be 3e39 fd3e 66eb 0f3e 002c 80be
000000f0: 1693 a9be 6d94 193f 17ea b9be 8884 05bf
00000100: 7487 dabe 3820 e7be 1625 903e a34d c1be
00000110: 579f 5abf 9d94 373f b459 b6be 833b 4d3d
00000120: 7bfa 3a3f 5b37 f4be 0f84 febd 1ff9 9bbe
00000130: 9b91 a7be 11bb 1bbf 02d2 26bf 735b 403f
00000140: a2d0 023f 3c12 83be 12bc 4bbd 014a d9be
00000150: 782c a13e c3a9 603f 3621 ddbe 21eb a23f
00000160: e703 b6bf 4c8b 143f 92a2 cebe cb36 1cbe
00000170: 0303 623f 8c81 e2ba 78b9 4e3f 7e0a 2d3f
00000180: e926 f23e d85e aa3e 64a4 f2bd e98c f63e
00000190: 09f8 e43e 6ea0 26be c6f6 003f a0b9 f7bd
000001a0: 3ab7 ee3e fcda 34be 91c7 ca3e 66e1 b2bd
000001b0: 99cf c23d d012 15bf 4787 6e3e b76f 81bf
000001c0: f4be 8e3d 9a88 553e 7dab 0d3f fe0f a93e
000001d0: 2e8e 5c3f 8bee 0b3e d2e0 a53e 17ff 333f
000001e0: 0442 f63e e025 093f 808d e73d 9aa3 2dbe
000001f0: 93f4 de3c aea2 823e bfe2 833d 2e8e 06bf
00000200: dc9f f3be c45e 853b 1fb8 03bf caa9 45bf
00000210: 26f8 d9be 07a5 2dbf 0d69 e23e ec3b 1f3e
00000220: b8c6 21bf 0614 f6be 941c 60be 9928 73bf
00000230: 99af e6bd 1755 46bf 4818 f1be 99c4 033f
00000240: 547c 16bf a289 c8be 1f15 29be 6d40 15bf
00000250: c9be ae3f 0e38 84be 6f3f 2dbf 63f5 9f3e
00000260: 39b3 2c3f 923f 52bd 2c19 08bf a08e ac3e
00000270: e0ef c53d 64d2 783c d790 15bf 18d5 92bf
00000280: 7420 f2be 9538 16bf 77ae 25bf 93e8 06bf
00000290: bf48 82be 2fe9 d4be 95ff 0f3f d896 87bd
000002a0: 8cb6 34bd eb1a 7d3e 701c 3ebf ebe9 59bf
000002b0: eb96 123f f929 5a3e eae2 9cbe e96f 163f
000002c0: 398b 933c 3eb4 42bd 3bed a43e 51a5 d13c
000002d0: b5fe d23e 6231 473f 6ae1 11bf cc22 d23d
000002e0: 39a6 343f 1abd 0bbf 5ac9 353e 42ec bf3e
000002f0: ea7a 3abe dd5d 5bbe 656b c5be 3cd6 3bbe
00000300: 885b bcbd a8f1 c73e 490b 223f 6822 6cbe
00000310: 8da6 5a3f a907 0a3d 3b37 0dbe 3689 d6be
00000320: 8945 03bc 59c9 d63d 9037 28bf a1f9 ee3e
00000330: a9a2 51be d3ed 4f3f 4cfd 7abe c919 19bf
00000340: 7f2b 1d3d ee22 70be 983a cdbe a13f 5abf
00000350: 2c3c 46bf ac40 ddbe b454 863d b803 a33d
00000360: ef84 f7be 3808 53bf 3d79 843e 8e2c db3e
00000370: 6680 9d3d 6c6f c3be 9d60 b5bd 3bc7 803f
00000380: f125 263e 9f5a 7abe 3ff8 0e3e 9545 873e
00000390: 13df 75bf fdf9 8a3e 2cef cdbe e9db 48bf
000003a0: 4361 11be d945 6cbd e8f4 503f b21c b0be
000003b0: 08da 153f 886f b43f f464 653e 28c8 ac3e
000003c0: c7c0 c4be 2ee4 90bf 6c78 b6be 4c59 6ebe
000003d0: 3c6c 25be 7045 293f 820e c8be 8a12 773e
000003e0: 8997 20be 816a c0be 9a25 823e fd5b 1e3f
000003f0: e7ad fdbe 1b88 d23e 3922 8dbe 81cf 413f

decoder_net.8.bias f4 [128]
-0.05245512 0.062385626 -0.03496746 0.088077925 0.05129689 0.015226319 0.027891198 0.0023643281
0.04269723 0.026896939 -0.03866231 0.057490684 -0.026081309 0.061941378 0.061102457 0.03811612
0.07062135 -0.040199023 0.007495396 -0.052296218 -0.044556282 0.033060342 0.05732233 -0.07369253
-0.078031056 0.04395985 -0.00022732338 0.018125564 -0.0241393 -0.043205746 -0.07202844 0.033846997
-0.0030523445 -0.0767908 -0.0545923 -0.0364418 -0.08008483 -0.011187747 -0.032481868 -0.0463486
-0.020470433 0.08754932 -0.07161689 -0.078553855 0.008260511 -0.06840185 -0.009655923 -0.013104796
-0.053386275 0.011250779 0.03640112 -0.0540191 -0.029550947 0.027550355 0.005213842 -0.064323105
-0.03578537 0.0063184947 0.03466817 -0.025786683 0.05074186 0.0858678 0.0156224 0.030226298
-0.046622664 -0.05021637 0.02321484 -0.021295018 0.07479174 -0.012855507 -0.0379848 0.032111436
-0.028345529 -0.08252493 -0.02430997 -0.07279381 -0.080330014 -0.008726505 -0.034275558 -0.027963731
-0.05571021 0.013719387 -0.04422897 -0.043189928 -0.03707435 -0.06379496 -0.022488922 -0.051291145
-0.053034686 0.055691317 -0.025633395 -0.031279594 -0.067096874 -0.0074416474 -0.07814345 0.031688973
-0.02644645 0.05446946 -0.03889948 -0.05666259 -0.038570102 -0.05660861 -0.06709634 0.023206495
-0.06136754 0.00075512734 -0.026325595 0.056520678 0.05710382 -0.0663614 0.047508903 -0.060198344
-0.081460744 0.05895213 -0.00023487039 -0.054810833 0.046495803 0.07504774 0.044331558 0.063116394
-0.024870832 0.009512164 -0.0732317 0.032729603 0.04194031 0.06450299 0.060813047 -0.042451136
00000000: 2edb 56bd 1288 7f3d 0a3a 0fbd 3362 b43d
00000010: b01c 523d d077 793c 157c e43c d8f2 1a3b
00000020: 4ae3 2e3d f856 dc3c 5f5c 1ebd 5a7b 6b3d
00000030: 78a8 d5bc 3eb6 7d3d 9246 7a3d a61f 1c3d
00000040: eda1 903d bba7 24bd f09b f53b 8f34 56bd
00000050: a680 36bd 486a 073d d2ca 6a3d 1cec 96bd
00000060: bfce 9fbd 3e0f 343d a85d 6eb9 107c 943c
00000070: c8bf c5bc 82f8 30bd a683 93bd 26a3 0a3d
00000080: d809 48bb 7f44 9dbd 2d9c 5fbd ff43 15bd
00000090: 8403 a4bd d04c 37bc b50b 05bd 08d8 3dbd
000000a0: 9cb1 a7bc 0f4d b33d e0ab 92bd d8e0 a0bd
000000b0: 1857 073c 4516 8cbd e033 1ebc 80b5 56bc
000000c0: 91ab 5abd 3055 383c 5719 153d 2243 5dbd
000000d0: d414 f2bc 48b1 e13c e0d8 aa3b d5bb 83bd
000000e0: ae93 12bd 600b cf3b 3600 0e3d 983e d3bc
000000f0: b2d6 4f3d 75db af3d 18f5 7f3c 249d f73c
00000100: 68f7 3ebd aeaf 4dbd 0c2d be3c e472 aebc
00000110: 692c 993d e89f 52bc f395 1bbd 4887 033d
00000120: e234 e8bc d502 a9bd b425 c7bc ec14 95bd
00000130: 1084 a4bd 9df9 0ebc 8764 0cbd 3214 e5bc
00000140: 6430 64bd 48c7 603c 7029 35bd ece7 30bd
00000150: 46db 17bd efa6 82bd b03a b8bc aa16 52bd
00000160: e63a 59bd 941c 643d 20fd d1bc 081f 00bd
00000170: 166a 89bd 10d9 f3bb ac09 a0bd 4ccc 013d
00000180: 3aa6 d8bc 5e1b 5f3d 1055 1fbd 0817 68bd
00000190: affb 1dbd 6ede 67bd ce69 89bd 8c1b be3c
000001a0: 885c 7bbd bdf3 453a c6a8 d7bc 3a82 673d
000001b0: b2e5 693d 7ce8 87bd b298 423d 8a92 76bd
000001c0: e4d4 a6bd ca77 713d 8a47 76b9 5381 60bd
000001d0: 6272 3e3d a1b2 993d 0295 353d 2b43 813d
000001e0: eabd cbbc e8d8 1b3c 80fa 95bd 7a0f 063d
000001f0: 9ac9 2b3d 251a 843d 1a17 793d 3ee1 2dbd
