Action_Net.pt (torch, 577378 bytes, 10 tensors)

decoder_net.0.weight f4 [512, 13]
0	0x3ee8f7a3	0.45501432
1	0xbf09c257	-0.53812164
2	0xbde3b20f	-0.11117946
3	0x3ed19ba9	0.40939072
4	0xbd99834e	-0.074957475
5	0x3dc486a7	0.095959954
6	0x3b480194	0.0030518519
7	0x3edcc040	0.43115425
8	0x3e7637ae	0.24044678
9	0x3cd2e4b2	0.025743816
10	0x3ee3e0d1	0.4450746
11	0xbe77e0c2	-0.24206832
12	0xbfcc15ce	-1.5944154
13	0xbea96386	-0.33083743
14	0x3e6a72f8	0.2289542
15	0xbe0b7ee7	-0.13622628
16	0x3f31d6dd	0.6946848
17	0xbed54756	-0.41655988
18	0x3e51c857	0.2048658
19	0x3ede09d6	0.4336688
20	0x3f28d387	0.65947765
21	0xbf5a7f3b	-0.8535039
22	0xbfc28e6d	-1.5199715
23	0xbf428c46	-0.7599529
24	0xbedec010	-0.43505907
25	0xbea58e05	-0.32334915
26	0x3e3249c2	0.17410949
27	0x3e6b1af2	0.22959498
28	0x3eca4a75	0.3950993
29	0xbf22c49e	-0.63581264
30	0x3e276a4e	0.16349146
31	0xbf537ec5	-0.8261531
32	0xbe3afe6c	-0.18261117
33	0xbe644d79	-0.22295178
34	0x3c81ec74	0.01585982
35	0xbcfe1f2e	-0.031020727
36	0x3e27d4c7	0.16389762
37	0xbf0ba715	-0.5455182
38	0x3e3dfcc7	0.18553458
39	0xbe91486d	-0.2837557
40	0x3e757e33	0.23973922
41	0xbf1c52ea	-0.61064017
42	0x3c28b710	0.010297552
43	0xbf139c2a	-0.5766016
44	0x3f865159	1.0493575
45	0xbe3d88af	-0.18509172
46	0x3fa35f37	1.2763432
47	0x3e52fad9	0.20603503
48	0x3e26a869	0.16275181
49	0xbea26c95	-0.31723467
50	0xbfb69cca	-1.4266598
51	0xbf4509f3	-0.76968306
52	0x3eba7d1c	0.36423576
53	0x3f89fafc	1.0779719
54	0xbf4789f3	-0.7794487
55	0xbe8cde23	-0.27513227
56	0x3f50e8fe	0.8160552
57	0xbd1ce02f	-0.038299736
58	0xbed11641	-0.4083729
59	0xbe9dd001	-0.30822757
60	0xbcb2e3d5	-0.021837154
61	0x3d8a1786	0.06742768
62	0xbe84c752	-0.2593332
63	0xbf4c02a7	-0.7969155
64	0xbf3e462b	-0.7432582
65	0xbf8a08a8	-1.0783892
66	0x3ee9e39a	0.4568146
67	0x3e26d0b7	0.16290556
68	0xbefa0fb8	-0.48840117
69	0xbe94d60c	-0.29069555
70	0x3f6ab417	0.91681045
71	0x3f569cbe	0.8383292
72	0x3e8e8d13	0.27842006
73	0x3eb0453e	0.34427828
74	0x3e01d50a	0.12678924
75	0xbf4cd924	-0.8001883
76	0xbf6349cb	-0.88784474
77	0xbeda5716	-0.42644566
78	0xbec79f62	-0.38988787
79	0x3f1b92a7	0.6077065
80	0x3f2e9169	0.6819063
81	0xbf0eee8e	-0.55832756
82	0x3e5788db	0.210483
83	0x3f7fc645	0.9991191
84	0x3e5d7a61	0.21628715
85	0x3eb1fd8b	0.3476375
86	0x3f2a5705	0.6653903
87	0x3e3a9724	0.18221718
88	0xbbf8db80	-0.007594526
89	0x3eca5cdb	0.39523968
90	0x3e87282c	0.26397836
91	0xbf2c6a1c	-0.6734941
92	0xbec42b23	-0.3831416
93	0xbcba782d	-0.022762382
94	0x3e5775de	0.21041057
95	0x3fd5a953	1.6692299
96	0x3bbec136	0.0058213724
97	0x3e26ed4f	0.16301464
98	0xbee1f460	-0.44131756
99	0xbeb03345	-0.34414116
100	0xbf5dcb30	-0.86638165
101	0x3e09cfd5	0.13458188
102	0xbf559f1a	-0.83445895
103	0x3a815d13	0.0009869657
104	0xbe82ef49	-0.25573185
105	0xbfa52a2b	-1.2903494
106	0x3f03ece2	0.5153333
107	0xbf4fd7f2	-0.8118888
108	0xbd46739e	-0.048450105
109	0x3d81d1e7	0.06338864
110	0x3e862c30	0.26205587
111	0x3ec61377	0.38686725
112	0x3ef2c55b	0.47416195
113	0x3e9eee1d	0.3104104
114	0x3e9263d0	0.28591776
115	0x3f1462a3	0.5796301
116	0x3ef76e01	0.48326114
117	0x3f0bda80	0.5463028
118	0x3ee4c6ce	0.44682926
119	0x3f869500	1.0514221
120	0x3ed4d373	0.41567573
121	0x3f4f6d6c	0.8102634
122	0xbe006d9a	-0.1254181
123	0x3e726e5f	0.23674916
124	0xbe7c2071	-0.2462175
125	0xbe8a7196	-0.27039784
126	0xbecd50ac	-0.4010061
127	0x3fd266ab	1.6437582
128	0xbeb04acf	-0.34432074
129	0x3d9cd473	0.07657709
130	0x3f6dcef1	0.9289389
131	0xbd96ae69	-0.07357485
132	0x3f79ab51	0.97527033
133	0xbf819f71	-1.0126783
134	0x3f1a8309	0.60356194
135	0xbca7ea02	-0.020497326
136	0xbead4236	-0.33839577
137	0x3e756a2c	0.23966283
138	0xbf49b822	-0.7879659
139	0xbe332ff6	-0.17498764
140	0xbdb65913	-0.08903708
141	0x3d3d64a2	0.04623855
142	0xbe2261b6	-0.15857586
143	0x3efc06c2	0.49223906
144	0x3e90aaaa	0.28255206
145	0x3e336d7a	0.1752223
146	0xbf0d8638	-0.55282927
147	0x3b39b8d0	0.0028338917
148	0xbecd9ece	-0.4016022
149	0x3ec8c38c	0.3921169
150	0xbf285f8d	-0.657708
151	0xbe038089	-0.12842001
152	0xbd3d00ac	-0.04614322
153	0x3f8b3191	1.0874501
154	0x3e42ffe7	0.19042931
155	0x3ed1d63a	0.40983754
156	0xbf0bcb24	-0.54606843
157	0xbf2232d5	-0.63358814
158	0xbf6a6230	-0.9155607
159	0x3e854db5	0.26035848
160	0x3f424e05	0.759003
161	0x3eacd130	0.33753347
162	0xbd8737c5	-0.06602434
163	0x3f3a623b	0.7280614
164	0x3d05abb9	0.03263447
165	0x3ea641a5	0.32471958
166	0xbb6d3146	-0.00361927
167	0xbe9b254b	-0.3030189
168	0xbf18f6c1	-0.59751517
169	0xbdf92229	-0.12164719
170	0x3f280e25	0.6564658
171	0x3f0f6d0f	0.56025785
172	0xbf5b3f12	-0.8564311
173	0xbef7b00e	-0.48376507
174	0xbe2a615f	-0.16638707
175	0x3eaa8e7d	0.33311835
176	0xbed75c93	-0.42062816
177	0xbefa0911	-0.48835042
178	0x3f9f6c7a	1.245498
179	0x3e731017	0.23736607
180	0xbe93ffed	-0.28906193
181	0x3ede01c4	0.43360722
182	0xbf1dae94	-0.6159451
183	0x3ea51796	0.32244557
184	0xbe999b4c	-0.30001295
185	0xbf448a63	-0.7677366
186	0x3deaceee	0.1146525
187	0x3f09c0cc	0.5380981
188	0xbec93a27	-0.3930218
189	0x3ea01a32	0.31269985
190	0x3f15a06d	0.58447915
191	0xbdac140f	-0.084022634
192	0x3f020a68	0.5079713
193	0xbf25ca45	-0.64761764
194	0xbe78e2ee	-0.24305317
195	0xbe764899	-0.24051131
196	0xbec4c4da	-0.38431436
197	0x3ec1c588	0.37846017
198	0x3f1e4c41	0.61835104
199	0x3f7dd11b	0.99147195
200	0xbde8230d	-0.113348104
201	0xbc73ac97	-0.014872692
202	0xbf05dcf0	-0.5229025
203	0xbe2da2e0	-0.16956663
204	0x3da80292	0.08203615
205	0xbee27c87	-0.44235632
206	0x3f271afb	0.65275544
207	0x3ef3a60e	0.47587627
208	0xbf991f4b	-1.1962675
209	0x3dcae63b	0.09907194
210	0xbdf50745	-0.11964277
211	0xbdd3d607	-0.10343557
212	0xbe07a3d8	-0.13246095
213	0x3f1c8065	0.61133415
214	0xbf084829	-0.5323511
215	0x3d1a2dea	0.037641443
216	0xbf592f37	-0.8483767
217	0x3f4f4bd0	0.80975056
218	0xbe1ac0b7	-0.15112577
219	0xbeaf5f0e	-0.34252208
220	0xbe21cd37	-0.1580094
221	0xbdc771a6	-0.097384736
222	0x3f2001ff	0.62503046
223	0x3ecdc44e	0.4018883
224	0xbeac1b77	-0.33614704
225	0x3e1faa90	0.15592408
226	0x3e60b930	0.21945643
227	0xbd270742	-0.040778406
228	0xbeb8d8fc	-0.36103046
229	0xbd9853a6	-0.0743783
230	0xbe290eb0	-0.16509509
231	0x3e24487e	0.16043279
232	0x3d83ac11	0.064293034
233	0xbc67d164	-0.014149044
234	0x3e432450	0.19056821
235	0x3d39b1c8	0.04533556
236	0xbd1f1f58	-0.03884825
237	0x3f84cc16	1.0374782
238	0xbf4e2f95	-0.80541354
239	0xbe704607	-0.23464213
240	0x3e685149	0.22687258
241	0xbe887e39	-0.266588
242	0x3e1b59cd	0.15170975
243	0x3f2ab515	0.6668256
244	0x3e6a2f39	0.22869577
245	0xbf01cd2d	-0.507037
246	0x3e1c7999	0.15280761
247	0xbf130165	-0.57424
248	0xbe29cb07	-0.16581355
249	0xbf372de6	-0.7155441
250	0x3f59bd51	0.850545
251	0xbf2fecbc	-0.68720603
252	0x3dd4fab7	0.103993826
253	0x3f3a9887	0.7288899
254	0x3d80b520	0.06284547
255	0xbf21435b	-0.629934

decoder_net.0.bias f4 [512]
0	0x3efa099e	0.48835462
1	0x3ef17b51	0.47164395
2	0x3ef07f3c	0.46972072
3	0x3ef702e6	0.482444
4	0x3f0093db	0.5022561
5	0x3efbf561	0.49210647
6	0x3efefa4d	0.4980034
7	0x3f01d198	0.5071044
8	0x3ee10a57	0.439532
9	0x3ef5996c	0.47968614
10	0x3ef04c81	0.46933368
11	0x3ef5fda0	0.48045063
12	0x3ee45884	0.44598782
13	0x3efe6cf9	0.49692515
14	0x3ef83dd4	0.4848467
15	0x3eee97dd	0.46600237
16	0x3ef58a83	0.4795724
17	0x3ef81283	0.48451623
18	0x3eec4bc1	0.46151546
19	0x3ef9c5b8	0.4878366
20	0x3f02d27b	0.5110242
21	0x3f02661f	0.50937074
22	0x3ef32577	0.4748952
23	0x3ef70f47	0.48253843
24	0x3f01c699	0.5069366
25	0x3efba991	0.49152806
26	0x3f0073d8	0.50176764
27	0x3ed61cf9	0.4181898
28	0x3efe80c7	0.49707624
29	0x3f0054ef	0.501296
30	0x3f0c854f	0.5489091
31	0x3f01c444	0.506901
32	0x3f01cdb9	0.5070453
33	0x3f040809	0.5157476
34	0x3f009b6a	0.50237143
35	0x3eff0f85	0.49816528
36	0x3ef6a036	0.48169106
37	0x3ef5eab1	0.48030618
38	0x3f003c2f	0.5009183
39	0x3f01c641	0.50693136
40	0x3ed1b682	0.40959555
41	0x3ef9add3	0.4876543
42	0x3ef4b4ef	0.4779429
43	0x3eef2844	0.46710408
44	0x3ef5d792	0.4801603
45	0x3eeca593	0.46220073
46	0x3eff0371	0.49807313
47	0x3f1371aa	0.5759531
48	0x3f06621a	0.5249344
49	0x3f02ad49	0.5104566
50	0x3f02c0d7	0.510755
51	0x3efc508d	0.49280205
52	0x3ef76b1b	0.48323902
53	0x3ef4131c	0.4767083
54	0x3f0366dd	0.5132883
55	0x3f0434a9	0.51642853
56	0x3f02d247	0.5110211
57	0x3f06848c	0.52546
58	0x3f021149	0.50807625
59	0x3f0875e7	0.53304905
60	0x3edca144	0.43091786
61	0x3ef6cb22	0.48201853
62	0x3ef59184	0.47962582
63	0x3f07d36f	0.53057
64	0x3ef5a5c9	0.47978047
65	0x3ef4021c	0.4765786
66	0x3efde438	0.4958818
67	0x3efce6d8	0.4939487
68	0x3ef7e66a	0.4841798
69	0x3efe79c9	0.4970229
70	0x3efaef1d	0.49010554
71	0x3ef062a4	0.46950257
72	0x3ef0e77a	0.47051603
73	0x3ee6185e	0.44940466
74	0x3f0104f2	0.5039817
75	0x3f03998b	0.5140616
76	0x3eeb579b	0.45965275
77	0x3ef41dbb	0.47678933
78	0x3ee2ac16	0.44271916
79	0x3ef24126	0.4731533
80	0x3f004555	0.5010579
81	0x3ef21580	0.47282028
82	0x3ef8f747	0.48626158
83	0x3f00e89b	0.5035493
84	0x3f01fa32	0.5077239
85	0x3eefed99	0.4686096
86	0x3f00acfb	0.5026395
87	0x3eebf877	0.46088
88	0x3ef72fc9	0.48278645
89	0x3ef09293	0.46986827
90	0x3f06f7f3	0.5272209
91	0x3f029074	0.5100167
92	0x3edd7383	0.4325219
93	0x3f0004c8	0.50007296
94	0x3eeb6968	0.45978856
95	0x3ef5eb71	0.4803119
96	0x3efb6899	0.4910324
97	0x3ef8eefa	0.48619825
98	0x3f02e6d6	0.5113348
99	0x3ef5c983	0.48005304
100	0x3eeedcb6	0.46652764
101	0x3ef1ca3d	0.47224608
102	0x3f014824	0.505007
103	0x3f02989c	0.51014113
104	0x3ef773b5	0.48330465
105	0x3efafa30	0.49019003
106	0x3efcd1cc	0.49378812
107	0x3f03b149	0.5144239
108	0x3ef08c99	0.46982267
109	0x3f0312a0	0.51200294
110	0x3ef56b56	0.47933453
111	0x3efc3974	0.49262583
112	0x3eda8ee5	0.42687145
113	0x3ef3663f	0.47538945
114	0x3f020955	0.5079549
115	0x3eeee4a3	0.4665881
116	0x3ef8ab17	0.4856803
117	0x3f073f25	0.52830726
118	0x3f0290f2	0.5100242
119	0x3eee625b	0.46559414
120	0x3ef602e0	0.48049068
121	0x3efeee40	0.49791145
122	0x3ef137fb	0.47113022
123	0x3ef70584	0.48246396
124	0x3edb5cd5	0.42844263
125	0x3efb846b	0.49124464
126	0x3ef74aae	0.48299164
127	0x3f048476	0.5176462
128	0x3f015ec5	0.5053523
129	0x3efef114	0.49793303
130	0x3ef79f40	0.48363686
131	0x3ef09ee2	0.46996218
132	0x3eea7883	0.45795068
133	0x3eef380d	0.4672245
134	0x3ef7bd78	0.4838674
135	0x3eefef06	0.46862048
136	0x3f02648f	0.5093469
137	0x3ef939b1	0.48676828
138	0x3efaea3c	0.49006832
139	0x3eef6f80	0.46764755
140	0x3ef8f24b	0.48622355
141	0x3ef4afbf	0.47790334
142	0x3f018328	0.50590754
143	0x3ede0566	0.43363494
144	0x3ef364cf	0.47537848
145	0x3f00f04e	0.50366676
146	0x3eeb2f29	0.45934418
147	0x3f041cd4	0.5160649
148	0x3ef2a823	0.47393903
149	0x3efab5db	0.4896687
150	0x3ee88ab6	0.45418328
151	0x3f0493ff	0.51788324
152	0x3f00fb0d	0.50383073
153	0x3efe9321	0.49721625
154	0x3ef04d40	0.46933937
155	0x3efc5e24	0.49290574
156	0x3f0141a7	0.504908
157	0x3eeb2bae	0.45931762
158	0x3ef85b10	0.48506975
159	0x3f091a19	0.53555447
160	0x3f0088b3	0.50208586
161	0x3efce7f4	0.49395716
162	0x3ef2a006	0.47387713
163	0x3efaf472	0.49014622
164	0x3efdda12	0.49580437
165	0x3ef34116	0.47510594
166	0x3f01cb2c	0.5070064
167	0x3f00bc70	0.5028753
168	0x3f005c04	0.50140405
169	0x3ef8287c	0.48468387
170	0x3ede7586	0.43449038
171	0x3ef66637	0.4812486
172	0x3efb5a71	0.4909244
173	0x3effe433	0.4997879
174	0x3f0a0ffb	0.53930634
175	0x3ef326a6	0.47490424
176	0x3edec380	0.4350853
177	0x3ee23a82	0.44185263
178	0x3f00288e	0.5006188
179	0x3edde3e9	0.43337944
180	0x3f0163f4	0.5054314
181	0x3efa979a	0.48943788
182	0x3ef8e30a	0.48610717
183	0x3ef88a2d	0.4854292
184	0x3f000fa6	0.5002388
185	0x3f013e05	0.5048526
186	0x3ecfdc3c	0.40597713
187	0x3efba6a5	0.49150577
188	0x3efb9a30	0.49141073
189	0x3ef337dd	0.47503558
190	0x3efcc56e	0.49369377
191	0x3efce36f	0.49392268
192	0x3ef106df	0.47075555
193	0x3ee9a986	0.4563715
194	0x3f01b69f	0.5066928
195	0x3f0543cf	0.5205659
196	0x3ee8a17a	0.45435697
197	0x3ef84d9d	0.48496714
198	0x3ef20181	0.47266772
199	0x3ed91c21	0.42404273
200	0x3ef849e1	0.48493865
201	0x3efbe816	0.49200505
202	0x3f002a3e	0.50064456
203	0x3f00bfbc	0.50292563
204	0x3efea0df	0.4973211
205	0x3f016802	0.5054933
206	0x3f016bbc	0.50555015
207	0x3ee961dd	0.45582476
208	0x3f036793	0.51329917
209	0x3f0a2261	0.5395871
210	0x3ef48cc9	0.4776366
211	0x3ef1d3aa	0.472318
212	0x3f05f999	0.5233398
213	0x3ef64c2c	0.4810499
214	0x3f15a134	0.584491
215	0x3efd3720	0.4945612
216	0x3f02be18	0.5107131
217	0x3f00b56a	0.50276816
218	0x3eec488e	0.46149105
219	0x3ef59aba	0.4796961
220	0x3f00b2a6	0.50272596
221	0x3ef567a5	0.47930637
222	0x3ef82b21	0.48470405
223	0x3f045f9c	0.5170839
224	0x3f002e52	0.5007068
225	0x3efce7a4	0.49395478
226	0x3f00728c	0.50174785
227	0x3eeb64a8	0.45975232
228	0x3ef6c09d	0.48193827
229	0x3f032ad9	0.51237255
230	0x3ef1273f	0.47100255
231	0x3eee5067	0.46545717
232	0x3eea1541	0.4571934
233	0x3f00656d	0.50154763
234	0x3eed071b	0.46294484
235	0x3ee6dc8d	0.45090142
236	0x3efc22fd	0.49245444
237	0x3eebe71b	0.46074757
238	0x3f0290b9	0.5100208
239	0x3efacc4d	0.48983994
240	0x3f00765a	0.5018059
241	0x3ef41bad	0.47677365
242	0x3efac2d7	0.48976776
243	0x3efe120d	0.49623147
244	0x3ef875d1	0.48527387
245	0x3ef8d576	0.48600358
246	0x3eebbb37	0.4604127
247	0x3f0141cd	0.5049103
248	0x3ef75a3d	0.48311034
249	0x3eefe75f	0.4685621
250	0x3efb0e6b	0.49034438
251	0x3ef84c0a	0.48495513
252	0x3efbe38e	0.49197048
253	0x3ee3aa4b	0.4446586
254	0x3f073952	0.5282184
255	0x3efec1f3	0.49757347

decoder_net.2.weight f4 [512]
0	0x3f6c95af	0.924159
1	0x3f766b8f	0.9625787
2	0x3f754626	0.95810163
3	0x3f71bbb3	0.9442703
4	0x3f7d95a2	0.99056447
5	0x3f777e7d	0.9667738
6	0x3f836b0c	1.0267043
7	0x3f7d459c	0.9893434
8	0x3f7abd84	0.9794543
9	0x3f6f1b67	0.9340119
10	0x3f74519e	0.9543704
11	0x3f768803	0.9630129
12	0x3f707256	0.9392446
13	0x3f7811cb	0.9690215
14	0x3f70822a	0.93948615
15	0x3f7539f2	0.9579154
16	0x3f828151	1.0195714
17	0x3f7957d3	0.97399634
18	0x3f77663e	0.96640384
19	0x3f81d618	1.0143461
20	0x3f669923	0.9007742
21	0x3f780130	0.9687681
22	0x3f746e3e	0.95480716
23	0x3f7abc08	0.9794316
24	0x3f7d59cc	0.98965144
25	0x3f811f5b	1.0087694
26	0x3f7af5cb	0.980313
27	0x3f7a98eb	0.97889584
28	0x3f777999	0.9666992
29	0x3f7d4e0b	0.9894721
30	0x3f8567ea	1.0422337
31	0x3f7ecd2a	0.99531806
32	0x3f7e5c66	0.9935974
33	0x3f820581	1.015793
34	0x3f6f814c	0.93556666
35	0x3f75de7f	0.9604263
36	0x3f7a0765	0.97667533
37	0x3f776c38	0.96649504
38	0x3f79c4a7	0.9756569
39	0x3f7db858	0.9910941
40	0x3f79452c	0.9737117
41	0x3f77511a	0.96608126
42	0x3f77cdc5	0.96798354
43	0x3f6f5049	0.9348188
44	0x3f76701d	0.9626482
45	0x3f76b90e	0.9637612
46	0x3f7fa871	0.99866396
47	0x3f7fe1ee	0.99954116
48	0x3f7f0ae3	0.99625987
49	0x3f6d7579	0.92757374
50	0x3f715898	0.9427581
51	0x3f795e56	0.9740957
52	0x3f7d2920	0.98890877
53	0x3f7bd9b7	0.9837908
54	0x3f802e19	1.0014068
55	0x3f7c688f	0.98597044
56	0x3f6dbf97	0.9287047
57	0x3f73ed3c	0.95283866
58	0x3f7989cc	0.97475886
59	0x3f8254ac	1.018209
60	0x3f6f9385	0.9358447
61	0x3f7d0be6	0.9884628
62	0x3f7aa2e9	0.9790483
63	0x3f761f47	0.96141475
64	0x3f75a126	0.9594902
65	0x3f7b762c	0.9822719
66	0x3f76fa55	0.96475726
67	0x3f718b2f	0.94353
68	0x3f7ffa24	0.9999106
69	0x3f78617e	0.9702376
70	0x3f804f83	1.0024265
71	0x3f785ea9	0.9701944
72	0x3f7d1997	0.9886717
73	0x3f7e71d2	0.99392426
74	0x3f72fffa	0.9492184
75	0x3f815f49	1.0107204
76	0x3f764d9f	0.9621219
77	0x3f70be74	0.9404061
78	0x3f7f032c	0.99614215
79	0x3f70a34a	0.9399916
80	0x3f7c1d9a	0.9848267
81	0x3f7b354f	0.9812822
82	0x3f796b82	0.9742967
83	0x3f7ad7b8	0.9798541
84	0x3f7722e8	0.9653764
85	0x3f8189dc	1.0120196
86	0x3f76abd6	0.9635595
87	0x3f7c3558	0.98518896
88	0x3f7c8fd0	0.9865694
89	0x3f778fc0	0.9670372
90	0x3f824675	1.0177752
91	0x3f7e4866	0.9932922
92	0x3f79cd9e	0.9757937
93	0x3f813bc9	1.009637
94	0x3f719903	0.943741
95	0x3f787cb2	0.9706527
96	0x3f730484	0.94928765
97	0x3f79de88	0.9760518
98	0x3f7bd011	0.9836436
99	0x3f774366	0.96587217
100	0x3f7a3daa	0.9775034
101	0x3f8063b3	1.0030426
102	0x3f769795	0.96325046
103	0x3f7a2821	0.9771748
104	0x3f7c1241	0.98465353
105	0x3f78da75	0.9720834
106	0x3f7b716f	0.9821996
107	0x3f77a42e	0.96734893
108	0x3f76fc95	0.9647916
109	0x3f7674ad	0.96271783
110	0x3f7e61a6	0.9936775
111	0x3f79aa83	0.97525805
112	0x3f80d132	1.0063841
113	0x3f7d59dd	0.98965245
114	0x3f788095	0.970712
115	0x3f820c01	1.0159913
116	0x3f7ec02e	0.9951199
117	0x3f836882	1.0266268
118	0x3f7eb21c	0.99490523
119	0x3f7934ea	0.97346365
120	0x3f7974e3	0.9744398
121	0x3f7be3b3	0.98394316
122	0x3f7cde68	0.98776865
123	0x3f74ed80	0.95674896
124	0x3f71992e	0.9437436
125	0x3f787168	0.97048044
126	0x3f7f0086	0.99610174
127	0x3f820375	1.0157305
128	0x3f76bc5c	0.96381164
129	0x3f7c4f7a	0.9855877
130	0x3f7eefde	0.9958476
131	0x3f7748c3	0.965954
132	0x3f7df9d8	0.99209356
133	0x3f793cfa	0.9735867
134	0x3f78accc	0.9713867
135	0x3f7ecf43	0.99535006
136	0x3f749d87	0.9555287
137	0x3f7979cb	0.97451466
138	0x3f76e600	0.964447
139	0x3f72645a	0.94684374
140	0x3f7ac147	0.9795117
141	0x3f6f9016	0.9357923
142	0x3f72d14c	0.9485061
143	0x3f79d02a	0.9758326
144	0x3f7d1d89	0.9887319
145	0x3f702607	0.93808025
146	0x3f7dc062	0.9912168
147	0x3f7e5ccd	0.9936035
148	0x3f7577ed	0.9588612
149	0x3f7f7c88	0.99799395
150	0x3f7a7cfe	0.9784697
151	0x3f7f1353	0.9963886
152	0x3f7c25c8	0.9849515
153	0x3f6ea6e5	0.9322341
154	0x3f7c5faa	0.9858347
155	0x3f75141b	0.95733804
156	0x3f794b0d	0.97380143
157	0x3f832444	1.0245442
158	0x3f738065	0.9511779
159	0x3f8329a6	1.0247085
160	0x3f752578	0.957603
161	0x3f7bb227	0.98318714
162	0x3f75ffc8	0.96093416
163	0x3f78dfed	0.97216684
164	0x3f77a3ea	0.9673449
165	0x3f7d8f08	0.99046373
166	0x3f78f9f8	0.9725642
167	0x3f7e96f1	0.9944907
168	0x3f7bf031	0.9841338
169	0x3f7f5358	0.9973655
170	0x3f6fae56	0.9362539
171	0x3f7f6d90	0.99776554
172	0x3f72eff7	0.9489741
173	0x3f72be6b	0.94821805
174	0x3f77726b	0.9665896
175	0x3f6b8714	0.9200299
176	0x3f78cab5	0.97184306
177	0x3f7ce9ab	0.9879405
178	0x3f74604c	0.9545944
179	0x3f80952c	1.0045524
180	0x3f7d338c	0.9890678
181	0x3f80832a	1.0040028
182	0x3f7edd97	0.9955687
183	0x3f7ac392	0.97954667
184	0x3f775a0e	0.9662179
185	0x3f80aa4e	1.0051973
186	0x3f7f1186	0.99636114
187	0x3f78b4d9	0.9715095
188	0x3f6d857c	0.92781806
189	0x3f776f8e	0.96654594
190	0x3f79137d	0.9729536
191	0x3f781e8c	0.9692161
192	0x3f78b29b	0.9714753
193	0x3f753714	0.9578717
194	0x3f80b9dc	1.005672
195	0x3f754f83	0.9582445
196	0x3f6d0002	0.92578137
197	0x3f7887a1	0.97081953
198	0x3f7f344a	0.9968916
199	0x3f776fc1	0.966549
200	0x3f766364	0.9624541
201	0x3f771b46	0.9652599
202	0x3f7f6404	0.99761987
203	0x3f6ed804	0.93298364
204	0x3f78d71d	0.97203237
205	0x3f6ed01d	0.93286306
206	0x3f7f23d1	0.99664026
207	0x3f70cbd4	0.9406102
208	0x3f75ea1a	0.96060336
209	0x3f75e21d	0.96048146
210	0x3f7749ab	0.96596783
211	0x3f784d56	0.96993005
212	0x3f69d677	0.9134287
213	0x3f781e2d	0.96921045
214	0x3f800eac	1.0004478
215	0x3f830450	1.0235691
216	0x3f7ae0ae	0.97999084
217	0x3f7d06ae	0.9883832
218	0x3f6e293a	0.93031657
219	0x3f7f980f	0.998414
220	0x3f76dbe4	0.96429276
221	0x3f7d0c42	0.9884683
222	0x3f82f9a2	1.0232432
223	0x3f761571	0.96126467
224	0x3f74642f	0.9546537
225	0x3f78b0e1	0.97144896
226	0x3f7d2c76	0.98895967
227	0x3f7a0679	0.97666126
228	0x3f72ad70	0.94795895
229	0x3f810976	1.0081012
230	0x3f7589e9	0.9591356
231	0x3f80079f	1.0002326
232	0x3f7ca3b3	0.98687285
233	0x3f719e75	0.9438241
234	0x3f744ec8	0.9543271
235	0x3f78542f	0.97003454
236	0x3f7d66d9	0.9898506
237	0x3f82dabe	1.0223005
238	0x3f72478e	0.94640434
239	0x3f6948d0	0.9112673
240	0x3f799466	0.97492063
241	0x3f77282a	0.9654566
242	0x3f7f43b1	0.99712664
243	0x3f7b8a6a	0.9825808
244	0x3f7a9a91	0.978921
245	0x3f6c3df5	0.9228204
246	0x3f7d83f6	0.9902948
247	0x3f7a1a76	0.97696626
248	0x3f788297	0.97074264
249	0x3f762e63	0.9616453
250	0x3f8145eb	1.0099462
251	0x3f79d1c3	0.97585696
252	0x3f773d67	0.9657807
253	0x3f7925fb	0.9732358
254	0x3f7c3f6d	0.9853428
255	0x3f829628	1.0202074

decoder_net.2.bias f4 [512]
0	0x3b67e85d	0.0035386302
1	0xbc6c1dee	-0.014411433
2	0xbcaadcfa	-0.020857323
3	0xbc35eb95	-0.01110353
4	0x3c795140	0.015217125
5	0xbbcb9e4c	-0.006213939
6	0xbd46a7f4	-0.048500016
7	0x3cd6f3c5	0.026239285
8	0xbb86d312	-0.004114517
9	0x3cf1e608	0.029528633
10	0xbcb26d08	-0.021780506
11	0x3b159500	0.0022824407
12	0x3aba5e98	0.0014218865
13	0x3c5a789e	0.013334421
14	0x3b2e8e61	0.0026635157
15	0x3c0c9061	0.0085793445
16	0x3c0826d3	0.008310038
17	0xbc49817e	-0.01229894
18	0xbca6a35b	-0.020341566
19	0xbc3ecfe4	-0.011646245
20	0x3cce62c1	0.025193574
21	0x3cadd704	0.021220692
22	0xbc8acb32	-0.016942594
23	0xbbaa73ce	-0.0052017933
24	0x3c9f813d	0.019470805
25	0x3c23ec2d	0.010005039
26	0x3c193f8a	0.009353528
27	0xbb40d219	-0.0029422103
28	0x3bd2ed75	0.0064369985
29	0x3c58e60a	0.013238439
30	0x3d787ad4	0.060664013
31	0x3c91cf72	0.017799113
32	0x3ca91b57	0.02064292
33	0x3cb4af6f	0.02205631
34	0x3c28b911	0.0102980295
35	0x3bd249a7	0.0064174714
36	0xbb8d972e	-0.0043210005
37	0x3c2bd694	0.010488171
38	0xbc3f88fb	-0.0116903735
39	0x3c641a0a	0.013922224
40	0x3b74e3b5	0.003736717
41	0x3c84aa1f	0.016194401
42	0xbbb7250a	-0.005589132
43	0xbc94fb8f	-0.018186359
44	0xbc309b17	-0.010779164
45	0x3c601220	0.013676196
46	0xbc530475	-0.012879481
47	0xbcda3ca4	-0.026640244
48	0x3c92e04a	0.017929215
49	0x3cdcc7a8	0.026950672
50	0x3cbb780e	0.022884395
51	0x3b8ce2a4	0.0042994786
52	0xbbfc8005	-0.007705691
53	0xbc08ad21	-0.008342058
54	0x3cd4bc12	0.025968585
55	0x3bffb617	0.007803689
56	0x3a52df10	0.0008044103
57	0x3c865af6	0.016400795
58	0x3cbace98	0.02280359
59	0x3d50b12c	0.050950214
60	0x3cdc5b98	0.026899144
61	0xbc700ae0	-0.01465103
62	0xbc04124c	-0.008061003
63	0x3c031c53	0.0080023585
64	0xbabb3354	-0.0014282265
65	0xbbb5866e	-0.005539707
66	0x3c842285	0.016129741
67	0xbbf8247c	-0.0075727087
68	0xbc963ce5	-0.018339584
69	0x3bffbf67	0.0078047994
70	0xbc78efdc	-0.015193906
71	0xbcb5cb61	-0.022191705
72	0xbc352dda	-0.011058295
73	0xbc8e1631	-0.017344566
74	0x3c70e186	0.0147022065
75	0x3cc7078e	0.024295595
76	0xbc3bdb9e	-0.011465935
77	0xbb22c03c	-0.002483382
78	0xbc9d00b4	-0.019165374
79	0xbb6fc3d7	-0.0036585236
80	0x3c4b0ae6	0.012392735
81	0x3b8f8f38	0.0043810867
82	0xbbd09150	-0.006364979
83	0x3bfaba93	0.007651636
84	0xbc1fe2da	-0.0097586755
85	0xbd1edebc	-0.038786635
86	0x3c8173fa	0.015802372
87	0x3a271721	0.0006373991
88	0xbc3b2ad4	-0.011423785
89	0x3b1b175e	0.002366505
90	0x3cde5c66	0.027143668
91	0x3cb0d7b1	0.021587225
92	0xbc2f543e	-0.010701237
93	0x3c38cdda	0.011279548
94	0x3c08bb18	0.008345388
95	0xbc084491	-0.008317129
96	0x3beb3223	0.0071776076
97	0x3c2bd674	0.010488141
98	0x3c006a30	0.007837817
99	0xbc19d840	-0.009389937
100	0xbc3ac67b	-0.0113998605
101	0xbca1b0bb	-0.019737592
102	0x3c7d6f2a	0.015468398
103	0x3c117322	0.008877547
104	0xb925afcb	-0.00015801114
105	0x3cdd0862	0.026981536
106	0x3bea67e0	0.007153496
107	0x3c20ebf7	0.009821883
108	0x3c805787	0.015666736
109	0x3c4de7e4	0.012567494
110	0xbcb93515	-0.02260832
111	0x3c2056ef	0.009786352
112	0xbcce76a0	-0.02520305
113	0xbc884939	-0.016636478
114	0x3c24397a	0.010023469
115	0xbc654dbf	-0.013995587
116	0xbbf917bc	-0.0076017063
117	0x3cf36613	0.029711759
118	0x3c8cd1eb	0.01718994
119	0x3aac4f29	0.001314615
120	0xbc750262	-0.014954181
121	0x3b0c5a53	0.0021416142
122	0xbc82ad30	-0.015951723
123	0x39400e48	0.00018315867
124	0xbd224c0e	-0.039623313
125	0x3b1ef46d	0.0024254576
126	0xbc899796	-0.016795915
127	0x3a9dfcad	0.0012053453
128	0x3ca94a73	0.020665383
129	0x3bd469a8	0.006482322
130	0xbc37dfad	-0.011222762
131	0xbbf84022	-0.0075760046
132	0xbbc93806	-0.0061407117
133	0xbbc8b98c	-0.0061256345
134	0xbbcd3961	-0.0062629436
135	0xbc47904d	-0.0121804
136	0x3b3e1bea	0.0029008337
137	0xbc208efd	-0.009799716
138	0xbc39590a	-0.0113127325
139	0xbbcdccde	-0.0062805256
140	0xbc522fba	-0.012828762
141	0xbbefa5bc	-0.0073134582
142	0x3ca3adb4	0.019980289
143	0xbd4b7339	-0.04967043
144	0xbc67ee8b	-0.014155994
145	0x3a32d83a	0.00068223814
146	0xbcb54c66	-0.022131156
147	0x3c01bae4	0.007918093
148	0xbc8163ad	-0.0157946
149	0xbad28a7d	-0.0016063001
150	0xbc6dde7f	-0.014518379
151	0xbbbf2af4	-0.005833978
152	0x3cc26f57	0.023734732
153	0xba9361a4	-0.0011244309
154	0xbc0d2359	-0.008614385
155	0x3aa4596d	0.0012538858
156	0x3bd172d5	0.006391863
157	0xbce3c209	-0.027802484
158	0xbc8391af	-0.016060678
159	0x3d31d719	0.043418024
160	0x3c3ceb30	0.011530682
161	0x3b912cdf	0.004430398
162	0xbc82d8b5	-0.015972475
163	0x35d031dc	1.5511719e-06
164	0x3bae0dc7	0.005311701
165	0xbbc0535a	-0.0058693113
166	0x3bf61227	0.007509488
167	0xbc584dba	-0.013202125
168	0x3c859cfd	0.01631021
169	0xbba66814	-0.005078325
170	0xbcbf1e76	-0.023329955
171	0xbc26e30e	-0.01018597
172	0x3be15569	0.0068766368
173	0x3cb544aa	0.022127468
174	0x3ca30443	0.019899493
175	0xbc847442	-0.016168717
176	0xbcacf52c	-0.021113
177	0xbc26635b	-0.010155524
178	0x3c4fec04	0.012690548
179	0xbcbd1c58	-0.023084804
180	0x3caa1d4a	0.02076592
181	0x3ba6e332	0.0050930018
182	0xbc68905e	-0.014194576
183	0xbc092ae2	-0.00837204
184	0x3c53cc6b	0.012927155
185	0x3c84cf79	0.016212212
186	0xbcea1eca	-0.028579134
187	0xbbb6afb5	-0.005575145
188	0x3c27a50b	0.01023222
189	0xbbbcff7c	-0.005767761
190	0xbbb7719b	-0.0055982596
191	0x3c70409a	0.01466384
192	0x3a0f77c3	0.0005472863
193	0x39642fd3	0.0002176159
194	0x3c259b05	0.01010776
195	0x3c3ecd41	0.011645616
196	0x3c692c64	0.014231775
197	0xbc05f69a	-0.00817647
198	0xbca44ec6	-0.020057093
199	0xbcfcb8a2	-0.030849759
200	0x3c8ce92b	0.017201027
201	0x3c29e68d	0.010369909
202	0xbc88d208	-0.016701713
203	0x3c9c4184	0.019074209
204	0x3bf6dffb	0.007534025
205	0x3acc59c6	0.0015590719
206	0xbc9016b1	-0.017588945
207	0xbca69645	-0.020335326
208	0x3c0c65a8	0.008569159
209	0x3ca1681f	0.01970297
210	0xbc8e9a3f	-0.017407535
211	0xbc9d7f66	-0.019225787
212	0x3d208db9	0.039197657
213	0xbc132283	-0.008980396
214	0xbcc1f91e	-0.023678359
215	0x3bd3ef50	0.0064677373
216	0x3c5680e2	0.0130922515
217	0x3c71dfb0	0.014762804
218	0xbc54a726	-0.012979304
219	0xbce08de5	-0.02741141
220	0x3c97e8d8	0.018543646
221	0xbc6c0781	-0.014406086
222	0x3c89ca65	0.016820142
223	0x3d00c7c4	0.03144051
224	0x3b3ba534	0.0028632404
225	0x3c05c1fc	0.008163925
226	0x3c43d72a	0.011953155
227	0xbce7edf0	-0.0283117
228	0x3b44b26d	0.0030013577
229	0x3cd1ca05	0.025609026
230	0xbc449a5f	-0.011999696
231	0xbcee9728	-0.029124811
232	0xbc13e0e3	-0.009025785
233	0x3c7d7a4b	0.015471051
234	0x3bad9711	0.0052975495
235	0xbbb9675f	-0.0056580747
236	0xbbd88b8b	-0.0066084317
237	0xbca086e8	-0.019595578
238	0x3ca8785f	0.02056521
239	0xbba03394	-0.004888961
240	0x3c026867	0.007959462
241	0xbc432f56	-0.011913141
242	0xbc1390d1	-0.009006695
243	0x3c03c936	0.008043578
244	0xbaee92c0	-0.0018201694
245	0x3b1f4cde	0.002430729
246	0xbc36fed9	-0.011169159
247	0x3bdb5c39	0.0066943434
248	0x39229a18	0.00015506928
249	0x3c6ebaf3	0.014570939
250	0x3bd747f9	0.006569859
251	0xbc2556c5	-0.010091488
252	0xb9cdbda8	-0.00039241952
253	0x3b9d70e9	0.0048047197
254	0x3c28c11a	0.010299945
255	0x3cafc7e4	0.02145762

decoder_net.3.weight f4 [256, 512]
0	0x3d5a2654	0.05325921
1	0x3e8fb074	0.2806431
2	0x3f0604f6	0.5235132
3	0x3eb08dfc	0.34483325
4	0xbf28e8b7	-0.65980095
5	0xbdaca865	-0.08430556
6	0x3e98a145	0.2981054
7	0x3eca129a	0.39467317
8	0xbe9cbe42	-0.30613905
9	0xbf05415a	-0.52052844
10	0x3e419e80	0.18908119
11	0x3e6e0006	0.23242196
12	0x3eece4b4	0.46268237
13	0x3f6df49b	0.92951363
14	0xbf1e50c7	-0.61842006
15	0xbcb7e41b	-0.022447636
16	0x3f5eecd2	0.8708011
17	0xbee07106	-0.4383623
18	0x3e735503	0.23762898
19	0xbb2975eb	-0.0025857638
20	0x3e8c6bae	0.27425903
21	0x3e0af8d5	0.13571484
22	0xbea35843	-0.31903276
23	0xbe8bf579	-0.27335718
24	0xbe9b725d	-0.3036069
25	0x3d753328	0.05986324
26	0x3eba1210	0.36341906
27	0x3e94837a	0.2900656
28	0x3ee1095a	0.43952447
29	0x3ca4c46a	0.020113189
30	0x3d805b0c	0.06267366
31	0x3f010d34	0.5041077
32	0xbf99bdb9	-1.2011024
33	0xbec3e11f	-0.3825769
34	0xbf5f7d05	-0.8730014
35	0xbea9a48e	-0.33133358
36	0xbe2b1e91	-0.16710879
37	0x3e97d4d6	0.29654568
38	0xbf463661	-0.77426726
39	0xbe8ecc32	-0.27890164
40	0xbf8e1ffa	-1.1103508
41	0x3f385128	0.71998835
42	0x3ed7d20d	0.42152444
43	0xbeda6ac7	-0.4265959
44	0x3f2d8977	0.6778788
45	0xbd59a3b1	-0.053134624
46	0xbdd7d2be	-0.10538243
47	0xbd96f15d	-0.07370255
48	0x3f49f585	0.7889026
49	0xbe9d64bc	-0.30740917
50	0xbd19e43c	-0.037571177
51	0xbf395386	-0.7239307
52	0xbec8051e	-0.39066404
53	0x3f62a539	0.8853336
54	0xbe9e649a	-0.30936128
55	0x3f7c09ea	0.9845263
56	0xbe8879c2	-0.26655394
57	0xbf4becfb	-0.7965848
58	0xbf0dd551	-0.5540362
59	0x3d4194b8	0.04726097
60	0xbd7fc064	-0.062439337
61	0xbe2ecece	-0.17071077
62	0x3f0a4d69	0.5402437
63	0xbe3bfd55	-0.18358357
64	0x3ed788ab	0.42096457
65	0xbea5bee7	-0.3237221
66	0x3e7a509d	0.24444814
67	0x3f8b1290	1.086504
68	0xbf52a751	-0.82286555
69	0x3f7b9456	0.9827322
70	0xbcb2b721	-0.021815838
71	0xbf9d8d8f	-1.2308825
72	0x3f8b4c7f	1.088272
73	0x3ee7aef7	0.45250675
74	0xbfa1e17a	-1.2646935
75	0xbe7d3d81	-0.24730493
76	0x3f291472	0.6604682
77	0xbe51d85b	-0.2049269
78	0xbf236ac7	-0.63834804
79	0xbda02394	-0.07819286
80	0xbc64b1dc	-0.013958421
81	0xbd8ab7b1	-0.067733176
82	0xbde65a60	-0.112477064
83	0xbc22cb23	-0.009936127
84	0xbe9f6d9e	-0.3113832
85	0xbec28949	-0.37995365
86	0x3e9bf6e5	0.30461803
87	0x3f6ca6c8	0.9244199
88	0xbdfd63ac	-0.123725265
89	0xbda90cf4	-0.08254424
90	0x3f0937fb	0.53601044
91	0xbf0c3242	-0.5476419
92	0x3e43d93e	0.1912584
93	0xbf034a6c	-0.51285434
94	0xbf849392	-1.0357535
95	0xbf17f796	-0.5936216
96	0xbefacd42	-0.48984724
97	0x3f6d184f	0.92615217
98	0x3e804a93	0.25056896
99	0x3c20038a	0.009766469
100	0x3eba68dc	0.36408126
101	0xbf83bb92	-1.0291617
102	0x3e1047d6	0.14089903
103	0xbe541b8a	-0.2071363
104	0xbeda533a	-0.42641622
105	0xbe5b0ca5	-0.21391542
106	0x3f399e95	0.725076
107	0xbeaa329b	-0.33241734
108	0x3e0486f1	0.12942101
109	0xbf3990fb	-0.7248685
110	0x3eac6534	0.33670962
111	0xbe28161d	-0.16414686
112	0x3eacb501	0.33731845
113	0x3eadcac9	0.33943775
114	0x3ebe5d15	0.3718039
115	0x3e434a97	0.19071423
116	0x3ea3edc8	0.3201735
117	0x3eedf946	0.46479243
118	0xbf0397c7	-0.5140347
119	0x3e5b0943	0.21390252
120	0x3e3e0dc8	0.18559945
121	0x3a1a24fa	0.0005880144
122	0xbf3681fe	-0.712921
123	0x3eaa5d21	0.33274177
124	0x3e943790	0.2894864
125	0xbe544604	-0.20729834
126	0xbe92d627	-0.2867901
127	0x3e0d2c58	0.13786447
128	0x3ed3e87c	0.4138831
129	0xbd88c902	-0.06678964
130	0xbe9e7dc5	-0.3095533
131	0xbe84dade	-0.25948232
132	0xbe2a2915	-0.16617234
133	0xbd800825	-0.062515534
134	0x3eb1409b	0.34619603
135	0xbde2a876	-0.110672876
136	0xbee00583	-0.43754205
137	0xbe5fde2d	-0.21862097
138	0x3e4b84b3	0.1987484
139	0x3ec4b059	0.38415793
140	0x3ec962b3	0.39333114
141	0x3f54ace8	0.83076334
142	0x3f16c3cf	0.5889253
143	0x3f4acb78	0.7921672
144	0xbd34b4d5	-0.044117767
145	0x3f62cbe0	0.8859234
146	0x3ef098b4	0.46991503
147	0x3f07a81b	0.52990884
148	0x3f5ab18e	0.85427177
149	0x3ca573cf	0.020196823
150	0x3ef8cc64	0.48593438
151	0xbfcfb152	-1.6225989
152	0xbef8e271	-0.4861026
153	0xbec596ab	-0.38591513
154	0xbe2a7d1f	-0.16649292
155	0x3ec38438	0.38186812
156	0xbd622cbf	-0.055218454
157	0x3ef688ff	0.48151395
158	0x3f1a3562	0.60237706
159	0x3d79493d	0.06086086
160	0xbf6e2a5b	-0.9303338
161	0xbe4f094e	-0.20218393
162	0x3ee26163	0.44214925
163	0xbe70ad95	-0.23503716
164	0x3d2d1537	0.04225656
165	0x3ecc2b46	0.39876765
166	0x3f621666	0.8831543
167	0x3e89f7e5	0.2694694
168	0x3e177c65	0.14793546
169	0x3f4d6ae8	0.8024125
170	0x3f2288d4	0.63490033
171	0x3fd3a9a5	1.6536146
172	0x3f31b1d7	0.6941199
173	0x3cbfb0f5	0.02339981
174	0x3f56e64c	0.83945155
175	0x3efcc2c1	0.49367335
176	0xbda224cd	-0.079171754
177	0x3d344564	0.04401149
178	0xbea88865	-0.3291656
179	0x3db2a31d	0.08722518
180	0x3eea71de	0.4579
181	0x3f7adbe3	0.9799177
182	0xbe2c6cdb	-0.168384
183	0x3f40e3ea	0.7534777
184	0x3f33cf6c	0.70238376
185	0x3e49e02e	0.19714424
186	0xbe071b6b	-0.13194053
187	0xbda58d85	-0.08083633
188	0x3f82b8b4	1.0212617
189	0xbdc426d9	-0.09577722
190	0xbea74c26	-0.32675284
191	0xbc8f4c5b	-0.017492464
192	0xbeba747a	-0.3641699
193	0x3f509ef7	0.8149256
194	0x3e4a42d8	0.19752061
195	0xbf1d31c2	-0.6140405
196	0xbe4e70d1	-0.20160224
197	0x3eb0d14e	0.34534687
198	0x3f6d411f	0.9267749
199	0x3e670276	0.22559533
200	0xbee612a8	-0.4493611
201	0x3dcba268	0.09943086
202	0x3e468adf	0.19388913
203	0xbf096792	-0.5367366
204	0x3eba23fc	0.3635558
205	0xbf27ffe1	-0.65624815
206	0x3eeb6143	0.45972642
207	0x3f43e6f2	0.7652427
208	0xbf1a9423	-0.6038229
209	0x3e0f95ca	0.14021984
210	0x3ea4698f	0.32111785
211	0x3eaf192c	0.34198892
212	0xbd524f35	-0.05134507
213	0xbe366b02	-0.17814258
214	0xbe5e372b	-0.21700732
215	0x3e0a4606	0.13503274
216	0x3e374c0a	0.179001
217	0xbf413ead	-0.7548626
218	0x3f06ce89	0.526589
219	0x3e3c3039	0.1837777
220	0xbdd46fa2	-0.10372855
221	0xbe4b3962	-0.19846109
222	0xbf19635b	-0.5991723
223	0xbd6b23f9	-0.057407353
224	0xbf572f82	-0.84056866
225	0xbef67d97	-0.48142692
226	0xbe915302	-0.28383642
227	0x3e590300	0.2119255
228	0x3ede7322	0.43447214
229	0x3eb8406e	0.35986656
230	0x3db3677d	0.08759973
231	0x3ee8703e	0.45398134
232	0xbefce4da	-0.4939335
233	0x3d258658	0.040411323
234	0xbd165579	-0.036702607
235	0x3eb003d0	0.3437791
236	0xbf048e5f	-0.5177974
237	0xbf49d6ef	-0.7884359
238	0xbef0edd6	-0.47056454
239	0x3f56623b	0.8374364
240	0xbf7b0a54	-0.98062634
241	0xbe5d6939	-0.2162217
242	0xbeb4a5a3	-0.3528262
243	0xbde0e629	-0.109813996
244	0x3ed7e527	0.42167017
245	0x3dc3f5d3	0.095683716
246	0xbe9cd4be	-0.3063106
247	0x3eba9e52	0.36448914
248	0x3cfae332	0.030625913
249	0x3dc4844a	0.09595545
250	0xbf018fda	-0.50610125
251	0x3d8b85b8	0.06812614
252	0x3f395ffc	0.72412086
253	0xbe84a57d	-0.25907508
254	0xbf01b3ec	-0.50665164
255	0xbefa7cb1	-0.48923257

decoder_net.3.bias f4 [256]
0	0x3edfcfb3	0.4371315
1	0x3ef13852	0.4711328
2	0x3ef47ae9	0.47750023
3	0x3ee2b809	0.44281033
4	0x3ef4e6f6	0.4783246
5	0x3f04163c	0.51596427
6	0x3f00a21c	0.5024736
7	0x3efdb72d	0.49553815
8	0x3ef16cc1	0.47153285
9	0x3efc939d	0.4933137
10	0x3efbebed	0.49203435
11	0x3f02dc77	0.5111765
12	0x3ef4475b	0.4771069
13	0x3f00b4fe	0.5027617
14	0x3efcb7c2	0.49358946
15	0x3ee7b12e	0.45252365
16	0x3f00b014	0.50268674
17	0x3f005272	0.501258
18	0x3eed8ef0	0.46398115
19	0x3ef534ee	0.47891945
20	0x3ef9d128	0.48792386
21	0x3ee76f3e	0.4520206
22	0x3ef845f1	0.4849086
23	0x3f0592e0	0.5217724
24	0x3eee62ac	0.46559656
25	0x3efd456a	0.4946702
26	0x3f00df98	0.50341177
27	0x3f021685	0.5081561
28	0x3ef6e0c3	0.48218355
29	0x3ee57761	0.4481764
30	0x3edacec7	0.42735884
31	0x3f04b9ad	0.5184582
32	0x3f00bc6f	0.50287527
33	0x3ef8749c	0.48526466
34	0x3ef02eed	0.46910802
35	0x3f055633	0.52084655
36	0x3effe40a	0.49978667
37	0x3ef1b0d7	0.4720523
38	0x3f03385e	0.51257885
39	0x3efb6e22	0.49107462
40	0x3f01776f	0.50572866
41	0x3f049248	0.5178571
42	0x3efd2b27	0.49446985
43	0x3ef4f295	0.47841325
44	0x3f03f135	0.5153993
45	0x3ef4d0a6	0.47815436
46	0x3efd8150	0.4951272
47	0x3effef71	0.49987367
48	0x3efe86bd	0.49712172
49	0x3ef4c202	0.47804266
50	0x3ef75428	0.48306394
51	0x3f00f752	0.5037738
52	0x3eeab9c2	0.45844847
53	0x3efbde5d	0.49193087
54	0x3ef73677	0.4828374
55	0x3ed0c35e	0.40774053
56	0x3f01574f	0.5052385
57	0x3f02df63	0.5112211
58	0x3efee824	0.49786484
59	0x3ee1c04b	0.4409202
60	0x3f007180	0.5017319
61	0x3eeed99f	0.46650407
62	0x3ef32de5	0.47495952
63	0x3f031439	0.5120273
64	0x3ef32d81	0.47495654
65	0x3efe5ad8	0.49678683
66	0x3ef5f6b4	0.48039782
67	0x3ef600cc	0.48047483
68	0x3f00100f	0.50024503
69	0x3efe9f01	0.49730685
70	0x3ef56474	0.47928202
71	0x3f02e94f	0.5113725
72	0x3ee271c7	0.4422743
73	0x3ef361aa	0.4753545
74	0x3f007fa5	0.5019477
75	0x3edff931	0.43744805
76	0x3efc8625	0.49321094
77	0x3ef2b784	0.47405636
78	0x3eee1cd5	0.46506372
79	0x3ee17070	0.44031096
80	0x3ee2bf2c	0.44286478
81	0x3ef65056	0.48108166
82	0x3edf1228	0.4356854
83	0x3ef3d06c	0.4761995
84	0x3ef12344	0.47097218
85	0x3ef5802b	0.47949347
86	0x3ef5447b	0.4790381
87	0x3f012b24	0.5045645
88	0x3f02311a	0.50856173
89	0x3ef47514	0.47745574
90	0x3efb0330	0.4902587
91	0x3f006e5a	0.50168383
92	0x3ef52f54	0.4788767
93	0x3f01368c	0.50473857
94	0x3ef3a17b	0.47584137
95	0x3ef2a6a4	0.47392762
96	0x3efb78cb	0.49115595
97	0x3ef2e348	0.47439027
98	0x3f0288a1	0.5098973
99	0x3efaa03a	0.48950368
100	0x3ef6d899	0.48212126
101	0x3efb833c	0.4912356
102	0x3f066501	0.5249787
103	0x3ef3aa84	0.4759103
104	0x3ef1ae83	0.47203454
105	0x3ef03c80	0.46921158
106	0x3f01dbf8	0.5072627
107	0x3ef5dca8	0.4801991
108	0x3efb388f	0.49066588
109	0x3ef6594e	0.4811501
110	0x3ef9d756	0.487971
111	0x3f062743	0.5240366
112	0x3eee476f	0.46538875
113	0x3efb61c5	0.4909803
114	0x3efd05ea	0.49418575
115	0x3ec82ce8	0.3909676
116	0x3efcda05	0.49385086
117	0x3ef1948a	0.4718364
118	0x3eeb22c5	0.45924965
119	0x3eebfe8f	0.4609265
120	0x3eb7cf1a	0.35900193
121	0x3ef41ce9	0.47678307
122	0x3eff44a9	0.4985707
123	0x3f0182f4	0.50590444
124	0x3ed4f406	0.41592425
125	0x3ef6d77c	0.48211277
126	0x3f00a7a7	0.5025582
127	0x3ef87f38	0.4853456
128	0x3f0496ad	0.51792413
129	0x3ef8c2d9	0.48586157
130	0x3ef2af0b	0.47399172
131	0x3ee563e2	0.44802767
132	0x3ee7899c	0.45222175
133	0x3ee047a9	0.43804672
134	0x3f003427	0.5007958
135	0x3ef5557a	0.47916776
136	0x3efebdfa	0.49754316
137	0x3efdae19	0.49546888
138	0x3ef2fda3	0.47459134
139	0x3efcf8c1	0.49408534
140	0x3ef571ca	0.47938377
141	0x3efc9882	0.49335104
142	0x3ef47cc2	0.47751433
143	0x3ef4a6a5	0.4778339
144	0x3eff1003	0.49816903
145	0x3efe1595	0.4962584
146	0x3ef543dc	0.47903335
147	0x3ef6c14f	0.48194358
148	0x3f011adc	0.5043161
149	0x3eee0483	0.46487817
150	0x3f006371	0.50151736
151	0x3ef6ca0c	0.48201025
152	0x3ef6ad7b	0.4817923
153	0x3e9d2b8c	0.30697286
154	0x3f0207ff	0.5079345
155	0x3eef09d3	0.46687183
156	0x3f077c8d	0.52924424
157	0x3f00f39e	0.5037173
158	0x3ef17c81	0.471653
159	0x3efa942a	0.48941165
160	0x3f0196fe	0.5062102
161	0x3ee3396e	0.44379753
162	0x3efc83be	0.4931926
163	0x3f00303f	0.5007362
164	0x3ef48c1c	0.47763145
165	0x3efbe62a	0.4919904
166	0x3effe6b0	0.49980688
167	0x3ef430a4	0.4769336
168	0x3eff6aee	0.49886268
169	0x3ef51a5f	0.47871682
170	0x3ef938c7	0.4867613
171	0x3f0108c3	0.50403994
172	0x3ed0ca30	0.40779257
173	0x3ee2d93f	0.4430637
174	0x3ef49ab6	0.47774285
175	0x3ef3d3bd	0.4762248
176	0x3ef8903d	0.48547545
177	0x3ef6867f	0.48149487
178	0x3f00511b	0.5012376
179	0x3f01c93b	0.5069768
180	0x3ef11d4d	0.47092667
181	0x3ef853ac	0.48501337
182	0x3ef9b606	0.48771685
183	0x3eeeb038	0.4661882
184	0x3f02b76e	0.5106114
185	0x3efe3812	0.49652153
186	0x3ef304b4	0.47464526
187	0x3ed71b38	0.42012954
188	0x3ee7f067	0.453006
189	0x3f00d77a	0.5032879
190	0x3ef32251	0.4748712
191	0x3ef7e483	0.48416528
192	0x3efca083	0.4934121
193	0x3ef55731	0.47918084
194	0x3efc3a89	0.4926341
195	0x3f0249c9	0.5089384
196	0x3ef809d1	0.4844499
197	0x3ef9fd88	0.48826241
198	0x3eff3f10	0.498528
199	0x3f00fe92	0.50388443
200	0x3ef607a0	0.48052692
201	0x3f018c12	0.50604355
202	0x3f012c24	0.5045798
203	0x3ef56ae9	0.47933128
204	0x3ef22f0f	0.47301528
205	0x3efa2d65	0.48862758
206	0x3ee9c262	0.45656115
207	0x3ef39273	0.4757267
208	0x3efa6913	0.4890829
209	0x3ef5db18	0.48018718
210	0x3f0709f5	0.5274957
211	0x3ef74ecf	0.48302314
212	0x3f033da6	0.51265943
213	0x3ef809bd	0.4844493
214	0x3efa5a9e	0.4889726
215	0x3ef3e930	0.47638845
216	0x3eeff895	0.4686934
217	0x3eea6270	0.45778227
218	0x3f006ee2	0.50169194
219	0x3f00633c	0.5015142
220	0x3ee93892	0.45550972
221	0x3efb437f	0.49074933
222	0x3ec45d68	0.38352513
223	0x3efd057d	0.4941825
224	0x3ef80df9	0.4844816
225	0x3ef55142	0.47913557
226	0x3f023330	0.50859356
227	0x3f02fc17	0.5116591
228	0x3efd6a97	0.49495384
229	0x3f010507	0.50398296
230	0x3ef32b53	0.4749399
231	0x3ef57b60	0.4794569
232	0x3efb449f	0.4907579
233	0x3ecfe013	0.40600643
234	0x3eff31eb	0.49842772
235	0x3ef5748c	0.4794048
236	0x3ef53ade	0.47896475
237	0x3ef08b56	0.46981305
238	0x3ef1cc7d	0.47226325
239	0x3ef6d10e	0.4820637
240	0x3ef43bbe	0.4770183
241	0x3f033f41	0.5126839
242	0x3efd133e	0.49428743
243	0x3efbbf42	0.49169356
244	0x3f000714	0.500108
245	0x3efbc8f9	0.49176767
246	0x3efa9a9e	0.4894609
247	0x3ef469cd	0.4773697
248	0x3f001055	0.5002492
249	0x3eefe516	0.46854466
250	0x3eefbce3	0.46823797
251	0x3f011870	0.50427914
252	0x3f028b30	0.50993633
253	0x3f03becb	0.51463
254	0x3ef0a217	0.46998665
255	0x3f036643	0.51327914

decoder_net.4.weight f4 [256]
0	0x3f7377c7	0.9510464
1	0x3f7a7880	0.9784012
2	0x3f7b3eac	0.98142505
3	0x3f71dfe6	0.94482267
4	0x3f765cb7	0.9623522
5	0x3f74597c	0.9544904
6	0x3f71655f	0.94295305
7	0x3f776804	0.9664309
8	0x3f7e24a9	0.9927469
9	0x3f80e7e9	1.0070773
10	0x3f776884	0.96643853
11	0x3f80c10e	1.0058916
12	0x3f760306	0.96098363
13	0x3f82dcca	1.022363
14	0x3f643bd8	0.89153814
15	0x3f733c59	0.9501396
16	0x3f768355	0.96294147
17	0x3f850a1d	1.0393711
18	0x3f790cd2	0.9728519
19	0x3f75a779	0.9595867
20	0x3f7dc23d	0.9912451
21	0x3f79b597	0.9754271
22	0x3f75da2d	0.96036035
23	0x3f71b35b	0.944143
24	0x3f76ba25	0.96377784
25	0x3f7883d6	0.97076166
26	0x3f752dd9	0.9577308
27	0x3f84b576	1.0367877
28	0x3f6e052b	0.92976636
29	0x3f749a3d	0.9554785
30	0x3f7952e0	0.9739208
31	0x3f7241b8	0.9463153
32	0x3f7e6d94	0.9938595
33	0x3f7321ea	0.94973624
34	0x3f832a81	1.0247346
35	0x3f73eb2d	0.95280725
36	0x3f7f2d4e	0.99678504
37	0x3f741f77	0.9536051
38	0x3f7e4ced	0.9933613
39	0x3f7688ec	0.96302676
40	0x3f7e487b	0.99329346
41	0x3f83c849	1.0295497
42	0x3f85ee63	1.0463375
43	0x3f72cef1	0.9484702
44	0x3f733746	0.95006216
45	0x3f758aa8	0.959147
46	0x3f7209de	0.94546306
47	0x3f7a9156	0.97878015
48	0x3f7f3dde	0.99703777
49	0x3f713549	0.9422193
50	0x3f767d05	0.96284515
51	0x3f764ae0	0.96208
52	0x3f738b38	0.95134306
53	0x3f7a30fd	0.97731
54	0x3f749fa1	0.95556074
55	0x3f775a3f	0.9662208
56	0x3f7aa830	0.97912884
57	0x3f7d0eab	0.98850507
58	0x3f75056e	0.9571141
59	0x3f775b61	0.9662381
60	0x3f7703c8	0.96490145
61	0x3f8f1511	1.1178304
62	0x3f73f75c	0.95299315
63	0x3f75f91d	0.9608324
64	0x3f70fb7b	0.9413373
65	0x3f71c6c0	0.94443893
66	0x3f75c98b	0.96010655
67	0x3f6e1676	0.9300302
68	0x3f793a88	0.97354937
69	0x3f6e0353	0.9297382
70	0x3f77c288	0.96781206
71	0x3f788de2	0.97091496
72	0x3f754d71	0.9582129
73	0x3f74d8d9	0.95643383
74	0x3f79608c	0.97412944
75	0x3f747e23	0.9550497
76	0x3f772888	0.9654622
77	0x3f71bdf9	0.944305
78	0x3f713021	0.94214064
79	0x3f72b4d1	0.94807154
80	0x3f76a3b4	0.9634354
81	0x3f6fb8c3	0.936413
82	0x3f7917ec	0.97302127
83	0x3f7288d3	0.9474003
84	0x3f784a94	0.969888
85	0x3f735352	0.9504901
86	0x3f712f6a	0.94212973
87	0x3f7608bb	0.9610707
88	0x3f7fa2b3	0.99857634
89	0x3f73edb2	0.9528457
90	0x3f7e4fbe	0.99340427
91	0x3f7a79ad	0.9784191
92	0x3f7742c0	0.9658623
93	0x3f7c293d	0.98500425
94	0x3f76e1c5	0.96438247
95	0x3f760175	0.96095973
96	0x3f760b33	0.9611084
97	0x3f75ca9f	0.960123
98	0x3f7dae98	0.99094534
99	0x3f67e8b3	0.90589446
100	0x3f74e0de	0.9565562
101	0x3f71dfb0	0.94481945
102	0x3f784ef5	0.9699548
103	0x3f81d7df	1.0144004
104	0x3f7fb2e2	0.9988233
105	0x3f6e12f2	0.9299766
106	0x3f8053d6	1.0025585
107	0x3f762eeb	0.9616534
108	0x3f758b30	0.9591551
109	0x3f6a0317	0.91410965
110	0x3f817b24	1.0115705
111	0x3f7331c9	0.9499784
112	0x3f73678b	0.9507987
113	0x3f803337	1.001563
114	0x3f734d97	0.9504027
115	0x3f78ebc1	0.9723473
116	0x3f78c514	0.9717572
117	0x3f713242	0.9421731
118	0x3f76afe3	0.9636213
119	0x3f6e28d8	0.9303107
120	0x3f77b004	0.96752954
121	0x3f75214c	0.9575393
122	0x3f7e4a34	0.99331975
123	0x3f6f4324	0.93461823
124	0x3f813c71	1.009657
125	0x3f783eb5	0.96970683
126	0x3f780309	0.9687963
127	0x3f883663	1.0641598
128	0x3f7369ad	0.95083123
129	0x3f703168	0.9382539
130	0x3f736ae0	0.95084953
131	0x3f7a4c2d	0.97772485
132	0x3f7a4c2d	0.97772485
133	0x3f78c253	0.97171515
134	0x3f79caf1	0.9757529
135	0x3f77ed8e	0.96846855
136	0x3f807bb1	1.0037748
137	0x3f724787	0.9464039
138	0x3f7c9ba2	0.98674977
139	0x3f79f117	0.976335
140	0x3f780ee0	0.968977
141	0x3f6ab82f	0.9168729
142	0x3f75da0f	0.96035856
143	0x3f771c55	0.96527606
144	0x3f7883ea	0.97076285
145	0x3f7efa9f	0.9960117
146	0x3f76fdcf	0.9648103
147	0x3f7547f5	0.9581292
148	0x3f756e70	0.9587164
149	0x3f75e78e	0.9605645
150	0x3f6f740f	0.93536466
151	0x3f745a49	0.95450264
152	0x3f756ffa	0.9587399
153	0x3f7894ee	0.9710225
154	0x3f6f9fba	0.936031
155	0x3f6ce21b	0.9253251
156	0x3f78c383	0.9717333
157	0x3f7a3fc2	0.97753537
158	0x3f713948	0.9422803
159	0x3f766699	0.962503
160	0x3f7d260b	0.98886174
161	0x3f700582	0.93758404
162	0x3f750987	0.9571766
163	0x3f7a49ff	0.9776916
164	0x3f76aa16	0.9635328
165	0x3f7efcf4	0.99604726
166	0x3f7e2555	0.99275714
167	0x3f781ad7	0.96915954
168	0x3f7a379a	0.9774109
169	0x3f76d55b	0.96419305
170	0x3f759f93	0.95946616
171	0x3f73ea08	0.9527898
172	0x3f7a57d2	0.97790253
173	0x3f7b7c2d	0.9823635
174	0x3f779520	0.9671192
175	0x3f6651a0	0.899683
176	0x3f734134	0.9502137
177	0x3f7627e4	0.9615462
178	0x3f72c86a	0.9483706
179	0x3f718b19	0.9435287
180	0x3f755cde	0.9584483
181	0x3f70fdc1	0.941372
182	0x3f791230	0.97293377
183	0x3f74abff	0.95574945
184	0x3f77b11e	0.96754634
185	0x3f76c68e	0.9639672
186	0x3f78bf17	0.9716658
187	0x3f7e2bd4	0.99285626
188	0x3f88dee7	1.0693024
189	0x3f7678c1	0.96278006
190	0x3f764697	0.9620146
191	0x3f71ebdc	0.9450052
192	0x3f6d64cc	0.9273193
193	0x3f75e0ea	0.96046317
194	0x3f7640da	0.96192706
195	0x3f75dc44	0.96039224
196	0x3f7be2bb	0.9839284
197	0x3f8a9b2d	1.0828606
198	0x3f7ce5e9	0.98788315
199	0x3f7c549b	0.985666
200	0x3f746bba	0.9547688
201	0x3f811b12	1.0086386
202	0x3f7abd91	0.97945505
203	0x3f76b65d	0.96372014
204	0x3f763ceb	0.96186703
205	0x3f7744ed	0.9658955
206	0x3f84faec	1.0389075
207	0x3f75acaa	0.9596659
208	0x3f6ae38e	0.9175347
209	0x3f78e235	0.97220165
210	0x3f73700e	0.95092857
211	0x3f762ed7	0.9616522
212	0x3f841071	1.0317518
213	0x3f770095	0.96485263
214	0x3f80e96f	1.0071238
215	0x3f783d25	0.969683
216	0x3f6a226b	0.9145877
217	0x3f7a0d89	0.97676903
218	0x3f705fb4	0.9389603
219	0x3f77fe10	0.96872044
220	0x3f74da6a	0.95645773
221	0x3f7c9a30	0.9867277
222	0x3f77e8e4	0.9683974
223	0x3f748449	0.9551435
224	0x3f73d9f3	0.9525444
225	0x3f724fa7	0.9465279
226	0x3f7bc032	0.9834014
227	0x3f732976	0.9498514
228	0x3f7bd1e6	0.98367155
229	0x3f753e1e	0.9579791
230	0x3f75dc7e	0.9603957
231	0x3f6acb92	0.91716874
232	0x3f72eb43	0.9489023
233	0x3f7a1840	0.9769325
234	0x3f7be026	0.983889
235	0x3f71d826	0.9447044
236	0x3f80c681	1.0060579
237	0x3f7b8f85	0.9826587
238	0x3f75dc08	0.96038866
239	0x3f76c77d	0.96398145
240	0x3f75ca24	0.9601157
241	0x3f79d204	0.97586083
242	0x3f77862c	0.96689105
243	0x3f82c2f4	1.0215745
244	0x3f73b3af	0.9519605
245	0x3f758852	0.95911133
246	0x3f74ae1a	0.9557816
247	0x3f746bbd	0.95476896
248	0x3f7004ea	0.937575
249	0x3f75d405	0.9602664
250	0x3f750266	0.95706785
251	0x3f7ce1f9	0.98782307
252	0x3f79a5f7	0.9751887
253	0x3f78b8c8	0.97156954
254	0x3f751120	0.95729256
255	0x3f7942bc	0.97367454
