Action_Net.pt (torch, 577378 bytes, 10 tensors)

decoder_net.0.weight f4 [512, 13]
0.47727326 -0.5711786 -0.12555861 0.4020957 -0.07990311 0.09977013 0.00537548 0.43314442
0.24354875 0.02376672 0.44637358 -0.24765177 -1.592316 -0.3320717 0.19279927 -0.14828879
0.6961052 -0.41755384 0.21421008 0.44095147 0.67162025 -0.8515979 -1.5115328 -0.7471532
-0.43230045 -0.31350648 0.12775487 0.27038074 0.44181904 -0.5688734 0.16838084 -0.8236805
-0.18297997 -0.2267954 0.021196323 -0.035856944 0.17113124 -0.550889 0.18432659 -0.2781748
0.2759518 -0.5994188 0.03281204 -0.5629481 1.0652215 -0.18685326 1.2902439 0.2024432
0.17042562 -0.3145441 -1.4227667 -0.7765117 0.3782232 1.1075401 -0.7714362 -0.2676964
0.8219037 -0.035262454 -0.40385482 -0.30515534 -0.018951947 0.076859154 -0.25656253 -0.7923311
-0.7392381 -1.1059235 0.48054788 0.17774183 -0.5202197 -0.29744685 0.9203761 0.8249505
0.2805205 0.34369615 0.12086154 -0.80588275 -0.8942221 -0.43011317 -0.20630302 0.58510673
0.7197278 -0.4973047 0.22980754 0.9694428 0.23083258 0.42718133 0.6325468 0.22106884
0.033177692 0.43599567 0.3047615 -0.67284024 -0.39156958 0.01718725 0.2569433 1.6758479
0.00793781 0.17700261 -0.41897678 -0.35539553 -0.86293024 0.15516943 -0.83264726 -0.0014120612
-0.28061867 -1.3183926 0.5795669 -0.83524686 -0.079433486 0.030438513 0.2395358 0.37502098
0.47325784 0.28577766 0.2922145 0.5988083 0.42111024 0.54765594 0.45268136 1.0636853
0.37891966 0.81027484 -0.17015472 0.22096498 -0.2563836 -0.28270414 -0.4170171 1.6349812
-0.37551436 0.060624357 0.8378298 -0.09185192 1.0622725 -1.0562524 0.59321636 -0.015158413
-0.34860334 0.23146376 -0.7758298 -0.17102641 -0.08584681 0.03910805 -0.178369 0.52972186
0.30441 0.17655934 -0.56301504 0.007961295 -0.39787167 0.4352756 -0.64154494 -0.1256916
-0.03758427 1.0877857 0.16604522 0.36598936 -0.52912074 -0.79039526 -0.9554048 0.2581084
0.7329185 0.29112574 -0.09255275 0.7438937 0.04403978 0.33263338 0.0036060878 -0.31080383
-0.5829009 -0.09681418 0.5015071 0.46776867 -0.81910735 -0.51217496 -0.2516255 0.30598563
-0.4566609 -0.51901037 1.2151151 0.1979338 -0.3365831 0.40737087 -0.5858709 0.3003128
-0.2653656 -0.78111166 0.11360677 0.54740113 -0.3970768 0.30574092 0.58690697 -0.10732614
0.50252676 -0.65035325 -0.24669121 -0.30275735 -0.36297196 0.36791494 0.58301884 0.99634933
-0.11581029 -0.012487196 -0.5170153 -0.17569345 0.08316563 -0.44478577 0.6676206 0.45744586
-1.2026316 0.070412 -0.12297333 -0.10500065 -0.13369675 0.61581963 -0.5338775 0.04968899
-0.85736275 0.81174725 -0.13571067 -0.32764164 -0.15097253 -0.07141677 0.6419931 0.46187344
-0.29685682 0.16861366 0.22949421 -0.026662778 -0.3443003 -0.063139066 -0.172799 0.17412253
0.08456999 -0.008237261 0.18252905 0.053459086 -0.054172963 0.9893033 -0.81617224 -0.24093561
0.22779697 -0.2684792 0.14898007 0.65287566 0.22395656 -0.5121808 0.14996454 -0.58454204
-0.08121818 -0.7283432 0.8592882 -0.6866843 0.087544195 0.72873616 0.09034287 -0.63825655
00000000: 295d f43e c338 12bf 7092 00be 7ddf cd3e
00000010: 3ea4 a3bd 4854 cc3d cb24 b03b 1bc5 dd3e
00000020: d864 793e 6db2 c23c 148b e43e 6d98 7dbe
00000030: 03d1 cbbf 4d05 aabe 2c6d 453e 04d9 17be
00000040: f333 323f 9ec9 d5be e359 5b3e 64c4 e13e
00000050: 4eef 2b3f 5202 5abf e879 c1bf 6f45 3fbf
00000060: 7c56 ddbe ec83 a0be 2cd2 023e 586f 8a3e
00000070: 1b36 e23e b0a1 11bf 076c 2c3e badc 52bf
00000080: 1a5f 3bbe 0e3d 68be e9a3 ad3c bbde 12bd
00000090: 073d 2f3e 1007 0dbf 1cc0 3c3e ed6c 8ebe
000000a0: 8e49 8d3e 8373 19bf eb65 063d 5e1d 10bf
000000b0: 2e59 883f 7656 3fbe b626 a53f 454d 4f3e
000000c0: 0e84 2e3e ed0b a1be 381d b6bf 79c9 46bf
000000d0: 79a6 c13e e0c3 8d3f d87c 45bf 810f 89be
000000e0: 4868 523f 5d6f 10bd 0fc6 cebe 523d 9cbe
000000f0: 1d41 9bbc 5568 9d3d 2a5c 83be 36d6 4abf
00000100: b53e 3dbf e78e 8dbf 5f0a f63e f401 363e
00000110: 1e2d 05bf f44a 98be c59d 6b3f f52f 533f
00000120: 62a0 8f3e f1f8 af3e 4186 f73d 554e 4ebf
00000130: bdeb 64bf cb37 dcbe 1941 53be 8ec9 153f
00000140: 1540 383f b99e febe ab52 6b3e 672d 783f
00000150: 605f 6c3e 83b7 da3e 96ee 213f df5f 623e
00000160: 55e5 073d d33a df3e b309 9c3e 423f 2cbf
00000170: cf7b c8be 47cc 8c3c 128e 833e 2f82 d63f
00000180: 970d 023c 2c40 353e 2084 d6be 67f6 b5be
00000190: ffe8 5cbf bce4 1e3e 5f28 55bf e914 b9ba
000001a0: 40ad 8fbe 17c1 a8bf 7f5e 143f bdd2 55bf
000001b0: 06ae a2bd 305a f93c df48 753e c002 c03e
000001c0: da4e f23e 7351 923e 249d 953e 804b 193f
000001d0: c39b d73e 2e33 0c3f dac5 e73e d726 883f
000001e0: c201 c23e 2c6e 4f3f 0a3d 2ebe a544 623e
000001f0: b644 83be 99be 90be 4483 d5be 1047 d13f
00000200: 6b43 c0be 3f51 783d 047c 563f dc1c bcbd
00000210: 8cf8 873f 4733 87bf 07dd 173f fe5a 78bc
00000220: 237c b2be d604 6d3e c89c 46bf 8c21 2fbe
00000230: 74d0 afbd c32f 203d 5da6 36be da9b 073f
00000240: a1db 9b3e f9cb 343e c121 10bf 1770 023c
00000250: d6b5 cbbe 72dc de3e 4a3c 24bf 4cb5 00be
00000260: f7f1 19bd 903c 8b3f c207 2a3e f562 bb3e
00000270: 7574 07bf 5857 4abf 6995 74bf c926 843e
00000280: 8ca0 3b3f 6f0e 953e 4c8c bdbd d16f 3e3f
00000290: 0e63 343d ec4e aa3e 1d54 6c3b ae21 9fbe
000002a0: fe38 15bf 8346 c6bd c562 003f 607f ef3e
000002b0: 05b1 51bf e61d 03bf 0fd5 80be 26aa 9c3e
000002c0: 75cf e9be dddd 04bf e488 9b3f 28af 4a3e
000002d0: 9f54 acbe ea92 d03e a3fb 15bf 99c2 993e
000002e0: 00de 87be eff6 47bf abaa e83d 7b22 0c3f
000002f0: a64d cbbe 138a 9c3e 893f 163f cfcd dbbd
00000300: 98a5 003f 8d7d 26bf 9f9c 7cbe 0303 9bbe
00000310: 76d7 b9be 595f bc3e b940 153f c010 7f3f
00000320: f22d edbd 1997 4cbc 1d5b 04bf fce8 33be
00000330: be52 aa3d f6ba e3be 2fe9 2a3f 5836 ea3e
00000340: d5ef 99bf 2b34 903d 71d9 fbbd 950a d7bd
00000350: cde7 08be 5ba6 1d3f 32ac 08bf af86 4b3d
00000360: 207c 5bbf abce 4f3f bdf7 0abe a5c0 a7be
00000370: 8b98 1abe f542 92bd a959 243f ad7a ec3e
00000380: 9efd 97be 0fa9 2c3e 8800 6b3e e66b dabc
00000390: 2148 b0be 0e4f 81bd 39f2 30be 2d4d 323e
000003a0: 0833 ad3d 94f5 06bc e5e8 3a3e eaf7 5a3d
000003b0: 78e4 5dbd fb42 7d3f aaf0 50bf d3b7 76be
000003c0: 9c43 693e 1b76 89be 3b8e 183e dc22 273f
000003d0: de54 653e 481e 03bf 4e90 193e 8ca4 15bf
000003e0: b855 a6bd b374 3abf 50fa 5b3f 8bca 2fbf
000003f0: 5f4a b33d 748e 3a3f af05 b93d c864 23bf

decoder_net.0.bias f4 [512]
0.48623928 0.46670347 0.4711263 0.47849822 0.49958113 0.49881953 0.4572217 0.50316626
0.46660468 0.49558094 0.46851346 0.47484922 0.454596 0.5341891 0.48850194 0.46240595
0.47523338 0.4704823 0.46788958 0.48435023 0.5010178 0.50719386 0.47225344 0.4719211
0.5020097 0.4964719 0.50876373 0.3719425 0.48517767 0.4934239 0.53358346 0.503939
0.5031157 0.5144707 0.5034056 0.5029621 0.4811038 0.48684773 0.4749032 0.49918893
0.43262956 0.46550694 0.48302618 0.47607392 0.4814261 0.5093968 0.48621762 0.5608049
0.5370971 0.5039704 0.4996123 0.49299762 0.48497713 0.48045343 0.50990915 0.51932555
0.49002483 0.5126057 0.51045793 0.52787215 0.43719044 0.45322016 0.47372404 0.5446335
0.48469347 0.4945572 0.50197464 0.49153697 0.49419257 0.49024463 0.50669265 0.4668532
0.48157325 0.48280966 0.49603787 0.50404906 0.47081256 0.47655982 0.43620452 0.48273206
0.5018356 0.47080746 0.48665142 0.51044345 0.51230466 0.5044501 0.54132587 0.46051416
0.48612225 0.4760331 0.5211662 0.5124718 0.39060223 0.50369275 0.45883292 0.4748033
0.49672356 0.48111033 0.514769 0.47884977 0.4744641 0.47460118 0.49625358 0.5154152
0.47804102 0.4872683 0.50756943 0.59389865 0.4738351 0.48982373 0.4716321 0.48654398
0.42988488 0.49829733 0.4999117 0.47627813 0.47928384 0.52685297 0.5033737 0.4680317
0.49532846 0.5239204 0.46941128 0.4856453 0.42941564 0.5071764 0.4691943 0.5135508
0.50240165 0.49249497 0.48348662 0.50742877 0.4557792 0.46369618 0.47690722 0.47514492
0.52423817 0.4875008 0.48550385 0.49146065 0.47559774 0.46302944 0.5058389 0.40713966
0.4752674 0.50533783 0.45471317 0.5164887 0.47503316 0.49712026 0.44297332 0.5121821
0.51489043 0.50333524 0.4491343 0.47945765 0.50341207 0.45776135 0.4911622 0.5326708
0.5076468 0.493375 0.47588977 0.4910541 0.5130557 0.48218596 0.5025803 0.49929804
0.4964219 0.47222784 0.43306148 0.4756733 0.49166006 0.5048006 0.5716137 0.47384873
0.4403979 0.44577384 0.49977866 0.4313342 0.5030523 0.4999778 0.47783783 0.49718457
0.483797 0.5036779 0.4387729 0.48830885 0.49929678 0.467034 0.46011624 0.49810004
0.47755682 0.4580617 0.49835888 0.5088238 0.4776809 0.48639464 0.48295993 0.42844158
0.46946344 0.49567217 0.4842549 0.5198892 0.4918872 0.4935596 0.49407232 0.46214858
0.50926965 0.54049677 0.47760552 0.47373247 0.52921015 0.4762302 0.5900436 0.4902038
0.5027107 0.4992526 0.46104813 0.479197 0.49870998 0.47991687 0.48202503 0.52192783
0.507673 0.48887548 0.50458634 0.469878 0.46346256 0.50113994 0.46696904 0.47671586
0.4617167 0.49719885 0.4720516 0.4445008 0.49251574 0.46313965 0.50475925 0.48726752
0.50206125 0.47823766 0.46445787 0.49684405 0.48490787 0.5138 0.45500994 0.50237787
0.47846252 0.45449054 0.49556917 0.48789278 0.4888233 0.46405613 0.51278776 0.49804637
00000000: 5bf4 f83e c2f3 ee3e 7737 f13e b8fd f43e
00000010: 19c9 ff3e 4665 ff3e f618 ea3e 81cf 003f
00000020: cfe6 ee3e c9bc fd3e ffe0 ef3e 701f f33e
00000030: cfc0 e83e 9ec0 083f ed1c fa3e 79c0 ec3e
00000040: ca51 f33e 0ee3 f03e 398f ef3e c1fc f73e
00000050: b442 003f 75d7 013f 34cb f13e a49f f13e
00000060: b583 003f 9131 fe3e 573e 023f 3f6f be3e
00000070: 3569 f83e 0fa2 fc3e ed98 083f 2502 013f
00000080: 31cc 003f 5ab4 033f 30df 003f 20c2 003f
00000090: 3d53 f63e 1b44 f93e 8326 f33e b195 ff3e
000000a0: 9f81 dd3e ed56 ee3e 354f f73e f6bf f33e
000000b0: 7b7d f63e d467 023f 84f1 f83e e990 0f3f
000000c0: 327f 093f 3404 013f 2fcd ff3e 2f6a fc3e
000000d0: ec4e f83e fefd f53e 6889 023f 85f2 043f
000000e0: 89e4 fa3e 213a 033f 5fad 023f a122 073f
000000f0: 6dd7 df3e 790c e83e f58b f23e 1a6d 0b3f
00000100: be29 f83e 9a36 fd3e 6981 003f bcaa fb3e
00000110: cf06 fd3e 5801 fb3e 9cb6 013f 6207 ef3e
00000120: c590 f63e d432 f73e adf8 fd3e 5c09 013f
00000130: 580e f13e a6ff f33e 3356 df3e a828 f73e
00000140: 4c78 003f ad0d f13e 602a f93e 6cac 023f
00000150: 6626 033f a423 013f 5594 0a3f 83c8 eb3e
00000160: 04e5 f83e 9cba f33e 266b 053f 5a31 033f
00000170: 04fd c73e 02f2 003f 26ec ea3e 6b19 f33e
00000180: 8d52 fe3e 1854 f63e e7c7 033f cc2b f53e
00000190: f5ec f23e edfe f23e f314 fe3e 40f2 033f
000001a0: cbc1 f43e 3b7b f93e 12f0 013f be09 183f
000001b0: 849a f23e 2dca fa3e c379 f13e 4b1c f93e
000001c0: df19 dc3e d420 ff3e 6df4 ff3e bada f33e
000001d0: b164 f53e d6df 063f 19dd 003f daa1 ef3e
000001e0: b19b fd3e a61f 063f ad56 f03e 80a6 f83e
000001f0: 5edc db3e 50d6 013f 3c3a f03e 1178 033f
00000200: 659d 003f 4d28 fc3e 8f8b f73e dae6 013f
00000210: e45b e93e 9669 ed3e 2f2d f43e 3246 f33e
00000220: 7934 063f b499 f93e f693 f83e bba0 fb3e
00000230: 8c81 f33e 3212 ed3e a87e 013f 9c74 d03e
00000240: 4056 f33e d25d 013f 2ad0 e83e 9a38 043f
00000250: 8c37 f33e 8c86 fe3e 66cd e23e 5e1e 033f
00000260: dccf 033f 94da 003f eef4 e53e 797b f53e
00000270: 9ddf 003f b25f ea3e 9d79 fb3e 1d5d 083f
00000280: 24f5 013f a69b fc3e d3a7 f33e 716b fb3e
00000290: 9e57 033f 14e1 f63e 1aa9 003f fea3 ff3e
000002a0: 032b fe3e d9c7 f13e 3cba dd3e 738b f33e
000002b0: deba fb3e 9d3a 013f 4755 123f 4d9c f23e
000002c0: d57b e13e 783c e43e fde2 ff3e d6d7 dc3e
000002d0: 09c8 003f 17fd ff3e 29a7 f43e fa8e fe3e
000002e0: 3eb4 f73e 09f1 003f d7a6 e03e 9e03 fa3e
000002f0: d4a3 ff3e 151f ef3e 5b94 eb3e f806 ff3e
00000300: 5482 f43e 1087 ea3e e528 ff3e 4742 023f
00000310: 9792 f43e b808 f93e 8646 f73e b25c db3e
00000320: 835d f03e bec8 fd3e 42f0 f73e 7517 053f
00000330: a4d8 fb3e d8b3 fc3e 0cf7 fc3e bd9e ec3e
00000340: 7f5f 023f ff5d 0a3f b688 f43e 108d f23e
00000350: 517a 073f 72d4 f33e 190d 173f fefb fa3e
00000360: a6b1 003f 099e ff3e 800e ec3e 4f59 f53e
00000370: ea56 ff3e aab7 f53e fccb f63e 109d 053f
00000380: dcf6 013f e34d fa3e 922c 013f d993 f03e
00000390: f74a ed3e b54a 003f 9116 ef3e 1a14 f43e
000003a0: 2266 ec3e d990 fe3e bfb0 f13e 9c95 e33e
000003b0: 062b fc3e a420 ed3e e737 013f 217b f93e
000003c0: 1687 003f 91db f43e 6ccd ed3e 5862 fe3e
000003d0: d845 f83e 6688 033f 10f7 e83e d69b 003f
000003e0: 0af9 f43e fcb2 e83e 3ebb fd3e 15cd f93e
000003f0: 0c47 fa3e c498 ed3e 0f46 033f efff fe3e

decoder_net.2.weight f4 [512]
0.9422791 0.95905846 0.95584744 0.9687855 0.9890301 1.004114 1.0137444 1.0060275
0.98240596 0.931205 0.9650714 0.95989066 0.95505315 0.9732883 0.9360063 0.9470917
1.0245875 0.97238904 0.95247394 1.0274088 0.8875125 0.98062205 0.9584242 0.9820968
0.9902377 1.021986 0.9814915 0.9762117 0.9588764 0.9902705 1.029803 0.9894114
0.9950448 1.0015819 0.926421 0.96204156 0.96153545 0.96542376 0.97306716 0.99168336
0.9727125 0.9734866 0.96404004 0.9439097 0.97193205 0.9682781 1.0001127 0.9864581
0.97930694 0.92932457 0.9303273 0.96498734 0.9920468 0.9776638 0.99294835 0.9790034
0.9471232 0.9287955 0.9857977 1.0213314 0.94582945 0.9777557 0.98294073 0.9527424
0.96721727 0.9779634 0.9672196 0.9503858 1.0273316 0.9712356 1.0061101 0.9677655
0.98113364 0.9850911 0.9548326 1.0041753 0.97914696 0.9464075 0.9845028 0.9322428
0.9820877 0.98654735 0.9640919 0.97420734 0.99943334 1.0076723 0.96168 0.9826747
0.9923736 0.949128 1.0210161 0.9786826 0.97622615 1.0065708 0.95633274 0.9692366
0.95959884 0.9633076 0.992718 0.96096724 0.99113417 1.0110302 0.9702919 0.9956938
0.9883825 0.98477066 0.98892313 0.96570164 0.98167944 0.96503794 1.0096333 1.0384958
0.997927 0.9789039 0.9753554 1.0255369 0.9945114 1.0263315 0.9962203 0.970986
0.99974835 0.9737217 0.98362887 0.96611947 0.9476421 0.9676666 0.9888772 0.9975042
0.9702111 0.98067456 0.9967563 0.95838684 0.99409014 0.9750947 0.9676677 1.0026815
0.9774556 0.9708955 0.97487533 0.94704384 1.0037426 0.93334216 0.94600344 0.97625816
0.9818665 0.9469886 0.9641319 1.000846 0.95655453 1.0221275 0.9715677 0.9936556
0.97356683 0.9655889 0.97966975 0.9548004 0.97015864 1.0371431 0.9599763 1.013657
0.9625232 0.97675395 0.969204 0.97168607 0.9702286 0.9655515 0.96824294 0.9859152
0.9939406 0.9990889 0.9325474 0.9968484 0.9430455 0.949813 0.9712823 0.9480782
0.96188885 1.0001954 0.95825315 0.99663955 0.9901468 1.003732 1.0086902 0.9969639
0.96581066 1.0028945 0.98416615 0.95263726 0.9385034 0.9554462 0.97422963 0.97354203
0.959372 0.94218993 1.0031052 0.94839126 0.926854 0.98269 0.9994312 0.9688869
0.95660675 0.9669176 0.97693276 0.9362326 0.9639916 0.93679315 0.9958306 0.95959795
0.9916139 0.9672603 0.9813178 0.9757377 0.86886674 0.968558 0.99621177 1.0339931
1.0061151 0.98920417 0.94791627 1.005201 0.9730987 1.0168211 1.0764132 0.98954266
0.9610475 0.9771536 0.99341345 0.99841803 0.945435 1.001206 0.962758 0.99713796
0.9851136 0.94503224 0.968101 0.9768313 0.9900313 1.0260164 0.9647319 0.90267605
0.9706712 0.96859205 0.982832 0.9759778 0.9849674 0.9574755 0.98148465 0.9672556
0.97020084 0.9686518 1.045857 0.9808225 0.94642144 0.9727808 0.99549305 1.0237657
00000000: 3439 713f db84 753f 6bb2 743f 5402 783f
00000010: 1431 7d3f cf86 803f 60c2 813f 82c5 803f
00000020: f57e 7b3f 7363 6e3f eb0e 773f 65bb 753f
00000030: 5d7e 743f 6c29 793f 1c9e 6f3f 9a74 723f
00000040: af25 833f 7dee 783f 55d5 733f 2282 833f
00000050: 0534 633f 0c0a 7b3f 4a5b 753f b26a 7b3f
00000060: 3880 7d3f 70d0 823f 0743 7b3f 03e9 793f
00000070: ec78 753f 5e82 7d3f 96d0 833f 114a 7d3f
00000080: 42bb 7e3f d633 803f ed29 6d3f 5b48 763f
00000090: 3027 763f 0326 773f ee1a 793f f6de 7d3f
000000a0: b003 793f 6b36 793f 54cb 763f 11a4 713f
000000b0: 8ad0 783f 13e1 773f b103 803f 8588 7c3f
000000c0: dcb3 7a3f 37e8 6d3f ee29 6e3f 6909 773f
000000d0: c7f6 7d3f 2d48 7a3f dd31 7e3f f89f 7a3f
000000e0: ab76 723f 8bc5 6d3f 3d5d 7c3f fdba 823f
000000f0: e121 723f 334e 7a3f 01a2 7b3f ede6 733f
00000100: 8d9b 773f cf5b 7a3f b49b 773f 7c4c 733f
00000110: 9a7f 833f e5a2 783f 37c8 803f 7bbf 773f
00000120: 932b 7b3f ee2e 7c3f e96f 743f d188 803f
00000130: 60a9 7a3f c347 723f 6008 7c3f 77a7 6e3f
00000140: 196a 7b3f 5e8e 7c3f bace 763f a765 793f
00000150: ddda 7f3f 68fb 803f a930 763f 9290 7b3f
00000160: 320c 7e3f 0dfa 723f a8b0 823f f18a 7a3f
00000170: f5e9 793f 50d7 803f 39d2 743f e41f 783f
00000180: 45a8 753f 549b 763f c422 7e3f f301 763f
00000190: f8ba 7d3f 7069 813f 0d65 783f cae5 7e3f
000001a0: a306 7d3f ee19 7c3f 112a 7d3f 3938 773f
000001b0: 584f 7b3f ba0c 773f aa3b 813f 6eed 843f
000001c0: 2578 7f3f 7299 7a3f e4b0 793f cb44 833f
000001d0: 4d98 7e3f d55e 833f 4b08 7f3f 8a92 783f
000001e0: 82ef 7f3f d345 793f 1acf 7b3f 9b53 773f
000001f0: ac98 723f 00b9 773f 0e27 7d3f 6f5c 7f3f
00000200: c15f 783f 7d0d 7b3f 6c2b 7f3f d758 753f
00000210: b17c 7e3f ce9f 793f 12b9 773f de57 803f
00000220: 883a 7a3f 9c8c 783f 6e91 793f 7771 723f
00000230: a37a 803f 83ef 6e3f 482d 723f 0eec 793f
00000240: 9a5b 7b3f d86d 723f 59d1 763f b91b 803f
00000250: c2e0 743f 13d5 823f a9b8 783f 3760 7e3f
00000260: ad3b 793f d630 773f a3cb 7a3f cd6d 743f
00000270: 515c 783f 1bc1 843f 02c1 753f 83bf 813f
00000280: ec67 763f 8c0c 7a3f c11d 783f 6bc0 783f
00000290: e760 783f 622e 773f c5de 773f f064 7c3f
000002a0: e472 7e3f 4ac4 7f3f 6dbb 6e3f 7531 7f3f
000002b0: 6e6b 713f f226 733f f5a5 783f 41b5 723f
000002c0: 593e 763f 6706 803f 1450 753f c523 7f3f
000002d0: 437a 7d3f 4a7a 803f c31c 813f 0739 7f3f
000002e0: 5e3f 773f d95e 803f 50f2 7b3f 09e0 733f
000002f0: c241 703f 1f98 743f 1d67 793f 0d3a 793f
00000300: 6799 753f 5c33 713f c065 803f c5c9 723f
00000310: 4e46 6d3f 9291 7b3f b9da 7f3f f908 783f
00000320: 2ee4 743f e987 773f 4418 7a3f f1ac 6f3f
00000330: 27c8 763f add1 6f3f c1ee 7e3f 36a8 753f
00000340: 69da 7d3f 5f9e 773f a537 7b3f f2c9 793f
00000350: 0d6e 5e3f 6bf3 773f bc07 7f3f e359 843f
00000360: 61c8 803f 7c3c 7d3f a4aa 723f 6daa 803f
00000370: ff1c 793f 3227 823f e8c7 893f ab52 7d3f
00000380: 3507 763f bd26 7a3f 5850 7e3f 5398 7f3f
00000390: 0708 723f 8527 803f 4f77 763f 6f44 7f3f
000003a0: 6830 7c3f a2ed 713f 78d5 773f 9e11 7a3f
000003b0: b172 7d3f 8154 833f abf8 763f c715 673f
000003c0: e87d 783f a6f5 773f e19a 7b3f aed9 793f
000003d0: d326 7c3f 1d1d 753f 9442 7b3f 109e 773f
000003e0: 155f 783f 90f9 773f a4de 853f 2f17 7b3f
000003f0: ad48 723f 2a08 793f a2d8 7e3f c10a 833f

decoder_net.2.bias f4 [512]
-2.4199835e-06 -0.021162344 -0.020253008 -0.01842863 0.015828826 -0.0014919337 -0.0362092 0.022690492
-0.0050493344 0.03526626 -0.027713845 0.0034392157 0.0054930453 0.009091815 0.0048651723 0.017766507
0.010307561 -0.012189321 -0.018380402 -0.014370591 0.01402381 0.021563312 -0.01966986 -0.008386439
0.015710976 0.009452105 0.01327169 0.00077488297 -0.0022267727 0.008133807 0.04576069 0.015833875
0.018156402 0.023937548 0.0037179978 0.0057713343 -0.009039181 0.011480637 -0.007131991 0.012013179
0.005461218 0.009719357 -0.0033628289 -0.013259199 -0.010349499 0.012169654 -0.0148052145 -0.017180469
0.018194253 0.032409962 0.015197728 0.0021514464 -0.009292483 -0.0066055176 0.0230335 0.007475974
-0.0031256413 0.013076405 0.020278245 0.04419552 0.022859031 -0.008490139 -0.013745767 0.0075486423
-0.0017298154 3.5216035e-05 0.014389923 -0.008532313 -0.017336614 0.0032081385 -0.016001802 -0.025815347
-0.004942693 -0.0147492755 0.01324203 0.01809016 -0.0145284105 -0.0032844397 -0.013067 -0.0050675194
0.01476569 0.0040685968 -0.008398093 0.011472636 -0.003637049 -0.027372386 0.01835589 0.004264433
-0.011595742 0.0023127971 0.019459793 0.023170497 -0.010049907 0.014033587 -0.00065789063 -0.011539305
0.0027057894 6.9764865e-05 0.010666059 -0.0119778635 -0.015271629 -0.018164247 0.009007701 0.013784411
0.008997418 0.020828808 0.0027786423 0.012194436 0.015824981 0.011432356 -0.018885875 0.0060388525
-0.023661101 -0.006700848 0.006171926 -0.009858103 -0.0153799765 0.029393826 0.0118951015 0.0047964347
-0.010372609 0.009500911 -0.011054567 0.0025151572 -0.032679293 0.009264226 -0.010814929 0.0056875227
0.020359209 0.0032704917 -0.007642835 -0.0006068419 -0.0048688436 -0.0053622127 -0.013570305 -0.014806693
0.016227115 -0.016166825 -0.017604943 0.0015357843 -0.009975978 -0.00574937 0.01498703 -0.047248125
-0.008838289 0.0007506826 -0.014041833 0.0064773797 -0.015430748 0.002288725 -0.009884727 -0.008785119
0.024261404 0.0024507355 -0.006218413 -0.008844022 0.0099105565 -0.029465202 -0.015203409 0.04008257
0.013921576 0.0013842302 -0.009789457 0.0053422335 0.010617027 -0.0017934083 0.013115251 -0.00972288
0.008784329 -0.0016794608 -0.017862888 -0.013914248 0.0041537597 0.028950585 0.018197255 -0.011740163
-0.011372699 -0.0054659694 0.014808481 -0.024050383 0.02013815 0.007107349 -0.013833794 -0.012481663
0.00134018 0.014911751 -0.015120194 0.0063128048 0.011304563 -0.0133803915 -0.009274287 0.014986561
0.002903017 0.0024506699 0.007234443 0.008791076 0.016075045 -0.0073610665 -0.019540306 -0.03527527
0.016044296 0.010611642 -0.0060304534 0.022785619 0.0024705753 -0.0005418821 -0.014036946 -0.025060426
0.005419357 0.014595026 -0.022660544 -0.016908217 0.032465156 -0.0053119073 -0.017845804 0.0053826496
0.006425668 0.012650984 -0.011610755 -0.026317896 0.017797763 -0.016552381 0.0061222813 0.034852237
0.0054150764 0.005875989 0.015716178 -0.02770867 0.010310988 0.014447619 -0.011796972 -0.022485314
-0.007755059 0.010236219 0.00029250796 -0.0047701877 -0.0051105744 -0.014777891 0.020829184 -0.0044851312
0.011017632 -0.011053781 -0.009599521 0.0062767626 -0.009622677 0.0054368917 -0.0038634234 0.0025116808
0.005636014 0.010764997 -0.009125751 -0.008415653 0.0023600282 0.006620417 0.0066884705 0.029555814
00000000: 0067 22b6 a75c adbc a3e9 a5bc a3f7 96bc
00000010: 74ab 813c fd8c c3ba 1950 14bd 69e1 b93c
00000020: e374 a5bb 5b73 103d 2508 e3bc 7764 613b
00000030: 01ff b33b d6f5 143c 066c 9f3b 118b 913c
00000040: 0be1 283c b8b5 47bc 7f92 96bc a172 6bbc
00000050: 1fc4 653c 8ba5 b03c b022 a1bc 4667 09bc
00000060: 4eb4 803c 00dd 1a3c 8171 593c 8421 4b3a
00000070: 0cef 11bb a943 053c 906f 3b3d 0bb6 813c
00000080: bcbc 943c ad18 c43c a7a9 733b 761d bd3b
00000090: 1319 14bc 4819 3c3c 7ab3 e9bb edd2 443c
000000a0: 04f4 b23b f03d 1f3c e862 5cbb 1d3d 59bc
000000b0: f290 29bc 3a63 473c 9291 72bc 0ebe 8cbc
000000c0: 1d0c 953c 4fc0 043d e4ff 783c 48ff 0c3b
000000d0: 803f 18bc 1973 d8bb c0b0 bc3c 04f9 f43b
000000e0: 8fd7 4cbb 6b3e 563c 901e a63c 5d06 353d
000000f0: dd42 bb3c 391a 0bbc ed35 61bc 9a5a f73b
00000100: f9ba e2ba eeb4 1338 b6c3 6b3c 1dcb 0bbc
00000110: 8405 8ebc a23f 523b 3616 83bc b57a d3bc
00000120: 50f6 a1bb f2a6 71bc 19f5 583c d131 943c
00000130: 9208 6ebc c13f 57bb f816 56bc 6f0d a6bb
00000140: cbeb 713c dd51 853b 2898 09bc b9f7 3b3c
00000150: 8f5b 6ebb 0e3c e0bc 175f 963c a8bc 8b3b
00000160: 11fc 3dbc 4c92 173b 256a 9f3c 0ed0 bd3c
00000170: 5da8 24bc 21ed 653c 4b76 2cba 5a0f 3dbc
00000180: 9d53 313b ba4e 9238 b2c0 2e3c cd3e 44bc
00000190: db35 7abc 30cd 94bc 0995 133c 03d8 613c
000001a0: e869 133c 2da1 aa3c e219 363b 2ccb 473c
000001b0: 64a3 813c c74e 3b3c 8db6 9abc 91e1 c53b
000001c0: edd4 c1bc ca92 dbbb de3d ca3b e183 21bc
000001d0: 4cfc 7bbc 52cb f03c ace3 423c 692b 9d3b
000001e0: e0f1 29bc b6a9 1b3c 371e 35bc 56d5 243b
000001f0: b9da 05bd fbc8 173c 1a31 31bc 665e ba3b
00000200: 5bc8 a63c bf55 563b bf70 fabb 7814 1fba
00000210: d28a 9fbb 80b5 afbb fc55 5ebc c697 72bc
00000220: baee 843c 4a70 84bc 3e38 90bc 5f4c c93a
00000230: 4972 23bc 3665 bcbb 298c 753c 4087 41bd
00000240: 79ce 10bc 75c9 443a b70f 66bc 3340 d43b
00000250: 40d1 7cbc 6ffe 153b 8df3 21bc 76ef 0fbc
00000260: dabf c63c 859c 203b d4c3 cbbb 84e6 10bc
00000270: e35f 223c 0261 f1bc b817 79bc 9f2d 243d
00000280: 5217 643c 0f6f b53a f563 20bc e70d af3b
00000290: 0af3 2d3c cc10 ebba 5ae1 563c b74c 1fbc
000002a0: 25ec 0f3c 5a21 dcba 3155 92bc 96f8 63bc
000002b0: 431c 883b c729 ed3c 6912 953c d059 40bc
000002c0: 8f54 3abc e01b b3bb 459f 723c 4f05 c5bc
000002d0: c3f8 a43c c4e4 e83b 23a7 62bc e47f 4cbc
000002e0: fba8 af3a 6b50 743c b1ba 77bc a5db ce3b
000002f0: c636 393c 6e39 5bbc 2ef3 17bc 318a 753c
00000300: 8b40 3e3b 6b9b 203b e80e ed3b 7208 103c
00000310: d0af 833c 1a35 f1bb fe12 a0bc cd7c 10bd
00000320: 546f 833c 74dc 2d3c 1c9b c5bb e8a8 ba3c
00000330: 60e9 213b 180d 0eba 38fb 65bc 864b cdbc
00000340: dd94 b13b fa1f 6f3c 9ba2 b9bc 1a83 8abc
00000350: 2ffa 043d 820f aebb 5d31 92bc f060 b03b
00000360: 698e d23b 1346 4f3c 093b 3ebc a198 d7bc
00000370: 9dcc 913c dc98 87bc 6b9d c83b 38c1 0e3d
00000380: f470 b13b 5e8b c03b 37bf 803c 4bfd e2bc
00000390: 6bef 283c b5b5 6c3c 1648 41bc 1f33 b8bc
000003a0: 261e febb d0b5 273c c15b 9939 3c4f 9cbb
000003b0: 9b76 a7bb f81e 72bc f7a1 aa3c 02f8 92bb
000003c0: 4c83 343c eb1a 35bc 4f47 1dbc 4dad cd3b
000003d0: 6fa8 1dbc f427 b23b 7d31 7dbb 039b 243b
000003e0: 50ae b83b ac5f 303c 2d84 15bc cfe1 09bc
000003f0: b4aa 1a3b 15f0 d83b f52a db3b 091f f23c

decoder_net.3.weight f4 [256, 512]
0.079512976 0.28260988 0.5225637 0.37637433 -0.6702683 -0.055600878 0.29898152 0.3780253
-0.3042067 -0.48839265 0.20329571 0.27666134 0.45757806 0.9202512 -0.59235615 -0.029905165
0.8704625 -0.4426723 0.22546923 0.024937157 0.2637417 0.11293768 -0.33397213 -0.2817566
-0.30451787 0.055914514 0.32454586 0.28430519 0.44613147 0.015602446 0.06271082 0.50511235
-1.199033 -0.35585144 -0.8925137 -0.341418 -0.16899991 0.30943665 -0.7410805 -0.26691437
-1.1116996 0.7055612 0.41619846 -0.4057937 0.6973533 -0.05256547 -0.093596414 -0.07772839
0.79222053 -0.3159075 -0.030142397 -0.7209035 -0.41443825 0.88634807 -0.3102208 1.013498
-0.29438815 -0.810961 -0.5409555 0.029901022 -0.07082665 -0.17559515 0.50299466 -0.15635878
0.405114 -0.31773952 0.258917 1.0767049 -0.80505675 0.9733666 -0.02697027 -1.2559854
1.0812258 0.44761392 -1.2581606 -0.24269482 0.6884665 -0.2126876 -0.611367 -0.083416566
-0.030371483 -0.06777845 -0.11433764 -0.021475699 -0.30802715 -0.38785285 0.286375 0.92516595
-0.12685382 -0.08632754 0.53039646 -0.5501095 0.18942037 -0.50723046 -1.042488 -0.5799189
-0.5102442 0.91431284 0.25456232 0.00492291 0.3444843 -1.022474 0.13953944 -0.22111598
-0.4443634 -0.19523717 0.7469822 -0.333653 0.12971106 -0.7349002 0.3360951 -0.17738543
0.32787138 0.31270903 0.37532267 0.18749632 0.3096785 0.48954338 -0.5170397 0.23340462
0.18246365 -0.011660679 -0.717137 0.351996 0.3180231 -0.209313 -0.2897736 0.12248885
0.4065398 -0.06697797 -0.29294172 -0.2541238 -0.16726246 -0.056323253 0.33927524 -0.09227264
-0.44300178 -0.23481385 0.19467232 0.37838298 0.43016684 0.8282025 0.5953147 0.83243537
-0.031542778 0.9441196 0.4644297 0.5002366 0.8460704 0.04522496 0.4965258 -1.6355908
-0.5092585 -0.39759198 -0.16642076 0.40304446 -0.058649763 0.49082834 0.59059113 0.04692885
-0.9315195 -0.19791676 0.426272 -0.24362177 0.04726459 0.39211103 0.89612263 0.24981351
0.14297137 0.80001086 0.6436692 1.6356673 0.7074368 0.022663398 0.820908 0.49109572
-0.07617777 0.040017877 -0.34312716 0.07935004 0.44692343 0.9432994 -0.14189836 0.7459971
0.71270376 0.18700016 -0.13216826 -0.08196159 1.0246745 -0.13814099 -0.30894488 0.0019956925
-0.3477397 0.81646836 0.20270659 -0.6201846 -0.19265178 0.34195387 0.93071693 0.23090772
-0.45752296 0.09763642 0.20153713 -0.5410987 0.36239013 -0.6616432 0.4603197 0.74311006
-0.6090769 0.14193687 0.29623082 0.35792005 -0.05765162 -0.16289903 -0.21829915 0.14050588
0.19226734 -0.7481857 0.49524143 0.18318644 -0.10478048 -0.14878176 -0.64381045 -0.06664762
-0.82118464 -0.46149337 -0.28736696 0.21486719 0.45846877 0.36109924 0.09880498 0.45141652
-0.49001676 0.049908545 -0.043733653 0.36563915 -0.51793754 -0.7764644 -0.4823979 0.81426066
-0.98176306 -0.22008486 -0.38600639 -0.12993938 0.4375791 0.07623484 -0.3076867 0.3682929
0.016829228 0.1080817 -0.50301135 0.08356802 0.7259416 -0.26523426 -0.5257923 -0.43947545
00000000: b3d7 a23d 3eb2 903e bcc6 053f 23b4 c03e
00000010: b496 2bbf bfbd 63bd 1b14 993e 888c c13e
00000020: fbc0 9bbe 9a0e fabe c02c 503e 8ea6 8d3e
00000030: ac47 ea3e 9595 6b3f a7a4 17bf adfb f4bc
00000040: a1d6 5e3f f2a5 e2be 68e1 663e 0249 cc3c
00000050: 2709 873e df4b e73d 65fe aabe 6742 90be
00000060: c4e9 9bbe 9e06 653d e02a a63e 7390 913e
00000070: 586b e43e 67a1 7f3c 886e 803d 0b4f 013f
00000080: ea79 99bf 2932 b6be c77b 64bf 57ce aebe
00000090: 500e 2dbe 7b6e 9e3e 74b7 3dbf 00a9 88be
000000a0: 2c4c 8ebf a99f 343f f717 d53e 31c4 cfbe
000000b0: bf85 323f e44e 57bd 7aaf bfbd 1030 9fbd
000000c0: f7ce 4a3f a1be a1be 30ed f6bc 228d 38bf
000000d0: 4031 d4be b5e7 623f 43d5 9ebe 4dba 813f
000000e0: 0bba 96be 249b 4fbf 0f7c 0abf fdf2 f43c
000000f0: 900d 91bd 37cf 33be 42c4 003f 841c 20be
00000100: 1a6b cf3e c1ae a2be c590 843e 77d1 893f
00000110: 3318 4ebf 8e2e 793f c1f0 dcbc 21c4 a0bf
00000120: 9b65 8a3f a72d e53e 680b a1bf fe84 78be
00000130: 573f 303f c7ca 59be 8c82 1cbf 4ed6 aabd
00000140: 9ecd f8bc 6ecf 8abd da29 eabd ceed afbc
00000150: bcb5 9dbe a694 c6be be9f 923e add7 6c3f
00000160: f8e5 01be 7ecc b0bd 10c8 073f fad3 0cbf
00000170: 6af7 413e dbd9 01bf 3f70 85bf 9175 14bf
00000180: 5d9f 02bf 6810 6a3f fe55 823e 5d50 a13b
00000190: 3f60 b03e 6ee0 82bf 6de3 0e3e 3a6c 62be
000001a0: 9983 e3be 41ec 47be 3a3a 3f3f 91d4 aabe
000001b0: fad2 043e 6b22 3cbf a814 ac3e 87a4 35be
000001c0: c2de a73e 661b a03e 4b2a c03e 09ff 3f3e
000001d0: 2e8e 9e3e 6ea5 fa3e b75c 04bf 9f01 6f3e
000001e0: c0d7 3a3e 6f0c 3fbc 4a96 37bf d238 b43e
000001f0: ecd3 a23e 2656 56be 355d 94be 6fdb fa3d
00000200: fc25 d03e bf2b 89bd 75fc 95be 841c 82be
00000210: da46 2bbe 36b3 66bd 7cb5 ad3e 70f9 bcbd
00000220: 21d1 e2be 0b73 70be 2e58 473e 6abb c13e
00000230: d43e dc3e 1405 543f 8b66 183f 7c1a 553f
00000240: 0033 01bd d2b1 713f bbc9 ed3e 810f 003f
00000250: 1298 583f cf3d 393d a138 fe3e 0a5b d1bf
00000260: c45e 02bf 2d91 cbbe 346a 2abe d85b ce3e
00000270: bc3a 70bd da4d fb3e fb30 173f 7738 403d
00000280: 1078 6ebf b1aa 4abe 5340 da3e fc77 79be
00000290: 8498 413d c7c2 c83e 4b68 653f 1dcf 7f3e
000002a0: 1667 123e 83cd 4c3f 81c7 243f 8c5d d13f
000002b0: 941a 353f 97a8 b93c 0727 523f e670 fb3e
000002c0: 1703 9cbd c9e9 233d 5dae afbe 4682 a23d
000002d0: 26d3 e43e 127c 713f ce4d 11be aaf9 3e3f
000002e0: c173 363f f87c 3f3e 1e57 07be 7adb a7bd
000002f0: 8928 833f d574 0dbe 062e 9ebe 2aca 023b
00000300: f00a b2be 1204 513f 5192 4f3e 6bc4 1ebf
00000310: 8246 45be 9414 af3e 7743 6e3f 1373 6c3e
00000320: 7340 eabe 9af5 c73d c05f 4e3e 7285 0abf
00000330: 338b b93e 7361 29bf 06af eb3e 763c 3e3f
00000340: 77ec 1bbf e657 113e 91ab 973e 4c41 b73e
00000350: 1b24 6cbd 01cf 26be d089 5fbe c6e0 0f3e
00000360: bbe1 443e 1989 3fbf 4990 fd3e 3a95 3b3e
00000370: 2697 d6bd 3f5a 18be c3d0 24bf 8c7e 88bd
00000380: 2839 52bf dc48 ecbe c321 93be 2506 5c3e
00000390: 6bbc ea3e 00e2 b83e 445a ca3d 1120 e73e
000003a0: 7ae3 fabe e76c 4c3d 0f22 33bd 0e35 bb3e
000003b0: 8e97 04bf 5fc6 46bf dcfc f6be 6373 503f
000003c0: d354 7bbf ed5d 61be a1a2 c5be d40e 05be
000003d0: 5e0a e03e 0321 9c3d 1c89 9dbe e390 bc3e
000003e0: 73dd 893c f059 dd3d 5ac5 00bf b625 ab3d
000003f0: 4fd7 393f c9cc 87be 539a 06bf ed02 e1be

decoder_net.3.bias f4 [256]
0.4389336 0.4732748 0.4752496 0.44447166 0.4687424 0.51768976 0.5001968 0.49335897
0.46541524 0.4922731 0.49152032 0.51266456 0.4790922 0.5065693 0.49590662 0.45531848
0.50161624 0.5041828 0.462949 0.47556585 0.48611054 0.44994858 0.4840737 0.52212864
0.45139912 0.4973826 0.50327873 0.5142157 0.48807117 0.45099065 0.43977973 0.51491404
0.5037024 0.47995508 0.4639795 0.5234537 0.49852592 0.4775406 0.5146325 0.49465746
0.50222284 0.514504 0.5070295 0.47930643 0.51167744 0.48409775 0.4928622 0.5005874
0.49454153 0.47888258 0.4836372 0.49785864 0.45090532 0.48555085 0.49008802 0.4207557
0.49981162 0.5084722 0.4914676 0.43599716 0.50544995 0.470458 0.47676718 0.5116677
0.4718761 0.49862486 0.47697878 0.48565212 0.49888515 0.49157766 0.47499377 0.5077877
0.44454774 0.4796064 0.49806842 0.4419237 0.49028948 0.48293722 0.43991742 0.44450167
0.44834355 0.4868173 0.4411325 0.4748338 0.46749008 0.46925068 0.4803438 0.5033717
0.5098535 0.47490767 0.49074775 0.50460035 0.47762075 0.50212544 0.47578946 0.47899953
0.4888338 0.47741523 0.50637776 0.49780843 0.48101407 0.49183908 0.515239 0.48427978
0.4701121 0.46623066 0.50616115 0.4815731 0.4935743 0.48589444 0.4810836 0.5231256
0.46749437 0.46876863 0.4929699 0.42001662 0.49868086 0.47383514 0.44906673 0.4645769
0.40921456 0.48516813 0.50073963 0.5109932 0.4422876 0.49236178 0.49847582 0.48351586
0.5174548 0.4818293 0.4794468 0.4510137 0.45176482 0.4355279 0.503786 0.48004672
0.5003509 0.4954599 0.47857556 0.49701166 0.48318103 0.49125808 0.47880408 0.4735397
0.49416336 0.5026723 0.47762045 0.49064448 0.49565175 0.44658795 0.5082448 0.48726165
0.47678328 0.36693424 0.50702333 0.46105385 0.52638537 0.5017021 0.4686142 0.48738596
0.5021534 0.44844177 0.49429893 0.5013333 0.47863004 0.48928007 0.5068324 0.47469497
0.4913047 0.47750553 0.4861616 0.5073088 0.43417022 0.44147345 0.47869998 0.47981828
0.47415593 0.48490912 0.5024451 0.5088936 0.48171186 0.49081194 0.48631716 0.46672562
0.5063403 0.50293815 0.4609604 0.43812668 0.45494708 0.505262 0.47222888 0.48182917
0.4941437 0.47704494 0.4987396 0.512821 0.4864551 0.48884743 0.49887356 0.5035511
0.48199433 0.510672 0.5032563 0.48001438 0.47729874 0.48716655 0.44513986 0.47477895
0.49344313 0.47864997 0.5240628 0.48251754 0.51333356 0.48490757 0.49885294 0.47725838
0.45993096 0.47898754 0.50150055 0.49363324 0.44179672 0.49305826 0.41566417 0.49542627
0.49209484 0.48480612 0.50315166 0.5125054 0.48061106 0.5092631 0.47180268 0.485792
0.48864567 0.4283689 0.49765295 0.478002 0.48245054 0.45920184 0.47522533 0.48618108
0.47613335 0.50482297 0.49511966 0.49473777 0.49614567 0.48697716 0.48513603 0.47447562
0.49806237 0.46661052 0.47536543 0.5035183 0.5084259 0.5092082 0.47182122 0.5046838
00000000: e8bb e03e 1351 f23e ea53 f33e ca91 e33e
00000010: 01ff ef3e 5187 043f e60c 003f 8c99 fc3e
00000020: e84a ee3e 380b fc3e 8da8 fb3e fc3d 033f
00000030: 934b f53e 87ae 013f 79e7 fd3e 811f e93e
00000040: ec69 003f 2012 013f a707 ed3e 5e7d f33e
00000050: 7be3 f83e a95f e63e 82d8 f73e 39aa 053f
00000060: c91d e73e efa8 fe3e e0d6 003f a4a3 033f
00000070: 77e4 f93e 3fe8 e63e cf2a e13e 68d1 033f
00000080: a4f2 003f acbc f53e b98e ed3e 1001 063f
00000090: ca3e ff3e 3480 f43e f5be 033f be43 fd3e
000000a0: ad91 003f 89b6 033f afcc 013f a767 f53e
000000b0: 4bfd 023f a9db f73e 6f58 fc3e 7f26 003f
000000c0: 8c34 fd3e 1930 f53e 4c9f f73e 54e7 fe3e
000000d0: 10dd e63e 1f9a f83e d1ec fa3e 4b6d d73e
000000e0: 4fe7 ff3e 3c2b 023f a4a1 fb3e 053b df3e
000000f0: 2b65 013f dfdf f03e d41a f43e a8fc 023f
00000100: bf99 f13e c24b ff3e 9036 f43e 65a7 f83e
00000110: e06d ff3e 11b0 fb3e 6232 f33e 60fe 013f
00000120: c39b e33e f88e f53e d302 ff3e d343 e23e
00000130: 3907 fb3e 8c43 f73e db3c e13e b995 e33e
00000140: 498d e53e 1e40 f93e 1edc e13e 6a1d f33e
00000150: dc5a ef3e a041 f03e 9fef f53e f8dc 003f
00000160: c285 023f 1927 f33e 4a43 fb3e 7d2d 013f
00000170: b58a f43e 4b8b 003f ad9a f33e 6d3f f53e
00000180: 6d48 fa3e c56f f43e f9a1 013f bfe0 fe3e
00000190: 7a47 f63e 55d2 fb3e b4e6 033f 85f3 f73e
000001a0: 88b2 f03e c9b5 ee3e c793 013f c090 f63e
000001b0: c5b5 fc3e 28c7 f83e 9750 f63e 8feb 053f
000001c0: 6c5b ef3e 7102 f03e 8d66 fc3e 6b0c d73e
000001d0: 1953 ff3e 859a f23e 13ec e53e 06dd ed3e
000001e0: 9284 d13e f567 f83e 7930 003f 73d0 023f
000001f0: 8573 e23e d816 fc3e 3938 ff3e 648f f73e
00000200: eb77 043f 54b2 f63e 0d7a f53e 45eb e63e
00000210: b84d e73e 83fd de3e 1ff8 003f afc8 f53e
00000220: ff16 003f ecac fd3e db07 f53e 5078 fe3e
00000230: 8163 f73e 2e86 fb3e cf25 f53e cc73 f23e
00000240: fb02 fd3e 22af 003f ab8a f43e c135 fb3e
00000250: 11c6 fd3e 2da7 e43e 551c 023f 5c7a f93e
00000260: f01c f43e cede bb3e 48cc 013f 400f ec3e
00000270: 31c1 063f 8c6f 003f 33ee ef3e a78a f93e
00000280: 208d 003f 299a e53e c014 fd3e 6157 003f
00000290: ff0e f53e eb82 fa3e c5bf 013f 380b f33e
000002a0: 4a8c fb3e 9b7b f43e 2cea f83e fdde 013f
000002b0: 8f4b de3e cf08 e23e 2a18 f53e beaa f53e
000002c0: 91c4 f23e 0246 f83e 3ea0 003f da46 023f
000002d0: f0a2 f63e b44b fb3e 90fe f83e a9f6 ee3e
000002e0: 859f 013f 8ec0 003f 0003 ec3e 2452 e03e
000002f0: d3ee e83e da58 013f fcc7 f13e 50b2 f63e
00000300: 6700 fd3e 3c3f f43e cc5a ff3e 3d48 033f
00000310: a510 f93e 364a fa3e 5b6c ff3e bae8 003f
00000320: f6c7 f63e 66bb 023f 68d5 003f 72c4 f53e
00000330: 8060 f43e e56d f93e 5fe9 e33e 3a16 f33e
00000340: 94a4 fc3e 9c11 f53e fb28 063f 8a0c f73e
00000350: d469 033f ce45 f83e a769 ff3e 365b f43e
00000360: 127c eb3e db3d f53e 5762 003f 7fbd fc3e
00000370: 2e33 e23e 2272 fc3e efd1 d43e 83a8 fd3e
00000380: dbf3 fb3e 8238 f83e 8cce 003f 8e33 033f
00000390: a712 f63e 115f 023f 1f90 f13e bbb9 f83e
000003a0: c42f fa3e 2b53 db3e 5ecc fe3e aebc f43e
000003b0: c203 f73e 811c eb3e bc50 f33e baec f83e
000003c0: c0c7 f33e 143c 013f 5380 fd3e 454e fd3e
000003d0: ce06 fe3e 1255 f93e c063 f83e 78ee f23e
000003e0: 0802 ff3e 93e7 ee3e 1963 f33e 93e6 003f
000003f0: 3328 023f 785b 023f 8d92 f13e f532 013f

decoder_net.4.weight f4 [256]
0.95500237 0.9975383 0.9881395 0.947558 0.98597884 0.9612379 0.95003825 0.9720131
0.9944072 0.9909661 0.9679214 1.0101286 0.9568844 1.0370547 0.8948651 1.004907
0.9648054 1.0068084 0.9893936 0.9533158 0.99863017 0.97752297 0.9609002 0.9558026
0.9395549 0.97532445 0.963604 1.0635529 0.94134676 0.9234463 0.96249944 0.91792923
0.96644974 0.9563893 0.99678046 0.94544196 0.9982139 0.97731 0.99878573 0.96766233
0.9928917 1.0196711 1.1005028 0.943286 0.94962204 0.9539397 0.9454919 0.9757215
0.98752683 0.9363222 0.96486956 0.9623231 0.95266485 0.9891379 0.9712422 0.95528
0.9753462 0.9876888 0.95270795 0.9531263 0.98942584 1.1000065 0.97422826 0.9608295
0.9405748 0.9951114 0.9628473 0.935921 0.98976433 0.93417126 0.9682839 0.97664255
0.98131114 0.95624006 0.9707535 1.0214554 0.9600452 0.9364492 0.96653533 0.93462753
0.98854685 0.9243441 0.9495626 0.94302225 1.0039634 0.95446396 0.9237013 0.9658766
1.0241224 0.9742771 0.9749722 0.9778365 0.97189516 0.9861352 0.9573203 0.9456924
0.96292293 0.95491457 1.0035814 0.89743227 0.95897186 0.9540965 0.9672564 1.0619478
1.0558914 0.9412316 1.0171872 0.960332 0.95383275 0.9407449 1.0178099 0.9508718
0.94529253 0.9702389 1.0057316 1.011084 0.9540474 0.8705827 0.95773274 0.94691336
0.96777976 0.9935886 0.9875454 0.93544006 1.0735826 0.97674894 0.9690544 1.077957
0.9507335 0.96485186 0.9634165 0.97772485 0.97772485 0.9474983 0.9739196 0.96850574
1.0139635 0.9649246 1.0077678 0.98822325 0.9737999 0.90409946 0.95727277 0.9732763
0.970106 0.99431974 0.9637055 0.9754278 0.9629778 0.9511685 0.9360136 0.9602235
0.9564085 0.9710225 0.936581 0.9380936 0.9725942 0.9789854 0.9535186 0.98016953
0.9914921 1.0087364 0.948898 0.9782401 0.9633694 1.0049417 0.99954665 0.97141093
0.9660553 0.9605381 0.97581214 0.95632815 0.97790253 0.9576511 0.965429 0.9133773
0.9327364 0.9640565 0.9536633 0.9573751 1.0141943 0.9488534 0.9859349 0.9601302
0.9641183 0.9636691 0.9722817 0.99285436 0.95155185 0.9645495 0.9921173 0.9491058
0.9084778 0.9559078 0.9648758 0.9671332 0.98515356 1.1335179 0.9973277 0.98683226
0.9898372 1.0080003 0.9810539 0.9630027 0.9585456 0.96814096 0.98297143 0.97232705
0.9287567 0.95664114 0.946635 0.9615534 1.0554522 0.9645214 1.0412102 0.97837895
0.9494804 1.0146799 0.94998413 0.9748192 0.9574763 1.0106245 0.96362275 0.95965976
0.9855232 0.95294076 0.98326653 0.9283822 0.97657 0.9547307 0.937312 0.929803
0.9456251 0.9769325 0.980898 0.9472989 1.0866627 1.0080189 0.96343744 0.9705783
0.9604469 0.97733736 1.0634115 1.0121443 0.9522405 0.96923697 0.97261333 0.9587298
0.9509216 0.954615 0.9628283 0.9894912 0.9793457 0.97592074 0.95817304 1.009942
00000000: 097b 743f ac5e 7f3f b6f6 7c3f 2993 723f
00000010: 1c69 7c3f b013 763f b535 733f dad5 783f
00000020: 7891 7e3f f4af 7d3f b2c9 773f e54b 813f
00000030: 60f6 743f 35be 843f e115 653f cba0 803f
00000040: 7dfd 763f 19df 803f e648 7d3f 810c 743f
00000050: 3aa6 7f3f f23e 7a3f 8efd 753f 7baf 743f
00000060: ac86 703f ddae 793f c0ae 763f 8022 883f
00000070: 1afc 703f fa66 6c3f 5d66 763f 69fd 6a3f
00000080: 4069 773f eed5 743f 012d 7f3f 7c08 723f
00000090: f28a 7f3f fd30 7a3f 6cb0 7f3f b8b8 773f
000000a0: 272e 7e3f 9584 823f 47dd 8c3f 317b 713f
000000b0: 6e1a 733f 6435 743f c20b 723f e2c8 793f
000000c0: 8fce 7c3f d0b2 6f3f b101 773f cf5a 763f
000000d0: d8e1 733f 2438 7d3f 54a3 783f 3b8d 743f
000000e0: 4ab0 793f 2cd9 7c3f abe4 733f 1600 743f
000000f0: 034b 7d3f 03cd 8c3f 0667 793f ecf8 753f
00000100: 83c9 703f 9fbf 7e3f 297d 763f 8598 6f3f
00000110: 3261 7d3f d925 6f3f 74e1 773f 3f05 7a3f
00000120: 3537 7b3f 26cc 743f 4d83 783f 0dbf 823f
00000130: 86c5 753f 23bb 6f3f dc6e 773f c043 6f3f
00000140: 6811 7d3f d1a1 6c3f 8916 733f e869 713f
00000150: df81 803f c057 743f b077 6c3f b043 773f
00000160: 7116 833f 396a 793f c797 793f 7e53 7a3f
00000170: 1fce 783f 5b73 7c3f f112 753f e618 723f
00000180: 1e82 763f 4875 743f 5b75 803f 1fbe 653f
00000190: 2e7f 753f ab3f 743f 1e9e 773f e8ed 873f
000001a0: 7327 873f 8ef4 703f 3133 823f 51d8 753f
000001b0: 622e 743f a8d4 703f 9847 823f 566c 733f
000001c0: b1fe 713f 9461 783f d0bb 803f 336b 813f
000001d0: 733c 743f 82de 5e3f f92d 753f ea68 723f
000001e0: 6ac0 773f d35b 7e3f c6cf 7c3f 0079 6f3f
000001f0: 286b 893f 380c 7a3f f313 783f 7ffa 893f
00000200: 4563 733f 8800 773f 77a2 763f 2d4c 7a3f
00000210: 2d4c 7a3f 408f 723f cb52 793f feef 773f
00000220: 8ec9 813f 4c05 773f 89fe 803f 33fc 7c3f
00000230: f34a 793f 1073 673f d40f 753f a328 793f
00000240: de58 783f bd8b 7e3f 67b5 763f a3b5 793f
00000250: b785 763f c77f 733f 969e 6f3f 35d1 753f
00000260: 30d7 743f ee94 783f c6c3 6f3f e726 703f
00000270: effb 783f ca9e 7a3f cc19 743f 64ec 7a3f
00000280: 6dd2 7d3f 461e 813f fbea 723f f16d 7a3f
00000290: 619f 763f eea1 803f 4ae2 7f3f 63ae 783f
000002a0: 664f 773f d3e5 753f d3ce 793f ecd1 743f
000002b0: d257 7a3f 9f28 753f 5b26 773f 18d3 693f
000002c0: d0c7 6e3f 68cc 763f 4723 743f 8916 753f
000002d0: 1ed1 813f 0ee8 723f 3b66 7c3f 18cb 753f
000002e0: 75d0 763f 05b3 763f 74e7 783f b42b 7e3f
000002f0: e798 733f b7ec 763f 66fb 7d3f 99f8 723f
00000300: 0092 683f 60b6 743f 1a02 773f 0b96 773f
00000310: 0633 7c3f 1d17 913f de50 7f3f 0aa1 7c3f
00000320: f965 7d3f 2706 813f 5926 7b3f 5887 763f
00000330: 3f63 753f 16d8 773f 04a4 7b3f 6dea 783f
00000340: 00c3 6d3f 6fe6 743f ac56 723f 5d28 763f
00000350: 0f19 873f e0ea 763f 6046 853f 0b77 7a3f
00000360: 2611 733f 08e1 813f 2932 733f c08d 793f
00000370: 2b1d 753f 255c 813f fbaf 763f 43ac 753f
00000380: 404b 7c3f edf3 733f 5bb7 7b3f 75aa 6d3f
00000390: 7e00 7a3f 3b69 743f aef3 6f3f 9207 6e3f
000003a0: 7d14 723f 4018 7a3f 221c 7b3f 2e82 723f
000003b0: c317 8b3f c306 813f d6a3 763f d277 783f
000003c0: d9df 753f c832 7a3f de1d 883f f28d 813f
000003d0: 09c6 733f ea1f 783f 30fd 783f 516f 753f
000003e0: 996f 733f a661 743f ea7b 763f 4c4f 7d3f
000003f0: 66b6 7a3f f1d5 793f d44a 753f c845 813f

decoder_net.4.bias f4 [256]
-0.042287685 -0.019227726 -0.013605597 -0.033184823 -0.022089455 0.023629826 0.007921756 0.00030067447
0.03945155 0.00030267748 -0.005249831 0.01487791 -0.010789804 0.01448085 -0.0038489937 -0.022701746
-0.0042903773 0.008227342 -0.022663917 -0.014457064 -0.008930432 -0.024350138 -0.007486198 0.008858155
-0.017944435 0.005184555 0.014742515 0.01363387 -0.011648628 -0.049622033 -0.035518393 -0.004664998
0.0072748 -0.013863334 -0.0049114083 0.0012560551 0.0056938925 -0.010936689 0.02336168 0.002178471
0.011748031 0.023995401 0.031922396 -0.012036193 -0.013534836 -0.007071526 -0.0012392764 0.008230193
0.0036239475 -0.01758836 -0.009579952 -0.011577742 -0.03580731 -0.01925302 -4.133069e-05 -0.01727616
0.004621939 0.0125622125 -0.0049917223 -0.024511842 0.017821437 0.016143225 -0.018339856 0.008548824
-0.021576656 0.014461402 -0.010532132 -0.028265968 0.009184258 -0.0019188444 -0.01268919 0.019797955
0.003289892 -0.013683408 0.007458563 0.016692653 -0.01744811 -0.0075140093 -0.041394826 -0.019588748
-0.03108661 -0.00021857211 -0.067304045 -0.016265763 -0.021525642 -0.01596256 -0.022161148 -0.005866875
0.005291851 -0.020038346 -0.013280009 0.011670779 -0.014007548 0.011060411 -0.017351788 -0.013437022
-0.014512284 -0.013399443 0.021764884 0.0037564707 -0.01014572 -0.015055964 -0.015983585 -0.010030135
-0.018235028 -0.022882478 0.004964399 -0.00956322 -0.0068723513 -0.017679365 -0.026345365 -0.008644486
-0.017265387 -0.010451848 -0.0077113193 0.016035967 0.007821425 -0.019728534 -0.024622928 -0.033647217
-0.009457465 -0.0048746057 0.0035290858 0.020332007 0.05909115 0.004776336 0.0011712365 -0.007032802
0.0016011328 -0.00844514 0.0094812615 0.0 0.0 -0.020110147 -0.0070008654 -0.011417886
0.012658903 0.004415905 -0.0034116183 0.007821518 -0.013844498 -0.013511105 -0.010031794 -0.0178641
0.00068473327 0.009515952 -0.011921683 -0.008350404 -0.014565652 -0.044789903 0.01357508 -0.0026289488
-0.018928334 -0.008509216 0.0057397448 -0.024871115 0.005605856 0.013362227 -0.020670908 -0.012718487
0.01342178 0.021573003 -0.0034454348 0.008615613 -0.015788853 -0.023776751 0.009678908 -0.01789862
-0.0051617566 -0.014093011 -0.009903923 0.01666221 0.0010445676 0.0048178704 -0.010090379 -0.009847933
-0.029777842 -0.00634468 0.0035696574 0.019257829 -0.0080986535 -0.014977589 -0.004005664 -0.027483627
0.007774989 0.015137057 -0.014848521 -0.006266205 0.12225456 0.013329244 -0.016428215 -0.008796074
0.0021721937 -0.014560255 0.0070250547 0.016550478 0.00010295434 -0.0011720601 0.008201507 0.010019546
-0.013211637 0.025384149 0.013272775 -0.012340309 -0.014081956 -0.009867413 0.035179853 -0.015231134
-0.013706625 -0.01205638 0.031739265 -0.007397326 0.015499659 -0.008982905 0.002269715 -0.033460915
-0.0095796 0.058421638 -0.01425791 0.0031160342 -0.031917684 -0.0058217007 -0.03312682 -0.002290541
-0.004949685 -0.018621953 0.012225402 0.021480098 -0.009707111 -0.0068598017 -0.018952062 -0.017623601
-0.012186375 -7.710511e-05 0.0054442114 -0.014081762 0.0010387048 0.010049142 -0.015358434 -0.0073146624
-0.015358279 0.011489321 0.0015249136 -0.004219002 -0.008066964 -0.012504412 -0.014247806 -0.016597202
-0.021789575 -0.013385056 -0.016328305 0.013072069 0.015630858 0.0155380415 -0.019467415 0.002219109
00000000: da35 2dbd 7783 9dbc 03ea 5ebc cfec 07bd
00000010: f2f4 b4bc 5693 c13c 41ca 013c d8a3 9d39
00000020: f397 213d afb0 9e39 c606 acbb 7ac2 733c
00000030: b8c7 30bc 1641 6d3c 663f 7cbb 03f9 b9bc
00000040: 4b96 8cbb f9cb 063c aea9 b9bc 52dd 6cbc
00000050: f250 12bc f179 c7bc c84e f5bb cc21 113c
00000060: 3500 93bc 33e3 a93b 978a 713c 9860 5f3c
00000070: e3d9 3ebc 7940 4bbd bc7b 11bd d7dc 98bb
00000080: 7261 ee3b 0a23 63bc e1ef a0bb 37a2 a43a
00000090: d593 ba3b cc2f 33bc fe60 bf3c aec4 0e3b
000000a0: d07a 403c 0192 c43c 0fc1 023d 7433 45bc
000000b0: 37c1 5dbc 42b8 e7bb 376f a2ba eed7 063c
000000c0: c07f 6d3b 7715 90bc 3bf5 1cbc 92b0 3dbc
000000d0: b0aa 12bd 82b8 9dbc 7e5a 2db8 bc86 8dbc
000000e0: a273 973b bdd1 4d3c 9a91 a3bb 0fcd c8bc
000000f0: 43fe 913c cc3e 843c 773d 96bc 5e10 0c3c
00000100: 87c1 b0bc 84ef 6c3c f78e 2cbc 088e e7bc
00000110: 9279 163c bc81 fbba 52e6 4fbc 522f a23c
00000120: 3b9b 573b 5f30 60bc f666 f43b 08bf 883c
00000130: 57ef 8ebc 1438 f6bb 9f8d 29bd 9578 a0bc
00000140: 59a9 febc 8130 65b9 b4d6 89bd c73f 85bc
00000150: 8b56 b0bc eac3 82bc 4c8b b5bc ea3e c0bb
00000160: 4367 ad3b 7527 a4bc 6594 59bc cc36 3f3c
00000170: ea7f 65bc ba36 353c 5625 8ebc f526 5cbc
00000180: eec4 6dbc 5689 5bbc 454c b23c 1f2f 763b
00000190: 3c3a 26bc 4aad 76bc 02f0 82bc 6f55 24bc
000001a0: a061 95bc 0974 bbbc 66ac a23b 0daf 1cbc
000001b0: 7631 e1bb 51d4 90bc 3cd2 d7bc 9aa1 0dbc
000001c0: 2470 8dbc 3a3e 2bbc 3caf fcbb dc5d 833c
000001d0: 6f25 003c bc9d a1bc 06b6 c9bc aad1 09bd
000001e0: 7cf3 1abc 28bb 9fbb 3c48 673b 4f8f a63c
000001f0: 9009 723d cf82 9c3b 2d84 993a 6b73 e6bb
00000200: 1add d13a 7c5d 0abc 4b57 1b3c 0000 0000
00000210: 0000 0000 09be a4bc 8467 e5bb 1612 3bbc
00000220: 4a67 4f3c 4cb3 903b 7595 5fbb d325 003c
00000230: 09d4 62bc af5d 5dbc 655c 24bc bc57 92bc
00000240: ac7f 333a cce8 1b3c 2a53 43bc 22d0 08bc
00000250: c6a4 6ebc 9e75 37bd 036a 5e3c 714a 2cbb
00000260: 980f 9bbc 3d6a 0bbc 7814 bc3b 82be cbbc
00000270: 54b1 b73b 3eed 5a3c 0956 a9bc 3361 50bc
00000280: 07e7 5b3c deb9 b03c cecc 61bb 8028 0d3c
00000290: a057 81bc 76c7 c2bc 4894 1e3c 20a0 92bc
000002a0: f423 a9bb 5fe6 66bc 1044 22bc 307f 883c
000002b0: dfe9 883a 3adf 9d3b 1e52 25bc 3a59 21bc
000002c0: a9f0 f3bc 09e7 cfbb eaf0 693b 98c2 9d3c
000002d0: 37b0 04bc 9064 75bc f241 83bb 5825 e1bc
000002e0: 56c5 fe3b 6b01 783c 3647 73bc bd54 cdbb
000002f0: 9960 fa3d e762 5a3c 7794 86bc 691d 10bc
00000300: 5d5b 0e3b 238e 6ebc 6e32 e63b de94 873c
00000310: 31e9 d738 d09f 99ba 9d5f 063c 0629 243c
00000320: 9f75 58bc 6bf2 cf3c 0e76 593c 022f 4abc
00000330: 01b8 66bc eeaa 21bc c018 103d 028c 79bc
00000340: c191 60bc 1f88 45bc 0801 023d 4565 f2bb
00000350: 48f2 7d3c 092d 13bc 80bf 143b 500e 09bd
00000360: c1f3 1cbc 874b 6f3d 029a 69bc 6136 4c3b
00000370: 1ebc 02bd f7c3 bebb fdaf 07bd e71c 16bb
00000380: f830 a2bb 118d 98bc 0d4d 483c 08f7 af3c
00000390: 930a 1fbc 30c8 e0bb 5b41 9bbc 5f5f 90bc
000003a0: 5da9 47bc 7eb3 a1b8 5b65 b23b 31b7 66bc
000003b0: 2625 883a 28a5 243c f1a1 7bbc d6af efbb
000003c0: 4ba1 7bbc b43d 3c3c 9cdf c73a 8e3f 8abb
000003d0: 4d2b 04bc 4edf 4cbc a16f 69bc dbf6 87bc
000003e0: 0d80 b2bc fe4c 5bbc f0c2 85bc 3b2c 563c
000003f0: 490c 803c 4593 7e3c 217a 9fbc 796e 113b
