Value_Net_499.pt (torch, 54418 bytes, 11 tensors)

decoder_net.0.weight f4 [32, 255]
-0.02583787 -0.41101325 0.12827572 -0.12731858 0.19421032 -0.40910548 0.36945257 -0.055990938
-0.40097636 -0.33854535 -0.47322097 0.1665195 0.41764647 0.21440986 0.48394498 -0.034006104
0.16750552 -0.0076064286 0.25087875 0.41741395 0.10381263 0.29418057 -0.48997164 -0.17220081
0.083312966 -0.3762237 -0.2647812 0.065975726 0.46034455 -0.41736987 0.10029471 0.49669927
-0.19063084 -0.3982203 0.35877517 -0.23589416 -0.32199052 -0.19699591 0.18636015 -0.03363445
0.22893861 -0.3022337 0.019109558 0.33591697 -0.13577603 -0.13266669 -0.50254756 0.4776046
-0.24702092 0.017038092 -0.34891742 -0.32799393 0.36320698 -0.43509647 0.46523708 -0.49561304
0.18674523 0.285596 -0.013443015 0.30747676 -0.28230536 0.080007955 0.08837796 0.020888394
0.15322469 0.29491815 -0.24526411 0.11868353 -0.08942208 -0.053806506 -0.29659703 -0.3394398
0.35265282 -0.32034594 0.00056597486 0.50314057 0.41185898 -0.4695011 -0.17525585 0.20667876
0.48129594 -0.018228356 -0.15846121 -0.410273 0.1671285 -0.055328656 -0.2988826 -0.4888146
0.029287968 0.47232285 -0.12801333 0.11168573 0.47933692 0.1997062 -0.22904555 -0.09592512
0.3228393 -0.26574546 0.28276643 0.3746358 -0.11348985 0.21702859 0.43744442 0.42123345
0.42783746 -0.059535198 0.4600717 0.0020106938 0.042574074 0.1913541 0.47021693 0.34407938
-0.014869495 0.14729764 -0.4334064 0.37089106 -0.21720417 -0.03551265 0.040031884 -0.12696725
-0.194791 0.1588271 0.4125263 -0.39252007 0.109361805 0.02531318 0.4314879 -0.44443905
-0.16023088 -0.24878438 -0.30603358 0.3520225 0.4611571 0.17827094 -0.21485625 -0.39972275
0.4604987 -0.085436486 0.013416916 0.50374454 0.29323494 0.23052375 -0.07153785 -0.12834553
0.15380141 -0.039199863 -0.34545127 0.059764948 0.40069658 0.38703677 0.26147854 -0.15507433
-0.108445525 0.24951555 -0.39925063 -0.32002047 0.15000093 -0.44278827 -0.09995876 0.1931357
-0.356355 -0.18554056 0.388132 -0.25763562 -0.04306588 0.43695053 -0.11082839 0.43446833
0.12756607 0.35241845 -0.1301189 0.084281266 0.2784469 0.21778089 0.2884032 -0.4243094
0.19254638 -0.47342697 0.08305487 0.14244528 -0.3065241 0.3252588 -0.42420843 0.22900008
0.38866282 -0.054029774 -0.47111526 -0.2422357 -0.23936957 0.4162617 -0.11205478 0.47910166
-0.3165558 -0.38426894 -0.28969246 0.49628368 -0.17774037 -0.27657974 0.1475036 0.40067658
-0.44477344 0.21704116 -0.09559116 -0.13529834 -0.2720583 0.23004872 0.13391683 0.39908957
-0.31109658 0.22575492 0.1929861 -0.46873906 0.025657646 0.45725465 0.35127795 -0.38495174
-0.42765564 -0.27615583 0.4956598 -0.2679377 -0.19013855 -0.46996334 0.12679474 -0.19487524
0.48044592 -0.26879483 -0.2067921 -0.33308917 0.27356553 -0.3737535 0.14780478 0.32130516
0.41973862 0.23181082 -0.45610043 0.3808558 -0.29059476 0.50151134 0.3378693 -0.346914
-0.19075592 0.3172381 0.12625135 -0.14105141 0.13169512 -0.38651395 0.13938501 -0.10298825
-0.18575853 0.08373806 -0.031603105 0.4532087 0.043095637 -0.014023919 0.23298226 -0.33253556
00000000: f1a9 d3bc 5470 d2be b65a 033e cd5f 02be
00000010: 12df 463e 4676 d1be e328 bd3e c156 65bd
00000020: c64c cdbe d155 adbe 054a f2be 1684 2a3e
00000030: c2d5 d53e 428e 5b3e a3c7 f73e fc49 0bbd
00000040: 9186 2b3e 593f f9bb 2e73 803e 48b7 d53e
00000050: b79b d43d d69e 963e 90dd fabe 6955 30be
00000060: fd9f aa3d 65a0 c0be 6791 87be 481e 873d
00000070: 48b2 eb3e 81b1 d5be 5067 cd3d 5e4f fe3e
00000080: bb34 43be 88e3 cbbe 61b1 b73e 3d8e 71be
00000090: f1db a4be 4cb9 49be 32d5 3e3e 47c4 09bd
000000a0: e26e 6a3e 60be 9abe a68b 9c3c 4ffd ab3e
000000b0: df08 0bbe c7d9 07be f5a6 00bf 9788 f43e
000000c0: 0df3 7cbe 7893 8b3c 4ea5 b2be d2ee a7be
000000d0: 44f6 b93e f7c4 debe 8e33 ee3e fec0 fdbe
000000e0: 243a 3f3e a439 923e 1740 5cbc 986d 9d3e
000000f0: 548a 90be 36db a33d 81ff b43d 231e ab3c
00000100: efe6 1c3e 83ff 963e 8426 7bbe 5a10 f33d
00000110: ec22 b7bd 3664 5cbd 91db 97be 0ecb adbe
00000120: e98e b43e 6204 a4be ee5d 143a d2cd 003f
00000130: 2edf d23e 7362 f0be 4576 33be 99a3 533e
00000140: 6c6c f63e a253 95bc a843 22be 4d0f d2be
00000150: bc23 2b3e 4da0 62bd 2407 99be e845 fabe
00000160: 52ed ef3c 4dd4 f13e ed15 03be 7dbb e43d
00000170: a66b f53e c87f 4c3e eb8a 6abe 6474 c4bd
00000180: 314b a53e ca0f 88be c3c6 903e 43d0 bf3e
00000190: 5e6d e8bd be3c 5e3e b7f8 df3e e9ab d73e
000001a0: 830d db3e 2edb 73bd 858e eb3e d8c5 033b
000001b0: 2762 2e3d 54f2 433e 46c0 f03e 2c2b b03e
000001c0: 2f9f 73bc 31d5 163e 72e7 ddbe 6fe5 bd3e
000001d0: c56a 5ebe b675 11bd 79f8 233d b403 02be
000001e0: 4b77 47be 92a3 223e a636 d33e 64f8 c8be
000001f0: 15f9 df3d 965d cf3c fbeb dc3e 848d e3be
00000200: 9013 24be 55c1 7ebe 6fb0 9cbe 4b3c b43e
00000210: c91c ec3e a88c 363e 4703 5cbe 76a8 ccbe
00000220: 7cc6 eb3e 53f9 aebd a0d2 5b3c 67f5 003f
00000230: e422 963e 6b0e 6c3e 7082 92bd 036d 03be
00000240: 1e7e 1d3e 0990 20bd fdde b0be 17cc 743d
00000250: 1a28 cd3e af29 c63e 84e0 853e cecb 1ebe
00000260: b018 debd 0181 7f3e 946a ccbe b9d9 a3be
00000270: d899 193e 25b5 e2be 2eb7 ccbd 5dc5 453e
00000280: 2a74 b6be 58fe 3dbe 3db9 c63e d1e8 83be
00000290: d965 30bd fbb7 df3e fff9 e2bd a272 de3e
000002a0: aea0 023e 3170 b43e e43d 05be a89b ac3d
000002b0: 9890 8e3e f401 5f3e 96a9 933e 153f d9be
000002c0: e12a 453e 0565 f2be ac18 aa3d 2ddd 113e
000002d0: baf0 9cbe 5288 a63e d931 d9be ff7e 6a3e
000002e0: d0fe c63e 534e 5dbd 0536 f1be a30c 78be
000002f0: 4c1d 75be 4120 d53e fa7c e5bd d04c f53e
00000300: 9a13 a2be e6be c4be 9252 94be e518 fe3e
00000310: 9201 36be dc9b 8dbe 2f0b 173e 7b25 cd3e
00000320: 58b9 e3be 0a40 5e3e 4cc5 c3bd a68b 0abe
00000330: 3a4b 8bbe e491 6b3e 7e21 093e 7855 cc3e
00000340: 0d48 9fbe 4c2c 673e 269e 453e 91fe efbe
00000350: fc2f d23c 481d ea3e b4da b33e 6518 c5be
00000360: aef5 dabe 4c64 8dbe 1fc7 fd3e 212f 89be
00000370: aeb3 42be 099f f0be 7bd6 013e 608d 47be
00000380: 02fd f53e 7a9f 89be 4fc1 53be aa8a aabe
00000390: c810 8c3e 9e5c bfbe 235a 173e 1c82 a43e
000003a0: fbe7 d63e d15f 6d3e ff85 e9be 88ff c23e
000003b0: d6c8 94be 0c63 003f 34fd ac3e b69e b1be
000003c0: 8555 43be 086d a23e 0948 013e c86f 10be
000003d0: 16db 063e 28e5 c5be f2ba 0e3e 81eb d2bd
000003e0: 7c37 3ebe dc7e ab3d 4272 01bd f90a e83e
000003f0: 0d85 303d 94c4 65bc e792 6e3e 1a42 aabe

decoder_net.0.bias f4 [32]
-0.027102618 -0.035569437 0.04537732 0.044907544 -0.025346689 0.054292284 0.019272879 0.006193518
-0.04333862 -0.016288634 0.05726463 0.04774487 0.050549142 -0.015637703 -0.020652806 0.03250594
0.014002384 -0.0152902845 -0.033125136 -0.045648713 -0.053482886 -0.030881625 0.02949282 -0.030868007
0.0028686568 -0.04610094 -0.0012841335 -0.03751113 -0.029372023 0.033385664 0.004868747 0.051061746
00000000: 4f06 debc 42b1 11bd 92dd 393d f9f0 373d
00000010: dca3 cfbc 9661 5e3d 28e2 9d3c fff2 ca3b
00000020: d683 31bd be6f 85bc 518e 6a3d 2090 433d
00000030: 9e0c 4f3d a41a 80bc 1330 a9bc f324 053d
00000040: 416a 653c 1a84 7abc 39ae 07bd 25fa 3abd
00000050: df10 5bbd 76fb fcbc ed9a f13c e7de fcbc
00000060: 1300 3c3b 57d4 3cbd 5f50 a8ba 45a5 19bd
00000070: 999d f0bc 68bf 083d 038a 9f3b 1f26 513d

decoder_net.2.weight f4 [32, 32]
-0.07925154 -0.35133806 -0.3251796 -0.11746803 0.03412769 -0.33750167 0.31497994 -0.35153094
-0.082561165 -0.49147156 -0.37677136 0.37690008 0.4099152 0.3907309 0.44517684 0.4051348
0.37451562 -0.40528327 -0.29367262 -0.20325424 -0.42684457 -0.16718426 -0.4720283 -0.10158137
-0.20640483 0.049120188 0.08463172 0.49049768 0.22512063 -0.28864402 0.48837242 -0.3130498
-0.35467374 -0.09340728 0.31660885 -0.21591309 0.070518635 -0.3833032 -0.48013332 0.12906997
0.14456387 0.33329952 0.04525652 -0.38706166 -0.45482114 -0.50428045 0.4603479 -0.1239292
0.3561674 -0.34217128 -0.36466867 0.32070258 -0.20670398 0.13421905 0.4293986 -0.20253557
0.24258764 -0.081533834 -0.2185735 0.067697614 -0.10611128 0.22295302 0.4044815 0.33325157
-0.17005548 0.16628987 0.48215458 0.016094796 0.27699843 0.5002456 -0.49467456 0.058909815
-0.31763726 0.15297206 0.2807613 -0.36188972 -0.20668463 0.3774552 -0.17620927 0.24956037
0.20939392 -0.33110684 -0.26920497 -0.31749493 -0.06645907 -0.35275558 -0.06046807 0.19649819
0.37516907 0.0040207985 0.3057972 0.080860265 0.40559536 -0.39290145 0.247671 -0.0055427034
0.21113122 -0.48777625 -0.13031529 0.00534898 0.2870885 -0.0650569 -0.014842807 -0.026123572
-0.0987533 -0.41694975 0.3275862 -0.40956476 -0.48911384 -0.4856436 -0.13712123 -0.39995915
-0.4619437 0.327047 -0.18741944 -0.22736333 -0.25404355 0.17223236 0.04882965 0.30011696
0.06829722 -0.02429527 0.18323101 0.307512 -0.48132002 -0.4441829 -0.0018303172 -0.18043746
-0.17230591 -0.05874291 0.02779957 0.47451663 0.14809088 -0.18283673 0.0021799735 0.27619067
-0.48112062 -0.30712596 -0.45246145 -0.18505459 -0.39145786 0.24803528 0.106805824 -0.10998301
0.27376676 -0.31672534 -0.37074617 0.4155296 0.501634 -0.3092199 0.0350789 -0.05969468
-0.16126786 0.05566777 -0.008337315 -0.251413 0.32153282 -0.29717055 0.28109336 -0.48837152
-0.3095327 0.076731175 -0.3009871 -0.39589083 -0.06772964 0.41780487 0.30534518 -0.002312313
-0.28545952 -0.24288106 -0.4540328 -0.4877365 -0.10510061 -0.39514768 0.044119474 -0.21128651
0.3974814 0.22515836 -0.14067477 0.4887776 0.2057801 -0.18193339 0.13643786 -0.46363932
0.045053206 -0.48279762 -0.40395242 0.32448438 0.01794708 0.27566025 -0.20074506 -0.48232964
-0.35362843 0.20205188 0.50096524 0.010792194 0.26951876 -0.23559964 0.45507386 -0.0022664927
-0.36620912 0.23428608 -0.10826793 0.0380202 -0.33265737 0.04720243 0.003964677 -0.018479714
0.03144633 -0.26300782 0.10439453 0.12624551 0.4286326 0.16914548 -0.27054873 0.062284965
-0.13327639 0.067271434 -0.500505 0.055085156 -0.47099164 -0.33193073 -0.252775 -0.3709944
-0.27318314 0.256847 0.25696644 0.38542676 -0.42812613 -0.34525928 -0.015770748 0.04409495
-0.26146117 0.27341753 -0.1619339 0.39282623 -0.39239204 -0.077530086 -0.061590493 -0.2551797
-0.16492887 0.06361396 0.48021257 -0.25174648 -0.28096125 0.44149724 -0.17918263 0.010738473
-0.4765512 0.23610696 0.27706414 0.39217496 -0.17584321 -0.17607044 -0.057280187 -0.29619345
00000000: a24e a2bd 95e2 b3be f17d a6be 1493 f0bd
00000010: 7ac9 0b3d 05cd acbe 0d45 a13e ddfb b3be
00000020: d415 a9bd 29a2 fbbe 2de8 c0be 0cf9 c03e
00000030: 68e0 d13e e10d c83e 38ee e33e d46d cf3e
00000040: 83c0 bf3e 4a81 cfbe 425c 96be e121 50be
00000050: 5f8b dabe 5a32 2bbe b1ad f1be e509 d0bd
00000060: ca5b 53be 4032 493d 6553 ad3d 8322 fb3e
00000070: 0686 663e 26c9 93be f30b fa3e 1048 a0be
00000080: cc97 b5be 514c bfbd 8e1a a23e 5218 5dbe
00000090: 136c 903d 5140 c4be 09d4 f5be eb2a 043e
000000a0: 8d08 143e 3ca6 aa3e e75e 393d f22c c6be
000000b0: 51de e8be 8618 01bf b8b2 eb3e 98ce fdbd
000000c0: 935b b63e 1331 afbe dab5 babe 2133 a43e
000000d0: 35aa 53be b870 093e 22da db3e 7c65 4fbe
000000e0: e568 783e 36fb a6bd bbd1 5fbe 0ca5 8a3d
000000f0: df50 d9bd cc4d 643e 3318 cf3e f39f aa3e
00000100: 0623 2ebe e447 2a3e f7dc f63e 3cd9 833c
00000110: bdd2 8d3e 1810 003f fc45 fdbe 6b4b 713d
00000120: 5aa1 a2be b5a4 1c3e f2bf 8f3e 9c49 b9be
00000130: 23a5 53be cf41 c13e 3470 34be c18c 7f3e
00000140: 5c6b 563e d686 a9be 3cd5 89be b28e a2be
00000150: b11b 88bd 619c b4be 5ead 77bd d236 493e
00000160: 2916 c03e e7c0 833b 7391 9c3e 119a a53d
00000170: 32aa cf3e 612a c9be 779d 7d3e 919f b5bb
00000180: c832 583e cfbd f9be 5f71 05be 7f46 af3b
00000190: 44fd 923e 8d3c 85bd 3f2f 73bc 1a01 d6bc
000001a0: 2c3f cabd 707a d5be 61b9 a73e 79b2 d1be
000001b0: 216d fabe 47a6 f8be 8269 0cbe 72c7 ccbe
000001c0: e283 ecbe b472 a73e e2ea 3fbe efd1 68be
000001d0: ff11 82be ae5d 303e 9901 483d eea8 993e
000001e0: 6adf 8b3d e006 c7bc e9a0 3b3e 3672 9d3e
000001f0: 946f f6be f16b e3be 41e7 efba 99c4 38be
00000200: f670 30be 689c 70bd ecbb e33c d8f3 f23e
00000210: 23a5 173e 8d39 3bbe e3dd 0e3b dd68 8d3e
00000220: 7155 f6be 9d3f 9dbe 07a9 e7be f37e 3dbe
00000230: 2a6d c8be f6fc 7d3e 03bd da3d c63e e1bd
00000240: 282b 8c3e d329 a2be 71d2 bdbe 4cc0 d43e
00000250: 166b 003f 1252 9ebe e5ae 0f3d 6982 74bd
00000260: 6723 25be e303 643d 3c99 08bc 34b9 80be
00000270: f39f a43e bd26 98be 78eb 8f3e d50b fabe
00000280: 127b 9ebe 3c25 9d3d fb1a 9abe 34b2 cabe
00000290: d6b5 8abd 85ea d53e 3456 9c3e 2d8a 17bb
000002a0: c027 92be d0b5 78be fd76 e8be 99b8 f9be
000002b0: fd3e d7bd cc50 cabe 9fb6 343d 7e5b 58be
000002c0: af82 cb3e ea8f 663e 0c0d 10be 0f41 fa3e
000002d0: 05b8 523e bf4c 3abe 5eb6 0b3e 2262 edbe
000002e0: b689 383d 4031 f7be dad2 cebe d122 a63e
000002f0: c105 933c 5723 8d3e 1d90 4dbe e9f3 f6be
00000300: c90e b5be b0e6 4e3e 423f 003f bed1 303c
00000310: 5dfe 893e 0841 71be 71ff e83e 7089 14bb
00000320: c37f bbbe b1e8 6f3e 94bb ddbd 12bb 1b3d
00000330: 1152 aabe 5657 413d 1fea 813b c562 97bc
00000340: decd 003d f6a8 86be cdcc d53d 8146 013e
00000350: bb75 db3e 7934 2d3e 5d85 8abe 851e 7f3d
00000360: 9b79 08be 9bc5 893d 1821 00bf f9a0 613d
00000370: d125 f1be d3f2 a9be ba6b 81be faf2 bdbe
00000380: a9de 8bbe 7381 833e 1b91 833e a856 c53e
00000390: 5933 dbbe d3c5 b0be a831 81bc e89c 343d
000003a0: 3dde 85be 62fd 8b3e 00d2 25be 8520 c93e
000003b0: 9ce7 c8be 18c8 9ebd 5046 7cbd eaa6 82be
000003c0: 1de3 28be 0948 823d 6cde f53e eae4 80be
000003d0: 27da 8fbe ed0b e23e a77b 37be 6cf0 2f3c
000003e0: 85fe f3be 06c6 713e 5adb 8d3e 28cb c83e
000003f0: 3e10 34be cf4b 34be a19e 6abd aba6 97be

decoder_net.2.bias f4 [32]
0.14775302 0.03671056 0.13969831 -0.16624616 -0.11819885 -0.12513788 -0.04426011 0.15962268
0.027243309 -0.019394107 -0.008777802 -0.060188938 -0.05813113 0.15593451 -0.12122209 0.048304666
0.0035460815 0.1694244 -0.089328356 -0.046941858 -0.10167454 -0.037079625 -0.10978941 -0.13228843
-0.025986634 0.022821227 0.068555154 0.0575938 -0.10924034 -0.1751952 -0.16093351 -0.0029940251
00000000: 914c 173e d05d 163d 130d 0f3e 6f3c 2abe
00000010: 3d12 f2bd 2524 00be 174a 35bd 2174 233e
00000020: 5c2d df3c 64e0 9ebc c5d0 0fbc ad88 76bd
00000030: e81a 6ebd 4cad 1f3e 4a43 f8bd 1ddb 453d
00000040: 6065 683b 977d 2d3e c9f1 b6bd 1b46 40bd
00000050: be3a d0bd cee0 17bd 45d9 e0bd 9e76 07be
00000060: ece1 d4bc 95f3 ba3c a566 8c3d 7ae7 6b3d
00000070: 66b9 dfbd 5f66 33be c1cb 24be 6837 44bb

decoder_net.4.weight f4 [32, 32]
0.29718348 0.07543949 0.41452935 0.1711844 0.3000272 -0.39946407 -0.28763643 0.16819642
0.4627554 0.24991128 0.43800852 -0.07105235 0.5013415 -0.4145997 -0.26738265 0.16062275
0.04633357 0.43542296 -0.3321308 -0.26398447 0.3060746 0.39651984 -0.17453809 0.27975366
0.49137017 -0.4005521 0.030365882 -0.18206507 -0.44864544 0.27808344 -0.059382893 -0.44981366
0.19556357 0.32423955 -0.058781005 -0.022670347 0.12317919 -0.36162052 -0.36608088 0.4642094
0.15792441 0.36310136 0.070233665 -0.39803421 -0.42569235 -0.36314002 -0.42465562 -0.42343774
-0.47193265 0.24522488 -0.428285 0.11016394 0.4394127 0.045262482 0.047571898 -0.3570607
0.2058133 -0.13215782 -0.19777659 -0.34961453 0.43786708 0.42238405 0.26096833 0.17057773
0.18855688 -0.2670553 0.3746844 0.12952474 -0.12684435 -0.09042545 -0.111559175 -0.21391952
0.038824994 0.08111437 -0.25768426 0.2775571 -0.13163503 0.037168633 -0.07741456 0.20854002
-0.1689942 0.38284835 0.4085769 -0.21709599 -0.07548786 -0.27760205 0.15824541 0.027873749
-0.32275808 0.4564226 -0.35574844 0.3866132 0.40628994 0.20863946 -0.4690312 0.42300448
0.274764 -0.41511548 -0.4953232 0.44478014 -0.38733095 -0.34397215 0.14003104 -0.46699354
0.17850271 0.4343289 -0.17773792 0.31726706 0.1601331 -0.37200803 0.087689936 0.06447816
-0.10853055 -0.3900134 0.44137663 0.2620769 0.4417502 -0.45409462 0.19344212 -0.3559725
-0.24333693 -0.30133197 0.14116512 -0.27950692 -0.20691918 -0.31885684 0.23721711 0.17984152
-0.44729275 -0.18451121 -0.26791888 0.104227975 -0.47020072 -0.35223058 0.42255893 -0.48602387
0.15031943 0.06462935 0.15054177 -0.016718773 0.40526104 0.2931776 0.45701215 -0.019189885
0.3576301 -0.088984944 0.325807 -0.23042488 0.48880228 0.28089032 -0.45886514 0.44045457
0.14604424 -0.1008763 -0.33000147 -0.08047111 -0.14836736 -0.33431527 0.27673358 -0.03248254
-0.35506856 -0.4887093 0.30951503 -0.4124202 0.29438272 -0.09425534 0.26266614 -0.14966972
0.3432307 0.31575462 0.32233232 0.11335452 0.25001895 0.4458993 -0.38831806 -0.05086257
0.413647 -0.42048037 -0.06057728 -0.014003081 -0.41169536 -0.387964 0.2643853 -0.13355589
-0.39861777 0.42974263 0.2646708 0.4815777 -0.2975555 -0.13851282 0.11929715 -0.4720289
0.026621845 -0.06692686 0.26717162 -0.24106984 -0.19178648 0.3945148 -0.20897937 -0.20043184
0.31098503 0.21498072 0.11544168 0.23695521 -0.10601342 -0.3530933 -0.08292883 -0.11351367
0.26846159 -0.22011214 -0.10410642 0.3900337 -0.076818645 -0.010428757 -0.26789773 -0.067859285
-0.09788466 0.28693116 -0.4459889 -0.31854847 -0.058866113 -0.49121994 -0.33485526 0.02354805
0.47553632 -0.03268513 0.015828868 0.34582922 -0.105280615 0.507019 -0.030632406 -0.1322776
-0.30572888 -0.33253327 -0.31965965 -0.12309748 0.00071531784 0.24934757 0.22352535 0.2006192
0.08655818 0.27935287 -0.3667608 -0.17036445 -0.10805767 0.19745766 0.010074476 0.36227256
0.26191255 0.38506207 0.048886858 -0.48039705 0.21135445 -0.40555868 -0.011374302 0.41615847
00000000: 6f28 983e 0580 9a3d 313d d43e f74a 2f3e
00000010: 2a9d 993e 8e86 ccbe 1545 93be af3b 2c3e
00000020: 47ee ec3e bee8 7f3e a742 e03e e583 91bd
00000030: eb57 003f 6946 d4be 61e6 88be 4a7a 243e
00000040: 45c8 3d3d c2ef de3e 0c0d aabe f928 87be
00000050: cfb5 9c3e a604 cb3e 1dba 32be df3b 8f3e
00000060: df94 fb3e 2a15 cdbe dfc1 f83c 446f 3abe
00000070: dbb4 e5be f460 8e3e 7a3b 73bd fa4d e6be
00000080: d141 483e ba02 a63e 5ac4 70bd 2ab7 b9bc
00000090: 5f45 fc3d 5326 b9be f46e bbbe dbac ed3e
000000a0: f0b6 213e 6ce8 b93e abd6 8f3d 24cb cbbe
000000b0: 59f4 d9be 7ded b9be 766c d9be d5cc d8be
000000c0: 28a1 f1be 3b1c 7b3e 2c48 dbbe a29d e13d
000000d0: b4fa e03e 2765 393d c0da 423d a9d0 b6be
000000e0: b9c0 523e 6154 07be f285 4abe ad00 b3be
000000f0: 1d30 e03e b942 d83e a49d 853e eeab 2e3e
00000100: 0e15 413e 79bb 88be a2d6 bf3e 22a2 043e
00000110: 7ce3 01be fa30 b9bd 2379 e4bd b80d 5bbe
00000120: f506 1f3d 4a1f a63d 31ef 83be f71b 8e3e
00000130: 55cb 06be 233e 183d 868b 9ebd 848b 553e
00000140: d10c 2dbe b304 c43e fe30 d13e 694e 5ebe
00000150: 6199 9abd db21 8ebe 160b 223e 7d57 e43c
00000160: 8c40 a5be 39b0 e93e a924 b6be 2af2 c53e
00000170: 3c05 d03e 95a5 553e dc24 f0be 0b94 d83e
00000180: dead 8c3e 048a d4be 019b fdbe 39ba e33e
00000190: 3e50 c6be 1e1d b0be 4c64 0f3e c719 efbe
000001a0: 6ac9 363e 5c60 de3e ee00 36be d470 a23e
000001b0: eef9 233e d677 bebe c896 b33d 200d 843d
000001c0: 4445 debd d6af c7be 1efc e13e f22e 863e
000001d0: 152d e23e 177f e8be b115 463e 0742 b6be
000001e0: 512d 79be 2f48 9abe 978d 103e 881b 8fbe
000001f0: 9fe2 53be 3441 a3be 0be9 723e 6028 383e
00000200: 8e03 e5be 82f0 3cbe aa2c 89be 7a75 d53d
00000210: 26be f0be 9157 b4be a559 d83e 1fd8 f8be
00000220: 56ed 193e 655c 843d 9f27 1a3e cff5 88bc
00000230: 607e cf3e 601b 963e 7ffd e93e 1b34 9dbc
00000240: 4b1b b73e bd3d b6bd 2dd0 a63e 80f4 6bbe
00000250: 4b44 fa3e dbd0 8f3e 5ff0 eabe 4383 e13e
00000260: 9f8c 153e 3c98 cebd f4f5 a8be 0ace a4bd
00000270: 9ded 17be 5f2b abbe 06b0 8d3e 690c 05bd
00000280: 8ccb b5be 1b38 fabe c178 9e3e be28 d3be
00000290: 55b9 963e f208 c1bd 2d7c 863e 0543 19be
000002a0: efbb af3e 97aa a13e be08 a53e 6a26 e83d
000002b0: 7c02 803e ea4c e43e a0d1 c6be 4555 50bd
000002c0: 8ac9 d33e 3449 d7be e21f 78bd 2e6d 65bc
000002d0: bcc9 d2be 38a3 c6be 835d 873e e0c2 08be
000002e0: a117 ccbe 3a07 dc3e ee82 873e 5a91 f63e
000002f0: 3259 98be 4ed6 0dbe 1052 f43d c6ad f1be
00000300: 0e16 da3c f310 89bd b8ca 883e 03db 76be
00000310: ad63 44be d8fd c93e b0fe 55be 013e 4dbe
00000320: 6e39 9f3e e823 5c3e b06c ec3d 63a4 723e
00000330: 901d d9bd a5c8 b4be 97d6 a9bd db79 e8bd
00000340: cc73 893e 1465 61be bf35 d5bd 7fb2 c73e
00000350: 1853 9dbd 61dd 2abc e429 89be cff9 8abd
00000360: c177 c8bd a4e8 923e a858 e4be c918 a3be
00000370: 981d 71bd 2e81 fbbe 2672 abbe d7e7 c03c
00000380: 7f79 f33e d8e0 05bd 8bab 813c 8710 b13e
00000390: 5d9d d7bd ffcb 013f d0f0 fabc c773 07be
000003a0: 7f88 9cbe cd41 aabe 6eaa a3be 881a fcbd
000003b0: 2b84 3b3a f854 7f3e d4e3 643e 1f6f 4d3e
000003c0: 6a45 b13d 5707 8f3e 12c8 bbbe 0574 2ebe
000003d0: 574d ddbd 5732 4a3e 6a0f 253c ca7b b93e
000003e0: 6719 863e db26 c53e 963d 483d 9af6 f5be
000003f0: 4d6d 583e 63a5 cfbe 485b 3abc b912 d53e

decoder_net.4.bias f4 [32]
-0.063775316 -0.10761504 0.091576174 -0.11506949 -0.08554938 0.027129766 0.017695233 -0.17192681
-0.011280436 0.037131134 -0.0048415917 -0.051410735 -0.08566495 0.113161966 -0.13154331 -0.075032786
-0.09722107 0.10794448 -0.0034729228 -0.06114863 0.090798244 0.10714432 0.094844684 -0.14286953
0.017603837 -0.08432288 -0.16445823 0.15680017 0.066796206 0.05982622 -0.14075787 -0.02911374
00000000: a29c 82bd 4665 dcbd 4a8c bb3d 8ea9 ebbd
00000010: 8334 afbd 3e3f de3c 98f5 903c 950d 30be
00000020: 94d1 38bc d116 183d 37a6 9ebb 1094 52bd
00000030: 1b71 afbd 76c1 e73d 4ab3 06be caaa 99bd
00000040: d71b c7bd ff11 dd3d fa99 63bb fc76 7abd
00000050: 6ef4 b93d 7b6e db3d ee3d c23d 644c 12be
00000060: ec35 903c 79b1 acbd bd67 28be 3990 203e
00000070: 73cc 883d 570c 753d d522 10be f07f eebc

decoder_net.6.weight f4 [32, 32]
-0.19099571 -0.28336933 0.08245392 0.18795177 0.26974073 0.23228817 -0.16828115 0.026978718
-0.30237702 -0.22880463 0.46940503 0.33777925 0.39820096 0.22983637 -0.17441471 0.11521542
-0.23980509 0.10087601 -0.26087305 0.20682006 -0.066777766 -0.35441753 -0.08861 -0.1464543
0.15280987 0.19600202 -0.08343907 0.02672301 -0.038562797 0.2617247 -0.4159081 -0.06960705
-0.3655776 -0.45642036 -0.07636998 0.36845264 -0.05546913 -0.3322824 -0.37285477 0.30549031
0.20790645 0.09948031 0.41074032 -0.38306636 -0.10337874 -0.14330553 0.20259948 0.0857404
0.0621795 -0.2936828 -0.47742516 0.31280112 0.20326467 -0.28364924 0.16703404 0.28766835
0.06845697 -0.18321401 -0.48550618 -0.1962453 0.3779503 -0.44374824 0.47443953 -0.47342792
0.17498136 -0.14418842 -0.19320928 -0.09568698 -0.0053126016 0.110042565 0.40454176 0.16826844
0.09061231 -0.26564306 0.0418902 -0.31134862 0.08265283 0.05252418 0.059468552 -0.46982917
-0.3346671 -0.34585625 -0.19583873 -0.18548307 -0.09404605 0.06940531 -0.42845303 0.36602607
-0.43479118 -0.11756953 0.4015831 0.22732052 -0.16897005 0.21250941 -0.0140301 -0.14572164
0.079354316 -0.33603883 -0.25079545 -0.15776575 0.30617973 0.05210245 0.48839813 -0.2888341
-0.002562242 0.36433727 -0.2940355 -0.38952437 0.3453325 -0.10068592 -0.05988391 0.476115
-0.023225939 0.18198283 0.06271879 -0.17173773 -0.21472515 -0.33245656 0.13140857 0.20274623
-0.49905425 -0.45430338 0.11422255 0.18956593 -0.2557899 -0.3760593 0.26632306 -0.043616325
-0.22799554 -0.12550113 -0.35575235 0.46498254 0.43806034 -0.272008 0.11371216 -0.040624864
-0.13829902 -0.13247551 -0.15012418 0.10957674 -0.31377923 -0.48565647 -0.48482957 -0.23328388
0.43375823 0.4141886 0.4168619 0.15733764 -0.029125184 0.38075268 -0.30203533 -0.005235707
0.20382833 -0.2170619 0.12298004 0.4753554 0.45967487 0.08524932 0.11138306 0.40815714
0.3632437 0.46748668 -0.2768859 -0.22269672 0.2599826 0.4016325 0.17551248 -0.17362364
0.32416934 -0.23556365 -0.1989801 -0.36046556 0.16280653 -0.35616723 -0.006640821 -0.33224013
-0.2259205 -0.24959743 -0.039650027 -0.057351995 0.13710399 -0.32169172 -0.3270063 0.2270463
-0.24582505 -0.07691019 0.121929936 0.123253435 -0.12307755 -0.047166735 -0.17118314 -0.4964182
0.3826875 -0.08437711 -0.29433554 -0.23638806 0.47519493 0.39371267 0.45894817 -0.51503104
-0.20016989 -0.43799567 0.044061624 0.08826218 -0.27895173 -0.04985236 -0.31072366 0.4916904
0.32893878 -0.14297977 0.2022979 0.40517986 -0.45588318 0.47338194 -0.4403744 -0.043692447
0.425111 -0.030764034 0.26434255 -0.2627192 0.34594727 -0.1739178 -0.2303841 0.021834966
-0.0416178 -0.15325728 -0.26180252 0.40010545 -0.18088317 -0.13042709 -0.38463756 0.41589212
-0.47954014 0.3861225 -0.13547984 -0.33358106 -0.13395669 -0.39011127 -0.08992239 0.3659467
0.10118574 0.45413285 0.06846998 0.4789707 -0.1702282 -0.44309613 0.27173477 -0.106534444
0.31113625 0.36284456 0.14813446 -0.1464699 0.37796324 0.04061111 0.30548692 -0.34568435
00000000: 6194 43be c915 91be 9add a83d 6e76 403e
00000010: 751b 8a3e f3dc 6d3e e551 2cbe 7902 dd3c
00000020: 29d1 9abe c34b 6abe db55 f03e 67f1 ac3e
00000030: ffe0 cb3e 3a5a 6b3e c599 32be 10f6 eb3d
00000040: 778f 75be 1598 ce3d 2791 85be a3c8 533e
00000050: c8c2 88bd 3776 b5be 2979 b5bd 1ef8 15be
00000060: 317a 1c3e c1b4 483e 1ae2 aabd 37ea da3c
00000070: 06f4 1dbd c800 863e e8f1 d4be 248e 8ebd
00000080: fd2c bbbe eeaf e9be dd67 9cbd d3a5 bc3e
00000090: 9933 63bd eb20 aabe d2e6 bebe 3a69 9c3e
000000a0: 6ee5 543e 55bc cb3d 8e4c d23e 4621 c4be
000000b0: 3cb8 d3bd afbe 12be 3d76 4f3e aa98 af3d
000000c0: eeaf 7e3d 985d 96be 1271 f4be 7827 a03e
000000d0: 9d24 503e 793a 91be f90a 2b3e 4449 933e
000000e0: 2b33 8c3d 749c 3bbe 4494 f8be 87f4 48be
000000f0: b482 c13e f832 e3be bde9 f23e 2565 f2be
00000100: 502e 333e 21a6 13be a7d8 45be 89f7 c3bd
00000110: 5515 aebb ff5d e13d 1920 cf3e 904e 2c3e
00000120: f292 b93d 5e02 88be 0f95 2b3d 1669 9fbe
00000130: e345 a93d 9823 573d 4c95 733d 738d f0be
00000140: 7c59 abbe 1214 b1be f389 48be 46ef 3dbe
00000150: 379b c0bd 5f24 8e3d 325e dbbe c567 bb3e
00000160: f39c debe 4bc8 f0bd 4d9c cd3e b6c6 683e
00000170: 7c06 2dbe 119c 593e 81de 65bc 0e38 15be
00000180: 8484 a23d 480d acbe 4368 80be 588d 21be
00000190: 97c3 9c3e 6169 553d 520f fa3e 10e2 93be
000001a0: 4aeb 27bb 6a8a ba3e d28b 96be bd6f c7be
000001b0: 6ccf b03e 6b34 cebd d548 75bd 58c5 f33e
000001c0: 5344 bebc b559 3a3e b572 803d 04dc 2fbe
000001d0: e9e0 5bbe bf37 aabe f88f 063e b59c 4f3e
000001e0: 0a84 ffbe 749a e8be 83ed e93d 921d 423e
000001f0: e5f6 82be d88a c0be 7f5b 883e 08a7 32bd
00000200: aa77 69be 5e83 00be 2c25 b6be 3112 ee3e
00000210: 7249 e03e a244 8bbe ece1 e83d 4266 26bd
00000220: 429e 0dbe a9a7 07be 27ba 19be c569 e03d
00000230: aca7 a0be f7a7 f8be 953b f8be f8e1 6ebe
00000240: 8f15 de3e 8710 d43e ec6e d53e 1e1d 213e
00000250: f097 eebc 04f2 c23e 60a4 9abe 4b90 abbb
00000260: 60b8 503e 7a45 5ebe f6dc fb3d c861 f33e
00000270: 815a eb3e 3297 ae3d cd1c e43d f9f9 d03e
00000280: 14fb b93e 6a5a ef3e fdc3 8dbe 9c0a 64be
00000290: 701c 853e c6a2 cd3e 8bb9 333e 65ca 31be
000002a0: 86f9 a53e 9937 71be 70c1 4bbe f18e b8be
000002b0: c1b6 263e 8d5b b6be 3f9b d9bb 611b aabe
000002c0: b457 67be 7896 7fbe 1168 22bd ede9 6abd
000002d0: fd64 0c3e c7b4 a4be 5f6d a7be d37e 683e
000002e0: 90b9 7bbe 1783 9dbd 67b6 f93d 4c6c fc3d
000002f0: 1510 fcbd e831 41bd a24a 2fbe 872a febe
00000300: 9eef c33e e8cd acbd 26b3 96be b60f 72be
00000310: c04c f33e b594 c93e 41fb ea3e 13d9 03bf
00000320: 56f9 4cbe f840 e0be f679 343d cdc2 b43d
00000330: c3d2 8ebe fd31 4cbd 2c17 9fbe d8be fb3e
00000340: aa6a a83e 4a69 12be 2e27 4f3e bc73 cf3e
00000350: 8569 e9be 1e5f f23e c178 e1be daf6 32bd
00000360: 26a8 d93e db04 fcbc e857 873e 2283 86be
00000370: 0020 b13e 8217 32be cfe9 6bbe 3edf b23c
00000380: 6d77 2abd 7aef 1cbe fb0a 86be 9fda cc3e
00000390: 7039 39be ae8e 05be 37ef c4be d0ef d43e
000003a0: 4986 f5be d9b1 c53e 3abb 0abe 23cb aabe
000003b0: f12b 09be aabc c7be 3b29 b8bd 5e5d bb3e
000003c0: 783a cf3d 1a84 e83e fd39 8c3d a63b f53e
000003d0: 4d50 2ebe 7fdd e2be d220 8b3e bb2e dabd
000003e0: 404d 9f3e c3c6 b93e 8fb0 173e 35fc 15be
000003f0: 6684 c13e d657 263d c868 9c3e 8afd b0be

decoder_net.6.bias f4 [32]
-0.06551729 -0.0040667355 -0.14721002 0.04070214 -0.16187073 0.025527434 0.08020626 0.10566532
-0.01359153 0.062488064 0.072011255 0.13566533 0.17283885 0.1412214 -0.113170035 0.010662532
-0.16584818 0.08251957 0.1043978 0.087622724 0.040740553 -0.14625266 -0.058490522 0.053727906
0.17089608 -0.07131857 -0.021481637 0.091714054 -0.041479513 0.010789092 -0.04514974 -0.17125683
00000000: ee2d 86bd 4042 85bb 39be 16be 4ab7 263d
00000010: 71c1 25be e91e d13c 2e43 a43d 0f67 d83d
00000020: 02af 5ebc 7cf3 7f3d a37a 933d daeb 0a3e
00000030: abfc 303e 589c 103e b1c5 e7bd e7b1 2e3c
00000040: 1bd4 29be 0500 a93d 84ce d53d 8b73 b33d
00000050: 91df 263d 42c3 15be c293 6fbd cb11 5c3d
00000060: 62ff 2e3e 780f 92bd 42fa afbc 94d4 bb3d
00000070: 6ce6 29bd bbc4 303c efee 38bd f35d 2fbe

decoder_net.8.weight f4 [32, 32]
0.47271252 0.09094674 0.21904726 -0.019774584 -0.0060294373 0.3231065 -0.29816583 0.4165176
0.18359454 0.15782794 0.059542697 0.036651563 0.16569954 -0.22240327 0.34776133 -0.26290554
0.4049311 -0.18374492 0.29607233 0.26463315 0.09473545 -0.11667055 -0.28638753 0.49149817
0.3926195 -0.38665685 0.07921242 -0.1828385 -0.19585621 0.27631757 0.24170889 -0.09817081
-0.035794124 0.07193926 0.101948604 -0.16421556 -0.37157452 -0.44859847 -0.21281919 0.15238039
0.23765868 0.26450667 -0.31527603 0.058510434 0.21749191 0.36383316 0.41720065 -0.4076784
-0.36007088 -0.48937994 0.3903367 -0.28645164 -0.20435789 0.4589215 0.13795541 0.33315524
0.16580747 -0.27193394 -0.23210776 0.26627183 -0.08262435 0.24822778 -0.35045537 0.19644038
-0.25811297 -0.16702336 -0.046436977 -0.39035726 0.26408395 0.39054185 0.51939166 0.46161672
0.114816874 -0.3854158 -0.39701816 -0.23582537 0.40482074 0.21608822 0.4168597 -0.066713914
0.31419358 0.36797875 -0.33739707 -0.35473084 0.16751821 -0.30990306 -0.11816525 -0.17793709
0.36249232 -0.40791905 -0.46213853 -0.41236356 0.050193515 -0.3474683 0.043407038 0.14211076
-0.24726777 0.2782898 -0.016150326 -0.22458321 -0.09933335 -0.327316 0.4862934 0.2678424
0.13586795 -0.048818417 0.31276053 0.029863425 0.049184006 0.14040117 0.0022909686 0.20556733
-0.038881965 -0.25137097 -0.3167597 -0.074178375 -0.05113415 -0.45205754 0.023979919 -0.02790086
0.32327628 -0.20950902 -0.25488475 -0.06943116 -0.16371508 -0.077209435 0.21664566 0.15245806
0.1720669 0.34724176 0.07152833 -0.4772237 -0.45927098 0.42965567 -0.12211664 0.26173696
0.43057057 -0.024036758 0.4977172 -0.32056215 -0.4090308 -0.40452307 -0.35441566 0.20534305
0.1084664 -0.18423149 -0.061884202 0.4660012 0.182163 0.33196226 -0.27016652 -0.21017662
0.1294783 -0.42599943 -0.4395362 -0.26882756 -0.10808749 0.0063568605 -0.054970045 0.12269537
-0.24282631 -0.06349049 0.29434717 -0.28425825 -0.44793478 0.042274453 -0.3846133 -0.34554756
-0.052993227 0.25027782 0.49809927 0.35417607 -0.017517328 -0.13933639 0.0054447576 -0.109076634
0.2762405 -0.3279146 0.14729382 0.015786553 0.08230098 0.111490615 -0.030996662 -0.14786491
0.078239135 0.42016432 0.10786139 0.16985479 -0.33340386 0.17290759 -0.43037972 0.23703045
0.1441572 0.007891657 0.045514867 0.29002059 -0.42608622 0.14302096 -0.48589635 -0.0146874795
0.43712115 -0.078003116 0.46990275 0.4690535 0.3382415 0.033762652 -0.3315784 -0.19034159
0.092736125 -0.29422808 0.32809222 0.07480203 0.16200696 -0.16502541 0.026041916 -0.4310991
0.15966223 -0.48229414 0.17330065 0.25313115 -0.21787442 -0.3266744 -0.20377724 -0.21625489
-0.19644445 0.35144967 0.42251462 -0.06986843 -0.04383063 -0.30492118 -0.33925024 -0.3873443
0.08052284 0.13918656 0.17822833 -0.19875768 -0.34543264 0.084192984 -0.020393685 0.40542826
0.0045060175 0.2664787 -0.1320742 0.0292825 0.483355 -0.23565164 0.015566266 0.29703572
0.0791976 -0.3637854 -0.38465184 0.39966273 -0.1408666 -0.27143878 -0.106223196 0.24471638
00000000: 6007 f23e 4942 ba3d ed4d 603e 4ffe a1bc
00000010: 9692 c5bb 376e a53e 31a9 98be cb41 d53e
00000020: 3500 3c3e a69d 213e 0be3 733d f31f 163d
00000030: 24ad 293e afbd 63be c60d b23e 8e9b 86be
00000040: 2153 cf3e a127 3cbe cb96 973e ff7d 873e
00000050: a904 c23d f8f0 eebd 63a1 92be a6a5 fb3e
00000060: 6c05 c93e e3f7 c5be 1f3a a23d 043a 3bbe
00000070: 888e 48be 7f79 8d3e 8982 773e c70d c9bd
00000080: dc9c 12bd e454 933d 6eca d03d 2028 28be
00000090: 043f bebe b3ae e5be 46ed 59be 9b09 1c3e
000000a0: cc5c 733e 6b6d 873e dc6b a1be a3a8 6f3d
000000b0: 33b6 5e3e 5748 ba3e 539b d53e 39bb d0be
000000c0: 365b b8be 0290 fabe 36da c73e caa9 92be
000000d0: 3243 51be c2f7 ea3e 2f44 0d3e 5393 aa3e
000000e0: 6fc9 293e ed3a 8bbe a8ad 6dbe c854 883e
000000f0: f536 a9bd 6c2f 7e3e e36e b3be ab27 493e
00000100: 6227 84be 2c08 2bbe b334 3ebd e8dc c7be
00000110: 0336 873e 1af5 c73e daf6 043f 0759 ec3e
00000120: 1c25 eb3d 3855 c5be f745 cbbe 357c 71be
00000130: aa44 cf3e 3b46 5d3e a26e d53e 4ea1 88bd
00000140: fbdd a03e b667 bc3e 4fbf acbe 489f b5be
00000150: e589 2b3e 9dab 9ebe 9f00 f2bd 2435 36be
00000160: 9898 b93e c4da d0be 6c9d ecbe 5121 d3be
00000170: b797 4d3d 5de7 b1be 94cb 313d 7c85 113e
00000180: c333 7dbe 007c 8e3e b04d 84bc 24f9 65be
00000190: 496f cbbd f695 a7be 73fb f83e a422 893e
000001a0: f820 0b3e d2f5 47bd 2622 a03e 24a4 f43c
000001b0: 2b75 493d 53c5 0f3e 1324 163b 3e80 523e
000001c0: b242 1fbd b2b3 80be 542e a2be d5ea 97bd
000001d0: 0b72 51bd 1674 e7be 8971 c43c 5890 e4bc
000001e0: 7884 a53e 8889 56be 4180 82be ed31 8ebd
000001f0: eda4 27be fb1f 9ebd 5cd8 5d3e f71d 1c3e
00000200: 4e32 303e acc9 b13e 727d 923d aa56 f4be
00000210: 9125 ebbe d4fb db3e 4a18 fabd 6302 863e
00000220: bf73 dc3e bce8 c4bc cad4 fe3e b920 a4be
00000230: 7c6c d1be a61d cfbe f875 b5be 7345 523e
00000240: a223 de3d 2ea7 3cbe 4a7a 7dbd b697 ee3e
00000250: f088 3a3e f5f6 a93e 4453 8abe 8a38 57be
00000260: f695 043e 991c dabe e40a e1be c4a3 89be
00000270: f95c ddbd 364d d03b 4528 61bd b647 fb3d
00000280: 76a7 78be 4d07 82bd acb4 963e 4c8a 91be
00000290: b557 e5be fa27 2d3d 09ec c4be 9ceb b0be
000002a0: 6d0f 59bd 6a24 803e de06 ff3e 9156 b53e
000002b0: 8080 8fbc 33ae 0ebe f069 b23b 9263 dfbd
000002c0: 656f 8d3e 6ce4 a7be 31d4 163e cd52 813c
000002d0: 6b8d a83d 3155 e43d b6ec fdbc e669 17be
000002e0: d73b a03d c71f d73e 6fe6 dc3d 6aee 2d3e
000002f0: e9b3 aabe b00e 313e bb5a dcbe 1cb8 723e
00000300: f29d 133e 024c 013c cc6d 3a3d 947d 943e
00000310: f927 dabe 1674 123e 68c7 f8be c1a3 70bc
00000320: 58ce df3e 19c0 9fbd 1897 f03e c827 f03e
00000330: fd2d ad3e b54a 0a3d a5c4 a9be e8e8 42be
00000340: 70ec bd3d 10a5 96be b4fb a73e cf31 993d
00000350: 27e5 253e 6cfc 28be db55 d53c 05b9 dcbe
00000360: 7f7e 233e 42ef f6be ba75 313e 689a 813e
00000370: 791a 5fbe de41 a7be fbaa 50be ec71 5dbe
00000380: bc28 49be 36f1 b33e d653 d83e 2e17 8fbd
00000390: bf87 33bd a11e 9cbe 35b2 adbe fe51 c6be
000003a0: 29e9 a43d ec86 0e3e 7d81 363e 2287 4bbe
000003b0: 8cdc b0be 5f6d ac3d a810 a7bc 4b94 cf3e
000003c0: 37a7 933b e56f 883e 763e 07be dae1 ef3c
000003d0: 4e7a f73e aa4e 71be a709 7f3c 1115 983e
000003e0: 5a32 a23d 1442 babe 16f1 c4be 98a0 cc3e
000003f0: 563f 10be 06fa 8abe 8c8b d9bd ee96 7a3e

decoder_net.8.bias f4 [32]
-0.052463412 0.12882634 -0.15475534 -0.07591136 0.03899073 0.17389823 -0.060016092 0.1313553
-0.060710173 0.1170922 -0.1356822 0.038693275 0.010405358 0.07158415 -0.17319837 -0.045647513
0.14530294 -0.07296132 0.11515422 -0.14605947 -0.084237345 0.11349732 0.08007087 0.15686122
-0.111078285 0.07733991 -0.123714626 0.018306058 -0.17676254 0.070284285 -0.20024298 0.1281008
00000000: e0e3 56bd 0deb 033e 2f78 1ebe 6a77 9bbd
00000010: beb4 1f3d 6112 323e 6fd3 75bd 0182 063e
00000020: 3bab 78bd 09ce ef3d 46f0 0abe d77c 1e3d
00000030: 3c7b 2a3c b69a 923d ea5a 31be e3f8 3abd
00000040: 4bca 143e bf6c 95bd fad5 eb3d 9d90 15be
00000050: a184 acbd 4871 e83d 32fc a33d 3aa0 203e
00000060: 037d e3bd 6364 9e3d 185e fdbd 96f6 953c
00000070: 3d01 35be 35f1 8f3d 7f0c 4dbe db2c 033e

decoder_net.10.weight f4 [1, 32]
0.26961935 0.42030263 0.31428033 -0.47056934 0.13404906 0.39515647 0.5005331 0.43216723
-0.06877744 0.46061543 0.19765355 0.08020405 -0.29595503 0.13138469 0.26330477 0.38090125
-0.09094848 0.19743985 0.02300869 -0.4260825 -0.4741594 0.08982112 0.34404662 0.119964145
-0.4229207 -0.21368074 -0.37787688 -0.42553064 -0.41063595 -0.28780648 0.27137348 -0.13673516
00000000: 8c0b 8a3e e831 d73e 5ae9 a03e 77ee f0be
00000010: 2844 093e f351 ca3e f022 003f 0645 dd3e
00000020: 30db 8cbd c9d5 eb3e b165 4a3e 0542 a43d
00000030: 6b87 97be b589 063e e2cf 863e 7d05 c33e
00000040: 3243 babd ac2d 4a3e b87c bc3c 7c27 dabe
00000050: 05c5 f2be 23f4 b73d e126 b03e c3af f53d
00000060: 1089 d8be 20cf 5abe 1479 c1be 27df d9be
00000070: e03e d2be 5f5b 93be 77f1 8a3e 4d04 0cbe
