Value_Net.pt (torch, 889864 bytes, 21 tensors)

decoder_net.0.weight f4 [512, 85]
0	0x3db2f29c	0.0873768
1	0xbd3982c4	-0.045290723
2	0xbcf708a8	-0.030155495
3	0x3d84d021	0.0648501
4	0x3d32ec20	0.043682218
5	0xbc55e106	-0.013054138
6	0x3d1d741a	0.0384408
7	0xbd9ac888	-0.075577796
8	0xbd222bf0	-0.039592683
9	0x3daec7ba	0.085341886
10	0x3a718b50	0.00092141796
11	0xbdba66cc	-0.09101638
12	0x3c26ac2f	0.010172888
13	0x3c86c37d	0.016450638
14	0x3da9a0dd	0.08282635
15	0x3cc64791	0.024204047
16	0x3d3722e0	0.044710994
17	0x3daaacef	0.08333766
18	0x3cebc268	0.028779224
19	0xbcf237d8	-0.029567644
20	0x3d72a29c	0.059237108
21	0x3d844109	0.06457717
22	0x3ce0c0eb	0.02743574
23	0x3d912e1c	0.07088873
24	0x3c666963	0.014063212
25	0xbd8e4f40	-0.069487095
26	0x3db64346	0.0889955
27	0x3db13cde	0.086541876
28	0x3d2be81b	0.0419694
29	0x3c274daf	0.010211392
30	0x3d3a4810	0.04547888
31	0x3d880593	0.06641688
32	0x3dc922df	0.09821104
33	0x3bda5b4b	0.006663715
34	0xbdba17e7	-0.0908659
35	0x3d7d7209	0.06187633
36	0x3bc0b3c1	0.0058808033
37	0x3d15a78a	0.03653673
38	0xbd698755	-0.05701383
39	0xbda39a0d	-0.07988367
40	0x3db46232	0.08807792
41	0xbd4b41e0	-0.04962337
42	0x3cd75706	0.026286613
43	0xbdaa839c	-0.08325884
44	0x3c841a21	0.01612574
45	0x3dafab98	0.08577651
46	0xbc78d4d5	-0.015187462
47	0x3d19d50e	0.0375567
48	0x3cb08e64	0.021552272
49	0x3d58367e	0.052786343
50	0x3d05eb39	0.03269503
51	0x3d8b32e1	0.06796814
52	0x3d4c9352	0.049945183
53	0x3cfc78c5	0.030819306
54	0x3ba952e7	0.0051673534
55	0x3dc51c2b	0.09624513
56	0x3dc98d0b	0.09841355
57	0xbcfe60ad	-0.031051958
58	0x3d4a0a59	0.049326275
59	0xbd59f698	-0.053213686
60	0xbda09314	-0.07840553
61	0x3cc1fd45	0.023680339
62	0x3daf7404	0.0856705
63	0xbcc77bd9	-0.024351047
64	0x3d1ba2e6	0.03799715
65	0xbd84fa3b	-0.0649304
66	0xbd3600cb	-0.04443435
67	0xbdab3245	-0.083591975
68	0x3c8b472d	0.017001713
69	0x3bd87916	0.0066062314
70	0xbc4908a9	-0.012270131
71	0xbd9befe4	-0.07614115
72	0x3d98bbae	0.07457672
73	0xbd1e0550	-0.038579285
74	0xbd20cade	-0.03925597
75	0xbcdfcbeb	-0.027318915
76	0xbd9c48bc	-0.076310605
77	0x3db767ea	0.08955367
78	0x3d70dd1c	0.058804616
79	0x3c34d9cc	0.011038255
80	0x3db4ff36	0.0883774
81	0xbdbedc6a	-0.093193844
82	0xbca792d3	-0.020455753
83	0x3d7793e4	0.060443774
84	0xbd954aff	-0.07289695
85	0xbdb19656	-0.086712524
86	0x3c6fae94	0.014629025
87	0x3cfdeb44	0.030995972
88	0xbcb96fd9	-0.02263634
89	0x3db4c38c	0.0882636
90	0x3d067dfc	0.03283499
91	0xbd894ead	-0.06704459
92	0x3d2df893	0.042473387
93	0x3daf0d0e	0.08547412
94	0xbd6dc8c2	-0.058052786
95	0xbdca7d17	-0.0988714
96	0xbd9a4fc4	-0.07534745
97	0xbd88779f	-0.06663441
98	0xbd6a82d8	-0.05725369
99	0x3db778d0	0.0895859
100	0x3d7d7f51	0.061888997
101	0x3dc41c4f	0.09575712
102	0x3cd7d2c7	0.026345624
103	0xbd8f68a2	-0.07002379
104	0x3bddcce9	0.006768812
105	0xbbbbcfc5	-0.005731555
106	0x3d8b054c	0.0678812
107	0x3c00a4dc	0.007851806
108	0x3d6165cf	0.055028733
109	0xbc46fe5b	-0.012145604
110	0xbdb8f0ac	-0.090302795
111	0x3c9e0e14	0.019293822
112	0xbcf88e38	-0.030341253
113	0x3d076ba7	0.03306165
114	0xbd53961a	-0.05165682
115	0x3d799d48	0.06094101
116	0x3c68f2d5	0.014218052
117	0xbdc4e9b4	-0.09614888
118	0xbd9b3707	-0.07578855
119	0x3c2067e4	0.009790394
120	0x3d90bfe1	0.07067848
121	0x3dac2535	0.08405534
122	0x3d41676a	0.047217764
123	0x3d7e4e05	0.062086124
124	0x3d4cd7aa	0.05001036
125	0xbd541fb2	-0.05178804
126	0x3c15d55e	0.009145109
127	0x3d0ffb7b	0.03515194
128	0xbd541a8e	-0.051783137
129	0x3d888327	0.0666564
130	0x3d37929c	0.044817552
131	0x3b74891b	0.0037313167
132	0x3dadaa37	0.084797315
133	0xbd4b3d64	-0.049619094
134	0x3cf3133e	0.029672261
135	0x3d332344	0.043734804
136	0xbdb61686	-0.08891015
137	0xbd8237a7	-0.06358271
138	0x3d88ea2b	0.06685289
139	0x3d8ae38e	0.06781684
140	0x3db9e410	0.090767026
141	0x3d7c629d	0.061617482
142	0x3c8a2bca	0.016866583
143	0xbcf5f21b	-0.030022671
144	0xbdc0bc89	-0.0941096
145	0xbced1049	-0.02893843
146	0x3da7b95d	0.08189652
147	0xbc300613	-0.010743636
148	0xbc607b32	-0.013701247
149	0x3d9098a9	0.070603676
150	0xbceefa27	-0.029172016
151	0xbd66d61f	-0.056356546
152	0x3d969cab	0.07354101
153	0xbdc43bba	-0.095817044
154	0xbdb95b3d	-0.090506054
155	0xbda167f9	-0.07881159
156	0xbd735d39	-0.059415076
157	0x3d140355	0.03613599
158	0x3da6bded	0.08141694
159	0xbd9390d4	-0.07205358
160	0xbdc02670	-0.09382331
161	0xbd8408fb	-0.064470254
162	0x3d2e43e1	0.042545203
163	0x3d73970b	0.059470218
164	0xbdbe1c34	-0.09282723
165	0x3d366399	0.044528577
166	0xbda7cf4e	-0.08193837
167	0xbd108b07	-0.035288837
168	0xbda0cafa	-0.07851215
169	0xbda192dc	-0.07889339
170	0xbdb3ead9	-0.08785028
171	0x3c9fe1c9	0.019516842
172	0xbd2a77bc	-0.041618094
173	0xbdba208c	-0.09088239
174	0x3dc56f51	0.096403725
175	0x3d7d6dd3	0.061872315
176	0x3d8b2c0a	0.06795509
177	0xbd8c2d73	-0.06844606
178	0x3c9cd2fc	0.019143574
179	0xbd8f652c	-0.07001719
180	0xbdd4b6ce	-0.1038643
181	0xbc40e75d	-0.011773911
182	0xbda5ab4b	-0.08089312
183	0x3d93db66	0.07219581
184	0xbd688c12	-0.056774206
185	0x3d6b4b5e	0.057444923
186	0x3dab90ab	0.083772026
187	0x3dc2f246	0.09518866
188	0x3d835622	0.06412913
189	0x3d47d1fb	0.048784237
190	0xbd5c88d9	-0.053841446
191	0xbda8663e	-0.08222626
192	0xbcddb32e	-0.027062979
193	0x3d6414fb	0.05568407
194	0xbc97c6a8	-0.018527344
195	0xbd935468	-0.071938336
196	0xbd5cd657	-0.053915348
197	0xbcb26a2e	-0.021779146
198	0xbc27c798	-0.010240458
199	0x3db39ef6	0.08770554
200	0xbd5fb1e5	-0.054613013
201	0xbc25d091	-0.010120527
202	0x3b45649f	0.003011979
203	0xbdc419e1	-0.095752485
204	0x3c913330	0.017724603
205	0x3ccb830c	0.024842761
206	0x3d863bf9	0.065544076
207	0xbd18c487	-0.037296798
208	0x3cecc954	0.028904594
209	0xbdb6bd21	-0.08922792
210	0xbd4e89ae	-0.05042427
211	0xbdb233bf	-0.08701276
212	0x3d57b2c8	0.052660733
213	0x3c6f141d	0.014592198
214	0xbca79268	-0.020455554
215	0xbd80e3fd	-0.06293485
216	0xbd32db26	-0.043666027
217	0xbd66f3fc	-0.056385025
218	0xbcaa36d4	-0.020778097
219	0x3d0b8bd2	0.03406889
220	0xbdc38d25	-0.095484056
221	0x3d4ec007	0.0504761
222	0x3cde00fd	0.02710008
223	0x3da3af22	0.07992388
224	0xbd539c24	-0.05166258
225	0xbd23fe3e	-0.040037386
226	0x3baad866	0.005213785
227	0xbd693d88	-0.056943446
228	0xbd869314	-0.06571022
229	0xbcfc7d93	-0.030821597
230	0x3c5baf37	0.013408474
231	0xbd02d5b5	-0.03194209
232	0xbd47e26a	-0.04879991
233	0xbc605976	-0.013693204
234	0xbcf70b1e	-0.030156668
235	0x3c72e6cd	0.014825535
236	0xbd3aa390	-0.04556614
237	0xbdbcc875	-0.09217922
238	0x3aa171bb	0.001231722
239	0x3d9a8b90	0.07546151
240	0x3cb894b4	0.022531845
241	0x3c65b32d	0.01401977
242	0x3beace75	0.007165725
243	0x3d9bdba6	0.07610254
244	0x3cfd9f7a	0.030959833
245	0x3dab9392	0.08377756
246	0xbd6702a5	-0.056399006
247	0xbd66e178	-0.056367368
248	0x3c09d767	0.008413172
249	0xbdc1a687	-0.09455591
250	0x3cff15c7	0.031138314
251	0xbd7d52c7	-0.06184652
252	0xbd821e6e	-0.0635346
253	0xbd50ec9a	-0.05100689
254	0xbdd70823	-0.10499599
255	0xbd41a49f	-0.047276136

decoder_net.0.bias f4 [512]
0	0x00000000	0.0
1	0xbac612bb	-0.0015111783
2	0x3b763424	0.00375677
3	0xbb01b590	-0.0019792058
4	0xb9759741	-0.00023421367
5	0xb8d053d4	-9.933827e-05
6	0x3914a9d8	0.00014177652
7	0xba9cb342	-0.0011955278
8	0x00000000	0.0
9	0xb97c0f0e	-0.00024038201
10	0x3bc173b4	0.0059036855
11	0xbb2db295	-0.0026504148
12	0x3b00399e	0.0019565593
13	0x3a878033	0.0010337889
14	0xbb8cdfd9	-0.0042991457
15	0x00000000	0.0
16	0x3b6b00c8	0.003585862
17	0xbb062924	-0.00204713
18	0x3b053524	0.0020325864
19	0xba76e16c	-0.0009417746
20	0x3a3afc3a	0.00071329216
21	0x3b6c1aa7	0.0036026628
22	0x00000000	0.0
23	0x00000000	0.0
24	0xbb02b9e3	-0.0019947223
25	0x00000000	0.0
26	0xbab3d01c	-0.0013718638
27	0xbb019020	-0.0019769743
28	0x3a66a00a	0.00087976514
29	0x3b3d0700	0.0028843284
30	0x00000000	0.0
31	0x3b92d4d3	0.004480937
32	0xba75e6a0	-0.0009380374
33	0x00000000	0.0
34	0x3a01877b	0.00049411476
35	0x38830d01	6.248989e-05
36	0xb9ad06d1	-0.0003300221
37	0xb9e38e16	-0.00043402676
38	0x00000000	0.0
39	0xbaf4e537	-0.0018684034
40	0x00000000	0.0
41	0x3abe3efc	0.001451462
42	0x3a7ebcb2	0.0009717449
43	0xbaa3a58a	-0.0012485248
44	0xbb182f3a	-0.0023221509
45	0x3b3b061a	0.0028537572
46	0x00000000	0.0
47	0x00000000	0.0
48	0xb92c06c5	-0.0001640572
49	0x3aeb95eb	0.0017973756
50	0x00000000	0.0
51	0x3a03a019	0.000502111
52	0xbb707794	-0.0036692368
53	0xba8e7749	-0.001086929
54	0x3b04fd52	0.0020292592
55	0xba8fb3f6	-0.0010963667
56	0x3af26d49	0.0018495704
57	0xba57d739	-0.000823367
58	0x3a837a9c	0.0010031047
59	0x00000000	0.0
60	0x3aadce78	0.0013260385
61	0x00000000	0.0
62	0x3b22a6d6	0.002481868
63	0x3b1e60ef	0.0024166664
64	0x00000000	0.0
65	0xba954793	-0.0011389129
66	0x00000000	0.0
67	0xbb690948	-0.003555851
68	0x00000000	0.0
69	0x3aee8713	0.0018198214
70	0x00000000	0.0
71	0xbaad8431	-0.0013238249
72	0xbb53e317	-0.00323314
73	0x39b99a53	0.0003540093
74	0x3a90310d	0.0011000946
75	0x00000000	0.0
76	0x00000000	0.0
77	0x3b2e38fa	0.0026584254
78	0xbb3d2524	-0.002886125
79	0x394850b3	0.00019103549
80	0x00000000	0.0
81	0xb9683cec	-0.0002214794
82	0xb97ed7fe	-0.00024303791
83	0x39df7233	0.0004261896
84	0xbb36b8e7	-0.0027881206
85	0x3aa61377	0.0012670596
86	0x3b6aec59	0.003584644
87	0x00000000	0.0
88	0x3aa587b4	0.0012628944
89	0x3b0f3718	0.0021852907
90	0xba74f1c6	-0.00093438884
91	0xb9af4494	-0.00033429696
92	0x3b1d81eb	0.0024033736
93	0x3aeb3e9b	0.0017947735
94	0x00000000	0.0
95	0x3b59ae62	0.0033215513
96	0x00000000	0.0
97	0x3a22d9a6	0.0006212242
98	0xba468fb2	-0.0007574513
99	0xbb0bc773	-0.0021328598
100	0x3b5d530b	0.0033771421
101	0xba6aa805	-0.00089514285
102	0x00000000	0.0
103	0x00000000	0.0
104	0x00000000	0.0
105	0xbb25a249	-0.0025273731
106	0x00000000	0.0
107	0x3b1bd288	0.002377661
108	0xbaa78f5f	-0.0012783817
109	0x3ab88f14	0.0014080727
110	0xbb3930ff	-0.0028257964
111	0x3b31538d	0.0027057857
112	0x3b5624d8	0.003267577
113	0xb9d8f526	-0.0004138138
114	0x00000000	0.0
115	0xbb4121d9	-0.0029469638
116	0x3aa9b8df	0.0012948773
117	0x00000000	0.0
118	0xbb03ae99	-0.0020093082
119	0xba45dc99	-0.0007547825
120	0x00000000	0.0
121	0xba0f8f15	-0.0005476338
122	0x3a216953	0.0006157357
123	0x00000000	0.0
124	0x3832308c	4.248372e-05
125	0xba91e65b	-0.0011131273
126	0xbb82f289	-0.0039961976
127	0xba8fb622	-0.0010964314
128	0xbaa42ded	-0.0012525894
129	0x00000000	0.0
130	0xb8e916ed	-0.00011114576
131	0x3b02e4cb	0.0019972797
132	0xbb95be52	-0.004569807
133	0x00000000	0.0
134	0x00000000	0.0
135	0xba8afa29	-0.0010603118
136	0xba0c0b34	-0.00053422456
137	0x3af7f3cd	0.0018917263
138	0x3a6070cd	0.00085617305
139	0xbadcd0bd	-0.0016846877
140	0xba1586c7	-0.00057039823
141	0x00000000	0.0
142	0x00000000	0.0
143	0x397dbf09	0.00024199126
144	0x00000000	0.0
145	0xba87f9c6	-0.0010374121
146	0xbb58e007	-0.0033092515
147	0x39de028b	0.00042345034
148	0x3b49a80b	0.0030770327
149	0x3bb66785	0.0055665397
150	0x3a3bbf1f	0.0007161963
151	0x00000000	0.0
152	0x00000000	0.0
153	0xbb794a3e	-0.0038038637
154	0xba83c4b6	-0.0010053131
155	0xbb7d5441	-0.0038654956
156	0xbaa93171	-0.0012908411
157	0xbafd1b6d	-0.0019310542
158	0x00000000	0.0
159	0x00000000	0.0
160	0x3b9825c8	0.0046431758
161	0x37d964d6	2.5915371e-05
162	0x00000000	0.0
163	0xba179145	-0.000578184
164	0xbac8dee7	-0.0015325219
165	0x00000000	0.0
166	0x3a84d1d5	0.0010133336
167	0xb699b7ae	-4.5811385e-06
168	0xbb0fec50	-0.0021960922
169	0x00000000	0.0
170	0x3af68038	0.0018806523
171	0xbacdee71	-0.001571132
172	0xba665de0	-0.0008787792
173	0xbb7948d6	-0.0038037798
174	0x00000000	0.0
175	0x3b677a51	0.003532071
176	0x3a3b27b9	0.0007139403
177	0x00000000	0.0
178	0xbb1880a2	-0.002327003
179	0x00000000	0.0
180	0x3a864a73	0.0010245576
181	0xbaa7d695	-0.0012805039
182	0xbaf0cf2e	-0.0018372291
183	0x3b1aa05a	0.0023594112
184	0x3b7698b2	0.0037627635
185	0xbab1ab20	-0.0013555028
186	0x00000000	0.0
187	0x00000000	0.0
188	0x00000000	0.0
189	0xbb4d9096	-0.0031366698
190	0xbae6e63e	-0.0017616225
191	0xbaa70f62	-0.0012745673
192	0xbb117e18	-0.0022200402
193	0x39269f73	0.00015890393
194	0x3a94b097	0.0011344132
195	0x3a0a8aba	0.0005284954
196	0x00000000	0.0
197	0x00000000	0.0
198	0xbab96d4e	-0.0014146955
199	0xbb63c139	-0.003475262
200	0x00000000	0.0
201	0xbb0e50cd	-0.0021715641
202	0xbb1aa8b9	-0.0023599102
203	0x00000000	0.0
204	0xba826bd2	-0.0009950346
205	0x00000000	0.0
206	0x3b6ff662	0.0036615361
207	0x00000000	0.0
208	0x00000000	0.0
209	0x3b9613c2	0.004579992
210	0x3aa90e3d	0.001289792
211	0xbb27cedd	-0.0025605478
212	0xbb0743ac	-0.00206397
213	0x00000000	0.0
214	0x00000000	0.0
215	0xbadd431a	-0.001688096
216	0x00000000	0.0
217	0x00000000	0.0
218	0x00000000	0.0
219	0xba0cda3a	-0.00053730945
220	0x00000000	0.0
221	0x3ac0f5ba	0.001472167
222	0x3b142939	0.0022607578
223	0x00000000	0.0
224	0x3a1dbbcc	0.00060170586
225	0xbadfcc85	-0.0017074501
226	0xbac793f7	-0.0015226592
227	0xba897767	-0.0010487855
228	0xb983af55	-0.000251169
229	0x00000000	0.0
230	0x3b3bd4b3	0.0028660714
231	0xba37df26	-0.00070141477
232	0x3addbbd5	0.001691694
233	0x39fc56ba	0.00048129802
234	0x3b5d7ea1	0.00337974
235	0x3b236449	0.00249316
236	0x3b46c36f	0.003032889
237	0xba6e51e5	-0.0009091183
238	0xba10da59	-0.00055257004
239	0xbac54635	-0.001505083
240	0x00000000	0.0
241	0x3b27f43d	0.0025627755
242	0xbaf5be26	-0.0018748685
243	0x3aded7d9	0.0017001583
244	0xb8b66719	-8.69764e-05
245	0x00000000	0.0
246	0x39344fd8	0.00017195882
247	0xbb7370ac	-0.0037146015
248	0xbb027f4a	-0.0019912296
249	0x00000000	0.0
250	0xbafe48b4	-0.0019400329
251	0x00000000	0.0
252	0x3b7f97a2	0.0039000292
253	0xbb14e251	-0.0022717903
254	0xb9ca4281	-0.00038577992
255	0x3a7f79ab	0.0009745608

decoder_net.2.weight f4 [512]
0	0x3f7f462d	0.99716455
1	0x3f813519	1.0094329
2	0x3f8069ac	1.0032248
3	0x3f7ed16d	0.9953831
4	0x3f7f2df6	0.99679506
5	0x3f8092e6	1.004483
6	0x3f7f1abd	0.99650174
7	0x3f7f3704	0.9969332
8	0x3f7f4709	0.99717766
9	0x3f804b1a	1.0022919
10	0x3f80582a	1.0026906
11	0x3f7e6dd6	0.99386346
12	0x3f800ca4	1.0003858
13	0x3f7eb12c	0.9948909
14	0x3f7df725	0.9920524
15	0x3f7e5cbc	0.9936025
16	0x3f7f5f28	0.9975457
17	0x3f7dc602	0.9913026
18	0x3f7de53b	0.991779
19	0x3f7fd78d	0.9993828
20	0x3f7e00c9	0.9921995
21	0x3f803836	1.0017154
22	0x3f7f232e	0.99663055
23	0x3f8022a9	1.0010577
24	0x3f804894	1.0022149
25	0x3f7fb990	0.9989252
26	0x3f7e9a7d	0.9945448
27	0x3f7eaf72	0.9948646
28	0x3f7f94ae	0.9983624
29	0x3f7fcf12	0.9992534
30	0x3f80173f	1.0007094
31	0x3f804569	1.0021182
32	0x3f7ef7fd	0.9959715
33	0x3f7fe5cb	0.9996001
34	0x3f7ee726	0.99571455
35	0x3f80024a	1.0000699
36	0x3f7ee142	0.99562466
37	0x3f7fb32c	0.9988277
38	0x3f7f58d2	0.99744904
39	0x3f7e43d7	0.99322265
40	0x3f7e3d28	0.9931207
41	0x3f7fdfdc	0.9995096
42	0x3f7f2cdb	0.9967782
43	0x3f7f0da4	0.9963019
44	0x3f7f45c5	0.99715835
45	0x3f816049	1.0107509
46	0x3f7e954e	0.9944657
47	0x3f804636	1.0021427
48	0x3f7fd0a4	0.99927735
49	0x3f7f58c5	0.99744827
50	0x3f7f252b	0.9966609
51	0x3f7f009d	0.9961031
52	0x3f7fccab	0.99921674
53	0x3f7e2a62	0.9928342
54	0x3f808e6d	1.0043465
55	0x3f7f8fd1	0.9982882
56	0x3f7ecfbe	0.9953574
57	0x3f7f194b	0.9964797
58	0x3f7fb54c	0.9988601
59	0x3f7e40a0	0.9931736
60	0x3f804e04	1.0023808
61	0x3f7fe8cf	0.9996461
62	0x3f7e6c50	0.9938402
63	0x3f8019af	1.0007838
64	0x3f7ef51f	0.99592775
65	0x3f7eb130	0.99489117
66	0x3f7fc950	0.99916553
67	0x3f807d29	1.0038196
68	0x3f7f1a37	0.99649376
69	0x3f804ff2	1.0024397
70	0x3f7ffcf7	0.9999537
71	0x3f7f8116	0.99806345
72	0x3f7e1ba0	0.992609
73	0x3f7fbdf9	0.9989925
74	0x3f7fbc06	0.99896276
75	0x3f7e80be	0.99415195
76	0x3f7f6fd9	0.9978004
77	0x3f8099f2	1.004698
78	0x3f7e3c4a	0.99310744
79	0x3f80250b	1.0011305
80	0x3f7fe3e0	0.99957085
81	0x3f7f1a8c	0.9964988
82	0x3f7d9880	0.9906082
83	0x3f80641a	1.0030549
84	0x3f7fba03	0.99893206
85	0x3f7fd4e6	0.9993423
86	0x3f7eec09	0.9957891
87	0x3f7f8e90	0.9982691
88	0x3f7dd3d9	0.9915138
89	0x3f7ef5c7	0.99593776
90	0x3f7fab26	0.99870527
91	0x3f810b4d	1.0081574
92	0x3f7fed2d	0.99971277
93	0x3f7fcd8e	0.99923027
94	0x3f7e647f	0.99372095
95	0x3f7f355c	0.99690795
96	0x3f7e161c	0.99252486
97	0x3f7e72d4	0.99393964
98	0x3f7e3603	0.99301165
99	0x3f8012a1	1.0005685
100	0x3f807bec	1.0037818
101	0x3f7f2bec	0.99676394
102	0x3f801288	1.0005655
103	0x3f7e146c	0.9924991
104	0x3f7f4b53	0.9972431
105	0x3f7ea1e0	0.9946575
106	0x3f7fe885	0.9996417
107	0x3f7ef4ac	0.9959209
108	0x3f7faa76	0.9986948
109	0x3f7ea510	0.99470615
110	0x3f7f19e8	0.99648905
111	0x3f7fb2bc	0.998821
112	0x3f800ffe	1.000488
113	0x3f802eea	1.0014317
114	0x3f7f511f	0.99733156
115	0x3f7f1a3f	0.99649423
116	0x3f7fb358	0.9988303
117	0x3f7fcef8	0.99925184
118	0x3f7ea4ae	0.9947003
119	0x3f7f8a17	0.99820083
120	0x3f7e61ae	0.993678
121	0x3f7f318a	0.99684966
122	0x3f7e51f4	0.993438
123	0x3f7ea5d3	0.9947178
124	0x3f7f39de	0.99697673
125	0x3f7f05f0	0.99618435
126	0x3f7f563a	0.99740946
127	0x3f7ddf6c	0.9916904
128	0x3f7e9a65	0.9945434
129	0x3f7fc198	0.99904776
130	0x3f7fa492	0.9986049
131	0x3f7fcdc0	0.99923325
132	0x3f7e8410	0.9942026
133	0x3f7f3756	0.9969381
134	0x3f7facc7	0.9987301
135	0x3f7fb32d	0.99882776
136	0x3f7e7b93	0.9940731
137	0x3f7e3ba7	0.9930977
138	0x3f7f80b4	0.9980576
139	0x3f7ebf1e	0.9951037
140	0x3f7f0160	0.99611473
141	0x3f7f382e	0.996951
142	0x3f7ec64d	0.9952133
143	0x3f7f5180	0.99733734
144	0x3f80006b	1.0000128
145	0x3f7f196a	0.99648154
146	0x3f805020	1.0024452
147	0x3f7fca6f	0.99918264
148	0x3f7eee4e	0.99582374
149	0x3f805f6e	1.0029123
150	0x3f7faf3e	0.99876773
151	0x3f7e49cc	0.99331355
152	0x3f7fd3ab	0.99932355
153	0x3f7f71ae	0.99782836
154	0x3f7fcb10	0.99919224
155	0x3f7f3309	0.9968725
156	0x3f7ed9d5	0.99551135
157	0x3f7e6d87	0.99385875
158	0x3f7e20c4	0.99268746
159	0x3f7e8791	0.9942561
160	0x3f7d2d2a	0.9889704
161	0x3f7fc1c1	0.9990502
162	0x3f802d78	1.0013876
163	0x3f7e2dcc	0.9928863
164	0x3f7e4e39	0.9933811
165	0x3f7f7b3a	0.99797404
166	0x3f7f8e6b	0.9982669
167	0x3f7f28a3	0.9967138
168	0x3f7fc10b	0.99903935
169	0x3f7f344e	0.99689186
170	0x3f7e4463	0.993231
171	0x3f7de97d	0.991844
172	0x3f8090fb	1.0044245
173	0x3f7e4ca3	0.9933569
174	0x3f7e08ad	0.9923199
175	0x3f7e955b	0.9944665
176	0x3f7dcf2b	0.9914424
177	0x3f7f3e00	0.9970398
178	0x3f8008e3	1.0002712
179	0x3f806ad6	1.0032604
180	0x3f7e5f4a	0.9936415
181	0x3f7eb450	0.99493885
182	0x3f7e27ab	0.9927928
183	0x3f7e5111	0.9934245
184	0x3f7de323	0.9917471
185	0x3f8089d9	1.0042068
186	0x3f7f72fd	0.99784833
187	0x3f7f4e4d	0.9972885
188	0x3f7df9aa	0.9920908
189	0x3f7f1c3e	0.9965247
190	0x3f803015	1.0014673
191	0x3f7e3cd8	0.9931159
192	0x3f7fb913	0.99891776
193	0x3f8022b2	1.0010588
194	0x3f7f19f7	0.99648994
195	0x3f7f1d0c	0.99653697
196	0x3f7e825d	0.9941767
197	0x3f7f6b1f	0.9977283
198	0x3f7de28f	0.99173826
199	0x3f7e6878	0.99378157
200	0x3f7f6be8	0.99774027
201	0x3f80207e	1.0009916
202	0x3f7ef7ab	0.9959666
203	0x3f7f04d5	0.9961675
204	0x3f7f1b2e	0.9965085
205	0x3f800b2d	1.000341
206	0x3f805209	1.0025035
207	0x3f7e653f	0.9937324
208	0x3f7ecbc5	0.9952968
209	0x3f7e94a5	0.99445564
210	0x3f7fee5d	0.9997309
211	0x3f7f2f05	0.9968112
212	0x3f7f1c86	0.996529
213	0x3f7e5e80	0.99362946
214	0x3f7e1c68	0.99262094
215	0x3f7ee11d	0.99562246
216	0x3f7ec922	0.99525654
217	0x3f7f1ebd	0.9965628
218	0x3f7ea4b5	0.99470073
219	0x3f7de85a	0.99182665
220	0x3f7f6516	0.9976362
221	0x3f817119	1.011264
222	0x3f802166	1.0010192
223	0x3f7f0e37	0.99631065
224	0x3f7f74b9	0.9978748
225	0x3f7e3e0b	0.9931342
226	0x3f803285	1.0015417
227	0x3f7f8263	0.9980833
228	0x3f7f9ebe	0.99851596
229	0x3f7f498d	0.99721605
230	0x3f8128e9	1.009061
231	0x3f80034e	1.0001009
232	0x3f80ba7c	1.005691
233	0x3f7f463b	0.9971654
234	0x3f7fc126	0.99904096
235	0x3f7e0307	0.9922337
236	0x3f803633	1.001654
237	0x3f800009	1.0000011
238	0x3f7ed829	0.99548584
239	0x3f801aaa	1.0008137
240	0x3f7ff499	0.999826
241	0x3f80e19a	1.0068848
242	0x3f7e4077	0.99317116
243	0x3f7f7929	0.9979425
244	0x3f807418	1.0035429
245	0x3f7f2368	0.996634
246	0x3f803a32	1.001776
247	0x3f7f1ea7	0.99656147
248	0x3f7e4a31	0.9933196
249	0x3f7fc71b	0.99913186
250	0x3f7f90cc	0.9983032
251	0x3f7f91b9	0.9983173
252	0x3f7f34b7	0.9968981
253	0x3f7ee551	0.9956866
254	0x3f7e8c28	0.9943261
255	0x3f7f627a	0.9975964

decoder_net.2.bias f4 [512]
0	0x38f1734b	0.000115132505
1	0xba0a2cf0	-0.00052709784
2	0x3b825fae	0.003978691
3	0x3ae62ad5	0.0017560372
4	0xb893c1f5	-7.0456335e-05
5	0xb8a9769a	-8.080639e-05
6	0x39ecfc2d	0.00045201313
7	0x39e9d223	0.00044597787
8	0x398320db	0.00025010746
9	0xb861251b	-5.3678737e-05
10	0x3b263bdf	0.0025365276
11	0xbb2d90c9	-0.0026484004
12	0x3b08ed6f	0.0020893475
13	0x3aa5f028	0.0012660073
14	0xbb8684d1	-0.0041051884
15	0x3b666709	0.0035156629
16	0xbb277cfd	-0.0025556677
17	0xbb0c312e	-0.0021391618
18	0x3b15a6bb	0.0022834975
19	0xba619a16	-0.00086060294
20	0x3a802ea3	0.0009779524
21	0x3b73e373	0.0037214428
22	0x3a06c777	0.0005141417
23	0xbb83248b	-0.004002159
24	0xbba5fd00	-0.0050655603
25	0xbadc2227	-0.0016794846
26	0xbaad24e6	-0.0013209849
27	0xbb25f1ed	-0.00253212
28	0xbacab8a1	-0.0015466401
29	0x3b4348e9	0.0029798097
30	0xbb5f536f	-0.003407683
31	0x3b99a8c3	0.0046893074
32	0x3ab1f671	0.0013577474
33	0xbb1e6689	-0.0024170002
34	0x3a272133	0.00063754915
35	0xbab47424	-0.0013767523
36	0xb9093966	-0.0001308672
37	0xbabcb310	-0.0014396627
38	0xb95b443a	-0.00020910884
39	0xbae11936	-0.0017173651
40	0x3b849d3c	0.004047064
41	0xba5c6497	-0.0008407323
42	0x3a9a2005	0.001175881
43	0x3a91fedd	0.0011138577
44	0x3a0bd7e0	0.0005334597
45	0x3b3aa275	0.002847818
46	0x3b2fedc3	0.0026844598
47	0xbba3ad4d	-0.0049950243
48	0xb912ace3	-0.0001398805
49	0xb918216c	-0.000145083
50	0x3a0740fd	0.00051595253
51	0x3a2f24df	0.00066812144
52	0xbac8b6ff	-0.0015313326
53	0x3b3908fa	0.002823411
54	0x3b05c6d6	0.0020412705
55	0xba9fc193	-0.0012188427
56	0x3aedb85e	0.0018136611
57	0xba4e4f03	-0.000787005
58	0x3a9c6fc3	0.0011935163
59	0x3b842ba8	0.0040335245
60	0xb9cd632a	-0.0003917453
61	0xbb1fcef0	-0.002438482
62	0x3a48c1f9	0.0007658299
63	0x3b20f50e	0.0024560126
64	0x3aa88cba	0.0012859323
65	0xb8d92a09	-0.00010355196
66	0xbaf5cb63	-0.001875263
67	0xbbd8119f	-0.0065938975
68	0x3a36a734	0.0006967664
69	0x3af9d092	0.0019059351
70	0xbb41751e	-0.002951927
71	0xba412210	-0.00073674414
72	0xbb4472b5	-0.0029975597
73	0x3a193966	0.000584504
74	0x3aa9979c	0.001293886
75	0x3b4d8b6f	0.0031363626
76	0xba2100cb	-0.0006141781
77	0x3b26e7db	0.0025467786
78	0xbb330caa	-0.002732078
79	0xbb81efc5	-0.0039653503
80	0xbb22d085	-0.0024843526
81	0xb98077ec	-0.0002450341
82	0x37ef9446	2.8560065e-05
83	0xbb641360	-0.0034801587
84	0xbad37613	-0.0016133211
85	0xbb1b2acf	-0.002367664
86	0x3a00ae8a	0.0004908821
87	0xba91b41b	-0.0011116298
88	0x3b1e992d	0.0024200187
89	0x3b0907e7	0.0020909251
90	0xba36d105	-0.00069738954
91	0xb9f89165	-0.00047410573
92	0xbb2e1b02	-0.002656639
93	0x3b05452a	0.0020335414
94	0x3b69e3ad	0.0035688684
95	0xbafff879	-0.0019529007
96	0x3b9a14be	0.0047021797
97	0x3abca554	0.0014392533
98	0x3b892ad3	0.0041860132
99	0xbb660154	-0.0035096006
100	0x3b722417	0.003694778
101	0x3984dc0c	0.0002534095
102	0xbb5a3c33	-0.0033300042
103	0x3b9af61c	0.0047290456
104	0xb8a60b31	-7.9175814e-05
105	0xbb18305f	-0.002322219
106	0xbb2b86b7	-0.0026172826
107	0x3b011377	0.001969544
108	0xbabbdc9f	-0.0014332718
109	0x3a95706c	0.0011401302
110	0x3a2e7f91	0.0006656582
111	0x3b3968f8	0.0028291326
112	0x3b697392	0.0035621864
113	0xb90a1c3d	-0.00013171225
114	0xb9802760	-0.000244434
115	0x3a2a7c73	0.000650353
116	0x3aba843c	0.0014230083
117	0xbb0b0275	-0.0021211181
118	0xbaf00e2f	-0.0018314774
119	0xba457a7d	-0.0007533206
120	0x3b6c68b6	0.0036073155
121	0xb9bb29f6	-0.00035698683
122	0x3a3f0239	0.0007286403
123	0x3b213ec6	0.0024604066
124	0xb9ce1773	-0.00039308853
125	0xba83c99d	-0.0010054592
126	0xba959b5f	-0.0011414102
127	0xba808b7c	-0.0009807195
128	0xba8b5f6a	-0.0010633294
129	0xbae71bdd	-0.0017632205
130	0xbabe9ff4	-0.0014543519
131	0x3b10af5f	0.0022077186
132	0xbb9402f8	-0.0045169555
133	0x39797b29	0.00023792371
134	0xbad5e08a	-0.0016317528
135	0xbadfa35f	-0.0017062238
136	0x3b551202	0.0032511954
137	0x3b0e3c72	0.0021703509
138	0x3a942ed6	0.0011305462
139	0x3b0d1d02	0.0021532183
140	0xba0bf310	-0.00053386483
141	0x39b0cf29	0.00033723682
142	0x3aff0d3d	0.0019458901
143	0x39e4441a	0.00043538288
144	0xbb3fd661	-0.0029272067
145	0x39931683	0.00028054797
146	0xbba2ff67	-0.004974294
147	0x39f64728	0.00046973792
148	0x3951ca76	0.00020007216
149	0x3ac1133e	0.0014730466
150	0x3a4ecb5a	0.0007888578
151	0x3b7e0204	0.0038758526
152	0xbb0f8ab3	-0.002190274
153	0xba529849	-0.00080335565
154	0xbaff72d9	-0.0019489183
155	0xb9ba1487	-0.0003549198
156	0xbaaa3854	-0.0012986758
157	0xbaee542c	-0.0018183044
158	0x3b923d89	0.004462902
159	0x3b4bbc2b	0.0031087499
160	0x3b5e15c9	0.0033887497
161	0x394511e6	0.00018794052
162	0xbb8dacdc	-0.004323585
163	0xb9b935a0	-0.00035325903
164	0x3b55d50d	0.003262821
165	0xba67181d	-0.0008815544
166	0x3aa6cdce	0.001272613
167	0x394da194	0.00019610516
168	0xbb080674	-0.00207558
169	0x39a0dca1	0.0003068196
170	0x3b0661ff	0.0020505188
171	0x3bb3198a	0.005465691
172	0xba300138	-0.0006714049
173	0xbb17abc0	-0.0023143142
174	0x3b9e995a	0.0048400583
175	0x3b23314c	0.002490121
176	0x3a54153e	0.00080903235
177	0x39b0d15b	0.00033725318
178	0xbb4b8e6a	-0.0031060227
179	0xbbc7be61	-0.006095693
180	0x3a89bfea	0.0010509465
181	0xba8420d8	-0.0010080589
182	0xbb036fc0	-0.0020055622
183	0x3b18eddb	0.0023335132
184	0x3b9327aa	0.0044908123
185	0xbbe90e47	-0.0071122977
186	0xba4c4893	-0.0007792797
187	0x383b6a14	4.4683067e-05
188	0x3ba75c7b	0.00510746
189	0xbb4bc581	-0.0031093063
190	0xbb8ce2b8	-0.004299488
191	0xba9c4969	-0.0011923733
192	0xbad2289a	-0.0016033829
193	0xbab18af5	-0.0013545441
194	0x3aa5cc39	0.0012649364
195	0x3a5c8301	0.0008411855
196	0x3b49e04b	0.0030803855
197	0xba1ead9d	-0.0006053092
198	0xbaa8c3c1	-0.0012875722
199	0xbb515173	-0.0031939417
200	0xba079efa	-0.00051735307
201	0xbb693513	-0.0035584613
202	0xbaeafa74	-0.0017927424
203	0x3aa28af5	0.0012401032
204	0x3a31da89	0.00067845784
205	0xbb3c8bab	-0.0028769772
206	0x3b7c5c69	0.003850723
207	0x3b5f3ee3	0.0034064583
208	0x3afba737	0.0019199614
209	0x39ec0d01	0.00045023116
210	0x3acd13a6	0.0015646114
211	0xbb1cc6d4	-0.0023922222
212	0xbb01c95e	-0.0019803862
213	0x3b6ea006	0.00364113
214	0x3b968c4c	0.0045943614
215	0xbacc599f	-0.0015590674
216	0x3b0c2ae7	0.0021387876
217	0x3a3f1621	0.0007289369
218	0x3b242985	0.0025049162
219	0x37f15e70	2.8773415e-05
220	0xb9f345b1	-0.00046400496
221	0x3ae66efa	0.0017580681
222	0x3b203ff0	0.0024452172
223	0x3a9096bb	0.0011031249
224	0x3a73c281	0.00092986977
225	0xbaa23db5	-0.0012378009
226	0xbb974383	-0.0046162023
227	0xba84bf43	-0.0010127801
228	0xbaa2bb80	-0.0012415498
229	0x391030a4	0.0001375103
230	0x3b2a761c	0.002601034
231	0xbab4f14c	-0.0013804822
232	0x3ae14c09	0.0017188798
233	0x3a37efae	0.0007016611
234	0x3b6644de	0.0035136263
235	0x3b36f1ab	0.0027915041
236	0x3b4ced2b	0.0031269293
237	0xb99531e2	-0.0002845666
238	0xb9e7688f	-0.00044137656
239	0xbb7216b4	-0.0036939802
240	0xbb39182b	-0.0028243165
241	0x3a813d2b	0.0009860148
242	0xbac9ea41	-0.0015404896
243	0x3ae7081b	0.0017626317
244	0xbb22a89e	-0.0024819742
245	0x3a243264	0.00062636123
246	0xbb791838	-0.003800882
247	0x3a188e04	0.0005819502
248	0xbab2c15c	-0.0013637948
249	0xbb08340f	-0.0020782982
250	0xbb02e244	-0.001997129
251	0xba75fdc6	-0.00093838235
252	0x3b9670a5	0.004591065
253	0x3aa9b6df	0.0012948177
254	0x3b4145f6	0.0029491163
255	0x3aa2859d	0.0012399439

decoder_net.3.weight f4 [256, 512]
0	0xbda1d3ea	-0.079017475
1	0x3d4f5e58	0.050627083
2	0xbca03e6e	-0.019561019
3	0xbda71314	-0.08157936
4	0xba82f251	-0.0009990429
5	0xbd1cf38d	-0.038318206
6	0xbcacf177	-0.021111233
7	0x3be45b02	0.006968857
8	0x3d176dbf	0.036969896
9	0xbd52113d	-0.05128597
10	0xbda3a8ba	-0.079911664
11	0x3da0fb4a	0.078604296
12	0xbd5c2709	-0.053748164
13	0xbd91cf5e	-0.0711963
14	0xbb7ea1dd	-0.0038853802
15	0x3d5e3bb0	0.05425614
16	0xbbf2da60	-0.0074112862
17	0xbd3caf4f	-0.046065625
18	0x3da74c97	0.08168905
19	0x3d767886	0.060173534
20	0xbd8c69b8	-0.06856102
21	0x3d7c9326	0.06166377
22	0xbd8aaa8a	-0.06770809
23	0x3d707f4c	0.05871515
24	0x3da23850	0.07920897
25	0x3d18afd2	0.03727705
26	0x3c382a19	0.011240506
27	0x3d89aff5	0.06723014
28	0x3d78c25b	0.060732227
29	0xbc917b9d	-0.017759139
30	0xbd16388b	-0.036675017
31	0xbda9f33f	-0.08298349
32	0x3d233b46	0.03985145
33	0xbd5f5ec1	-0.054533724
34	0xbd2ed464	-0.04268302
35	0xbda1c613	-0.07899108
36	0x3c97aa0b	0.0185137
37	0x3d1cc3fa	0.038272835
38	0xbd7f7b05	-0.06237318
39	0x3d76baf0	0.06023687
40	0xbd9fadd8	-0.0779683
41	0x3daf8207	0.085697226
42	0xbd8aa1ba	-0.06769128
43	0x3d638407	0.055545833
44	0x3cd2b63f	0.025721667
45	0x3d637ac9	0.05553702
46	0x3dafb70e	0.08579837
47	0xbdac7b20	-0.08421922
48	0x3d9d76b0	0.076886535
49	0x3d7d4156	0.061829887
50	0xbb29c2da	-0.0025903494
51	0xbd98bd6d	-0.07458005
52	0xbd85fa86	-0.06541924
53	0xbccc29a1	-0.024922194
54	0x3cf0e4f0	0.02940604
55	0x3c004819	0.007829689
56	0x3d67faa4	0.056635514
57	0xbd9c051b	-0.07618161
58	0x3c019762	0.007909628
59	0xbcffb232	-0.0312129
60	0xbb38d54d	-0.002820331
61	0x3d97ad2d	0.074060775
62	0x3d2455db	0.04012094
63	0xbd632dfc	-0.055463776
64	0x3ba64087	0.00507361
65	0x3daa74a6	0.0832303
66	0xbd294727	-0.04132762
67	0xbd4bafe2	-0.04972828
68	0x3cee1480	0.02906251
69	0x3d7016e0	0.058615565
70	0x3d734bc4	0.059398428
71	0xbc53f827	-0.012937582
72	0xbaa17fab	-0.0012321373
73	0xbd06473c	-0.03278278
74	0xbda51e27	-0.08062392
75	0xbd11cb21	-0.03559411
76	0x3c9af4d7	0.018915577
77	0xbc43a458	-0.011941038
78	0xbd4cb37d	-0.04997586
79	0xbd47e75f	-0.048804637
80	0x3d067d0e	0.032834105
81	0xbd4eea2c	-0.050516292
82	0xbcf1d4f6	-0.029520493
83	0x3ce3903d	0.02777874
84	0xbc0a7bf9	-0.008452409
85	0xbd8d3b59	-0.06896085
86	0xbd8c822b	-0.06860765
87	0xbc52f736	-0.0128763225
88	0xbd865bff	-0.065605156
89	0x3da5ff3b	0.08105322
90	0x3d842b3d	0.064535595
91	0xbd25b8db	-0.040459495
92	0xbb3c5e73	-0.002874282
93	0x3cf9d60a	0.03049757
94	0xbcdcef71	-0.026969643
95	0x3d36f117	0.044663515
96	0xbcd0b397	-0.02547626
97	0xbd6429b0	-0.05570382
98	0xbd61c407	-0.055118587
99	0x3d5ad5d2	0.05342657
100	0xbd1e40e6	-0.03863611
101	0xbd8aa421	-0.06769586
102	0xbc0226b3	-0.007943797
103	0x3d161edc	0.036650524
104	0xbd627af7	-0.05529305
105	0x3d51efee	0.051254205
106	0x3c4a8a2d	0.012362045
107	0xbd990ed8	-0.07473534
108	0xbca03e31	-0.019560905
109	0xbd49837a	-0.04919765
110	0x3d9cd765	0.07658271
111	0x3d32f7e6	0.043693446
112	0x3d975d29	0.07390816
113	0x3ca4e49a	0.020128537
114	0x3d976a5a	0.07393332
115	0xbc6da031	-0.014503525
116	0xbd5b0a08	-0.053476363
117	0xbd1159d0	-0.035486042
118	0xbbf59fd6	-0.0074958606
119	0xba722aff	-0.00092379743
120	0xbce08797	-0.027408404
121	0xba8306cb	-0.0009996531
122	0xbd7f93e4	-0.0623969
123	0xbcf972fa	-0.030450333
124	0xbc557fb8	-0.013030939
125	0xbd68a608	-0.056798965
126	0xbd6723a8	-0.05643049
127	0x3d161a2c	0.036646053
128	0x3cab2cc6	0.020895373
129	0x3c011999	0.007879638
130	0xbd6f9b56	-0.05849775
131	0xbd8108d6	-0.063005134
132	0xbc0e495e	-0.008684484
133	0xbd5bc82b	-0.053657692
134	0x3d1ed928	0.038781315
135	0x3c421bdb	0.011847462
136	0x3d8c4570	0.06849182
137	0x3d025065	0.03181495
138	0x3cda9119	0.026680516
139	0x3cd85a34	0.0264102
140	0x3cec42c7	0.028840436
141	0x3b883231	0.004156374
142	0x3b730fcc	0.0037088273
143	0xbda085d9	-0.078380294
144	0x3d954f3d	0.07290504
145	0xbcffd7c4	-0.031230815
146	0xbd00b01f	-0.031417962
147	0xbd817d91	-0.06322778
148	0x3d8a7b2f	0.06761777
149	0x3d48d516	0.04903134
150	0xbd2a5021	-0.041580323
151	0x3d0d1c1d	0.03445064
152	0xbd19c6f8	-0.037543267
153	0x3daf3bf5	0.08556358
154	0x3dafe8d2	0.08589329
155	0xbcae2645	-0.021258483
156	0x3d8f2126	0.069887444
157	0xbd854295	-0.0650684
158	0x3b37254c	0.0027945815
159	0x3c90290e	0.017597701
160	0x3bd737d4	0.0065679345
161	0xbd9e9190	-0.077426076
162	0x3da5ba59	0.080921836
163	0xbb3366bd	-0.002737447
164	0xbc94332b	-0.018090805
165	0x3d1def33	0.038558196
166	0x3d8aaabd	0.06770847
167	0x3d803aae	0.06261192
168	0x3c5de598	0.013543509
169	0xbc524f58	-0.0128363
170	0xbc41c91a	-0.0118277315
171	0xbd1846b0	-0.037176788
172	0x3d9dc703	0.07703974
173	0xbd33f731	-0.043936912
174	0x3d5a697b	0.05332325
175	0x3c5f0e5f	0.013614266
176	0x3d8dc7ea	0.06922896
177	0xbc2dea79	-0.010614985
178	0xbd0c6ed2	-0.034285374
179	0xbcbcbd76	-0.02303956
180	0x3d93ea98	0.072224796
181	0x3d229225	0.039690156
182	0x3c1bcc13	0.009509104
183	0xbc4270e0	-0.011867732
184	0xbd8e5ecd	-0.069516756
185	0x3c159f8e	0.009132279
186	0xbd9018a2	-0.07035948
187	0xbdada3cd	-0.08478508
188	0xbd122fc0	-0.03569007
189	0xbd7662ab	-0.06015269
190	0x3a0e832d	0.0005436417
191	0xbc3ee064	-0.011650179
192	0xbd1801d3	-0.037111115
193	0xbd7e362c	-0.06206338
194	0x3d4a2bd5	0.049358208
195	0x3c92595d	0.017864877
196	0xbd04e610	-0.032445967
197	0x3bf3d043	0.007440598
198	0x3d40d2ea	0.047076143
199	0x3d928d2a	0.07155831
200	0x3dafee28	0.085903466
201	0x3d98ce25	0.07461194
202	0xbd8880c9	-0.06665189
203	0xbcafda1d	-0.02146631
204	0xbb719b6a	-0.0036866316
205	0x3d6e9b07	0.058253314
206	0x3d9f94e3	0.0779207
207	0xbd97ab97	-0.07405775
208	0xbccdaaa5	-0.025105784
209	0xbc0f4af1	-0.008745895
210	0xbc9a34ad	-0.018823946
211	0x3cc8c5a6	0.024508309
212	0xbbe61063	-0.0070209964
213	0x3db5e14f	0.08880865
214	0xbd9ee208	-0.07757956
215	0xbb938ecc	-0.0045031067
216	0x3d89b350	0.06723654
217	0x3c37c265	0.011215781
218	0xbc5a178e	-0.01331128
219	0x3d49d914	0.049279287
220	0xbc6e3319	-0.01453855
221	0x3cdb2576	0.026751261
222	0xbccdedd5	-0.025137821
223	0x3d6431e2	0.055711634
224	0x3d550ddd	0.052015174
225	0xbd2e761e	-0.042593114
226	0x3ccf13bf	0.02527797
227	0xbc574c5d	-0.013140765
228	0xbd7056b6	-0.058676444
229	0x3d9d152e	0.07670055
230	0xbd9c095d	-0.076189734
231	0xbd222b6e	-0.0395922
232	0xbda6ab9c	-0.08138201
233	0xbd8738ad	-0.06602607
234	0xbc51f8eb	-0.012815694
235	0x3d7d1886	0.061790965
236	0xbcd0acb8	-0.025472984
237	0x3d1c7259	0.038194988
238	0x3d947dc9	0.07250554
239	0xbd4e3cd2	-0.05035097
240	0x3db17f5d	0.08666871
241	0xbce5d9c8	-0.028057948
242	0x3da39ebd	0.07989261
243	0xbc50b605	-0.012738709
244	0x39cd34a7	0.00039139876
245	0xbc0e4b61	-0.008684964
246	0xbce90414	-0.028444327
247	0xbd867757	-0.06565731
248	0xbd20a5dc	-0.039220676
249	0xbd4b14ed	-0.049580503
250	0xbdb27cf4	-0.08715239
251	0x3ce3db6f	0.027814595
252	0xba6f33ed	-0.0009124864
253	0xbd94e788	-0.072707236
254	0xbd3af7c2	-0.045646437
255	0xbc89eea5	-0.016837427

decoder_net.3.bias f4 [256]
0	0xbb414790	-0.0029492117
1	0x3ad7b6b9	0.0016457654
2	0xbbb38f27	-0.0054797116
3	0x39178396	0.00014449502
4	0xbbca4094	-0.006172249
5	0xbabd5a0c	-0.0014446392
6	0x3ad15911	0.0015971978
7	0x3a29880d	0.00064671115
8	0xbbca9916	-0.0061828
9	0x3a685a22	0.00088635285
10	0xbb92ef5f	-0.0044841017
11	0xbbbbfaea	-0.0057366984
12	0x3ba870b1	0.005140387
13	0x390d1f41	0.00013458451
14	0xbbb1d10f	-0.005426533
15	0x3b01300e	0.001971248
16	0x3b29cc03	0.0025908954
17	0x3a5c45ed	0.0008402754
18	0xb9ebc01d	-0.00044965828
19	0x39790712	0.00023749124
20	0x399a4089	0.0002942125
21	0xbbc69326	-0.006060022
22	0xbb175f4a	-0.0023097568
23	0xbbfe4053	-0.007759133
24	0xba3b1cb7	-0.0007137763
25	0xbb6304d7	-0.0034640336
26	0x3b8699e8	0.0041077025
27	0xba9c2fba	-0.0011916079
28	0xbb83ca4b	-0.004021918
29	0xba868b63	-0.0010264929
30	0x3b0fbed5	0.0021933813
31	0x3a415d55	0.0007376273
32	0xb8668052	-5.495578e-05
33	0x3b51e314	0.0032026218
34	0xbbb20740	-0.005432993
35	0xbacef834	-0.0015790523
36	0x3bb6a2d9	0.005573612
37	0xbb2b37e1	-0.0026125836
38	0xbbcaa763	-0.006184505
39	0xbbca6cea	-0.0061775343
40	0xbbb4c7db	-0.0055169887
41	0xbb09bada	-0.0021015913
42	0x3bb43760	0.0054997653
43	0xbacedd1b	-0.0015782447
44	0xbbcb39ba	-0.00620195
45	0xbbc9e049	-0.00616077
46	0x3aa0a12a	0.0012255062
47	0x39d863af	0.00041273
48	0x39241736	0.00015648906
49	0xbba3a8b4	-0.004994476
50	0x39df8865	0.00042635496
51	0xba97ce16	-0.0011581804
52	0xbb8405bd	-0.0040290044
53	0xbbdd61e4	-0.0067560542
54	0x3a2aced0	0.0006515803
55	0xbb98d3f6	-0.0046639396
56	0x3ae4c797	0.0017454502
57	0xbbea4048	-0.007148776
58	0xbb1267e6	-0.002233976
59	0xbbca59c6	-0.0061752526
60	0x3b361d81	0.0027788582
61	0x3a3127d7	0.0006757951
62	0xbbe39a7c	-0.006945906
63	0xbbc804df	-0.0061040963
64	0x3b85c600	0.0040824413
65	0xbbd32271	-0.0064433147
66	0xbb969649	-0.004595552
67	0xbbc9c448	-0.0061574318
68	0xbb6f2e78	-0.0036496203
69	0xbb5db8ac	-0.0033831997
70	0x3a9c1aff	0.0011909901
71	0xbb014200	-0.0019723177
72	0xbbd9952c	-0.006640097
73	0xbbcb4fd0	-0.0062045828
74	0xbbc9edc3	-0.0061623766
75	0x3b4d55ce	0.003133166
76	0x3b24c691	0.002514277
77	0x3a095f7b	0.0005240363
78	0xbbf48c16	-0.0074629886
79	0x3b64759f	0.0034860147
80	0xb9257fe9	-0.00015783276
81	0x3b845768	0.00403874
82	0xbbcab529	-0.0061861468
83	0xbbcb10ea	-0.0061970847
84	0x3b88ed33	0.004178667
85	0xbbca1fa7	-0.006168324
86	0xbb9a2d4a	-0.004705106
87	0x3b5d594d	0.0033775151
88	0xbbb5d193	-0.005548665
89	0x3a3e2b75	0.00072544004
90	0x3b567209	0.003272178
91	0x39f7805e	0.00047207152
92	0xb89eceb9	-7.572532e-05
93	0xbbcb3ce5	-0.0062023276
94	0x3b0adf5e	0.0021190266
95	0x3b2c58bc	0.0026298007
96	0xbbc8799c	-0.0061180126
97	0x3baf5860	0.0053511113
98	0x3b83b69e	0.0040195724
99	0xbabce4d1	-0.0014411454
100	0xbb2818a4	-0.0025649453
101	0xbbcaa7fd	-0.0061845765
102	0xbbc316f3	-0.0059536635
103	0xbbcb1e13	-0.0061986535
104	0xbb212a49	-0.0024591854
105	0x38e86ccd	0.00011082888
106	0xbb8db62e	-0.004324696
107	0xbbca70df	-0.006178006
108	0xbaf0c48a	-0.001836912
109	0xbb8c68b9	-0.004284945
110	0x3b9b725a	0.0047438564
111	0xbbc7cd68	-0.0060974844
112	0xbbc77d89	-0.006087963
113	0x3a31f44b	0.00067884166
114	0xbb20093a	-0.0024419562
115	0x381412d0	3.530347e-05
116	0xbbc825fc	-0.0061080437
117	0x3b391abd	0.0028244697
118	0xbb41ab71	-0.002955165
119	0xbbcb8a05	-0.0062115216
120	0xbb8eafa8	-0.004354436
121	0xb86f1ed1	-5.701074e-05
122	0xb9a2bc75	-0.0003103946
123	0x3a133bdb	0.0005616524
124	0xbb392299	-0.0028249382
125	0xbb8203e8	-0.003967751
126	0xbb16fd84	-0.002303929
127	0xbb932f53	-0.0044917255
128	0xbac2dcce	-0.001486683
129	0xbb932dc8	-0.0044915415
130	0xb9bbc2ab	-0.00035812458
131	0x3bd95dfa	0.0066335173
132	0x3a54da17	0.0008119656
133	0xbb70a83c	-0.003672137
134	0xbb9afef2	-0.004730099
135	0x3a27328e	0.00063780777
136	0xb9c2e9b5	-0.0003717669
137	0x38fc9422	0.00012043888
138	0xbb3256aa	-0.00272123
139	0x3b0004fe	0.0019534226
140	0xbb0054b7	-0.0019581744
141	0xbba9b676	-0.0051792217
142	0xb904c7bb	-0.00012662906
143	0x3b096165	0.0020962593
144	0xbbd91012	-0.00662423
145	0xbbde1678	-0.006777581
146	0x3b040b55	0.0020148356
147	0xbbc9af18	-0.006154906
148	0xb9a4625b	-0.00031353798
149	0xbbc8ee93	-0.006131956
150	0xba10613d	-0.00055076537
151	0x3ba4bdf4	0.005027527
152	0x3acc819b	0.001560259
153	0xbb3f37a8	-0.002917746
154	0xbba33650	-0.00498084
155	0x39889b75	0.00026055766
156	0x3b2656e5	0.0025381383
157	0xbad79371	-0.0016447139
158	0xbbca6af7	-0.006177302
159	0xbb222517	-0.0024741346
160	0xb920dbc3	-0.00015340657
161	0x3b61d050	0.003445644
162	0xbb8b4c97	-0.0042510736
163	0xbbc9b35c	-0.0061554145
164	0xba91ae21	-0.0011114517
165	0xbb459ac2	-0.0030152057
166	0xbb623341	-0.0034515413
167	0xbbc887f9	-0.006119725
168	0xbbcd9111	-0.006273397
169	0x3a674ac2	0.00088230905
170	0xbbca550a	-0.006174688
171	0xba878f25	-0.0010342343
172	0xbbca9eab	-0.0061834655
173	0xbab6c4e3	-0.0013944175
174	0x3a3276f1	0.0006807885
175	0xbb18e8a7	-0.002333203
176	0xbbd3b82f	-0.0064611654
177	0xbb362674	-0.0027793916
178	0xbbcc862b	-0.00624158
179	0xb9d702fe	-0.00041010225
180	0xbbcabe98	-0.0061872713
181	0x38e3befe	0.000108597786
182	0xbb86e493	-0.0041166036
183	0xbbcae647	-0.006192002
184	0xbba79863	-0.0051146015
185	0xbba4f456	-0.00503401
186	0x39eeff79	0.0004558524
187	0xbbcada84	-0.0061906
188	0xba93d616	-0.0011279013
189	0x3b2969cb	0.002585041
190	0xbb73e814	-0.0037217187
191	0xbadd5724	-0.0016886932
192	0xbad98006	-0.001659394
193	0xbb03f660	-0.0020135865
194	0xb9d18652	-0.00039963663
195	0xbb3c9400	-0.0028774738
196	0xbbcb1dbd	-0.0061986134
197	0x3b837d17	0.0040127146
198	0x3b4e48d9	0.0031476526
199	0xbbde63b4	-0.006786788
200	0x3b67915a	0.003533444
201	0xbbc685b2	-0.006058418
202	0xbbcb70f0	-0.0062085316
203	0xbb97e945	-0.004635962
204	0xb9ffbfe9	-0.00048780374
205	0xbbca2f8d	-0.0061702193
206	0xbbc75626	-0.0060832677
207	0xbbcb1109	-0.006197099
208	0xbb48ad29	-0.003062079
209	0xbaf2e335	-0.0018530848
210	0x3ad6fec4	0.001640283
211	0x3aacd49e	0.0013185923
212	0x3a803610	0.0009781737
213	0xbbb52c91	-0.0055289944
214	0xbb28db4e	-0.0025765481
215	0x3b702112	0.0036640805
216	0x3aef0b40	0.0018237606
217	0x3a23a841	0.00062430283
218	0xb942a56e	-0.00018562909
219	0xba240b58	-0.0006257794
220	0xbb4fbfa7	-0.0031699927
221	0x3a19a957	0.00058617204
222	0xba1aee6e	-0.00059101626
223	0xbbcaf342	-0.0061935494
224	0xbbcad28a	-0.006189649
225	0xbb6de20d	-0.0036298067
226	0xba64fc7c	-0.0008735133
227	0xbaafd00d	-0.0013413444
228	0xbb30b7f0	-0.0026965104
229	0x37539520	1.2611301e-05
230	0xbbca0562	-0.0061651925
231	0x3a69e2c4	0.00089220353
232	0x3a0c0f04	0.00053428137
233	0xbac7b4f2	-0.0015236421
234	0xbbb2f32c	-0.0054611173
235	0x39525854	0.00020060065
236	0xbb8a8c39	-0.0042281416
237	0xbbd98de4	-0.006639229
238	0xbbc7a185	-0.0060922527
239	0x3bd3675b	0.00645153
240	0x3c3793c7	0.011204666
241	0xbbc2b8dc	-0.005942447
242	0x3be8636c	0.00709193
243	0xba345836	-0.00068795995
244	0x3b22e4fe	0.0024855728
245	0xb9ee7906	-0.00045485067
246	0xbbca41d6	-0.006172399
247	0xbbca2a00	-0.0061695576
248	0xbbe09562	-0.0068537453
249	0xbad571c5	-0.0016284516
250	0xbb16ff2b	-0.0023040276
251	0xbb0e1900	-0.0021682382
252	0x3ac551fc	0.001505434
253	0x3a017445	0.0004938285
254	0x3b216a7c	0.002463012
255	0xbbc5b810	-0.006033905

decoder_net.4.weight f4 [256]
0	0x3f7eb629	0.99496704
1	0x3f7fb0e0	0.99879265
2	0x3f7f640f	0.9976205
3	0x3f7ee9c7	0.99575466
4	0x3f7f4cc5	0.99726516
5	0x3f7e45b0	0.99325085
6	0x3f7d7e13	0.990205
7	0x3f7f423f	0.9971046
8	0x3f7f4cc5	0.99726516
9	0x3f7ff705	0.99986297
10	0x3f7ee073	0.9956123
11	0x3f7eef7d	0.9958418
12	0x3f80a1df	1.0049399
13	0x3f7fef50	0.99974537
14	0x3f7efd1d	0.9960497
15	0x3f7fe6ba	0.99961436
16	0x3f7ffc6f	0.9999456
17	0x3f7f171e	0.9964465
18	0x3f7f6a67	0.9977173
19	0x3f7f2a52	0.9967395
20	0x3f7e90c0	0.9943962
21	0x3f7e6d2f	0.9938535
22	0x3f7dc9db	0.9913613
23	0x3f7ebfc8	0.99511385
24	0x3f7f293c	0.99672294
25	0x3f7e54ee	0.9934834
26	0x3f80357e	1.0016325
27	0x3f7e88c2	0.99427426
28	0x3f7f3326	0.9968742
29	0x3f7df9cf	0.992093
30	0x3f802348	1.0010767
31	0x3f7e4e16	0.993379
32	0x3f7ea2f3	0.9946739
33	0x3f8006be	1.0002058
34	0x3f7eb744	0.9949839
35	0x3f7f4fce	0.9973115
36	0x3f805a79	1.002761
37	0x3f7f4161	0.99709135
38	0x3f7f4cc5	0.99726516
39	0x3f7f4cc5	0.99726516
40	0x3f7f02c0	0.9961357
41	0x3f7f2437	0.99664634
42	0x3f806a67	1.0032471
43	0x3f7f6986	0.9977039
44	0x3f7f4cc5	0.99726516
45	0x3f7f4cc5	0.99726516
46	0x3f7f828c	0.99808574
47	0x3f7e5ce8	0.99360514
48	0x3f7e78d2	0.9940311
49	0x3f7f23b0	0.9966383
50	0x3f7fa173	0.99855727
51	0x3f7debf6	0.9918817
52	0x3f7eaae2	0.99479496
53	0x3f7ee63f	0.9957008
54	0x3f7e3f5e	0.9931544
55	0x3f7fa611	0.9986277
56	0x3f7e28c7	0.9928097
57	0x3f7efd17	0.99604934
58	0x3f7fbdc6	0.99898946
59	0x3f7f4cc5	0.99726516
60	0x3f7ff377	0.9998087
61	0x3f7ed4dc	0.9954355
62	0x3f7ebf23	0.995104
63	0x3f7f4cc5	0.99726516
64	0x3f805cce	1.0028322
65	0x3f7effc0	0.99608994
66	0x3f7ecd31	0.9953185
67	0x3f7f4cc5	0.99726516
68	0x3f7f594f	0.9974565
69	0x3f7efccf	0.99604505
70	0x3f7ee4f6	0.99568117
71	0x3f7d82e6	0.9902786
72	0x3f7f3eff	0.997055
73	0x3f7f4cc5	0.99726516
74	0x3f7f4cc5	0.99726516
75	0x3f800c87	1.0003823
76	0x3f7f98f7	0.9984278
77	0x3f7f4932	0.9972106
78	0x3f7f0385	0.99614745
79	0x3f803cca	1.0018551
80	0x3f7bfdc5	0.98434097
81	0x3f801564	1.0006528
82	0x3f7f4cc5	0.99726516
83	0x3f7f4cc5	0.99726516
84	0x3f803883	1.0017246
85	0x3f7f4cc5	0.99726516
86	0x3f7f810e	0.99806297
87	0x3f801128	1.0005236
88	0x3f7e744e	0.99396217
89	0x3f801976	1.000777
90	0x3f7ff47a	0.99982417
91	0x3f7e8385	0.9941943
92	0x3f7f3918	0.99696493
93	0x3f7f48d3	0.99720496
94	0x3f802106	1.0010078
95	0x3f812641	1.0089799
96	0x3f7f6acb	0.9977233
97	0x3f8052eb	1.0025305
98	0x3f8067e5	1.0031706
99	0x3f7ef3c6	0.9959072
100	0x3f7eb752	0.99498475
101	0x3f7f4cc5	0.99726516
102	0x3f7ec0a2	0.99512684
103	0x3f7f4cc5	0.99726516
104	0x3f7faf16	0.99876535
105	0x3f7ef918	0.99598837
106	0x3f7e0c8f	0.9923791
107	0x3f7f4cc5	0.99726516
108	0x3f7eae20	0.99484444
109	0x3f7fc204	0.9990542
110	0x3f80db37	1.0066899
111	0x3f7f4cc5	0.99726516
112	0x3f7f4cc5	0.99726516
113	0x3f7f3a47	0.996983
114	0x3f7f6c4d	0.9977463
115	0x3f7efe31	0.99606615
116	0x3f7f4cc5	0.99726516
117	0x3f7fe336	0.9995607
118	0x3f7edc0a	0.995545
119	0x3f7f475e	0.9971827
120	0x3f7f4db5	0.99727947
121	0x3f7f233f	0.99663156
122	0x3f7f5a9f	0.9974765
123	0x3f7f4577	0.9971537
124	0x3f7f020c	0.996125
125	0x3f7ef160	0.9958706
126	0x3f7eb6c9	0.9949766
127	0x3f7f003c	0.9960973
128	0x3f7f3aba	0.99698985
129	0x3f7ee6f3	0.9957115
130	0x3f7fab2b	0.99870557
131	0x3f80cb0b	1.0061964
132	0x3f7eee5a	0.99582446
133	0x3f7fb148	0.99879885
134	0x3f7fbe66	0.998999
135	0x3f7fb519	0.9988571
136	0x3f7e9d11	0.99458414
137	0x3f7eb95e	0.995016
138	0x3f7e6147	0.99367183
139	0x3f802e70	1.0014172
140	0x3f7f0ac8	0.99625826
141	0x3f7f6077	0.9975657
142	0x3f7f283c	0.9967077
143	0x3f7f90e6	0.9983047
144	0x3f7ed22f	0.99539465
145	0x3f7f1ddf	0.99654955
146	0x3f7fc1b6	0.99904954
147	0x3f7f4cc5	0.99726516
148	0x3f7ea9a9	0.9947763
149	0x3f7f4cc5	0.99726516
150	0x3f7f387a	0.9969555
151	0x3f808daf	1.0043238
152	0x3f7f142b	0.9964015
153	0x3f7eedc4	0.9958155
154	0x3f7efb05	0.99601775
155	0x3f7ee03c	0.99560905
156	0x3f7fe135	0.99953014
157	0x3f7f177c	0.9964521
158	0x3f7f4cc5	0.99726516
159	0x3f7e2e77	0.9928965
160	0x3f7e6a51	0.99380976
161	0x3f800d1d	1.0004002
162	0x3f7eccd3	0.99531287
163	0x3f7f4cc5	0.99726516
164	0x3f7fdbea	0.9994494
165	0x3f7eccc8	0.9953122
166	0x3f7efa8f	0.9960107
167	0x3f7f4cc5	0.99726516
168	0x3f7f2503	0.9966585
169	0x3f7f8559	0.9981285
170	0x3f7f4cc5	0.99726516
171	0x3f801734	1.0007081
172	0x3f7f4cc5	0.99726516
173	0x3f7ef371	0.9959021
174	0x3f7e1bbc	0.9926107
175	0x3f7ef1c8	0.9958768
176	0x3f7efed5	0.9960759
177	0x3f7f7302	0.99784863
178	0x3f7f5d7d	0.99752027
179	0x3f7fbd2f	0.99898046
180	0x3f7f4cc5	0.99726516
181	0x3f7ecb43	0.995289
182	0x3f7df84d	0.99207
183	0x3f7f4cc5	0.99726516
184	0x3f7ebc77	0.99506325
185	0x3f7ef98d	0.99599534
186	0x3f7f2a63	0.9967405
187	0x3f7f4cc5	0.99726516
188	0x3f803985	1.0017554
189	0x3f7fceb7	0.99924797
190	0x3f7ed4be	0.9954337
191	0x3f7ec84c	0.9952438
192	0x3f7edf28	0.9955926
193	0x3f7f5218	0.9973464
194	0x3f7e7b6c	0.99407077
195	0x3f7ef94b	0.9959914
196	0x3f7f4cc5	0.99726516
197	0x3f8057cb	1.0026792
198	0x3f80d99b	1.0066408
199	0x3f7ef657	0.99594635
200	0x3f803345	1.0015646
201	0x3f7ef044	0.99585366
202	0x3f7f4cc5	0.99726516
203	0x3f7e9300	0.99443054
204	0x3f7f2b5e	0.9967555
205	0x3f7f4cc5	0.99726516
206	0x3f7f4cc5	0.99726516
207	0x3f7f4cc5	0.99726516
208	0x3f7eeffc	0.9958494
209	0x3f7efb1a	0.996019
210	0x3f7f75d1	0.9978915
211	0x3f7f9819	0.9984146
212	0x3f802bbe	1.0013349
213	0x3f7f5f6c	0.9975498
214	0x3f7f18cf	0.9964723
215	0x3f8067e9	1.0031711
216	0x3f81b131	1.01322
217	0x3f7eb374	0.99492574
218	0x3f7dd95c	0.9915979
219	0x3f800642	1.000191
220	0x3f7ed6bb	0.995464
221	0x3f7fb133	0.9987976
222	0x3f7ec9d8	0.9952674
223	0x3f7f4cc5	0.99726516
224	0x3f7f4cc5	0.99726516
225	0x3f7f1306	0.996384
226	0x3f7e07d2	0.9923068
227	0x3f7df5d4	0.9920323
228	0x3f7e773a	0.99400675
229	0x3f7ed240	0.99539566
230	0x3f7f4cc5	0.99726516
231	0x3f7f29b5	0.99673015
232	0x3f7eefe8	0.9958482
233	0x3f7ecf00	0.99534607
234	0x3f7f974f	0.99840254
235	0x3f7f208c	0.9965904
236	0x3f7efa1d	0.9960039
237	0x3f7f140d	0.9963997
238	0x3f7f5c5b	0.997503
239	0x3f80cd71	1.0062696
240	0x3f817476	1.0113666
241	0x3f7f98c9	0.99842507
242	0x3f8163a1	1.0108529
243	0x3f7f809a	0.99805605
244	0x3f7e8be9	0.99432236
245	0x3f7eadfb	0.99484223
246	0x3f7f4cc5	0.99726516
247	0x3f7f4cc5	0.99726516
248	0x3f7f16c0	0.9964409
249	0x3f7f60bf	0.99757
250	0x3f7e8888	0.9942708
251	0x3f7e4ad3	0.9933292
252	0x3f7f753f	0.9978828
253	0x3f7f1404	0.99639916
254	0x3f7fd0f7	0.9992823
255	0x3f7e86fc	0.9942472
