Value_Net.pt (torch, 98056 bytes, 21 tensors)

decoder_net.0.weight f4 [128, 85]
00000000: 5b19 fc3d 5a5b c03d 2496 42bd 7c9f c93d
00000010: 0b7b 833d fff1 c23d f6c8 62bd 8fc6 14be
00000020: 6d14 e7bd 406f 14be 4003 3c3d 946e 013d
00000030: 7c84 8dbd 02a3 0fbe ecc8 a9bb 6780 523d
00000040: cb06 21be 542e f0bd c2b6 933c d283 0b3e
00000050: e245 3c3d bf4b 24be d374 ac3d e1be 193d
00000060: eff7 bfbd a022 95bd 4888 c73d e14e 283e
00000070: 69df b33b 1fb5 10be dfc8 e4bd bb49 24be
00000080: 65a3 fabd 0ddd de3d 4261 d73d 81bd c73d
00000090: e4c2 05bd f314 f4bd 905a 91bd e2d2 27bd
000000a0: 93e6 213e b4de 253e 7f74 593d dfd8 453c
000000b0: 9945 1d3e 1739 2a3d 81ff 2abd ce3c f33c
000000c0: fa1b ec3d 92b2 dc3d 1fd3 743d 56ab dfbd
000000d0: 726b a13d 0853 703c 751f 5f3c 7ea0 69bd
000000e0: 3de6 f23d d7d1 81bd 18f5 1bbe 41ee cebd
000000f0: 87a1 f23d 7ae6 d43d 1f8d 06be ff25 b7bd
00000100: a3d1 8d3d 8f2f 963d 34ae 30bd 73f3 463d
00000110: 8a53 053e 5a30 8c3c 2131 f4bd 5f7c 9cbd
00000120: 63eb 113e 17fb 8fbd 3180 ff3c 35e0 9ebc
00000130: 9321 303e e5b5 93bd 7402 ca3d 1fe6 debd
00000140: f83f 193e edbf 0ebe 53a4 583d b716 f33d
00000150: 2188 38bd b0ff 923d 320b a5bd 90be 173e
00000160: 666f d13c 07a9 003e d31e 14be f704 fcbd
00000170: 17d5 223e bfc5 e53d c54e 813b 377b db3d
00000180: 9a43 953d e735 243e 3269 b8bd 95b0 ca3d
00000190: 2a9d 1d3e afc4 253d 5dc4 d9bd 1e6e 1d3e
000001a0: abe9 0c3e 39e3 003e 17e4 a63d 5dd3 8b3d
000001b0: eca1 693d 8bec 1fbe 3dba 85bd 88b2 f53c
000001c0: 69f0 cebd bf45 293e 087d 59bd 95d0 e0bd
000001d0: 5a6c 4b3d 556c b1bd 8b44 28be a05e 10be
000001e0: 83c1 1fbe dfa8 f2bd 1eef cc3d 21b2 273e
000001f0: e52d 0d3b 7284 d13d 17ee 9ebc 85b1 003d
00000200: 43ef 063e 5772 a43c dece 133d 35c9 273e
00000210: 3950 013d a675 06be 090f c83d 5904 093e
00000220: 4c6d d8bd b61d da3d 6388 e7bc 7432 5abd
00000230: 77cc 68bd 8069 2dbd 6117 2a3e 5bca 0c3e
00000240: 1c50 973d bf55 283e eaeb 553d 0b92 e03c
00000250: 24ce 98bd 6c0c 333c cb1a e5bc 1f94 25bd
00000260: 657a 01bb e58f 813b 898f 14be a909 0ebe
00000270: a500 043e 026f 2abe d9d0 c8ba 4a4f 9a3c
00000280: 2df9 7bbd c9a3 a8bd 4df5 c13d 093a ff3d
00000290: 1135 28be 3e46 1a3d ed07 18be 151b b9bd
000002a0: 5b30 5d3d 55e9 0c3d 3a6d 2b3e d539 a43d
000002b0: d029 223e ef68 f2bd 9f25 f53c 1e92 c5bd
000002c0: 4ca6 83bd 88ad 25be ec2f 073e 7002 0f3e
000002d0: fa06 223e eaa6 acbd 861a 0f3e 9a50 ffbd
000002e0: 2488 bdbd 3071 713d cacd 24be a36d 7ebc
000002f0: 9add 3c3d 6be7 a23c 917d ce3d 1576 0d3d
00000300: 5397 e1bc d617 053e 1770 dc3c ddd5 c8bc
00000310: 6e16 a33c 1b3e afbd 4c14 323d 3795 003e
00000320: 8b90 bebc 387e 15be 8cc1 213e 326d f8bd
00000330: c173 a3bc 9dfc d03d 259a eebb 5266 bcb9
00000340: c166 123e 17e3 18bc d9e8 bc3d 22a4 08be
00000350: 3693 e6bd 1adb 1cbe 339d 153d a6e6 c23d
00000360: 04a0 8e3d b970 9b3d dc75 bc3c ea11 ab3d
00000370: 6899 423c a143 96bd e61e babc 1406 32bd
00000380: ea3b 1fbe 58b1 bf3d b315 27bd 28a9 303d
00000390: 00f5 c7bd b9de debd 5501 ba3d 9ea0 573d
000003a0: 37b4 833b b2ec e13c 35b5 94bd c14e afbc
000003b0: 6263 ac3d c3b8 2cbe 51fd f6bc bd7d 0b3e
000003c0: c3ad 4abc eec1 07be 0a49 213e fae2 0e3e
000003d0: 2091 f2bd db9f 9abb d456 09be c387 d83d
000003e0: 665d 143d 0825 163e 7ad2 893d bf87 5a3c
000003f0: 54cd 083e 254a f4bd fa4c 00be e344 4e3d
0.12309524 0.09392424 -0.047506467 0.09844872 0.06419953 0.09518813 -0.055367433 -0.14528869
-0.11283193 -0.14495564 0.045901537 0.031599596 -0.06910035 -0.14027026 -0.0051814225 0.051391985
-0.15725248 -0.117275864 0.018031482 0.13624504 0.045965083 -0.1604452 0.0842072 0.037535552
-0.093734615 -0.07281995 0.097427905 0.1643634 0.005489279 -0.14131592 -0.111711256 -0.16043751
-0.12238196 0.10882006 0.10516597 0.09752942 -0.032656565 -0.11918058 -0.070973516 -0.040972598
0.15810613 0.16198236 0.053089615 0.012075632 0.1535858 0.04155835 -0.041747574 0.02969208
0.115287736 0.10776247 0.059771653 -0.109213516 0.07881822 0.014668234 0.01361834 -0.057037823
0.11860321 -0.06338852 -0.15230215 -0.10104037 0.11847215 0.103955224 -0.13139771 -0.08942794
0.06924751 0.0733329 -0.043134883 0.048572015 0.13020149 0.0171129 -0.11923433 -0.076409094
0.14249949 -0.070303135 0.031189056 -0.01939402 0.17200308 -0.07212428 0.09863749 -0.10883736
0.14965808 -0.13940401 0.052891087 0.11869567 -0.045051698 0.07177675 -0.08058776 0.14818788
0.025565814 0.12564479 -0.14464884 -0.123056345 0.159016 0.11219358 0.0039461576 0.10716861
0.072882846 0.16036187 -0.090044394 0.098969616 0.15391985 0.040470775 -0.106331564 0.15374038
0.13761012 0.12586679 0.081489734 0.06827424 0.057039186 -0.15617578 -0.06529663 0.029992357
-0.10104448 0.16530512 -0.053097755 -0.10977284 0.04966388 -0.08663241 -0.16432397 -0.14098597
-0.15601163 -0.11848616 0.100065455 0.16376545 0.0021542248 0.1023034 -0.01940064 0.031419296
0.13177209 0.020074053 0.036085956 0.16385348 0.031570647 -0.13130817 0.09768493 0.13380565
-0.10567722 0.10650198 -0.028263276 -0.053270772 -0.056835618 -0.04233694 0.16610481 0.13749067
0.073883265 0.1643896 0.05222694 0.027413389 -0.07461193 0.010928255 -0.027966877 -0.040424462
-0.001975679 0.003953921 -0.1450788 -0.13870873 0.12890871 -0.16643909 -0.001532103 0.018836636
-0.06151693 -0.082343645 0.094706155 0.12462241 -0.16426493 0.037664644 -0.14846773 -0.090383686
0.054001193 0.03440221 0.16740885 0.08018843 0.15836263 -0.11836421 0.029925166 -0.0964701
-0.06428203 -0.16179478 0.13201874 0.13965774 0.15822974 -0.08430274 0.13974962 -0.124665454
-0.092544824 0.058945835 -0.16094127 -0.015529069 0.046109773 0.01988574 0.10082544 0.03453644
-0.027537977 0.12997374 0.026908917 -0.02451604 0.019908156 -0.085567676 0.043476388 0.12556921
-0.023262283 -0.1459893 0.15796489 -0.12130202 -0.019952657 0.10204432 -0.007281559 -0.0003593439
0.1429701 -0.009331486 0.092241 -0.13343862 -0.11258547 -0.15317956 0.03652687 0.09516649
0.06964114 0.075898595 0.023005418 0.08353026 0.011877395 -0.07337118 -0.022719812 -0.043462828
-0.15550199 0.093599975 -0.04079218 0.04313007 -0.09763527 -0.10882325 0.09082285 0.05264341
0.004019286 0.027578685 -0.07261125 -0.021399857 0.08417393 -0.16867356 -0.030150088 0.13622184
-0.01237053 -0.13257572 0.15750518 0.13953772 -0.11844087 -0.0047187633 -0.13412029 0.105727695
0.036221884 0.14662564 0.06729598 0.013338028 0.13359576 -0.119282044 -0.12529364 0.050358664

decoder_net.0.bias f4 [128]
00000000: 6546 8cbb 0000 0000 cebc fb3a 9026 a0bb
00000010: ca55 ba3a 6532 8b3b 0000 0000 8793 68bb
00000020: 0000 0000 0000 0000 0000 0000 4272 e9bb
00000030: 3be9 e73a 3bd0 30bb 8b67 1cbb 8bb6 81ba
00000040: 0000 0000 0000 0000 0000 0000 9c62 d239
00000050: b6c4 c5ba fcb8 793b fee4 b739 6994 d33b
00000060: ecea a939 0000 0000 4013 e33b b24d ffbb
00000070: 0000 0000 be4d 70ba 0000 0000 55d0 e33b
00000080: 3b56 193b 8e33 2dbb 5183 e5ba 0000 0000
00000090: 6a5c 8cbb 067f 04bb 0000 0000 39cb c53a
000000a0: 0000 0000 dbae ae3a 0000 0000 cacd 5f39
000000b0: 6e91 52bb 4638 2e3b 0ecc 123c d2d9 b7ba
000000c0: 3ca1 fdb9 0f74 9cbb 149e 9a3b 0f58 0f3d
000000d0: 430c 1ebb 29e6 853a 0000 0000 be34 6fba
000000e0: 41d4 0fba 7555 a8ba 4289 0cba 725b 373b
000000f0: 0b26 b13b 080e 06bb a788 7fba f624 afba
00000100: 0000 0000 a4f6 443b 71d1 4539 0000 0000
00000110: 599b 89b7 0000 0000 0000 0000 c6cc fabb
00000120: 0000 0000 dc02 063b 0000 0000 5a22 6dba
00000130: 725c 8c3b 1e0e 153c d2f4 ca3b 77bb 08bb
00000140: 0000 0000 0000 0000 0000 0000 f6b8 b93b
00000150: 0000 0000 6553 a6bb 0000 0000 a340 8dbb
00000160: 42c2 b138 c3c8 43bb a3d3 3fb9 9d84 7ebb
00000170: 996f b7ba 46c9 c7bb cd29 6bbb 546f 7ab9
00000180: d553 7dbb 3bd8 d53a 63f7 cbba 0000 0000
00000190: 3e6d 89bb 891f d1bb 0000 0000 7eca 153a
000001a0: 9fd1 f7ba 74a6 ab3b b6db 14bb 0621 91ba
000001b0: aff5 f1ba 0000 0000 70df a7b9 0000 0000
000001c0: 0000 0000 0000 0000 d2ab 1fba 47f1 b039
000001d0: 0000 0000 0000 0000 cc0b 06ba 8820 b93b
000001e0: 3dc2 28ba 0000 0000 0000 0000 c2bf ddb9
000001f0: 0000 0000 0000 0000 0000 0000 995d 3a3b
-0.0042808526 0.0 0.0019206048 -0.0048874095 0.0014216241 0.004247951 0.0 -0.0035488324
0.0 0.0 0.0 -0.0071242163 0.001769341 -0.0026979584 -0.0023865427 -0.0009896321
0.0 0.0 0.0 0.0004012779 -0.0015088532 0.0038104644 0.00035075092 0.006456901
0.00032409222 0.0 0.006929785 -0.0077912444 0.0 -0.0009166858 0.0 0.0069523253
0.0023397345 -0.0026428434 -0.0017510449 0.0 -0.0042834776 -0.0020217313 0.0 0.0015090472
0.0 0.0013327257 0.0 0.000213436 -0.003213014 0.0026583835 0.008959783 -0.0014026708
-0.0004837605 -0.0047745775 0.0047185514 0.03499609 -0.0024116195 0.0010215688 0.0 -0.00091249857
-0.00054866454 -0.0012842851 -0.0005361029 0.002797809 0.0054061464 -0.002045514 -0.0009747841 -0.0013362456
0.0 0.0030054236 0.00018865407 0.0 -1.6404012e-05 0.0 0.0 -0.0076538054
0.0 0.0020448482 0.0 -0.00090459513 0.0042834813 0.009097604 0.0061937356 -0.002086369
0.0 0.0 0.0 0.005667801 0.0 -0.0050758594 0.0 -0.004310684
8.476201e-05 -0.0029874302 -0.0001829402 -0.0038836368 -0.0013995051 -0.0060969917 -0.003588307 -0.00023883331
-0.0038654704 0.0016315052 -0.0015561398 0.0 -0.004193931 -0.006381933 0.0 0.00057140726
-0.0018907076 0.0052383486 -0.0022713966 -0.0011072464 -0.001846006 0.0 -0.00032019196 0.0
0.0 0.0 -0.0006090972 0.00033749102 0.0 0.0 -0.0005113452 0.00564963
-0.0006437635 0.0 0.0 -0.00042295275 0.0 0.0 0.0 0.0028437136

decoder_net.2.weight f4 [128]
00000000: 9e3f 803f 848b 803f bdb6 803f f397 7e3f
00000010: 86e6 7f3f 94f7 803f 9856 803f 3cd0 7f3f
00000020: 6510 803f 32b2 803f ea84 7e3f 115e 7e3f
00000030: 3c06 803f 9367 7e3f 9632 7c3f d303 7d3f
00000040: 5998 803f 4c88 803f 974b 7f3f 3388 7f3f
00000050: d68a 7f3f ac5a 7f3f 2512 803f 69d7 803f
00000060: 4b93 7f3f f43b 803f 392f 803f 009c 7f3f
00000070: e063 7e3f 0d73 7f3f 3b1f 803f db8b 803f
00000080: a8f8 7f3f dfc4 7f3f c957 803f e7dc 7f3f
00000090: a02f 803f 541b 813f 00b2 803f f05d 7f3f
000000a0: 4257 803f e1f5 7f3f 742c 803f 2bb1 7f3f
000000b0: 9acb 7f3f 7447 803f c247 813f 053e 7f3f
000000c0: 1804 803f ec73 813f 44a8 803f 7e2b 813f
000000d0: 6282 7f3f e500 803f b751 7d3f 992a 803f
000000e0: 07f3 7f3f e379 803f 92d5 7e3f 05e0 7f3f
000000f0: 0ddc 7e3f 49e6 7f3f 9414 803f 7de3 7d3f
00000100: bab9 7e3f b043 803f b4d8 7f3f 3263 803f
00000110: 9ecd 7f3f 764d 7f3f 25de 7f3f 8a7b 803f
00000120: 5a09 7f3f 4410 803f f85e 803f d4f3 7f3f
00000130: 0067 803f 42ed 7e3f 6baa 7e3f 0aeb 7e3f
00000140: 99f5 7f3f ef95 7f3f 38e7 7f3f ba52 7f3f
00000150: e96e 7f3f 36cd 7e3f c4e2 7f3f a032 803f
00000160: 1dc3 7f3f f1a2 7e3f fa51 7f3f 655c 7f3f
00000170: 442e 7f3f 9a4c 7e3f 2c2c 803f 0d55 7e3f
00000180: 849f 7e3f 9970 7d3f 89cd 7e3f 1859 7f3f
00000190: a936 7e3f bd15 803f b361 803f 0acf 7f3f
000001a0: 42bd 7e3f 23cc 803f 3884 803f 4c7a 803f
000001b0: e543 7f3f 5fa2 7f3f 4edc 7f3f 28d9 7e3f
000001c0: 7197 7f3f affb 7f3f cc72 7d3f e9cd 7f3f
000001d0: 013d 7e3f 08b4 7e3f 2010 803f 14b5 803f
000001e0: 32ba 7f3f 7f53 7f3f fbda 7f3f a505 803f
000001f0: 7e75 7e3f 3905 7f3f 5e45 803f 794d 803f
1.0019414 1.0042577 1.0055767 0.99450606 0.99961126 1.0075555 1.0026426 0.99927115
1.0005003 1.0054381 0.9942156 0.99362284 1.0001903 0.9937679 0.9851469 0.9883396
1.0046493 1.0041595 0.99724716 0.998172 0.9982122 0.9974773 1.0005537 1.0065738
0.99834126 1.0018296 1.0014411 0.9984741 0.9937115 0.9978493 1.0009531 1.004268
0.99988794 0.99909776 1.002679 0.99946445 1.0014534 1.0086465 1.0054321 0.9975271
1.0026629 0.99984556 1.0013566 0.9987971 0.99920046 1.0021806 1.0100024 0.9970401
1.0001249 1.0113502 1.005135 1.0091398 0.99808323 1.0000273 0.9895281 1.0013
0.99980205 1.0037197 0.9954463 0.999512 0.9955452 0.9996076 1.000628 0.99175245
0.99502146 1.0020657 0.9994004 1.0030272 0.9992312 0.9972757 0.9994834 1.0037701
0.99623644 1.0004964 1.0028982 0.9998143 1.0031433 0.99580777 0.9947879 0.9957739
0.9998413 0.99838156 0.99962187 0.99735606 0.9977861 0.9953188 0.9995539 1.001545
0.99907094 0.9946738 0.9973446 0.9975036 0.9967997 0.99335635 1.001348 0.9934853
0.9946215 0.98999935 0.9953237 0.9974532 0.99302155 1.0006634 1.0029815 0.9992529
0.99507535 1.0062298 1.004035 1.0037322 0.99712974 0.99857134 0.99945533 0.99550104
0.99840456 0.99993414 0.9900329 0.9992357 0.99311835 0.99493456 1.0004921 1.0055261
0.99893486 0.9973678 0.9994351 1.0001723 0.9939803 0.99617344 1.0021169 1.0023643

decoder_net.2.bias f4 [128]
00000000: 4f38 78bb 5d2b b1bb 876f d1bb 4b57 96bb
00000010: 376d c23a f4f2 8c3b 170e 62bb b894 1bba
00000020: 9c3b b5ba 22fa d3bb ef71 a63b e321 dfbb
00000030: ccb0 bc3a f231 ae3b 584b 29bb 6e05 e239
00000040: 26df babb 1f33 afbb 15e9 063b 63d5 bcb9
00000050: 6248 ad39 e9fe 833b 6577 d5ba b628 c33b
00000060: d858 14b9 cda7 41bb 9fcb d43b e4d0 f5ba
00000070: 6d37 b73b 692c b93a 80c8 09bb 9bae dd3b
00000080: 6aef 143b 7c98 7039 9ef4 7abb ca81 17ba
00000090: e86b 25bb 697e 1abc e1ce d0bb c281 e63a
000000a0: eb40 76bb 426d 853a 9415 25bb 7857 5ab9
000000b0: 837d 8abb 4306 0a3b 4f4f 1d3c 7ba4 11b9
000000c0: e3c2 66ba f8e3 11bc 31fc 9a3b f200 4bbb
000000d0: 58de 33bb 1cfe 323a c77e 1b3c 4127 25bb
000000e0: 543c 95ba 2d8b 95bb bcf6 733b 18e6 243b
000000f0: 75a7 bc3b c833 4bba c056 e7ba add3 9fba
00000100: 684a 7d3b e8d3 453b 103b 5c39 6220 8cbb
00000110: b582 9cb6 4229 d73a fa79 30ba 6282 dabb
00000120: 5fc0 2c3b e65c 123b 9aa1 84bb 70fe 88ba
00000130: 03e0 913b 7a52 173c afa0 0b3b d65a fdba
00000140: 90d6 20ba fbae 793a 647d 13ba 69b3 b23b
00000150: a4f3 913a 5b0b b3bb 078d d6b9 a50c 2fbb
00000160: 2c53 37b9 3521 973b 735b e23a 52ba 6abb
00000170: b010 02bb f584 c7bb b0fe 35bb 2265 59ba
00000180: a32e 68bb bea5 9d39 cf66 b0ba df8f c13a
00000190: ed2d 23bb 8cd8 bdbb e08c 7fbb 2fa1 f5b9
000001a0: 0c3d 33bb 9dbb c23b 408f a3bb 4514 9abb
000001b0: 58e9 0d3b 76f8 d639 5085 57ba 9bca 723b
000001c0: 9c0f 1d3a a862 8aba 331c ebb9 6396 a439
000001d0: e3d4 cb3b d91f 893b ca0c d2ba 457b c23b
000001e0: 57d7 47ba 4647 dc3a 2c3c 02ba 8cc6 68b9
000001f0: 8f78 a83b ba45 423b a311 55bb 6036 343b
-0.003787536 -0.0054067806 -0.006391469 -0.004588043 0.0014833574 0.004301423 -0.0034493261 -0.00059349416
-0.0013826969 -0.006469027 0.0050795 -0.0068094595 0.0014395951 0.0053160125 -0.0025832262 0.00043110125
-0.005702871 -0.0053466703 0.0020585705 -0.0003601714 0.0003305106 0.0040281904 -0.0016286193 0.005955781
-0.00014147477 -0.002954948 0.006494 -0.0018754271 0.005591324 0.0014127615 -0.0021024048 0.0067651994
0.002272571 0.00022944988 -0.0038292776 -0.0005779533 -0.002524132 -0.009429553 -0.006372318 0.0017586278
-0.0037575315 0.0010179656 -0.0025189864 -0.00020822685 -0.004226388 0.0021060861 0.009601428 -0.00013889551
-0.0008802844 -0.00890445 0.0047297706 -0.0030975905 -0.002744576 0.00068280264 0.009490675 -0.00252004
-0.0011385777 -0.00456371 0.0037225923 0.002516156 0.005757267 -0.00077515515 -0.0017649755 -0.0012193822
0.0038649086 0.003018612 0.00021002837 -0.0042763213 -4.6643786e-06 0.0016415494 -0.0006732043 -0.006668375
0.002635978 0.0022333204 -0.0040475847 -0.0010451805 0.004451753 0.009235973 0.0021305492 -0.0019329439
-0.0006135488 0.00095246703 -0.00056262896 0.0054535163 0.0011135233 -0.005464 -0.00040922334 -0.0026710418
-0.00017483224 0.004612113 0.0017269686 -0.0035816622 -0.0019846372 -0.0060888478 -0.0027770214 -0.0008292963
-0.0035428188 0.0003006886 -0.0013458374 0.0014767608 -0.00248992 -0.0057936367 -0.003899388 -0.00046850133
-0.002734962 0.0059427754 -0.004991442 -0.0047021233 0.0021653976 0.0004100238 -0.0008221464 0.0037047032
0.00059914007 -0.0010557966 -0.00044843703 0.00031392564 0.0062204464 0.0041847047 -0.001602554 0.005935105
-0.00076233357 0.0016805909 -0.0004968073 -0.00022199209 0.005141325 0.002964361 -0.0032511733 0.002749823

decoder_net.3.weight f4 [64, 128]
00000000: 9915 1b3d 6c45 4b3d c8c3 c13d 7556 d8bd
00000010: 87fb ae3d f4e5 35be 5887 2c3e f820 353e
00000020: 3522 13bd 3434 993c ae2d c93d fa86 11bd
00000030: a5a3 aa3c 9489 dcbd 701a 81bd 7525 0f3e
00000040: 3f3f 8bbd 5ccd d93c 7a51 92bd b793 2fbd
00000050: f1e9 debc a1f4 17be 2ae2 133e 2632 2a3d
00000060: 2312 d43d b0c9 06be d5a4 e4bc 53cd 213c
00000070: 2c85 4b3d a2cd 2b3e 7c27 2fbe 8d1b 333d
00000080: 99e3 a63c 1da3 55bd 16a1 4bbd a490 9cbd
00000090: 85b3 8cbd c248 0a3e 4482 c93d 42cc 11bd
000000a0: 8cc6 00be 92b7 963d 0bfc 923d 5e46 2dbe
000000b0: e810 2d3e 8eea 043e 92c3 df3d 3e7c 14bd
000000c0: 2035 d2bb 1039 a0bd be78 36be d051 8d3d
000000d0: 9dda 48bd 419a 16bd 7803 02be b88c c5bd
000000e0: bbab fcbc f217 03be fdde 18be 1aa1 b2bd
000000f0: 7df8 f53d 8f28 d93d e99c dabd 5e03 723c
00000100: af74 86bd d66f e5bd 8e12 903d 9d7b 6fbd
00000110: f0bf 903d 3c53 1a3d dd91 0e3e b143 92bd
00000120: 8831 1f3e cd9d 323c c1df ff3d 88c1 ed3d
00000130: a001 9abb 9650 16be 628e ce3d e1a1 a1bd
00000140: 8a07 e5bd 6e9f 30bd 0579 c43c 07e8 1dbe
00000150: 98a0 47bd 67ab 463d 0b38 eebd 0a00 e93d
00000160: 20ea 103e ab79 e33d 4cf7 cfbd 1d76 383c
00000170: d133 013e 54ef 1ebe cd27 043e 95ab 6f3d
00000180: 3a29 e73d 319d 42bd d5e7 c83d e9d5 503d
00000190: 77f6 bfbd 262f a7bd 05d4 21be b958 d0bd
000001a0: f6fe ddbd ea69 e73b 64e8 7abc 9e2c de3d
000001b0: 3c7d 1c3d ba84 eb3d 6478 7fbd e61b 213e
000001c0: a9b2 08bd 0948 843c f68d 2c3d 0961 bbbd
000001d0: 3a7e d73d 5d6a 05be 88be f7bc 605e b63d
000001e0: a7d0 ff3d 3ae5 13be 19d8 863d 1f38 07be
000001f0: c950 79bd 6dea 713c 1229 043e a8ae 6fbd
00000200: 6079 5a3c 6361 083d 14e0 253d a3c4 f7bb
00000210: 049c 98bd c1a1 f03d f07f 15bd 9c5b 4bbc
00000220: d9dc f8bd e9a6 ee3d 1a8d d9bd 4929 ff3d
00000230: 3804 2ebe dfe3 763d 89cd 6abc 1d7d 20bd
00000240: 4e89 2fbe 7c29 0ebe 92b3 f7bc 4934 1fbe
00000250: f97f cebb 8113 15be c2cf 423d c0e9 77bd
00000260: 89ee 01be e1c6 1abd ff4d 15be b0e3 2abe
00000270: 3fbc 253e 2936 a2bc 59e0 983d 4b5c 1c3e
00000280: 856e 09be 5383 2f3e 03f6 f63d 9c85 e43d
00000290: cc2e fe3d 2e80 2a3e 66c8 c4bd 0d17 33be
000002a0: 2488 a3bd c7ce d1bd f706 fabd 73fe e83d
000002b0: dce3 0d3e 799b bb3d 5f5d 24be 8af2 d6bc
000002c0: e5f7 a33d 3da0 e0bd 1799 ce3d 0296 c4bd
000002d0: 93a7 0a3e 8985 63bc 7530 65bd 1725 ca3d
000002e0: 47a0 f2b9 39e5 32be 765f 1d3b 021a fd3d
000002f0: c536 f83d 8abf 253d 2e77 0abe 6d13 2a3e
00000300: b843 35bc 73e2 31be 5dcd 73bd 4000 f7bb
00000310: f3ff 583d 1d65 afbd 8f3c 17be 039b cdbd
00000320: 5fdd 06bd b728 d63d 6600 0dbe ead3 c4bd
00000330: 9a96 cfbd 2146 0d3e f2a2 80ba 73c9 7dbd
00000340: ff68 123e dced 9abd 0748 ce3d 4db8 133e
00000350: 1f3d 81bd 9384 02bb 6fb2 1abe 5faf 20be
00000360: 2b50 db3d 7879 d23d 95ef 933d 2940 053e
00000370: bcf6 88bd d452 613d 3f78 bf3d 5ce5 08be
00000380: c63b 33bd b848 95bc 914b a5bb 9f00 1e3d
00000390: 4629 3f3c 8b94 03be 5603 2b3e db93 f9bd
000003a0: 9421 fe3d dead 263d 1b3b 0fbc a03d ed3d
000003b0: 1315 1fbe 7b3f fbbd 3c9a 06be 069c 503d
000003c0: e0b1 f9bd ef8a 19be d6ec bc3d f261 c1bd
000003d0: 8f51 163e 0362 533d 8427 75bc 5f28 14be
000003e0: 20f5 1f3d de1d b9bb 6d5d b33c ce00 c3bc
000003f0: 9340 2cbe 138e 2f3e fbfa 103e c2ab d2bd
0.037862394 0.049626753 0.094611704 -0.10563365 0.08544069 -0.17763501 0.16848505 0.17688358
-0.035921294 0.01870165 0.09823166 -0.035529114 0.020829985 -0.107684284 -0.06303871 0.13979132
-0.067991726 0.02658718 -0.07144447 -0.04286548 -0.027211161 -0.14839412 0.14441743 0.04155173
0.10355022 -0.13162875 -0.02791063 0.009875613 0.04968755 0.16777661 -0.17104906 0.043727446
0.020372199 -0.05215751 -0.04971417 -0.076447755 -0.06870178 0.13504317 0.09839299 -0.035595186
-0.1257574 0.07359232 0.0717698 -0.16921374 0.1690098 0.129801 0.10925974 -0.0362513
-0.0064150244 -0.07823384 -0.17819497 0.0690037 -0.04903661 -0.0367682 -0.12696636 -0.096459806
-0.030843606 -0.12802103 -0.14928813 -0.08722134 0.12010286 0.10603439 -0.106744595 0.014771311
-0.065652244 -0.11202972 0.07034789 -0.058467496 0.07067859 0.037677035 0.1392283 -0.07141817
0.15546238 0.01090188 0.124938495 0.11609179 -0.0046999007 -0.14679179 0.10085751 -0.07892204
-0.111830786 -0.043120794 0.023983488 -0.15420543 -0.04873714 0.048503306 -0.11631783 0.113769606
0.14151812 0.11107191 -0.1015459 0.011258629 0.12617423 -0.15520984 0.12905808 0.058513243
0.1128716 -0.04751319 0.098098435 0.05098525 -0.09373181 -0.0816329 -0.15803535 -0.101731725
-0.108396456 0.0070621865 -0.015314195 0.10848354 0.03820537 0.11499925 -0.062370673 0.15733299
-0.03337351 0.01614763 0.042127572 -0.09149367 0.10522123 -0.13028856 -0.03024222 0.08904719
0.12490969 -0.14442912 0.06584186 -0.13205002 -0.06086806 0.014765364 0.12906292 -0.058516175
0.013334602 0.033296 0.0404969 -0.0075612827 -0.074516326 0.11749602 -0.036498964 -0.012411978
-0.12151498 0.11652929 -0.10622616 0.124590464 -0.16993797 0.06027591 -0.01433123 -0.039181817
-0.17142221 -0.13883013 -0.030236993 -0.15547289 -0.0063018766 -0.14558221 0.047561415 -0.060525656
-0.1268865 -0.037787322 -0.14580534 -0.16688418 0.16185091 -0.019801216 0.07464666 0.15269582
-0.13421066 0.1713994 0.12058642 0.111582965 0.124112695 0.16650459 -0.096085355 -0.17489262
-0.07984951 -0.10244518 -0.1220836 0.11376657 0.13856453 0.091605134 -0.16051243 -0.026238699
0.080062665 -0.10968063 0.10087793 -0.09598924 0.13540487 -0.013886818 -0.055954415 0.098703556
-0.00046277253 -0.17470254 0.0024013198 0.12358476 0.121198215 0.04046587 -0.13522026 0.16608973
-0.011063509 -0.1737154 -0.05952202 -0.0075378716 0.052978467 -0.08564208 -0.14769195 -0.10039332
-0.03292596 0.104569845 -0.13769683 -0.09610732 -0.10136147 0.13796283 -0.0009814186 -0.061959695
0.14297865 -0.07564899 0.10072332 0.14425774 -0.06310486 -0.0019915446 -0.1510713 -0.15691899
0.1070865 0.102770746 0.07223431 0.13012756 -0.06687686 0.05501063 0.09349107 -0.13368744
-0.043758176 -0.018223152 -0.0050444086 0.03857481 0.011667555 -0.12849633 0.16700491 -0.12186404
0.12408748 0.040693156 -0.008742119 0.1158402 -0.15535383 -0.12267967 -0.13144773 0.050930046
-0.1219213 -0.14994405 0.0922486 -0.0944251 0.1467955 0.051607143 -0.014963035 -0.14468525
0.03905213 -0.0056493124 0.021895135 -0.023804095 -0.16821508 0.17144041 0.14158241 -0.102866665

decoder_net.3.bias f4 [64]
00000000: a3ee 97bb 7dae 363b 7a88 563b 2446 693a
00000010: d95e 7a3b 1d91 5e3b 5f9c 7b3b ff23 a73a
00000020: 0ee3 24bb a246 dcba 3339 0739 9be7 ccbb
00000030: c9a8 ac3b 2ed7 873b 82cd e33a 347e 0abb
00000040: 44a2 f9ba 76f2 113b 4132 983a 0bb3 873b
00000050: a67e 8abb 7606 c6ba e125 7dbb dc7b 503b
00000060: bdf4 3dbb e924 403b a8b8 1c3b 8efa 0cbb
00000070: 394d b33b baf1 b33b 1587 aa3a 819f 3eba
00000080: d291 80ba 8050 1a3b 20a8 e1ba 4971 c63b
00000090: 596b 0b3c ca0e a13b de08 34bb 12e0 793b
000000a0: 2131 3dba 6db3 bcba c6f0 9eba af78 7a3b
000000b0: 0777 6bbb b848 beba dd21 c53b 9e95 763b
000000c0: feab 383a 0e8c a53a 035a 56ba c182 daba
000000d0: 2c83 403a f4ca ca3b 5a05 be3a 58c0 d5ba
000000e0: bccc 083a 34bd 8f3b 1f30 793b 7110 aeba
000000f0: f651 8dba a4ba ce39 f683 843c 1ff0 98bb
-0.004636602 0.0027875 0.0032735155 0.00088986964 0.0038203506 0.0033961006 0.0038392765 0.0012751817
-0.002515975 -0.0016805718 0.00012895912 -0.0062531955 0.005269144 0.0041455245 0.0017379972 -0.0021132352
-0.0019045551 0.0022269762 0.0011611657 0.0041412166 -0.0042265235 -0.0015108127 -0.0038627314 0.0031812107
-0.0028984987 0.0029318875 0.0023913775 -0.0021511647 0.005471852 0.0054914625 0.0013010228 -0.0007271693
-0.0009809083 0.0023546517 -0.0017216243 0.006055985 0.00850948 0.004915093 -0.0027471106 0.003812794
-0.00072170986 -0.0014396735 -0.00121262 0.0038218906 -0.00359291 -0.0014517521 0.0060159997 0.00376258
0.0007044672 0.001263024 -0.0008176865 -0.0016671048 0.0007343765 0.0061887447 0.0014497444 -0.0016307933
0.0005218496 0.0043865684 0.0038023067 -0.0013280046 -0.0010781873 0.0003943044 0.016176205 -0.0046672965

decoder_net.4.weight f4 [64]
00000000: 28ad 7d3f 06aa 7e3f effe 7d3f 6c94 7f3f
00000010: 4dc4 7f3f 5364 803f 3fc2 7f3f a9b7 7e3f
00000020: df35 7f3f c735 7f3f ef8c 7f3f 718e 7e3f
00000030: d866 803f 1866 803f 2113 803f 1924 7f3f
00000040: 0a7e 803f 78d4 7f3f 3a7c 7f3f 2f2c 803f
00000050: 44df 7e3f 81da 7e3f 32e8 7e3f fa2b 803f
00000060: 0948 7e3f 7ee9 7e3f bf12 803f f27f 7e3f
00000070: 56c6 803f 21cd 803f a8e3 7f3f 6556 7f3f
00000080: 11bc 7f3f 2730 803f d91d 7f3f ac75 803f
00000090: e793 803f f274 803f b4fb 7e3f 4dc4 7f3f
000000a0: 8a98 7e3f bc72 7f3f 3807 7f3f 4dc4 7f3f
000000b0: b226 7f3f 1de9 7e3f da1e 7f3f 4dc4 7f3f
000000c0: 40c0 7f3f b49c 7e3f 3b78 7f3f f846 7f3f
000000d0: 2f03 7f3f 8ec1 803f 1ec0 7f3f 760d 7f3f
000000e0: 022f 7f3f 43d0 803f 4dc4 7f3f 76d9 7e3f
000000f0: c25a 7e3f 5cc3 7f3f 8794 813f c1bd 7e3f
0.9909234 0.99478185 0.9921712 0.9983585 0.99908906 1.0030617 0.9990577 0.99498993
0.99691576 0.9969143 0.9982442 0.994361 1.0031385 1.0031157 1.0005838 0.99664456
1.0038464 0.99933577 0.9979893 1.0013484 0.99559426 0.9955216 0.9957305 1.001342
0.99328667 0.9957503 1.0005721 0.9941398 1.0060527 1.00626 0.9995675 0.997412
0.9989634 1.0014695 0.9965492 1.0035911 1.0045136 1.0035689 0.9960282 0.99908906
0.99451506 0.99784446 0.9962039 0.99908906 0.9966842 0.9957445 0.9965645 0.99908906
0.99902725 0.9945786 0.9979283 0.99717665 0.9961423 1.0059068 0.9990252 0.99629915
0.99681103 1.0063556 0.99908906 0.9955057 0.99357235 0.9990747 1.0123452 0.9950829

decoder_net.4.bias f4 [64]
00000000: c17c 08bc 04c7 a0bb 0d4a 7cbb 6404 c7ba
00000010: 0000 0000 5ea6 4f3b d2b6 deb9 c2cc b0bb
00000020: 52d4 2abb 2610 ebba 0e7f 24ba 0741 dfbb
00000030: 62ab b63b fd7b 833b 3e45 4f3a c0ad 22bb
00000040: fd0e f1ba eb24 0b3a c52f 463a 3bca 1139
00000050: 45e3 8ebb 6c68 2bbb 3af4 7bbb 7702 4b3b
00000060: c166 7fbb caba 32bb 1a65 2a3b ecbd 75bb
00000070: 76f1 b23b 92c1 af3b e950 7bbb b753 28bb
00000080: e663 cdba 6fd1 063b fb0a dcba 3872 933b
00000090: 504a 4b3b 4094 9c3b b185 48bb 0000 0000
000000a0: 413c 50ba 5822 f1ba a7a1 0cbb 0000 0000
000000b0: 0653 7bbb ad82 4dbb a8bc c13b 0000 0000
000000c0: 819b 613a e609 94bb 876c dfba 0ed0 11bb
000000d0: 46a6 5ebb 0f5d ca3b cfe8 c23a 9bed ddba
000000e0: 83ef 56bb e54f 813b 0000 0000 465c 5abb
000000f0: 2eb1 6dba 3eda d339 ad12 423c 9d6c a4bb
-0.008330525 -0.004906537 -0.0038496286 -0.0015183804 0.0 0.0031684856 -0.0004247935 -0.005395503
-0.0026066494 -0.001793389 -0.0006275036 -0.006813172 0.0055746296 0.0040125833 0.0007906741 -0.0024822801
-0.0018391308 0.00053079304 0.0007560219 0.00013903614 -0.0043605887 -0.002615477 -0.003844513 0.003097681
-0.0038971158 -0.002727198 0.0026000203 -0.0037497235 0.0054609133 0.0053636516 -0.0038347787 -0.0025684664
-0.0015670031 0.002057161 -0.001678794 0.0044997 0.0031019635 0.004778415 -0.0030597264 0.0
-0.0007943549 -0.0018397076 -0.0021458657 0.0 -0.0038349046 -0.0031358406 0.005912382 0.0
0.0008606241 -0.0045177815 -0.0017045893 -0.0022249254 -0.0033973618 0.006175644 0.0014870408 -0.0016931774
-0.0032796569 0.0039462917 0.0 -0.003331916 -0.00090672344 0.0004040766 0.011845273 -0.0050178305

decoder_net.6.weight f4 [32, 64]
00000000: 13d0 3cbb b769 003c 7565 db3d 400d 6fbd
00000010: bfcb 47be 52fd 67be a129 4c3e c408 6d3d
00000020: 9792 d6bc e150 c53d 5536 3fbe daa6 d13d
00000030: b13c 6c3e 02e3 5cbd 389c 443e 10a2 253e
00000040: cf74 23bb 0e91 543e 417f 5f3e a445 6fbe
00000050: 10f5 123d 71c7 233e e91e 283e f3f0 c3bd
00000060: c1d2 d4bd 98a5 f13d 0314 ce3d bc0a 7c3e
00000070: 0825 6cb9 8b0f 30bc 8da4 723e 10cd 343e
00000080: 571f 05be 37e1 7cbe e066 95bd 766c 7a3d
00000090: 25d1 2f3e 88a0 40be 4019 31be fa94 92bd
000000a0: 3e80 f5bd ac25 503e ae61 1c3c c7ee 3d3e
000000b0: 6778 75be a810 79be e0af 54be bb31 0cbe
000000c0: 4ced 323e cf13 5cbc 50b1 fc3d d5d0 c43a
000000d0: 2a71 7dbe 738b 383e de0b 743e 8731 033e
000000e0: bce8 c53d 12bc 913d 398e fdbd 0514 32be
000000f0: 6a1e 5abe 0a2a 04be acf6 56be 32b8 19be
00000100: bfa2 813c 263f a1bd 5978 ee3c 8a39 fbbd
00000110: c347 63be df5e debc 11bb 213e 218d 563e
00000120: 17f8 1e3d d11d 00be 1dff 2a3d c9b7 aabd
00000130: a84c 6a3e b584 833d 9406 8d3d e93f 69be
00000140: a902 263c 7d30 e7bd efe4 ac3d 04ef 58be
00000150: fe65 a43d 238a 2e3e 0bc6 0fbe 8d29 103e
00000160: e9b2 7dbe e91d 83bd e98c 88bd 8751 cf3d
00000170: 355f df3d 24d5 313e 64b6 9ebd 5b4a 8dbd
00000180: fd9d 493e 8370 3bbe 32e4 ca3d 098c 583e
00000190: 1080 66bc 58f7 183e 0df6 5c3d 80d3 4b3e
000001a0: 8360 763d 5778 77be 3fef 033e ce72 9abd
000001b0: 1119 22be 9f58 483e eaf7 7c3e d9dc c93d
000001c0: 6224 fabd 4a30 26be 6aef aa3d 3875 693e
000001d0: d9bc ccbd eac0 233e 9ccb c63b 51e4 173e
000001e0: 9e26 5bbe 46a4 6a3e 631c 3dbe a69a fabd
000001f0: fc69 e63d ff90 1d3c 0d09 6f3e 88e0 923d
00000200: cc05 8f3d 93ea 233e 1e4e 9f3b f1a3 6c3c
00000210: 0e72 32be 2ed4 3abe cd8f 61be ddc0 73be
00000220: 2233 9fbd 8c82 e4bd 9326 a9bc d700 0c3e
00000230: 290a da3c 411a 8c3c 1bbe 74be 3aab 98bb
00000240: 28ee b7bc 5063 a1bd a2a1 30be add6 f4bd
00000250: 6ce1 f7bd 794e 3cbe 7708 f9bd 6c2a 653e
00000260: 74c5 643e 9245 6a3e 8725 76be 36a7 46be
00000270: 66bd d2bd 2bd3 63be 98a3 363e 8528 053e
00000280: 6736 693b 6199 943c 24ee ad3d 0bfe 763e
00000290: d5a2 1a3d 91e3 ec3d 63d5 663e bfd2 a13d
000002a0: 9fda ca3c 760c 0abd ad52 323e 69b3 823d
000002b0: 6a16 113e cb03 b2bd f53b 07bd 650d bf3d
000002c0: 38d0 03be 1a04 7abe 4a5b 7abe fd26 9bbd
000002d0: d8f0 223e 95a4 50be 21a8 e7bc bcef 88bd
000002e0: 691a 13be 17a0 3bbd 8cdb 393d 73f9 103d
000002f0: bfcd 4ebe ba4a 6abd 7548 433e 2a67 3c3d
00000300: 45b0 d4bd 2d60 44be 4132 473e 5f52 a9bc
00000310: 80f1 f03d bccf 543e 5dd6 a23d 96de 53be
00000320: 558b 1dbd 411a 39be a4e5 50be 323c 63be
00000330: e37a 173c cf71 12be 9643 8ebd f792 ec3d
00000340: 796b 123e aa6a 92bd cf06 123e 24fa 59be
00000350: e136 cb3d ddd3 f3bd ab2f 863d 1783 4cbe
00000360: eaf4 783e a36f 783e dac9 0d3e e298 ef3d
00000370: ef69 1c3e 1eb4 553e 7922 a2bd 358d e13d
00000380: 63c6 6ebe 5aa1 b6bd f361 dfbb 888f f1bd
00000390: 6645 1e3e b8a9 423e 9035 c73d 5bd2 dbbd
000003a0: d432 7cbd 885b c4bd f8f1 edbc c665 2d3e
000003b0: fe8b 063e 28f3 2f3e 41d7 2bbe 80ee 38be
000003c0: 0c2f edbc 9046 58be d228 bf3d 0645 6fbd
000003d0: 6b9d 6cbd 040c 3cbe c1ef 1ebe 59db 65bd
000003e0: 5453 ce3d cd86 863d 7e66 33be 63dc 043e
000003f0: d4f4 1dbe 47a5 203e 6988 ef3c b917 923a
-0.0028810545 0.007837704 0.10712711 -0.058362246 -0.19511317 -0.22655228 0.19937755 0.057869688
-0.026192946 0.09634567 -0.1867307 0.102369025 0.23070027 -0.05392743 0.19200218 0.16175103
-0.002494145 0.20758459 0.21825887 -0.2336641 0.03587824 0.1599405 0.16418041 -0.09567442
-0.103917606 0.117991626 0.10062411 0.2461347 -0.00022520509 -0.010745893 0.23695584 0.1765635
-0.13000236 -0.24695288 -0.072950125 0.061138593 0.17169626 -0.18811238 -0.17294788 -0.07157321
-0.11987351 0.2032687 0.009544773 0.18548118 -0.23971711 -0.2432276 -0.20770216 -0.13690846
0.17473334 -0.013432457 0.12338507 0.001501585 -0.247502 0.18021946 0.23832652 0.12811862
0.09663531 0.0711595 -0.123806424 -0.1739045 -0.21300665 -0.12906662 -0.20992535 -0.15011671
0.015824674 -0.07873373 0.02911012 -0.12266834 -0.22195344 -0.027144847 0.15794016 0.20952274
0.038810816 -0.12511374 0.0417472 -0.083358355 0.22880805 0.06421796 0.0688602 -0.22778286
0.01013247 -0.11288545 0.08442103 -0.21184927 0.08027266 0.17044882 -0.14040391 0.1407835
-0.2477528 -0.06402189 -0.066675015 0.10122972 0.10906831 0.17366463 -0.07749632 -0.06898948
0.19689174 -0.18304639 0.09906806 0.21147169 -0.014068618 0.14938104 0.05394559 0.199049
0.060150634 -0.24167 0.12884234 -0.075414285 -0.15829875 0.19565056 0.24703947 0.098565765
-0.12213971 -0.16229358 0.08346446 0.22798622 -0.09996957 0.1599156 0.0060667526 0.1483319
-0.2140145 0.22914228 -0.1846786 -0.12236528 0.11250684 0.009617089 0.23343296 0.07171732
0.069835275 0.16007452 0.004861607 0.014443384 -0.17426321 -0.18245003 -0.22027512 -0.2380404
-0.07773425 -0.11157712 -0.020648276 0.13672195 0.026616173 0.017102363 -0.23900644 -0.0046590837
-0.022452429 -0.078802705 -0.17249158 -0.11955009 -0.12103543 -0.1838931 -0.12159818 0.22379464
0.22340947 0.22878101 -0.24037753 -0.19399723 -0.10290031 -0.22248523 0.17835844 0.13003738
0.0035585405 0.018139543 0.08492687 0.24120347 0.037752945 0.11566842 0.22542338 0.07901525
0.02476245 -0.03370329 0.17414351 0.06381876 0.14168707 -0.0869213 -0.033016164 0.09328727
-0.12872398 -0.24415627 -0.24448887 -0.07575796 0.15912187 -0.20375283 -0.028278412 -0.06686351
-0.14365543 -0.04580697 0.04537539 0.035394143 -0.20195673 -0.05720017 0.19070609 0.045996822
-0.10385183 -0.19177313 0.19452764 -0.02066916 0.117648125 0.2078237 0.07951043 -0.20690379
-0.038462956 -0.18076421 -0.20400101 -0.22190931 0.009245607 -0.14301227 -0.06946485 0.11551469
0.1429881 -0.07149251 0.1426041 -0.21286827 0.09922577 -0.11905644 0.06552061 -0.19971882
0.24312177 0.24261336 0.13846532 0.11699082 0.15274785 0.2086949 -0.079167314 0.11013261
-0.23317866 -0.08917494 -0.0068170964 -0.117949545 0.15456161 0.19010055 0.09727013 -0.107334815
-0.06157191 -0.09587771 -0.029046044 0.16933355 0.1313934 0.171826 -0.16781332 -0.1805973
-0.028953098 -0.21120667 0.09333958 -0.058415435 -0.057767313 -0.18363959 -0.15521146 -0.05611739
0.10074487 0.0656868 -0.17519566 0.12974696 -0.15425426 0.15688048 0.02923985 0.0011145986

decoder_net.6.bias f4 [32]
00000000: c69c 3539 e1e3 033c 1c5d fc39 1bdd fc3a
00000010: bab8 ad39 3157 abba e838 0e39 899d d23a
00000020: c2fc dc3a 5038 f73a 7976 09bb e0e4 d23b
00000030: 94ab bf3b ea68 e739 096e ecba e6d1 78bb
00000040: dbad d0ba eb8f ee39 f633 05ba 8d78 0a3a
00000050: d6cf aabb b00b 13bb 246d 1b3b 1cf3 fb3a
00000060: b73e 82bb 280a 4c3b 7a02 d639 5029 193b
00000070: 930b 1dbb 12fc 9a3b d971 f3bb ac74 1dba
0.00017319908 0.008049936 0.00048134557 0.0019291969 0.00033134763 -0.001307225 0.00013563375 0.0016068678
0.0016859996 0.0018861387 -0.0020975156 0.0064359754 0.005849311 0.0004413792 -0.0018038164 -0.0037966906
-0.0015920954 0.00045502125 -0.000508129 0.00052822457 -0.0052127643 -0.0022437386 0.0023716176 0.0019222233
-0.0039747613 0.0031133983 0.00040819106 0.0023370571 -0.0023963198 0.004729756 -0.007429343 -0.000600646

decoder_net.7.weight f4 [32]
00000000: 3159 7f3f 09f6 813f 4dc4 7f3f 724d 7f3f
00000010: 99f3 7f3f 6489 7f3f 0577 7f3f 20e2 7f3f
00000020: 2b2d 803f 9526 803f 3d44 7f3f 4c50 803f
00000030: bbc8 803f 4dc4 7f3f fac4 7c3f 1a7c 7e3f
00000040: 0c5e 7f3f 6043 7f3f 6364 7f3f 6c8c 7f3f
00000050: 779d 7d3f 1b3f 7f3f 0408 7e3f 4f75 7f3f
00000060: 08dc 7e3f 6936 803f 4dc4 7f3f 617d 803f
00000070: 2328 7f3f 5af2 803f bb91 7e3f d543 7f3f
0.9974547 1.0153209 0.99908906 0.9972755 0.99981076 0.99819016 0.99790984 0.99954414
1.0013784 1.0011774 0.997135 1.0024505 1.0061258 0.99908906 0.9873806 0.99408114
0.9975288 0.9971218 0.9976255 0.9982364 0.990684 0.99705666 0.9923098 0.99788374
0.9955449 1.0016605 0.99908906 1.0038263 0.9967062 1.007396 0.9944112 0.9971288

decoder_net.7.bias f4 [32]
00000000: 5976 04bb bd59 213c 0000 0000 e0bd 953a
00000010: 5e53 883a 3df1 10ba 254b d5b9 013f ae3a
00000020: 6436 083b cfe2 8c3a 8851 0fbb 3303 823b
00000030: e233 d93b 0000 0000 ef61 e3bb f43f 86bb
00000040: 9d17 d4ba 384f beb7 8e3c a538 e61e 07b9
00000050: 3d2c 08bc 1941 0cbb 3ffd 143b 97b9 1139
00000060: 1c52 75bb bf85 4b3b 0000 0000 cbe1 143b
00000070: a53b 3fbb 2ffd a53b 1de4 0fbc b963 03bb
-0.0020212142 0.009848055 0.0 0.0011424385 0.0010400822 -0.00055291114 -0.00040682513 0.0013293923
0.0020784372 0.0010748747 -0.0021868665 0.0039676665 0.0066284994 0.0 -0.006939165 -0.0040969793
-0.0016181354 -2.2686654e-05 7.879092e-05 -0.00012886114 -0.0083113285 -0.0021401106 0.0022733954 0.00013897415
-0.0037432974 0.003105506 0.0 0.002271759 -0.0029179838 0.005065582 -0.008782414 -0.0020048453

decoder_net.9.weight f4 [16, 32]
00000000: 8917 99be 09df 843e 9a58 0f3e 6f9d 93be
00000010: 2c96 a53d f06d 01bd 2977 3bbe 398a 993e
00000020: 5ebf 053e 5103 f2bd d520 9a3e 9f22 973e
00000030: 236b b83d 8e8e 893e 441b 403e 0f9c 94be
00000040: 3ffd 8bbe 178a 9dbe 9d70 743e 7d2a 9dbe
00000050: ec39 abbe 71a5 b23e aa11 dabc d7c1 5b3e
00000060: b159 02be 67e1 593e 87bf b2be 9509 4abe
00000070: 2588 a8bd ce65 49be 032a 8a3e 77e1 bd3d
00000080: eca1 abbe a345 d6bd 8315 9e3d ff44 a13e
00000090: 5d67 253e 5c91 6e3e e3d7 e8bd 72ec 14bd
000000a0: 3df0 983e 9253 e33c ec34 16be f197 9d3e
000000b0: 9a38 1abe 4268 863e d5a4 063e b745 9f3e
000000c0: fd07 10be 971f a6ba 2991 e4bc c5f8 cfbb
000000d0: 2331 2c3e 8fc9 d7bd 5798 613e e2c8 803e
000000e0: 4232 983e a6dc a53d 92d7 833e 9acc 143d
000000f0: b0fa eb3d f0fc 2e3d 6c6c 59be d9b2 a5be
00000100: 2c35 373e d079 9f3e 4c69 32be a10a 07bd
00000110: 0c2f 1cbe 7412 98be b548 6dbd 8fec 37be
00000120: b203 14be fda0 94be 5146 873d 8312 8e3e
00000130: f6ad 163e 9a8a 6dbe 475a e4bd 7895 1cbe
00000140: ad50 f53d f3ed 12bd a444 dd3d cbe5 b33e
00000150: 1aca 9abe 9093 9ebe a112 b23d 2e2e 703c
00000160: 6d3d 8abe c97c 9dbd d495 b4bd c109 96be
00000170: fa8d 6bbe cb7a 153e f5a1 66bd aa20 383e
00000180: 0c82 e83b 3067 8c3e 511a 55be 20aa 77be
00000190: af71 d53c f741 cabd 775e be3d ac48 bb3e
000001a0: 4751 9dbe 8873 8bbe d9ec 80be c6b8 383e
000001b0: bb9f d3bc a8b8 afbd 672c 91bd e1a4 b63e
000001c0: 4382 a8be bc29 3ebe 2d5b 38bd 6e20 dcbd
000001d0: 0919 a13c 898f 36be b820 6cbd 93ec cfbd
000001e0: 4193 21bd 70c4 c2bd 740d b53d c7d0 7bbe
000001f0: 8025 3e3d a6f7 3abe 69a9 49be 0b2b c7bd
00000200: 826e 9abe 3abd 73bd a692 aebe df7b d03d
00000210: ab77 923e 341f 49be 9cfd 43be 7a03 983e
00000220: 8152 cbbd de99 b63d 7d9c b53d 5024 0f3e
00000230: b9c7 c03d 9e31 a93e 374e a33e d845 11bc
00000240: bd5a 3fbe afa2 a1be 9913 293e 3839 6cbe
00000250: 02d7 03be 507f e13d 3aca f83b e345 583e
00000260: eddd 70be d131 e0bd b5a8 8ebd 3218 03bd
00000270: 2331 11be 49fa e6bd bb98 e5bd f447 86bd
00000280: ee2b 12be 4f27 163d 3467 31be a343 fbbd
00000290: 21f0 a2be 5c4c 44be b4e5 2e3e 065a acbe
000002a0: 7203 013e bfdb 49be 20d4 de3d 817b f53d
000002b0: cd5a 41be 4d39 903e b76d 713e 2623 a9be
000002c0: 1e29 9cbe 0f92 86be 1e14 8c3e 8cba 0bbd
000002d0: 6bdc 553d 3de0 a93e 2a71 7b3b c7f7 4d3e
000002e0: 680c 14be b3b9 b13e 0928 813d 8fd4 d6bd
000002f0: 7a09 b8bd b308 9d3e d120 9b3e f1fa 98be
00000300: 56c4 15be bd46 8a3e e56c c5bd e899 b5be
00000310: 8888 a6bd 179e 6ebb faa6 31be 687f 2a3b
00000320: 7775 3c3e ab4d 9abe 2c41 49bc 40e7 96be
00000330: 035c 003e 70e4 1a3e 3b99 8bbe 4147 c83c
00000340: 3064 89be deba 6abd 4d44 953e c662 ecbd
00000350: 1f8b 633e 395f 873e c4ef 583c 5225 383e
00000360: 8b71 c63d a38c f13d d293 21be cc4c 4f3d
00000370: 26ac 22be 5ee6 afbd eac7 b43d c195 b8bd
00000380: a5cb 623e 0410 3c3e 828c 8c3e 0aae 2c3e
00000390: 2f8c 3b3e e9a0 04be edcb 9b3e 5cbe 76be
000003a0: 943f 17be 04bf 26be 0b94 923d c3ce 4d3e
000003b0: 2209 a1be 77b7 903e e0a9 103d 1ed8 993e
000003c0: c4ae 283e 57ae 74be 8bc8 bd3d 8af6 193e
000003d0: c343 8abe 7911 313e 3ad3 9abe f164 c03d
000003e0: c13a 1abe 9b5b 7fbe 4299 d4bd 951f 51be
000003f0: f5b4 5b3d b2b6 f03d 109c be3d 667f 5d3e
-0.29900768 0.25951412 0.13998643 -0.2883105 0.08085284 -0.031598985 -0.18307175 0.29988268
0.13061282 -0.11817039 0.30103174 0.295186 0.0900481 0.26866573 0.18760401 -0.29025313
-0.2734165 -0.30769417 0.23871084 -0.30696478 -0.33442628 0.34891847 -0.026619751 0.21460663
-0.12729527 0.2127739 -0.3491175 -0.19730218 -0.082290925 -0.19667742 0.26985177 0.0927152
-0.33521974 -0.10462501 0.07718947 0.31497952 0.16152711 0.23297638 -0.11369302 -0.036358304
0.29870787 0.02774981 -0.14668626 0.30779985 -0.15060654 0.26251417 0.13148816 0.31107876
-0.14065547 -0.001267421 -0.027901249 -0.0063467943 0.16815619 -0.10536491 0.2203077 0.2515326
0.29725844 0.08098726 0.25750405 0.036327936 0.11522424 0.04272169 -0.21232766 -0.32363012
0.17891377 0.31147623 -0.1742298 -0.03296912 -0.15252322 -0.2970158 -0.057930667 -0.17961334
-0.14454535 -0.29029074 0.06605209 0.27748498 0.14714798 -0.23197404 -0.111500315 -0.15291393
0.11978278 -0.035871457 0.10804108 0.35136256 -0.30232316 -0.30971956 0.086949594 0.014659448
-0.2699999 -0.076898165 -0.0881764 -0.29304317 -0.23003379 0.14597623 -0.056306798 0.1798121
0.007095581 0.27422476 -0.2081082 -0.24185991 0.026055185 -0.09875863 0.092953615 0.36578882
-0.30726072 -0.2723658 -0.251807 0.18039235 -0.025833001 -0.08580142 -0.07088547 0.35672668
-0.32911882 -0.18570608 -0.045008827 -0.10748373 0.019665258 -0.17828192 -0.05764839 -0.10152545
-0.039447073 -0.09510124 0.088404566 -0.24591361 0.04642248 -0.18258533 -0.19693531 -0.09725007
-0.30162436 -0.059506632 -0.3409626 0.101798765 0.28606924 -0.1964081 -0.19139713 0.29690152
-0.09927846 0.089160666 0.088677384 0.13978696 0.09413094 0.33045667 0.3189561 -0.00886675
-0.18686958 -0.3156943 0.16511382 -0.23068702 -0.12874988 0.11010611 0.0075924667 0.2112041
-0.23522158 -0.10947002 -0.06965772 -0.032005496 -0.141789 -0.11278207 -0.11210772 -0.06556693
-0.1427457 0.03665858 -0.17324525 -0.1226876 -0.3182383 -0.19169754 0.17079812 -0.33662432
0.1259897 -0.19712733 0.108803034 0.11986447 -0.18882294 0.28168717 0.23577009 -0.3303463
-0.3050012 -0.2628331 0.27359098 -0.03411345 0.05221216 0.33178893 0.0038367012 0.20114051
-0.14457858 0.3471199 0.06306464 -0.10489761 -0.089861825 0.306707 0.30298474 -0.29878953
-0.14625677 0.27007094 -0.096399106 -0.35468984 -0.0813151 -0.0036410147 -0.17348853 0.0026015881
0.18404184 -0.3013738 -0.012283605 -0.29473305 0.125351 0.15126204 -0.27265343 0.024448039
-0.2683425 -0.057307117 0.29153672 -0.11542277 0.22221039 0.26439837 0.013240758 0.17982987
0.09689625 0.117944025 -0.15779045 0.05061035 -0.15885982 -0.08588861 0.08827193 -0.09012938
0.22147997 0.18365484 0.2745095 0.16863266 0.18315195 -0.12952007 0.3042902 -0.24096054
-0.14770347 -0.16283804 0.07157143 0.20098405 -0.3145228 0.28264973 0.035318255 0.30047697
0.16472918 -0.2389463 0.09266766 0.15035453 -0.27004823 0.17291822 -0.30239278 0.09394253
-0.15061475 -0.24937288 -0.10380794 -0.20422204 0.05363937 0.11753596 0.0930711 0.2163063

decoder_net.9.bias f4 [16]
00000000: a370 c7bb 8194 b739 6aeb a83b d748 3a3c
00000010: 68eb 16bb 0eb4 983a dee6 7bbb 9f28 7cbb
00000020: 01be ffbb 7cfb db3b 42cd 2cbc ff6b 273c
00000030: 8f04 9eba 5351 b6ba 0100 2ebb 366d 003a
-0.0060864254 0.00035015124 0.0051550167 0.011369905 -0.0023028497 0.001165034 -0.0038437168 -0.003847636
-0.0078046327 0.006713329 -0.010546984 0.010218619 -0.0012055802 -0.0013909735 -0.0026550295 0.0004899086

decoder_net.10.weight f4 [16]
00000000: a82b 7e3f f3d2 7e3f b6ef 7f3f 0373 813f
00000010: 64b3 803f 74f4 7f3f bf69 7c3f cb5f 7f3f
00000020: ef33 7e3f a96a 803f c1cb 7d3f 6d3f 813f
00000030: 309e 7f3f 3e22 803f 4dc4 7f3f d6e6 7f3f
0.99285364 0.9954063 0.99975145 1.0113224 1.0054746 0.9998238 0.98598856 0.99755543
0.99297994 1.003255 0.9913903 1.0097481 0.9985075 1.001045 0.99908906 0.999616

decoder_net.10.bias f4 [16]
00000000: 38b1 803b 8e3e 513a 29ce 213c 07e2 1c3c
00000010: 1f05 853c dd96 8b3a c5ee 43bc a7b8 67bb
00000020: f48d e9bb e060 c13b 7c7b 11bc fc86 1e3c
00000030: 43dc 6fba c40d 9bba 0000 0000 80b9 e039
0.003927376 0.00079820387 0.009875813 0.0095753735 0.016237793 0.0010649819 -0.011958783 -0.0035357864
-0.007127518 0.005901441 -0.008879539 0.0096757375 -0.0009149948 -0.0011829664 0.0 0.00042862818

decoder_net.12.weight f4 [16, 16]
00000000: a354 c63e 28ce 8fbe 061c 183b 6826 21bd
00000010: a7be 19be 3aea 42be 8874 fabd 65f1 893d
00000020: b9bf 0dbe 77c8 f2bc 4495 18be ab80 f73d
00000030: abd2 65be cfdb 4fbe 20e1 2ebe e116 3f3c
00000040: 89bd bbbe 3142 9ebe 5d77 6fbe 9873 a93d
00000050: 169d 5dbd da50 76be a336 a13d 78d4 acbe
00000060: d25f 82be b549 be3e fb71 9a3e 1412 3abd
00000070: 42b6 c9be 25e3 d0be 12fe 97bd a9c8 cc3e
00000080: af14 4c3e 78d3 873e 9bc9 bdbc f568 d2bc
00000090: 78c9 393e 7572 d03d 4798 083e bf53 b63e
000000a0: 7f3b 8e3b 4321 8abe 50ef a9be 4c8e 76bc
000000b0: 86f9 2cbe a62f b03e 40cb 32be 251a 123e
000000c0: b0fa 603e 2c8d b33e 27b1 293e 4e74 d3be
000000d0: fd3a 7a3e 3812 97bd 749e a43e 73a6 a2be
000000e0: f090 c23d 1712 c63e 395e 70be 44df 093e
000000f0: 704c b4bc e239 ecbd ffa3 0e3e 2716 8bbe
00000100: ff6a 8abe 2245 8c3e 9ade 9abe 96f3 85be
00000110: 5eda ec3d e7c4 d93e 5e54 52be 57aa 99bd
00000120: 4eb8 5f3e 8a81 443d c116 853e 8b79 463e
00000130: 5584 39be ffed fdbd 7722 a6be 895a 703e
00000140: 310a 163e 7585 2c3d 0a67 6cbe a062 2f3d
00000150: b42c bbbc 7632 bf3e 0781 15be 7019 313e
00000160: afe0 1abc 166e 9e3e 0840 08be f90b cfbc
00000170: 7f90 923e e75b 52be d855 8a3e 1f70 a4bc
00000180: bf69 2bbe 0cee 4a3e d7cc bc3c d565 c33e
00000190: a312 36be a999 94be ced3 e73c 8749 d83e
000001a0: 80c8 7dbe c825 c1bb 07fa 3e3e 55cc b9be
000001b0: 69fa 7bbe ee95 173e 501d 17be de02 073e
000001c0: 864d ca3e eafc 13be 4baf c93e 3ca0 ae3e
000001d0: 451b 9f3d 4c9b 103e f57d 563e 6a30 6ebe
000001e0: f43e c33e 7ccc 69bc 9e20 cebd 19e4 20bd
000001f0: b34f 973d 67bf d6bd 5dd0 dbbe ce9d 42be
00000200: 9042 323e 379a 64bc 109f de3d 5cc5 ccbe
00000210: 88f0 69bc 312e 52be 6977 5a3d ca75 813e
00000220: d548 abbe 2ab1 e43e 4cba 95be 1cd3 9cbe
00000230: 55dc 1abe 1a83 b1be fce2 d2be 33b0 27ba
00000240: cbaa 6e3e 418c 7f3e b726 c63d 78bc 883d
00000250: 28d3 d23e 4fe1 adbe 8086 a13e 0ff4 d4be
00000260: 0963 f8bd 59b7 41be 8314 973e b41a 5abe
00000270: 8007 7ebd 4de9 51be e4e1 583e 505b cfbc
00000280: 2c97 47bd 2073 1a3a ea13 80bd ea1a 0bbd
00000290: a49d 44be 243a aa3d c0ab cabe 071e 8cbe
000002a0: 4562 2f3e 2d89 ac3e 2122 98be e1d3 cc3e
000002b0: 2ee4 5abe a214 babe f378 d63e 1014 2abd
000002c0: 4f79 59be 6ac8 ccbe 40f4 3abe 3f4e 473d
000002d0: 38ca b8be 729e f1bd 7267 f8bc 1bfb 6cbe
000002e0: b594 babb 050c e6bd a582 013e 21bc ff3d
000002f0: 7570 313e 456c c83e 4597 b33e 283c b33e
00000300: 4262 d2bd a595 37bc fd3b d83e ca7c 83be
00000310: d811 0d3e 33ec 833e d25c fb3d 3945 8f3e
00000320: d6d2 d03e 19fc b2be 0f98 153d 5f02 153e
00000330: e466 833e 21f0 2b3e 1da3 88be 067f 41bd
00000340: aaa2 8c3e 52f7 d0bd 6e0d d33c e468 dabe
00000350: 9a29 8bbe d971 7e3e 67dd 35bd 06ac d13e
00000360: ba88 ba3d 06bc 03be 8f02 c43e 83f9 533e
00000370: 4d8e b13e b282 273b bd75 7cbd 5456 763d
00000380: d2b6 973e e543 f8bd 2d3c 8fbe ef8f 4f3e
00000390: ec7f 5a3d 2556 10be 5758 603e dc9e 8abc
000003a0: 458e 55be 7619 51be 25b9 c73e f553 213d
000003b0: 649b 663e cb99 a5be e2ea 16bb 8bde 40be
000003c0: b4a3 9f3e 5fc0 c03e 7ff3 54be 20c1 923e
000003d0: 0928 ea3d 5c3e be3e 1ee9 7bbe 793b 4a3c
000003e0: 07e1 a0be e5b5 793e 8299 b4be 1714 313e
000003f0: 133f d23e 5881 b5bd b34e 0b3e e096 c03e
0.38736448 -0.28086972 0.0023210063 -0.039343268 -0.15014134 -0.19034663 -0.12229258 0.067354955
-0.13842668 -0.029636605 -0.1490069 0.12085088 -0.22443645 -0.20298694 -0.17078066 0.01166317
-0.3666804 -0.30909875 -0.23385377 0.08274001 -0.054104887 -0.2405428 0.07871749 -0.3375585
-0.2546373 0.3716561 0.30165085 -0.045427397 -0.39396864 -0.40798298 -0.07421507 0.39996842
0.19929765 0.26528525 -0.023167422 -0.025684813 0.1814326 0.10178081 0.13339339 0.35610768
0.0043405886 -0.26978502 -0.33190393 -0.015048575 -0.1689206 0.34411353 -0.17460346 0.14267786
0.2197063 0.35068643 0.16571485 -0.4129967 0.24436565 -0.07376522 0.3215214 -0.31767616
0.09500301 0.38685676 -0.23473443 0.13464075 -0.022009104 -0.11534478 0.13929747 -0.27165338
-0.27034757 0.27396494 -0.30247957 -0.26162404 0.11565088 0.42533037 -0.20539996 -0.07503193
0.2184765 0.0479751 0.25993922 0.19382302 -0.18116887 -0.1239891 -0.3244817 0.23472036
0.14652325 0.042119462 -0.23086181 0.042818666 -0.022848465 0.37343186 -0.14600001 0.1729486
-0.009452983 0.30943364 -0.13305676 -0.025274264 0.28625867 -0.2054287 0.2701862 -0.020072995
-0.16739558 0.1981737 0.023046894 0.3816363 -0.17780547 -0.29023483 0.028299239 0.42243597
-0.24783516 -0.0058943965 0.18650065 -0.36288705 -0.24607243 0.14803287 -0.14757276 0.13184687
0.3951227 -0.14451948 0.3939155 0.34106624 0.07768873 0.14121741 0.20946486 -0.23260656
0.38133967 -0.014269944 -0.10064815 -0.03928003 0.07388248 -0.10485726 -0.42932406 -0.1900551
0.17408204 -0.013952783 0.108701825 -0.39994323 -0.0142785385 -0.20525433 0.053336535 0.25285178
-0.33454004 0.44666415 -0.29243696 -0.30629814 -0.15123112 -0.34670335 -0.411888 -0.00063968
0.2330734 0.24955846 0.09675353 0.066765726 0.41176724 -0.3396096 0.31547928 -0.41592452
-0.121282645 -0.18917598 0.29507837 -0.21299249 -0.06201887 -0.20499153 0.2117992 -0.025312096
-0.048728153 0.0005891789 -0.06253798 -0.033961214 -0.1920076 0.08311871 -0.3958416 -0.2736666
0.1712733 0.33698407 -0.29713538 0.400054 -0.21376106 -0.36343867 0.41889152 -0.04152304
-0.21237682 -0.39996654 -0.18257236 0.048658606 -0.3609178 -0.11797799 -0.030322764 -0.23142664
-0.005693997 -0.11232761 0.12647493 0.124870546 0.17328055 0.39145103 0.35076347 0.35006833
-0.102726474 -0.011205112 0.42233267 -0.25681144 0.13776338 0.25766143 0.122735634 0.279825
0.40785855 -0.3495796 0.036521968 0.14551686 0.25664437 0.1679082 -0.26686946 -0.04724028
0.27467853 -0.102034226 0.02576324 -0.4265815 -0.27180177 0.24848117 -0.0444006 0.40951556
0.0910811 -0.12864694 0.38283202 0.2070065 0.3467888 0.0025560078 -0.06163572 0.060140923
0.29631668 -0.12122325 -0.27975598 0.2026975 0.053344652 -0.14095362 0.21908699 -0.016921453
-0.20855053 -0.20419869 0.39008442 0.03938671 0.22520214 -0.32343897 -0.0023028185 -0.18834893
0.31179583 0.37646767 -0.20796011 0.28662968 0.11433417 0.3715695 -0.24600646 0.012343281
-0.31421682 0.24385794 -0.35273367 0.1729282 0.41063747 -0.08862561 0.1360424 0.37615108

decoder_net.12.bias f4 [16]
00000000: 9e6d 6d3c 4296 243c 168e 25bc 1352 b6bb
00000010: 88e7 3e3a 99d5 6ebc 8dd4 a3ba 2f90 433c
00000020: c75a 713c 62af 293c 7c76 813c 741e 4dbc
00000030: 3b37 263c 74cc 32bc e696 7d3c b762 1f3c
0.014491467 0.01004559 -0.010104677 -0.005563983 0.00072824256 -0.014577293 -0.0012499258 0.0119362315
0.014731116 0.010356756 0.015803568 -0.012519468 0.010145004 -0.010913003 0.0154778715 0.009728125

decoder_net.13.weight f4 [16]
00000000: 4dc4 7f3f 61ab 813f dd7e 7f3f 2475 7d3f
00000010: f6a4 813f 6e98 7c3f 21a4 7f3f d653 803f
00000020: 5ca2 7f3f ed35 7f3f 4523 833f 1b73 7d3f
00000030: 7178 803f aa9d 7d3f 5461 7f3f 51cf 813f
0.99908906 1.0130426 0.99802953 0.9900687 1.0128467 0.9867009 0.99859816 1.0025585
0.99857116 0.9969166 1.0245138 0.9900376 1.0036756 0.990687 0.99757886 1.0141393

decoder_net.13.bias f4 [16]
00000000: 0000 0000 6ee7 1b3c db36 1bbc 09b2 04bc
00000010: 21c9 503c 40f5 65bc ad5f e2bb 76ba 473c
00000020: 7ff9 09ba e1f1 1bbb 2164 6d3c f0d4 4abc
00000030: ff28 1a3c 6a25 31bc a847 c3ba bb2b 503c
0.0 0.009515626 -0.009473528 -0.0080990875 0.012743265 -0.014035523 -0.006908378 0.012190452
-0.0005263313 -0.0023795294 0.014489205 -0.01237987 0.009409188 -0.010812143 -0.0014898675 0.012705739

decoder_net.15.weight f4 [1, 16]
00000000: a85c 0540 5524 68bf a7e2 1540 d84d 2d40
00000010: 8105 e9be 4870 7e3f c48c f43e 1c11 1ec0
00000020: e81d 3cc0 3915 0d40 2d8d 25c0 054b 003e
00000030: cf79 d7bf f41e 4e3f b086 4e3e ed5a 33c0
2.0837803 -0.9068044 2.3419588 2.7078762 -0.45512012 0.9939008 0.47763646 -2.4697943
-2.9393253 2.2044203 -2.5867417 0.12528618 -1.6834048 0.8051598 0.20168567 -2.8024247
