Value_Net.pt (torch, 577364 bytes, 10 tensors)

decoder_net.0.weight f4 [512, 13]
0	0x3ee8f7a4	0.45501435
1	0xbf09c258	-0.5381217
2	0xbde3b200	-0.11117935
3	0x3ed19baa	0.40939075
4	0xbd998351	-0.0749575
5	0x3dc486a6	0.09595995
6	0x3b480155	0.0030518372
7	0x3edcc040	0.43115425
8	0x3e7637ac	0.24044675
9	0x3cd2e4ac	0.025743805
10	0x3ee3e0d0	0.44507456
11	0xbe77e0c4	-0.24206835
12	0xbfcc15ce	-1.5944154
13	0xbea96386	-0.33083743
14	0x3e6a72f3	0.22895412
15	0xbe0b7ee2	-0.1362262
16	0x3f31d6dc	0.69468474
17	0xbed54754	-0.41655982
18	0x3e51c85a	0.20486584
19	0x3ede09d8	0.43366885
20	0x3f28d388	0.6594777
21	0xbf5a7f3a	-0.8535038
22	0xbfc28e6c	-1.5199714
23	0xbf428c45	-0.75995284
24	0xbedec00e	-0.435059
25	0xbea58e04	-0.32334912
26	0x3e3249c1	0.17410947
27	0x3e6b1aee	0.22959492
28	0x3eca4a76	0.39509934
29	0xbf22c4a0	-0.63581276
30	0x3e276a4f	0.16349147
31	0xbf537ec4	-0.82615304
32	0xbe3afe69	-0.18261112
33	0xbe644d7a	-0.2229518
34	0x3c81ec7e	0.015859839
35	0xbcfe1f1f	-0.0310207
36	0x3e27d4c8	0.16389763
37	0xbf0ba714	-0.54551816
38	0x3e3dfcc6	0.18553457
39	0xbe91486e	-0.28375572
40	0x3e757e32	0.23973921
41	0xbf1c52eb	-0.6106402
42	0x3c28b70d	0.010297549
43	0xbf139c2a	-0.5766016
44	0x3f86515a	1.0493577
45	0xbe3d88ae	-0.1850917
46	0x3fa35f38	1.2763433
47	0x3e52fad8	0.20603502
48	0x3e26a86c	0.16275185
49	0xbea26c94	-0.31723464
50	0xbfb69cca	-1.4266598
51	0xbf4509f2	-0.769683
52	0x3eba7d1f	0.36423585
53	0x3f89fafc	1.0779719
54	0xbf4789f4	-0.77944875
55	0xbe8cde24	-0.2751323
56	0x3f50e8fd	0.8160551
57	0xbd1ce042	-0.038299806
58	0xbed11642	-0.40837294
59	0xbe9dd004	-0.30822766
60	0xbcb2e418	-0.02183728
61	0x3d8a1780	0.067427635
62	0xbe84c754	-0.25933325
63	0xbf4c02a8	-0.79691553
64	0xbf3e462c	-0.74325824
65	0xbf8a08a8	-1.0783892
66	0x3ee9e39c	0.45681465
67	0x3e26d0b2	0.16290548
68	0xbefa0fba	-0.48840123
69	0xbe94d60b	-0.29069552
70	0x3f6ab418	0.9168105
71	0x3f569cbe	0.8383292
72	0x3e8e8d12	0.27842003
73	0x3eb0453d	0.34427825
74	0x3e01d50a	0.12678924
75	0xbf4cd924	-0.8001883
76	0xbf6349ca	-0.8878447
77	0xbeda5716	-0.42644566
78	0xbec79f62	-0.38988787
79	0x3f1b92a6	0.6077064
80	0x3f2e9168	0.6819062
81	0xbf0eee8e	-0.55832756
82	0x3e5788de	0.21048304
83	0x3f7fc644	0.99911904
84	0x3e5d7a64	0.2162872
85	0x3eb1fd8c	0.34763753
86	0x3f2a5704	0.66539025
87	0x3e3a9726	0.18221721
88	0xbbf8db40	-0.007594496
89	0x3eca5cdc	0.3952397
90	0x3e87282d	0.2639784
91	0xbf2c6a1b	-0.67349404
92	0xbec42b24	-0.38314164
93	0xbcba7842	-0.022762422
94	0x3e5775e0	0.2104106
95	0x3fd5a952	1.6692297
96	0x3bbec086	0.0058212904
97	0x3e26ed4a	0.16301456
98	0xbee1f463	-0.44131765
99	0xbeb03346	-0.3441412
100	0xbf5dcb32	-0.86638176
101	0x3e09cfd0	0.1345818
102	0xbf559f1c	-0.83445907
103	0x3a815a9a	0.000986892
104	0xbe82ef4c	-0.25573194
105	0xbfa52a2a	-1.2903492
106	0x3f03ece1	0.51533324
107	0xbf4fd7f1	-0.81188875
108	0xbd467399	-0.048450086
109	0x3d81d1ea	0.06338866
110	0x3e862c31	0.2620559
111	0x3ec61378	0.38686728
112	0x3ef2c55a	0.47416192
113	0x3e9eee1e	0.31041044
114	0x3e9263ce	0.2859177
115	0x3f1462a4	0.57963014
116	0x3ef76e02	0.48326117
117	0x3f0bda80	0.5463028
118	0x3ee4c6ce	0.44682926
119	0x3f869500	1.0514221
120	0x3ed4d372	0.4156757
121	0x3f4f6d6c	0.8102634
122	0xbe006d9c	-0.12541813
123	0x3e726e5c	0.23674911
124	0xbe7c2074	-0.24621755
125	0xbe8a7198	-0.2703979
126	0xbecd50ae	-0.40100616
127	0x3fd266ac	1.6437583
128	0xbeb04ad2	-0.34432083
129	0x3d9cd46c	0.07657704
130	0x3f6dcef0	0.92893887
131	0xbd96ae5c	-0.07357475
132	0x3f79ab50	0.9752703
133	0xbf819f70	-1.0126781
134	0x3f1a830a	0.603562
135	0xbca7e9fa	-0.02049731
136	0xbead4236	-0.33839577
137	0x3e756a2e	0.23966286
138	0xbf49b822	-0.7879659
139	0xbe332ff4	-0.17498761
140	0xbdb6590e	-0.089037046
141	0x3d3d649c	0.046238527
142	0xbe2261b4	-0.15857583
143	0x3efc06c2	0.49223906
144	0x3e90aaa8	0.282552
145	0x3e336d7c	0.17522234
146	0xbf0d863a	-0.5528294
147	0x3b39b998	0.0028339382
148	0xbecd9ecc	-0.40160215
149	0x3ec8c38e	0.39211696
150	0xbf285f8c	-0.6577079
151	0xbe038086	-0.12841997
152	0xbd3d00a1	-0.046143178
153	0x3f8b3192	1.0874503
154	0x3e42ffea	0.19042936
155	0x3ed1d638	0.40983748
156	0xbf0bcb24	-0.54606843
157	0xbf2232d4	-0.6335881
158	0xbf6a6230	-0.9155607
159	0x3e854db4	0.26035845
160	0x3f424e06	0.75900304
161	0x3eacd130	0.33753347
162	0xbd8737c0	-0.0660243
163	0x3f3a623a	0.7280613
164	0x3d05abbe	0.03263449
165	0x3ea641a6	0.3247196
166	0xbb6d30e2	-0.0036192467
167	0xbe9b254a	-0.30301887
168	0xbf18f6c0	-0.5975151
169	0xbdf92224	-0.12164715
170	0x3f280e24	0.65646577
171	0x3f0f6d0e	0.5602578
172	0xbf5b3f12	-0.8564311
173	0xbef7b00d	-0.48376504
174	0xbe2a615e	-0.16638705
175	0x3eaa8e7e	0.33311838
176	0xbed75c92	-0.42062813
177	0xbefa0910	-0.4883504
178	0x3f9f6c7a	1.245498
179	0x3e731018	0.23736608
180	0xbe93ffec	-0.2890619
181	0x3ede01c5	0.43360725
182	0xbf1dae94	-0.6159451
183	0x3ea51796	0.32244557
184	0xbe999b4c	-0.30001295
185	0xbf448a62	-0.76773655
186	0x3deaceee	0.1146525
187	0x3f09c0cc	0.5380981
188	0xbec93a28	-0.39302182
189	0x3ea01a33	0.31269988
190	0x3f15a06e	0.5844792
191	0xbdac1410	-0.08402264
192	0x3f020a68	0.5079713
193	0xbf25ca46	-0.6476177
194	0xbe78e2ee	-0.24305317
195	0xbe76489c	-0.24051136
196	0xbec4c4d6	-0.38431424
197	0x3ec1c587	0.37846014
198	0x3f1e4c40	0.618351
199	0x3f7dd11a	0.9914719
200	0xbde8230e	-0.11334811
201	0xbc73ac9e	-0.014872698
202	0xbf05dcf0	-0.5229025
203	0xbe2da2e2	-0.16956666
204	0x3da80294	0.08203617
205	0xbee27c88	-0.44235635
206	0x3f271afa	0.6527554
207	0x3ef3a611	0.47587636
208	0xbf991f4a	-1.1962674
209	0x3dcae62a	0.099071816
210	0xbdf5073c	-0.119642705
211	0xbdd3d602	-0.10343553
212	0xbe07a3d8	-0.13246095
213	0x3f1c8066	0.6113342
214	0xbf084828	-0.532351
215	0x3d1a2dee	0.03764146
216	0xbf592f36	-0.84837663
217	0x3f4f4bd0	0.80975056
218	0xbe1ac0b8	-0.15112579
219	0xbeaf5f0e	-0.34252208
220	0xbe21cd38	-0.15800941
221	0xbdc771a4	-0.09738472
222	0x3f2001fe	0.6250304
223	0x3ecdc44c	0.40188825
224	0xbeac1b7a	-0.33614713
225	0x3e1faa92	0.15592411
226	0x3e60b932	0.21945646
227	0xbd270738	-0.04077837
228	0xbeb8d8fb	-0.36103043
229	0xbd9853a6	-0.0743783
230	0xbe290eaf	-0.16509508
231	0x3e244880	0.16043282
232	0x3d83ac12	0.06429304
233	0xbc67d15f	-0.014149039
234	0x3e432450	0.19056821
235	0x3d39b1ad	0.04533546
236	0xbd1f1f35	-0.03884812
237	0x3f84cc16	1.0374782
238	0xbf4e2f94	-0.8054135
239	0xbe704602	-0.23464206
240	0x3e68514e	0.22687265
241	0xbe887e36	-0.2665879
242	0x3e1b59d4	0.15170985
243	0x3f2ab516	0.66682565
244	0x3e6a2f3e	0.22869584
245	0xbf01cd2c	-0.5070369
246	0x3e1c799e	0.15280768
247	0xbf130166	-0.5742401
248	0xbe29cb08	-0.16581357
249	0xbf372de6	-0.7155441
250	0x3f59bd52	0.85054505
251	0xbf2fecbd	-0.6872061
252	0x3dd4fab0	0.10399377
253	0x3f3a9886	0.7288898
254	0x3d80b51e	0.06284545
255	0xbf21435c	-0.6299341

decoder_net.0.bias f4 [512]
0	0x3efa099e	0.48835462
1	0x3ef17b4e	0.47164387
2	0x3ef07f3b	0.4697207
3	0x3ef702e4	0.48244393
4	0x3f0093dc	0.50225616
5	0x3efbf560	0.49210644
6	0x3efefa4c	0.49800336
7	0x3f01d19a	0.5071045
8	0x3ee10a56	0.43953198
9	0x3ef5996e	0.4796862
10	0x3ef04c80	0.46933365
11	0x3ef5fd9e	0.48045057
12	0x3ee45883	0.4459878
13	0x3efe6cf8	0.49692512
14	0x3ef83dd4	0.4848467
15	0x3eee97de	0.4660024
16	0x3ef58a84	0.47957242
17	0x3ef81282	0.4845162
18	0x3eec4bbe	0.46151537
19	0x3ef9c5ba	0.48783666
20	0x3f02d27c	0.51102424
21	0x3f026620	0.5093708
22	0x3ef32578	0.47489524
23	0x3ef70f46	0.4825384
24	0x3f01c69a	0.50693667
25	0x3efba992	0.4915281
26	0x3f0073d8	0.50176764
27	0x3ed61cf8	0.41818976
28	0x3efe80c6	0.4970762
29	0x3f0054f0	0.50129604
30	0x3f0c854e	0.54890907
31	0x3f01c443	0.50690097
32	0x3f01cdba	0.5070454
33	0x3f04080a	0.51574767
34	0x3f009b6a	0.50237143
35	0x3eff0f88	0.49816537
36	0x3ef6a036	0.48169106
37	0x3ef5eab0	0.48030615
38	0x3f003c30	0.5009184
39	0x3f01c642	0.5069314
40	0x3ed1b682	0.40959555
41	0x3ef9add0	0.4876542
42	0x3ef4b4f0	0.47794294
43	0x3eef2844	0.46710408
44	0x3ef5d790	0.48016024
45	0x3eeca594	0.46220076
46	0x3eff0372	0.49807316
47	0x3f1371aa	0.5759531
48	0x3f06621b	0.5249345
49	0x3f02ad48	0.51045656
50	0x3f02c0d8	0.51075506
51	0x3efc508c	0.49280202
52	0x3ef76b1e	0.4832391
53	0x3ef4131c	0.4767083
54	0x3f0366de	0.5132884
55	0x3f0434aa	0.5164286
56	0x3f02d246	0.511021
57	0x3f06848c	0.52546
58	0x3f021148	0.5080762
59	0x3f0875e8	0.5330491
60	0x3edca144	0.43091786
61	0x3ef6cb21	0.4820185
62	0x3ef59182	0.47962576
63	0x3f07d370	0.53057003
64	0x3ef5a5c8	0.47978044
65	0x3ef4021b	0.47657856
66	0x3efde438	0.4958818
67	0x3efce6d6	0.49394864
68	0x3ef7e66d	0.48417988
69	0x3efe79ca	0.49702293
70	0x3efaef1e	0.49010557
71	0x3ef062a2	0.4695025
72	0x3ef0e77c	0.4705161
73	0x3ee61860	0.44940472
74	0x3f0104f2	0.5039817
75	0x3f03998a	0.51406157
76	0x3eeb57a0	0.4596529
77	0x3ef41dbe	0.4767894
78	0x3ee2ac16	0.44271916
79	0x3ef24127	0.47315332
80	0x3f004556	0.501058
81	0x3ef2157e	0.47282022
82	0x3ef8f748	0.4862616
83	0x3f00e89a	0.5035492
84	0x3f01fa32	0.5077239
85	0x3eefed9a	0.46860963
86	0x3f00acfc	0.50263953
87	0x3eebf878	0.46088004
88	0x3ef72fc8	0.48278642
89	0x3ef09292	0.46986824
90	0x3f06f7f4	0.52722096
91	0x3f029074	0.5100167
92	0x3edd7382	0.43252188
93	0x3f0004c8	0.50007296
94	0x3eeb6967	0.45978853
95	0x3ef5eb72	0.48031193
96	0x3efb6898	0.49103236
97	0x3ef8eef9	0.48619822
98	0x3f02e6d6	0.5113348
99	0x3ef5c982	0.480053
100	0x3eeedcb4	0.46652758
101	0x3ef1ca3c	0.47224605
102	0x3f014825	0.5050071
103	0x3f02989c	0.51014113
104	0x3ef773b4	0.48330462
105	0x3efafa30	0.49019003
106	0x3efcd1cc	0.49378812
107	0x3f03b14a	0.51442397
108	0x3ef08c98	0.46982265
109	0x3f03129f	0.5120029
110	0x3ef56b56	0.47933453
111	0x3efc3975	0.49262586
112	0x3eda8ee4	0.42687142
113	0x3ef3663c	0.47538936
114	0x3f020954	0.50795484
115	0x3eeee4a4	0.46658814
116	0x3ef8ab16	0.48568028
117	0x3f073f24	0.5283072
118	0x3f0290f3	0.51002425
119	0x3eee6258	0.46559405
120	0x3ef602de	0.48049062
121	0x3efeee3f	0.49791142
122	0x3ef137fa	0.4711302
123	0x3ef70583	0.48246393
124	0x3edb5cd6	0.42844266
125	0x3efb846c	0.49124467
126	0x3ef74aae	0.48299164
127	0x3f048476	0.5176462
128	0x3f015ec6	0.5053524
129	0x3efef113	0.497933
130	0x3ef79f3d	0.48363677
131	0x3ef09ee2	0.46996218
132	0x3eea7882	0.45795065
133	0x3eef380c	0.46722448
134	0x3ef7bd78	0.4838674
135	0x3eefef07	0.4686205
136	0x3f02648e	0.50934684
137	0x3ef939b0	0.48676825
138	0x3efaea3a	0.49006826
139	0x3eef6f81	0.46764758
140	0x3ef8f24a	0.48622352
141	0x3ef4afba	0.4779032
142	0x3f018328	0.50590754
143	0x3ede0567	0.43363497
144	0x3ef364ce	0.47537845
145	0x3f00f04f	0.5036668
146	0x3eeb2f2a	0.4593442
147	0x3f041cd4	0.5160649
148	0x3ef2a820	0.47393894
149	0x3efab5da	0.48966867
150	0x3ee88ab7	0.4541833
151	0x3f0493fe	0.5178832
152	0x3f00fb0e	0.5038308
153	0x3efe9322	0.49721628
154	0x3ef04d3e	0.4693393
155	0x3efc5e24	0.49290574
156	0x3f0141a8	0.5049081
157	0x3eeb2bac	0.45931756
158	0x3ef85b0c	0.48506963
159	0x3f091a1a	0.5355545
160	0x3f0088b4	0.5020859
161	0x3efce7f7	0.49395725
162	0x3ef2a005	0.4738771
163	0x3efaf472	0.49014622
164	0x3efdda12	0.49580437
165	0x3ef34119	0.47510603
166	0x3f01cb2c	0.5070064
167	0x3f00bc70	0.5028753
168	0x3f005c04	0.50140405
169	0x3ef8287c	0.48468387
170	0x3ede7585	0.43449035
171	0x3ef66636	0.48124856
172	0x3efb5a72	0.49092442
173	0x3effe434	0.49978793
174	0x3f0a0ffc	0.5393064
175	0x3ef326a6	0.47490424
176	0x3edec380	0.4350853
177	0x3ee23a84	0.4418527
178	0x3f00288e	0.5006188
179	0x3edde3e8	0.4333794
180	0x3f0163f5	0.5054315
181	0x3efa979a	0.48943788
182	0x3ef8e30c	0.48610723
183	0x3ef88a2a	0.4854291
184	0x3f000fa6	0.5002388
185	0x3f013e06	0.50485265
186	0x3ecfdc38	0.405977
187	0x3efba6a2	0.49150568
188	0x3efb9a30	0.49141073
189	0x3ef337da	0.4750355
190	0x3efcc56e	0.49369377
191	0x3efce370	0.4939227
192	0x3ef106e0	0.47075558
193	0x3ee9a986	0.4563715
194	0x3f01b6a0	0.5066929
195	0x3f0543ce	0.52056587
196	0x3ee8a178	0.4543569
197	0x3ef84d9c	0.4849671
198	0x3ef20180	0.4726677
199	0x3ed91c20	0.4240427
200	0x3ef849e2	0.48493868
201	0x3efbe815	0.49200502
202	0x3f002a3e	0.50064456
203	0x3f00bfbe	0.50292575
204	0x3efea0e0	0.49732113
205	0x3f016802	0.5054933
206	0x3f016bbc	0.50555015
207	0x3ee961dc	0.45582473
208	0x3f036792	0.5132991
209	0x3f0a2262	0.53958714
210	0x3ef48cca	0.47763664
211	0x3ef1d3a9	0.47231796
212	0x3f05f99a	0.52333987
213	0x3ef64c2d	0.48104993
214	0x3f15a135	0.5844911
215	0x3efd371e	0.49456114
216	0x3f02be18	0.5107131
217	0x3f00b56a	0.50276816
218	0x3eec488c	0.461491
219	0x3ef59abc	0.47969615
220	0x3f00b2a6	0.50272596
221	0x3ef567a4	0.47930634
222	0x3ef82b20	0.48470402
223	0x3f045f9d	0.51708394
224	0x3f002e53	0.50070685
225	0x3efce7a6	0.49395484
226	0x3f00728a	0.5017477
227	0x3eeb64a6	0.45975226
228	0x3ef6c09e	0.4819383
229	0x3f032ad8	0.5123725
230	0x3ef12740	0.47100258
231	0x3eee506a	0.46545726
232	0x3eea1540	0.45719337
233	0x3f00656e	0.5015477
234	0x3eed0718	0.46294475
235	0x3ee6dc8e	0.45090145
236	0x3efc22fe	0.49245447
237	0x3eebe71a	0.46074754
238	0x3f0290b8	0.51002073
239	0x3efacc4c	0.4898399
240	0x3f007659	0.50180584
241	0x3ef41bac	0.47677362
242	0x3efac2d8	0.4897678
243	0x3efe120e	0.4962315
244	0x3ef875d0	0.48527384
245	0x3ef8d574	0.48600352
246	0x3eebbb38	0.46041274
247	0x3f0141cc	0.50491023
248	0x3ef75a3e	0.48311037
249	0x3eefe760	0.46856213
250	0x3efb0e6e	0.49034446
251	0x3ef84c0c	0.4849552
252	0x3efbe38e	0.49197048
253	0x3ee3aa4a	0.44465858
254	0x3f073952	0.5282184
255	0x3efec1f4	0.4975735

decoder_net.2.weight f4 [512]
0	0x3f6c95b0	0.92415905
1	0x3f766b8e	0.96257865
2	0x3f754626	0.95810163
3	0x3f71bbb4	0.9442704
4	0x3f7d95a3	0.9905645
5	0x3f777e7e	0.96677387
6	0x3f836b0c	1.0267043
7	0x3f7d459d	0.98934346
8	0x3f7abd84	0.9794543
9	0x3f6f1b68	0.93401194
10	0x3f74519d	0.9543703
11	0x3f768804	0.96301293
12	0x3f707256	0.9392446
13	0x3f7811ca	0.96902144
14	0x3f70822a	0.93948615
15	0x3f7539f2	0.9579154
16	0x3f828150	1.0195713
17	0x3f7957d4	0.9739964
18	0x3f77663e	0.96640384
19	0x3f81d618	1.0143461
20	0x3f669922	0.9007741
21	0x3f780130	0.9687681
22	0x3f746e3d	0.9548071
23	0x3f7abc09	0.9794317
24	0x3f7d59cc	0.98965144
25	0x3f811f5c	1.0087695
26	0x3f7af5cc	0.98031306
27	0x3f7a98ec	0.9788959
28	0x3f777998	0.9666991
29	0x3f7d4e0c	0.98947215
30	0x3f8567ea	1.0422337
31	0x3f7ecd2a	0.99531806
32	0x3f7e5c66	0.9935974
33	0x3f820582	1.0157931
34	0x3f6f814c	0.93556666
35	0x3f75de80	0.96042633
36	0x3f7a0764	0.9766753
37	0x3f776c38	0.96649504
38	0x3f79c4a6	0.97565687
39	0x3f7db859	0.9910942
40	0x3f79452d	0.9737118
41	0x3f77511a	0.96608126
42	0x3f77cdc6	0.9679836
43	0x3f6f504a	0.93481886
44	0x3f76701c	0.96264815
45	0x3f76b90d	0.96376115
46	0x3f7fa870	0.9986639
47	0x3f7fe1ef	0.9995412
48	0x3f7f0ae2	0.9962598
49	0x3f6d7578	0.9275737
50	0x3f71589a	0.9427582
51	0x3f795e55	0.97409564
52	0x3f7d2920	0.98890877
53	0x3f7bd9b6	0.98379076
54	0x3f802e1a	1.0014069
55	0x3f7c688e	0.9859704
56	0x3f6dbf96	0.9287046
57	0x3f73ed3c	0.95283866
58	0x3f7989cc	0.97475886
59	0x3f8254ac	1.018209
60	0x3f6f9384	0.93584466
61	0x3f7d0be5	0.98846275
62	0x3f7aa2e8	0.97904825
63	0x3f761f48	0.9614148
64	0x3f75a126	0.9594902
65	0x3f7b762c	0.9822719
66	0x3f76fa54	0.9647572
67	0x3f718b2e	0.94352996
68	0x3f7ffa25	0.99991065
69	0x3f78617e	0.9702376
70	0x3f804f82	1.0024264
71	0x3f785ea8	0.97019434
72	0x3f7d1996	0.98867166
73	0x3f7e71d2	0.99392426
74	0x3f72fffa	0.9492184
75	0x3f815f4a	1.0107205
76	0x3f764da0	0.96212196
77	0x3f70be74	0.9404061
78	0x3f7f032c	0.99614215
79	0x3f70a34a	0.9399916
80	0x3f7c1d9a	0.9848267
81	0x3f7b3550	0.98128223
82	0x3f796b83	0.97429675
83	0x3f7ad7b6	0.979854
84	0x3f7722e9	0.96537644
85	0x3f8189dc	1.0120196
86	0x3f76abd6	0.9635595
87	0x3f7c3557	0.9851889
88	0x3f7c8fd0	0.9865694
89	0x3f778fc0	0.9670372
90	0x3f824674	1.017775
91	0x3f7e4866	0.9932922
92	0x3f79cd9f	0.9757938
93	0x3f813bc8	1.0096369
94	0x3f719904	0.9437411
95	0x3f787cb2	0.9706527
96	0x3f730484	0.94928765
97	0x3f79de88	0.9760518
98	0x3f7bd012	0.98364365
99	0x3f774366	0.96587217
100	0x3f7a3da9	0.97750336
101	0x3f8063b4	1.0030427
102	0x3f769796	0.9632505
103	0x3f7a2820	0.97717476
104	0x3f7c1242	0.9846536
105	0x3f78da74	0.97208333
106	0x3f7b7170	0.98219967
107	0x3f77a42f	0.967349
108	0x3f76fc96	0.96479166
109	0x3f7674ac	0.9627178
110	0x3f7e61a8	0.9936776
111	0x3f79aa84	0.9752581
112	0x3f80d132	1.0063841
113	0x3f7d59de	0.9896525
114	0x3f788094	0.97071195
115	0x3f820c00	1.0159912
116	0x3f7ec02e	0.9951199
117	0x3f836882	1.0266268
118	0x3f7eb21c	0.99490523
119	0x3f7934ea	0.97346365
120	0x3f7974e4	0.97443986
121	0x3f7be3b2	0.9839431
122	0x3f7cde68	0.98776865
123	0x3f74ed80	0.95674896
124	0x3f71992e	0.9437436
125	0x3f787169	0.9704805
126	0x3f7f0086	0.99610174
127	0x3f820376	1.0157306
128	0x3f76bc5c	0.96381164
129	0x3f7c4f7a	0.9855877
130	0x3f7eefe0	0.9958477
131	0x3f7748c4	0.96595407
132	0x3f7df9d7	0.9920935
133	0x3f793cfa	0.9735867
134	0x3f78accc	0.9713867
135	0x3f7ecf42	0.99535
136	0x3f749d88	0.95552874
137	0x3f7979cc	0.9745147
138	0x3f76e600	0.964447
139	0x3f72645a	0.94684374
140	0x3f7ac146	0.9795116
141	0x3f6f9016	0.9357923
142	0x3f72d14c	0.9485061
143	0x3f79d02a	0.9758326
144	0x3f7d1d8a	0.988732
145	0x3f702608	0.9380803
146	0x3f7dc062	0.9912168
147	0x3f7e5cce	0.9936036
148	0x3f7577ec	0.9588611
149	0x3f7f7c88	0.99799395
150	0x3f7a7cfe	0.9784697
151	0x3f7f1354	0.9963887
152	0x3f7c25c8	0.9849515
153	0x3f6ea6e4	0.93223405
154	0x3f7c5fa9	0.98583466
155	0x3f75141a	0.957338
156	0x3f794b0c	0.9738014
157	0x3f832444	1.0245442
158	0x3f738064	0.95117784
159	0x3f8329a6	1.0247085
160	0x3f752578	0.957603
161	0x3f7bb228	0.9831872
162	0x3f75ffc8	0.96093416
163	0x3f78dfec	0.9721668
164	0x3f77a3ea	0.9673449
165	0x3f7d8f08	0.99046373
166	0x3f78f9f9	0.9725643
167	0x3f7e96f0	0.9944906
168	0x3f7bf032	0.98413384
169	0x3f7f5359	0.99736553
170	0x3f6fae56	0.9362539
171	0x3f7f6d8f	0.9977655
172	0x3f72eff6	0.948974
173	0x3f72be6c	0.9482181
174	0x3f77726a	0.96658957
175	0x3f6b8715	0.92002994
176	0x3f78cab6	0.9718431
177	0x3f7ce9aa	0.98794043
178	0x3f74604c	0.9545944
179	0x3f80952c	1.0045524
180	0x3f7d338d	0.98906785
181	0x3f80832a	1.0040028
182	0x3f7edd96	0.99556863
183	0x3f7ac392	0.97954667
184	0x3f775a0e	0.9662179
185	0x3f80aa4e	1.0051973
186	0x3f7f1186	0.99636114
187	0x3f78b4d8	0.97150946
188	0x3f6d857d	0.9278181
189	0x3f776f8c	0.9665458
190	0x3f79137e	0.9729537
191	0x3f781e8c	0.9692161
192	0x3f78b29c	0.97147536
193	0x3f753714	0.9578717
194	0x3f80b9dc	1.005672
195	0x3f754f84	0.95824456
196	0x3f6d0002	0.92578137
197	0x3f7887a2	0.9708196
198	0x3f7f344a	0.9968916
199	0x3f776fc0	0.9665489
200	0x3f766363	0.962454
201	0x3f771b46	0.9652599
202	0x3f7f6404	0.99761987
203	0x3f6ed803	0.9329836
204	0x3f78d71c	0.9720323
205	0x3f6ed01c	0.932863
206	0x3f7f23d0	0.9966402
207	0x3f70cbd5	0.94061023
208	0x3f75ea1a	0.96060336
209	0x3f75e21c	0.9604814
210	0x3f7749ac	0.9659679
211	0x3f784d56	0.96993005
212	0x3f69d676	0.91342866
213	0x3f781e2e	0.9692105
214	0x3f800ead	1.0004479
215	0x3f830450	1.0235691
216	0x3f7ae0ae	0.97999084
217	0x3f7d06ae	0.9883832
218	0x3f6e293a	0.93031657
219	0x3f7f980e	0.9984139
220	0x3f76dbe4	0.96429276
221	0x3f7d0c42	0.9884683
222	0x3f82f9a2	1.0232432
223	0x3f761572	0.9612647
224	0x3f746430	0.95465374
225	0x3f78b0e2	0.971449
226	0x3f7d2c75	0.9889596
227	0x3f7a067a	0.9766613
228	0x3f72ad71	0.947959
229	0x3f810976	1.0081012
230	0x3f7589e8	0.95913553
231	0x3f8007a0	1.0002327
232	0x3f7ca3b4	0.9868729
233	0x3f719e74	0.94382405
234	0x3f744eca	0.9543272
235	0x3f785430	0.9700346
236	0x3f7d66d8	0.9898505
237	0x3f82dabe	1.0223005
238	0x3f72478e	0.94640434
239	0x3f6948d0	0.9112673
240	0x3f799464	0.9749205
241	0x3f772829	0.96545655
242	0x3f7f43b2	0.9971267
243	0x3f7b8a6a	0.9825808
244	0x3f7a9a92	0.97892106
245	0x3f6c3df6	0.92282045
246	0x3f7d83f7	0.9902949
247	0x3f7a1a75	0.9769662
248	0x3f788296	0.9707426
249	0x3f762e62	0.96164525
250	0x3f8145ec	1.0099463
251	0x3f79d1c2	0.9758569
252	0x3f773d66	0.9657806
253	0x3f7925fa	0.9732357
254	0x3f7c3f6e	0.98534286
255	0x3f829629	1.0202075

decoder_net.2.bias f4 [512]
0	0x3b67e874	0.0035386356
1	0xbc6c1e30	-0.014411494
2	0xbcaadd08	-0.020857349
3	0xbc35ebd8	-0.011103593
4	0x3c795184	0.015217189
5	0xbbcb9ed2	-0.006214001
6	0xbd46a7e8	-0.04849997
7	0x3cd6f3e4	0.026239343
8	0xbb86d2c5	-0.004114481
9	0x3cf1e611	0.02952865
10	0xbcb26d20	-0.02178055
11	0x3b1593ca	0.0022823685
12	0x3aba5f90	0.0014219154
13	0x3c5a78c7	0.01333446
14	0x3b2e8eee	0.0026635486
15	0x3c0c9056	0.008579334
16	0x3c0826e6	0.008310055
17	0xbc4981a2	-0.012298973
18	0xbca6a38a	-0.020341653
19	0xbc3ecfaa	-0.011646191
20	0x3cce62e4	0.02519364
21	0x3cadd72c	0.021220766
22	0xbc8acb26	-0.016942572
23	0xbbaa745f	-0.005201861
24	0x3c9f814a	0.01947083
25	0x3c23ec3a	0.010005051
26	0x3c193fb2	0.009353565
27	0xbb40d2e6	-0.002942258
28	0x3bd2ed16	0.0064369543
29	0x3c58e638	0.013238482
30	0x3d787ac2	0.060663946
31	0x3c91cf57	0.017799063
32	0x3ca91b5e	0.020642933
33	0x3cb4af9a	0.02205639
34	0x3c28b8e8	0.010297991
35	0x3bd24a20	0.006417528
36	0xbb8d971e	-0.004320993
37	0x3c2bd698	0.010488175
38	0xbc3f88da	-0.011690343
39	0x3c641a1c	0.013922241
40	0x3b74e2ae	0.0037366557
41	0x3c84aa16	0.016194385
42	0xbbb724d6	-0.005589108
43	0xbc94fb96	-0.018186372
44	0xbc309b58	-0.010779224
45	0x3c60124d	0.013676238
46	0xbc53045e	-0.012879459
47	0xbcda3cbc	-0.026640289
48	0x3c92e060	0.017929256
49	0x3cdcc7a8	0.026950672
50	0x3cbb7832	0.022884462
51	0x3b8ce25c	0.004299445
52	0xbbfc7ff8	-0.0077056848
53	0xbc08ad04	-0.008342031
54	0x3cd4bc24	0.025968619
55	0x3bffb6ac	0.0078037586
56	0x3a52ddaa	0.0008043895
57	0x3c865ae4	0.016400762
58	0x3cbace76	0.022803526
59	0x3d50b12e	0.05095022
60	0x3cdc5bbc	0.026899211
61	0xbc700abe	-0.014650999
62	0xbc041284	-0.008061055
63	0x3c031c62	0.008002372
64	0xbabb33b4	-0.0014282377
65	0xbbb5864a	-0.00553969
66	0x3c84229a	0.01612978
67	0xbbf824f6	-0.0075727655
68	0xbc963cc6	-0.018339526
69	0x3bffbf9c	0.007804824
70	0xbc78ef66	-0.015193796
71	0xbcb5cb7c	-0.022191755
72	0xbc352dd0	-0.011058286
73	0xbc8e162e	-0.01734456
74	0x3c70e178	0.014702193
75	0x3cc70786	0.02429558
76	0xbc3bdb76	-0.011465898
77	0xbb22bef4	-0.0024833055
78	0xbc9d00a0	-0.019165337
79	0xbb6fc398	-0.0036585089
80	0x3c4b0aee	0.012392743
81	0x3b8f8f08	0.0043810643
82	0xbbd09122	-0.0063649574
83	0x3bfab9e0	0.0076515526
84	0xbc1fe2ea	-0.00975869
85	0xbd1edeb0	-0.03878659
86	0x3c8173fe	0.01580238
87	0x3a271bdc	0.0006374696
88	0xbc3b2af2	-0.011423813
89	0x3b1b1728	0.0023664925
90	0x3cde5c81	0.027143719
91	0x3cb0d7b8	0.021587238
92	0xbc2f5485	-0.010701303
93	0x3c38cdbc	0.01127952
94	0x3c08bb08	0.008345373
95	0xbc084474	-0.008317102
96	0x3beb321c	0.0071776044
97	0x3c2bd646	0.0104880985
98	0x3c006a2e	0.007837815
99	0xbc19d862	-0.009389969
100	0xbc3ac69a	-0.011399889
101	0xbca1b0c0	-0.019737601
102	0x3c7d6f60	0.015468448
103	0x3c117347	0.008877582
104	0xb925ba28	-0.00015804975
105	0x3cdd0860	0.026981533
106	0x3bea67b0	0.007153474
107	0x3c20ebc8	0.00982184
108	0x3c80578c	0.015666746
109	0x3c4de80c	0.012567531
110	0xbcb93538	-0.022608384
111	0x3c20570a	0.009786377
112	0xbcce76a5	-0.025203058
113	0xbc884964	-0.016636558
114	0x3c243990	0.01002349
115	0xbc654dbc	-0.013995584
116	0xbbf917dd	-0.0076017217
117	0x3cf365ea	0.029711682
118	0x3c8cd1fe	0.017189976
119	0x3aac4e84	0.0013145958
120	0xbc7502b1	-0.014954255
121	0x3b0c5af0	0.0021416508
122	0xbc82ad3b	-0.015951743
123	0x394003a3	0.00018311902
124	0xbd224c04	-0.039623275
125	0x3b1ef3ae	0.002425413
126	0xbc8997a3	-0.016795939
127	0x3a9dfcc8	0.0012053484
128	0x3ca94a6a	0.020665366
129	0x3bd46960	0.0064822882
130	0xbc37e012	-0.011222856
131	0xbbf8403c	-0.0075760167
132	0xbbc93794	-0.0061406586
133	0xbbc8b9e0	-0.0061256737
134	0xbbcd3984	-0.00626296
135	0xbc479032	-0.012180375
136	0x3b3e1bd8	0.0029008295
137	0xbc208f30	-0.009799764
138	0xbc395938	-0.011312775
139	0xbbcdcc90	-0.0062804893
140	0xbc522fec	-0.012828808
141	0xbbefa658	-0.007313531
142	0x3ca3adb3	0.019980287
143	0xbd4b733c	-0.049670443
144	0xbc67ee98	-0.014156006
145	0x3a32dc03	0.00068229454
146	0xbcb54c7a	-0.022131193
147	0x3c01baee	0.007918103
148	0xbc8163da	-0.015794683
149	0xbad28a24	-0.0016062898
150	0xbc6dde96	-0.014518401
151	0xbbbf2b6f	-0.005834035
152	0x3cc26f62	0.023734752
153	0xba936147	-0.0011244201
154	0xbc0d232a	-0.008614341
155	0x3aa459e4	0.0012538997
156	0x3bd17314	0.006391892
157	0xbce3c21e	-0.027802523
158	0xbc8391e6	-0.01606078
159	0x3d31d726	0.043418072
160	0x3c3ceb42	0.011530699
161	0x3b912d8e	0.0044304794
162	0xbc82d8cc	-0.015972517
163	0x35d06c6a	1.552876e-06
164	0x3bae0e0a	0.005311732
165	0xbbc052d0	-0.005869247
166	0x3bf611b4	0.0075094346
167	0xbc584d89	-0.01320208
168	0x3c859cf4	0.016310193
169	0xbba66806	-0.0050783185
170	0xbcbf1e78	-0.023329958
171	0xbc26e334	-0.010186005
172	0x3be15596	0.0068766577
173	0x3cb544a4	0.022127457
174	0x3ca3045a	0.019899536
175	0xbc847449	-0.01616873
176	0xbcacf53d	-0.021113032
177	0xbc266314	-0.010155458
178	0x3c4fec0c	0.012690555
179	0xbcbd1c61	-0.023084821
180	0x3caa1d66	0.020765971
181	0x3ba6e347	0.0050930115
182	0xbc68901e	-0.014194516
183	0xbc092b1b	-0.008372094
184	0x3c53cc6c	0.012927156
185	0x3c84cf8e	0.016212251
186	0xbcea1eca	-0.028579134
187	0xbbb6af84	-0.0055751223
188	0x3c27a516	0.010232231
189	0xbbbd003f	-0.0057678516
190	0xbbb77194	-0.0055982564
191	0x3c70407f	0.014663815
192	0x3a0f7384	0.000547223
193	0x39642fdc	0.00021761603
194	0x3c259b36	0.010107806
195	0x3c3ecd2a	0.011645595
196	0x3c692c6d	0.014231783
197	0xbc05f698	-0.008176468
198	0xbca44eda	-0.02005713
199	0xbcfcb880	-0.030849695
200	0x3c8ce954	0.017201103
201	0x3c29e696	0.010369917
202	0xbc88d210	-0.016701728
203	0x3c9c41ba	0.01907431
204	0x3bf6e00e	0.0075340336
205	0x3acc5a4f	0.0015590879
206	0xbc9016aa	-0.017588932
207	0xbca69666	-0.020335387
208	0x3c0c6551	0.008569078
209	0x3ca16840	0.01970303
210	0xbc8e9a24	-0.017407484
211	0xbc9d7f73	-0.019225812
212	0x3d208dc4	0.0391977
213	0xbc132284	-0.008980397
214	0xbcc1f956	-0.023678463
215	0x3bd3eeba	0.0064676674
216	0x3c568102	0.013092281
217	0x3c71dfcf	0.014762833
218	0xbc54a767	-0.012979365
219	0xbce08dc2	-0.027411345
220	0x3c97e8e1	0.018543663
221	0xbc6c07c4	-0.014406148
222	0x3c89ca5a	0.016820122
223	0x3d00c7cf	0.031440552
224	0x3b3ba5eb	0.002863283
225	0x3c05c239	0.008163982
226	0x3c43d6c0	0.011953056
227	0xbce7ee10	-0.02831176
228	0x3b44b230	0.0030013435
229	0x3cd1c9f2	0.02560899
230	0xbc449a5e	-0.011999695
231	0xbcee9733	-0.029124832
232	0xbc13e0fa	-0.009025807
233	0x3c7d7aae	0.015471144
234	0x3bad9660	0.005297467
235	0xbbb966e0	-0.0056580156
236	0xbbd88af0	-0.0066083595
237	0xbca086f0	-0.019595593
238	0x3ca87864	0.02056522
239	0xbba033c2	-0.0048889825
240	0x3c026830	0.007959411
241	0xbc432f7c	-0.011913177
242	0xbc1390e2	-0.009006711
243	0x3c03c946	0.008043593
244	0xbaee9452	-0.0018202162
245	0x3b1f4bb3	0.0024306595
246	0xbc36ff16	-0.011169216
247	0x3bdb5b96	0.0066942675
248	0x39229c16	0.0001550767
249	0x3c6ebb28	0.014570989
250	0x3bd74860	0.006569907
251	0xbc255680	-0.010091424
252	0xb9cdb896	-0.00039238174
253	0x3b9d711e	0.0048047444
254	0x3c28c126	0.010299956
255	0x3cafc7e6	0.021457624

decoder_net.3.weight f4 [256, 512]
0	0x3d5a2665	0.053259272
1	0x3e8fb075	0.28064314
2	0x3f0604f6	0.5235132
3	0x3eb08dfc	0.34483325
4	0xbf28e8b6	-0.6598009
5	0xbdaca86a	-0.0843056
6	0x3e98a144	0.29810536
7	0x3eca1299	0.39467314
8	0xbe9cbe44	-0.3061391
9	0xbf05415a	-0.52052844
10	0x3e419e7e	0.18908116
11	0x3e6e0004	0.23242193
12	0x3eece4b3	0.46268234
13	0x3f6df49a	0.9295136
14	0xbf1e50c8	-0.6184201
15	0xbcb7e430	-0.022447675
16	0x3f5eecd1	0.87080103
17	0xbee07107	-0.43836233
18	0x3e735504	0.237629
19	0xbb297604	-0.0025857696
20	0x3e8c6bad	0.274259
21	0x3e0af8d6	0.13571486
22	0xbea35844	-0.3190328
23	0xbe8bf57a	-0.2733572
24	0xbe9b725c	-0.30360687
25	0x3d75333a	0.059863307
26	0x3eba1211	0.3634191
27	0x3e948378	0.29006553
28	0x3ee1095b	0.4395245
29	0x3ca4c47a	0.020113219
30	0x3d805b12	0.0626737
31	0x3f010d35	0.5041078
32	0xbf99bdb8	-1.2011023
33	0xbec3e120	-0.38257694
34	0xbf5f7d06	-0.87300146
35	0xbea9a48e	-0.33133358
36	0xbe2b1e92	-0.1671088
37	0x3e97d4d5	0.29654565
38	0xbf463662	-0.7742673
39	0xbe8ecc30	-0.27890158
40	0xbf8e1ffa	-1.1103508
41	0x3f385128	0.71998835
42	0x3ed7d20e	0.42152447
43	0xbeda6ac6	-0.42659587
44	0x3f2d8978	0.67787886
45	0xbd59a3bc	-0.053134665
46	0xbdd7d2b6	-0.10538237
47	0xbd96f160	-0.073702574
48	0x3f49f584	0.7889025
49	0xbe9d64bd	-0.3074092
50	0xbd19e432	-0.03757114
51	0xbf395386	-0.7239307
52	0xbec8051f	-0.39066407
53	0x3f62a538	0.88533354
54	0xbe9e6498	-0.30936122
55	0x3f7c09ea	0.9845263
56	0xbe8879c0	-0.26655388
57	0xbf4becfc	-0.79658484
58	0xbf0dd550	-0.55403614
59	0x3d4194c6	0.047261022
60	0xbd7fc06e	-0.062439375
61	0xbe2eced1	-0.17071082
62	0x3f0a4d6a	0.54024374
63	0xbe3bfd56	-0.18358359
64	0x3ed788ae	0.42096466
65	0xbea5bee8	-0.32372212
66	0x3e7a509a	0.2444481
67	0x3f8b1290	1.086504
68	0xbf52a752	-0.8228656
69	0x3f7b9456	0.9827322
70	0xbcb2b72a	-0.021815855
71	0xbf9d8d8e	-1.2308824
72	0x3f8b4c7e	1.0882719
73	0x3ee7aef6	0.45250672
74	0xbfa1e17a	-1.2646935
75	0xbe7d3d7e	-0.24730489
76	0x3f291472	0.6604682
77	0xbe51d85a	-0.20492688
78	0xbf236ac8	-0.6383481
79	0xbda02397	-0.07819288
80	0xbc64b1b8	-0.013958387
81	0xbd8ab7b4	-0.0677332
82	0xbde65a5c	-0.112477034
83	0xbc22cb20	-0.009936124
84	0xbe9f6d9f	-0.31138322
85	0xbec2894a	-0.37995368
86	0x3e9bf6e4	0.304618
87	0x3f6ca6c8	0.9244199
88	0xbdfd63b2	-0.12372531
89	0xbda90cfa	-0.08254428
90	0x3f0937fc	0.5360105
91	0xbf0c3242	-0.5476419
92	0x3e43d93b	0.19125836
93	0xbf034a6d	-0.5128544
94	0xbf849392	-1.0357535
95	0xbf17f795	-0.59362155
96	0xbefacd44	-0.4898473
97	0x3f6d1850	0.9261522
98	0x3e804a92	0.25056893
99	0x3c2003b6	0.00976651
100	0x3eba68dd	0.3640813
101	0xbf83bb92	-1.0291617
102	0x3e1047da	0.14089909
103	0xbe541b8c	-0.20713633
104	0xbeda533a	-0.42641622
105	0xbe5b0ca8	-0.21391547
106	0x3f399e94	0.72507596
107	0xbeaa329c	-0.33241737
108	0x3e0486ee	0.12942097
109	0xbf3990fc	-0.72486854
110	0x3eac6532	0.33670956
111	0xbe28161c	-0.16414684
112	0x3eacb500	0.33731842
113	0x3eadcac8	0.33943772
114	0x3ebe5d14	0.37180388
115	0x3e434a9c	0.1907143
116	0x3ea3edc8	0.3201735
117	0x3eedf947	0.46479246
118	0xbf0397c6	-0.5140346
119	0x3e5b0940	0.21390247
120	0x3e3e0dc6	0.18559942
121	0x3a1a21c4	0.0005879665
122	0xbf3681fe	-0.712921
123	0x3eaa5d22	0.3327418
124	0x3e94378f	0.28948638
125	0xbe544608	-0.2072984
126	0xbe92d628	-0.28679013
127	0x3e0d2c5d	0.13786454
128	0x3ed3e87a	0.41388303
129	0xbd88c8fc	-0.0667896
130	0xbe9e7dc6	-0.30955333
131	0xbe84dae0	-0.25948238
132	0xbe2a2918	-0.16617239
133	0xbd80082c	-0.06251559
134	0x3eb1409c	0.34619606
135	0xbde2a878	-0.11067289
136	0xbee00582	-0.43754202
137	0xbe5fde30	-0.21862102
138	0x3e4b84b0	0.19874835
139	0x3ec4b058	0.3841579
140	0x3ec962b4	0.39333117
141	0x3f54ace7	0.8307633
142	0x3f16c3d0	0.58892536
143	0x3f4acb78	0.7921672
144	0xbd34b4de	-0.0441178
145	0x3f62cbe0	0.8859234
146	0x3ef098b3	0.469915
147	0x3f07a81c	0.5299089
148	0x3f5ab18e	0.85427177
149	0x3ca573c8	0.02019681
150	0x3ef8cc63	0.48593435
151	0xbfcfb152	-1.6225989
152	0xbef8e272	-0.48610264
153	0xbec596ac	-0.38591516
154	0xbe2a7d24	-0.166493
155	0x3ec38439	0.38186815
156	0xbd622cc0	-0.05521846
157	0x3ef688fe	0.48151392
158	0x3f1a3562	0.60237706
159	0x3d794946	0.060860895
160	0xbf6e2a5c	-0.93033385
161	0xbe4f094c	-0.2021839
162	0x3ee26164	0.44214928
163	0xbe70ad98	-0.23503721
164	0x3d2d152c	0.04225652
165	0x3ecc2b43	0.39876756
166	0x3f621665	0.8831542
167	0x3e89f7e4	0.26946938
168	0x3e177c68	0.14793551
169	0x3f4d6ae8	0.8024125
170	0x3f2288d3	0.6349003
171	0x3fd3a9a6	1.6536148
172	0x3f31b1d8	0.69411993
173	0x3cbfb0e0	0.02339977
174	0x3f56e64c	0.83945155
175	0x3efcc2c0	0.49367332
176	0xbda224cc	-0.07917175
177	0x3d344557	0.04401144
178	0xbea88864	-0.32916558
179	0x3db2a31a	0.087225154
180	0x3eea71df	0.45790002
181	0x3f7adbe2	0.97991765
182	0xbe2c6cdc	-0.16838402
183	0x3f40e3ea	0.7534777
184	0x3f33cf6c	0.70238376
185	0x3e49e030	0.19714427
186	0xbe071b6e	-0.13194057
187	0xbda58d8a	-0.08083637
188	0x3f82b8b4	1.0212617
189	0xbdc426da	-0.09577723
190	0xbea74c24	-0.32675278
191	0xbc8f4c74	-0.01749251
192	0xbeba747c	-0.36416996
193	0x3f509ef6	0.81492555
194	0x3e4a42dc	0.19752067
195	0xbf1d31c2	-0.6140405
196	0xbe4e70d2	-0.20160225
197	0x3eb0d14d	0.34534684
198	0x3f6d411e	0.92677486
199	0x3e670272	0.22559527
200	0xbee612a9	-0.44936112
201	0x3dcba262	0.099430814
202	0x3e468adc	0.19388908
203	0xbf096792	-0.5367366
204	0x3eba23fd	0.36355582
205	0xbf27ffe2	-0.6562482
206	0x3eeb6142	0.4597264
207	0x3f43e6f2	0.7652427
208	0xbf1a9424	-0.60382295
209	0x3e0f95c7	0.1402198
210	0x3ea4698e	0.32111782
211	0x3eaf192d	0.34198895
212	0xbd524f3a	-0.051345088
213	0xbe366b06	-0.17814264
214	0xbe5e372e	-0.21700737
215	0x3e0a4607	0.13503276
216	0x3e374c09	0.17900099
217	0xbf413eac	-0.75486255
218	0x3f06ce8a	0.52658904
219	0x3e3c3036	0.18377766
220	0xbdd46fa9	-0.1037286
221	0xbe4b3963	-0.1984611
222	0xbf19635c	-0.59917235
223	0xbd6b23f0	-0.05740732
224	0xbf572f82	-0.84056866
225	0xbef67d96	-0.4814269
226	0xbe915301	-0.2838364
227	0x3e590301	0.21192552
228	0x3ede7321	0.4344721
229	0x3eb84070	0.35986662
230	0x3db36784	0.087599784
231	0x3ee8703c	0.45398128
232	0xbefce4dc	-0.49393356
233	0x3d258649	0.040411267
234	0xbd165584	-0.036702648
235	0x3eb003d0	0.3437791
236	0xbf048e60	-0.51779747
237	0xbf49d6f0	-0.78843594
238	0xbef0edd6	-0.47056454
239	0x3f56623a	0.8374363
240	0xbf7b0a54	-0.98062634
241	0xbe5d6936	-0.21622166
242	0xbeb4a5a2	-0.35282618
243	0xbde0e624	-0.10981396
244	0x3ed7e528	0.4216702
245	0x3dc3f5d6	0.09568374
246	0xbe9cd4c0	-0.30631065
247	0x3eba9e54	0.3644892
248	0x3cfae33b	0.03062593
249	0x3dc4844a	0.09595545
250	0xbf018fda	-0.50610125
251	0x3d8b85b1	0.06812609
252	0x3f395ffb	0.7241208
253	0xbe84a57e	-0.2590751
254	0xbf01b3ec	-0.50665164
255	0xbefa7cb2	-0.4892326

decoder_net.3.bias f4 [256]
0	0x3edfcfb4	0.43713152
1	0x3ef13853	0.47113284
2	0x3ef47ae8	0.4775002
3	0x3ee2b808	0.4428103
4	0x3ef4e6f6	0.4783246
5	0x3f04163d	0.5159643
6	0x3f00a21c	0.5024736
7	0x3efdb72e	0.49553818
8	0x3ef16cc0	0.47153282
9	0x3efc939e	0.49331373
10	0x3efbebee	0.49203438
11	0x3f02dc78	0.5111766
12	0x3ef4475a	0.47710687
13	0x3f00b500	0.50276184
14	0x3efcb7c5	0.49358955
15	0x3ee7b12f	0.45252368
16	0x3f00b014	0.50268674
17	0x3f005273	0.5012581
18	0x3eed8eee	0.4639811
19	0x3ef534ef	0.47891948
20	0x3ef9d128	0.48792386
21	0x3ee76f3e	0.4520206
22	0x3ef845f2	0.48490864
23	0x3f0592e0	0.5217724
24	0x3eee62ad	0.4655966
25	0x3efd4568	0.49467015
26	0x3f00df98	0.50341177
27	0x3f021684	0.50815606
28	0x3ef6e0c2	0.48218352
29	0x3ee57762	0.44817644
30	0x3edacec8	0.42735887
31	0x3f04b9ae	0.51845825
32	0x3f00bc70	0.5028753
33	0x3ef8749e	0.48526472
34	0x3ef02ef0	0.4691081
35	0x3f055634	0.5208466
36	0x3effe40c	0.49978673
37	0x3ef1b0da	0.4720524
38	0x3f03385e	0.51257885
39	0x3efb6e22	0.49107462
40	0x3f017770	0.5057287
41	0x3f049248	0.5178571
42	0x3efd2b26	0.49446982
43	0x3ef4f296	0.47841328
44	0x3f03f136	0.51539934
45	0x3ef4d0a4	0.4781543
46	0x3efd8150	0.4951272
47	0x3effef70	0.49987364
48	0x3efe86be	0.49712175
49	0x3ef4c204	0.47804272
50	0x3ef7542a	0.483064
51	0x3f00f752	0.5037738
52	0x3eeab9c2	0.45844847
53	0x3efbde60	0.49193096
54	0x3ef73678	0.48283744
55	0x3ed0c35f	0.40774056
56	0x3f01574e	0.5052384
57	0x3f02df64	0.5112212
58	0x3efee823	0.4978648
59	0x3ee1c04c	0.44092023
60	0x3f007181	0.50173193
61	0x3eeed9a0	0.4665041
62	0x3ef32de2	0.47495943
63	0x3f031438	0.51202726
64	0x3ef32d7e	0.47495645
65	0x3efe5ada	0.4967869
66	0x3ef5f6b6	0.48039788
67	0x3ef600cb	0.4804748
68	0x3f001010	0.5002451
69	0x3efe9efc	0.4973067
70	0x3ef56474	0.47928202
71	0x3f02e94e	0.51137245
72	0x3ee271c8	0.44227433
73	0x3ef361ac	0.47535455
74	0x3f007fa6	0.50194776
75	0x3edff932	0.43744808
76	0x3efc8624	0.4932109
77	0x3ef2b784	0.47405636
78	0x3eee1cd4	0.4650637
79	0x3ee17072	0.440311
80	0x3ee2bf2d	0.4428648
81	0x3ef65055	0.48108163
82	0x3edf1228	0.4356854
83	0x3ef3d06b	0.47619948
84	0x3ef12340	0.47097206
85	0x3ef5802c	0.4794935
86	0x3ef5447a	0.47903806
87	0x3f012b25	0.5045646
88	0x3f02311a	0.50856173
89	0x3ef47514	0.47745574
90	0x3efb0332	0.49025875
91	0x3f006e5a	0.50168383
92	0x3ef52f56	0.47887677
93	0x3f01368c	0.50473857
94	0x3ef3a17c	0.4758414
95	0x3ef2a6a4	0.47392762
96	0x3efb78ca	0.49115592
97	0x3ef2e348	0.47439027
98	0x3f0288a2	0.50989735
99	0x3efaa038	0.48950362
100	0x3ef6d89a	0.4821213
101	0x3efb833a	0.49123555
102	0x3f066500	0.52497864
103	0x3ef3aa84	0.4759103
104	0x3ef1ae82	0.4720345
105	0x3ef03c80	0.46921158
106	0x3f01dbf9	0.50726277
107	0x3ef5dca8	0.4801991
108	0x3efb388c	0.4906658
109	0x3ef6594e	0.4811501
110	0x3ef9d756	0.487971
111	0x3f062744	0.52403665
112	0x3eee4770	0.46538877
113	0x3efb61c4	0.49098027
114	0x3efd05ea	0.49418575
115	0x3ec82ce9	0.39096764
116	0x3efcda04	0.49385083
117	0x3ef1948a	0.4718364
118	0x3eeb22c6	0.45924968
119	0x3eebfe90	0.46092653
120	0x3eb7cf1b	0.35900196
121	0x3ef41cea	0.4767831
122	0x3eff44ac	0.4985708
123	0x3f0182f4	0.50590444
124	0x3ed4f407	0.41592428
125	0x3ef6d77c	0.48211277
126	0x3f00a7a6	0.5025581
127	0x3ef87f39	0.48534563
128	0x3f0496ae	0.5179242
129	0x3ef8c2dc	0.48586166
130	0x3ef2af0c	0.47399175
131	0x3ee563e3	0.4480277
132	0x3ee7899d	0.45222178
133	0x3ee047aa	0.43804675
134	0x3f003428	0.50079584
135	0x3ef5557c	0.47916782
136	0x3efebdfa	0.49754316
137	0x3efdae1c	0.49546897
138	0x3ef2fda0	0.47459126
139	0x3efcf8be	0.49408525
140	0x3ef571ca	0.47938377
141	0x3efc9882	0.49335104
142	0x3ef47cc1	0.4775143
143	0x3ef4a6a4	0.47783387
144	0x3eff1004	0.49816906
145	0x3efe1594	0.49625838
146	0x3ef543da	0.4790333
147	0x3ef6c14e	0.48194355
148	0x3f011adc	0.5043161
149	0x3eee0482	0.46487814
150	0x3f006372	0.5015174
151	0x3ef6ca0d	0.48201028
152	0x3ef6ad7a	0.48179227
153	0x3e9d2b8d	0.3069729
154	0x3f020800	0.5079346
155	0x3eef09d4	0.46687186
156	0x3f077c8e	0.5292443
157	0x3f00f39f	0.50371736
158	0x3ef17c82	0.47165304
159	0x3efa9428	0.4894116
160	0x3f0196ff	0.50621027
161	0x3ee3396f	0.44379756
162	0x3efc83bf	0.49319264
163	0x3f003040	0.50073624
164	0x3ef48c1c	0.47763145
165	0x3efbe628	0.49199033
166	0x3effe6b0	0.49980688
167	0x3ef430a4	0.4769336
168	0x3eff6aee	0.49886268
169	0x3ef51a60	0.47871685
170	0x3ef938c6	0.48676127
171	0x3f0108c2	0.5040399
172	0x3ed0ca31	0.4077926
173	0x3ee2d940	0.44306374
174	0x3ef49ab5	0.47774282
175	0x3ef3d3be	0.47622484
176	0x3ef8903c	0.48547542
177	0x3ef6867c	0.48149478
178	0x3f00511a	0.5012375
179	0x3f01c93c	0.50697684
180	0x3ef11d50	0.47092676
181	0x3ef853aa	0.4850133
182	0x3ef9b607	0.48771688
183	0x3eeeb038	0.4661882
184	0x3f02b76e	0.5106114
185	0x3efe3813	0.49652156
186	0x3ef304b4	0.47464526
187	0x3ed71b38	0.42012954
188	0x3ee7f066	0.45300597
189	0x3f00d779	0.50328785
190	0x3ef3224e	0.4748711
191	0x3ef7e484	0.4841653
192	0x3efca082	0.49341208
193	0x3ef55730	0.4791808
194	0x3efc3a88	0.49263406
195	0x3f0249ca	0.50893843
196	0x3ef809d2	0.48444992
197	0x3ef9fd87	0.4882624
198	0x3eff3f12	0.49852806
199	0x3f00fe92	0.50388443
200	0x3ef6079f	0.4805269
201	0x3f018c12	0.50604355
202	0x3f012c25	0.50457984
203	0x3ef56ae8	0.47933125
204	0x3ef22f0e	0.47301525
205	0x3efa2d64	0.48862755
206	0x3ee9c263	0.45656118
207	0x3ef39274	0.47572672
208	0x3efa6912	0.48908287
209	0x3ef5db17	0.48018715
210	0x3f0709f6	0.52749574
211	0x3ef74ed0	0.48302317
212	0x3f033da7	0.5126595
213	0x3ef809bc	0.48444927
214	0x3efa5a9e	0.4889726
215	0x3ef3e92c	0.47638834
216	0x3eeff896	0.46869344
217	0x3eea6270	0.45778227
218	0x3f006ee2	0.50169194
219	0x3f00633c	0.5015142
220	0x3ee93893	0.45550975
221	0x3efb4380	0.49074936
222	0x3ec45d69	0.38352516
223	0x3efd057e	0.49418253
224	0x3ef80dfc	0.4844817
225	0x3ef55143	0.4791356
226	0x3f023331	0.5085936
227	0x3f02fc18	0.51165915
228	0x3efd6a98	0.49495387
229	0x3f010506	0.5039829
230	0x3ef32b52	0.47493988
231	0x3ef57b5e	0.47945684
232	0x3efb449c	0.49075782
233	0x3ecfe014	0.40600646
234	0x3eff31ea	0.4984277
235	0x3ef5748e	0.47940487
236	0x3ef53ade	0.47896475
237	0x3ef08b56	0.46981305
238	0x3ef1cc7e	0.47226328
239	0x3ef6d10e	0.4820637
240	0x3ef43bbd	0.47701827
241	0x3f033f40	0.51268387
242	0x3efd133c	0.49428737
243	0x3efbbf40	0.4916935
244	0x3f000712	0.5001079
245	0x3efbc8fa	0.4917677
246	0x3efa9a9d	0.48946086
247	0x3ef469cc	0.47736967
248	0x3f001056	0.50024927
249	0x3eefe51a	0.46854478
250	0x3eefbce4	0.468238
251	0x3f011870	0.50427914
252	0x3f028b31	0.5099364
253	0x3f03becc	0.5146301
254	0x3ef0a218	0.46998668
255	0x3f036642	0.5132791

decoder_net.4.weight f4 [256]
0	0x3f7377c8	0.95104647
1	0x3f7a7880	0.9784012
2	0x3f7b3eab	0.981425
3	0x3f71dfe6	0.94482267
4	0x3f765cb8	0.9623523
5	0x3f74597c	0.9544904
6	0x3f71655e	0.942953
7	0x3f776804	0.9664309
8	0x3f7e24a8	0.99274683
9	0x3f80e7ea	1.0070775
10	0x3f776885	0.9664386
11	0x3f80c10e	1.0058916
12	0x3f760305	0.9609836
13	0x3f82dccb	1.0223631
14	0x3f643bd9	0.8915382
15	0x3f733c5a	0.95013964
16	0x3f768356	0.9629415
17	0x3f850a1e	1.0393713
18	0x3f790cd1	0.9728518
19	0x3f75a77a	0.95958674
20	0x3f7dc23c	0.99124503
21	0x3f79b596	0.97542703
22	0x3f75da2e	0.9603604
23	0x3f71b35a	0.94414294
24	0x3f76ba26	0.9637779
25	0x3f7883d5	0.9707616
26	0x3f752dda	0.9577309
27	0x3f84b575	1.0367876
28	0x3f6e052a	0.9297663
29	0x3f749a3e	0.95547855
30	0x3f7952e0	0.9739208
31	0x3f7241b8	0.9463153
32	0x3f7e6d95	0.9938596
33	0x3f7321eb	0.9497363
34	0x3f832a82	1.0247347
35	0x3f73eb2e	0.9528073
36	0x3f7f2d4f	0.9967851
37	0x3f741f78	0.9536052
38	0x3f7e4cee	0.99336135
39	0x3f7688ed	0.9630268
40	0x3f7e487c	0.9932935
41	0x3f83c848	1.0295496
42	0x3f85ee62	1.0463374
43	0x3f72cef0	0.9484701
44	0x3f733747	0.9500622
45	0x3f758aa8	0.959147
46	0x3f7209de	0.94546306
47	0x3f7a9155	0.9787801
48	0x3f7f3dde	0.99703777
49	0x3f71354a	0.9422194
50	0x3f767d06	0.9628452
51	0x3f764ae0	0.96208
52	0x3f738b38	0.95134306
53	0x3f7a30fe	0.97731006
54	0x3f749fa2	0.9555608
55	0x3f775a40	0.96622086
56	0x3f7aa830	0.97912884
57	0x3f7d0eac	0.9885051
58	0x3f75056e	0.9571141
59	0x3f775b62	0.96623814
60	0x3f7703c9	0.9649015
61	0x3f8f1512	1.1178305
62	0x3f73f75c	0.95299315
63	0x3f75f91c	0.96083236
64	0x3f70fb7a	0.9413372
65	0x3f71c6c1	0.944439
66	0x3f75c98c	0.9601066
67	0x3f6e1676	0.9300302
68	0x3f793a88	0.97354937
69	0x3f6e0350	0.92973804
70	0x3f77c288	0.96781206
71	0x3f788de2	0.97091496
72	0x3f754d72	0.958213
73	0x3f74d8da	0.9564339
74	0x3f79608d	0.9741295
75	0x3f747e24	0.95504975
76	0x3f772887	0.96546215
77	0x3f71bdf8	0.94430494
78	0x3f713020	0.9421406
79	0x3f72b4d2	0.9480716
80	0x3f76a3b4	0.9634354
81	0x3f6fb8c2	0.93641293
82	0x3f7917ec	0.97302127
83	0x3f7288d2	0.9474002
84	0x3f784a92	0.96988785
85	0x3f735352	0.9504901
86	0x3f712f6a	0.94212973
87	0x3f7608bc	0.9610708
88	0x3f7fa2b2	0.9985763
89	0x3f73edb2	0.9528457
90	0x3f7e4fbf	0.9934043
91	0x3f7a79ac	0.97841907
92	0x3f7742c1	0.96586233
93	0x3f7c293e	0.9850043
94	0x3f76e1c6	0.9643825
95	0x3f760174	0.9609597
96	0x3f760b32	0.9611083
97	0x3f75ca9e	0.96012294
98	0x3f7dae98	0.99094534
99	0x3f67e8b2	0.9058944
100	0x3f74e0de	0.9565562
101	0x3f71dfaf	0.9448194
102	0x3f784ef4	0.9699547
103	0x3f81d7de	1.0144002
104	0x3f7fb2e2	0.9988233
105	0x3f6e12f2	0.9299766
106	0x3f8053d6	1.0025585
107	0x3f762eec	0.9616535
108	0x3f758b2e	0.95915496
109	0x3f6a0318	0.9141097
110	0x3f817b24	1.0115705
111	0x3f7331ca	0.9499785
112	0x3f73678a	0.95079863
113	0x3f803336	1.0015628
114	0x3f734d98	0.95040274
115	0x3f78ebc2	0.9723474
116	0x3f78c514	0.9717572
117	0x3f713241	0.94217306
118	0x3f76afe2	0.96362126
119	0x3f6e28d8	0.9303107
120	0x3f77b004	0.96752954
121	0x3f75214c	0.9575393
122	0x3f7e4a36	0.99331987
123	0x3f6f4324	0.93461823
124	0x3f813c72	1.0096571
125	0x3f783eb4	0.9697068
126	0x3f780308	0.96879625
127	0x3f883664	1.0641599
128	0x3f7369ae	0.9508313
129	0x3f703169	0.93825394
130	0x3f736ae0	0.95084953
131	0x3f7a4c2e	0.9777249
132	0x3f7a4c2e	0.9777249
133	0x3f78c254	0.9717152
134	0x3f79caf2	0.97575295
135	0x3f77ed8e	0.96846855
136	0x3f807bb2	1.0037749
137	0x3f724788	0.946404
138	0x3f7c9ba1	0.9867497
139	0x3f79f116	0.9763349
140	0x3f780ee0	0.968977
141	0x3f6ab82e	0.91687286
142	0x3f75da10	0.9603586
143	0x3f771c54	0.965276
144	0x3f7883ea	0.97076285
145	0x3f7efa9e	0.9960116
146	0x3f76fdce	0.96481025
147	0x3f7547f4	0.95812917
148	0x3f756e71	0.95871645
149	0x3f75e78e	0.9605645
150	0x3f6f7410	0.9353647
151	0x3f745a4a	0.9545027
152	0x3f756ff9	0.9587398
153	0x3f7894ee	0.9710225
154	0x3f6f9fbb	0.93603104
155	0x3f6ce21c	0.92532516
156	0x3f78c384	0.97173333
157	0x3f7a3fc3	0.9775354
158	0x3f713949	0.94228035
159	0x3f766698	0.96250296
160	0x3f7d260c	0.9888618
161	0x3f700582	0.93758404
162	0x3f750988	0.9571767
163	0x3f7a4a00	0.97769165
164	0x3f76aa16	0.9635328
165	0x3f7efcf3	0.9960472
166	0x3f7e2556	0.9927572
167	0x3f781ad6	0.9691595
168	0x3f7a3799	0.97741085
169	0x3f76d55c	0.9641931
170	0x3f759f92	0.9594661
171	0x3f73ea07	0.9527897
172	0x3f7a57d2	0.97790253
173	0x3f7b7c2e	0.9823636
174	0x3f77951f	0.96711916
175	0x3f6651a0	0.899683
176	0x3f734133	0.9502136
177	0x3f7627e3	0.9615461
178	0x3f72c86a	0.9483706
179	0x3f718b18	0.94352865
180	0x3f755cdf	0.95844835
181	0x3f70fdc0	0.9413719
182	0x3f791230	0.97293377
183	0x3f74abfe	0.9557494
184	0x3f77b11e	0.96754634
185	0x3f76c68e	0.9639672
186	0x3f78bf16	0.97166574
187	0x3f7e2bd4	0.99285626
188	0x3f88dee6	1.0693023
189	0x3f7678c0	0.96278
190	0x3f764696	0.96201456
191	0x3f71ebdc	0.9450052
192	0x3f6d64cc	0.9273193
193	0x3f75e0ea	0.96046317
194	0x3f7640d9	0.961927
195	0x3f75dc44	0.96039224
196	0x3f7be2bc	0.98392844
197	0x3f8a9b2e	1.0828607
198	0x3f7ce5ea	0.9878832
199	0x3f7c549a	0.9856659
200	0x3f746bba	0.9547688
201	0x3f811b12	1.0086386
202	0x3f7abd92	0.9794551
203	0x3f76b65c	0.9637201
204	0x3f763cea	0.961867
205	0x3f7744ec	0.9658954
206	0x3f84faec	1.0389075
207	0x3f75acac	0.959666
208	0x3f6ae38d	0.91753465
209	0x3f78e234	0.9722016
210	0x3f73700f	0.9509286
211	0x3f762ed8	0.9616523
212	0x3f841072	1.0317519
213	0x3f770096	0.9648527
214	0x3f80e970	1.007124
215	0x3f783d24	0.96968293
216	0x3f6a226a	0.9145876
217	0x3f7a0d88	0.976769
218	0x3f705fb4	0.9389603
219	0x3f77fe10	0.96872044
220	0x3f74da6a	0.95645773
221	0x3f7c9a31	0.9867278
222	0x3f77e8e4	0.9683974
223	0x3f74844a	0.9551436
224	0x3f73d9f4	0.95254445
225	0x3f724fa8	0.94652796
226	0x3f7bc033	0.9834015
227	0x3f732976	0.9498514
228	0x3f7bd1e6	0.98367155
229	0x3f753e1e	0.9579791
230	0x3f75dc7d	0.96039563
231	0x3f6acb92	0.91716874
232	0x3f72eb42	0.94890225
233	0x3f7a1840	0.9769325
234	0x3f7be026	0.983889
235	0x3f71d826	0.9447044
236	0x3f80c680	1.0060577
237	0x3f7b8f84	0.9826586
238	0x3f75dc07	0.9603886
239	0x3f76c77e	0.9639815
240	0x3f75ca23	0.9601156
241	0x3f79d203	0.9758608
242	0x3f77862b	0.966891
243	0x3f82c2f4	1.0215745
244	0x3f73b3ae	0.95196044
245	0x3f758853	0.9591114
246	0x3f74ae1a	0.9557816
247	0x3f746bbc	0.9547689
248	0x3f7004ea	0.937575
249	0x3f75d406	0.9602665
250	0x3f750266	0.95706785
251	0x3f7ce1fa	0.9878231
252	0x3f79a5f8	0.97518873
253	0x3f78b8c9	0.9715696
254	0x3f751121	0.9572926
255	0x3f7942bb	0.9736745
