Value_Net.pt (torch, 889864 bytes, 21 tensors)

decoder_net.0.weight f4 [512, 85]
0.0873768 -0.045290723 -0.030155495 0.0648501 0.043682218 -0.013054138 0.0384408 -0.075577796
-0.039592683 0.085341886 0.00092141796 -0.09101638 0.010172888 0.016450638 0.08282635 0.024204047
0.044710994 0.08333766 0.028779224 -0.029567644 0.059237108 0.06457717 0.02743574 0.07088873
0.014063212 -0.069487095 0.0889955 0.086541876 0.0419694 0.010211392 0.04547888 0.06641688
0.09821104 0.006663715 -0.0908659 0.06187633 0.0058808033 0.03653673 -0.05701383 -0.07988367
0.08807792 -0.04962337 0.026286613 -0.08325884 0.01612574 0.08577651 -0.015187462 0.0375567
0.021552272 0.052786343 0.03269503 0.06796814 0.049945183 0.030819306 0.0051673534 0.09624513
0.09841355 -0.031051958 0.049326275 -0.053213686 -0.07840553 0.023680339 0.0856705 -0.024351047
0.03799715 -0.0649304 -0.04443435 -0.083591975 0.017001713 0.0066062314 -0.012270131 -0.07614115
0.07457672 -0.038579285 -0.03925597 -0.027318915 -0.076310605 0.08955367 0.058804616 0.011038255
0.0883774 -0.093193844 -0.020455753 0.060443774 -0.07289695 -0.080269314 0.0056072683 0.03478624
-0.026729431 0.07720569 0.033148192 -0.06631524 0.040419 0.08118208 -0.05483263 -0.097419746
-0.07670347 -0.06766624 -0.05506556 0.091662936 0.06266268 0.095521174 0.026258357 -0.06801128
0.006361505 -0.004407455 0.06690138 0.009696343 0.05402627 -0.011707463 -0.091339864 0.016643995
-0.02936877 0.03419149 -0.052637022 0.06102162 0.011449218 -0.09654984 -0.07556292 0.0076188985
0.06609053 0.08169875 0.04711368 0.060428016 0.050214004 -0.050595947 0.01096597 0.03315906
-0.049179517 0.06755808 0.045920122 0.0038254592 0.082560234 -0.048414994 0.033733957 0.044288345
-0.08816555 -0.062107913 0.06718422 0.06938423 0.09076877 0.058272637 0.014224038 -0.035453912
-0.09454406 -0.03081759 0.08107086 -0.012159924 -0.01088541 0.06977705 -0.036295652 -0.05723992
0.07373898 -0.09493445 -0.093342155 -0.07757352 -0.05734743 0.03688065 0.08059959 -0.07381197
-0.09024905 -0.065762594 0.043396257 0.053958785 -0.09310589 0.044271115 -0.0834344 -0.03470385
-0.077640586 -0.07644242 -0.096464604 0.008562722 -0.047471955 -0.09248425 0.09270637 0.06679172
0.07123867 -0.055115752 0.022600548 -0.06276007 -0.100492075 -0.006903784 -0.077036425 0.07728438
-0.047622643 0.061975133 0.08658779 0.09864142 0.06848708 0.05588757 -0.04653814 -0.078842916
-0.015212818 0.058306362 -0.014792049 -0.06745617 -0.05343365 -0.015721293 -0.0065910076 0.089830674
-0.0505308 -0.008053072 0.0089556305 -0.09007747 0.019878494 0.028004898 0.06992113 -0.03317528
0.034007072 -0.08509141 -0.045470513 -0.081274666 0.05719246 0.021075994 -0.01629929 -0.054208502
-0.040096465 -0.050587248 -0.015914392 0.040949304 -0.09254245 0.055933233 0.035597567 0.085260324
-0.046763666 -0.03556477 0.0062857647 -0.0526287 -0.0631664 -0.02609611 0.01492342 -0.026464056
-0.043065097 -0.007637422 -0.024222784 0.015197676 -0.041654367 -0.08809432 0.0070554414 0.0784705
0.026980797 0.019315235 0.012820416 0.08244646 0.036286715 0.09080077 -0.050945252 -0.050157208
0.0061465623 -0.088939525 0.034302767 -0.058019187 -0.057820108 -0.047116484 -0.099843934 -0.05309989
00000000: 9cf2 b23d c482 39bd a808 f7bc 21d0 843d
00000010: 20ec 323d 06e1 55bc 1a74 1d3d 88c8 9abd
00000020: f02b 22bd bac7 ae3d 508b 713a cc66 babd
00000030: 2fac 263c 7dc3 863c dda0 a93d 9147 c63c
00000040: e022 373d efac aa3d 68c2 eb3c d837 f2bc
00000050: 9ca2 723d 0941 843d ebc0 e03c 1c2e 913d
00000060: 6369 663c 404f 8ebd 4643 b63d de3c b13d
00000070: 1be8 2b3d af4d 273c 1048 3a3d 9305 883d
00000080: df22 c93d 4b5b da3b e717 babd 0972 7d3d
00000090: c1b3 c03b 8aa7 153d 5587 69bd 0d9a a3bd
000000a0: 3262 b43d e041 4bbd 0657 d73c 9c83 aabd
000000b0: 211a 843c 98ab af3d d5d4 78bc 0ed5 193d
000000c0: 648e b03c 7e36 583d 39eb 053d e132 8b3d
000000d0: 5293 4c3d c578 fc3c e752 a93b 2b1c c53d
000000e0: 0b8d c93d ad60 febc 590a 4a3d 98f6 59bd
000000f0: 1493 a0bd 45fd c13c 0474 af3d d97b c7bc
00000100: e6a2 1b3d 3bfa 84bd cb00 36bd 4532 abbd
00000110: 2d47 8b3c 1679 d83b a908 49bc e4ef 9bbd
00000120: aebb 983d 5005 1ebd deca 20bd ebcb dfbc
00000130: bc48 9cbd ea67 b73d 1cdd 703d ccd9 343c
00000140: 36ff b43d 6adc bebd d392 a7bc e493 773d
00000150: ff4a 95bd 3d64 a4bd 2dbd b73b 047c 0e3d
00000160: aef7 dabc 041e 9e3d 66c6 073d 49d0 87bd
00000170: 658e 253d ca42 a63d 2e98 60bd 0184 c7bd
00000180: b516 9dbd 9994 8abd 6d8c 61bd c7b9 bb3d
00000190: 4b55 803d 9ba0 c33d c41b d73c 7f49 8bbd
000001a0: 2c74 d03b 6a6c 90bb 9703 893d 69dd 1e3c
000001b0: a64a 5d3d a9d0 3fbc 6510 bbbd fd58 883c
000001c0: c696 f0bc 600c 0c3d eb99 57bd cef1 793d
000001d0: 8095 3b3c ecbb c5bd bbc0 9abd f4a7 f93b
000001e0: 795a 873d ad51 a73d 46fa 403d 5e83 773d
000001f0: 33ad 4d3d b23d 4fbd 9daa 333c cbd1 073d
00000200: 7670 49bd e45b 8a3d bd16 3c3d 8eb4 7a3b
00000210: 5715 a93d cd4e 46bd 9e2c 0a3d b267 353d
00000220: 2490 b4bd de64 7ebd e197 893d 5219 8e3d
00000230: fae4 b93d 4aaf 6e3d f10b 693c 1f38 11bd
00000240: 51a0 c1bd 2c75 fcbc 7b08 a63d 6b3a 47bc
00000250: b858 32bc 45e7 8e3d c0aa 14bd 6874 6abd
00000260: 7604 973d fe6c c2bd 2c2a bfbd dede 9ebd
00000270: 24e5 6abd 2a10 173d 6611 a53d bb2a 97bd
00000280: 7ed4 b8bd 8aae 86bd 46c0 313d e303 5d3d
00000290: 4dae bebd a155 353d a8df aabd a025 0ebd
000002a0: 0702 9fbd d88d 9cbd 3c8f c5bd a94a 0c3c
000002b0: f471 42bd 6268 bdbd d6dc bd3d 19ca 883d
000002c0: 94e5 913d 0ec1 61bd c924 b93c 5a88 80bd
000002d0: cace cdbd 2339 e2bb 46c5 9dbd 4647 9e3d
000002e0: f60f 43bd a3d9 7d3d f054 b13d 8304 ca3d
000002f0: f442 8c3d 5dea 643d c79e 3ebd 6578 a1bd
00000300: 2f3f 79bc a7d2 6e3d 5a5a 72bc 7626 8abd
00000310: 3edd 5abd f1c9 80bc 61f9 d7bb 25f9 b73d
00000320: 62f9 4ebd 08f1 03bc a3ba 123c 897a b8bd
00000330: 39d8 a23c 876a e53c cf32 8f3d cde2 07bd
00000340: 004b 0b3d 6844 aebd 4a3f 3abd 5573 a6bd
00000350: a442 6a3d 90a7 ac3c 1786 85bc bc09 5ebd
00000360: 313c 24bd 9334 4fbd e65e 82bc 75ba 273d
00000370: e586 bdbd 3f1a 653d c1ce 113d f79c ae3d
00000380: 428b 3fbd 5dac 11bd d1f8 cd3b 3191 57bd
00000390: 635d 81bd 82c7 d5bc 5c81 743c 26cb d8bc
000003a0: 0765 30bd 5743 fabb dc6e c6bc acff 783c
000003b0: c59d 2abd cb6a b4bd 5531 e73b 24b5 a03d
000003c0: d506 dd3c fc3a 9e3c b90c 523c b1d9 a83d
000003d0: 61a1 143d c1f5 b93d f8ab 50bd a571 4dbd
000003e0: 1a69 c93b ed25 b6bd 0f81 0c3d 87a5 6dbd
000003f0: c7d4 6cbd 37fd 40bd fa7a ccbd 457f 59bd

decoder_net.0.bias f4 [512]
0.0 -0.0012229474 -0.0008662897 0.0041783317 0.0018610584 -0.0015804569 -0.0024421837 -0.001022996
0.0 -0.00064996345 0.0007859 -0.0013508757 -0.00050716416 -0.0018175882 0.0013845362 0.0
0.0018125254 0.00037646387 -0.0013262724 -0.005217401 0.0044844598 -0.0009911504 0.0 0.0
-0.0032508352 0.0 0.0032781966 -0.0014208127 -0.0017484212 -0.0034269262 0.0 -0.00030212523
-0.0011177614 0.0 -0.0020989594 0.00055085367 0.00066900486 -0.0016977089 0.0 -0.0020161537
0.0 -0.0022288072 -0.00024802153 0.00021350394 -0.0027017833 -0.002056102 0.0 0.0
8.3597864e-05 0.0026245723 0.0 0.0012399103 -0.0043895147 -0.002103549 -0.0018188757 -0.00084197737
0.00137381 -0.0003250758 -0.0011430244 0.0 0.001964328 0.0 -0.0033600866 -0.0001964601
0.0 -0.003315203 0.0 -0.002424543 0.0 0.003449225 0.0 -0.0019128055
0.00029773082 0.00031838933 -0.0020800484 0.0 0.0 -0.0015986245 -0.0011581447 0.0008039196
0.0 -0.0011232193 0.0012059046 -0.0026448101 0.005085426 -0.0012483952 -0.0023525495 0.0
0.002141947 0.0026480649 -0.00076813257 -0.0008186465 0.0027247593 -0.00091195037 0.0 -0.0012864547
0.0 0.0025861575 0.00075098913 -0.0016535803 -0.0023709896 -0.002924828 0.0 0.0
0.0 0.0032910039 0.0 -0.0032538972 -0.0029469419 0.0026816605 -0.0022916368 0.00034073714
0.0022016107 -0.00073688815 0.0 -0.0030442418 0.0017576067 0.0 -0.0003766142 -0.0032663133
0.0 -0.0014969414 0.0014919671 0.0 0.002106534 0.0003563427 -0.0035076702 -0.003109296
-0.0020037212 0.0 -0.001823578 -0.004986646 0.0004378365 0.0 0.0 -0.0015125631
-0.0006073341 -0.003935818 3.937496e-05 -0.0020008283 0.0002466406 0.0 0.0 -0.0021116927
0.0 -0.0009970794 0.002467109 2.7454986e-05 -0.0021282628 -0.0015686325 0.00097144133 0.0
0.0 0.00204939 -0.0022429687 -0.0045450623 -0.0018745323 0.0010858898 0.0 0.0
-0.0011816892 0.00013691382 0.0 0.0003143845 -0.0003090518 0.0 0.00076212996 -0.002444308
0.0034884436 0.0 -0.00084763666 -0.0023707687 -0.0035117574 -0.0025705462 0.0 0.0023311023
-0.0052732513 0.0 -0.003381913 0.0 -0.004482756 0.000405484 -0.001382903 -0.0019343437
-0.0013337657 -0.0010526676 0.0 0.0 0.0 -0.0006464858 -0.0024296208 0.0010195378
-0.0029775507 0.00010238117 -0.0019987982 0.0 0.0 0.0 0.002497598 -0.0001199789
0.0 -7.284027e-05 -0.00011335846 0.0 0.0046508308 0.0 0.00096585805 0.0
0.0 0.0027993643 -0.00014870112 -0.0011129893 -0.0015083242 0.0 0.0 -0.004880557
0.0 0.0 0.0 -0.0002707874 0.0 -0.0006885729 -0.004477686 -0.0028449926
0.00011959156 0.0023334448 -0.0016584574 -0.001510377 0.00056233816 0.0 -0.0035226117 -2.5645963e-05
-0.00094779365 0.0036035995 0.0003111489 0.0015639343 -0.0021559617 -0.00072901224 0.0066761193 0.0
0.0 0.00210272 -0.00017042959 0.00090099894 -0.004011155 0.0 -0.0020061354 0.0069583827
0.0007308676 -0.0023890324 -0.00015069224 0.0 0.0029931723 0.0017617297 0.0010919741 -0.00089761213
00000000: 0000 0000 4e4b a0ba b817 63ba 63ea 883b
00000010: c2ee f33a 5527 cfba 0b0d 20bb 0d16 86ba
00000020: 0000 0000 4f62 2aba db04 4e3a de0f b1ba
00000030: 36f3 04ba 243c eeba 5379 b53a 0000 0000
00000040: 4392 ed3a 2060 c539 51d6 adba bbf6 aabb
00000050: 60f2 923b 7de9 81ba 0000 0000 0000 0000
00000060: f70b 55bb 0000 0000 03d7 563b 903a baba
00000070: 482b e5ba 4896 60bb 0000 0000 9066 9eb9
00000080: d981 92ba 0000 0000 b28e 09bb 2a67 103a
00000090: 2860 2f3a a885 deba 0000 0000 7221 04bb
000000a0: 0000 0000 2e11 12bb e308 82b9 07e0 5f39
000000b0: 6710 31bb abbf 06bb 0000 0000 0000 0000
000000c0: 4351 af38 0401 2c3b 0000 0000 7c84 a23a
000000d0: ebd5 8fbb b2db 09bb 5767 eeba 25b8 5cba
000000e0: 6a11 b43a ef6e aab9 89d1 95ba 0000 0000
000000f0: f5bb 003b 0000 0000 e634 5cbb db00 4eb9
00000100: 0000 0000 e043 59bb 0000 0000 15e5 1ebb
00000110: 0000 0000 650c 623b 0000 0000 1ab7 faba
00000120: c118 9c39 7eed a639 6c51 08bb 0000 0000
00000130: 0000 0000 f088 d1ba e3cc 97ba 22be 523a
00000140: 0000 0000 fc38 93ba 720f 9e3a 8d54 2dbb
00000150: a5a3 a63b 31a1 a3ba 3b2d 1abb 0000 0000
00000160: e85f 0c3b 288b 2d3b 815c 49ba 709a 56ba
00000170: e091 323b f40f 6fba 0000 0000 429e a8ba
00000180: 0000 0000 867c 293b 07de 443a f3bc d8ba
00000190: 9b62 1bbb 79ae 3fbb 0000 0000 0000 0000
000001a0: 0000 0000 e2ad 573b 0000 0000 563f 55bb
000001b0: 7b21 41bb ccbe 2f3b 492f 16bb f7a4 b239
000001c0: e648 103b ba2b 41ba 0000 0000 e781 47bb
000001d0: 7f5f e63a 0000 0000 4d74 c5b9 a50f 56bb
000001e0: 0000 0000 0535 c4ba 1c8e c33a 0000 0000
000001f0: c70d 0a3b 82d3 ba39 f1e0 65bb 55c5 4bbb
00000200: dd50 03bb 0000 0000 2005 efba 0567 a3bb
00000210: 6c8d e539 0000 0000 0000 0000 3241 c6ba
00000220: 8035 1fba 09f8 80bb 8b26 2538 5420 03bb
00000230: 8a4f 8139 0000 0000 0000 0000 5364 0abb
00000240: 0000 0000 6fb0 82ba 38af 213b 224f e637
00000250: 537a 0bbb 939a cdba 53a8 7e3a 0000 0000
00000260: 0000 0000 0f4f 063b c5fe 12bb bfee 94bb
00000270: deb2 f5ba 6a54 8e3a 0000 0000 0000 0000
00000280: e9e2 9aba 8690 0f39 0000 0000 f9d3 a439
00000290: 3b08 a2b9 0000 0000 adc9 473a af30 20bb
000002a0: 5f9e 643b 0000 0000 ef33 5eba e65e 1bbb
000002b0: 8325 66bb 9c76 28bb 0000 0000 68c5 183b
000002c0: 3dcb acbb 0000 0000 16a3 5dbb 0000 0000
000002d0: 15e4 92bb 2497 d439 8642 b5ba ce89 fdba
000002e0: c0d1 aeba aaf9 89ba 0000 0000 0000 0000
000002f0: 0000 0000 ed78 29ba 463a 1fbb 03a2 853a
00000300: 0323 43bb 79b5 d638 45fe 02bb 0000 0000
00000310: 0000 0000 0000 0000 beae 233b 2e9d fbb8
00000320: 0000 0000 d2c1 98b8 dcba edb8 0000 0000
00000330: ff65 983b 0000 0000 a331 7d3a 0000 0000
00000340: 0000 0000 8a75 373b a7ec 1bb9 b9e1 91ba
00000350: f6b2 c5ba 0000 0000 0000 0000 14ed 9fbb
00000360: 0000 0000 0000 0000 0000 0000 78f8 8db9
00000370: 0000 0000 5881 34ba 8db9 92bb 0e73 3abb
00000380: 3bcd fa38 b5ec 183b 9960 d9ba d8f7 c5ba
00000390: e069 133a 0000 0000 9edb 66bb 4922 d7b7
000003a0: 5b75 78ba 5e2a 6c3b b321 a339 edfc cc3a
000003b0: 094b 0dbb 2f1b 3fba 59c3 da3b 0000 0000
000003c0: 0000 0000 cacd 093b 58b5 32b9 0431 6c3a
000003d0: 0270 83bb 0000 0000 5e79 03bb 2503 e43b
000003e0: b297 3f3a 5091 1cbb 2403 1eb9 0000 0000
000003f0: 1929 443b d7e9 e63a 9220 8f3a bb4d 6bba

decoder_net.2.weight f4 [512]
0.9965748 0.9885928 0.9937059 1.0079978 1.0001148 0.9888703 0.9960417 0.9963934
0.99337363 1.0014977 0.99647015 1.0004188 0.9938751 1.0049255 0.9997292 0.99620914
1.0017298 0.99928164 1.00193 0.99175376 0.9999066 0.98921174 0.99804676 0.99810797
0.99557877 0.9956685 1.0022556 0.9920121 0.996391 0.9948799 0.99820507 0.997727
0.9952702 0.9978909 0.9991296 0.9977267 0.99534833 0.9961498 0.9957034 0.9935112
0.995943 0.995868 0.997132 0.99736804 0.99353886 1.0038223 0.99477005 0.99456584
0.9968609 1.0108656 1.0014167 0.98149496 0.9998372 0.9978238 0.98930156 0.9937357
0.9914755 0.9937149 0.98845434 0.9979348 0.99181336 0.99461627 0.9953887 1.0133929
0.99699825 0.9969205 0.9948297 0.9986638 0.99740285 1.0012364 0.99678206 0.99897444
0.99284 0.9976425 0.9916789 0.99261266 0.9967575 0.9959112 0.9932924 0.998021
0.99718505 0.99682254 1.0005592 0.9936403 0.9894186 0.99824005 0.9960874 0.9950917
0.99666667 1.007055 0.99597067 0.9951098 0.9968708 0.9931675 0.9954053 0.9968128
0.99890196 1.0043048 0.995898 0.9917926 0.9899548 0.9972467 0.99569726 0.9995548
0.9962469 0.9999479 0.9952992 0.9999197 0.9987682 1.0073674 0.9984365 0.996358
1.0067029 0.9984768 0.9956519 0.9973951 0.9923868 0.99606 0.99969584 0.9941857
0.9978262 0.99504626 0.99014485 0.99715024 0.9907959 1.00716 0.998453 1.0025249
0.99335134 0.9971998 0.99580574 0.99359393 1.0009083 0.9989168 0.9922215 0.9971962
1.0001506 0.99689823 0.99843127 0.9954641 0.99520105 0.9960851 0.99605554 0.9884446
0.9962648 0.99511456 0.9894966 0.9980611 0.9980615 0.9964293 0.9993692 0.9974366
0.9964559 0.99796736 0.9959924 0.99745387 0.9972164 0.996412 0.9950833 0.9956065
0.99545383 0.9933239 0.9963419 0.99653965 0.993565 0.99886936 0.9900014 0.99348694
0.9968035 0.9963734 0.99163157 0.9959386 1.0005791 0.98899007 0.99925417 0.9976768
0.9965074 0.99627066 0.9991472 0.9954395 0.99036145 0.99924237 0.9903376 0.9990551
0.9964867 0.99247587 0.99511087 0.99685735 0.9971853 0.9990186 0.99839884 0.9996411
0.9975733 0.99958 0.99476707 0.9964099 0.9969631 0.9945082 1.0002415 0.99713564
0.99377143 0.99145883 1.0029498 0.99640465 0.9955395 0.9950882 0.9974345 0.9981652
0.9962826 1.0081854 0.99810916 0.99779624 0.9990913 0.99691254 0.99829537 0.9960342
0.99927956 0.99112403 0.9969998 0.99518114 0.99734676 1.0082182 0.99216723 0.9979932
0.9976641 0.9961877 0.9999885 0.9981573 0.994579 0.9941095 0.99563545 0.9962162
0.9897909 1.0010262 0.9943115 0.9887203 0.9979545 0.9912997 1.002159 0.997277
0.9961117 1.000183 1.003866 0.99729115 0.98943585 0.9965149 0.9967419 0.9950636
1.0078619 0.9948752 1.0000943 0.9954987 1.0004482 0.99496067 0.9923447 0.9941507
00000000: 871f 7f3f 6b14 7d3f 8363 7e3f 1206 813f
00000010: c303 803f 9b26 7d3f 97fc 7e3f a313 7f3f
00000020: bc4d 7e3f 1431 803f ab18 7f3f b90d 803f
00000030: 996e 7e3f 66a1 803f 41ee 7f3f 9007 7f3f
00000040: af38 803f ecd0 7f3f 3e3f 803f 93e3 7d3f
00000050: e1f9 7f3f fb3c 7d3f fe7f 7f3f 0184 7f3f
00000060: 40de 7e3f 21e4 7e3f e949 803f 81f4 7d3f
00000070: 7b13 7f3f 73b0 7e3f 5e8a 7f3f 096b 7f3f
00000080: 07ca 7e3f c775 7f3f f5c6 7f3f 046b 7f3f
00000090: 26cf 7e3f ac03 7f3f 6be6 7e3f c056 7e3f
000000a0: 1ff6 7e3f 35f1 7e3f 0b44 7f3f 8353 7f3f
000000b0: 9058 7e3f 407d 803f 40a9 7e3f de9b 7e3f
000000c0: 4732 7f3f 0b64 813f 6c2e 803f 4143 7b3f
000000d0: 55f5 7f3f 6171 7f3f de42 7d3f 7665 7e3f
000000e0: 57d1 7d3f 1a64 7e3f 580b 7d3f a878 7f3f
000000f0: 7be7 7d3f 2c9f 7e3f cbd1 7e3f dcb6 813f
00000100: 473b 7f3f 2f36 7f3f 29ad 7e3f 6ea8 7f3f
00000110: cb55 7f3f 8428 803f 1c2d 7f3f cabc 7f3f
00000120: c32a 7e3f 8065 7f3f abde 7d3f dd1b 7e3f
00000130: 802b 7f3f 09f4 7e3f 6948 7e3f 4e7e 7f3f
00000140: 8547 7f3f c32f 7f3f 5312 803f 365f 7e3f
00000150: 8a4a 7d3f a98c 7f3f 95ff 7e3f 54be 7e3f
00000160: 8c25 7f3f 2ee7 803f eff7 7e3f 84bf 7e3f
00000170: ed32 7f3f 3a40 7e3f e2d2 7e3f 202f 7f3f
00000180: 0ab8 7f3f 0f8d 803f 2cf3 7e3f 1fe6 7d3f
00000190: ae6d 7d3f 8f4b 7f3f 04e6 7e3f d3e2 7f3f
000001a0: 090a 7f3f 96fc 7f3f eecb 7e3f bdfa 7f3f
000001b0: 46af 7f3f 6af1 803f 8999 7f3f 5111 7f3f
000001c0: a4db 803f 2d9c 7f3f 0be3 7e3f 4955 7f3f
000001d0: 100d 7e3f cafd 7e3f 11ec 7f3f f482 7e3f
000001e0: 8a71 7f3f 5abb 7e3f 227a 7d3f 3d45 7f3f
000001f0: cda4 7d3f 9eea 803f 9e9a 7f3f bc52 803f
00000200: 464c 7e3f 7c48 7f3f 20ed 7e3f 2c5c 7e3f
00000210: c31d 803f 03b9 7f3f 3a02 7e3f 4048 7f3f
00000220: ef04 803f b934 7f3f 3199 7f3f bcd6 7e3f
00000230: 7fc5 7e3f 6fff 7e3f 7ffd 7e3f b50a 7d3f
00000240: 360b 7f3f d4bf 7e3f a64f 7d3f ef80 7f3f
00000250: f580 7f3f fe15 7f3f a9d6 7f3f 0158 7f3f
00000260: bc17 7f3f ca7a 7f3f 5cf9 7e3f 2359 7f3f
00000270: 9349 7f3f db14 7f3f c7bd 7e3f 11e0 7e3f
00000280: 10d6 7e3f 7a4a 7e3f 4310 7f3f 391d 7f3f
00000290: 475a 7e3f e7b5 7f3f bb70 7d3f 2955 7e3f
000002a0: 842e 7f3f 5412 7f3f 91db 7d3f d5f5 7e3f
000002b0: fa12 803f 742e 7d3f 1fcf 7f3f bf67 7f3f
000002c0: 1c1b 7f3f 980b 7f3f 1cc8 7f3f 20d5 7e3f
000002d0: 5488 7d3f 59ce 7f3f c486 7d3f 13c2 7f3f
000002e0: c119 7f3f e612 7e3f 96bf 7e3f 0b32 7f3f
000002f0: 8947 7f3f afbf 7f3f 1197 7f3f 7be8 7f3f
00000300: f760 7f3f 7ae4 7f3f 0ea9 7e3f b814 7f3f
00000310: f938 7f3f 1798 7e3f ea07 803f 4844 7f3f
00000320: ce67 7e3f 3fd0 7d3f a960 803f 6014 7f3f
00000330: addb 7e3f 1abe 7e3f de57 7f3f c187 7f3f
00000340: 600c 7f3f 380c 813f 1584 7f3f 936f 7f3f
00000350: 73c4 7f3f a935 7f3f 4990 7f3f 19fc 7e3f
00000360: c9d0 7f3f 4eba 7d3f 613b 7f3f 31c4 7e3f
00000370: 1e52 7f3f 4b0d 813f acfe 7d3f 7b7c 7f3f
00000380: ea66 7f3f 2806 7f3f 3fff 7f3f 3d87 7f3f
00000390: bb9c 7e3f f67d 7e3f f7e1 7e3f 0608 7f3f
000003a0: f062 7d3f a021 803f 338b 7e3f c61c 7d3f
000003b0: f279 7f3f d1c5 7d3f bf46 803f 8c4d 7f3f
000003c0: 2d01 7f3f ff05 803f ae7e 803f 794e 7f3f
000003d0: ab4b 7d3f 9a1b 7f3f 7a2a 7f3f 7dbc 7e3f
000003e0: 9e01 813f 24b0 7e3f 1703 803f 01d9 7e3f
000003f0: b00e 803f beb5 7e3f 4d0a 7e3f a980 7e3f

decoder_net.2.bias f4 [512]
0.0006313154 -0.00078130333 -0.000794798 -0.002625314 0.0023327111 0.001583835 0.00122727 0.000824621
0.0039253873 -0.00017349017 0.00088930054 -0.0011097061 -4.692305e-05 -0.0016683219 0.0017743993 0.0008601196
-0.000665195 0.0006306735 -0.00055720145 -0.0048811566 0.0048088427 -0.0009008968 -0.00084402465 -0.00081954355
0.0014506317 0.0014833098 0.003661906 -0.0010697927 0.0007383785 -0.0030979188 -0.0011045915 -0.00012328914
0.0019418487 -0.0006365016 -0.0019557546 -0.0015919346 0.0012169754 0.00093261094 0.0015062529 -0.0016057013
0.0014551346 0.0013008947 6.244295e-06 7.8131496e-05 0.00014617277 -0.0034013544 0.0024202412 0.002730477
0.00029473638 -0.001236716 -0.0041643134 0.001344905 -0.00210774 -0.0008760102 -0.0015241553 0.0035576494
0.001484839 -7.5345866e-05 -0.00063386606 -0.0005784694 0.0022207745 0.0026332508 0.0011284266 -0.00022276837
0.00016906894 -0.0005061285 0.0024609708 -0.0033034238 -0.00025911976 0.003956241 0.0004049317 -0.0018176234
0.00057295035 0.00035609875 -0.0019398523 0.0044970466 0.00032549197 0.0013090227 -0.00094824634 -0.0009732854
0.0001539374 -0.0008501054 0.0014975006 -8.830277e-05 0.004144739 -0.0009894052 0.0011208564 0.0020698765
0.0018835899 0.0014386682 -0.0002081321 -0.0002478182 0.0017988632 -0.00068867736 0.0017607824 0.00022916598
-0.0015806265 0.0016180723 0.0010972962 0.0016427023 -0.0021013878 -1.8872635e-05 0.0016272472 -0.0022821361
0.0009678473 0.0035423096 0.0020436118 -0.0029354966 -0.0015071093 0.0026002626 -0.0010555397 0.00071117305
0.002338995 -0.0013720135 0.0016954227 -0.0002931218 0.002028644 0.0012398736 -0.00021433347 -0.002200511
-0.00072995725 -0.001318086 0.0020655384 0.00013615994 0.0017546195 0.0004933567 -0.001813098 -0.002689156
-0.001957314 3.4652363e-05 0.0014273929 -0.004966919 0.00080371037 -0.0016800028 0.004888191 5.431938e-05
-0.0030548892 -0.000756846 2.2902772e-05 0.0017627175 0.0003834993 0.0011733371 0.0010979916 -0.0018633492
0.0010725809 0.0016139203 0.0009819786 0.00035899717 -0.00090682163 0.0010464791 0.0013612099 -0.00013751736
0.0006889872 0.0013978032 0.0006852776 -0.0013003922 -0.0016162625 0.0014034666 0.0023223131 0.0017472653
0.001094799 0.00045387316 0.0009939708 0.0006878373 0.002235147 -0.0015908488 0.0012542685 -0.002346247
0.0022352883 0.000753994 -0.0005545483 0.0011476206 -0.0031041487 -0.0019816377 -0.002024922 -0.00090418675
-0.00028013554 0.0011083211 -0.0022554756 0.0018335204 -0.0014900884 0.0007803044 -0.0016648251 -0.0026932464
0.00083423645 0.0048435433 0.0022134548 0.000333782 9.874086e-05 -0.0005730465 -0.001245641 0.0015350477
-0.00020377719 -0.00016429707 -0.001802201 0.000788694 0.0003164408 0.0026094618 0.0027285477 0.00029897963
0.0036248842 0.000366272 0.00011810212 0.00095161726 0.0016101325 0.0022347656 0.001054811 -0.0008772305
0.0012076397 -0.0002703635 -9.185214e-05 -0.00071999757 -0.0013437276 0.00032450233 -0.0011840911 -0.004584392
-0.002327279 0.0061387587 0.0003869128 -0.0016468377 -0.00012886783 2.4265511e-05 -0.0039776713 -0.0007396256
0.00012821313 0.0026135459 -0.0029258276 -0.00091358926 0.0026826917 0.0030327586 -0.00053168146 0.00043632768
-0.0027495157 0.00386566 0.00023480052 0.0019456667 -0.0019331163 -0.00070900365 0.007264213 -0.0001797122
0.0012383614 0.0008563627 2.1547508e-05 0.0009362224 0.0004381083 0.0008484789 0.0003215951 0.0037744285
0.00084407715 0.0025471658 0.00013930725 0.0018543187 0.0015733934 0.001754071 -0.00014707053 -0.0023504195
00000000: dc7e 253a 61d0 4cba fe59 50ba 760d 2cbb
00000010: 66e0 183b af98 cf3a 59dc a03a 612b 583a
00000020: 89a0 803b eaea 35b9 f31f 693a 8f73 91ba
00000030: 3ecf 44b8 98ab daba f692 e83a a679 613a
00000040: 7b60 2eba c853 253a 2811 12ba 1cf2 9fbb
00000050: 7f93 9d3b 292a 6cba 8941 5dba a3d6 56ba
00000060: 1f23 be3a 9e6b c23a 97fc 6f3b 4938 8cba
00000070: be8f 413a 7406 4bbb f1c7 90ba 2d47 01b9
00000080: a185 fe3a e6da 26ba 1e2c 00bb 76a8 d0ba
00000090: eb82 9f3a 767a 743a 766d c53a 6576 d2ba
000000a0: 37ba be3a c882 aa3a 1686 d136 87da a338
000000b0: f445 1939 42e9 5ebb e99c 1e3b cdf1 323b
000000c0: d986 9a39 4e19 a2ba cb74 88bb 8647 b03a
000000d0: 0222 0abb 0da4 65ba 2ac6 c7ba 7427 693b
000000e0: ee9e c23a 0103 9eb8 082a 26ba 6da4 17ba
000000f0: 6a8a 113b 9e92 2c3b b7e7 933a ee96 69b9
00000100: 1948 3139 b5ad 04ba 3d48 213b 417e 58bb
00000110: 77da 87b9 5ba3 813b 034d d439 523d eeba
00000120: 0c32 163a c4b2 ba39 a442 feba f65b 933b
00000130: cba6 aa39 8393 ab3a bc93 78ba 1424 7fba
00000140: 426a 2139 9cd9 5eba c847 c43a 302f b9b8
00000150: 97d0 873b eeae 81ba b3e9 923a c4a6 073b
00000160: cae2 f63a b291 bc3a 093e 5ab9 99ed 81b9
00000170: d5c7 eb3a 5b88 34ba 0eca e63a 464c 7039
00000180: 062d cfba 7f15 d43a 27d3 8f3a f14f d73a
00000190: 70b7 09bb ad50 9eb7 5b49 d53a e48f 15bb
000001a0: 22b7 7d3a 1826 683b 1eee 053b 7661 40bb
000001b0: 328a c5ba 2b69 2a3b 095a 8aba 046e 3a3a
000001c0: d349 193b 22d5 b3ba f238 de3a 24ae 99b9
000001d0: 00f3 043b 4183 a23a b4be 60b9 7336 10bb
000001e0: 9a5a 3fba a1c3 acba fc5d 073b 28c6 0e39
000001f0: 43fb e53a 9c54 013a 79a5 edba 8d3c 30bb
00000200: 4846 00bb b157 1138 5c17 bb3a 89c1 a2bb
00000210: 17b0 523a 8a33 dcba 1e2d a03b fdd4 6338
00000220: 8934 48bb 1367 46ba 541f c037 fc0a e73a
00000230: 6810 c939 a9ca 993a 7cea 8f3a a03b f4ba
00000240: d895 8c3a 2e8a d33a bcb5 803a c937 bc39
00000250: c5b7 6dba 032a 893a a06a b23a 8932 10b9
00000260: 269d 343a 7e36 b73a 34a4 333a ec71 aaba
00000270: c5d8 d3ba 86f4 b73a f331 183b 7f04 e53a
00000280: 5c7f 8f3a d3f5 ed39 2048 823a fb4f 343a
00000290: 8b7b 123b 0784 d0ba 4466 a43a 7ec3 19bb
000002a0: ea7d 123b aea7 453a 1b5f 11ba c26b 963a
000002b0: f96e 4bbb 5dde 01bb 8eb4 04bb f206 6dba
000002c0: 28df 92b9 1645 913a 9ad0 13bb bc52 f03a
000002d0: 124f c3ba 588d 4c3a 4336 daba 2d81 30bb
000002e0: a9b0 5a3a 96b6 9e3b 9c0f 113b 76ff ae39
000002f0: 1813 cf38 8038 16ba c744 a3ba a733 c93a
00000300: 06ad 55b9 2947 2cb9 d537 ecba 5cc0 4e3a
00000310: f7e7 a539 8103 2b3b 6fd1 323b 5ec0 9c39
00000320: 778f 6d3b 3208 c039 98ad f738 f475 793a
00000330: 150b d33a 2575 123b 9541 8a3a f1f5 65ba
00000340: aa49 9e3a 93bf 8db9 bea0 c0b8 38be 3cba
00000350: 0420 b0ba f721 aa39 8133 9bba ab38 96bb
00000360: 4385 18bb a427 c93b 8fda ca39 b4da d7ba
00000370: b220 07b9 ca8d cb37 2057 82bb 6fe3 41ba
00000380: f370 0639 0648 2b3b 3ebf 3fbb f07d 6fba
00000390: 19d0 2f3b 3fc1 463b 8a60 0bba e9c2 e439
000003a0: 3831 34bb 0357 7d3b c934 7639 be05 ff3a
000003b0: 9f60 fdba 6edc 39ba a308 ee3b 2071 3cb9
000003c0: 8350 a23a 877d 603a ecc0 b437 d26c 753a
000003d0: e7b1 e539 756c 5e3a c39b a839 675c 773b
000003e0: 0f45 5d3a 5aee 263b 0113 1239 9c0c f33a
000003f0: 523a ce3a dbe8 e53a f236 1ab9 7f09 1abb

decoder_net.3.weight f4 [256, 512]
-0.08019196 0.062012687 -0.022144604 -0.07994211 0.00057536876 -0.028869303 -0.021941736 0.005791198
0.035774082 -0.05668229 -0.08129757 0.07421343 -0.05067945 -0.07575391 -0.0046632253 0.05308105
-0.01013404 -0.045553654 0.079508424 0.05601275 -0.0726481 0.061308604 -0.06888934 0.057532176
0.078106076 0.0360943 0.009335963 0.06492201 0.060554095 -0.016693095 -0.037843466 -0.08072827
0.03863398 -0.05572171 -0.04160471 -0.08356477 0.01652201 0.037095442 -0.063546896 0.059680726
-0.07915212 0.08562881 -0.062685855 0.054364573 0.023063827 0.056814734 0.08463731 -0.08539893
0.08183066 0.07010431 -0.0037769377 -0.059112567 -0.0673991 -0.025096256 0.02750072 0.0067315865
0.050217923 -0.076023646 0.004509425 -0.032388996 -0.012735468 0.07287365 0.04505314 -0.049275644
0.0039012511 0.084695764 -0.042512234 -0.048719708 0.02788996 0.061577726 0.05821522 -0.014132921
0.0011758312 -0.032454472 -0.077051096 -0.036766626 0.01774206 -0.009833262 -0.053733245 -0.049923547
0.031651538 -0.048861988 -0.031287298 0.028530508 -0.012439657 -0.070181504 -0.070479915 -0.014050178
-0.06912944 0.07235896 0.065055095 -0.038643703 -0.002769789 0.034838524 -0.0281374 0.044307675
-0.026649715 -0.05595076 -0.056246057 0.051623054 -0.025782008 -0.068453915 -0.0091248695 0.035477743
-0.05646114 0.05052284 0.011169489 -0.07429954 -0.021522136 -0.0460911 0.0753941 0.047330234
0.07993017 0.02452585 0.07275241 -0.015585614 -0.05257144 -0.036666226 -0.010544663 0.0046312204
-0.028572261 0.005956684 -0.06450384 -0.031630196 -0.01794223 -0.05610999 -0.059349604 0.030643541
0.021169726 0.0066953693 -0.059636552 -0.05690665 -0.0115661565 -0.054842003 0.03759606 0.010733258
0.06730425 0.037604507 0.029069927 0.025240896 0.018733801 0.002967268 0.0025427034 -0.068971425
0.071722634 -0.03211764 -0.02773212 -0.06184273 0.067425705 0.048735518 -0.040785257 0.03326778
-0.03871823 0.08093795 0.08428272 -0.0232794 0.0705626 -0.06462422 0.0016120933 0.01641522
0.007642888 -0.07256367 0.07971998 -0.0018270294 -0.018982265 0.037376784 0.07242919 0.06730665
0.006149207 -0.014011493 -0.0154954605 -0.038338654 0.08140543 -0.04253971 0.052151434 0.016819552
0.08247275 -0.011807681 -0.0358141 -0.02423177 0.08156785 0.03973689 0.0046571232 -0.01579492
-0.07044263 0.0079391645 -0.07154299 -0.08596863 -0.036864683 -0.05993037 -0.00066004664 -0.0096459305
-0.038185984 -0.07073438 0.04845956 0.01668431 -0.033625245 0.0062748813 0.04601765 0.072031
0.0847188 0.073513865 -0.0680089 -0.022650562 -0.0068543754 0.057068504 0.07701916 -0.075245336
-0.026281416 -0.004817016 -0.017807724 0.02281172 -0.011340275 0.08762852 -0.07874223 -0.003880456
0.066063665 0.0100387605 -0.014495826 0.049596358 -0.015709436 0.03869567 -0.026429998 0.054519318
0.056023322 -0.04192792 0.023735376 -0.014272023 -0.060210906 0.075517155 -0.08278861 -0.035002932
-0.07444225 -0.0630876 -0.013546218 0.06562803 -0.018348973 0.042500056 0.07142495 -0.051531713
0.08548273 -0.029687582 0.059993498 -0.009661123 -0.00033611726 -0.009871377 -0.030114377 -0.06826469
-0.049325388 -0.050778564 -0.09114822 0.0266219 -0.0021802674 -0.077083975 -0.045279868 -0.020330988
00000000: af3b a4bd 0401 7e3d 9a68 b5bc b0b8 a3bd
00000010: 58d4 163a 517f ecbc 28bf b3bc 17c4 bd3b
00000020: d887 123d b02b 68bd 577f a6bd 36fd 973d
00000030: 4195 4fbd de24 9bbd f8cd 98bb 846b 593d
00000040: 3f09 26bc 7896 3abd 50d5 a23d a06d 653d
00000050: 87c8 94bd bb1e 7b3d db15 8dbd dca6 6b3d
00000060: 14f6 9f3d 9ed7 133d def5 183c d5f5 843d
00000070: 9207 783d f5bf 88bc c001 1bbd dd54 a5bd
00000080: aa3e 1e3d 733c 64bd b369 2abd 0224 abbd
00000090: 2b59 873c 64f1 173d e024 82bd c773 743d
000000a0: 821a a2bd 285e af3d 7161 80bd 63ad 5e3d
000000b0: 5af0 bc3c 91b6 683d 5356 ad3d a2e5 aebd
000000c0: d596 a73d d992 8f3d 8086 77bb 0520 72bd
000000d0: 8a08 8abd aa96 cdbc 3149 e13c a494 dc3b
000000e0: 4fb1 4d3d 49b2 9bbd ccc3 933b 53aa 04bd
000000f0: 6da8 50bc c83e 953d a489 383d 42d5 49bd
00000100: 22ac 7f3b f974 ad3d 4f21 2ebd 518e 47bd
00000110: 7c79 e43c ed38 7c3d 1573 6e3d c48d 67bc
00000120: 591e 9a3a fbee 04bd f7cc 9dbd 9a98 16bd
00000130: cc57 913c b11b 21bc 6417 5cbd a27c 4cbd
00000140: 0ba5 013d 8223 48bd 1c27 00bd d0b8 e93c
00000150: b4cf 4bbc 52bb 8fbd c657 90bd b832 66bc
00000160: bc93 8dbd ef30 943d 9b3b 853d dc48 1ebd
00000170: 5985 35bb d7b2 0e3d 6880 e6bc f77b 353d
00000180: 8150 dabc a02c 65bd 4462 66bd b272 533d
00000190: ca34 d3bc 9131 8cbd 7a80 15bc 1c51 113d
000001a0: cc43 67bd 0af1 4e3d 3b00 373c 5b2a 98bd
000001b0: 314f b0bc 05ca 3cbd 3968 9a3d 59dd 413d
000001c0: 6eb2 a33d 6fea c83c 37ff 943d ce5a 7fbc
000001d0: 2655 57bd 532f 16bd 86c3 2cbc 7ec1 973b
000001e0: 6010 eabc 4930 c33b 971a 84bd aa8e 01bd
000001f0: 95fb 92bc 97d3 65bd 9218 73bd 2a08 fb3c
00000200: 226c ad3c d464 db3b 7545 74bd f316 69bd
00000210: fa7f 3dbc 02a2 60bd 54fe 193d 8cda 2f3c
00000220: d0d6 893d 2f07 1a3d 0e24 ee3c ffc5 ce3c
00000230: a177 993c 7f76 423b 7ca3 263b e440 8dbd
00000240: 51e3 923d c98d 03bd 792e e3bc cd4e 7dbd
00000250: 7d16 8a3d e59e 473d 710e 27bd cc43 083d
00000260: 0297 1ebd ccc2 a53d 6b9c ac3d 71b4 bebc
00000270: 2083 903d b459 84bd e04c d33a 3679 863c
00000280: 3171 fa3b 439c 94bd 3b44 a33d ef78 efba
00000290: b280 9bbc 6618 193d c155 943d 12d8 893d
000002a0: 497f c93b 7690 65bc ace0 7dbc fe08 1dbd
000002b0: e4b7 a63d 1e3e 2ebd be9c 553d 28c9 893c
000002c0: 79e7 a83d 0175 41bc ceb1 12bd b481 c6bc
000002d0: 0c0d a73d 26c3 223d c89a 983b 5964 81bc
000002e0: 3a44 90bd 4513 023c 2285 92bd 5210 b0bd
000002f0: 6cff 16bd 8c79 75bd fb06 2dba f709 1ebc
00000300: e868 1cbd 30dd 90bd 887d 463d 89ad 883c
00000310: a0ba 09bd 859d cd3b 017d 3c3d fd84 933d
00000320: 0d81 ad3d 708e 963d 4048 8bbd ac8d b9bc
00000330: ab9a e0bb aac0 693d 39bc 9d3d 3a1a 9abd
00000340: 204c d7bc 0fd8 9dbb 81e1 91bc a5df ba3c
00000350: 90cc 39bc 9576 b33d 9b43 a1bd 404f 7ebb
00000360: 634c 873d 9d79 243c e77f 6dbc 8d25 4b3d
00000370: 13b1 80bc 5a7f 1e3d b983 d8bc a64f 5f3d
00000380: b678 653d 9cbc 2bbd b170 c23c 34d5 69bc
00000390: b69f 76bd bda8 9a3d 138d a9bd 3c5f 0fbd
000003a0: 2e75 98bd 1234 81bd f5f0 5dbc fd67 863d
000003b0: 9650 96bc 8a14 2e3d 3f47 923d eb12 53bd
000003c0: 9211 af3d 5f33 f3bc bebb 753d b049 1ebc
000003d0: e538 b0b9 8ebb 21bc 6db2 f6bc 5cce 8bbd
000003e0: 6b09 4abd 2ffd 4fbd ebab babd 2c16 da3c
000003f0: d1e2 0ebb 34de 9dbd 6277 39bd 2c8d a6bc

decoder_net.3.bias f4 [256]
-0.0018191015 0.00071898074 -0.0027532633 0.0013762735 -0.0026627332 -0.00012945745 -0.0020020972 0.0063253446
-0.0027159592 0.0005697258 0.002005409 -0.005504919 -0.0030861313 0.0002260631 -0.003094363 -0.0002701184
0.0012430844 -0.0017251436 -0.002968172 0.0012954769 -0.00051345024 -0.00063595775 -0.0024416556 -0.00328484
-0.0027059768 -0.0017392113 -0.0053116395 -0.004373837 -0.0033945583 -0.0032425616 0.0018522289 -0.0010433685
0.0003074082 -0.0016988713 -0.0022457407 0.0027472517 0.000867607 -0.0025363085 -0.0026942012 -0.0026549604
-0.0052523897 -0.0020454202 0.002573328 -0.0022185529 -0.0026655775 -0.002714976 0.0030392406 -0.00029009016
-0.0005619223 -0.0027067324 -0.0013790404 -0.0017625846 -0.00073485036 -0.003090277 0.0011728016 -0.0032786396
-0.002651521 0.0006396745 -0.002743467 -0.0026658517 -0.0023305537 0.0007794041 -0.0027571525 -0.0026007611
0.0007032298 -0.0026675283 -0.0010093079 -0.0026500477 -0.004568352 -0.0028552073 -7.371632e-05 0.00090770074
-0.0028674535 -0.0026978168 -0.0026671868 -0.0020533747 0.0015259746 -0.0013834563 0.0032299042 -0.00063968095
-0.0047196667 -0.0005752608 -0.0027176028 -0.0026386785 0.0073565566 -0.002632114 -0.002418178 0.0016859918
-0.0027817187 -0.0017214612 0.0019083478 0.00044223748 -0.0030878338 -0.00275533 -0.0009067846 -0.0026568514
-0.002702947 -0.0009857427 0.0019204171 -0.0017927454 -0.0018675472 -0.002684587 -0.00074085087 -0.0027054127
-0.0027180987 0.0015762232 -8.053244e-05 -0.0026818092 -0.003755242 0.0035208699 -0.00075220707 -0.0026266365
-0.0025990065 0.0025492117 -0.0020462193 0.0028782939 -0.002676538 0.0010211885 0.0006092069 -0.0027218945
-0.0033025704 0.0026624629 0.0049451054 -0.0025878288 -0.00095286017 -0.0014881869 0.00028112368 -0.001928272
-0.0012991177 0.0025741677 -0.003796088 -0.0033742578 0.0016293727 -0.004352911 -0.0020876895 0.00083430915
0.0018087617 -0.0017052599 0.0023620038 0.0022477577 0.0026388364 -0.0027304895 0.00045663115 0.0007439763
-0.0026623944 -0.0038500302 -0.00071749213 -0.0026715891 0.002398528 -0.002677112 0.00021209185 -0.0007521076
2.34057e-05 -0.0016094539 -0.0027296292 0.0025391518 0.002067409 0.0035102346 -0.002701776 -0.0017421874
-0.0025663173 -0.0002102563 0.002543595 -0.0026524118 -0.0021140745 -0.0029045923 0.0013380253 -0.0026454597
-0.0027416945 0.007991805 -0.0026742232 -0.0031826217 -0.0026733016 -0.0016208981 -0.0024595042 0.002537854
-0.002322024 -0.0027203895 -0.002699139 0.003727515 -0.002693494 -0.0035640537 0.004542875 -0.0026531399
-0.00018861447 -0.001576982 0.0007606098 -0.0027001174 -0.0024631869 0.0015398418 0.0028241982 -0.0023246359
0.00011436715 -0.0027244792 -0.0012092091 -0.0029720168 -0.0026970436 -0.00040455736 0.0020557672 -0.0027030238
-0.0038780402 -0.0027396684 -0.0029148953 -0.00010653358 0.00030309468 -0.0026789561 -0.0025693951 -0.0027013693
-0.0006977372 -0.0001810747 -0.002376485 -0.005197812 -0.0025693842 -0.004503436 -0.0015219474 -0.0035928695
-0.00277216 -0.0027276997 -0.00020964557 -0.00053932116 0.0030547995 0.0027597202 0.0013878134 -0.002693102
-0.0026872265 -0.0009809302 0.0012438729 -0.00019391411 0.002631017 0.0007858711 -0.0026528798 -0.002888491
0.0020736624 -0.0027001551 -0.0033680552 -0.00017078544 0.00090155925 -0.0027422193 -0.0027524477 -0.00096466014
0.00030511565 -0.002722506 -0.0033714082 -0.0021913047 -0.0014326816 0.0014950244 -0.0027203003 -0.0026748325
0.0013213862 -0.0030024042 -0.0009114134 0.0013535741 -0.0004473262 0.0005929689 0.0011516414 -0.0027038804
00000000: eb6e eeba fb79 3c3a 1870 34bb 1364 b43a
00000010: 4081 2ebb f8be 07b9 9e35 03bb d644 cf3b
00000020: 3cfe 31bb a759 153a 2e6d 033b 9c62 b4bb
00000030: b140 4abb 5a0b 6d39 ccca 4abb ae9e 8db9
00000040: feee a23a 371e e2ba aa85 42bb fecc a93a
00000050: 1099 06ba 67b6 26ba 2f04 20bb 7846 57bb
00000060: c256 31bb 3ff6 e3ba 430d aebb 6752 8fbb
00000070: 3d77 5ebb 2881 54bb 7dc6 f23a a3c1 88ba
00000080: a12b a139 a9ac deba 472d 13bb 3c0b 343b
00000090: 1f70 633a 3238 26bb 3291 30bb d8fe 2dbb
000000a0: 3d1c acbb 750c 06bb 48a5 283b 2465 11bb
000000b0: f8b0 2ebb bded 31bb ff2d 473b 3e17 98b9
000000c0: f84d 13ba 6f63 31bb ebc0 b4ba 8606 e7ba
000000d0: f9a2 40ba 3f86 4abb b1b8 993a 72de 56bb
000000e0: 24c5 2dbb d4af 273a bdcb 33bb 92b5 2ebb
000000f0: 34bc 18bb ec50 4c3a 58b1 34bb 8871 2abb
00000100: f458 383a b3d1 2ebb c14a 84ba 6cac 2dbb
00000110: 1db2 95bb 6e1e 3bbb 2698 9ab8 c4f2 6d3a
00000120: e3eb 3bbb dbcd 30bb f8cb 2ebb e991 06bb
00000130: 3603 c83a 1755 b5ba cdac 533b 43b0 27ba
00000140: 6fa7 9abb 19cd 16ba cf19 32bb aeed 2cbb
00000150: 450f f13b 8c7f 2cbb 4b7a 1ebb 7ffc dc3a
00000160: 7f4d 36bb a7a2 e1ba 8721 fa3a 1cdc e739
00000170: 415d 4abb c492 34bb 49b5 6dba 921e 2ebb
00000180: ed23 31bb 0934 81ba 81b6 fb3a 8efa eaba
00000190: 7cc8 f4ba e5ef 2fbb a935 42ba 4b4d 31bb
000001a0: 2122 32bb 4699 ce3a 86e3 a8b8 4bc1 2fbb
000001b0: 821a 76bb 65be 663b c32f 45ba a623 2cbb
000001c0: 1854 2abb ad10 273b dd19 06bb c2a1 3c3b
000001d0: db68 2fbb 66d9 853a 2fb3 1f3a d061 32bb
000001e0: f06f 58bb b77c 2e3b 8d0a a23b 9098 29bb
000001f0: 5dc9 79ba 440f c3ba c863 9339 12be fcba
00000200: 2847 aaba 5eb3 283b cac7 78bb a722 5dbb
00000210: ad90 d53a dda2 8ebb 9ed1 08bb 8ab5 5a3a
00000220: f913 ed3a 0783 dfba d9cb 1a3b 1e4f 133b
00000230: 54f0 2c3b 03f2 32bb ff67 ef39 6807 433a
00000240: 917b 2ebb ca50 7cbb 1516 3cba d415 2fbb
00000250: 9f30 1d3b 7c72 2fbb f964 5e39 1629 45ba
00000260: 5c57 c437 50f4 d2ba 94e3 32bb e667 263b
00000270: 5e7d 073b f70b 663b 4810 31bb 1c5a e4ba
00000280: a92f 28bb 3f78 5cb9 71b2 263b 16d4 2dbb
00000290: 498c 0abb f95a 3ebb ae60 af3a 735f 2dbb
000002a0: 00ae 33bb 0ff0 023c 0542 2fbb 8893 50bb
000002b0: 8f32 2fbb 5174 d4ba a22f 21bb 2052 263b
000002c0: 192d 18bb 9048 32bb 0ae4 30bb 5349 743b
000002d0: 5585 30bb e692 69bb 66dc 943b 4de0 2dbb
000002e0: d0c6 45b9 bcb2 ceba a963 473a 74f4 30bb
000002f0: 6b6d 21bb 84d4 c93a 2f16 393b eb58 18bb
00000300: 65d8 ef38 2d8d 32bb 537e 9eba 2bc6 42bb
00000310: e2c0 30bb c51a d4b9 0dba 063b 3725 31bb
00000320: b826 7ebb 028c 33bb d407 3fbb c86a dfb8
00000330: aee8 9e39 6d91 2fbb 4c63 28bb 7509 31bb
00000340: 5ae8 36ba dfde 3db9 cdbe 1bbb 6852 aabb
00000350: 1d63 28bb 8f91 93bb 157c c7ba 5976 6bbb
00000360: 21ad 35bb 35c3 32bb 4ed4 5bb9 3b61 0dba
00000370: 0833 483b 6cdc 343b 4ae7 b53a c17e 30bb
00000380: 2e1c 30bb 8e92 80ba 7309 a33a 6c55 4bb9
00000390: 246d 2c3b eb02 4e3a f0db 2dbb d64c 3dbb
000003a0: 48e6 073b 16f5 30bb 97ba 5cbb de14 33b9
000003b0: 9e56 6c3a ceb6 33bb 6962 34bb 3fe1 7cba
000003c0: eef7 9f39 126c 32bb d8f2 5cbb fe9b 0fbb
000003d0: d1c8 bbba b2f4 c33a 1147 32bb 3e4c 2fbb
000003e0: 5d32 ad3a fcc3 44bb ebeb 6eba 696a b13a
000003f0: 1b87 eab9 7871 1b3a acf2 963a 9633 31bb

decoder_net.4.weight f4 [256]
0.9897808 0.99876165 0.99726516 0.99912876 0.99726516 0.996505 0.9946798 1.0038031
0.99726516 0.9962094 0.99809563 0.9936356 0.99243885 1.0008401 0.9896039 0.99499786
1.0008885 0.99455905 0.9967734 0.9983702 0.9939721 0.99394023 0.9965247 0.995708
0.99655783 1.0000067 0.9962955 0.99419487 0.99269766 0.99002886 0.9985029 0.9945936
0.9944114 0.9989181 0.99894255 0.9984383 0.9990649 0.994981 0.99726516 0.99726516
0.9911571 0.99506813 1.0005329 0.998176 0.99726516 0.99726516 1.0007232 0.990572
0.9972801 0.99726516 0.9979334 0.99526435 0.9898691 0.9977526 0.9977653 0.993034
0.9965755 1.0070955 0.99726516 0.99726516 0.9891357 0.9947849 0.9976869 0.99726516
0.9952593 0.99681306 0.99953544 0.99726516 0.99442035 0.99461216 0.99145764 0.9982236
0.9982854 0.99726516 0.99726516 0.99511 0.99730444 0.99153787 0.99872965 0.9955892
0.9844367 0.9950734 0.99726516 0.99726516 1.0071371 0.99726516 0.996518 0.99727666
0.98912823 0.99659383 1.000553 0.9972962 0.99472916 0.99726516 1.0014905 0.99631095
0.99726516 0.99596876 0.99902374 0.99665976 0.9977505 0.99726516 0.9922675 0.99726516
0.99726516 0.99681646 0.99563503 0.99726516 0.9984864 0.99757206 0.992276 0.99726516
0.99726516 0.9977364 1.0009972 0.99975234 0.99726516 0.9984754 1.0006015 0.99726516
0.98936445 0.9980853 1.0015068 0.99735284 0.99416727 0.99467504 0.9941241 0.99828404
0.9967813 0.999605 0.9866218 0.99836683 0.99602634 0.9971961 0.99811286 0.99682915
0.99894065 0.99455225 1.0004745 0.99992055 1.0003626 0.99696255 0.9972482 1.0005916
0.99726516 0.99081945 0.9961057 0.99726516 0.9995343 0.99726516 0.9972718 0.9906805
0.9934729 0.9958071 0.99726516 0.9982491 0.9990104 1.003287 0.99726516 0.99532825
0.99951714 0.99356353 0.9959301 0.99726516 0.9955547 0.9956066 0.99875987 0.99726516
0.99726516 1.0072113 0.99726516 0.9958263 0.99726516 0.994276 0.9988261 0.9996594
1.003021 0.99860805 0.99726516 1.0010123 0.99726516 0.9926558 1.0032762 0.99726516
0.99126923 0.9972667 0.9963252 0.99726516 0.9954635 0.99877906 0.9997519 0.99323857
0.99198353 0.99726516 0.9953042 0.990825 0.99726516 0.99507344 0.9968655 0.99726516
0.99644077 0.99726516 0.99220014 0.9919836 0.99244225 0.99726516 0.99726516 0.99726516
0.99998206 0.99499184 0.99455446 0.9938156 0.9951679 0.99481004 0.9976636 0.99329925
0.99631894 0.99726516 1.0023031 0.9981915 0.99989 1.0003926 0.9981115 0.99726516
0.99726516 0.99474275 0.9979616 0.9934291 0.99764556 0.9966623 0.99726516 0.99527836
0.9961618 0.99726516 0.99614865 0.99453 0.996078 0.99726516 0.9974964 0.9975865
0.9936976 0.99726516 0.9937206 0.9987478 0.99200094 0.9962147 0.99726516 0.99726516
0.9986553 1.0020894 0.9958613 0.9943775 0.99748325 0.99661803 0.9979109 0.99726516
00000000: 4662 7d3f d8ae 7f3f c54c 7f3f e7c6 7f3f
00000010: c54c 7f3f f41a 7f3f 56a3 7e3f 9f7c 803f
00000020: c54c 7f3f 9407 7f3f 3283 7f3f e75e 7e3f
00000030: 7910 7e3f 871b 803f ae56 7d3f 2eb8 7e3f
00000040: 1d1d 803f 6c9b 7e3f 8b2c 7f3f 3095 7f3f
00000050: f574 7e3f de72 7e3f 3e1c 7f3f b8e6 7e3f
00000060: 6a1e 7f3f 3800 803f 390d 7f3f 8e83 7e3f
00000070: 6f21 7e3f 8872 7d3f e39d 7f3f b09d 7e3f
00000080: bf91 7e3f 19b9 7f3f b3ba 7f3f a799 7f3f
00000090: b8c2 7f3f 13b7 7e3f c54c 7f3f c54c 7f3f
000000a0: 79bc 7d3f c9bc 7e3f 7611 803f 7688 7f3f
000000b0: c54c 7f3f c54c 7f3f b317 803f 2096 7d3f
000000c0: c04d 7f3f c54c 7f3f 9078 7f3f a5c9 7e3f
000000d0: 1068 7d3f b76c 7f3f 8c6d 7f3f 7a37 7e3f
000000e0: 921f 7f3f 81e8 803f c54c 7f3f c54c 7f3f
000000f0: ff37 7d3f 39aa 7e3f 6968 7f3f c54c 7f3f
00000100: 50c9 7e3f 242f 7f3f 8ee1 7f3f c54c 7f3f
00000110: 5592 7e3f e79e 7e3f 2bd0 7d3f 958b 7f3f
00000120: a28f 7f3f c54c 7f3f c54c 7f3f 87bf 7e3f
00000130: 584f 7f3f 6dd5 7d3f bfac 7f3f efde 7e3f
00000140: 0b04 7c3f 21bd 7e3f c54c 7f3f c54c 7f3f
00000150: dee9 803f c54c 7f3f ce1b 7f3f 864d 7f3f
00000160: 8237 7d3f c620 7f3f 1f12 803f ce4e 7f3f
00000170: 92a6 7e3f c54c 7f3f d730 803f 3c0e 7f3f
00000180: c54c 7f3f cff7 7e3f 05c0 7f3f 1825 7f3f
00000190: 946c 7f3f c54c 7f3f 3e05 7e3f c54c 7f3f
000001a0: c54c 7f3f 5d2f 7f3f f0e1 7e3f c54c 7f3f
000001b0: ce9c 7f3f e260 7f3f cd05 7e3f c54c 7f3f
000001c0: c54c 7f3f a76b 7f3f ad20 803f c5ef 7f3f
000001d0: c54c 7f3f 159c 7f3f b613 803f c54c 7f3f
000001e0: fd46 7d3f 8582 7f3f 6031 803f 8452 7f3f
000001f0: bf81 7e3f 06a3 7e3f eb7e 7e3f 8b8f 7f3f
00000200: 0f2d 7f3f 1de6 7f3f 3f93 7c3f f894 7f3f
00000210: 95fb 7e3f 3e48 7f3f 5384 7f3f 3230 7f3f
00000220: 93ba 7f3f fa9a 7e3f 8c0f 803f cbfa 7f3f
00000230: e20b 803f f038 7f3f a84b 7f3f 6313 803f
00000240: c54c 7f3f 58a6 7d3f c800 7f3f c54c 7f3f
00000250: 7be1 7f3f c54c 7f3f 344d 7f3f 3d9d 7d3f
00000260: 3d54 7e3f 37ed 7e3f c54c 7f3f 418d 7f3f
00000270: 25bf 7f3f b56b 803f c54c 7f3f d5cd 7e3f
00000280: 5be0 7f3f 2e5a 7e3f 46f5 7e3f c54c 7f3f
00000290: acdc 7e3f 13e0 7e3f baae 7f3f c54c 7f3f
000002a0: c54c 7f3f 4dec 803f c54c 7f3f 79ee 7e3f
000002b0: c54c 7f3f df88 7e3f 11b3 7f3f aee9 7f3f
000002c0: fe62 803f c7a4 7f3f c54c 7f3f 2c21 803f
000002d0: c54c 7f3f b11e 7e3f 5b6b 803f c54c 7f3f
000002e0: d2c3 7d3f df4c 7f3f 2b0f 7f3f c54c 7f3f
000002f0: b2d6 7e3f fcaf 7f3f beef 7f3f e244 7e3f
00000300: a2f2 7d3f c54c 7f3f 42cc 7e3f b5a6 7d3f
00000310: c54c 7f3f 22bd 7e3f 9432 7f3f c54c 7f3f
00000320: be16 7f3f c54c 7f3f d400 7e3f a3f2 7d3f
00000330: b210 7e3f c54c 7f3f c54c 7f3f c54c 7f3f
00000340: d3fe 7f3f c9b7 7e3f 1f9b 7e3f b36a 7e3f
00000350: 53c3 7e3f dfab 7e3f e266 7f3f dc48 7e3f
00000360: c20e 7f3f c54c 7f3f 784b 803f 7a89 7f3f
00000370: cbf8 7f3f dd0c 803f 3c84 7f3f c54c 7f3f
00000380: c54c 7f3f 76a7 7e3f 697a 7f3f 5f51 7e3f
00000390: b365 7f3f 4325 7f3f c54c 7f3f 90ca 7e3f
000003a0: 7604 7f3f c54c 7f3f 9903 7f3f 8599 7e3f
000003b0: f8fe 7e3f c54c 7f3f ed5b 7f3f d461 7f3f
000003c0: f762 7e3f c54c 7f3f 7964 7e3f f0ad 7f3f
000003d0: c6f3 7d3f ed07 7f3f c54c 7f3f c54c 7f3f
000003e0: e0a7 7f3f 7744 803f c4f0 7e3f 868f 7e3f
000003f0: 105b 7f3f 5c22 7f3f 1777 7f3f c54c 7f3f

decoder_net.4.bias f4 [256]
-0.0019133349 0.001078449 0.0 0.0017188999 0.0 0.00055035844 -0.0022691286 0.007400424
0.0 0.0003284396 0.0025245165 -0.0064950036 -0.0036379716 0.0007928225 -0.0033060778 -0.0006395598
0.002065627 -0.001522846 -0.0031790214 0.0017740972 -0.0003631745 -0.0009310649 -0.00059169665 -0.002903963
-0.0030098322 -0.0006840276 0.0020783565 -0.005296749 -0.0036998538 -0.003977209 0.0017807335 -0.001553795
0.00036434617 -0.0009253705 0.0022991183 0.0029191244 0.0005917716 -0.0031057189 0.0 0.0
-0.0057644937 -0.002536206 0.0023405072 0.0024403895 0.0 0.0 0.004561538 -9.6360876e-05
-0.00097045576 0.0 -0.001814884 -0.0020625445 -0.0008836911 -0.0038428705 0.0011119717 -0.0030415792
-0.0007722817 0.0012971418 0.0 0.0 -0.0033599476 0.0013383249 -9.944636e-05 0.0
0.00034301137 -0.0005129233 -0.0016762535 0.0 -0.0053818407 -0.002692629 -2.6567755e-05 0.0013454766
0.0011578766 0.0 0.0 -0.0027181727 0.0018448994 -0.0015985303 0.0039665974 -0.0011022264
0.00075844926 -0.0008438768 0.0 0.0 0.009531336 0.0 -0.0010540433 0.0016403671
0.00056881766 -0.000888228 0.0024884092 0.0010956648 -0.003699317 0.0 0.00017432222 -0.0029721046
0.0 -0.00027062988 0.0027931607 -0.0014283814 0.0026658657 0.0 -0.00028614723 0.0
0.0 0.0013922598 5.7289017e-05 0.0 -0.003486982 0.0051506953 -0.0010840398 0.0
0.0 0.0028043343 -0.0008908827 0.0034578156 0.0 0.0008115431 0.0011934034 0.0
-0.00986415 0.0025781766 0.005005001 -0.00319297 -0.0009831464 -0.0017404144 0.00013471796 -0.001143242
-0.0019243193 0.0041453233 -0.0033820162 -0.002510979 0.0020960888 -0.0044514267 -0.0012468956 0.0006586456
0.002584663 -0.001546513 0.003154473 0.002114147 0.0031533989 6.0975937e-05 0.001012199 0.0013540703
0.0 -0.0063505443 -0.00041416 0.0 0.0033106124 0.0 0.00061447435 -0.00034096857
0.00024809793 -0.0014155331 0.0 0.003279479 0.0022039474 0.0047227554 0.0 -0.002352696
-0.0033786031 -0.0006393315 0.0030884817 0.0 -0.0018383167 -0.0030643921 0.0018568531 0.0
0.0 0.009518216 0.0 0.00017734064 0.0 -0.0014222492 0.0012270405 0.0033188541
0.0049714595 0.002605467 0.0 0.004288122 0.0 -0.00470603 0.005365029 0.0
-0.0001978105 -0.0024913487 0.001425661 0.0 -0.0033005713 0.0013532372 0.0035179486 -0.0020163758
0.00060439116 0.0 -0.0010277958 -0.0028052595 0.0 -0.00035480005 0.0022048047 0.0
-0.00472617 0.0 -0.00459567 3.611862e-05 -0.00018137773 0.0 0.0 0.0
-0.00027535978 0.00030008043 -0.0028663538 -0.006964441 -0.0036113297 -0.0054758 -0.0015515208 -0.0013582743
-0.0009323708 0.0 0.00025047892 0.0003121143 0.0029491147 0.003023187 0.001926219 0.0
0.0 -0.0012639374 0.001603934 -0.00026744173 0.0035766717 0.0008160998 0.0 -0.0038523872
0.0027937258 0.0 -0.0036257259 -0.0006264201 0.001496045 0.0 -0.0029455894 -0.0015723177
-0.00033820802 0.0 -0.004234612 -0.0019875597 -0.0022367232 0.0019450951 0.0 0.0
0.0027822761 -0.0024148186 -0.00076146686 0.0011608928 -0.00076220214 0.00031080877 0.0008737252 0.0
00000000: dec8 faba be5a 8d3a 0000 0000 b64c e13a
00000010: 0000 0000 ee45 103a a9b5 14bb 427f f23b
00000020: 0000 0000 6b32 ac39 5c72 253b 0ad4 d4bb
00000030: 096b 6ebb 6bd5 4f3a c8aa 58bb 22a8 27ba
00000040: 785f 073b 3c9a c7ba 2157 50bb d388 e83a
00000050: 7568 beb9 b512 74ba 171c 1bba 6a50 3ebb
00000060: 9b40 45bb 5150 33ba 0935 083b 5a90 adbb
00000070: 3f79 72bb 3f53 82bb 8067 e93a b5a8 cbba
00000080: b705 bf39 9094 72ba ceac 163b c84e 3f3b
00000090: 1f21 1b3a 5189 4bbb 0000 0000 0000 0000
000000a0: 14e4 bcbb 7a36 26bb 3263 193b f1ee 1f3b
000000b0: 0000 0000 0000 0000 f478 953b 5a15 cab8
000000c0: 2f66 7eba 0000 0000 67e1 edba c12b 07bb
000000d0: 81a7 67ba abd8 7bbb 94bf 913a 3b55 47bb
000000e0: f372 4aba db04 aa3a 0000 0000 0000 0000
000000f0: 9132 5cbb bb6a af3a dc8d d0b8 0000 0000
00000100: 35d6 b339 b375 06ba bcb5 dbba 0000 0000
00000110: 275a b0bb d176 30bb d2dd deb7 b45a b03a
00000120: e4c3 973a 0000 0000 0000 0000 5f23 32bb
00000130: 8dd0 f13a c785 d1ba 3bfa 813b 9578 90ba
00000140: abd2 463a 9d37 5dba 0000 0000 0000 0000
00000150: 5229 1c3c 0000 0000 d327 8aba 9601 d73a
00000160: b51c 153a f9d7 68ba 9414 233b 699c 8f3a
00000170: 3e70 72bb 0000 0000 44ca 3639 a4c7 42bb
00000180: 0000 0000 54e3 8db9 760d 373b 8738 bbba
00000190: ceb5 2e3b 0000 0000 0806 96b9 0000 0000
000001a0: 0000 0000 7d7c b63a 9d49 7038 0000 0000
000001b0: da85 64bb 2ac7 a83b 5716 8eba 0000 0000
000001c0: 0000 0000 ecc8 373b 208a 69ba 859c 623b
000001d0: 0000 0000 bcbd 543a f96b 9c3a 0000 0000
000001e0: 3e9d 21bc a0f6 283b fe00 a43b 2641 51bb
000001f0: ebdc 80ba 9e1e e4ba 1443 0d39 d6d8 95ba
00000200: 7139 fcba 7ed5 873b d1a4 5dbb 3d8f 24bb
00000210: 895e 093b 46dd 91bb e06e a3ba f5a8 2c3a
00000220: 7363 293b 5eb4 caba 46bb 4e3b 808d 0a3b
00000230: 41a9 4e3b 6ac0 7f38 c3ab 843a 0f7b b13a
00000240: 0000 0000 3a18 d0bb 9d23 d9b9 0000 0000
00000250: dcf6 583b 0000 0000 ad14 213a 07c4 b2b9
00000260: 2413 8239 6989 b9ba 0000 0000 87ec 563b
00000270: 1a70 103b 58c1 9a3b 0000 0000 b02f 1abb
00000280: 8e6b 5dbb d098 27ba 2068 4a3b 0000 0000
00000290: acf3 f0ba f8d3 48bb a761 f33a 0000 0000
000002a0: 0000 0000 4bf2 1b3c 0000 0000 84f4 3939
000002b0: 0000 0000 c46a baba a6d4 a03a 2281 593b
000002c0: a0e7 a23b 7cc0 2a3b 0000 0000 6083 8c3b
000002d0: 0000 0000 0a35 9abb 20cd af3b 0000 0000
000002e0: 5a6b 4fb9 e545 23bb 3fdd ba3a 0000 0000
000002f0: 664e 58bb 1b5f b13a 628d 663b 2c25 04bb
00000300: 0170 1e3a 0000 0000 1bb7 86ba 72d8 37bb
00000310: 0000 0000 7504 bab9 7c7e 103b 0000 0000
00000320: fddd 9abb 0000 0000 4697 96bb 137e 1738
00000330: 3730 3eb9 0000 0000 0000 0000 0000 0000
00000340: 2a5e 90b9 1d54 9d39 70d9 3bbb f735 e4bb
00000350: 0fac 6cbb 576e b3bb 665c cbba 1f08 b2ba
00000360: 586a 74ba 0000 0000 b652 8339 46a3 a339
00000370: ef45 413b a920 463b 2f79 fc3a 0000 0000
00000380: 0000 0000 b4aa a5ba 183b d23a 6c37 8cb9
00000390: 9866 6a3b 88ef 553a 0000 0000 5578 7cbb
000003a0: f116 373b 0000 0000 969d 6dbb 5736 24ba
000003b0: f116 c43a 0000 0000 ca0a 41bb 3a16 ceba
000003c0: 8351 b1b9 0000 0000 80c2 8abb b841 02bb
000003d0: fd95 12bb 90f2 fe3a 0000 0000 0000 0000
000003e0: d956 363b ef41 1ebb 2d9d 47ba 1929 983a
000003f0: 85ce 47ba 0cf4 a239 b50a 653a 0000 0000
