Value_Net.pt (torch, 54354 bytes, 11 tensors)

decoder_net.0.weight f4 [32, 255]
0	0x3d2d679a	0.04233513
1	0xbec7755d	-0.3895673
2	0x3e3e1898	0.1856407
3	0xbd9acc03	-0.075584434
4	0x3e4dd47e	0.2010059
5	0xbed36c43	-0.41293535
6	0x3eb42a95	0.35188738
7	0xbd8892c7	-0.066686206
8	0xbecbef1c	-0.39830863
9	0xbeade8fe	-0.3396682
10	0xbed9f67b	-0.42570862
11	0x3e2bad37	0.16765295
12	0x3ee28b5a	0.44246942
13	0x3e61305f	0.21991108
14	0x3ee4d178	0.44691062
15	0xbd0f7e8c	-0.035032794
16	0x3e120636	0.14260182
17	0xbc154c03	-0.009112361
18	0x3e6ee232	0.23328474
19	0x3ec16305	0.37770858
20	0x3de534f0	0.11191738
21	0x3e9d3311	0.30703023
22	0xbeebbdef	-0.46043345
23	0xbe36467d	-0.17800327
24	0x3d97759f	0.07395481
25	0xbeca3bf2	-0.3949886
26	0xbe870afa	-0.26375562
27	0x3d73c282	0.05951167
28	0x3ee3e32d	0.4450926
29	0xbed4f107	-0.4159014
30	0x3ddccfb1	0.107818015
31	0x3f001f40	0.50047684
32	0xbe4556ac	-0.19271344
33	0xbed0541e	-0.40689176
34	0x3eb2ca04	0.3491975
35	0xbe5d85d3	-0.21633081
36	0xbeabe6e0	-0.3357458
37	0xbe49604b	-0.19665639
38	0x3e4d8ea8	0.2007395
39	0xbd6d1dc8	-0.05788973
40	0x3e698600	0.22805023
41	0xbe904e9d	-0.28184977
42	0x3d12a93f	0.035805937
43	0x3eaceaf2	0.33773
44	0xbdefeffa	-0.11715694
45	0xbdfa1cbe	-0.122125134
46	0xbef85cae	-0.4850821
47	0x3ee6e2bf	0.4509487
48	0xbe8662b6	-0.26247185
49	0x3c43be98	0.011947297
50	0xbea8ba42	-0.32954603
51	0xbeacb455	-0.33731332
52	0x3ec00da9	0.37510422
53	0xbee70b96	-0.45126027
54	0x3ee58e3d	0.44835082
55	0xbf004ed1	-0.50120264
56	0x3e37a8c5	0.17935474
57	0x3e925491	0.28580144
58	0x3b9e1f9f	0.004825547
59	0x3e96be6c	0.29442155
60	0xbe97a0d0	-0.29614878
61	0x3d1c39a7	0.03814092
62	0x3d8f8ce3	0.07009294
63	0x3c839885	0.016063938
64	0x3e2ed712	0.1707423
65	0x3ea4b830	0.32171774
66	0xbe68c16f	-0.22730039
67	0x3deb4558	0.11487836
68	0xbd90ce51	-0.07070602
69	0xbd34fdb6	-0.04418727
70	0xbe8ce65f	-0.2751951
71	0xbeaedd79	-0.34153345
72	0x3ec88027	0.39160272
73	0xbea70ecb	-0.32628474
74	0x3cf268eb	0.029591044
75	0x3f0098f7	0.50233406
76	0x3ee46e78	0.4461553
77	0xbed7f43d	-0.42178527
78	0xbe27f4b3	-0.16401939
79	0x3e59a231	0.21253277
80	0x3ef5769c	0.47942054
81	0xbd14cfe0	-0.036331058
82	0xbe2be9aa	-0.16788355
83	0xbec83b8c	-0.3910793
84	0x3e31f5e2	0.17378953
85	0xbcefd009	-0.029274004
86	0xbeb03e5a	-0.3442257
87	0xbf02ded9	-0.5112129
88	0x3ca0b0ed	0.019615615
89	0x3ef0f5d8	0.47062564
90	0xbe1b1782	-0.15145686
91	0x3e0def52	0.13860825
92	0x3ef12dfe	0.47105402
93	0x3e445459	0.19172801
94	0xbe73e068	-0.23816073
95	0xbd2b34c0	-0.041798353
96	0x3ea1b24d	0.31581345
97	0xbe7f4754	-0.24929553
98	0x3e8eff3e	0.2792911
99	0x3ea9dd04	0.33176434
100	0xbdcd09a4	-0.100116044
101	0x3e3182ed	0.173351
102	0x3ee21595	0.4415709
103	0x3ec0fb08	0.37691522
104	0x3ebf5938	0.37372756
105	0xbd557e49	-0.052122388
106	0x3ef2fe82	0.474598
107	0x3d482bb5	0.048869807
108	0x3c89aae2	0.016805116
109	0x3e1810ca	0.14850155
110	0x3eda791f	0.42670533
111	0x3eafcd11	0.3433614
112	0xbce3d989	-0.02781369
113	0x3dd473a8	0.10373622
114	0xbecc582a	-0.39911014
115	0x3ec66b7e	0.38753885
116	0xbe547064	-0.20745999
117	0xbd3048d7	-0.043038215
118	0x3d1deef7	0.038557973
119	0xbe1ee9e2	-0.15518907
120	0xbe4cf936	-0.20016941
121	0x3e10ed32	0.14152983
122	0x3ed0bc17	0.407685
123	0xbeb2786b	-0.34857497
124	0x3daca041	0.084290035
125	0x3d05f7b0	0.032706916
126	0x3edb04c4	0.42777073
127	0xbed40b5f	-0.41414925
128	0xbe30d6de	-0.17269465
129	0xbe44a3fc	-0.1920318
130	0xbe97a176	-0.29615372
131	0x3eaf142b	0.34195074
132	0x3ee1bfcb	0.4409164
133	0x3e1e75b6	0.1547459
134	0xbe768cc4	-0.24077135
135	0xbeb2bea5	-0.34911075
136	0x3ee8b414	0.4544989
137	0xbdd0162d	-0.1016048
138	0xbc92aaa9	-0.017903643
139	0x3ef4065f	0.4766111
140	0x3e908d78	0.28232932
141	0x3e79bf3b	0.24389355
142	0xbd959098	-0.0730297
143	0xbe134cff	-0.1438484
144	0x3e1b6b6a	0.15177694
145	0xbd8a05ea	-0.06739409
146	0xbed22471	-0.41043428
147	0x3d80e610	0.06293881
148	0x3ec2d5dd	0.3805379
149	0x3ec4443a	0.38333303
150	0x3e9ade5e	0.30247778
151	0xbe1e5986	-0.15463838
152	0xbde08cd4	-0.10964361
153	0x3e780059	0.24218883
154	0xbeda8ded	-0.42686406
155	0xbe989317	-0.2979972
156	0x3e15ebd4	0.14640743
157	0xbebf8a90	-0.37410402
158	0xbde2a04e	-0.11065732
159	0x3e566593	0.20937185
160	0xbec09115	-0.3761069
161	0xbe2abc4f	-0.16673397
162	0x3ec58f99	0.3858612
163	0xbe89c4a9	-0.26907852
164	0xbd1a2239	-0.037630294
165	0x3ede1f7b	0.43383393
166	0xbe0037e6	-0.12521324
167	0x3edf3093	0.43591747
168	0x3e1c4b60	0.15263128
169	0x3eb8f4f9	0.361244
170	0xbe0533bc	-0.13008016
171	0x3dac8e60	0.084255934
172	0x3e8e85a8	0.27836347
173	0x3e5ef0c4	0.21771532
174	0x3e97003a	0.2949236
175	0xbed5cbf5	-0.4175717
176	0x3e4bdfdd	0.19909616
177	0xbeeeefda	-0.46667367
178	0x3db79436	0.08963816
179	0x3e1895ff	0.14900969
180	0xbe998273	-0.29982337
181	0x3ea9de1a	0.33177263
182	0xbed5beb8	-0.4174707
183	0x3e7131c2	0.23554137
184	0x3eca5112	0.39514977
185	0xbd422c35	-0.04740544
186	0xbeedc229	-0.46437195
187	0xbe7135a7	-0.23555623
188	0xbe6e45ea	-0.23268858
189	0x3ed872a6	0.4227497
190	0xbdd7e32f	-0.10541379
191	0x3ef89b96	0.48556203
192	0xbe9ea4ee	-0.30985206
193	0xbec14d56	-0.37754315
194	0xbe90e5a6	-0.28300208
195	0x3f00b41c	0.50274825
196	0xbe2f2fd0	-0.17108083
197	0xbe8a2ec0	-0.26988792
198	0x3e1dc3a6	0.15406665
199	0x3ed077a1	0.4071627
200	0xbee0456b	-0.43802962
201	0x3e64f2f2	0.22358301
202	0xbdb62d82	-0.08895399
203	0xbe03bc3e	-0.12864777
204	0xbe87ddef	-0.2653651
205	0x3e7244d0	0.23659062
206	0x3e0fdba6	0.14048633
207	0x3ecfa756	0.40557355
208	0xbe9bda7d	-0.3044013
209	0x3e6ddef2	0.23229578
210	0x3e4c5338	0.1995362
211	0xbeec8a89	-0.46199444
212	0x3d0420de	0.032257907
213	0x3eed6e1e	0.46373075
214	0x3eb72eee	0.35777992
215	0xbec1a6e7	-0.3782265
216	0xbed782d2	-0.42091995
217	0xbe89f73e	-0.26946443
218	0x3f008b25	0.5021232
219	0xbe85c291	-0.26125005
220	0xbe3bdff5	-0.18347152
221	0xbeed2b2a	-0.46321994
222	0x3e089048	0.13336289
223	0xbe40b940	-0.18820667
224	0x3ef94bfb	0.4869078
225	0xbe86333d	-0.26210967
226	0xbe4cecf7	-0.2001227
227	0xbea71ae7	-0.32637712
228	0x3e8f6852	0.28009278
229	0xbebbeb72	-0.36703068
230	0x3e1e12b5	0.15436824
231	0x3ea7d782	0.32781607
232	0x3eda392e	0.4262175
233	0x3e74117f	0.23834799
234	0xbee611dc	-0.449355
235	0x3ec6527d	0.3873481
236	0xbe915c11	-0.28390554
237	0x3f020b26	0.5079826
238	0x3eb052a4	0.3443805
239	0xbeae2ee5	-0.34020153
240	0xbe3c81f4	-0.18408948
241	0x3ea5c35a	0.32375604
242	0x3e0801e4	0.13281971
243	0xbe09a045	-0.13440044
244	0x3e0d9490	0.13826203
245	0xbec273c0	-0.37978935
246	0x3e1574cc	0.14595336
247	0xbdc552a7	-0.09634905
248	0xbe37644f	-0.17909358
249	0x3db8faa2	0.090321794
250	0xbcccae54	-0.02498547
251	0x3eeb5b70	0.459682
252	0x3d4b8855	0.049690563
253	0xbbf2dc4c	-0.0074115153
254	0x3e7544db	0.23952048
255	0xbeadd310	-0.3395009

decoder_net.0.bias f4 [32]
0	0xbca7d32a	-0.020486433
1	0xbd1e9b28	-0.038722187
2	0x3d3a71af	0.045518573
3	0x3d16c63a	0.036810137
4	0xbccd7b4a	-0.025083203
5	0x3d5afd95	0.05346449
6	0x3c7539b4	0.014967371
7	0x3c85ba06	0.016324054
8	0xbca67a83	-0.02032209
9	0xbcb05d16	-0.021528762
10	0x3d5dfb61	0.05419481
11	0x3d20c6cf	0.0392521
12	0x3d2a99d7	0.04165062
13	0xbcb402f8	-0.021974072
14	0xbc68c099	-0.014206075
15	0x3cc17b07	0.023618234
16	0x3c983f56	0.018584888
17	0xbc65eda2	-0.014033707
18	0xbd021dcb	-0.031766694
19	0xbd4becab	-0.04978625
20	0xbd4f47d3	-0.050605606
21	0xbcec69a4	-0.028858967
22	0x3cef9204	0.02924443
23	0xbcecaad4	-0.028890051
24	0x3c9fb79b	0.01949673
25	0xbd3287ab	-0.043586414
26	0xbb8e7e47	-0.0043485495
27	0xbcfce972	-0.030873034
28	0xbd008ee7	-0.031386282
29	0x3d2d6838	0.04233572
30	0x3be2d866	0.0069227694
31	0x3d634a1a	0.05549059

decoder_net.2.weight f4 [32, 32]
0	0xbdb91743	-0.0903764
1	0xbeafb824	-0.34320176
2	0xbea51272	-0.32240635
3	0xbdfa1ae4	-0.1221216
4	0x3d0601e4	0.032716647
5	0xbeab295e	-0.33429998
6	0x3ea17bb5	0.31539693
7	0xbeb304df	-0.34964654
8	0xbd9a3304	-0.07529262
9	0xbefac0ea	-0.48975307
10	0xbec06e7c	-0.37584293
11	0x3ec29d96	0.38010854
12	0x3ed33689	0.41252545
13	0x3ec88e59	0.39171103
14	0x3ee3417e	0.44385904
15	0x3ecf182d	0.40448132
16	0x3ec18477	0.37796375
17	0xbeced079	-0.40393427
18	0xbe9657a3	-0.29363737
19	0xbe515e8d	-0.20446225
20	0xbed8cc85	-0.42343536
21	0xbe2a5e5c	-0.16637558
22	0xbef82fd5	-0.48473993
23	0xbdcc76db	-0.099836074
24	0xbe4f573f	-0.20248125
25	0x3d1e089e	0.038582437
26	0x3d9f3c1f	0.07775139
27	0x3efad6f0	0.4899211
28	0x3e6b4617	0.22975956
29	0xbe945d2a	-0.2897733
30	0x3ef82adf	0.48470208
31	0xbe9ff702	-0.3124314
32	0xbebde9bf	-0.37092397
33	0xbdcca71d	-0.09992812
34	0x3ea2fc8a	0.31833297
35	0xbe4feaea	-0.20304456
36	0x3d9a060c	0.075206846
37	0xbec7363b	-0.38908562
38	0xbef3ab13	-0.47591457
39	0x3e027fca	0.1274406
40	0x3e0accb1	0.13554646
41	0x3eac00be	0.33594316
42	0x3d4cbe94	0.049986437
43	0xbec141b8	-0.37745452
44	0xbee52878	-0.44757438
45	0xbefd8854	-0.49518073
46	0x3eec907f	0.46203992
47	0xbdf2704a	-0.11837824
48	0x3eb5c2b1	0.355001
49	0xbeb0499e	-0.34431165
50	0xbebb508b	-0.36584887
51	0x3ea6799b	0.32514653
52	0xbe564f0c	-0.20928591
53	0x3e0843e6	0.13307151
54	0x3ed98f49	0.4249213
55	0xbe530f5d	-0.2061133
56	0x3e712ee5	0.23553045
57	0xbdb5fbc5	-0.08885912
58	0xbe571a51	-0.21006133
59	0x3d973e86	0.07384972
60	0xbdd1b8c2	-0.10240318
61	0x3e69ca59	0.22831096
62	0x3ed0daf0	0.40792036
63	0x3eab8b5e	0.33504766
64	0xbe35614c	-0.17712897
65	0x3e2af5f9	0.16695394
66	0x3ef62331	0.48073724
67	0x3cebb364	0.028772064
68	0x3e8eeeaa	0.2791646
69	0x3eff8ae8	0.49910665
70	0xbef9f22b	-0.48817572
71	0x3d7197ba	0.05898259
72	0xbeaaab7f	-0.33333966
73	0x3e1e6c86	0.15471086
74	0x3e8ee9af	0.2791266
75	0xbeb68d8b	-0.35654864
76	0xbe4a6a61	-0.19767143
77	0x3ec40761	0.3828688
78	0xbe35f19f	-0.17767952
79	0x3e80c635	0.2515122
80	0x3e471c7e	0.19444463
81	0xbea92733	-0.3303772
82	0xbe8a9996	-0.27070302
83	0xbea2faf6	-0.31832093
84	0xbd854212	-0.065067425
85	0xbeb5361a	-0.3539284
86	0xbd9b6079	-0.0758676
87	0x3e4ae1ba	0.1981267
88	0x3ebd36ce	0.36955875
89	0xbc34e12a	-0.011040011
90	0x3e9b7aa3	0.30367002
91	0x3dae6e08	0.085170805
92	0x3ecf89aa	0.40534717
93	0xbec9966b	-0.39372572
94	0x3e7ed9f9	0.24887837
95	0xbc122fa1	-0.008922488
96	0x3e598c39	0.21244897
97	0xbef70678	-0.48247123
98	0xbe087ec5	-0.13329609
99	0xbbb37690	-0.0054767802
100	0x3e8fd924	0.28095353
101	0xbd63a038	-0.05557272
102	0xbc6311f1	-0.013859258
103	0xbcb19304	-0.021676548
104	0xbd9cb44d	-0.07651577
105	0xbed7e4af	-0.4216666
106	0x3ea689c8	0.32526994
107	0xbed009a0	-0.40632343
108	0xbefaca5d	-0.48982516
109	0xbef1fc84	-0.47262967
110	0xbe10e122	-0.14148381
111	0xbecf6ce9	-0.4051278
112	0xbeeb9b07	-0.46016714
113	0x3eaa5098	0.33264613
114	0xbe39dd18	-0.18150747
115	0xbe6d1eb3	-0.23156242
116	0xbe7e1cf3	-0.24815731
117	0x3e34cea1	0.17656948
118	0x3d152771	0.036414567
119	0x3e9b5295	0.30336443
120	0x3da5fc1e	0.08104728
121	0xbcd55cc2	-0.026045207
122	0x3e32742c	0.17427129
123	0x3e979579	0.29606226
124	0xbef8c871	-0.48590425
125	0xbee505b2	-0.44730908
126	0xbc4ead9c	-0.012614634
127	0xbe3913b7	-0.18073927
128	0xbe2b636f	-0.1673715
129	0xbd459c47	-0.04824474
130	0x3d105cd7	0.03524479
131	0x3eeafd18	0.4589622
132	0x3e0b8635	0.13625415
133	0xbe2f7f0c	-0.17138308
134	0xbacd855d	-0.0015680004
135	0x3e915a7f	0.28389356
136	0xbef01965	-0.46894374
137	0xbea15944	-0.31513417
138	0xbeebabb7	-0.46029446
139	0xbe4068d2	-0.18789986
140	0xbecac7ab	-0.3960546
141	0x3e8731f1	0.2640529
142	0x3dc91c5c	0.09819862
143	0xbde453bc	-0.111487836
144	0x3e8f6d8a	0.2801326
145	0xbe9f8d31	-0.31162408
146	0xbeb779ca	-0.35835105
147	0x3ed00a19	0.40632704
148	0x3f03dc6d	0.5150822
149	0xbe9b96cd	-0.3038849
150	0x3ccb13e3	0.024789756
151	0xbd4dfc7a	-0.05028961
152	0xbe100c11	-0.14067103
153	0x3d817c4e	0.06322537
154	0xbca507dc	-0.02014535
155	0xbe8af365	-0.2713882
156	0x3e9f0a69	0.3106263
157	0xbe9b806a	-0.3037141
158	0x3e8a80f1	0.270515
159	0xbefcd4a3	-0.4938098
160	0xbe9df737	-0.30852672
161	0x3da74bd6	0.081687614
162	0xbe9be9ca	-0.30451804
163	0xbec8f637	-0.39250347
164	0xbd723ac1	-0.059138063
165	0x3ed1949f	0.409337
166	0x3e9fb7d5	0.3119494
167	0xbba192b3	-0.004930818
168	0xbe92ef44	-0.2869817
169	0xbe760079	-0.24023618
170	0xbee63a44	-0.44966328
171	0xbef8db60	-0.4860487
172	0xbdce0d44	-0.10061124
173	0xbed089a2	-0.40730006
174	0x3d48e79d	0.04904901
175	0xbe4a8c7c	-0.19780153
176	0x3ec9bc49	0.39401463
177	0x3e5d3ca8	0.2160517
178	0xbe145724	-0.14486367
179	0x3efc8227	0.49318048
180	0x3e4d8926	0.20071849
181	0xbe36f797	-0.17867886
182	0x3e15e6f7	0.14638887
183	0xbef0329b	-0.4691361
184	0x3d1d4be5	0.038402457
185	0xbef76810	-0.4832158
186	0xbecb4abc	-0.39705455
187	0x3ea89267	0.32924196
188	0x3cb2c9be	0.021824714
189	0x3e8f9c5e	0.28048986
190	0xbe43053f	-0.1904497
191	0xbef54b2c	-0.47908914
192	0xbeb4bf8c	-0.3530239
193	0x3e539313	0.20661573
194	0x3f014461	0.5049496
195	0x3c399a31	0.011328266
196	0x3e8c995c	0.27460754
197	0xbe75a341	-0.23988058
198	0x3eeb7f82	0.45995718
199	0xbb485dd3	-0.0030573502
200	0xbeb9104b	-0.36145243
201	0x3e71f1c9	0.2362739
202	0xbdd76fe4	-0.10519388
203	0x3d26c178	0.04071185
204	0xbea84303	-0.32863626
205	0x3d1f7f93	0.038940024
206	0x3be0bb2a	0.006858249
207	0xbc0c12ba	-0.008549387
208	0x3ce7955b	0.02826946
209	0xbe890701	-0.26763156
210	0x3dd13506	0.102151915
211	0x3e03cad9	0.12870349
212	0x3ed9f08d	0.42566338
213	0x3e311f28	0.17297041
214	0xbe8a26c2	-0.26982695
215	0x3d6feaa4	0.05857338
216	0xbe0afc8a	-0.13572899
217	0x3d7e2f0f	0.062056597
218	0xbefedf44	-0.49779713
219	0x3d6db766	0.05803623
220	0xbeef8a42	-0.4678517
221	0xbea87664	-0.32902825
222	0xbe7eaeb0	-0.24871325
223	0xbebcfa29	-0.36909607
224	0xbe893763	-0.2680007
225	0x3e812fbb	0.25231728
226	0x3e868473	0.26272926
227	0x3ec5e2c4	0.3864957
228	0xbedab29b	-0.4271439
229	0xbeb346a5	-0.35014835
230	0xbc0f3b71	-0.008742199
231	0x3d32e62f	0.04367655
232	0xbe89af31	-0.26891473
233	0x3e8b3fd4	0.27197134
234	0xbe239464	-0.15974575
235	0x3ec82ba4	0.39095795
236	0xbec6918d	-0.3878292
237	0xbd944396	-0.072394535
238	0xbd6d94af	-0.058003124
239	0xbe71a7e0	-0.23599195
240	0xbe264fa7	-0.16241322
241	0x3d526544	0.051366106
242	0x3ef63701	0.4808884
243	0xbe7b4e99	-0.24541701
244	0xbe902ab0	-0.28157568
245	0x3ee9ba41	0.45649913
246	0xbe252d71	-0.16130616
247	0x3bf122f4	0.007358903
248	0xbeee713a	-0.4657076
249	0x3e81ede7	0.25376818
250	0x3e9145af	0.28373477
251	0x3ec23d0e	0.37937206
252	0xbe380440	-0.17970371
253	0xbe2f1c65	-0.17100675
254	0xbd613bfc	-0.054988846
255	0xbe94f422	-0.2909251

decoder_net.2.bias f4 [32]
0	0x3e162199	0.14661254
1	0x3d25f331	0.04051513
2	0x3e0e047e	0.13868901
3	0xbe2de4a7	-0.16981755
4	0xbe0153a4	-0.12629563
5	0xbdf6d3fd	-0.12052152
6	0xbd297e08	-0.04137996
7	0x3e2733fb	0.16328423
8	0x3ba5bab1	0.0050576557
9	0xbcb3bc47	-0.021940364
10	0xbc7d2828	-0.0154514685
11	0xbd82f54f	-0.06394445
12	0xbd8dec8d	-0.06929884
13	0x3e1cdca8	0.15318549
14	0xbdde7d34	-0.10863724
15	0x3d487da6	0.048947953
16	0x3c199de8	0.009376027
17	0x3e2deedb	0.16985647
18	0xbdbb916b	-0.09158596
19	0xbd36cd47	-0.04462936
20	0xbdc1c029	-0.0946048
21	0xbcda8fee	-0.02667996
22	0xbde51493	-0.11185565
23	0xbe00e612	-0.12587765
24	0xbcac56c0	-0.02103746
25	0x3c8ad91b	0.016949227
26	0x3d954046	0.0728765
27	0x3d55896b	0.052133005
28	0xbde395b0	-0.11112535
29	0xbe316d80	-0.17326927
30	0xbe256b90	-0.16154313
31	0xbb6b0938	-0.003586365

decoder_net.4.weight f4 [32, 32]
0	0x3e98b697	0.29826805
1	0x3dbddc69	0.092705555
2	0x3ec87d29	0.3915799
3	0x3e1cbced	0.15306444
4	0x3e87fa04	0.26557934
5	0xbed57b53	-0.4169565
6	0xbe98a948	-0.2981665
7	0x3e194d54	0.14970905
8	0x3ee6a23e	0.45045656
9	0x3e665c2c	0.22496098
10	0x3ee6eaf4	0.4510113
11	0xbd59a973	-0.053140115
12	0x3ef8c8d0	0.48590708
13	0xbed47b7e	-0.41500467
14	0xbe91dccf	-0.28488776
15	0x3e386c44	0.1801005
16	0x3d3420a2	0.043976434
17	0x3ee695a0	0.4503603
18	0xbea49b45	-0.3214971
19	0xbe90eba7	-0.28304788
20	0x3ea51dbd	0.3224925
21	0x3ec352aa	0.38149005
22	0xbe1ef681	-0.15523721
23	0x3e88f252	0.26747376
24	0x3ef9832f	0.48732898
25	0xbec4819f	-0.38380143
26	0x3d10aa71	0.035318796
27	0xbe452f52	-0.19256333
28	0xbed332e5	-0.41249767
29	0x3e97e5c0	0.29667473
30	0xbd13f563	-0.03612269
31	0xbef7199a	-0.4826172
32	0x3e4cdf74	0.20007116
33	0x3ea5c25b	0.32374844
34	0xbd6c334b	-0.057666104
35	0xbcb9fa36	-0.022702318
36	0x3e023a81	0.1271763
37	0xbeb8bbcd	-0.3608078
38	0xbebbd7ce	-0.36688083
39	0x3eee52df	0.465476
40	0x3e20d6e6	0.15706977
41	0x3eb9ecc7	0.3631346
42	0x3d8a61e1	0.0675695
43	0xbecce6ba	-0.4001978
44	0xbed977b1	-0.4247413
45	0xbeb97986	-0.36225528
46	0xbed93d51	-0.42429593
47	0xbed8e87d	-0.42364874
48	0xbef205cd	-0.4727005
49	0x3e7b18bd	0.24521156
50	0xbeda8706	-0.4268114
51	0x3dddf7a5	0.1083825
52	0x3ee15cb0	0.44016027
53	0x3d1f5fab	0.038909595
54	0x3d410cdb	0.0471314
55	0xbeb90994	-0.3614012
56	0x3e525ff8	0.20544422
57	0xbe07ca54	-0.13260776
58	0xbe52adf5	-0.20574172
59	0xbeb65453	-0.3561121
60	0x3ee10d43	0.4395543
61	0x3ed831c7	0.42225477
62	0x3e85dffa	0.26147443
63	0x3e31bb4c	0.17356604
64	0x3e4813a2	0.1953874
65	0xbe884e6f	-0.2662234
66	0x3ebfe979	0.37482813
67	0x3e02bca9	0.1276728
68	0xbe00270e	-0.12514898
69	0xbdba44b3	-0.090951346
70	0xbde6b08e	-0.11264144
71	0xbe596c2f	-0.21232675
72	0x3d1fcd57	0.039014187
73	0x3da0da4e	0.07854138
74	0xbe84fe4c	-0.25975263
75	0x3e8efc4e	0.27926868
76	0xbe05d11b	-0.13068049
77	0x3d12ec7b	0.035870057
78	0xbd9bd626	-0.07609205
79	0x3e5601ff	0.20899199
80	0xbe31a4e2	-0.17348054
81	0x3ec3b3cb	0.3822311
82	0x3ed13536	0.4086091
83	0xbe61f9a5	-0.22067888
84	0xbd98e3f3	-0.07465353
85	0xbe91abb1	-0.28451303
86	0x3e22797a	0.15866652
87	0x3cc0d30c	0.023538135
88	0xbea50c61	-0.32236007
89	0x3ee968a9	0.45587662
90	0xbebaee5c	-0.3650998
91	0x3ec22f8d	0.37926903
92	0x3ed22ef2	0.4105144
93	0x3e56193d	0.20908065
94	0xbeefabc3	-0.4681073
95	0x3ed7e74e	0.4216866
96	0x3e8e9423	0.27847394
97	0xbed240ad	-0.4106497
98	0xbefec7c2	-0.49761778
99	0x3ee0261d	0.43779078
100	0xbec60895	-0.38678423
101	0xbeb20615	-0.34770265
102	0x3e08a5a1	0.13344432
103	0xbef09478	-0.46988273
104	0x3e331a58	0.17490518
105	0x3edbbb78	0.42916465
106	0xbe3556eb	-0.17708938
107	0x3e9f7484	0.31143582
108	0x3e1fb7c6	0.15597448
109	0xbeb9de35	-0.36302343
110	0x3dac829b	0.084233485
111	0x3d7d5fb2	0.06185884
112	0xbdd9935e	-0.10623811
113	0xbec441a0	-0.38331318
114	0x3ee51437	0.44741985
115	0x3e82137a	0.25405484
116	0x3ee4d0c4	0.44690526
117	0xbeeb10de	-0.45911306
118	0x3e496a3e	0.19669434
119	0xbebb421a	-0.3657387
120	0xbe7e331a	-0.24824181
121	0xbe98642d	-0.29763928
122	0x3e0938b8	0.13400543
123	0xbe91920a	-0.2843173
124	0xbe4e0863	-0.20120387
125	0xbea1ad56	-0.31577557
126	0x3e76a4e7	0.24086343
127	0x3e348d83	0.17632107
128	0xbee267f9	-0.4421995
129	0xbe3c44b4	-0.18385583
130	0xbe86c1cf	-0.2631974
131	0x3dc734f4	0.09726897
132	0xbeeb745e	-0.4598722
133	0xbeb4f936	-0.35346383
134	0x3ed776a8	0.42082715
135	0xbef72a8a	-0.48274642
136	0x3e1aa5c0	0.15102291
137	0x3d80b6b1	0.062848456
138	0x3e0dd373	0.13850193
139	0xbc82e660	-0.015978992
140	0x3ecd1e09	0.40061978
141	0x3e9ac456	0.30227917
142	0x3eeab5cb	0.45841822
143	0xbcb72b76	-0.022359591
144	0x3ebf7a55	0.3739802
145	0xbdb9df94	-0.09075847
146	0x3ea56114	0.32300627
147	0xbe727aca	-0.23679653
148	0x3efaf33c	0.49013698
149	0x3e946357	0.2898204
150	0xbeec13b1	-0.46108773
151	0x3edfe0d6	0.43726224
152	0x3e127c33	0.1430519
153	0xbdd6fcff	-0.10497474
154	0xbea4e253	-0.32203922
155	0xbd9a3a18	-0.07530612
156	0xbe18564b	-0.14876668
157	0xbeabde12	-0.33567864
158	0x3e8b8e59	0.2725704
159	0xbcef7ed1	-0.029235275
160	0xbeb2a0d5	-0.3488833
161	0xbefabe1c	-0.48973167
162	0x3e9e03dd	0.30862322
163	0xbed52bb4	-0.41634905
164	0x3e98855d	0.29789248
165	0xbdbf1344	-0.093298465
166	0x3e867bf9	0.2626646
167	0xbe17bc38	-0.14817894
168	0x3eafb4b9	0.34317568
169	0x3ea1d94e	0.31611103
170	0x3ea408b8	0.32037902
171	0x3df20415	0.11817185
172	0x3e808a61	0.25105575
173	0x3ee48f3c	0.4464053
174	0xbec6ae86	-0.38805026
175	0xbd4e7527	-0.050404694
176	0x3ed1d078	0.40979362
177	0xbed7e8e4	-0.4216987
178	0xbd7551c9	-0.05989245
179	0xbc76d23a	-0.01506477
180	0xbed2bced	-0.41159764
181	0xbec91642	-0.39274794
182	0x3e86d8ef	0.26337382
183	0xbe0be8ff	-0.136631
184	0xbeca64cf	-0.39530036
185	0x3edab646	0.4271719
186	0x3e832113	0.2561117
187	0x3ef2da6a	0.47432262
188	0xbe962f38	-0.293329
189	0xbe0ebce0	-0.13939238
190	0x3df49114	0.11941734
191	0xbef21879	-0.47284296
192	0x3d44a415	0.048008043
193	0xbda77076	-0.08175747
194	0x3e8e2abc	0.2776698
195	0xbe6109b3	-0.21976356
196	0xbe4474e5	-0.19185217
197	0x3ed0d45c	0.40787017
198	0xbe494027	-0.19653378
199	0xbe433721	-0.19063999
200	0x3ea3271d	0.3186578
201	0x3e6d3a79	0.23166837
202	0x3dffa19e	0.12481998
203	0x3e574841	0.21023656
204	0xbdaf9453	-0.085732125
205	0xbebd0399	-0.36916807
206	0xbd8c2326	-0.068426415
207	0xbe085a4e	-0.13315699
208	0x3e6fe9ec	0.23429078
209	0xbe704065	-0.23462065
210	0xbde1bbba	-0.11022134
211	0x3ed5827f	0.41701123
212	0xbdc09395	-0.09403149
213	0xbbd4b3ad	-0.0064911456
214	0xbe8e59e8	-0.27802968
215	0xbd51db91	-0.051234785
216	0xbd9cbc48	-0.07653099
217	0x3e8ba1fb	0.2727202
218	0xbeec7d9d	-0.46189585
219	0xbe9d27b0	-0.30694342
220	0xbd8d820d	-0.06909571
221	0xbefc1be5	-0.49240032
222	0xbeae2806	-0.3401491
223	0x3cc25957	0.023724241
224	0x3ef38c78	0.47568107
225	0xbd20590d	-0.039147425
226	0x3cac9286	0.021065962
227	0x3eb5a528	0.35477567
228	0xbdcd5a2e	-0.10026966
229	0x3f03ab55	0.51433307
230	0xbcc6a0cf	-0.024246601
231	0xbe0222cc	-0.12708586
232	0xbe9a9bbc	-0.3019694
233	0xbea7ce04	-0.32774365
234	0xbea5f294	-0.32411635
235	0xbde80818	-0.11329669
236	0x3b4301d7	0.0029755735
237	0x3e7a7a4e	0.24460718
238	0x3e68df22	0.22741368
239	0x3e4715c2	0.19441894
240	0x3dabae9a	0.08382912
241	0x3e8969e5	0.26838604
242	0xbebe8973	-0.3721424
243	0xbe24c1b5	-0.16089518
244	0xbde79e38	-0.11309475
245	0x3e58fcfb	0.21190254
246	0x3bcbf7a6	0.0062245904
247	0x3ebc95e7	0.36833116
248	0x3e87a4da	0.2649296
249	0x3ec3862c	0.38188303
250	0x3d2083d1	0.03918821
251	0xbef11685	-0.47087494
252	0x3e55afa6	0.20867786
253	0xbed2117a	-0.4102896
254	0xbc7da117	-0.015480301
255	0x3ed8de09	0.423569

decoder_net.4.bias f4 [32]
0	0xbd3e42b8	-0.046450347
1	0xbddbe047	-0.10736137
2	0x3dbc885a	0.092056945
3	0xbde21deb	-0.11040863
4	0xbdaf20d8	-0.08551186
5	0x3cd861b5	0.026413778
6	0x3b541914	0.003236358
7	0xbe35128e	-0.1768286
8	0xbc1a5edc	-0.00942203
9	0x3d07c5ec	0.033147737
10	0xbb56570e	-0.0032705697
11	0xbd4ee52f	-0.050511535
12	0xbdbe294d	-0.09285221
13	0x3de0e491	0.109810956
14	0xbe0a2ae7	-0.13492928
15	0xbd8f4ee9	-0.06997473
16	0xbdcddbf8	-0.10051721
17	0x3de31ecc	0.110898584
18	0x3c006e6e	0.0078388285
19	0xbd7a2c06	-0.06107714
20	0x3dc64632	0.096813574
21	0x3ddc39dd	0.10753224
22	0x3dbfebfe	0.09371184
23	0xbe0fd259	-0.14045085
24	0x3c915934	0.01774273
25	0xbdb93029	-0.09042389
26	0xbe2b6d01	-0.167408
27	0x3e2497d2	0.1607354
28	0x3d8a8615	0.06763855
29	0x3d91228d	0.07086668
30	0xbe1037c5	-0.14083774
31	0xbce8c483	-0.028414017

decoder_net.6.weight f4 [32, 32]
0	0xbe2892a7	-0.16462193
1	0xbe905a99	-0.2819412
2	0x3dadcb32	0.08486022
3	0x3e3b5198	0.18292844
4	0x3e88caa1	0.26717094
5	0x3e75cb23	0.24003272
6	0xbe28c1c6	-0.16480169
7	0x3ce8b140	0.028404832
8	0xbe9ed048	-0.3101828
9	0xbe656d09	-0.22404875
10	0x3ef046ec	0.4692911
11	0x3eadf364	0.33974755
12	0x3ec5457a	0.3852957
13	0x3e6ac373	0.2292612
14	0xbe3f3519	-0.18672599
15	0x3df43605	0.11924366
16	0xbe730f3d	-0.23736282
17	0x3dd78095	0.10522572
18	0xbe864a86	-0.26228732
19	0x3e5527f4	0.20816022
20	0xbd875634	-0.06608239
21	0xbeb55464	-0.35415947
22	0xbdbdf9f5	-0.09276191
23	0xbe263229	-0.16230072
24	0x3e1c8924	0.1528669
25	0x3e4b4ea7	0.19854222
26	0xbda79255	-0.081822075
27	0x3ca9609d	0.020675952
28	0xbd181f5c	-0.03713928
29	0x3e868296	0.26271504
30	0xbed3d43c	-0.4137286
31	0xbd8da191	-0.06915582
32	0xbebe63cb	-0.3718551
33	0xbeea4f56	-0.45763654
34	0xbda20592	-0.07911219
35	0x3ec043eb	0.37551817
36	0xbd5f894e	-0.054574303
37	0xbeac6343	-0.3366948
38	0xbebea4a4	-0.37234986
39	0x3e9b5edb	0.30345806
40	0x3e65f7b0	0.22457767
41	0x3dcc8e23	0.09988048
42	0x3ed3c925	0.413644
43	0xbec40377	-0.38283893
44	0xbdb58fee	-0.08865343
45	0xbe13cffe	-0.14434811
46	0x3e4e7522	0.2016187
47	0x3dade37a	0.08490653
48	0x3d74db02	0.059779175
49	0xbe996986	-0.2996332
50	0xbef21f9f	-0.4728975
51	0x3e9f779c	0.31145942
52	0x3e51d968	0.2049309
53	0xbe929716	-0.28630894
54	0x3e2edf2e	0.17077324
55	0x3e928492	0.28616768
56	0x3d8a940a	0.067665175
57	0xbe39cbce	-0.18144152
58	0xbef69191	-0.48157933
59	0xbe435fb9	-0.19079484
60	0x3ec08bb7	0.37606594
61	0xbee32a02	-0.44367987
62	0x3ef2d13f	0.47425267
63	0xbef15f78	-0.4714315
64	0x3e28aca0	0.16472101
65	0xbe0ff4a4	-0.14058167
66	0xbe3f0cae	-0.1865718
67	0xbdbd8b58	-0.09255093
68	0xbbc9cee6	-0.0061586974
69	0x3dd65779	0.10465903
70	0x3ecd0607	0.4004366
71	0x3e2eaab2	0.17057303
72	0x3dbbac51	0.09163726
73	0xbe89f2b7	-0.2694299
74	0x3d224caf	0.039623912
75	0xbea2b68f	-0.31779906
76	0x3dce966f	0.10087287
77	0x3d6ae29a	0.05734501
78	0x3d90199b	0.07036134
79	0xbef10522	-0.4707423
80	0xbea99263	-0.33119497
81	0xbeb0805f	-0.3447294
82	0xbe4be46a	-0.19911352
83	0xbe392cd8	-0.18083513
84	0xbdc3832e	-0.09546505
85	0x3d99b7d2	0.07505764
86	0xbedceb33	-0.43148193
87	0x3ec109f9	0.3770292
88	0xbedc7dfe	-0.43064874
89	0xbdfd8e5f	-0.12380671
90	0x3eca490d	0.39508858
91	0x3e673a75	0.22580893
92	0xbe2a332b	-0.16621082
93	0x3e51c3b2	0.20484808
94	0xbc6c9b39	-0.014441305
95	0xbe169027	-0.14703427
96	0x3d9d466f	0.0767945
97	0xbeac59f2	-0.33662373
98	0xbe7ab0c3	-0.24481492
99	0xbe2ecd21	-0.17070438
100	0x3e93e78a	0.28887588
101	0x3d546d7c	0.051862225
102	0x3efafdc7	0.49021742
103	0xbe953752	-0.2914377
104	0xbb5881f3	-0.003303644
105	0x3ebcdfb6	0.36889428
106	0xbe95c878	-0.29254508
107	0xbec91bd5	-0.39279047
108	0x3eb78599	0.35844114
109	0xbdd2c42d	-0.10291324
110	0xbd5037ba	-0.050834395
111	0x3ef12a2f	0.47102496
112	0xbcbfd6b0	-0.0234178
113	0x3e3b1792	0.1827071
114	0x3d880b7a	0.06642814
115	0xbe2c255c	-0.16811126
116	0xbe569d19	-0.20958365
117	0xbea9f5a4	-0.3319522
118	0x3e0527b8	0.13003433
119	0x3e52d05e	0.20587298
120	0xbf003dd3	-0.50094336
121	0xbeeb0543	-0.45902452
122	0x3de568f7	0.11201661
123	0x3e41c5ef	0.18923162
124	0xbe8457ae	-0.25848144
125	0xbec2008b	-0.3789104
126	0x3e866929	0.26252106
127	0xbd29ff4e	-0.041503243
128	0xbe69ec7f	-0.22844122
129	0xbdfb44a3	-0.12268951
130	0xbeb43ccd	-0.35202637
131	0x3eeaa86b	0.45831618
132	0x3edf6d1a	0.43637925
133	0xbe8988f6	-0.26862305
134	0x3dccdd9e	0.100032076
135	0xbd3d116d	-0.046159197
136	0xbe1e8dac	-0.15483731
137	0xbe0ccbf4	-0.13749677
138	0xbe23139f	-0.15925454
139	0x3de46ee5	0.11153964
140	0xbeab898f	-0.33503386
141	0xbef7f4e6	-0.4842903
142	0xbefcb279	-0.49354914
143	0xbe67f4e0	-0.22652006
144	0x3edfbd04	0.43698895
145	0x3ed569f9	0.41682413
146	0x3ed1ac04	0.4095155
147	0x3e244247	0.16040908
148	0xbd173205	-0.036912937
149	0x3ec45002	0.3834229
150	0xbe9ef72f	-0.3104796
151	0x3b4778d2	0.0030437005
152	0x3e534550	0.2063191
153	0xbe5f1675	-0.2178591
154	0x3df0040f	0.11719524
155	0x3eefae34	0.46812594
156	0x3eeddf71	0.46459535
157	0x3daca1dd	0.084293105
158	0x3de6b9f4	0.112659365
159	0x3ecc75a0	0.3993349
160	0x3ebf155b	0.3732098
161	0x3eed9625	0.46403614
162	0xbe905a11	-0.28193715
163	0xbe6fd524	-0.2342115
164	0x3e7a9901	0.24472429
165	0x3ecef30f	0.40419814
166	0x3e39ce37	0.18145071
167	0xbe26aa3b	-0.16275875
168	0x3ea8e55e	0.32987493
169	0xbe5f57f4	-0.21810895
170	0xbe4524ef	-0.1925237
171	0xbeb5858e	-0.35453457
172	0x3e2a8dff	0.1665573
173	0xbebc4b92	-0.36776406
174	0x3a68f75e	0.0008886958
175	0xbeaf20f3	-0.34204826
176	0xbe6af3b5	-0.2294453
177	0xbe7db19b	-0.24774782
178	0xbd09f89a	-0.03368435
179	0xbd61f771	-0.05516762
180	0x3e10705d	0.14105363
181	0xbea69769	-0.32537392
182	0xbea6acf7	-0.32553837
183	0x3e59c9e7	0.21268426
184	0xbe80e18e	-0.25172085
185	0xbd9dd527	-0.07706671
186	0x3e007b9c	0.12547153
187	0x3dfde899	0.1239788
188	0xbe03cee5	-0.12871893
189	0xbd51eb10	-0.051249564
190	0xbe30e9c9	-0.17276682
191	0xbef8b979	-0.48579004
192	0x3ec97720	0.39348698
193	0xbdaf9e19	-0.085750766
194	0xbe988d07	-0.29795095
195	0xbe7b3a08	-0.24533856
196	0x3eef946f	0.46792933
197	0x3ec8c1ee	0.39210457
198	0x3ee876ec	0.4540323
199	0xbf028e62	-0.5099851
200	0xbe4ee176	-0.20203194
201	0xbee036e7	-0.43791887
202	0x3d308c58	0.043102592
203	0x3dbcdf61	0.09222294
204	0xbe8fda6c	-0.2809633
205	0xbd4ebaf9	-0.05047128
206	0xbe9efe09	-0.31053188
207	0x3ef9fd1a	0.48825914
208	0x3ea84445	0.32864586
209	0xbe12e4d5	-0.14345105
210	0x3e495014	0.19659454
211	0x3ecf9873	0.40545997
212	0xbee9fbde	-0.45699972
213	0x3ef28a9d	0.4737138
214	0xbee34497	-0.44388267
215	0xbd6813cf	-0.056659516
216	0x3ed88a8b	0.422932
217	0xbcf8e240	-0.030381322
218	0x3e859262	0.26088244
219	0xbe887bf6	-0.26657075
220	0x3eb08478	0.34476066
221	0xbe37cb5a	-0.17948666
222	0xbe6f3d48	-0.2336322
223	0x3ccc9c23	0.024976796
224	0xbd0be5f9	-0.034154866
225	0xbe1d70f0	-0.15375113
226	0xbe870390	-0.26369905
227	0x3eca5053	0.39514408
228	0xbe3ec981	-0.18631555
229	0xbe07f345	-0.13276394
230	0xbec43670	-0.38322783
231	0x3ed50997	0.4160888
232	0xbef56b15	-0.4793326
233	0x3ec51193	0.3848997
234	0xbe099906	-0.1343728
235	0xbeabbd07	-0.33542654
236	0xbe023989	-0.1271726
237	0xbec7c190	-0.39014864
238	0xbdaf60b7	-0.08563369
239	0x3eb9b728	0.3627255
240	0x3dcf2c32	0.101158515
241	0x3ee935cf	0.45548865
242	0x3d86e586	0.06586747
243	0x3ef59210	0.47963
244	0xbe2c6cdb	-0.168384
245	0xbee25c9b	-0.44211277
246	0x3e8adfe6	0.27123946
247	0xbdf20c6a	-0.11818774
248	0x3e9ebbc8	0.3100264
249	0x3eb8ad4e	0.3606972
250	0x3e14ea39	0.14542474
251	0xbe1836a6	-0.14864597
252	0x3ec0d506	0.37662524
253	0x3d0fcbb2	0.03510637
254	0x3e9b2cea	0.30307704
255	0xbeb03ede	-0.34422964

decoder_net.6.bias f4 [32]
0	0xbd84af4c	-0.06478748
1	0xbbbd6054	-0.0057793055
2	0xbe1339f8	-0.14377582
3	0x3d1e4f4c	0.038649842
4	0xbe20cb51	-0.15702559
5	0x3ca1e025	0.0197602
6	0x3da29c43	0.07939961
7	0x3dd6d976	0.10490696
8	0xbc79427c	-0.015213605
9	0x3d7db86a	0.06194345
10	0x3d90e758	0.07075375
11	0x3e098b3a	0.13432017
12	0x3e39dc16	0.18150362
13	0x3e145cd7	0.1448854
14	0xbdfb3abb	-0.12267061
15	0x3ca6f59d	0.02038079
16	0xbe1f661e	-0.15566298
17	0x3dabc55b	0.08387252
18	0x3dd73ce1	0.105096586
19	0x3dc748e5	0.097307004
20	0x3d0578ed	0.032586027
21	0xbe14f206	-0.1454545
22	0xbd512302	-0.051058777
23	0x3d66cf50	0.056350052
24	0x3e2f18f9	0.1709937
25	0xbd92038b	-0.07129582
26	0xbce477c1	-0.027889134
27	0x3dba59fd	0.09099195
28	0xbd29bf2b	-0.041442078
29	0x3cd6ef61	0.026237192
30	0xbd3c6fd0	-0.04600507
31	0xbe304c1d	-0.17216535

decoder_net.8.weight f4 [32, 32]
0	0x3ef4e820	0.47833347
1	0x3db309fa	0.08742137
2	0x3e66e76d	0.2254922
3	0xbbdb68ba	-0.006695834
4	0xbc3c1103	-0.011478665
5	0x3eaa9501	0.33316806
6	0xbe9baf2f	-0.30407092
7	0x3ed284ba	0.41116887
8	0x3e336e4d	0.17522545
9	0x3e21d62d	0.15804358
10	0x3d65c48c	0.056095645
11	0x3d245830	0.040123165
12	0x3e27de0b	0.16393296
13	0xbe5f212d	-0.2179
14	0x3eb5d91d	0.35517207
15	0xbe89c8af	-0.26910922
16	0x3ed3d3c2	0.41372496
17	0xbe3a9c62	-0.18223718
18	0x3e96ca07	0.2945101
19	0x3e892582	0.2678643
20	0x3dc8fe29	0.09814102
21	0xbdf6fc01	-0.12059785
22	0xbe97f1a9	-0.2967656
23	0x3ef9c209	0.4878085
24	0x3ec63470	0.38711882
25	0xbec85d8c	-0.3913387
26	0x3da86194	0.082217366
27	0xbe3f9972	-0.18710878
28	0xbe4e12ff	-0.20124434
29	0x3e8a4318	0.27004313
30	0x3e79222c	0.24329442
31	0xbdcb2e81	-0.09920979
32	0xbd22cfba	-0.039748885
33	0x3da4ade3	0.08040979
34	0x3dd94b13	0.106100224
35	0xbe331574	-0.17488652
36	0xbebd789e	-0.37006086
37	0xbee6905a	-0.45032007
38	0xbe5879aa	-0.21140161
39	0x3e1de0f4	0.15417844
40	0x3e74fddc	0.23924965
41	0x3e8524df	0.26004693
42	0xbea1be1b	-0.3159035
43	0x3d6bb913	0.057549547
44	0x3e6301f5	0.22168715
45	0x3ebb17d6	0.36541623
46	0x3ed04a53	0.40681705
47	0xbecf3278	-0.40468192
48	0xbebad6a7	-0.36491892
49	0xbef91db6	-0.4865548
50	0x3ec67714	0.38762724
51	0xbe934e79	-0.28770807
52	0xbe5619d2	-0.20908287
53	0x3eeb6130	0.45972586
54	0x3e137953	0.1440175
55	0x3ea97354	0.330958
56	0x3e2a2c7c	0.16618532
57	0xbe8b0477	-0.27151844
58	0xbe791c91	-0.24327303
59	0x3e88b1c0	0.26698112
60	0xbda61aed	-0.081106044
61	0x3e813c64	0.25241387
62	0xbeb1299b	-0.34602055
63	0x3e435e61	0.19078971
64	0xbe84c110	-0.25928545
65	0xbe27f6f6	-0.16402802
66	0xbd2b87f7	-0.041877713
67	0xbed027f7	-0.4065549
68	0x3e8430eb	0.2581857
69	0x3ecaed42	0.39634138
70	0x3f03a4bd	0.51423246
71	0x3ee963fa	0.4558409
72	0x3de2ce49	0.11074502
73	0xbec14a58	-0.37752032
74	0xbed01fdc	-0.40649307
75	0xbe69daf0	-0.22837424
76	0x3ed0f96a	0.40815288
77	0x3e5f8027	0.2182623
78	0x3ecfcac2	0.4058438
79	0xbd8e4cbb	-0.06948229
80	0x3ea0e0ff	0.31421658
81	0x3ec2856e	0.37992424
82	0xbeb5a2e1	-0.3547583
83	0xbeb29ef9	-0.34886912
84	0x3e280ca6	0.16411075
85	0xbea2ce15	-0.31797853
86	0xbdec2757	-0.11530941
87	0xbe441461	-0.19148399
88	0x3eb64b79	0.35604456
89	0xbed6604f	-0.41870353
90	0xbefa990f	-0.489449
91	0xbed6c1b8	-0.4194467
92	0x3d377ff1	0.04479975
93	0xbeae92ba	-0.34096318
94	0x3d29c416	0.041446768
95	0x3e0c01a0	0.13672495
96	0xbe7958a1	-0.24350215
97	0x3e8a2327	0.26979944
98	0xbca9242c	-0.02064713
99	0xbe5c02d2	-0.21485451
100	0xbdcd1420	-0.10013604
101	0xbea71e3f	-0.32640263
102	0x3ef88418	0.4853828
103	0x3e8877d2	0.26653916
104	0x3e0a1a88	0.13486683
105	0xbd368596	-0.04456099
106	0x3ea0ba14	0.31391966
107	0x3cf6760f	0.030085592
108	0x3d395431	0.045246307
109	0x3e0d9c76	0.13829216
110	0x3c3e11b4	0.0116009
111	0x3e4febdb	0.20304815
112	0xbd0d31ac	-0.0344712
113	0xbe8225bd	-0.25419417
114	0xbea09b89	-0.31368664
115	0xbd959e4e	-0.07305585
116	0xbd3fb96c	-0.04680769
117	0xbee79710	-0.4523244
118	0x3c9e32cf	0.019311337
119	0xbccb8531	-0.024843784
120	0x3ea594da	0.32340127
121	0xbe565cdc	-0.2093386
122	0xbe7bc62c	-0.24587315
123	0xbd8e9097	-0.06961172
124	0xbe2850c8	-0.16437066
125	0xbda4c5dd	-0.08045552
126	0x3e586b88	0.2113477
127	0x3e233494	0.15938026
128	0x3e1ef074	0.15521413
129	0x3ebad4e0	0.36490536
130	0x3d951e1e	0.07281135
131	0xbefbc09e	-0.49170393
132	0xbee638ea	-0.44965297
133	0x3eda2eee	0.4261393
134	0xbde8463f	-0.113415234
135	0x3e8c0119	0.27344587
136	0x3edb8c35	0.42880407
137	0xbd2c3447	-0.042042043
138	0x3f009db9	0.50240666
139	0xbea9fe26	-0.33201712
140	0xbed11551	-0.40836576
141	0xbecfb56a	-0.40568095
142	0xbebbce33	-0.36680755
143	0x3e60f865	0.21969755
144	0x3dc7a14f	0.09747564
145	0xbe484c8d	-0.19560452
146	0xbd5d7a99	-0.054071996
147	0x3eec9cea	0.46213466
148	0x3e2b5648	0.16732132
149	0x3eaf91ba	0.34290868
150	0xbe829f27	-0.2551205
151	0xbe4eead1	-0.20206763
152	0x3e0af03a	0.13568202
153	0xbedb7deb	-0.42869505
154	0xbee806d7	-0.45317718
155	0xbe8520c3	-0.26001558
156	0xbdd13dc8	-0.10216862
157	0x3c61b17f	0.0137752285
158	0xbd1f050a	-0.038823165
159	0x3df887a9	0.1213525
160	0xbe81ce7f	-0.25352857
161	0xbd80a7d3	-0.0628201
162	0x3e93a02c	0.2883314
163	0xbe94847f	-0.29007336
164	0xbee4b214	-0.44667113
165	0x3d2518a8	0.040306717
166	0xbec3be01	-0.382309
167	0xbeb029ba	-0.34406835
168	0xbd579c49	-0.05263928
169	0x3e80d555	0.2516276
170	0x3efe1657	0.4962642
171	0x3eb6691e	0.35627073
172	0xbcbb4546	-0.02286018
173	0xbe19ce3f	-0.15020083
174	0x3b82977a	0.0039853426
175	0xbdd3a93d	-0.10335014
176	0x3e8c6fca	0.27429038
177	0xbea908f6	-0.3301465
178	0x3e13ce5a	0.14434186
179	0x3c6fe6ef	0.014642461
180	0x3d9c9a17	0.07646578
181	0x3de54eb8	0.11196655
182	0xbcc25f14	-0.023726977
183	0xbe1af7d8	-0.15133607
184	0x3da35bbd	0.07976482
185	0x3ed64179	0.41846827
186	0x3de6ea45	0.11275152
187	0x3e2e76fb	0.17037575
188	0xbeab3248	-0.334368
189	0x3e34a6f9	0.1764182
190	0xbedc309d	-0.4300584
191	0x3e7ab65c	0.24483627
192	0x3e0dca33	0.13846664
193	0x3c05cf7e	0.008167146
194	0x3d20c563	0.039250743
195	0x3e92a22a	0.28639346
196	0xbed92ad8	-0.424155
197	0x3e113b67	0.14182816
198	0xbef7c566	-0.4839279
199	0xbc54497f	-0.012956976
200	0x3ee06c01	0.438324
201	0xbd9e8bed	-0.077415325
202	0x3ef03406	0.4691469
203	0x3eefe043	0.46850786
204	0x3eadc946	0.33942622
205	0x3ccd21d3	0.025040543
206	0xbeaa17af	-0.33221194
207	0xbe405c6e	-0.18785259
208	0x3db95323	0.0904906
209	0xbe97dc95	-0.29660478
210	0x3ea74b03	0.32674417
211	0x3d972a10	0.0738107
212	0x3e211a60	0.15732718
213	0xbe281e64	-0.16417843
214	0x3cdab2e0	0.026696622
215	0xbedcf803	-0.43157968
216	0x3e257bed	0.16160555
217	0xbef871ef	-0.48524424
218	0x3e304e34	0.17217332
219	0x3e8239fe	0.2543487
220	0xbe5ee74b	-0.21767919
221	0xbea5af68	-0.32360387
222	0xbe513998	-0.20432127
223	0xbe53244c	-0.20619315
224	0xbe4d9e10	-0.20079827
225	0x3eb7409c	0.3579148
226	0x3edc10f3	0.4298168
227	0xbd9c8e91	-0.0764438
228	0xbd442836	-0.04788991
229	0xbe98ab22	-0.29818064
230	0xbeaf3d70	-0.3422656
231	0xbec82c64	-0.39096367
232	0x3d9c860a	0.076427534
233	0x3e141f1c	0.14464992
234	0x3e316c31	0.17326428
235	0xbe3d5c7a	-0.18492308
236	0xbeb2e5e0	-0.34941006
237	0x3db69dc3	0.089168094
238	0xbcb031c4	-0.021508105
239	0x3ed02a6e	0.4065737
240	0x3ba4c2b8	0.005028095
241	0x3e8b3900	0.27191925
242	0xbe0f779e	-0.14010474
243	0x3d0d89cc	0.03455524
244	0x3ef7e644	0.48417866
245	0xbe757743	-0.23971276
246	0x3cae5e74	0.021285273
247	0x3e92a0c4	0.2863828
248	0x3d98e27a	0.07465072
249	0xbebe561d	-0.37175074
250	0xbec1e935	-0.37873235
251	0x3eca4957	0.3950908
252	0xbe13ed45	-0.1444598
253	0xbe8bbe9d	-0.27293864
254	0xbdd3dfc0	-0.10345411
255	0x3e746e65	0.23870237

decoder_net.8.bias f4 [32]
0	0xbd6a92d6	-0.05726894
1	0x3e04bc18	0.12962377
2	0xbe252105	-0.16125877
3	0xbd9bf3b6	-0.076148435
4	0x3d433334	0.047656253
5	0x3e338845	0.17532451
6	0xbd6e9403	-0.058246624
7	0x3e01e8ff	0.12686537
8	0xbd8c056d	-0.068369724
9	0x3e00d265	0.12580259
10	0xbe0a52a4	-0.13508087
11	0x3daa5ce5	0.083184995
12	0x3ac331bd	0.0014892142
13	0x3d937701	0.072004326
14	0xbe30ae17	-0.1725391
15	0xbd38b056	-0.045090042
16	0x3e13e090	0.14441133
17	0xbd944917	-0.07240503
18	0x3decf4ca	0.11570127
19	0xbe160894	-0.1465171
20	0xbdaced13	-0.08443656
21	0x3df564ad	0.11982093
22	0x3da508c0	0.080583096
23	0x3e21348d	0.15742703
24	0xbdec4d79	-0.11538214
25	0x3d8bc482	0.0682459
26	0xbdfe6a3d	-0.12422607
27	0x3cb967e1	0.022632541
28	0xbe33ac11	-0.17546107
29	0x3d8ec79f	0.069716685
30	0xbe4b6186	-0.19861421
31	0x3e02df8e	0.12780592

decoder_net.10.weight f4 [1, 32]
0	0x3e8ac431	0.27102807
1	0x3ed667f1	0.41876176
2	0x3ea6db84	0.32589352
3	0xbef0470a	-0.46929199
4	0x3e176107	0.14783107
5	0x3eca956a	0.3956712
6	0x3f007599	0.5017944
7	0x3edc9bb7	0.4308755
8	0xbda66569	-0.08124811
9	0x3ef09ecd	0.46996155
10	0x3e4af3f8	0.19819629
11	0x3dd4c40b	0.10388955
12	0xbe964b4a	-0.29354316
13	0x3e07e41b	0.13270609
14	0x3e8781b8	0.26466155
15	0x3ec352de	0.3814916
16	0xbdb964d0	-0.090524316
17	0x3e4b0101	0.19824602
18	0x3cc19bbc	0.02363383
19	0xbeda87a0	-0.426816
20	0xbef1c78f	-0.47222564
21	0x3dad4c97	0.08461874
22	0x3eb09381	0.34487537
23	0x3df6d35a	0.12052031
24	0xbed48f36	-0.4151551
25	0xbe57c079	-0.21069516
26	0xbec0bc2c	-0.37643564
27	0xbedd6513	-0.43241176
28	0xbed1b61a	-0.40959245
29	0xbe9260cb	-0.28589472
30	0x3e8beb8e	0.2732815
31	0xbe08bdb2	-0.13353613
