Value_Net_499.pt (torch, 400402 bytes, 11 tensors)

decoder_net.0.weight f4 [128, 255]
0.44559416 0.2780355 0.31082788 -0.110790744 0.5381394 0.009715486 -0.5870008 0.4305682
0.8025176 -0.8596501 0.16827622 -0.4572006 -0.009177462 -0.040987696 0.18757929 0.29575273
0.8244289 -0.65282404 0.34322286 0.39217892 0.507438 0.6227477 -0.30789176 -0.46363223
0.16258432 0.14923723 0.38084632 -0.28861257 -0.82480663 0.18544821 0.32858714 0.46701944
-0.091968924 -0.76645815 -0.19007473 -0.14072077 -0.12591553 -0.56614465 -0.5856796 -0.05740054
0.21812952 0.06874768 -1.0474828 -0.1718295 -0.00886917 -0.1087582 0.55140924 -0.38897827
0.5749363 -0.54673827 -0.2855847 0.2778723 0.45108378 -0.03458928 0.09634159 -0.5848595
-0.49415377 -0.461637 -0.24055022 0.36063778 -0.27313572 -0.796529 -0.26363376 -0.15865995
-0.85752136 0.44219303 0.09022678 -1.6268612 -0.39895213 -0.41760868 -0.3342526 0.5358333
0.0836501 0.017937234 0.21216832 -0.44924268 -0.39007294 -0.17811435 -0.85675615 0.36754614
0.2842629 -0.59688246 -0.098666444 0.7339902 0.6269629 0.06569022 -0.7386337 0.10279334
0.5235381 0.42121857 -0.4565685 -0.39538547 -1.0437495 -0.050199784 -0.9124803 -0.03547716
0.19676214 -0.3862083 0.5739491 0.18780228 -0.016405188 -0.26327246 -0.47516364 0.41605568
0.51009357 -0.5053997 0.050708983 0.688457 0.7317493 0.9800189 -0.3713748 0.6107177
0.16743436 -0.32990748 -0.1626857 -0.015371899 -0.43594563 0.10924322 0.22874695 -0.3205455
0.015285073 0.39519775 -0.48855785 0.18069626 -0.6187846 0.7240461 -0.3661297 -0.6595755
-0.1486419 0.24883899 0.035114247 -0.3324629 -0.37606436 0.8417476 0.020778237 0.14301574
0.5149097 0.095679946 0.069537245 0.10816722 -0.4367438 0.14409375 -0.63981336 -0.3722565
-0.3315665 -0.022806995 0.2957652 -0.08977543 -0.9454545 -0.068284065 0.5038088 0.07033934
-0.5527896 0.15488109 -0.2406507 -0.42583537 -0.068046264 0.115695015 0.06974698 0.59523225
0.01788132 -0.024310943 0.6776244 -0.052539796 -0.14505938 -0.51558864 -1.0792499 -0.6145233
0.2577573 -1.0766826 -0.013199483 0.18488146 -0.91408014 0.26036978 0.5954822 0.3956047
-0.19915426 0.26589504 0.46393427 0.12046042 -0.35146794 0.0316454 0.12601134 0.6841508
-0.69180727 0.5923246 0.40174517 0.1398709 0.4139113 0.6513562 -0.54724 0.33404848
0.46530318 -0.21077499 0.2832674 -0.69493294 0.3898686 0.60961586 0.056888264 -0.54691845
0.15851231 0.33523685 0.35110125 -0.34452817 -0.10950112 0.01962213 -0.515663 0.43926573
-0.10978027 0.6415499 -0.33348987 -0.23618728 -0.46756697 0.25632098 -0.44531617 -0.79255944
-0.7402324 -0.27198198 -0.5324742 -0.034572836 0.11197591 -0.20986576 -0.22716583 -0.33090806
-0.013576547 0.9232294 0.33292383 -0.14846037 0.38379604 -0.4299609 0.3276013 -0.45808226
0.16856539 -0.000119181655 0.20121337 0.28843793 -1.0544969 0.43226603 0.4941663 -0.50884676
0.2848952 0.629191 -0.44751334 0.48004478 -0.18816663 0.22398758 -0.017850893 -0.03832159
-0.1648725 -0.7193425 -0.2748465 -0.74982107 -0.63223356 -0.9592475 -0.2864025 -0.47990662
00000000: eb24 e43e ab5a 8e3e d524 9f3e 42e6 e2bd
00000010: 81c3 093f b42d 1f3c af45 16bf 6f73 dc3e
00000020: cb71 4d3f 0712 5cbf 9a50 2c3e 3216 eabe
00000030: 115d 16bc b7e2 27bd c914 403e e76c 973e
00000040: c60d 533f 7a1f 27bf e8ba af3e adcb c83e
00000050: 75e7 013f 656c 1f3f fda3 9dbe 3461 edbe
00000060: 817c 263e a5d1 183e 4afe c23e 07c5 93be
00000070: 8726 53bf 23e6 3d3e 933c a83e 2c1d ef3e
00000080: 345a bcbd 9a36 44bf f3a2 42be 1b19 10be
00000090: 00f0 00be dbee 10bf 19ef 15bf d41c 6bbd
000000a0: 585d 5f3e 95cb 8c3d eb13 86bf 13f4 2fbe
000000b0: ff4f 11bc 9fbc debd 2829 0d3f 2928 c7be
000000c0: 062f 133f 0af7 0bbf 2838 92be 4745 8e3e
000000d0: 74f4 e63e 7dad 0dbd bd4e c53d 5ab9 15bf
000000e0: b901 fdbe af5b ecbe cc52 76be 84a5 b83e
000000f0: 72d8 8bbe 53e9 4bbf 01fb 86be c177 22be
00000100: 8586 5bbf 2067 e23e d1c8 b83d fd3c d0bf
00000110: 7443 ccbe ced0 d5be 2823 abbe 5f2c 093f
00000120: be50 ab3d 1bf1 923c a742 593e 2303 e6be
00000130: a4b7 c7be 9c63 36be 5f54 5bbf 022f bc3e
00000140: e88a 913e 4acd 18bf a211 cabd c8e6 3b3f
00000150: a480 203f 9888 863d 1917 3dbf 5185 d23d
00000160: 9806 063f f6a9 d73e 59c3 e9be f76f cabe
00000170: 9599 85bf 4a9e 4dbd 4f98 69bf 8050 11bd
00000180: 047c 493e 18bd c5be 54ee 123f 3e4f 403e
00000190: 2c64 86bc a6cb 86be a648 f3be 4005 d53e
000001a0: 7e95 023f e061 01bf 39b4 4f3d b83e 303f
000001b0: ec53 3b3f 85e2 7a3f d624 bebe ff57 1c3f
000001c0: ea73 2b3e a2e9 a8be 1597 26be 6bda 7bbc
000001d0: 4434 dfbe e9ba df3d a43c 6a3e 8a1e a4be
000001e0: 3e6e 7a3c 5c57 ca3e 4124 fabe 7108 393e
000001f0: ab68 1ebf 165b 393f 5a75 bbbe f1d9 28bf
00000200: 9535 18be a6cf 7e3e f5d3 0f3d 9438 aabe
00000210: 828b c0be c57c 573f 1f37 aa3c b872 123e
00000220: 1fd1 033f d9f3 c33d 8b69 8e3d c786 dd3d
00000230: e29c dfbe 508d 133e cfca 23bf 6798 bebe
00000240: 16c3 a9be bcd5 babc 896e 973e 2edc b7bd
00000250: 4e09 72bf 84d8 8bbd 9df9 003f 120e 903d
00000260: 9f83 0dbf 2699 1e3e 236d 76be 1807 dabe
00000270: d75b 8bbd 82f1 ec3d 81d7 8e3d 2461 183f
00000280: d97b 923c be27 c7bc cb78 2d3f f833 57bd
00000290: 728a 14be 9efd 03bf dc24 8abf 6651 1dbf
000002a0: c4f8 833e bcd0 89bf a542 58bc 9151 3d3e
000002b0: 2801 6abf 304f 853e 8571 183f b38c ca3e
000002c0: 18ef 4bbe 6523 883e cb88 ed3e f4b3 f63d
000002d0: 9bf3 b3be 9b9e 013d 1e09 013e 8224 2f3f
000002e0: 481a 31bf 96a2 173f 8bb1 cd3e 513a 0f3e
000002f0: 2fec d33e 48bf 263f ec17 0cbf 6708 ab3e
00000300: 383c ee3e 66d5 57be 6d08 913e 20e7 31bf
00000310: db9c c73e c90f 1c3f ab03 693d d902 0cbf
00000320: 0d51 223e 2aa4 ab3e 8bc3 b33e ff65 b0be
00000330: 2042 e0bd 97be a03c 7e02 04bf 70e7 e03e
00000340: 7ad4 e0bd 9d3c 243f 2fbf aabe 14db 71be
00000350: f064 efbe 813c 833e 7b00 e4be 2de5 4abf
00000360: df7f 3dbf 3941 8bbe 3b50 08bf 3f9c 0dbd
00000370: a053 e53d 0de7 56be 299e 68be c86c a9be
00000380: 2a70 5ebc c358 6c3f fe74 aa3e ff05 18be
00000390: ea80 c43e d623 dcbe 5cbb a73e c289 eabe
000003a0: 689c 2c3e 2af1 f9b8 e10a 4e3e 23ae 933e
000003b0: c1f9 86bf f951 dd3e 5e03 fd3e c843 02bf
000003c0: c9dd 913e a912 213f 7820 e5be 6ec8 f53e
000003d0: c1ae 40be 005d 653e 093c 92bc 19f7 1cbd
000003e0: 56d4 28be d526 38bf aeb8 8cbe 46f4 3fbf
000003f0: 0fda 21bf 3f91 75bf 59a3 92be 52b6 f5be

decoder_net.0.bias f4 [128]
0.04461201 0.023439638 -0.00959215 -0.09670677 -0.049036566 0.1096358 0.0541191 0.13965803
-0.03767929 0.052874837 0.14765356 -0.08574158 -0.045048192 0.081128426 -0.05585433 0.12190918
-0.07486897 0.04685076 0.12202022 0.034106325 0.020207228 -0.07003234 -0.013010993 0.19339965
0.028317241 0.0350662 0.066350736 0.08368346 0.111367 -0.015796132 -0.01690149 0.00020903439
0.05077111 -0.07181102 0.08513939 0.09688177 0.013241451 0.050753906 0.0048817913 -0.011482891
0.022465354 0.11319933 0.07480647 -0.037364855 0.100500666 -0.0879399 0.1152375 0.044968937
0.0716655 0.08966227 0.14745371 0.0572047 0.09697103 0.14877045 0.07877314 0.12994745
0.0063849604 0.04821055 0.016111072 0.10921831 0.035328347 0.031171765 -0.07146792 0.11391503
-0.04274666 0.050089154 0.010791258 0.07337931 -0.003642518 -0.033207003 0.1440881 0.12497465
0.07426695 0.023949591 0.093212865 0.10781387 -0.0013915858 -0.0151620535 0.13767384 -0.09805897
-0.01531782 0.007329919 0.06911621 0.06783713 0.07297303 0.18194118 -0.08940684 -0.005560133
0.09237655 0.07459771 0.08480689 0.08370598 0.09793458 0.09367279 -0.0027792938 0.05336425
0.042441983 0.09183835 -0.058705125 0.15957208 0.038634665 0.037917793 0.11185611 0.07068449
0.086014725 0.080519244 0.11352288 0.14292501 0.006967707 0.05901974 0.13091633 0.069409445
-0.0016755925 0.03564196 -0.09472997 0.07515262 -0.052059785 0.07563106 0.16219634 0.12998076
-0.07387005 0.0049994 0.15439092 0.08978619 0.022777013 -0.0048048557 0.03801473 0.034590334
00000000: 15bb 363d 7c04 c03c 6528 1dbc 330e c6bd
00000010: 91da 48bd bc88 e03d fdab 5d3d 8402 0f3e
00000020: 9955 1abd 4993 583d 7f32 173e 4899 afbd
00000030: 7484 38bd a926 a63d 83c7 64bd 85ab f93d
00000040: e754 99bd 95e6 3f3d bde5 f93d 13b3 0b3d
00000050: a189 a53c 1e6d 8fbd 0f2c 55bc 8f0a 463e
00000060: 8ff9 e73c 93a1 0f3d e5e2 873d 3c62 ab3d
00000070: 6214 e43d e466 81bc fe74 8abc 3e30 5b39
00000080: 5ef5 4f3d a811 93bd 8f5d ae3d f369 c63d
00000090: acf2 583c 54e3 4f3d 6ff7 9f3b bc22 3cbc
000000a0: 4309 b83c 0dd5 e73d 2234 993d e40b 19bd
000000b0: 4bd3 cd3d d619 b4bd a301 ec3d 5931 383d
000000c0: 5dc5 923d daa0 b73d 1bfe 163e 7a4f 6a3d
000000d0: bf98 c63d 4857 183e d053 a13d f210 053e
000000e0: ee38 d13b 6d78 453d 5efb 833c d9ad df3d
000000f0: 75b4 103d ee5b ff3c c65d 92bd 494c e93d
00000100: 1f17 2fbd 492a 4d3d d1cd 303c e447 963d
00000110: 50b7 6ebb 1104 08bd d58b 133e b6f2 ff3d
00000120: 4519 983d ef31 c43c 63e6 be3d 85cd dc3d
00000130: df65 b6ba 436a 78bc 5ffa 0c3e 24d3 c8bd
00000140: 98f7 7abc d12f f03b cd8c 8d3d 31ee 8a3d
00000150: e272 953d ca4e 3a3e ef1a b7bd c731 b6bb
00000160: eb2f bd3d afc6 983d 3caf ad3d 0a6e ab3d
00000170: ed91 c83d 85d7 bf3d d024 36bb 7994 5a3d
00000180: a5d7 2d3d bf15 bc3d c974 70bd dd66 233e
00000190: 623f 1e3d b04f 1b3d d114 e53d 08c3 903d
000001a0: 7d28 b03d 46e7 a43d af7e e83d ef5a 123e
000001b0: 5d51 e43b afbe 713d ee0e 063e 8a26 8e3d
000001c0: 8e9f dbba 4efd 113d c901 c2bd 9ee9 993d
000001d0: a43c 55bd 75e4 9a3d cc16 263e ad19 053e
000001e0: 2e49 97bd 02d2 a33b a718 1e3e d2e1 b73d
000001f0: dc96 ba3c 0d72 9dbb 55b5 1b3d 98ae 0d3d

decoder_net.2.weight f4 [128, 128]
1.0488524 -1.0137078 0.8853887 -1.2672467 -0.19298597 -0.30786097 -0.18063027 -0.012849788
-0.6870713 1.278172 -0.027912486 -0.112455174 -0.20022275 -0.3647602 -0.095772326 0.29891965
-0.61827683 -0.1795632 0.054415163 -0.3552105 0.051810026 -0.2608841 0.6219599 -1.0976182
-0.18630639 0.23781703 -0.45156035 0.35011354 -0.30391556 1.6654812 -0.4231696 -0.47392508
-0.0012068058 -0.1018897 -0.053928744 0.3815616 0.22032326 0.3538932 0.6159241 -0.18123049
-0.9611483 0.2961854 -0.5482325 0.96188307 -0.307349 -0.419611 1.2574798 0.12895648
0.2082222 0.011822427 -0.6907034 -0.33271298 -0.32946783 -0.4204453 -0.08161609 -1.063018
0.15903561 0.38198262 -0.39232963 -0.24187028 0.23980835 -0.7418504 0.20519301 0.36399126
-0.033671517 -0.8559766 -0.043283362 0.70565426 -0.3209947 -0.01010012 0.39302114 -0.06407404
-0.37382728 -0.9598289 0.54785454 -0.38580218 0.8807424 0.7588125 -0.49546164 -0.08389823
-0.2595643 -0.15098996 -0.13761091 -0.33717716 -0.7858732 -0.0039447523 0.7860739 0.06013704
0.1570032 0.4223655 -0.09578036 -0.036654178 -0.5067461 -0.09996304 -0.033418383 0.16489229
0.4413269 -1.4892367 -0.3370173 -0.36588162 0.92618245 -0.31947297 0.44311565 -0.58795184
0.08762158 -0.2020969 -0.28280658 -0.30852345 -0.6202276 0.22383906 0.29717496 0.5380775
-0.36729443 -0.19055158 0.18763876 -0.4951805 -0.47342327 -0.44176817 -0.34336677 -0.1913797
-0.24709642 0.09639887 -0.109376386 -0.68080086 0.804048 0.2578188 -0.009179637 1.0660397
0.23883617 -0.9049869 -0.77686816 -0.5443662 1.0005587 0.3508898 0.35765293 -0.3644607
-0.274056 -0.43168384 -0.31091797 -0.10211243 0.3877985 0.010457345 -0.5552472 0.23244
-0.111281835 0.0657394 0.46836284 -0.31225643 0.100187756 0.30267793 0.21503177 1.1985719
0.08209961 -0.046880893 0.16394742 0.005429158 0.79627925 0.07678897 -0.8445731 0.0013785061
-1.0279163 -0.12426999 0.16674809 0.64832485 -0.16820812 -0.27931777 0.28342655 0.29025105
-0.10445891 0.49625263 0.59356093 -1.0259814 0.6628656 0.08758463 -0.07908998 -0.027810516
-0.30317304 0.5253695 0.18515417 0.056991685 0.436654 -0.58932716 0.39132264 0.58700794
0.21762526 0.2649129 0.92765075 -0.31442645 0.78503525 -0.015502906 -0.016073236 0.6543239
0.06298474 0.16898395 -0.746031 0.70682865 0.034076586 -0.44399375 -0.34371156 -0.14027515
0.3594686 0.3067455 -0.111110196 -0.3376677 0.51376706 -0.1794112 -0.41195467 0.05267726
0.49646106 0.2436862 0.31431344 -0.3105155 0.06742736 0.3132019 0.1344776 -0.9519847
-0.13919559 0.1311884 0.17068699 0.7418199 -0.42896938 0.7537042 0.68578523 -0.2323944
-0.09665891 -0.8364051 -0.7342523 0.48863366 0.09766551 0.5847901 0.49714455 0.92542773
0.15549181 0.5188226 -0.42641497 0.13137259 0.10122836 -0.16279283 -0.46859986 -0.08329162
0.2583461 -0.9427392 0.6484098 0.021899657 0.41285217 0.24695967 -0.27665156 0.47697952
0.42333353 -0.33229613 0.283358 -0.018375505 -0.9074701 0.3037133 -0.1837893 -1.0040625
00000000: cc40 863f 2dc1 81bf d5a8 623f 2435 a2bf
00000010: 1d9e 45be f49f 9dbe 24f7 38be eb87 52bc
00000020: e8e3 2fbf 249b a33f baa8 e4bc e64e e6bd
00000030: 3107 4dbe d9c1 babe 4824 c4bd ff0b 993e
00000040: 6447 1ebf 6adf 37be 6fe2 5e3d 27de b5be
00000050: c036 543d 9a92 85be c438 1f3f c17e 8cbf
00000060: 1ac7 3ebe 4f86 733e eb32 e7be 1542 b33e
00000070: d29a 9bbe 7d2e d53f b0a9 d8be 4fa6 f2be
00000080: af2d 9eba 8cab d0bd 63e4 5cbd 0b5c c33e
00000090: 6c9c 613e 7d31 b53e 34ad 1d3f 7c94 39be
000000a0: d10d 76bf 9da5 973e f758 0cbf f83d 763f
000000b0: d95c 9dbe 41d7 d6be 19f5 a03f 2b0d 043e
000000c0: 3338 553e dab2 413c f0d1 30bf 5b59 aabe
000000d0: 02b0 a8be 9b44 d7be 5626 a7bd f910 88bf
000000e0: 3bda 223e 3a93 c33e 6edf c8be d8ac 77be
000000f0: 5290 753e e8e9 3dbf 1e1e 523e 105d ba3e
00000100: 25eb 09bd 4821 5bbf e549 31bd c2a5 343f
00000110: 6b59 a4be f97a 25bc 113a c93e 4039 83bd
00000120: 4a66 bfbe 59b7 75bf 3240 0c3f dd87 c5be
00000130: 5578 613f 8941 423f 26ad fdbe d6d2 abbd
00000140: 9de5 84be 1d9d 1abe e0e9 0cbe 7ca2 acbe
00000150: fc2e 49bf fb42 81bb 243c 493f 4252 763d
00000160: 72c5 203e 4a40 d83e 7e28 c4bd b122 16bd
00000170: 1dba 01bf 6cb9 ccbd b7e1 08bd 86d9 283e
00000180: 99f5 e13e 4f9f bebf 888d acbe d654 bbbe
00000190: 4b1a 6d3f f691 a3be 0ee0 e23e 0384 16bf
000001a0: f172 b33d 7df2 4ebe 06cc 90be c9f6 9dbe
000001b0: 3cc7 1ebf 1136 653e 5127 983e 72bf 093f
000001c0: 040e bcbe f41f 43be 6024 403e 4c88 fdbe
000001d0: 8964 f2be 702f e2be c5cd afbe 0af9 43be
000001e0: d806 7dbe c56c c53d ba00 e0bd f748 2ebf
000001f0: 17d6 4d3f d300 843e 3066 16bc fd73 883f
00000200: 7891 743e 39ad 67bf d5e0 46bf 955b 0bbf
00000210: 4f12 803f d4a7 b33e 491e b73e 989a babe
00000220: 1151 8cbe aa05 ddbe a430 9fbe 5220 d1bd
00000230: 868d c63e 4955 2b3c ae24 0ebf c004 6e3e
00000240: bbe7 e3bd 61a2 863d 41cd ef3e 13e0 9fbe
00000250: 3d2f cd3d 9af8 9a3e 4a31 5c3e ce6a 993f
00000260: d723 a83d 2e06 40bd d5e1 273e 14e7 b13b
00000270: f5d8 4b3f 8943 9d3d f135 58bf fdae b43a
00000280: c392 83bf 4481 febd 03c0 2a3e 9ef8 253f
00000290: c03e 2cbe bd02 8fbe 491d 913e c99b 943e
000002a0: 8eee d5bd d314 fe3e 9cf3 173f 5c53 83bf
000002b0: 8fb1 293f 925f b33d edf9 a1bd e1d2 e3bc
000002c0: 7f39 9bbe 9e7e 063f 0e99 3d3e 1d70 693d
000002d0: 1d91 df3e 25de 16bf 715b c83e 2746 163f
000002e0: 28d9 5e3e aaa2 873e 857a 6d3f 81fc a0be
000002f0: 12f8 483f e7ff 7dbc 05ac 83bc c581 273f
00000300: 25fe 803d 210a 2d3e e3fb 3ebf b9f2 343f
00000310: e493 0b3d 2653 e3be f6fa afbe 4aa4 0fbe
00000320: 450c b83e bf0d 9d3e be8d e3bd c8e2 acbe
00000330: 3d86 033f 92b7 37be b9eb d2be 1cc4 573d
00000340: 2530 fe3e e088 793e b1ed a03e e3fb 9ebe
00000350: 5b17 8a3d 005c a03e 7fb4 093e 45b5 73bf
00000360: 4a89 0ebe 4056 063e 92c8 2e3e e9e7 3d3f
00000370: e0a1 dbbe c2f2 403f 9f8f 2f3f ccf8 6dbe
00000380: 1bf5 c5bd a51e 56bf f5f7 3bbf 312e fa3e
00000390: db04 c83d ceb4 153f bb89 fe3e d5e8 6c3f
000003a0: 3f39 1f3e 8fd1 043f 1053 dabe 8986 063e
000003b0: d050 cf3d 2ab3 26be 52ec efbe cc94 aabd
000003c0: f145 843e 5b57 71bf 2ffe 253f e966 b33c
000003d0: 5c61 d33e ffe2 7c3e 46a5 8dbe a936 f43e
000003e0: 2cbf d83e b822 aabe 4d14 913e 3a88 96bc
000003f0: f64f 68bf 4f80 9b3e 4333 3cbe 1f85 80bf

decoder_net.2.bias f4 [128]
0.0933538 0.016615948 -0.083188966 0.090079196 0.10686552 -0.06686227 -0.0073055755 -0.050205775
0.14136574 0.034449045 -0.026696725 0.041428722 0.14464056 0.05568769 0.054868426 0.00281338
-0.04012201 -0.10416507 0.05103136 0.0498827 0.036998365 0.11273699 0.03260342 0.025942888
-0.07788527 -0.032603085 0.04872763 -0.052766114 -0.013940062 0.012620881 0.06612488 0.06795438
-0.016820606 -0.03367651 0.09088671 -0.023426192 0.02426494 0.05206427 -0.06986962 0.0005591007
0.08129535 0.15314378 0.030707745 -0.0015703704 0.0059512556 0.08643807 0.032836683 0.07968205
-0.0746273 -0.008089806 0.029251939 0.07312813 0.093566 0.12854762 -0.043885715 -0.07848571
0.07499524 0.022013184 0.023171522 -0.099734016 0.11268211 0.065189846 0.09107654 0.17261818
0.014574115 -0.020773988 0.0733164 0.10216501 0.1520271 -0.00013616837 -0.022195142 -0.061842326
0.0729168 0.090970114 -0.09189588 0.01668841 0.053692084 0.019072331 0.08337447 0.060834363
-0.006599789 -0.044402406 0.05403384 0.033538762 -0.031348042 0.04086879 0.007941012 0.042018875
0.022533964 -0.04062927 0.10517413 -0.08648942 0.0742411 0.016420197 -0.05969576 0.12673901
0.121206015 -0.101566374 -0.06828934 0.0037982115 0.020290991 0.109261364 -0.048742075 0.13075343
-0.044132773 -0.04449514 0.0060497215 -0.03216518 0.092811175 0.046273835 0.12144314 -0.016008854
0.028568432 0.031635486 -0.085551634 0.021404376 -0.0035226657 0.08255719 0.089712836 -0.06058739
0.18863504 -0.004278839 0.06772892 -0.017623764 -0.022286244 -0.079645164 0.029959405 0.07290274
00000000: 4730 bf3d 2b1e 883c fa5e aabd 717b b83d
00000010: 4fdc da3d 16ef 88bd 9c63 efbb 92a4 4dbd
00000020: 2ec2 103e 711a 0d3d 17b3 dabc 2ab1 293d
00000030: a81c 143e c618 643d b7bd 603d af60 383b
00000040: fa56 24bd 7f54 d5bd 4206 513d cd51 4c3d
00000050: 998b 173d a7e2 e63d 2a8b 053d 2e86 d43c
00000060: 5082 9fbd d08a 05bd a096 473d 4821 58bd
00000070: dc64 64bc d0c7 4e3c 7b6c 873d aa2b 8b3d
00000080: 5ecb 89bc 61f0 09bd d022 ba3d 49e8 bfbc
00000090: 44c7 c63c 5841 553d ce17 8fbd 9d90 123a
000000a0: 2d7e a63d b9d1 1c3e cf8e fb3c e3d4 cdba
000000b0: c002 c33b 7106 b13d c27f 063d 5830 a33d
000000c0: 33d6 98bd 1b8b 04bc c3a1 ef3c 33c4 953d
000000d0: 889f bf3d fda1 033e 82c1 33bd 1ebd a0bd
000000e0: 1b97 993d fe54 b43c 34d2 bd3c 5941 ccbd
000000f0: e1c5 e63d 4182 853d 5686 ba3d d2c2 303e
00000100: 45c8 6e3c 362e aabc e926 963d e43b d13d
00000110: feac 1b3e 6bc8 0eb9 96d2 b5bc 614e 7dbd
00000120: 6755 953d 8a4e ba3d e833 bcbd 22b6 883c
00000130: 3bec 5b3d 943d 9c3c 3cc0 aa3d 742d 793d
00000140: 0b43 d8bb 4cdf 35bd 9652 5d3d f15f 093d
00000150: ce66 00bd 0866 273d 051b 023c fc1b 2c3d
00000160: 2699 b83c e16a 26bd 8965 d73d 5d21 b1bd
00000170: b80b 983d a683 863c 8b83 74bd dfc7 013e
00000180: dc3a f83d 0802 d0bd 48db 8bbd 6aeb 783b
00000190: 4b39 a63c 6cc4 df3d c5a5 47bd 3ae4 053e
000001a0: 91c4 34bd 8940 36bd be3c c63b a3bf 03bd
000001b0: c913 be3d a289 3d3d 2eb7 f83d 0025 83bc
000001c0: 5808 ea3c 3694 013d b235 afbd 3b58 af3c
000001d0: 86dc 66bb be13 a93d 5dbb b73d 7c2a 78bd
000001e0: 8b29 413e 8135 8cbb 76b5 8a3d b65f 90bc
000001f0: a491 b6bc 011d a3bd 6d6d f53c 084e 953d

decoder_net.4.weight f4 [128, 128]
0.14535624 0.92341083 -0.67305374 -0.23876241 0.014154272 0.43576568 0.84980637 -0.111256294
1.0948871 0.6372544 -0.17702444 0.08959205 0.030004583 1.0267692 -0.5187973 0.8629827
-0.39666855 -0.18103947 0.15699026 -0.47323278 0.53711593 -0.28842646 -0.050955713 0.37288725
-0.5855834 0.13931249 0.8812326 0.28492072 -0.23440507 0.477191 0.6460513 -0.17498614
-0.42824063 -0.078935206 0.24723886 -0.43783566 0.8032819 -0.031719398 1.06173 0.069065586
0.08479394 0.26111832 -0.77924734 -0.022488227 0.4762847 -0.7324883 -0.54967463 0.0023377566
0.097660474 -0.2971648 -0.8176241 -0.98002034 -0.4382948 1.3792988 -1.1437724 -0.015396443
-0.18892504 0.09012155 0.31582665 -0.20744862 0.59467775 0.21050674 -0.5869046 -0.499528
-0.48500746 -0.3585673 -0.3414559 0.39459497 0.59401333 0.757463 0.5689391 0.1242951
0.6383599 -0.097256444 -0.06698525 0.76486236 0.9415615 -0.3198464 -0.5340309 -0.2505898
0.12951167 -0.4846525 0.5284115 -0.5903783 0.42237958 -0.11254892 -0.85799736 0.27110535
0.3676092 -0.1830551 -0.0012493009 -0.16606121 0.053405758 -0.19539848 0.14884798 0.38605818
0.38541365 0.30214903 0.3471611 -0.3298721 0.19669685 0.4584776 -0.29644766 1.0437996
0.24259695 -0.05669738 -0.16299741 -0.0032600542 -0.48937926 -0.47511995 0.21739972 -0.24207503
0.26622716 0.06967111 -0.1311294 0.40186942 -0.6166906 -0.74076766 -0.16616844 0.48530313
0.9400801 0.8569877 -0.1138891 -0.023652352 -0.9663611 -0.08936961 -0.37384358 0.25815526
-0.82581586 -0.57152736 0.059688177 -0.104923576 -0.40978408 -0.22939013 -0.6535388 -0.24185964
-0.47621316 0.2433873 -0.18362147 0.7153382 -0.5681803 0.40804368 -0.46375704 0.17707115
0.10989278 0.11059174 -0.28853846 0.12246578 0.35755947 -0.36394703 -0.04172326 0.15859139
0.43027902 0.45610404 0.7536649 0.59806746 -0.35612443 -0.055104665 -0.13915469 0.16068146
1.0446078 0.7519332 0.23941672 -0.08044708 0.27969703 0.58223975 0.13452356 -0.095036045
-0.051957168 0.24829166 -0.76119286 0.22544856 0.37726742 0.61735046 -0.015627665 -0.037201982
0.542456 0.028744278 0.26629072 0.22661889 0.06716385 -0.039683092 -0.48783162 0.1922338
-0.17632435 -0.7154521 0.24878564 0.054755982 0.03688152 0.4126421 -0.22087048 -0.09221704
0.14421766 0.29842812 -0.4068556 -0.12135976 -0.9162969 -0.6588743 0.37630343 0.2530064
0.55741507 -0.2864759 0.85059524 0.4399908 0.21773674 0.6634449 -0.66083425 -0.75248307
0.5895625 0.5579578 0.11257237 0.043577734 0.01679334 0.32750776 -0.25990492 -0.24739641
-0.14036372 0.30382237 0.032491487 0.3768588 -0.27932078 -0.16172992 -0.41406354 -0.3618134
-0.23084301 0.062103845 -0.15412053 0.6712911 0.4668477 0.12151418 -1.5388143 0.79185593
0.2946909 -0.35747156 0.9697187 -0.18501544 -0.29577395 -0.28870717 -0.7592391 -0.064878136
0.08928986 -0.38976166 0.46446666 0.39033386 0.39950612 0.07763501 0.19155405 -0.43732977
-0.1875779 0.24906063 0.79262066 -0.6569722 0.7862021 -0.02756373 0.7566172 1.3193731
00000000: 44d8 143e a764 6c3f 404d 2cbf 227e 74be
00000010: 52e7 673c ae1c df3e e98c 593f 57da e3bd
00000020: 4325 8c3f 1b23 233f e545 35be 097c b73d
00000030: 2ccc f53c 2c6d 833f e6cf 04bf 6fec 5c3f
00000040: 2418 cbbe 6962 39be 0ec2 203e 914b f2be
00000050: 6e80 093f a2ac 93be f0b6 50bd 14eb be3e
00000060: cbe8 15bf efa7 0e3e 7698 613f 21e1 913e
00000070: e207 70be 6152 f43e 9e63 253f 912f 33be
00000080: 5b42 dbbe c8a8 a1bd 2f2c 7d3e ff2b e0be
00000090: e2a3 4d3f 33ec 01bd c5e6 873f 4272 8d3d
000000a0: 72a8 ad3d 4db1 853e c17c 47bf 3b39 b8bc
000000b0: 97db f33e 5a84 3bbf 7ab7 0cbf 0c35 193b
000000c0: 3702 c83d fc25 98be d04f 51bf 9de2 7abf
000000d0: 2d68 e0be dd8c b03f 2267 92bf 5d41 7cbc
000000e0: 9175 41be a691 b83d 08b4 a13e 696d 54be
000000f0: cd3c 183f 148f 573e 613f 16bf 22c2 ffbe
00000100: e652 f8be 2296 b7be 4fd3 aebe 5a08 ca3e
00000110: 4211 183f 18e9 413f fea5 113f 6e8e fe3d
00000120: 8e6b 233f 632e c7bd 902f 89bd 05ce 433f
00000130: 2d0a 713f e8c2 a3be 40b6 08bf 4e4d 80be
00000140: b59e 043e 5f24 f8be fa45 073f 0823 17bf
00000150: 2342 d83e 0c80 e6bd b7a5 5bbf 52ce 8a3e
00000160: 4637 bc3e cc72 3bbe 95bf a3ba f30b 2abe
00000170: ffbf 5a3d 8a16 48be 9b6b 183e 6ba9 c53e
00000180: f054 c53e 47b3 9a3e 1abf b13e ffe4 a8be
00000190: e66a 493e 93bd ea3e fdc7 97be 3a9b 853f
000001a0: 566b 783e 833b 68bd cbe8 26be a2a6 55bb
000001b0: eb8f fabe ec42 f3be 089e 5e3e 84e2 77be
000001c0: ed4e 883e baaf 8e3d c946 06be d4c1 cd3e
000001d0: 6fdf 1dbf f3a2 3dbf 0f28 2abe a779 f83e
000001e0: 17a9 703f 8c63 5b3f b03e e9bd 94c2 c1bc
000001f0: 7163 77bf 6a07 b7bd 6d68 bfbe ed2c 843e
00000200: ab68 53bf 9e4f 12bf 977b 743d 2ce2 d6bd
00000210: 38cf d1be 3fe5 6abe 524e 27bf 0eaa 77be
00000220: 36d2 f3be 853a 793e 4407 3cbe 6720 373f
00000230: 4474 11bf 1aeb d03e 9071 edbe 2452 353e
00000240: 770f e13d ec7d e23d 50bb 93be 57cf fa3d
00000250: 0912 b73e 4457 babe 02e6 2abd c865 223e
00000260: 884d dc3e 7886 e93e 2ff0 403f f31a 193f
00000270: f155 b6be 6eb5 61bd 917e 0ebe ae89 243e
00000280: b5b5 853f b27e 403f a829 753e 70c1 a4bd
00000290: 7334 8f3e aa0d 153f 8bc0 093e 42a2 c2bd
000002a0: 0ad1 54bd 2b40 7e3e 89dd 42bf fddb 663e
000002b0: 3229 c13e ae0a 1e3f 9705 80bc 1b61 18bd
000002c0: 65de 0a3f 1f79 eb3c 4257 883e c80e 683e
000002d0: 338d 893d bd8a 22bd 11c5 f9be f0d8 443e
000002e0: 5f8e 34be de27 37bf aac1 7e3e cf47 603d
000002f0: 1411 173d d345 d33e df2b 62be 4adc bcbd
00000300: cbad 133e 92cb 983e 614f d0be 778b f8bd
00000310: 6f92 6abf fcab 28bf d8aa c03e 0e8a 813e
00000320: c1b2 0e3f f8ac 92be 9cc0 593f 7946 e13e
00000330: 61f6 5e3e 86d7 293f 6f2c 29bf bba2 40bf
00000340: 91ed 163f 53d6 0e3f 588c e63d 917e 323d
00000350: 3092 893c 19af a73e 4212 85be 7c55 7dbe
00000360: 82bb 0fbe 9b8e 9b3e cb15 053d a3f3 c03e
00000370: 2203 8fbe 879c 25be 2300 d4be 9b3f b9be
00000380: 1c62 6cbe 9a60 7e3d c6d1 1dbe bcd9 2b3f
00000390: a906 ef3e 6ddc f83d def7 c4bf 12b7 4a3f
000003a0: bae1 963e 8306 b7be 7c3f 783f b074 3dbe
000003b0: af6f 97be 6dd1 93be 7e5d 42bf d4de 84bd
000003c0: 9add b63d d78e c7be 93ce ed3e d7d9 c73e
000003d0: 118c cc3e 1bff 9e3d bf26 443e b0e9 dfbe
000003e0: 6c14 40be c009 7f3e 30e9 4a3f 552f 28bf
000003f0: 8a44 493f 55cd e1bc aab1 413f 38e1 a83f

decoder_net.4.bias f4 [128]
0.119024955 0.024190193 -0.084911585 -0.027653491 0.13210881 -0.02468691 0.06280347 -0.03227142
-0.04824985 -0.077033654 0.07333799 -0.08789281 -0.01446117 0.12615986 0.019533155 0.062212445
0.07865015 -0.032380894 0.13728088 0.09237476 0.0017404966 -0.004417568 0.07492528 -0.031536333
-0.042093538 -0.07270828 -0.007940536 0.067479916 0.04905557 -0.0064079887 0.061610363 0.06935018
-0.06784539 0.086995326 -0.022023937 -0.11163484 0.11747875 0.013059413 0.07816349 -0.04617978
0.10682004 0.056798898 0.0012759124 -0.033774696 0.016596138 0.02308985 0.0073720724 0.025416596
-0.010058977 -0.0018532579 0.11661257 0.072674654 -0.027349345 0.072599135 0.022444837 0.07442813
0.15123135 -0.057167657 0.16761445 0.036399074 -0.01954721 -0.071091585 -0.0810005 0.06211629
0.08558232 0.044952527 -0.07388215 0.0010374794 0.035617933 0.05415562 0.0116514675 0.14775695
0.021820169 0.03421827 -0.08762728 -0.014566372 -0.05903212 0.13093193 0.036676243 0.021000374
-0.05273569 -0.024639472 0.06794942 0.12774493 0.03185104 0.047612812 0.02796794 0.10431165
-0.07652814 -0.07067225 -0.015576788 -0.09714631 0.081974946 0.0308621 -0.06773851 -0.04554073
0.0470042 0.03525657 0.039474133 0.056208692 0.035615586 -0.10655962 -0.11367595 -0.028121173
0.07325975 -0.008109197 0.029999876 -0.057912912 -0.08364454 -0.01666151 0.117233396 0.03621562
0.009242658 -0.073585324 0.023229063 0.08550101 0.06610536 0.0319137 0.14243157 0.007916082
0.019660816 0.052836128 0.019300586 0.024213193 0.08831572 0.019921765 0.014859572 0.08053038
00000000: 5bc3 f33d 832a c63c 20e6 adbd 9389 e2bc
00000010: 8847 073e 343c cabc 1b9f 803d 092f 04bd
00000020: a2a1 45bd d2c3 9dbd 3a32 963d 2501 b4bd
00000030: 8bee 6cbc 0d30 013e ff03 a03c 7ad2 7e3d
00000040: 5413 a13d d4a1 04bd 5c93 0c3e fa2e bd3d
00000050: 6021 e43a 3fc1 90bb 6d72 993d 3e2c 01bd
00000060: 466a 2cbd 14e8 94bd 0619 02bc e932 8a3d
00000070: 7eee 483d 1bfa d1bb 265b 7c3d 7807 8e3d
00000080: 86f2 8abd 9b2a b23d 8b6b b4bc cfa0 e4bd
00000090: b398 f03d 26f7 553c 2e14 a03d 0227 3dbd
000000a0: 77c4 da3d f6a5 683d 843c a73a 5657 0abd
000000b0: a0f4 873c ed26 bd3c 6d91 f13b 7736 d03c
000000c0: 68ce 24bc 04e9 f2ba 92d2 ee3d 73d6 943d
000000d0: bc0b e0bc dbae 943d 3cde b73c c76d 983d
000000e0: 64dc 1a3e a228 6abd 1fa3 2b3e 3217 153d
000000f0: 7821 a0bc 7798 91bd 97e3 a5bd a76d 7e3d
00000100: c945 af3d 2420 383d 864f 97bd 08fc 873a
00000110: 1ce4 113d 49d2 5d3d cce5 3e3c 994d 173e
00000120: 36c0 b23c 7528 0c3d ee75 b3bd cba7 6ebc
00000130: aacb 71bd 0513 063e d439 163d fa08 ac3c
00000140: 6101 58bd b8d8 c9bc 1129 8b3d 91cf 023e
00000150: 3c76 023d a705 433d 051d e53c 59a1 d53d
00000160: c9ba 9cbd 9dbc 90bd c935 7fbc a5f4 c6bd
00000170: 7be2 a73d 84d2 fc3c 7dba 8abd eb88 3abd
00000180: 7a87 403d 3169 103d a1af 213d 163b 663d
00000190: a6e1 113d ee3b dabd f0ce e8bd 605e e6bc
000001a0: 3509 963d 70dc 04bc 4dc2 f53c 1736 6dbd
000001b0: d44d abbd b87d 88bc 1018 f03d d456 143d
000001c0: 846e 173c e7b3 96bd e04a be3c 271b af3d
000001d0: 3f62 873d f1b7 023d 95d9 113e 74b2 013c
000001e0: b80f a13c b26a 583d 431c 9e3c bf5a c63c
000001f0: dfde b43d f832 a33c 9075 733c 1ded a43d

decoder_net.6.weight f4 [128, 128]
-0.09530629 -0.89785963 -0.32364586 -0.7700345 0.4962486 0.6963874 0.12661004 -0.18076427
1.2934076 0.1439411 1.0224338 -0.05750764 -0.31747836 -1.1089519 -0.6864591 0.6294851
-0.3597323 0.56052846 0.048248664 0.23765285 -0.5882169 -0.0075152004 0.53156406 0.5844964
-0.98882246 0.11336087 0.44226804 -0.10073325 0.78884435 0.14670247 -0.021900706 0.51734376
0.5955287 0.16849418 -0.36300611 0.40370867 0.65806866 0.9793951 -0.88593906 0.5245984
0.72267103 1.4671314 0.28747052 1.107958 -0.70516884 0.20747335 0.31156284 0.42837384
-0.45424277 0.040393338 -0.2446133 0.16775666 -0.60124063 0.25229073 -0.22551775 0.20401843
0.5402684 0.68458563 0.36534014 -0.41480455 -0.07087923 0.1463787 0.8063689 -0.2957775
-0.4017911 -0.39058772 0.6036408 -0.12971659 -0.65662175 0.7206794 -0.24075912 0.5331782
0.03040775 0.6114508 0.12712374 0.037367642 0.6007377 0.463569 0.089275464 -0.9075514
-0.32804736 -0.83542633 -0.37424532 0.23247427 0.60148245 -0.22851141 0.037650537 0.26219147
0.67130035 0.39292628 0.36512682 -1.0566915 0.32469994 0.8793296 -0.33616015 -0.8621286
0.40531436 0.43121517 -0.046489455 0.81527185 0.2933823 -0.09909797 -0.48800266 0.007696463
0.5128444 0.5429382 0.87118864 -0.024715764 -1.3650492 -0.1664981 -0.25292403 -0.025809199
0.0021028377 -0.76310235 0.34927005 0.8298316 -0.057296988 0.4403262 -0.3200111 1.2635192
0.42092255 0.59911853 -0.3201707 0.13076779 0.58454776 -0.12762532 -0.8992759 0.18421488
-0.007396948 -0.45567834 0.31178856 0.21112716 0.19083835 -0.39554912 -0.32887322 0.353358
0.13755141 0.075735636 0.46329126 0.4268473 0.2394001 0.307665 -0.32286218 0.4018722
0.35628498 0.10911218 0.72870505 1.1591549 0.23661028 -0.1807334 0.08689931 0.32109147
-1.1428723 0.24123162 1.1350614 0.10963023 0.08456386 0.23261201 0.0748649 0.1440388
0.7287121 0.77623785 0.34422338 -0.2821757 0.76828706 0.3608318 0.6916172 -0.095859826
-0.79870856 0.6476716 -0.48565465 0.34923235 0.13526048 0.88423115 -1.0815506 0.04337278
-0.2560974 0.04180548 -0.4636964 0.23060326 0.7070398 0.4327536 -0.6015733 0.16513541
-0.3675369 0.59353584 -0.3952955 0.3378539 0.29178378 -0.060647085 0.053480957 -0.57389885
0.18905641 0.10164029 -0.9058831 -0.36708307 0.45784718 -0.5477462 -0.08918144 0.04183251
0.038694933 0.12118164 0.04057358 0.15090516 -0.3403482 0.7329548 -0.15700024 -0.43452328
-0.08809021 -0.8538118 0.060262993 0.32475942 0.5982833 0.03535665 0.26513666 0.634965
-0.011312498 -0.12477337 0.086687334 0.08457401 -0.05052001 -0.25145513 -0.2545492 0.0783669
0.094055526 -0.38983285 -0.35131398 -0.36988136 -0.1515261 0.2192215 -0.8031865 0.73736674
0.7762955 0.9670601 0.18788837 0.095706254 -0.14682826 -0.28085136 0.6908964 1.2763124
-0.016302323 -0.09439097 0.92374617 -0.37585935 -0.43878806 -0.26550564 0.21272641 0.024409417
0.527651 -0.5146457 -0.002173674 0.06389461 -0.047328405 -0.10361992 -0.28828672 -0.32068712
00000000: f22f c3bd 21da 65bf e9b4 a5be fb20 45bf
00000010: 4c14 fe3e 7246 323f 10a6 013e 451a 39be
00000020: 618e a53f 4c65 133e 1cdf 823f 228d 6bbd
00000030: 868c a2be 23f2 8dbf c9bb 2fbf ef25 213f
00000040: d52e b8be cb7e 0f3f 64a0 453d 455b 733e
00000050: 6295 16bf 1242 f6bb 9514 083f 8ea1 153f
00000060: 7823 7dbf be29 e83d f570 e23e 3c4d cebd
00000070: b4f1 493f 2c39 163e 1c69 b3bc a470 043f
00000080: 9274 183f bd89 2c3e f0db b9be e7b2 ce3e
00000090: 3077 283f a3b9 7a3f e7cc 62bf 154c 063f
000000a0: f800 393f f6ca bb3f 562f 933e 91d1 8d3f
000000b0: f285 34bf e573 543e 2a85 9f3e d153 db3e
000000c0: 8292 e8be 7c73 253d e97b 7abe 67c8 2b3e
000000d0: e8ea 19bf 402c 813e 20ee 66be 35ea 503e
000000e0: 084f 0a3f 0141 2f3f dd0d bb3e 4361 d4be
000000f0: 2129 91bd 4ce4 153e 316e 4e3f 2670 97be
00000100: 90b7 cdbe 1dfb c7be 3488 1a3f 6dd4 04be
00000110: 5d18 28bf 727e 383f 8f89 76be 5e7e 083f
00000120: ac19 f93c 0a88 1c3f ba2c 023e d00e 193d
00000130: f2c9 193f ea58 ed3e 0ed6 b63d 4a55 68bf
00000140: d3f5 a7be 80de 55bf 159d bfbe bc0d 6e3e
00000150: c1fa 193f e5fe 69be 7337 1a3d f63d 863e
00000160: 57da 2b3f a22d c93e e7f1 ba3e ab41 87bf
00000170: 123f a63e bf1b 613f 2f1d acbe 76b4 5cbf
00000180: 5d85 cf3e 3cc8 dc3e ba6b 3ebd a8b5 503f
00000190: 3436 963e e0f3 cabd 7cdb f9be 9c32 fc3b
000001a0: c549 033f fffd 0a3f 3806 5f3f b778 cabc
000001b0: efb9 aebf 7a7e 2abe 427f 81be d06d d3bc
000001c0: c3cf 093b ad5a 43bf 86d3 b23e d86f 543f
000001d0: 3fb0 6abd 7072 e13e 7fd8 a3be ffba a13f
000001e0: 2983 d73e d55f 193f 6aed a3be fee7 053e
000001f0: eca4 153f 36b0 02be f236 66bf d3a2 3c3e
00000200: 1962 f2bb ac4e e9be c0a2 9f3e b831 583e
00000210: 216b 433e 6a85 cabe 1262 a8be 57eb b43e
00000220: 47da 0c3e 491b 9b3d 8334 ed3e bb8b da3e
00000230: 4d25 753e 4486 9d3e 314e a5be 31c2 cd3e
00000240: fc6a b63e 3576 df3d 6a8c 3a3f 305f 943f
00000250: f749 723e 2d12 39be 44f8 b13d 1a66 a43e
00000260: a449 92bf 6c05 773e b149 913f d085 e03d
00000270: d12f ad3d d831 6e3e c552 993d e87e 133e
00000280: e08c 3a3f 86b7 463f 0c3e b03e 5579 90be
00000290: 76ae 443f f2be b83e d30d 313f 2852 c4bd
000002a0: 2a78 4cbf cecd 253f baa7 f8be 95ce b23e
000002b0: b981 0a3e f95c 623f 4070 8abf a8a7 313d
000002c0: 331f 83be 393c 2b3d 9d69 edbe 4323 6c3e
000002d0: 8f00 353f e191 dd3e b500 1abf 4219 293e
000002e0: cc2d bcbe f7f1 173f 2c64 cabe 30fb ac3e
000002f0: af64 953e 1469 78bd d90e 5b3d 09eb 12bf
00000300: 0198 413e c928 d03d f4e7 67bf 50f2 bbbe
00000310: f26a ea3e 1839 0cbf c2a4 b6bd 9158 2b3d
00000320: 947e 1e3d 142e f83d 7b30 263d e286 1a3e
00000330: 1f42 aebe eda2 3b3f acc4 20be d679 debe
00000340: a468 b4bd 6993 5abf 54d6 763d de46 a63e
00000350: 1829 193f 22d2 103d febf 873e 118d 223f
00000360: 0e58 39bc 2e89 ffbd 2189 b13d 2335 ad3d
00000370: 12ee 4ebd babe 80be 4654 82be d37e a03d
00000380: 2fa0 c03d 2c98 c7be 6ddf b3be 1761 bdbe
00000390: a829 1bbe 9a7b 603e a19d 4dbf 11c4 3c3f
000003a0: 4dbb 463f 4091 773f cf65 403e a401 c43d
000003b0: 265a 16be c0cb 8fbe 96de 303f 345e a33f
000003c0: 738c 85bc 0e50 c1bd a17a 6c3f a370 c0be
000003d0: d4a8 e0be 5bf0 87be f4d4 593e 42f6 c73c
000003e0: 2314 073f d2bf 03bf 3374 0ebb 2ddb 823d
000003f0: 6edb 41bd ae36 d4bd 519a 93be 1a31 a4be

decoder_net.6.bias f4 [128]
0.048212226 0.12012105 -0.06746578 0.045661476 0.05372754 0.014619026 0.11588073 0.106065035
-0.01817618 -0.06015946 0.06812348 -0.021470573 0.008533973 -0.059761386 0.0657655 0.034284353
-0.071076654 0.050190106 -0.010574746 0.16269115 0.018197635 0.042059965 0.07339874 0.046770897
-0.043636985 0.04609347 0.1172049 0.03410781 0.04519244 0.052804373 0.086998455 0.04900456
0.07243574 -0.07486103 0.0507144 -0.016443364 0.13467203 -0.04264206 0.09459258 0.09859741
-0.06541582 0.10558161 -0.012538717 0.05019494 0.01999326 -0.039695967 0.019073904 -0.04100325
-0.033297192 0.0410097 -0.016245859 -0.0018935822 -0.025302276 -0.023412952 0.027811132 0.03599461
0.06312012 0.113947734 0.0952468 0.043331996 -0.032679208 0.033604402 0.061588638 -0.08213015
-0.009893472 0.023647089 0.053602546 0.059852537 0.04470486 0.066501744 0.049650706 0.003456365
0.08689844 -0.08156882 0.03924153 0.059883647 0.06934391 0.048437424 -0.034001283 0.051300075
0.062562525 -0.034317482 -0.035969283 0.06294552 0.04297114 0.08042418 0.042177547 0.09279503
0.00015840406 0.09744297 -0.03416095 0.09452473 -0.017179694 -0.07213761 0.08893908 0.015547909
0.040937424 0.009837528 0.11047254 -0.020695044 0.11594198 -0.0896846 0.090142146 -0.04767122
-0.06516357 0.07809553 0.07779025 -0.011755351 -0.06626856 0.11607589 -0.03692291 0.030252779
0.083088234 0.012358572 -0.017279781 0.05910418 -0.086014174 -0.03288003 0.089618005 0.044146124
-0.063371666 -0.049240313 0.0518974 -0.008765225 0.038532004 0.023415525 0.055503845 -0.024992984
00000000: 2f7a 453d 0602 f63d 802b 8abd 8707 3b3d
00000010: 6911 5c3d a484 6f3c e052 ed3d a038 d93d
00000020: 36e6 94bc c469 76bd 5384 8b3d 0ee3 afbc
00000030: 14d2 0b3c 5bc8 74bd 10b0 863d c06d 0c3d
00000040: a390 91bd 2494 4d3d b341 2dbc 8298 263e
00000050: 3513 953c 1247 2c3d 1452 963d d792 3f3d
00000060: b2bc 32bd 82cc 3c3d 1f09 f03d a2b4 0b3d
00000070: b51b 393d 6649 583d 3f2c b23d 01b9 483d
00000080: 3059 943d bd50 99bd e7b9 4f3d 3cb4 86bc
00000090: 77e7 093e 71a9 2ebd c1b9 c13d 70ed c93d
000000a0: bbf8 85bd 2c3b d83d 316f 4dbc 3699 4d3d
000000b0: e8c8 a33c 3d98 22bd e040 9c3c 06f3 27bd
000000c0: a362 08bd caf9 273d 0916 85bc 1332 f8ba
000000d0: b846 cfbc 85cc bfbc 2cd4 e33c 166f 133d
000000e0: 1f45 813d 6e5d e93d c110 c33d e47c 313d
000000f0: a2da 05bd c5a4 093d 5e44 7c3d da33 a8bd
00000100: 3b18 22bc 8ab7 c13c 588e 5b3d ef27 753d
00000110: 711c 373d 1132 883d 8a5e 4b3d 2f84 623b
00000120: cff7 b13d 8e0d a7bd babb 203d 8e48 753d
00000130: 2e04 8e3d 5266 463d ee44 0bbd 0720 523d
00000140: c820 803d 7d90 0cbd 8754 13bd 95e9 803d
00000150: 8202 303d 6fb5 a43d 5dc2 2c3d 520b be3d
00000160: 4419 2639 2e90 c73d 5aec 0bbd 2f96 c13d
00000170: 6ebc 8cbc e2bc 93bd b125 b63d a8bc 7e3c
00000180: 00ae 273d 952d 213c 6d3f e23d a788 a9bc
00000190: fd72 ed3d 8fac b7bd 729c b83d e642 43bd
000001a0: 7a74 85bd 8df0 9f3d 7f50 9f3d 8499 40bc
000001b0: d0b7 87bd 32b9 ed3d 7a3c 17bd add4 f73c
000001c0: 2a2a aa3d 9c7b 4a3c 548e 8dbc 3a17 723d
000001d0: 3328 b0bd 36ad 06bd a589 b73d 91d2 343d
000001e0: 01c9 81bd 36b0 49bd 5e92 543d 059c 0fbc
000001f0: bcd3 1d3d ead1 bf3c 0058 633d 16be ccbc

decoder_net.8.weight f4 [128, 128]
-0.37930933 -0.09750519 -1.3321662 -0.1199686 -0.06999952 1.09303 -0.92320627 0.18266149
1.1300513 0.108856276 1.2408707 0.22049086 0.43681747 0.55017555 0.08728482 0.564289
0.13602807 -0.54159707 -0.64447516 0.6191811 -0.5761459 0.18903625 -0.0017229153 0.36000398
-0.9500927 -0.04165062 0.18245208 -1.0540689 0.14745738 0.6133638 0.08094953 -0.23589654
0.26388413 0.07971722 -0.014144195 -0.021652455 0.32939497 0.28215167 -0.41053507 0.6969921
-0.5657721 0.35355288 0.56958234 0.39163357 0.40655786 -0.9399273 -1.0370821 -0.11499502
-0.06917024 -0.12781475 -0.24461477 -0.7620066 1.5121249 -0.64072263 0.06939864 0.34017017
0.28729305 -0.3764618 -0.10186568 0.4979123 0.83518213 -0.8031837 0.60694844 0.8812415
0.34663704 0.09027913 -0.10972337 0.08178418 0.11938829 -0.16939773 -0.47481066 0.8215196
-0.19207633 -0.4169742 0.22636364 0.82776606 0.21527319 0.25064948 -0.004802573 0.5127363
-0.14483944 -0.34444076 0.30781478 0.29079804 -0.28573737 0.2536464 -0.10343321 0.22097121
0.7361807 -0.40241405 0.28054023 0.57000715 0.83155 0.26782876 -0.37531897 0.2182439
-0.26264808 0.14110133 0.5546589 -0.09640089 0.029506797 -0.3912146 0.45205805 -0.35601196
0.6865907 -0.12101755 0.3389684 0.15506062 -0.96271545 0.051242076 0.09560827 0.5050638
-0.20591956 1.347795 0.42179278 0.22488725 -0.60122854 -0.7479977 -0.42920172 -0.08665766
-0.6645749 -0.25970876 -0.42557976 0.54922014 0.11225672 -0.016619446 -0.10164888 0.88234806
-0.34185657 0.08277819 1.2273835 0.47698694 -0.3631075 0.2933801 0.018176293 0.41197303
0.79106134 0.5904417 -0.46627036 0.3419316 0.30994782 0.5378247 0.7069614 -0.7300164
1.1397026 -0.1837807 -0.3774939 0.69116974 0.21128127 0.77566093 -0.42132825 0.5995068
0.20955107 0.29951796 0.9069193 -0.31461915 -0.82872677 -0.7828175 -0.1094586 0.7258398
0.12686598 -0.042974927 0.3192348 0.08259349 -0.1725587 0.23910938 -0.80965865 0.48118925
0.37130308 0.24448921 0.6805777 -0.9041437 0.05686628 0.0317482 0.16772763 -0.7552336
0.60172623 -0.91721517 0.24051127 -0.20260604 -0.38901806 -1.1691437 -0.66568136 -0.18878229
0.2934568 -0.10176328 0.37555942 0.10465812 0.63948953 0.4630743 -0.3662469 -0.180403
-0.3426584 0.0035292513 0.27379626 0.08027917 -0.14681502 -1.0460008 0.2459538 0.9694792
0.34261134 -0.010203134 -0.24635327 -0.32324713 0.19685069 -0.29837593 0.9471401 -0.13319995
0.24146947 0.26452756 -1.0099175 0.110808186 -0.8174318 -0.00718182 -0.27452862 0.120150104
-0.34292826 0.043348685 0.834272 0.37670943 -0.07643855 -0.5307556 0.24689163 -0.09472557
0.48517472 0.23278172 0.07473322 0.6646942 0.9443325 0.09724725 0.23383573 0.73539245
-1.5099998 -0.02220789 -0.11629324 0.6076104 -0.6111106 0.52291787 0.14226604 -0.39823723
0.4255384 0.5596716 0.107474595 0.059125155 0.66751164 -0.5402068 0.49158916 0.56212854
0.8135976 0.38971943 0.4652118 0.41800845 0.28307816 0.64140254 0.23796201 0.48650813
00000000: d534 c2be cdb0 c7bd 6c84 aabf 19b2 f5bd
00000010: e95b 8fbd 68e8 8b3f 3f57 6cbf 9d0b 3b3e
00000020: 85a5 903f 0af0 de3d dad4 9e3f 5bc8 613e
00000030: 8aa6 df3e 4ed8 0c3f 62c2 b23d 3e75 103f
00000040: f14a 0b3e 1ba6 0abf 53fc 24bf a782 1e3f
00000050: 4c7e 13bf b892 413e 72d3 e1ba 7152 b83e
00000060: 4639 73bf d799 2abd b8d4 3a3e bbeb 86bf
00000070: 11ff 163e 6905 1d3f dec8 a53d dd8e 71be
00000080: d21b 873e c842 a33d 0ebd 67bc 7d60 b1bc
00000090: 75a6 a83e 2f76 903e a731 d2be 136e 323f
000000a0: 71d6 10bf e204 b53e 26d0 113f 3284 c83e
000000b0: 5a28 d03e 139f 70bf 1bbf 84bf 8282 ebbd
000000c0: 20a9 8dbd dfe1 02be 4b7c 7abe dd12 43bf
000000d0: 4f8d c13f 6606 24bf e020 8e3d c92a ae3e
000000e0: 1318 933e 9abf c0be f49e d0bd 5cee fe3e
000000f0: 7fce 553f 729d 4dbf f960 1b3f 0b99 613f
00000100: 697a b13e 44e4 b83d a5b6 e0bd 777e a73d
00000110: d981 f43d 9976 2dbe 621a f3be 1c4f 523f
00000120: a8af 44be a47d d5be dfcb 673e 7ae8 533f
00000130: 9370 5c3e 2155 803e e75e 9dbb b042 033f
00000140: ca50 14be 8a5a b0be e699 9d3e 7be3 943e
00000150: 2b4c 92be f1dd 813e cad4 d3bd 4746 623e
00000160: 5776 3c3f 3709 cebe f8a2 8f3e fdeb 113f
00000170: 76e0 543f da20 893e cf29 c0be 547b 5f3e
00000180: cf79 86be de7c 103e 20fe 0d3f d46d c5bd
00000190: 3db8 f13c 484d c8be 2774 e73e 3347 b6be
000001a0: 68c4 2f3f 0dd8 f7bd 448d ad3e 36c8 1e3e
000001b0: 8574 76bf 36e3 513d 45ce c33d dc4b 013f
000001c0: 94dc 52be 8c84 ac3f 39f5 d73e d848 663e
000001d0: 1dea 19bf c77c 3fbf 54c0 dbbe 9279 b1bd
000001e0: 9521 2abf 8cf8 84be 97e5 d9be b199 0c3f
000001f0: dae6 e53d 8125 88bc 4a2d d0bd 90e1 613f
00000200: d307 afbe 9d87 a93d e71a 9d3f a237 f43e
00000210: 3ae9 b9be eb35 963e 73e6 943c 21ee d23e
00000220: ff82 4a3f 3027 173f fdba eebe a911 af3e
00000230: 7bb1 9e3e e1ae 093f 6cfb 343f 5be2 3abf
00000240: c6e1 913f 0231 3cbe e146 c1be 80f0 303f
00000250: 1e5a 583e b791 463f 56b8 d7be 4779 193f
00000260: 8e94 563e 6b5a 993e dd2b 683f c315 a1be
00000270: 7027 54bf ba66 48bf d52b e0bd a3d0 393f
00000280: 28e9 013e 7a06 30bd be72 a33e c726 a93d
00000290: 3ab3 30be 17d9 743e ca45 4fbf 705e f63e
000002a0: 701b be3e 615b 7a3e 573a 2e3f f675 67bf
000002b0: 9eec 683d 670a 023d cbc0 2b3e fd56 41bf
000002c0: bb0a 1a3f 9dce 6abf 9648 763e f577 4fbe
000002d0: 602d c7be 80a6 95bf 186a 2abf 2550 41be
000002e0: f83f 963e 4469 d0bd 5349 c03e ff56 d63d
000002f0: 96b5 233f 1318 ed3e b784 bbbe 90bb 38be
00000300: ec70 afbe 034b 673b 062f 8c3e 6869 a43d
00000310: ad56 16be 5be3 85bf 50db 7b3e ca2f 783f
00000320: c16a af3e 0c2b 27bc 0844 7cbe a680 a5be
00000330: 3a93 493e bbc4 98be c677 723f 9165 08be
00000340: c643 773e 2870 873e fa44 81bf 67ef e23d
00000350: 3643 51bf 7955 ebbb 048f 8cbe 4211 f63d
00000360: 4b94 afbe 648e 313d da92 553f 0fe0 c03e
00000370: d18b 9cbd 99df 07bf 29d1 7c3e 7bff c1bd
00000380: d268 f83e 555e 6e3e bb0d 993d 6629 2a3f
00000390: c6bf 713f 9129 c73d a272 6f3e ae42 3c3f
000003a0: ac47 c1bf 52ed b5bc 262b eebd 5b8c 1b3f
000003b0: bf71 1cbf f2dd 053f 30ae 113e c0e5 cbbe
000003c0: 2be0 d93e a346 0f3f a41b dc3d 382d 723d
000003d0: 0be2 2a3f fe4a 0abf 93b1 fb3e a8e7 0f3f
000003e0: ef47 503f 4e89 c73e 3e30 ee3e 3405 d63e
000003f0: 9fef 903e f532 243f 50ac 733e 9817 f93e

decoder_net.8.bias f4 [128]
0.08589316 0.021185523 0.13912347 -0.0030633833 -0.07265065 -0.07922733 0.0562761 -0.05481693
-0.07193945 -0.06524191 0.005565843 -0.011897229 0.0734395 0.06980985 0.08210926 -0.006809883
0.023870297 -0.053686332 -0.0031808412 -0.002051476 0.025318688 -0.014479326 0.1315097 0.021034598
-7.266541e-05 0.12334465 -0.05361015 -0.06610139 0.016914673 -0.05606295 0.06173158 -0.058912452
0.06586244 -0.0838642 0.010123137 -0.08750143 -0.029726893 -0.0014657229 0.06460354 -0.0005916159
0.0994113 -0.029999206 0.088426314 -0.024304198 0.07801091 0.015737966 0.07927946 -0.009246959
-0.07867884 0.03310943 0.059636608 0.028299414 -0.09160295 0.00865208 -0.10788227 -0.010155368
-0.0038617505 0.038798355 0.063895114 -0.014854712 -0.035249636 0.05361633 -0.007762836 0.08308359
-0.07277466 0.03265346 -0.05615824 0.07458869 -0.02635822 0.107374534 -0.04178895 -0.07048597
-0.01978083 0.06628939 -0.029179612 -0.03754329 -0.03204127 0.07438629 0.05150992 -0.12425946
0.05375521 -0.06821784 0.016249288 -0.04732171 0.073676966 -0.055097383 0.07659695 0.08744054
-0.0885007 0.038975883 0.01110763 0.0021532264 0.04293527 0.0723075 0.05287656 0.004664988
0.02566313 0.12322934 0.043070633 0.023500808 -0.06977425 0.08906664 -0.06357427 0.016776478
-0.022899179 -0.012865331 0.11673111 -0.017801726 -0.0056387433 -0.012633398 -0.028798157 0.014779374
0.07491108 -0.04948581 0.044161342 -0.090414464 0.0466088 -0.027858999 0.1204964 -0.08539462
-0.017347036 -0.053411596 0.07256252 -0.07056215 0.034929067 0.016394876 0.0579584 0.011000262
00000000: c1e8 af3d 438d ad3c 6276 0e3e 0bc3 48bb
00000010: ddc9 94bd f041 a2bd c581 663d b887 60bd
00000020: fe54 93bd 8d9d 85bd ad61 b63b 98ec 42bc
00000030: 7367 963d 77f8 8e3d e628 a83d 7025 dfbb
00000040: a48b c33c 33e6 5bbd a975 50bb 0e72 06bb
00000050: 2369 cf3c b23a 6dbc 7baa 063e c050 ac3c
00000060: f263 98b8 1f9c fc3d 5196 5bbd 2a60 87bd
00000070: a490 8a3c 44a2 65bd 41da 7c3d 2f4e 71bd
00000080: e3e2 863d fec0 abbd 84db 253c f333 b3bd
00000090: d085 f3bc 801d c0ba dc4e 843d ac16 1bba
000000a0: 2798 cb3d e5c0 f5bc db18 b53d 9919 c7bc
000000b0: 2fc4 9f3d e8ec 803c 455d a23d 8f80 17bc
000000c0: 5f22 a1bd c19d 073d 8445 743d 2cd4 e73c
000000d0: 549a bbbd 74c1 0d3c 61f1 dcbd b362 26bc
000000e0: 6c15 7dbb 06eb 1e3d 71db 823d 2e61 73bc
000000f0: ec61 10bd cc9c 5b3d 635f febb bb27 aa3d
00000100: e20a 95bd a2bf 053d 2f06 66bd f5c1 983d
00000110: 32ed d7bc 2ee7 db3d e42a 2bbd f35a 90bd
00000120: 680b a2bc bbc2 873d 150a efbc fec6 19bd
00000130: b53d 03bd d757 983d 11fc 523d be7b febd
00000140: 6c2e 5c3d cbb5 8bbd 3a1d 853c 69d4 41bd
00000150: f3e3 963d cbad 61bd ddde 9c3d 0714 b33d
00000160: db3f b5bd 2da5 1f3d c7fc 353c 251d 0d3b
00000170: e5dc 2f3d f415 943d 1795 583d c1dc 983b
00000180: 7c3b d23c aa5f fc3d d56a 303d c484 c03c
00000190: cde5 8ebd 9268 b63d 3a33 82bd d36e 893c
000001a0: 0f97 bbbc 1cc9 52bc b810 ef3d edd4 91bc
000001b0: 35c5 b8bb 50fc 4ebc 1dea ebbc 3025 723c
000001c0: fb6a 993d a2b1 4abd 86e2 343d 382b b9bd
000001d0: dee8 3e3d 8e38 e4bc d1c6 f63d 60e3 aebd
000001e0: 5f1b 8ebc 1ec6 5abd a99b 943d e382 90bd
000001f0: c811 0f3d 8c4e 863c ca65 6d3d 713a 343c

decoder_net.10.weight f4 [1, 128]
0.98843515 0.47637364 0.27647313 0.21839069 -0.47560826 -0.6823903 -1.2464074 0.09952893
-0.7269042 -0.14115669 0.8241962 0.06821816 -0.0017033643 0.5646905 0.19670552 0.87630206
0.09200408 -0.16471988 0.34226266 -0.23952106 0.53980875 0.27885365 0.24049506 -0.1411755
-0.1300348 0.4439894 -0.03634864 0.28094238 -0.7239382 -0.24508531 0.44052154 0.6528224
0.26841244 -0.21110578 -0.1333449 -0.27213192 0.2274229 -0.011420468 0.66772765 -0.33021623
0.4277154 -0.030068787 0.33719602 0.33465645 1.5918175 0.5796673 -0.94466007 -0.2169796
-0.3212045 0.7403121 0.6310718 -0.2357631 -0.13811019 0.74124753 -0.4902039 -0.20764959
0.5788844 -0.10472664 -0.48673934 0.34935135 -0.106961176 0.57596785 0.2463287 0.42448825
-0.94355965 0.2452764 -0.24180506 0.6729214 -0.11823933 0.373035 -0.90983486 -0.49263462
-0.30052376 0.12139019 -0.35407975 0.5234392 0.91671073 0.30151862 -0.7386094 -0.27155837
0.2915683 -0.49516892 0.1478365 -1.025774 0.3101218 -1.0028183 -0.59457344 0.79444826
-1.2695395 0.73735505 -0.60218257 -0.066718236 0.70882267 0.4105943 -0.51309526 0.9836189
0.2648483 0.5370998 0.25195044 0.22261861 -0.8552626 0.82013893 -0.67383283 -0.48653698
1.4311734 -0.17611903 0.7585316 -0.55631936 0.41515794 0.028119821 -0.28690812 -0.25030622
0.6434377 -0.91877544 -0.535574 -0.69367534 -0.7126751 -0.28696012 0.5230963 -0.82207644
-0.25438088 -0.17808571 -0.65077424 -0.59706295 -0.4120532 0.96613246 -0.9241254 -0.24724914
00000000: 160a 7d3f 3fe7 f33e e38d 8d3e cfa1 5f3e
00000010: ed82 f3be 21b1 2ebf 478a 9fbf d3d5 cb3d
00000020: 6516 3abf 618b 10be 86fe 523f f6b5 8b3d
00000030: 6c43 dfba 8e8f 103f 2c6d 493e 5555 603f
00000040: a36c bc3d 54ac 28be 0d3d af3e 0245 75be
00000050: e830 0a3f e8c5 8e3e 5644 763e 4f90 10be
00000060: d827 05be 9452 e33e 50e2 14bd aed7 8f3e
00000070: 0454 39bf a5f7 7abe 0a8c e13e 5e1f 273f
00000080: 5b6d 893e 1d2c 58be 918b 08be e054 8bbe
00000090: 8ce1 683e ea1c 3bbc 33f0 2a3f 1a12 a9be
000000a0: 83fd da3e d152 f6bc f5a4 ac3e 1758 ab3e
000000b0: adc0 cb3f 1465 143f 3ed5 71bf e62f 5ebe
000000c0: eb74 a4be 1885 3d3f ec8d 213f e26b 71be
000000d0: c26c 0dbe 66c2 3d3f 01fc fabe 18a2 54be
000000e0: c531 143f ec7a d6bd e635 f9be 2ede b23e
000000f0: 760e dbbd a172 133f 973d 7c3e 8656 d93e
00000100: 208d 71bf bd29 7b3e bf9b 77be 9444 2c3f
00000110: 7627 f2bd 72fe be3e f0ea 68bf 9b3a fcbe
00000120: 40de 99be 6c9b f83d f149 b5be 1d00 063f
00000130: 8ead 6a3f a660 9a3e 8115 3dbf b309 8bbe
00000140: 7148 953e c886 fdbe 7462 173e 904c 83bf
00000150: 49c8 9e3e 5a5c 80bf f735 18bf f660 4b3f
00000160: 4580 a2bf 4dc3 3c3f a328 1abf 92a3 88bd
00000170: 6775 353f 6b39 d23e 365a 03bf 73ce 7b3f
00000180: 329a 873e 5f7f 093f a6ff 803e 22f6 633e
00000190: 7df2 5abf a0f4 513f 4f80 2cbf 601b f9be
000001a0: b130 b73f 8c58 34be 202f 423f f26a 0ebf
000001b0: 958f d43e 8a5b e63c 9fe5 92be 2328 80be
000001c0: 55b8 243f de34 6bbf 611b 09bf b594 31bf
000001d0: e071 36bf 70ec 92be a4e9 053f 9a73 52bf
000001e0: 363e 82be 1a5c 36be 2499 26bf 1ed9 18bf
000001f0: a3f8 d2be 7554 773f 7b93 6cbf e12e 7dbe
