Value_Net.pt (torch, 54354 bytes, 11 tensors)

decoder_net.0.weight f4 [32, 255]
000000 38 b3 d7 bc 83 c4 e7 be ee 9c de 3d f1 0a ff bd
       -0.026330575 -0.45267114 0.10869776 -0.12453259
000010 fa f6 3c 3e ef 31 d4 be fb ad ad 3e e4 61 9f bd
       0.18453589 -0.41444346 0.339218 -0.07782343
000020 7b e9 d0 be ea 0f ab be ef 8a f3 be 33 72 2b 3e
       -0.4080313 -0.3341058 -0.47566935 0.16742782
000030 2b 86 d2 3e 94 7a 5b 3e 18 03 ef 3e 25 ec 1c bd
       0.41117987 0.21433479 0.46682048 -0.038311142
000040 eb 07 28 3e 8e 65 f3 bc bc 83 7c 3e d8 4b ce 3e
       0.1640927 -0.029711511 0.24659628 0.4029224
000050 ad 32 ea 3d 40 54 93 3e 76 0b f7 be b6 97 2b be
       0.11435447 0.28775215 -0.48250932 -0.16757092
000060 33 76 bc 3d e7 f7 b9 be 3b aa 85 be ba 1b 87 3d
       0.09202232 -0.36321947 -0.26106438 0.06597085
000070 ff b5 f0 3e 83 75 d5 be a4 eb d1 3d 2e 31 f9 3e
       0.47013852 -0.41691217 0.10250023 0.48670334
000080 c3 24 40 be 9b b3 ce be 5d b4 bd 3e 3b 05 6b be
       -0.18764023 -0.40371403 0.3705167 -0.22951214
000090 eb 72 9f be 6b 62 58 be 7d b5 3f 3e 0c d5 18 bd
       -0.31142363 -0.21131293 0.18721576 -0.037312552
0000a0 f9 17 69 3e 3e 64 9b be fc 55 08 3d a8 96 aa 3e
       0.22763051 -0.30349916 0.033285126 0.33318067
0000b0 d9 16 0e be 22 47 04 be ee ea fd be f3 ff ef 3e
       -0.13875903 -0.1291776 -0.495933 0.4687496
0000c0 38 bb 83 be 78 a8 73 3c d4 bd ac be e4 25 a8 be
       -0.25728774 0.014871709 -0.33738577 -0.32841408
0000d0 dc a9 c2 3e e6 bf df be 50 ad e9 3e f9 84 ff be
       0.38020217 -0.43701094 0.4564004 -0.49906138
0000e0 82 38 44 3e ea 5c 90 3e 4a 56 57 3a 82 ea 9e 3e
       0.19162181 0.28195888 0.0008214457 0.3103829
0000f0 21 2c 90 be 9c b9 9a 3d e3 88 af 3d df f8 3e 3b
       -0.28158668 0.075549334 0.08571031 0.0029140038
000100 f2 2c 21 3e 0e 43 9e 3e 76 2d 74 be a2 3e ea 3d
       0.15739802 0.30910534 -0.23845467 0.114377275
000110 0f 35 a4 bd ea c5 4e bd 96 27 93 be 7e 09 aa be
       -0.080179326 -0.050481714 -0.2874114 -0.33210367
000120 a9 90 bf 3e 18 90 a5 be 07 ee a4 3b e5 25 fd 3e
       0.37415054 -0.32336497 0.005033258 0.49442974
000130 87 8c d6 3e d6 4d ef be 07 4e 2f be 38 0d 5f 3e
       0.4190409 -0.46739072 -0.17119609 0.21782386
000140 aa 46 f8 3e d9 d4 0a bd a4 d7 1b be fb a0 ce be
       0.48491412 -0.033894394 -0.15218979 -0.40357193
000150 43 07 1d 3e e7 77 4e bd 51 28 8f be 6a 18 fb be
       0.15334801 -0.050407317 -0.27960446 -0.49042064
000160 31 58 25 3d f9 25 e3 3e 53 93 01 be cd 77 da 3d
       0.04036731 0.44364908 -0.12653856 0.106673814
000170 83 8e f0 3e ee 59 39 3e 97 34 67 be 1f 85 d6 bd
       0.46983728 0.18100712 -0.22578655 -0.104746096
000180 81 a3 a4 3e fa bc 87 be 38 3f 8a 3e d6 e6 ba 3e
       0.32155994 -0.26511365 0.27001357 0.3650424
000190 6a 10 0a be 06 b3 45 3e 16 ad d5 3e a3 9c bb 3e
       -0.13482824 0.19306573 0.41733617 0.36642942
0001a0 8a 62 d6 3e 5f 2f 54 bd 28 88 e0 3e f5 a1 5f 3b
       0.41872054 -0.05180299 0.4385388 0.0034123634
0001b0 eb f3 48 3d 91 dd 2a 3e b7 e9 ec 3e 85 7e b6 3e
       0.049060743 0.16686083 0.4627206 0.35643402
0001c0 4e 40 fc bc 1f e2 03 3e a6 66 dd be fb a5 bc 3e
       -0.030792382 0.12879227 -0.43242377 0.36845383
0001d0 d7 cb 64 be 0e 6a 14 bd d6 8c f0 3c 69 85 ee bd
       -0.22343384 -0.036233954 0.02936403 -0.1164654
0001e0 a6 ea 4c be 2d 08 32 3e 15 9d c3 3e ff 86 c9 be
       -0.20011386 0.17385931 0.38205782 -0.39360806
0001f0 5f 17 ea 3d 20 28 9a bb 52 5b ce 3e e3 04 e1 be
       0.11430239 -0.0047044903 0.40304047 -0.4394904
000200 0a 24 2a be 13 7b 86 be bd 28 94 be 5f bd a9 3e
       -0.1661531 -0.26265773 -0.2893733 0.3315229
000210 11 8e e3 3e b4 0d 1b 3e b8 44 65 be 65 67 c4 be
       0.44444326 0.15141946 -0.22389495 -0.38360134
000220 ef c9 f0 3e 6f af c1 bd 90 03 81 3c 9f df f8 3e
       0.47029063 -0.094572894 0.015748769 0.4860811
000230 f1 0e 82 3e 60 d1 6f 3e 37 32 b9 bd af 95 00 be
       0.25402024 0.23419714 -0.09042781 -0.125571
000240 06 63 28 3e d6 64 27 bd 65 5e bb be 44 0b 88 3d
       0.16444024 -0.04086765 -0.36595455 0.06642774
000250 63 f7 ba 3e cf 7b b6 3e 97 e5 8a 3e 01 68 1d be
       0.36516866 0.35641333 0.27128288 -0.15371706
000260 89 4c 07 be 05 ac 65 3e eb 78 d0 be df f0 9e be
       -0.1321279 0.22428901 -0.40717253 -0.31043145
000270 4f e6 31 3e ab 49 d9 be ac d6 ed bd 99 5b 3e 3e
       0.17373012 -0.42439017 -0.11613211 0.18589629
000280 89 44 c6 be ad 49 43 be 40 fb b6 3e 9a 02 81 be
       -0.38724163 -0.19071074 0.35738564 -0.25197297
000290 d4 b0 04 bd 64 ab d7 3e ef 7f 06 be 1e 04 f3 3e
       -0.0323952 0.42122948 -0.1313474 0.4746408
0002a0 ac 90 fd 3d e4 29 a0 3e c4 6c 05 be 28 da ac 3d
       0.123811096 0.3128196 -0.13029772 0.084400475
0002b0 60 c3 8e 3e 14 50 5f 3e 1b 22 8d 3e 19 46 e0 be
       0.27883434 0.21807891 0.27565083 -0.4380348
0002c0 87 fa 37 3e a7 75 f9 be 71 66 8f 3d 33 99 04 3e
       0.17966662 -0.48722574 0.07001961 0.12949066
0002d0 91 e4 a3 be 13 08 a0 3e db 38 e0 be 23 59 5d 3e
       -0.3201032 0.3125616 -0.43793377 0.21616034
0002e0 01 87 c0 3e d7 bc 89 bd 3b 46 f8 be 9d ed 82 be
       0.37603 -0.067254715 -0.48491082 -0.2557191
0002f0 6c 75 81 be e9 ad ce 3e 18 5e 00 be c1 e6 ee 3e
       -0.25284898 0.40367058 -0.12535894 0.46660426
000300 65 09 a9 be 19 be cb be 39 43 9b be 31 b6 f7 3e
       -0.3301498 -0.3979347 -0.30324724 0.4838119
000310 f5 b6 43 be d7 89 94 be 33 c9 09 3e 17 b0 c6 3e
       -0.19112761 -0.29011413 0.13455658 0.3880622
000320 4b c4 ea be 5b 15 51 3e 9f f7 de bd 21 34 18 be
       -0.45852885 0.20418303 -0.10887074 -0.14863636
000330 5f 38 92 be 83 6c 5e 3e 99 b4 f7 3d c1 df c5 3e
       -0.28558633 0.21721081 0.12094993 0.38647273
000340 e5 3c a6 be 0f 05 5a 3e ef 6d 38 3e 5d 0e f7 be
       -0.32468334 0.21290992 0.18010686 -0.48253146
000350 c1 7d 4d 3c 01 b3 e3 3e 9f 5f ad 3e b9 17 cc be
       0.012542189 0.44472507 0.33862016 -0.3986185
000360 37 fd e1 be 3d 52 94 be 35 64 f7 3e 5f 1b 90 be
       -0.441385 -0.28968993 0.4831864 -0.28145882
000370 b1 6d 50 be 07 af f7 be b1 18 e9 3d 3d 49 55 be
       -0.20354344 -0.48375723 0.11381663 -0.2082872
000380 31 97 ef 3e 19 8c 90 be 11 82 61 be bf 83 b1 be
       0.46795037 -0.28231886 -0.22022273 -0.34670827
000390 73 86 85 3e d1 59 c6 be 4f 18 0a 3e 2b 01 9e 3e
       0.2607914 -0.387404 0.13485835 0.30860266
0003a0 4d 76 d0 3e eb 3a 60 3e 31 93 f0 be 2d 8a bc 3e
       0.40715256 0.21897475 -0.46987298 0.3682417
0003b0 a9 b9 9b be 8b 64 fa 3e 71 7f a6 3e 6b 9a b8 be
       -0.30415085 0.48904833 0.32519105 -0.36055312
0003c0 e1 0f 51 be 4d eb 9b 3e 99 fb e7 3d b9 1a 1e be
       -0.20416214 0.30452958 0.11327285 -0.15439881
0003d0 e1 25 f3 3d b7 e4 cc be ff 75 01 3e a7 23 ee bd
       0.11872459 -0.40018246 0.12642668 -0.11627894
0003e0 e5 ef 4b be 21 cd 90 3d 63 7e 37 bd d7 9f e1 3e
       -0.19915731 0.07070375 -0.044798266 0.4406726
0003f0 7a cb f5 3c ab c3 de bc 6b 6e 61 3e 2e db 9a be
       0.030004252 -0.027192911 0.22014777 -0.30245346

decoder_net.0.bias f4 [32]
000000 4e 08 25 bd 72 b1 03 bd f5 38 42 3d a5 42 36 3d
       -0.040291123 -0.032151647 0.0474176 0.04449715
000010 63 b4 ff bc 44 3f 6c 3d 6c fb 9b 3c b3 54 82 3c
       -0.031213945 0.057677522 0.019040786 0.015909528
000020 cc 2d 2b bd 97 2e 75 bc c7 57 58 3d 5d 7a 32 3d
       -0.041791722 -0.014964721 0.052818086 0.043573726
000030 89 2c 23 3d 22 4f cf bc 50 5f 5d bc a7 d3 00 3d
       0.039837394 -0.025306288 -0.013511494 0.031451847
000040 22 75 8b 3c 4d 4a 8a bc a0 7e f2 bc bb c3 3e bd
       0.017023627 -0.016881132 -0.029601395 -0.046573382
000050 a4 8c 5d bd 19 b3 f4 bc 82 33 05 3d 3e bf d5 bc
       -0.054089203 -0.029870557 0.032519825 -0.026092168
000060 8d fd 54 3c a5 87 2e bd 76 4d 34 3b 5d 77 0e bd
       0.012999904 -0.04260983 0.002751199 -0.034781802
000070 31 ee 06 bd 91 0b 30 3d db 06 7a 3c 31 a2 56 3d
       -0.032942 0.04297978 0.0152604235 0.05240077

decoder_net.2.weight f4 [32, 32]
000000 41 4c b6 bd c5 7a bb be c5 5d ab be 94 cd d7 bd
       -0.08901263 -0.36617103 -0.33469978 -0.10537258
000010 38 72 30 3d 56 10 b2 be 27 0a a3 3e f2 45 b9 be
       0.043077677 -0.34778088 0.31843683 -0.36186177
000020 f2 b4 bc bd c5 d9 f6 be 30 66 bc be 7f 84 c6 3e
       -0.092142 -0.4821302 -0.36796713 0.38772961
000030 6e 07 d7 3e 6e 87 c3 3e b8 b2 e8 3e 65 cd d4 3e
       0.41997856 0.38189262 0.45448852 0.41562954
000040 b1 4c bc 3e f2 08 d5 be 34 89 9b be 79 4b 44 be
       0.3677726 -0.41608387 -0.30378115 -0.19169416
000050 45 21 df be 41 f0 23 be 47 37 f3 be 6c c5 e1 bd
       -0.4358007 -0.16009618 -0.4750311 -0.11023983
000060 43 bc 5d be 01 5c 10 3d c8 be bb 3d eb 24 00 3f
       -0.21653847 0.03524399 0.09167248 0.5005633
000070 c8 70 70 3e db 46 90 be 4b 14 ff 3e 22 c1 9b be
       0.23480523 -0.28179058 0.4982017 -0.30420786
000080 66 14 ba be eb b8 d1 bd 70 15 a4 3e 13 57 53 be
       -0.36343688 -0.102403484 0.32047606 -0.20638685
000090 9e 19 9f 3d 7a 33 c8 be 3f bc f1 be 4f e4 00 3e
       0.07768558 -0.39101774 -0.47213933 0.12587093
0000a0 78 b7 0c 3e 2c 4a ad 3e d4 cd 60 3d b3 e5 c0 be
       0.13741863 0.3384565 0.054883793 -0.37675247
0000b0 14 ae e4 be fd 4d ff be 00 e2 ef 3e 8e 3a dd bd
       -0.4466406 -0.49864188 0.46852112 -0.10802184
0000c0 33 d9 b4 3e 52 de b2 be 09 6d bd be dc 3b aa 3e
       0.3532196 -0.34935242 -0.3699725 0.33248794
0000d0 98 8d 59 be 49 f3 14 3e 2a ad e2 3e ee d2 59 be
       -0.2124542 0.14545931 0.4427274 -0.2127187
0000e0 79 49 79 3e f6 e6 90 bd 9e 6e 55 be 07 e5 85 3d
       0.24344434 -0.07075302 -0.20842978 0.06537824
0000f0 fe 1d cf bd 17 76 6e 3e 8e e6 d2 3e 55 59 b0 3e
       -0.101131424 0.23287235 0.41191524 0.34443155
000100 e9 76 3a be 83 d7 1e 3e e8 9d f6 3e d8 54 05 3d
       -0.18209423 0.15511899 0.48167348 0.032551616
000110 17 ac 95 3e a8 51 fa 3e b6 2e f5 be ea be 53 3d
       0.29232857 0.48890424 -0.478872 0.05169574
000120 43 2d a9 be e6 51 28 3e 65 36 96 3e 79 b9 b0 be
       -0.33042344 0.16437492 0.29338375 -0.34516504
000130 dc 06 40 be c5 7d be 3e 82 c5 28 be fa 8a 87 3e
       -0.18752617 0.3720533 -0.16481593 0.26473218
000140 cb 47 39 3e aa 34 af be ce 12 90 be 61 fb 9b be
       0.18093793 -0.34219867 -0.28139347 -0.30465224
000150 6a c1 9c bd 66 12 af be b7 f8 50 bd 3d d5 3c 3e
       -0.07654078 -0.34193724 -0.051018443 0.18440719
000160 88 aa bb 3e 39 7e 81 bb 8d f2 a1 3e 3a 96 bc 3d
       0.36653543 -0.0039518145 0.31630364 0.09208341
000170 7a 9f d5 3e 00 dd c2 be 2e 41 83 3e 69 e1 b8 3b
       0.41723233 -0.38059235 0.25635666 0.0056421054
000180 c0 ac 5b 3e a7 40 fa be 6a 47 02 be e4 c7 72 ba
       0.21452618 -0.4887745 -0.12722555 -0.00092613534
000190 18 37 90 3e 5b 80 77 bd a8 5c 59 bc 2b d4 a8 bc
       0.28167033 -0.060425144 -0.01326672 -0.020608982
0001a0 6f a5 c1 bd 0b 19 d9 be 90 2f a6 3e 63 bd d5 be
       -0.09455382 -0.4240192 0.32458162 -0.41746053
0001b0 0d 70 fb be 64 33 f3 be 0a 23 10 be 7a 6f cb be
       -0.49108925 -0.47500145 -0.14075866 -0.39733487
0001c0 61 ad ec be ac 9c a7 3e f6 48 3a be 34 df 6c be
       -0.46226028 0.3273672 -0.18191895 -0.2313202
0001d0 cf f0 7e be c2 45 34 3e e9 b2 52 3d 1f a1 9a 3e
       -0.24896549 0.17604735 0.051440153 0.3020105
0001e0 90 ce a3 3d 58 be 96 bb d2 a4 3a 3e b2 69 98 3e
       0.07998383 -0.0046003275 0.18226936 0.2976814
0001f0 e9 38 fa be 22 72 e4 be 76 d8 c4 bb 66 48 3a be
       -0.48871544 -0.44618326 -0.0060072495 -0.1819168
000200 cb 60 33 be 56 33 75 bd 85 4c e9 3c 47 ed f4 3e
       -0.17517392 -0.05986341 0.02847887 0.47837278
000210 19 7a 1b 3e ce 69 3e be 8f 64 2a 3c 4f 6e 8c 3e
       0.15183295 -0.18595049 0.010399952 0.2742791
000220 dd c3 f7 be 97 2b 9c be 34 ff e5 be dd 25 3a be
       -0.4839162 -0.30502006 -0.44921267 -0.18178506
000230 c6 44 c4 be 2c ba 80 3e 51 c0 e0 3d f4 7b d7 bd
       -0.3833372 0.25142038 0.109741814 -0.10521689
000240 6e 8c 8a 3e 8f c2 a5 be d0 9f be be 98 79 d6 3e
       0.27060264 -0.32375 -0.37231302 0.41889644
000250 4b c0 00 3f b8 4d 9b be e8 5c 19 3d 9d da 7f bd
       0.50293416 -0.30332732 0.037442118 -0.062464345
000260 21 25 27 be 6d 37 75 3d dc ae bc bb 25 a1 82 be
       -0.16322757 0.05986731 -0.0057581495 -0.2551357
000270 bd 12 a6 3e 98 d9 95 be 69 88 92 3e 4f 67 f7 be
       0.3243617 -0.29267573 0.28619698 -0.48321006
000280 de 78 a0 be 69 2c 9f 3d 36 00 9d be fe 84 c7 be
       -0.31342214 0.077721424 -0.30664223 -0.38968652
000290 17 68 83 bd f6 0d d5 3e 15 54 99 3e 46 9c df bb
       -0.06416338 0.41612214 0.29946962 -0.006824049
0002a0 d6 3e 93 be db 80 74 be 8d 5d e8 be 79 0b f6 be
       -0.28758878 -0.2387728 -0.45383874 -0.48055628
0002b0 85 2a d8 bd 14 95 cf be 72 e7 3e 3d 29 57 59 be
       -0.10554985 -0.40543425 0.046607442 -0.21224655
0002c0 e0 72 c7 3e c9 78 6b 3e 31 3d 15 be 26 25 fc 3e
       0.3895483 0.22995295 -0.14574124 0.49247092
0002d0 95 8f 4f 3e 86 45 44 be 40 24 02 3e 43 40 ee be
       0.20269616 -0.19167146 0.12709141 -0.46533403
0002e0 4b ba 13 3d 30 a8 00 bf 58 52 ce be 4d 23 ae 3e
       0.036066335 -0.50256634 -0.40297198 0.34011307
0002f0 ad 9f b1 3c 59 d4 8c 3e 03 46 4b be 42 ad f8 be
       0.021682585 0.27505758 -0.19850926 -0.48569685
000300 08 c6 b8 be be 12 4b 3e d2 ac ff 3e 7f 0b ad 3c
       -0.36088586 0.19831368 0.4993654 0.021123646
000310 27 4f 8e 3e f2 93 78 be 98 cb e8 3e 3c 38 03 bc
       0.27794763 -0.24275187 0.4546783 -0.008009013
000320 a8 97 be be 27 2c 77 3e c3 48 d4 bd 28 94 45 3d
       -0.3722508 0.24137937 -0.10365441 0.048236996
000330 46 e2 a8 be b7 dd 13 3d e0 9b 1e 3c 15 35 64 bc
       -0.32985133 0.036100116 0.009680718 -0.013928671
000340 d4 8b a9 3c e8 4f 87 be 6b dc c6 3d 96 9c 08 3e
       0.020696558 -0.2642815 0.0971001 0.13340983
000350 a7 43 d8 3e 5e ef 29 3e 6a e1 8c be 90 98 6b 3d
       0.42239115 0.16595218 -0.27515727 0.05751854
000360 64 cc 14 be 50 91 4d 3d 6f 8f fd be f6 ea 8f 3d
       -0.14531094 0.05018741 -0.49523494 0.07027237
000370 51 da ed be 99 78 a8 be 0d ce 7c be b4 be bd be
       -0.46455625 -0.3290451 -0.24687977 -0.37059557
000380 12 27 8d be 20 fc 7c 3e 34 f4 86 3e 54 8f c5 3e
       -0.2756887 0.24705553 0.26358187 0.38585913
000390 6a 19 db be ee d8 b2 be 5f 2b 17 bc 3f aa 34 3d
       -0.42792827 -0.3493113 -0.009226649 0.04410767
0003a0 eb d2 86 be cf 84 8c 3e d5 de 22 be 4a 51 c8 3e
       -0.26332793 0.27445075 -0.15905316 0.3912452
0003b0 63 d7 c5 be 7a 6d 96 bd 2f 1a 6f bd ce 83 7b be
       -0.3864089 -0.073451 -0.05837458 -0.24561998
0003c0 31 9a 2c be 89 21 6d 3d f2 b5 f5 3e bc 56 7e be
       -0.16855694 0.05789331 0.47990376 -0.24837774
0003d0 c6 c5 8f be 2a f7 e6 3e 6d 00 2c be 5d c5 ee 3b
       -0.28080577 0.45110446 -0.16797037 0.007286711
0003e0 a6 ff f0 be e9 2d 7d 3e de a8 90 3e ae f7 c4 3e
       -0.47070044 0.24724545 0.28253835 0.38470215
0003f0 88 24 34 be 81 b6 2f be 2d 09 6c bd de b6 94 be
       -0.1759206 -0.17159463 -0.05762594 -0.29045767

decoder_net.2.bias f4 [32]
000000 2a 84 20 3e fe 3e 3b 3d 4d d1 1b 3e 82 aa 2d be
       0.15675417 0.04571437 0.1521656 -0.16959575
000010 f2 60 eb bd 5b 74 fe bd 57 6e 21 bd ce 46 27 3e
       -0.114931 -0.12424537 -0.03941187 0.16335604
000020 32 05 03 3d 91 17 a0 bc 14 fa 39 bc ce 13 92 bd
       0.031987377 -0.019542487 -0.011351127 -0.07132684
000030 4d b6 54 bd 99 1c 1d 3e 95 91 df bd 5f c9 55 3d
       -0.051931668 0.1534294 -0.109164394 0.052193996
000040 47 91 e7 3b 42 b6 2d 3e 6f 92 bc bd 93 ba 47 bd
       0.007066879 0.16964057 -0.092076175 -0.048761915
000050 45 04 d3 bd e7 29 08 bd 52 9a dd bd 9c 0f e9 bd
       -0.10303549 -0.033243086 -0.1082045 -0.113799304
000060 c1 d3 8e bc 4b fe b0 3c e2 c0 9f 3d 70 e5 48 3d
       -0.017434957 0.021605631 0.07800461 0.049046934
000070 cc ac d0 bd d8 d5 2d be 18 e2 24 be f5 f3 3b bc
       -0.101892084 -0.16976106 -0.16101873 -0.011471738

decoder_net.4.weight f4 [32, 32]
000000 02 62 97 3e ce 7d a5 3d 93 07 d1 3e f8 09 29 3e
       0.29566962 0.08080636 0.4082609 0.16507709
000010 79 77 94 3e dd 6d cf be bf 90 96 be 95 53 26 3e
       0.289974 -0.40513507 -0.29407308 0.16242822
000020 15 8f ea 3e 4b 82 7a 3e a7 2d e5 3e 11 81 ac bd
       0.45812288 0.24463765 0.44761392 -0.08423055
000030 28 f4 fe 3e db 79 d5 be 16 0f 8c be 7f 35 26 3e
       0.4979565 -0.4169453 -0.2735526 0.16231345
000040 a3 ca 1f 3d 58 bb e2 3e 1f fb a6 be d3 08 8a be
       0.03901161 0.44283557 -0.32613465 -0.26959857
000050 00 68 9f 3e ab 11 c6 3e 35 ca 2c be 42 fc 8d 3e
       0.31134033 0.38685355 -0.16874011 0.2773152
000060 eb 66 fa 3e 54 85 ca be 5b 4d 0f 3d c8 50 49 be
       0.48906645 -0.39554846 0.03498588 -0.19659722
000070 59 dc e1 be 01 de 91 3e ab f1 56 bd 33 89 eb be
       -0.44113424 0.28489688 -0.052476566 -0.46003112
000080 33 4b 52 3e 0f f2 a6 3e fe 40 79 bd af cd bd bc
       0.20536499 0.3260655 -0.060852997 -0.023169367
000090 3a eb ec 3d 85 6f ba be c2 88 bd be 90 50 ec 3e
       0.115683034 -0.36413208 -0.370184 0.46155214
0000a0 a1 80 20 3e cd 10 ba 3e ea f9 a7 3d ad 5f d6 be
       0.15674068 0.36340943 0.08201964 -0.4186987
0000b0 af 71 d8 be c0 b7 bc be b4 d3 d9 be ef 66 dd be
       -0.42274234 -0.3685894 -0.4254433 -0.43242595
0000c0 fb 22 f8 be ab 08 80 3e a9 3e d9 be c1 37 e3 3d
       -0.48464188 0.25006613 -0.42430618 0.110946186
0000d0 5f 6c e1 3e 27 7f 1d 3d 50 69 4d 3d 14 c9 b6 be
       0.44027993 0.03845134 0.050149262 -0.35700285
0000e0 46 bd 56 3e 3a 20 08 be 72 26 4e be 79 31 b8 be
       0.2097064 -0.13293543 -0.20131853 -0.35975245
0000f0 25 df e1 3e ca a1 db 3e 04 27 87 3e b2 08 26 3e
       0.44115558 0.42896873 0.26396954 0.16214254
000100 41 58 4c 3e f0 03 88 be b0 4c bf 3e fe ee 03 3e
       0.19955541 -0.26565504 0.37363195 0.12884137
000110 a7 b5 0a be bc c3 bd bd 98 83 ef bd 00 3a 5f be
       -0.13545857 -0.09265849 -0.116950214 -0.21799469
000120 3e 86 1c 3d 4b e1 a4 3d 98 b8 7a be 59 92 80 3e
       0.03821396 0.08050784 -0.2448448 0.25111654
000130 24 11 02 be fc d6 09 3d 78 ac 9d bd 97 b8 47 3e
       -0.12701851 0.03365229 -0.076989114 0.19504009
000140 51 0e 3c be 4e 9c c6 3e 52 95 d4 3e da 81 5e be
       -0.18364836 0.38791126 0.41520172 -0.21729222
000150 d5 73 9b bd 8f 42 92 be d6 7b 24 3e e1 5a ec 3c
       -0.075904526 -0.28566405 0.16062865 0.028851928
000160 8c c9 a3 be 09 2c e9 3e 84 59 b8 be 47 0f c0 3e
       -0.31989706 0.4554141 -0.36005795 0.37511656
000170 60 f7 d0 3e b3 df 5b 3e ee a6 ef be 48 7c d3 3e
       0.40813732 0.21472053 -0.46807045 0.41305757
000180 ab c9 91 3e 5a 03 d2 be b3 63 00 bf 7b 94 e2 3e
       0.28474173 -0.41018182 -0.5015213 0.44253907
000190 69 c5 cc be 78 b3 b3 be bf 07 06 3e 32 86 f3 be
       -0.39994362 -0.3509786 0.13088892 -0.4756332
0001a0 c1 fa 31 3e d9 22 dd 3e 22 a0 21 be 58 1a 94 3e
       0.17380811 0.4319065 -0.15783742 0.2892635
0001b0 24 c4 26 3e 49 fa be be 83 85 ac 3d 47 c4 46 3d
       0.16285759 -0.37300327 0.08423903 0.04852703
0001c0 07 07 fc bd 23 1e c3 be df ae e7 3e a6 ea 84 3e
       -0.12306028 -0.3810893 0.45250604 0.25960273
0001d0 e8 7f e4 3e 1b c3 ec be 36 0e 4d 3e 33 e6 b7 be
       0.44628835 -0.46242604 0.20024952 -0.35917816
0001e0 d2 31 78 be 3c 45 99 be e1 27 0c 3e 80 38 94 be
       -0.24237755 -0.29935634 0.13687088 -0.28949356
0001f0 09 b6 4e be 0f 5d 9d be 3f a9 79 3e 9d d8 27 3e
       -0.20186628 -0.3073506 0.24380969 0.16391225
000200 80 1b e0 be ff f9 4a be 4a eb 82 be f0 c9 eb 3d
       -0.4377098 -0.19821928 -0.25570136 0.11513126
000210 48 23 eb be 1c 87 ae be 3f 47 de 3e f1 33 f3 be
       -0.45925355 -0.34087455 0.4341373 -0.47500566
000220 79 bb 25 3e 48 cc a3 3d 51 9c 15 3e 61 6d ff bc
       0.16184796 0.07997948 0.14610411 -0.031180086
000230 c4 64 d6 3e 48 87 91 3e 1a 68 f1 3e a5 71 13 bd
       0.41873753 0.28423524 0.47149736 -0.03599705
000240 cc e6 b0 3e aa a1 d4 bd 9f 31 a3 3e e6 2b 59 be
       0.34551084 -0.103823975 0.31873795 -0.21208152
000250 2a bd f3 3e 69 36 97 3e e3 cc f1 be 19 ce eb 3e
       0.47605258 0.295337 -0.4722663 0.46055678
000260 e9 f0 27 3e 90 0c ef bd d8 53 aa be f1 b8 99 bd
       0.16400494 -0.11672318 -0.33267093 -0.07505978
000270 bb f3 23 be 3b 08 ae be 2d f4 87 3e 50 f5 c4 bc
       -0.16010945 -0.33990654 0.2655348 -0.024042755
000280 02 64 b1 be fb fd fa be 0b aa 9e 3e 83 97 d2 be
       -0.34646612 -0.49021897 0.30989107 -0.4113122
000290 f1 dc 94 3e 11 15 c2 bd 0d bc 85 3e 1f da 1a be
       0.29074815 -0.09476674 0.26120034 -0.15122269
0002a0 6f 8c af 3e 43 24 a4 3e 36 1c ab 3e b0 0c b6 3d
       0.3428683 0.32058915 0.3341996 0.08889139
0002b0 b2 1b 83 3e b5 f3 e1 3e 73 1d c6 be a5 60 82 bd
       0.25607067 0.44131246 -0.38694343 -0.0636609
0002c0 91 1b cd 3e 35 a6 d6 be 8d 32 69 bd d3 22 0f bc
       0.40060094 -0.4192368 -0.056932975 -0.00873633
0002d0 89 23 d4 be 60 1a c9 be 0d f2 87 3e f0 38 07 be
       -0.4143336 -0.39277935 0.26551858 -0.13205314
0002e0 66 3d c9 be c3 b1 da 3e 49 44 85 3e 9b c6 f1 3e
       -0.39304656 0.42713746 0.2602866 0.47221836
0002f0 46 13 99 be fa 66 08 be 94 92 f5 3d e8 14 f6 be
       -0.29897517 -0.13320532 0.11990848 -0.48062825
000300 ec 35 f7 3c 75 6f 67 bd fa 94 83 3e 43 46 81 be
       0.03017708 -0.056502778 0.25699598 -0.25248918
000310 13 a8 54 be 15 0c c5 3e 1f 39 62 be 3e dc 59 be
       -0.2076724 0.3848578 -0.22092102 -0.21275422
000320 e6 9b 98 3e 58 6f 50 3e be bc 05 3e 8c 3b 5a 3e
       0.2980644 0.20354974 0.1306028 0.21311778
000330 42 1c e9 bd d2 d8 ae be a6 ca be bd db 6c e5 bd
       -0.11382343 -0.34149796 -0.09315996 -0.11202403
000340 db ee 88 3e 68 ae 55 be d6 58 bb bd 46 1b c3 3e
       0.26744732 -0.20867312 -0.091478035 0.38106745
000350 81 cf 8b bd 32 21 c3 bc cd 10 84 be ee 87 a4 bd
       -0.068266876 -0.02381954 -0.25794068 -0.08033739
000360 da b0 d4 bd cd e3 96 3e 40 73 e6 be 01 25 a1 be
       -0.10385294 0.29470673 -0.45009804 -0.31473544
000370 ac 83 42 bd 02 b6 f5 be fb 46 a4 be fe ec b9 3b
       -0.047488853 -0.47990423 -0.32085404 0.0056740036
000380 eb 64 e9 3e d2 dd b1 bc 1f 8f 62 3b 39 84 ab 3e
       0.45584807 -0.021712217 0.003457017 0.33499315
000390 e1 99 e4 bd 06 5a fe 3e fc a7 29 bd ab a6 12 be
       -0.111621626 0.49678057 -0.041419968 -0.14321391
0003a0 ee 74 a3 be 6f 70 b0 be de 35 a0 be 4b 06 e4 bd
       -0.31925148 -0.3446078 -0.31291097 -0.11134013
0003b0 26 20 78 bc f1 95 86 3e 93 eb 56 3e 0c 2b 56 3e
       -0.015144384 0.2628627 0.20988302 0.20914859
0003c0 a6 6e cc 3d 28 ed 94 3e 89 c7 b4 be 4a f1 3b be
       0.09982042 0.29087186 -0.35308483 -0.18353763
0003d0 95 c5 bf bd 21 77 42 3e f0 bb b1 3c 4d 0a b4 3e
       -0.09363858 0.18990757 0.02169606 0.3516411
0003e0 78 e0 7d 3e 87 79 cd 3e 1c 09 3b 3d e8 f9 f6 be
       0.2479266 0.4013178 0.045662984 -0.48237538
0003f0 f1 b7 65 3e d9 0b cc be 11 01 27 3b 7c 87 d3 3e
       0.2243345 -0.3985279 0.0025482813 0.41314304

decoder_net.4.bias f4 [32]
000000 02 64 6e bd 27 26 da bd b7 e9 bd 3d 77 3a e1 bd
       -0.058200844 -0.10651808 0.09273093 -0.109974794
000010 75 ac ca bd f4 99 d5 3c 7d 8f e3 3c c8 44 22 be
       -0.09896175 0.026074387 0.027778381 -0.1584655
000020 8b 22 2c bc 19 73 13 3d 99 2e 81 bb 25 2c 49 bd
       -0.010506283 0.035998438 -0.0039423225 -0.049114365
000030 e0 c3 b1 bd 63 5b d8 3d e5 88 fe bd ac a9 8e bd
       -0.08679938 0.10564306 -0.12428454 -0.06965956
000040 43 65 d1 bd fe eb eb 3d 5a 90 9a bb 8b 45 7b bd
       -0.10224392 0.11519621 -0.004716915 -0.06134562
000050 6e 60 bf 3d e3 7f de 3d 61 e2 c3 3d 6e b5 13 be
       0.093445644 0.10864236 0.09564663 -0.14424679
000060 71 53 89 3c 31 b3 a4 bd 7d 3d 28 be 4c 76 2d 3e
       0.01676342 -0.080419905 -0.16429706 0.16939658
000070 56 67 8b 3d bb bc 84 3d 5f 9a 0e be 0c 61 0a bd
       0.06806819 0.0648131 -0.13926075 -0.033783957

decoder_net.6.weight f4 [32, 32]
000000 4e 29 26 be ba 26 98 be 17 5e 8a 3d 49 d0 30 3e
       -0.16226694 -0.29717046 0.067562275 0.17266954
000010 6c 93 70 3e 4e 70 83 3e 6d 99 0f be 72 2f 78 3c
       0.23493737 0.2567162 -0.14023371 0.015148031
000020 55 74 96 be 34 cf 59 be aa 47 f7 3e 99 52 af 3e
       -0.2938563 -0.21270448 0.48296863 0.34242705
000030 4c 50 c3 3e 6d 34 56 3e 8f 55 2c be 99 58 cb 3d
       0.381472 0.20918436 -0.16829513 0.09929008
000040 aa a4 82 be 7c 45 d7 3d 62 b0 76 be 31 a2 3e 3e
       -0.25516254 0.105113 -0.24090722 0.18616559
000050 d1 1f 31 bd a0 23 bf be 80 37 9b bd 41 72 14 be
       -0.043243233 -0.37331867 -0.07578945 -0.1449671
000060 54 98 0a 3e 27 7f 4a 3e 03 5a 8c bd e0 f5 ff 3c
       0.13534671 0.19775067 -0.06853106 0.031245172
000070 39 e0 6c bd c4 83 8d 3e 83 9c db be db 1a 7c bd
       -0.057831023 0.27639592 -0.42892846 -0.06154905
000080 2d 90 c3 be 84 c2 e7 be 18 32 8d bd b2 0a c2 3e
       -0.38195935 -0.4526559 -0.0689432 0.37898785
000090 ae ac 0d bd 45 ed b1 be 7c 5d c8 be de 09 a5 3e
       -0.03458851 -0.34751335 -0.39133823 0.3223409
0000a0 e1 82 5c 3e 81 ac c4 3d b2 e4 ce 3e ed d1 c2 be
       0.21534301 0.09603215 0.40408856 -0.38050786
0000b0 77 f0 bb bd cb f9 05 be 73 5a 4e 3e 2e 0a c1 3d
       -0.091767244 -0.1308357 0.20151691 0.0942577
0000c0 6c d5 8a 3d f8 01 9b be 5e ba f9 be c0 3e a4 3e
       0.06778988 -0.3027494 -0.48775 0.32079124
0000d0 38 97 42 3e be 0d 8d be 3e b0 26 3e 9f 28 91 3e
       0.19002998 -0.27549547 0.16278169 0.28351304
0000e0 d2 77 9d 3d a4 02 3b be 2f 18 fb be ba 61 47 be
       0.076888695 -0.18262726 -0.49041888 -0.19470873
0000f0 4c 65 c6 3e 2c ee e5 be 7b 74 f3 3e af 86 f2 be
       0.38749158 -0.44908273 0.47549805 -0.4736838
000100 99 79 27 3e 18 d9 0e be e4 0c 3f be 0c 2e b4 bd
       0.1635498 -0.13950002 -0.18657261 -0.08797845
000110 6b b9 90 3c 92 f0 cb 3d 90 b2 c8 3e 1f 54 3b 3e
       0.01766654 0.099579945 0.39198732 0.18293808
000120 05 3a b4 3d 5c 71 8c be fb 1b 14 3d 1c 6f 9f be
       0.08800129 -0.27430236 0.036159497 -0.31139457
000130 4e c5 c6 3d 3e 4d 7b 3d c3 7a 5f 3d 03 f9 ed be
       0.09705602 0.06135296 0.054560434 -0.46479043
000140 2b 10 a8 be 2b 95 b4 be fe 38 54 be 47 fb 33 be
       -0.32824835 -0.35270056 -0.20724866 -0.17576323
000150 00 6d d8 bd 64 41 a2 3d 88 fa de be 9e 41 c0 3e
       -0.10567665 0.079226285 -0.43550515 0.37550062
000160 b1 d6 da be 90 cb f2 bd bd af ca 3e bd a3 66 3e
       -0.42741922 -0.11855233 0.39587203 0.22523399
000170 e6 80 23 be e2 e8 52 3e 88 c9 2f bc ee 25 18 be
       -0.1596714 0.2059665 -0.010729201 -0.14858219
000180 93 cb 9c 3d 50 fa aa be a5 6a 7e be fa 6c 1f be
       0.07656016 -0.33394098 -0.24845369 -0.15568915
000190 6f 44 a3 3e 58 e3 3a 3d 69 b2 f5 3e 4e 16 92 be
       0.31888148 0.04562697 0.4798768 -0.28532642
0001a0 96 5a 0d bc 57 d9 b7 3e ab ac 99 be 62 9b c7 be
       -0.008627554 0.35908005 -0.30014548 -0.38985735
0001b0 e8 60 b1 3e cf 98 c1 bd 1f 3b 75 bd e3 f7 f6 3e
       0.34644246 -0.09452974 -0.059870835 0.48235998
0001c0 b8 8a a3 bc fd 44 38 3e ae 1d 61 3d 52 f4 2b be
       -0.019963607 0.17995067 0.054959945 -0.1679242
0001d0 b0 4b 63 be 19 1d a8 be c5 20 02 3e 85 ed 4b 3e
       -0.22196841 -0.328347 0.12707813 0.19914825
0001e0 9a ae fd be c7 b5 e9 be 97 e2 e1 3d f6 6c 40 3e
       -0.49547273 -0.45646498 0.11029547 0.18791565
0001f0 ed 8c 80 be 37 4d c3 be 44 46 88 3e 00 e1 3a bd
       -0.25107518 -0.38144848 0.26616108 -0.045624733
000200 42 2b 62 be be 11 f5 bd e9 3f b4 be d9 7c ee 3e
       -0.22086814 -0.11966275 -0.3520501 0.46579626
000210 e1 31 d7 3e c9 a6 88 be b2 4a f8 3d e4 b6 8e bd
       0.42030242 -0.26689747 0.12123622 -0.06968477
000220 c9 24 1f be d2 61 0f be 8d ff 1d be 1a 95 c4 3d
       -0.15541376 -0.14002159 -0.15429516 0.09598751
000230 13 b7 a2 be 86 6a fa be aa e6 f5 be 8e e8 6b be
       -0.317803 -0.48909396 -0.48027545 -0.23037931
000240 11 7c e0 3e 60 dc da 3e 58 06 d6 3e 78 09 25 3e
       0.43844655 0.42746258 0.41801715 0.16116893
000250 af c7 da bc 76 59 c4 3e 98 d1 9c be b3 1e e4 3a
       -0.026706545 0.38349503 -0.30628657 0.0017404169
000260 61 3d 54 3e da 07 69 be 36 54 f0 3d 3c 70 ef 3e
       0.20726539 -0.22756901 0.11734812 0.46765316
000270 58 e6 ec 3e f7 6c a3 3d b3 0a f1 3d 62 db c8 3e
       0.46269488 0.07979768 0.11769619 0.39229876
000280 3f 23 b9 3e 80 72 eb 3e d0 f5 91 be 7f 30 69 be
       0.36159703 0.45985794 -0.28507853 -0.22772406
000290 9e 88 8b 3e cc 3c ca 3e 64 1e 25 3e af 58 0e be
       0.27252668 0.3949951 0.16124874 -0.13901018
0002a0 ce a0 a9 3e 4c c4 6a be 59 15 4c be f1 b4 af be
       0.33130497 -0.22926444 -0.19930018 -0.34317735
0002b0 a6 97 20 3e 6a 13 b5 be a3 d8 15 bc 2f 40 ac be
       0.1568285 -0.35366374 -0.0091458885 -0.33642718
0002c0 6e c0 6d be 9a b1 86 be e0 79 44 bd 9a f4 7d bd
       -0.23217937 -0.26307374 -0.04796779 -0.06200085
0002d0 0f 1f 08 3e a5 9c a6 be 9c 51 a7 be 38 09 5c 3e
       0.13293098 -0.32541385 -0.3267945 0.21487892
0002e0 71 b7 80 be e5 99 87 bd 63 63 ff 3d aa aa 03 3e
       -0.25139955 -0.0662115 0.124701284 0.12858072
0002f0 a9 80 01 be 18 ac 3a bd 38 8a 3a be d3 24 f7 be
       -0.12646736 -0.045574278 -0.18216789 -0.48270282
000300 1f 23 c2 3e 38 5a b7 bd 30 0b 9a be 05 e3 76 be
       0.3791742 -0.08952755 -0.3008666 -0.24110039
000310 eb c0 f8 3e b7 92 c8 3e 62 31 e5 3e 4b d3 fb be
       0.48584685 0.39174435 0.4476424 -0.4918464
000320 6c 1c 4c be 30 c5 dd be 47 2e 37 3d fd f7 d5 3d
       -0.19932717 -0.43314505 0.044721868 0.10447691
000330 34 31 93 be c8 c3 49 bd 2b 70 a3 be 70 27 fb 3e
       -0.28748477 -0.049258977 -0.31921515 0.49053526
000340 41 47 a6 3e f5 13 1d be a2 a3 4b 3e 60 2d d0 3e
       0.32476237 -0.15339644 0.1988664 0.40659618
000350 9a 80 ec be 6e 24 f1 3e 86 6b e1 be 31 34 5b bd
       -0.46191865 0.47098106 -0.44027346 -0.05351657
000360 0d 4b d8 3e 98 78 ac bc d4 ee 88 3e 6c f5 83 be
       0.4224476 -0.021053597 0.2674471 -0.2577318
000370 17 70 b0 3e e2 61 2f be 06 e2 72 be 03 1c 17 3d
       0.34460518 -0.17127183 -0.23719034 0.03689195
000380 3b 6e 45 bd e1 12 21 be 77 f1 88 be 36 89 cc 3e
       -0.048200827 -0.15729858 -0.26746723 0.39948434
000390 b3 72 2c be 05 99 09 be a7 23 ca be 0f fa df 3e
       -0.1684063 -0.13437279 -0.39480326 0.43745467
0003a0 58 75 f4 be 41 2e c8 3e 79 6a 0a be 45 f6 a3 be
       -0.47745776 0.3909779 -0.13517179 -0.32023826
0003b0 eb 53 0e be 34 56 c7 be d8 53 c6 bd 50 65 bb 3e
       -0.138992 -0.38932955 -0.09683961 0.36600733
0003c0 12 bf c7 3d 3b c1 e3 3e a6 c6 85 3d 66 d2 f5 3e
       0.09753241 0.4448336 0.0653203 0.48012084
0003d0 c0 0a 34 be eb 70 e4 be 1d 22 8c 3e b2 73 ef bd
       -0.17582226 -0.446174 0.27369776 -0.11691989
0003e0 39 97 9e 3e f9 49 be 3e c8 18 1b 3e e3 22 10 be
       0.3097475 0.37165812 0.15146172 -0.14075808
0003f0 2c 63 c1 3e 8c e2 32 3d 46 11 9a 3e ae ca aa be
       0.37770975 0.043673083 0.30091304 -0.33357757

decoder_net.6.bias f4 [32]
000000 06 0f aa bd 87 ac 70 3b f7 6f 0e be 9d 93 3a 3d
       -0.08303647 0.0036723928 -0.13909899 0.04555093
000010 ac 1e 22 be 67 94 af 3c 51 cc 9e 3d ba 28 d5 3d
       -0.15832013 0.021433068 0.07753814 0.104081586
000020 cf 5f 85 bc 2c 20 89 3d 42 b1 99 3d 6c 6f 0e 3e
       -0.016281037 0.066955894 0.07504512 0.13909692
000030 a3 84 2f 3e 8c 7a 20 3e 7c cc e5 bd a3 c9 88 3c
       0.1714044 0.15671748 -0.11220643 0.01669771
000040 04 a8 2b be 6a e4 a5 3d 40 78 d6 3d d3 df b9 3d
       -0.16763312 0.08100207 0.104721546 0.09075894
000050 72 3a 1e 3d ac 3a 15 be 7f e7 5f bd 66 30 7c 3d
       0.038629957 -0.14573163 -0.05466413 0.061569594
000060 04 a4 2b 3e 2c 61 8b bd 2c 07 7e bc 6d a6 c4 3d
       0.16761786 -0.068056434 -0.01550464 0.09602056
000070 93 05 2d bd d2 33 bf 3c 39 ec 3a bd bd d8 2e be
       -0.042241644 0.02334014 -0.045635436 -0.17074867

decoder_net.8.weight f4 [32, 32]
000000 14 69 ed 3e 9a 15 c7 3d 8c 4d 58 3e 1e bc ba bc
       0.4636923 0.09720917 0.21123332 -0.02279478
000010 92 22 b9 ba 10 19 a4 3e 1a 6c 96 be 93 f1 d7 3e
       -0.0014124683 0.3205037 -0.2937935 0.42176494
000020 06 78 3f 3e 83 97 1b 3e ba ee 81 3d 3c 67 f7 3c
       0.18698129 0.15194516 0.063443616 0.030200593
000030 a4 f1 2a 3e 15 ca 6f be 7e 09 b0 3e ff ac 83 be
       0.16693741 -0.23416932 0.34382242 -0.25717923
000040 0d 30 cd 3e f5 0d 42 be bf cc 99 3e d8 4a 84 3e
       0.40075722 -0.18950637 0.3003902 0.2583835
000050 60 76 b9 3d 64 75 e5 bd b0 0e 91 be 22 64 fd 3e
       0.09055781 -0.11204031 -0.28331518 0.49490458
000060 f6 86 cb 3e d1 de c3 be b1 9b a9 3d dc e3 36 be
       0.39751405 -0.38255933 0.08281649 -0.17860359
000070 f8 db 45 be 02 39 8f 3e 5a 4a 7e 3e 9c 32 c1 bd
       -0.19322193 0.2797318 0.2483305 -0.09433481
000080 d0 6a d3 bc ce 1a 83 3d a3 cb e9 3d df 17 21 be
       -0.025807768 0.06401597 0.11415794 -0.15731762
000090 77 e9 be be 57 60 e8 be 51 8c 5b be 7f 66 1b 3e
       -0.37287495 -0.45386 -0.21440245 0.15175818
0000a0 a6 e9 70 3e 2a 6c 85 3e a0 8f a0 be 3a 2e 54 3d
       0.2352663 0.26059085 -0.31359577 0.051801898
0000b0 ee db 56 3e b1 fe c0 3e 00 96 d6 3e 0d a5 d2 be
       0.20982334 0.37694314 0.41911316 -0.4114155
0000c0 c4 e4 b6 be a1 7f fc be 04 13 cb 3e d1 ff 90 be
       -0.3572141 -0.49316123 0.39662945 -0.28320172
0000d0 3f 81 4e be 92 c9 eb 3e 8b 7a 17 3e 55 7c af 3e
       -0.20166491 0.46052223 0.1479284 0.34274545
0000e0 af 4e 29 3e 98 62 8c be 6f 6b 7b be 81 cc 88 3e
       0.16533922 -0.2741897 -0.24552701 0.26718524
0000f0 76 e1 a1 bd ee fa 7b 3e 1f c2 b4 be 0c 36 44 3e
       -0.079043314 0.24607441 -0.35304353 0.19161242
000100 c8 c2 70 be 48 de 43 be 38 c9 ad bc 2a 9a bf be
       -0.23511803 -0.19127762 -0.021214113 -0.37422305
000110 86 b3 7b 3e 28 4f cf 3e 9d 1d 00 3f ee 01 e3 3e
       0.24580202 0.4049008 0.50045186 0.4433741
000120 c1 18 c6 3d 0d be ba be c1 32 d5 be 64 8d 6f be
       0.0967269 -0.36473122 -0.41640285 -0.2339378
000130 b6 dd c6 3e 5c 47 77 3e a7 d2 de 3e b5 00 b0 bd
       0.38841027 0.24148315 0.4352009 -0.08593885
000140 04 ac ab 3e 01 44 c6 3e 8f 28 b6 be a7 9d a9 be
       0.33529675 0.38723758 -0.3557782 -0.33128092
000150 ce 30 42 3e 58 4c a9 be 97 35 e3 bd 62 4d 3e be
       0.1896393 -0.33066058 -0.11094206 -0.18584207
000160 cf e5 af 3e 87 0c dc be ab 22 fe be 3a 7f dd be
       0.34355018 -0.42978308 -0.49635825 -0.4326113
000170 15 2f 11 3d 3a 19 bb be e6 bb 94 3c a1 c8 00 3e
       0.03544529 -0.36542684 0.018156003 0.12576534
000180 3a 61 83 be a0 6f 92 3e c7 6e de bc c2 4b 6d be
       -0.25660115 0.28600788 -0.027152432 -0.2317343
000190 f1 48 cb bd ba 13 a5 be 02 b1 f9 3e 08 8f 89 3e
       -0.09926022 -0.32241613 0.4876786 0.26866937
0001a0 d8 29 0d 3e 80 63 35 bd aa 12 9f 3e 79 49 18 3d
       0.13785493 -0.044284344 0.31068927 0.037179444
0001b0 d4 e5 66 3d 84 55 04 3e b6 d7 8f 3a 5d 3f 55 3e
       0.056371525 0.12923247 0.0010974321 0.20824952
0001c0 96 26 29 bd 3c 69 7e be c6 77 a5 be 28 c1 9d bd
       -0.041296564 -0.24844831 -0.32317942 -0.07702857
0001d0 d1 a8 5d bd ef 6f e8 be 90 e2 6b 3c e3 b2 17 bd
       -0.054116074 -0.453979 0.014397278 -0.037035834
0001e0 94 d3 a5 3e 90 fc 55 be ad c9 79 be bc 50 90 bd
       0.32387984 -0.20897126 -0.2439334 -0.07046649
0001f0 96 f8 2b be 5c 84 99 bd 87 28 60 3e a2 c3 21 3e
       -0.16794047 -0.07495949 0.2189046 0.15797284
000200 10 15 37 3e f4 3f ad 3e 9b 8d 9d 3d 1b 6e f0 be
       0.17879128 0.33837855 0.07693025 -0.46959004
000210 7c 8a ed be 52 50 dc 3e ed d4 01 be a2 62 83 3e
       -0.46394718 0.4303003 -0.12678881 0.25661188
000220 a1 cf d9 3e 9e 63 cc bc bb bd fd 3e a6 18 a7 be
       0.4254122 -0.024949845 0.49558815 -0.32635993
000230 b0 35 d4 be a6 8c cb be 72 89 b2 be 87 2d 4e 3e
       -0.4144721 -0.39755744 -0.34870487 0.20134555
000240 bf 72 e5 3d 48 7c 3c be 16 53 7c bd ce 0d f2 3e
       0.11203527 -0.18406785 -0.061602674 0.47276157
000250 7d a2 41 3e 2f 74 a8 3e f0 c2 84 be 59 6e 56 be
       0.1890964 0.3290114 -0.25929976 -0.20940532
000260 59 e5 00 3e c7 6f dc be fe e5 e2 be a6 90 8b be
       0.12587489 -0.4305403 -0.44316095 -0.27258795
000270 73 d2 e0 bd 77 51 c2 39 93 70 79 bd 8e ff ef 3d
       -0.1097764 0.0003706326 -0.060898375 0.11718665
000280 7e 73 7c be 1f 7d 86 bd 79 41 96 3e 6d ce 92 be
       -0.24653432 -0.06566834 0.29346827 -0.28673115
000290 9b c2 e9 be 22 7b 56 3d c0 a7 c8 be 65 28 b5 be
       -0.45656285 0.052363522 -0.39190483 -0.3538238
0002a0 eb 9f 7c bd 9d 9b 84 3e 25 56 fa 3e cd 1f bc 3e
       -0.061675947 0.25899974 0.48893848 0.36743012
0002b0 91 40 9b bc 65 83 14 be 05 8a 32 3c 7f 17 e7 bd
       -0.018951686 -0.14503248 0.010897164 -0.112837784
0002c0 a7 93 91 3e ea 59 a4 be 6b 54 0b 3e 07 e5 b2 3c
       0.28432962 -0.3209985 0.13606422 0.021837724
0002d0 86 89 a8 3d 46 cd d3 3d 05 a0 0d bd c5 32 25 be
       0.082293555 0.10341887 -0.034576435 -0.16132648
0002e0 da da 91 3d df 47 d3 3e 26 28 e6 3d d4 fc 25 3e
       0.07121821 0.4126577 0.112381265 0.16209728
0002f0 97 3a b0 be 05 2e 2f 3e 6d c1 dd be 33 fc 75 3e
       -0.344197 0.17107399 -0.43311635 0.24021988
000300 c8 41 12 3e 63 0b 0f 3c a5 cc 2e 3d f2 c3 93 3e
       0.14282906 0.008730742 0.042675633 0.28860432
000310 f7 2a de be 59 5c 1d 3e 2e d1 fc be 20 a5 b8 bc
       -0.43392155 0.15367259 -0.4937834 -0.022539675
000320 73 16 de 3e 7b b4 89 bd c2 b0 eb 3e 32 5e f6 3e
       0.43376502 -0.06723877 0.46033293 0.4811874
000330 61 ef af 3e 2e 70 f3 3c 43 72 a8 be d2 a2 48 be
       0.3436232 0.029716577 -0.32899675 -0.19593361
000340 ba 5b c2 3d 22 fb 90 be 86 4d a1 3e 4e 45 a4 3d
       0.09490152 -0.283166 0.31504458 0.08021031
000350 9b 00 2b 3e 02 14 33 be e4 85 43 3c 4f cd e4 be
       0.1669945 -0.17488101 0.0119337775 -0.44687888
000360 2a ef 1b 3e ac f2 fb be 69 5d 32 3e 59 8f 7a 3e
       0.15227953 -0.4920858 0.17418446 0.24468745
000370 47 ae 69 be 66 45 a9 be 8f 58 57 be 63 5b 5b be
       -0.22820388 -0.3306076 -0.21029876 -0.2142158
000380 35 cc 4e be 5c 44 b4 3e b6 cd db 3e 4a 27 90 bd
       -0.20195086 0.35208404 0.42930382 -0.07038744
000390 f4 34 2c bd b7 43 9b be 71 20 ac be 79 91 c5 be
       -0.042042688 -0.303251 -0.336185 -0.3858755
0003a0 29 db 9f 3d 4b ab 05 3e 3b b2 38 3e f5 a2 4a be
       0.07805473 0.13053624 0.1803674 -0.19788726
0003b0 d7 96 b4 be 3d 34 ac 3d ad 6a 75 bc 8b de d2 3e
       -0.35271332 0.08408401 -0.014979047 0.41185412
0003c0 c3 3e 32 3c 22 e9 85 3e 81 6d 00 be 2f 47 e0 3c
       0.010879221 0.2615443 -0.12541772 0.027377693
0003d0 c8 08 f5 3e 37 d5 6c be bf fc 06 3d 37 f5 98 3e
       0.47858262 -0.2312821 0.03295588 0.29874584
0003e0 eb 82 a9 3d f1 ea bb be 38 b3 c8 be e3 c4 ce 3e
       0.08276924 -0.36702684 -0.39199233 0.40384588
0003f0 fe 1f 0c be 0f dd 8b be 39 01 cc bd eb 70 79 3e
       -0.13684079 -0.27317092 -0.09961171 0.24359481

decoder_net.8.bias f4 [32]
000000 4e 6f 43 bd 51 e7 03 3e 11 46 33 be 58 5a 9c bd
       -0.04771357 0.12881209 -0.17507197 -0.07634419
000010 7f 6a 11 3d 26 a6 2a 3e a4 fa 8b bd d5 f9 09 3e
       0.035501953 0.16664943 -0.06834915 0.1347421
000020 13 81 38 bd 90 97 f6 3d 2f a2 0a be db 77 3f 3d
       -0.04504497 0.12040627 -0.1353843 0.046745162
000030 f8 2c 08 3c f0 d7 93 3d a1 23 31 be 9c f5 23 bd
       0.008311503 0.07218921 -0.17298748 -0.040029153
000040 3e 97 14 3e b0 95 94 bd 89 06 03 3e 66 0c 13 be
       0.1451082 -0.07255113 0.12795462 -0.14360198
000050 a9 27 ae bd 31 8e ef 3d 0c 25 a5 3d b5 3c 21 3e
       -0.08503658 0.11697043 0.08063707 0.15745814
000060 c5 97 e2 bd ad 4a 9b 3d 8a 74 fe bd 52 d5 ae 3c
       -0.11064104 0.07582603 -0.12424572 0.021341953
000070 bb ad 35 be ec 70 8f 3d 38 f5 38 be b2 f1 02 3e
       -0.17742054 0.0700396 -0.18062294 0.12787512

decoder_net.10.weight f4 [1, 32]
000000 7e 53 8c 3e a0 a7 da 3e 44 4b 99 3e dd 0b f6 be
       0.2740745 0.42706013 0.29940236 -0.48055926
000010 23 d3 01 3e bf 87 c6 3e 95 18 fc 3e b6 42 e0 3e
       0.12678199 0.3877544 0.49237505 0.43800896
000020 6d 79 c8 bd fe ec ed 3e f7 b4 4b 3e 25 f1 c8 3d
       -0.09788785 0.46469873 0.19893251 0.0981162
000030 f3 1b 98 be cf 22 07 3e 7c ab 87 3e 4d 41 c6 3e
       -0.29708824 0.13196872 0.2649802 0.38721696
000040 25 d3 bd bd 1d 05 4b 3e a4 f7 17 3d 24 b7 dc be
       -0.09268788 0.1982617 0.037101403 -0.43108475
000050 0e 40 f5 be 4a 37 af 3d aa 5e b1 3e 5f 9e fe 3d
       -0.47900432 0.085554674 0.34642535 0.12432551
000060 b8 70 d8 be f7 d7 4e be fe 37 c2 be ac 63 d7 be
       -0.42273498 -0.20199572 -0.37933344 -0.4206823
000070 75 b9 d0 be 98 e8 93 be 5e ba 95 3e d6 d0 10 be
       -0.40766492 -0.28888392 0.2924375 -0.14142165
