Value_Net.pt (torch, 630612 bytes, 10 tensors)

decoder_net.0.weight f4 [512, 39]
000000 d6 f5 f3 bd b2 e8 3a 3f fe 79 9e 3e 3c 26 05 be
       -0.11912124 0.73011315 0.30952448 -0.13002867
000010 be 27 df bc a3 92 c2 be b6 13 8c be 38 70 17 bf
       -0.02724063 -0.380025 -0.27358788 -0.5915561
000020 4e fb dd be 65 74 a9 be e6 8d 34 3f 08 e3 ce 3c
       -0.43355793 -0.33096614 0.7052902 0.025254741
000030 02 4f a0 bf ed a4 0b 3e db 37 a4 3e dd 26 ee be
       -1.2524111 0.13637133 0.32073864 -0.46514025
000040 88 bc b6 3d f2 3b b1 be d2 05 11 3f 3a fe e1 3e
       0.08922678 -0.34616047 0.56649506 0.44139272
000050 30 81 f1 bd 9c 6c 37 bc 87 79 9c be 78 df fa be
       -0.11792219 -0.011195328 -0.30561468 -0.48998618
000060 c0 0e 96 3d f6 8d db bc 02 8a 5d bf 9b be a6 be
       0.07327032 -0.02680109 -0.8653871 -0.32567295
000070 ad 79 df 3e 3c 0e 8a bf 6a 3b ca 3e 7c 21 33 3f
       0.4364752 -1.0785594 0.39498454 0.6997297
000080 b0 6b ce 3d 38 1b 14 bf 58 50 43 be 24 f9 96 be
       0.100791335 -0.5785403 -0.19073617 -0.29486954
000090 40 7c 09 3f 72 7e 4f 3e d0 f8 1d 3d fa 52 34 bf
       0.53705215 0.20263079 0.038567364 -0.7043911
0000a0 a0 ca b8 bd 16 d7 8a be c4 63 e9 3e 4c e8 2a 3e
       -0.09023023 -0.27117223 0.45583928 0.16690177
0000b0 1e c9 e5 3e fc 60 8a be 06 1c f2 bd 2b a2 83 3e
       0.44880003 -0.27027118 -0.11821751 0.25709662
0000c0 36 8b a8 3d 96 64 c7 bd 00 da 95 3e 02 c8 64 be
       0.082296774 -0.09735982 0.29267883 -0.22341922
0000d0 f3 ad 8c 3e a3 50 af be 94 d0 88 bd 16 89 8a bf
       0.27476463 -0.34241208 -0.06680408 -1.0823085
0000e0 e0 58 5f 3d 92 56 6c 3f 60 8b 7c be 9e 19 26 3e
       0.054528117 0.92319596 -0.24662542 0.1622071
0000f0 ff ce 2f be cc c9 8a be 8c 48 5f 3e 52 6a 12 bf
       -0.17168806 -0.27107084 0.21805018 -0.5719348
000100 fe 45 eb be b6 a0 c1 3e e4 c9 dd be 7e 0f 93 be
       -0.45951837 0.37817925 -0.43318093 -0.28722757
000110 60 0a 88 3e 27 38 b0 bd a3 37 e9 be d1 ff c0 be
       0.26570415 -0.0860446 -0.4555026 -0.37695172
000120 0b 68 72 be 27 3c 1c 3e 11 10 81 3f 43 1e 95 3e
       -0.23672502 0.15257321 1.0083028 0.2912465
000130 7c 94 97 bd c0 ed a7 be 6e 7b d8 be 10 e8 4b 3e
       -0.07401368 -0.32798576 -0.4228167 0.19912744
000140 a0 c3 a5 3d 90 a7 ed be dc 19 9a be 3d aa 05 bd
       0.08093953 -0.46416903 -0.30097854 -0.032633055
000150 1a 0c a8 3d c4 34 1f 3f 60 a3 00 3e 09 93 dc 3e
       0.08205433 0.6218989 0.12562323 0.4308093
000160 ba 74 0b 3e 27 c9 87 3e d4 e5 24 3b 90 6f 22 bf
       0.13618746 0.26520655 0.0025161402 -0.6345148
000170 bc d6 31 3f 74 6b 81 3d 7e 59 b3 3e bc bd eb 3e
       0.69468284 0.06319323 0.35029215 0.46043193
000180 64 90 c3 3d 42 71 58 bf e4 36 5a be b2 d0 1f 3f
       0.09549025 -0.8454782 -0.21310002 0.6242782
000190 8c 1e 4e 3f 4a 3b cf 3e 39 01 f1 3d cf ea d7 3e
       0.8051536 0.4047492 0.11767811 0.42171332
0001a0 10 37 af be 00 cc 7f 3e 2a 78 ef be 5c a3 8f bd
       -0.34221697 0.24980164 -0.46771365 -0.0701358
0001b0 e0 64 aa bb 12 1a dd 3c b3 fd d0 3e 0a 30 c2 3e
       -0.0052000135 0.02698997 0.40818557 0.37927276
0001c0 52 f5 c5 bd ad 62 df 3e 92 95 af 3d 20 14 dc 3e
       -0.09665932 0.4362997 0.0857345 0.42984104
0001d0 ff df 43 3f dd 99 b2 3e 18 32 74 be 56 f3 73 bf
       0.76513666 0.34883013 -0.23847234 -0.95293176
0001e0 a0 6f 11 3d 8e 75 2b 3e a4 11 31 3e d2 dc d6 3e
       0.035506845 0.16744062 0.17291886 0.41965348
0001f0 c0 39 ad 3e e8 5d e4 3e d9 ed c2 3e 70 6d 99 be
       0.33833122 0.44602895 0.38072088 -0.29966307
000200 0a e0 b9 be 0c f6 58 3f aa c3 19 3f b2 a2 34 3f
       -0.3630374 0.8475044 0.60064185 0.70560753
000210 3a b2 9d 3e 99 b2 d6 3e 32 d8 35 be be 08 0a bf
       0.3080004 0.41933134 -0.17758253 -0.5391959
000220 8d 2e 18 be d1 b8 92 3e 8a fd 2a 3f 76 7e 84 3e
       -0.14861508 0.2865663 0.6679312 0.25877732
000230 c9 07 63 bf 69 05 8d be 38 3e e4 3e 02 94 10 bf
       -0.88683754 -0.2754319 0.4457872 -0.5647584
000240 0b f8 53 3c 00 49 f6 3d 10 7c 06 3e 56 57 f8 3e
       0.012937556 0.120256424 0.13133264 0.48504132
000250 5c c5 2e be 63 ad 01 bf 6c 97 be 3e e4 98 06 3f
       -0.17067474 -0.5065519 0.372249 0.5257704
000260 92 4e 4f be 66 ca bc be 04 fa 36 3e 1b 7d f8 bd
       -0.20244816 -0.36873168 0.17868811 -0.12133237
000270 b2 27 1c bd a6 aa 57 be ec bc 05 3f 68 0d 56 be
       -0.038123794 -0.21061191 0.52241397 -0.20903552
000280 80 04 0a 3f 6e df 01 be 2e 59 36 bf e8 2a 83 3d
       0.53913116 -0.12682888 -0.7122983 0.06404668
000290 18 38 3d bf d8 d3 5c 3e 85 ad e0 3e d2 71 8a be
       -0.7391372 0.21565187 0.43882385 -0.27039963
0002a0 10 99 09 bf 20 06 e0 3e 04 bd 33 3e 90 bb 4f 3e
       -0.5374918 0.43754673 0.17552572 0.20286393
0002b0 c4 af b2 3e a1 06 f7 bc 8a e6 76 bf 2e f8 4c be
       0.34899724 -0.030154528 -0.96445525 -0.20016548
0002c0 fd 01 18 3f 76 07 cc bf 28 71 7e 3e f9 08 d4 3e
       0.59378034 -1.5939777 0.24847853 0.41413096
0002d0 72 a8 f5 be 6e 12 96 be ca 77 8e be 78 15 92 bd
       -0.47980076 -0.29310936 -0.27825767 -0.07133001
0002e0 d6 15 e6 3e a0 7f bd 3d de 41 7a be 7a e6 d6 be
       0.44938534 0.09252858 -0.24439189 -0.41972715
0002f0 88 6d c4 3e c2 e6 9d bd 5c ea b5 3e 40 da f0 be
       0.38364816 -0.07710029 0.35530365 -0.47041512
000300 37 0d 4d 3d 96 6f a0 be c2 6b a2 3d 62 7f 67 bc
       0.05006143 -0.31335133 0.079307094 -0.0141294915
000310 d1 6f 98 3f d0 c6 d1 be 0c a6 2e 3f 52 d9 bf 3d
       1.1909124 -0.40971994 0.6822212 0.093676224
000320 e4 6b b2 bb 23 aa 8e 3d 83 0c e2 be 9e 16 05 3f
       -0.0054449905 0.06966045 -0.4415017 0.51987636
000330 98 60 6c be 37 78 87 be 75 97 26 3e 5f be 9f 3e
       -0.23083723 -0.26458904 0.16268714 0.3119993
000340 72 5d 92 3f f2 ba a2 3d fb b2 60 3e 84 e7 63 3d
       1.1434767 0.07945813 0.21943276 0.055640712
000350 df 8f 10 3f 2c 55 b9 be 44 db 0d 3e cc b1 08 bf
       0.5646953 -0.36197793 0.13853174 -0.53396297
000360 e8 9d b1 3c 1e e8 c1 3e 18 1e 78 3e cc 7b 88 3d
       0.02168174 0.37872404 0.2423023 0.066642374
000370 cc cb ac be 0c 03 ed 3d a8 a0 02 3e 96 e5 e3 3d
       -0.33749235 0.11572847 0.12756598 0.111277744
000380 68 09 20 bf f7 bc 9c be 62 34 5b 3d f6 32 30 3f
       -0.6251435 -0.3061292 0.053516753 0.6882776
000390 b4 5a a7 3e 24 f3 0b bf 56 d8 cc be bc 93 ba 3e
       0.32686388 -0.5466788 -0.400088 0.36440837
0003a0 be bb 6f be a2 d4 c3 bd d3 bf 8f 3f c2 5f ef 3d
       -0.23411462 -0.09562041 1.1230415 0.11688186
0003b0 32 45 6b bf 80 fc 4e 3d fc 1a 53 3d ea c0 7d 3d
       -0.9190246 0.05053377 0.051539406 0.061951555
0003c0 84 78 79 be 7e ec 37 be 3a 2c 92 3d cb dd 4b 3e
       -0.2436238 -0.17961308 0.07137342 0.19908826
0003d0 ab 8b 36 bd ca 32 31 bc 31 2c 07 be 7a c9 77 3d
       -0.04456679 -0.010815332 -0.13200451 0.060494877
0003e0 b8 66 98 be 5e 77 e7 bc aa b4 23 be 38 60 51 bd
       -0.29765868 -0.02825516 -0.15986887 -0.051117152
0003f0 cb dd d2 be a2 54 06 3f ee c2 32 3e 20 d5 b3 be
       -0.4118484 0.5247289 0.17457172 -0.3512354

decoder_net.0.bias f4 [512]
000000 c3 83 cb 3e 95 ec d5 3e 2a 30 cd 3e 5c 9c c5 3e
       0.39748964 0.4178206 0.4007581 0.38595855
000010 86 ce dd 3e 18 ae ca 3e 4a 53 bc 3e a4 6c f7 3e
       0.43321627 0.39585948 0.36782295 0.48325074
000020 85 9b ed 3e 07 52 b7 3e ea b2 c5 3e c5 8f d0 3e
       0.46407714 0.3580477 0.38613063 0.40734687
000030 42 80 b4 3e 91 3b c4 3e 12 ac c2 3e da d3 ca 3e
       0.35254103 0.38326696 0.38021904 0.39614755
000040 c8 24 cd 3e a3 1b ce 3e 9f f7 c8 3e c9 97 c7 3e
       0.40067124 0.4025546 0.3925142 0.3898299
000050 53 52 dc 3e 5e b5 cd 3e 0c a5 cc 3e 72 40 ec 3e
       0.43031558 0.40177435 0.3996967 0.46142918
000060 e8 05 c2 3e ec aa b1 3e 42 08 d1 3e 93 e1 b8 3e
       0.3789513 0.34700716 0.40826613 0.361096
000070 34 12 c5 3e 8a 47 bb 3e 8e a3 c5 3e 66 f0 d0 3e
       0.3849045 0.36578017 0.38601345 0.4080841
000080 09 79 d0 3e 3a fa cb 3e 9e 38 c9 3e 78 ac b9 3e
       0.40717342 0.39839345 0.39301008 0.36264396
000090 f8 57 cc 3e df 91 c6 3e 2e cd cc 3e 95 e1 f0 3e
       0.39910865 0.38783166 0.4000029 0.47047105
0000a0 84 1d cf 3e c9 f0 c6 3e b8 2d c7 3e 53 00 cb 3e
       0.40452206 0.3885558 0.38902068 0.39648685
0000b0 a4 33 d1 3e 1a 6f cb 3e 46 d8 b4 3e 0a 20 cc 3e
       0.4085971 0.397332 0.35321254 0.39868194
0000c0 8e a9 c1 3e be dd c0 3e b0 a9 e9 3e 20 0a c8 3e
       0.37824672 0.37669176 0.45637274 0.39070225
0000d0 a8 7c cf 3e 12 c5 d4 3e a7 16 e6 3e ff ac dd 3e
       0.40524793 0.41556603 0.44939157 0.43296048
0000e0 10 48 c8 3e 74 7c c8 3e 58 f2 d1 3e 46 71 c2 3e
       0.3911748 0.3915745 0.41005206 0.37977046
0000f0 f0 4b d4 3e 8b b8 b9 3e 2f 51 cd 3e a6 1a d4 3e
       0.41464186 0.36273608 0.40101 0.4142658
000100 16 6c c8 3e d1 53 e6 3e e0 c5 c3 3e 14 75 b9 3e
       0.39144963 0.44985822 0.38236904 0.36222136
000110 44 bf c8 3e 7a 4f c7 3e 88 1f cf 3e d7 b2 c7 3e
       0.39208424 0.38927823 0.40453744 0.3900363
000120 b0 06 ce 3e 0e 7f c7 3e ee 83 ce 3e 54 ec c6 3e
       0.40239477 0.38964123 0.4033503 0.3885218
000130 d0 55 9f 3e 0c c8 ca 3e 16 f2 c9 3e 73 8f c9 3e
       0.31120157 0.3960575 0.3944251 0.39367256
000140 a6 a6 c1 3e 8a 24 c7 3e 71 4d c1 3e 98 c5 d0 3e
       0.37822455 0.38895065 0.37754396 0.40775752
000150 f8 0b c0 3e aa c4 c7 3e 2a b4 d0 3e 1a a4 c7 3e
       0.3750913 0.3901723 0.40762454 0.38992387
000160 ef 41 cb 3e 4e d7 e8 3e 96 d4 ee 3e 64 94 d5 3e
       0.3969874 0.45476764 0.46646565 0.41714776
000170 c2 4b df 3e 8a 8e c2 3e 0c 9f be 3e 6c e6 d9 3e
       0.43612486 0.37999374 0.37230718 0.4255861
000180 87 b5 a1 3e 22 15 c2 3e a6 00 c7 3e 78 88 cb 3e
       0.31583807 0.37906748 0.38867682 0.39752555
000190 98 bd b2 3e c2 7e b5 3e 40 80 cc 3e f8 57 cc 3e
       0.34910274 0.3544827 0.39941597 0.39910865
0001a0 46 9c d5 3e fa 6a e9 3e 57 41 c1 3e 3c 89 d3 3e
       0.4172079 0.4558943 0.37745163 0.4131564
0001b0 c8 68 e1 3e fc d1 c8 3e fe 55 eb 3e 6d 42 db 3e
       0.44025254 0.39222705 0.45964044 0.42824116
0001c0 58 99 d9 3e 60 53 cc 3e 83 fb cb 3e e9 46 cd 3e
       0.42499804 0.3990736 0.39840326 0.40093163
0001d0 29 21 c8 3e c8 45 cb 3e e8 6e c2 3e 6e a0 d8 3e
       0.390878 0.39701676 0.3797524 0.42309898
0001e0 54 bd e1 3e e5 0a ce 3e fa 55 c8 3e c2 80 c5 3e
       0.44089758 0.40242687 0.39128095 0.38574797
0001f0 b8 96 cb 3e e6 4b d6 3e 4a ab e8 3e dd 6e e2 3e
       0.39763427 0.4185478 0.45443183 0.44225207
000200 f0 42 c9 3e cc 10 d0 3e f8 57 cc 3e 4d 61 d2 3e
       0.39308882 0.40637815 0.39910865 0.4108986
000210 7c 26 ca 3e 36 0f d3 3e f8 57 cc 3e 2a 56 c8 3e
       0.39482486 0.41222543 0.39910865 0.39128238
000220 bc 89 c9 3e ec 3e d6 3e e2 9a de 3e 84 da c8 3e
       0.39362895 0.4184488 0.4347754 0.39229214
000230 ec 06 d0 3e 0c 61 d4 3e 42 50 c4 3e 2e ec c1 3e
       0.4063028 0.4148029 0.38342482 0.37875503
000240 14 f2 d2 3e b0 51 cf 3e e7 6f d9 3e 18 6a dc 3e
       0.41200316 0.4049201 0.42468187 0.43049693
000250 7f d1 bf 3e 16 0c cb 3e d6 67 ce 3e 70 8f d1 3e
       0.3746452 0.39657658 0.40313596 0.40929747
000260 60 75 c0 3e fa 3f ba 3e a2 73 c8 3e c4 b8 d6 3e
       0.3758955 0.36376935 0.3915072 0.4193784
000270 28 4b c9 3e 3a fd d5 3e 86 37 bc 3e e8 95 b9 3e
       0.39315152 0.4179476 0.3676111 0.36247182
000280 90 ea d0 3e 01 d6 c8 3e f2 9a cb 3e bc e8 c9 3e
       0.40803957 0.39225772 0.3976665 0.39435375
000290 12 3c de 3e e2 a4 ce 3e 1a 9c da 3e 11 fe db 3e
       0.43405205 0.4036017 0.4269722 0.42967275
0002a0 b4 4e c9 3e 1b 41 c6 3e 7e bf d3 3e 4a c2 cb 3e
       0.39317858 0.38721547 0.41357034 0.39796668
0002b0 14 de c6 3e 5e c8 bb 3e 56 4f cb 3e ca 91 c9 3e
       0.38841307 0.36676306 0.39708966 0.3936904
0002c0 a1 6b cb 3e 21 91 d0 3e e7 af c1 3e ba b9 cf 3e
       0.39730552 0.40735725 0.37829515 0.40571386
0002d0 21 b1 c1 3e 64 83 c3 3e ca b6 d6 3e 57 b3 cb 3e
       0.3783045 0.3818618 0.41936332 0.39785263
0002e0 fa b9 d6 3e 48 24 cb 3e c0 c1 be 3e dc 64 c1 3e
       0.41938764 0.39676118 0.37257195 0.37772262
0002f0 12 89 c2 3e 7a b8 c6 3e d0 80 cf 3e c8 62 cb 3e
       0.379952 0.3881262 0.40527964 0.39723802
000300 94 f1 da 3e f6 fe bf 3e 4c 05 bf 3e 20 d6 c2 3e
       0.42762434 0.37499207 0.3730873 0.3805399
000310 72 9e c4 3e 13 ba cc 3e eb f9 cd 3e 1f a7 d5 3e
       0.38402134 0.39985713 0.40229735 0.41729066
000320 32 1a c4 3e de 3f c6 3e d6 6a cf 3e fe 15 d0 3e
       0.38301235 0.38720602 0.40511197 0.4064178
000330 72 c4 bd 3e fe 7b cf 3e 43 ee cb 3e de ba ca 3e
       0.37063938 0.40524286 0.39830217 0.39595693
000340 d4 a8 d1 3e ca 51 cb 3e c5 49 c8 3e 79 69 c7 3e
       0.40949118 0.39710838 0.39118782 0.38947657
000350 22 15 db 3e 58 ba df 3e 7d 79 cc 3e b6 5e af 3e
       0.4278956 0.43696856 0.39936438 0.34251946
000360 32 cb c5 3e a0 31 c8 3e e2 09 b5 3e 01 a5 cd 3e
       0.38631588 0.3910036 0.35359102 0.4016495
000370 58 66 c9 3e ca 86 cd 3e 39 ba c9 3e 34 04 cc 3e
       0.39335895 0.40141898 0.3939989 0.39846957
000380 13 75 c2 3e fd 6f c8 3e 9a bc d6 3e 6b 28 d2 3e
       0.37979946 0.3914794 0.41940767 0.4104646
000390 37 7a ce 3e 6c b8 db 3e 9a 58 c6 3e f2 0e ce 3e
       0.40327618 0.4291414 0.38739473 0.40245777
0003a0 1b e1 dc 3e 4c 40 d0 3e 36 16 c5 3e ee 2e d4 3e
       0.43140492 0.40674055 0.38493508 0.41442055
0003b0 78 8f db 3e 3a b1 d4 3e d5 76 c2 3e 54 6a d8 3e
       0.42882895 0.41541463 0.37981287 0.42268622
0003c0 43 b6 ca 3e a4 3f ee 3e 2a 48 d7 3e 81 0e db 3e
       0.3959218 0.4653293 0.42047244 0.42784503
0003d0 58 ba c6 3e 1e 65 cc 3e f8 92 ca 3e f8 57 cc 3e
       0.38814044 0.39920896 0.39565253 0.39910865
0003e0 d2 0e ce 3e aa 5f cd 3e b4 94 cc 3e ab 7e d0 3e
       0.40245682 0.40112048 0.399572 0.4072164
0003f0 a4 3b d0 3e 3d 5b d1 3e 06 01 d5 3e 10 78 d5 3e
       0.40670502 0.40889922 0.41602343 0.41693163

decoder_net.2.weight f4 [512]
000000 b0 5a 49 3f 80 d2 48 3f 5c 90 42 3f f4 7d 52 3f
       0.78654003 0.784462 0.76001525 0.8222344
000010 b4 eb 54 3f 08 3f 5c 3f 8f 19 46 3f f6 e5 55 3f
       0.83172154 0.8603368 0.7738275 0.8355402
000020 4f cf 4f 3f 21 6f 3f 3f 1e 82 4f 3f 44 36 46 3f
       0.811757 0.74778944 0.8105792 0.7742655
000030 76 a2 4d 3f 65 70 3c 3f 56 ef 53 3f 5f fd 45 3f
       0.8032602 0.73609 0.8278707 0.7733974
000040 e4 54 4d 3f 26 06 52 3f 5c 55 43 3f 7a cf 38 3f
       0.8020766 0.8204063 0.76302123 0.72191584
000050 2a e0 56 3f e2 f3 41 3f 00 7e 51 3f b7 16 4d 3f
       0.839358 0.7576276 0.81832886 0.80112785
000060 65 dd 56 3f 0a 97 50 3f e6 dd 44 3f 3a 62 a0 3f
       0.8393157 0.8148047 0.7690109 1.2529976
000070 90 35 41 3f bc 85 48 3f a0 c2 40 3f ae ee 47 3f
       0.75472355 0.7832906 0.75296974 0.7809857
000080 27 31 42 3f 99 b2 48 3f 43 5b 5d 3f 41 93 42 3f
       0.7585625 0.7839752 0.8646738 0.7600594
000090 9e 3e 52 3f 78 4a 3f 3f 68 8a 45 3f 4c d3 52 3f
       0.82126796 0.74723005 0.77164316 0.82353663
0000a0 65 7d 46 3f c2 fe 4d 3f 8a 46 4c 3f 4d a6 54 3f
       0.77535087 0.80466855 0.79795134 0.83066255
0000b0 4e 7c 48 3f 2a 34 4c 3f ea 34 45 3f 40 3a 50 3f
       0.78314674 0.79767096 0.77033865 0.8133888
0000c0 44 9a 41 3f fe f5 43 3f 0e 7f 4b 3f be de 45 3f
       0.75626016 0.7654723 0.79490745 0.77293
0000d0 7a 74 43 3f 08 11 54 3f dc 32 4a 3f 58 d8 50 3f
       0.76349604 0.8283849 0.78983855 0.81580114
0000e0 b3 70 48 3f 2f ca 3d 3f 34 73 52 3f 20 71 4c 3f
       0.78296965 0.7413663 0.82207036 0.79860115
0000f0 e4 55 4c 3f 36 8a 4b 3f 3a 21 50 3f ee 1c 39 3f
       0.7981856 0.7950777 0.813007 0.7230977
000100 4d 16 52 3f 06 b3 47 3f 64 0e 44 3f cb f3 53 3f
       0.8206528 0.78007543 0.7658446 0.82793874
000110 9f 6e 3d 3f aa 1e 43 3f 18 48 4c 3f f4 18 37 3f
       0.7399692 0.76218665 0.79797506 0.7152245
000120 63 4d 40 3f 28 de 43 3f da 18 56 3f 78 dd 49 3f
       0.7511808 0.7651086 0.8363167 0.7885356
000130 fd f5 49 3f 8f 9e 49 3f 05 ae 50 3f 56 ee 53 3f
       0.78890973 0.78757566 0.8151553 0.82785547
000140 14 ef 45 3f 3a 91 4c 3f 68 a5 45 3f e4 f5 50 3f
       0.7731793 0.799091 0.77205515 0.816252
000150 2d e5 46 3f bc 95 44 3f 63 8f 4b 3f 64 13 56 3f
       0.77693444 0.76790977 0.79515666 0.8362334
000160 74 e6 51 3f ba 26 4a 3f 1b a6 4d 3f 4c ee 45 3f
       0.8199227 0.7896534 0.8033158 0.7731674
000170 b8 16 3e 3f 75 79 4d 3f e4 a9 77 3f d6 6e 3f 3f
       0.74253416 0.80263454 0.9674361 0.747785
000180 10 f6 50 3f 1a c8 3b 3f 9e 8f 4d 3f 74 b4 41 3f
       0.8162546 0.73352206 0.8029727 0.75665975
000190 90 b2 67 3f 16 a9 51 3f 80 8a 4e 3f 1c d9 44 3f
       0.9050684 0.8189863 0.80680084 0.7689378
0001a0 10 e3 47 3f a8 29 53 3f 69 88 44 3f 2a 6f 4b 3f
       0.78080845 0.8248544 0.76770645 0.794665
0001b0 4b 55 50 3f f7 c6 47 3f 7f ce 48 3f 1d e2 4a 3f
       0.81380147 0.7803797 0.7844009 0.7925127
0001c0 4e 60 57 3f 9c 32 4f 3f 0b 15 4d 3f a8 06 4a 3f
       0.84131324 0.809366 0.80110234 0.78916407
0001d0 e5 57 48 3f a5 26 5f 3f f6 28 41 3f 1d 94 48 3f
       0.78259116 0.8716834 0.75453126 0.78351
0001e0 b6 61 4b 3f 20 14 48 3f de 6f 46 3f f7 01 3b 3f
       0.7944597 0.7815571 0.77514446 0.73049873
0001f0 4f 0e 4e 3f d7 9f 4f 3f 75 55 57 3f 8d 62 74 3f
       0.80490583 0.8110327 0.8411477 0.95462877
000200 c6 36 5b 3f b3 37 4c 3f a2 45 4f 3f 64 d6 67 3f
       0.8563045 0.7977249 0.80965626 0.9056151
000210 d4 dd 44 3f 7a 5d 54 3f 6f d0 4f 3f 16 f0 45 3f
       0.7690098 0.82955134 0.8117742 0.7731947
000220 b8 dc 4b 3f 58 03 4d 3f 4e f6 52 3f 8a af 6b 3f
       0.79633665 0.8008323 0.8240708 0.92064726
000230 46 25 4c 3f 9a 57 4b 3f cd 87 4e 3f 8c 08 48 3f
       0.79744375 0.79430544 0.80675966 0.7813804
000240 70 d7 49 3f 44 a2 4c 3f 2e 28 50 3f 97 bf 4f 3f
       0.78844357 0.799351 0.8131131 0.8115172
000250 78 d1 45 3f 2a 32 51 3f 06 38 56 3f 2f b5 57 3f
       0.7727275 0.8171717 0.83679235 0.8426084
000260 10 28 48 3f 97 e9 40 3f ad b0 4d 3f 63 ce 43 3f
       0.7818613 0.7535643 0.8034771 0.76486796
000270 df 38 3f 3f ca 89 48 3f 19 96 48 3f d0 6a 51 3f
       0.74696153 0.7833525 0.7835403 0.8180361
000280 1e c5 53 3f 86 e5 51 3f 6c 85 47 3f a6 f2 4a 3f
       0.8272265 0.8199085 0.7793796 0.792765
000290 36 12 52 3f b8 45 3c 3f b5 59 47 3f 0e fd 50 3f
       0.8205904 0.7354388 0.7787126 0.8163613
0002a0 9f a6 4a 3f 10 0e 3c 3f 66 24 4d 3f 34 6c 4e 3f
       0.79160494 0.7345896 0.80133665 0.80633855
0002b0 a3 77 46 3f ce 52 48 3f f8 89 69 3f 1c 2d 40 3f
       0.775263 0.7825135 0.9122615 0.7506883
0002c0 09 85 47 3f f8 08 47 3f cc 74 4a 3f aa 84 4a 3f
       0.7793737 0.7774806 0.7908447 0.7910868
0002d0 fd e2 53 3f 6a 33 42 3f 22 ac 57 3f 6e 75 46 3f
       0.8276823 0.758597 0.8424703 0.77522933
0002e0 de 54 3e 3f bc f6 48 3f 3b 6e 48 3f 62 79 4c 3f
       0.7434825 0.78501487 0.782932 0.79872715
0002f0 83 f8 55 3f 24 19 39 3f f6 e2 4a 3f 77 cc 4a 3f
       0.83582324 0.72303987 0.79252565 0.7921824
000300 38 50 54 3f 6a 4d 44 3f 26 e3 40 3f ee d1 48 3f
       0.82934904 0.76680624 0.753466 0.7844533
000310 f6 4c 5e 3f 9f 2f 4b 3f ba 19 5c 3f f8 2e 4c 3f
       0.86836183 0.7936954 0.85976756 0.7975917
000320 98 45 4f 3f ca 2e 41 3f 17 b0 59 3f 84 7c 43 3f
       0.80965567 0.7546202 0.85034317 0.7636187
000330 90 fc 52 3f ce db 42 3f 66 b4 41 3f 2a b9 4e 3f
       0.8241663 0.76116645 0.7566589 0.8075129
000340 da 01 44 3f e2 4f 51 3f 41 8e 4a 3f 62 70 4e 3f
       0.76565325 0.81762516 0.7912331 0.8064023
000350 da 27 4b 3f 51 f9 53 3f 60 c3 46 3f bc 9c 79 3f
       0.79357684 0.828023 0.7764187 0.9750478
000360 bc 92 4c 3f 55 92 4a 3f 96 a9 47 3f 40 8e 4d 3f
       0.799114 0.79129535 0.7799314 0.8029518
000370 52 a4 2a 3f 5e 12 49 3f 1e 01 5e 3f 46 be 53 3f
       0.6665698 0.7854365 0.86720455 0.8271221
000380 9a ab 3f 3f 26 7b 49 3f f2 ef 3d 3f 70 17 30 3f
       0.7487122 0.78703535 0.7419425 0.6878576
000390 1c 3f 62 3f 25 74 4c 3f ea 50 4a 3f 18 e2 56 3f
       0.8837755 0.7986472 0.79029715 0.8393874
0003a0 9a c5 47 3f 4a aa 4d 3f 39 64 45 3f 60 ba 51 3f
       0.7803589 0.80337965 0.7710605 0.8192501
0003b0 da 02 4e 3f 84 a8 4d 3f a0 f3 51 3f 7f 3a 51 3f
       0.804731 0.8033526 0.8201237 0.8172988
0003c0 94 18 4b 3f 16 8c 4c 3f 9c b6 4e 3f 9d 5a 4c 3f
       0.7933438 0.79901254 0.8074739 0.79825765
0003d0 ca ce 4c 3f fc f7 64 3f dd d3 41 3f f0 6f 42 3f
       0.80003035 0.89440894 0.757139 0.75952053
0003e0 a8 bf 68 3f e8 e3 4f 3f 08 35 61 3f ea 86 45 3f
       0.90917444 0.8120713 0.87971544 0.7715899
0003f0 ce 7d 4f 3f 2c 02 43 3f 2a 91 5a 3f 65 bc 59 3f
       0.8105134 0.7617519 0.8537775 0.8505309

decoder_net.2.bias f4 [512]
000000 da 32 09 3c 56 e2 0c 3d 68 8c 6a 3c 0e 3e 92 ba
       0.00837394 0.03439554 0.014315702 -0.001115741
000010 a3 61 74 3c d2 16 a2 3b 9e 18 37 bd c0 89 66 3c
       0.0149158565 0.004946568 -0.04470121 0.014070928
000020 d8 ac 5a 39 7b a5 f6 bc 14 b2 16 bc 56 27 ce bb
       0.0002085449 -0.030108204 -0.009197731 -0.0062913103
000030 f4 5f 3a bd 04 fb b7 3c ba 5d 9d bc e6 aa e2 bb
       -0.045501664 0.02245856 -0.019209731 -0.0069173453
000040 06 da 2f 3c d8 c2 8f bc 18 8e d1 3b 3e c8 b6 3c
       0.010733133 -0.017548963 0.0063951127 0.02231228
000050 2c d8 38 3d 56 03 99 3c f8 87 4d 3c 62 3d d6 3c
       0.045128033 0.018678349 0.0125446245 0.026152316
000060 33 ff c9 b9 ad 58 94 bc 3a 15 ed 3c 2e 6e 86 3c
       -0.00038527846 -0.01810869 0.028940786 0.01640996
000070 68 01 8d bc b0 1e 5b 3c a4 0c 71 3c df 3d 67 3c
       -0.017212585 0.013374016 0.014712486 0.014113872
000080 29 40 8e 3c d0 ac 00 3d 64 a0 74 3c 7a 73 3f bd
       0.017364578 0.031414807 0.014930818 -0.046740986
000090 b0 df dc bc 81 a4 0a 3c 40 d7 1d 3c 8e 78 f9 3c
       -0.026962131 0.008462072 0.009633839 0.030452993
0000a0 a8 ce 96 3c 02 83 08 3b a3 b1 ae ba 01 77 97 bc
       0.018409088 0.002083004 -0.0013328086 -0.018489363
0000b0 4a 4d 8d bc 3d a5 93 3b f4 af 13 bc 50 d4 28 bc
       -0.017248768 0.004505782 -0.009014118 -0.0103045255
0000c0 46 c1 05 bd b3 aa 00 bb e4 61 d1 3b 68 91 e9 3b
       -0.032655023 -0.0019632995 0.0063898433 0.0071279295
0000d0 5c 0d d7 3b 36 ac ae 3b a4 0a 86 3b 18 54 37 3d
       0.006562872 0.0053305877 0.004090624 0.044757932
0000e0 10 33 14 3d 83 1a 24 bc 11 28 bb 3b c8 de 37 bc
       0.03618151 -0.0100160865 0.0057115634 -0.011222549
0000f0 33 cc 1d bc 16 00 55 3c e2 10 00 bc b5 50 f5 bc
       -0.009631204 0.013000509 -0.007816525 -0.02994571
000100 2f 13 8a 3b 4c e3 bd 3c 5b ac 37 3d 42 57 0a bd
       0.0042137126 0.023179673 0.044842105 -0.03377462
000110 f0 db e1 3b aa e9 06 3c 54 12 92 3b 36 17 c9 bb
       0.0068926737 0.008234421 0.0044577513 -0.0061368
000120 ee e5 27 3c 96 61 93 bb 98 82 4f 3d 6e ab c8 bc
       0.010247691 -0.004497717 0.050661653 -0.024495807
000130 c6 db 57 3b ed 6c 68 bb 13 b7 14 3d f0 39 ea 3a
       0.0032937392 -0.0035465315 0.036307406 0.001787005
000140 3e 39 96 bc ca ee 90 3b 22 36 9c 3b 12 be 54 3c
       -0.018337842 0.004422997 0.0047671953 0.012984769
000150 d6 e6 ef 3c d2 23 97 3c a2 0f 7e 3b 58 d5 e2 3b
       0.029284876 0.018449698 0.0038766642 0.006922405
000160 0c 5e 23 bc 50 56 00 3d 4a d8 d3 3c 5e 8b 79 3c
       -0.009971153 0.031332314 0.02585997 0.015230982
000170 5c 69 87 3c 20 ac b0 bc 96 68 9b bc 56 be 7e bc
       0.016529731 -0.02156645 -0.018970769 -0.015548309
000180 94 c4 94 bc 89 65 91 3c 76 70 3d 3a f4 c2 48 bc
       -0.018160142 0.017748611 0.0007226536 -0.012253512
000190 41 c6 ca bc 5e e4 e7 bc 01 2e de bb b4 6f 05 3d
       -0.024752738 -0.028307136 -0.0067803864 0.03257723
0001a0 2e f3 d3 bc d0 69 62 bc 54 02 21 bc 3e 72 76 3c
       -0.025872793 -0.013819173 -0.009827215 0.015041886
0001b0 89 6e bc bb bc 68 08 bc 38 24 b4 3c aa c8 11 bb
       -0.0057504815 -0.008325752 0.021989927 -0.002224485
0001c0 e0 51 18 3c da f9 94 39 b3 9f 12 3d 65 e3 62 3b
       0.009296864 0.00028414914 0.035796832 0.00346204
0001d0 2e 36 78 3c 1f e9 a8 bc 7a ac e0 bc e8 76 1d 3d
       0.015149636 -0.020618973 -0.027425993 0.038443476
0001e0 27 f7 7d 3b 7e 8b d7 3c 0c 60 42 3c 53 30 71 bb
       0.003875205 0.026311632 0.01186372 -0.0036802485
0001f0 4e 3f 0f 3c 6a 74 25 3c d0 87 c0 bc 94 61 00 3c
       0.00874312 0.010098556 -0.02350226 0.007835764
000200 c7 8a 96 bc 50 9f 7e 3c fc 93 0e bc 49 fa 5a bc
       -0.018376721 0.015540913 -0.008702274 -0.013365337
000210 59 f2 95 3c 39 3e b5 3c 13 b8 7f bc 7c 30 83 bb
       0.018304037 0.022124397 -0.015607852 -0.0040035825
000220 a3 bc 79 3b bc 99 f5 bc 4c 7e a1 3b 9e d5 60 bd
       0.003810682 -0.029980533 0.004928386 -0.05489122
000230 52 f0 c0 3c 5e aa 0a 3d 7f d9 9a 3b 7e 8d 3d 3b
       0.023552094 0.03385388 0.0047256346 0.0028923447
000240 78 b6 35 bc 80 18 f6 3c 06 8e 1a 3d 44 af a8 bb
       -0.011090867 0.03004098 0.0377331 -0.0051478464
000250 7c 7b 1a bc 0a 7e 53 bb 42 e7 02 bc c3 aa 77 bb
       -0.009428855 -0.003227117 -0.0079897065 -0.003779099
000260 72 08 06 bc 62 c9 c6 3c e3 07 ce bb 2c 48 d7 3a
       -0.008180724 0.024265949 -0.0062875613 0.0016424707
000270 10 fa e5 bc 90 10 de 3c 59 3b 39 3c 63 25 7a bc
       -0.02807334 0.027107507 0.0113056535 -0.015267703
000280 32 37 0e 3d 45 69 ba 3b ea 11 bc bc 04 07 21 3c
       0.034720607 0.0056888186 -0.02295776 0.009828333
000290 0a e9 00 3c b4 6f be bc 91 75 b6 3c 17 c2 27 3d
       0.007868061 -0.023246624 0.022272857 0.040956583
0002a0 61 4a 80 3c 7e 2e 66 bc 7e ff 5e 3c 60 08 d9 bb
       0.015660467 -0.014049171 0.013610719 -0.006623313
0002b0 34 49 a1 3a b8 2a 2b bc 27 ee c3 bc a4 46 38 3c
       0.0012305141 -0.010447197 -0.02391727 0.011247311
0002c0 fb d1 cb 3c be 95 8e 3a e4 2a f1 3b 7c a1 7d bc
       0.0248804 0.0010878367 0.0073598493 -0.015480395
0002d0 f9 f0 2f bc 3e a5 13 ba 9d 94 db 3c 81 88 45 3c
       -0.010738605 -0.0005632228 0.026804263 0.012056471
0002e0 08 4e 27 3c 86 77 60 3c c9 f6 50 bc b1 a3 3b bb
       0.010211475 0.013700372 -0.012754151 -0.0028631503
0002f0 ca 8c df bc 3c 4b b3 3b 66 a9 90 3c ec 1a a7 3c
       -0.027288813 0.005471615 0.0176589 0.02039858
000300 be 21 46 3d 5c d4 01 bd 8c 79 17 bc 6e e2 ea bc
       0.048372023 -0.031696662 -0.009245288 -0.028672423
000310 3d f3 83 bb 4b 60 b3 3c 1c f8 cb ba 56 79 d6 3c
       -0.004026799 0.021896502 -0.0015561613 0.026180904
000320 10 8a d4 3c 63 ea 09 bc 2d a0 e8 3c 87 1f 63 3c
       0.02594474 -0.008417699 0.02839669 0.013862497
000330 78 d0 7d bc 17 6a 8e bc 28 f8 6d bc ee 7a 2b bc
       -0.015491597 -0.017384572 -0.014524497 -0.01046632
000340 fc 00 cc 3c 3c 7d 73 bc 50 41 d8 bc 30 cc 75 bc
       0.024902813 -0.014861401 -0.02639833 -0.015002295
000350 d4 c4 25 3d a4 91 6f 3c cc 91 05 3c 9a 0a a8 3b
       0.040470913 0.014622126 0.008152436 0.005128217
000360 7a 37 28 bc e3 5a ba bb 86 53 cd 3c 8e ec d1 3a
       -0.010267133 -0.005687104 0.025064241 0.0016015933
000370 e2 9e 29 3c 69 5e 98 bc d1 9a da bc ec 6d 54 bc
       0.010352822 -0.018599706 -0.02668515 -0.012965661
000380 cd 7a f0 3b 92 37 01 3c a2 cd 03 3d 30 fc bc bc
       0.0073388577 0.007886784 0.03217853 -0.023069471
000390 72 3a 11 bc 29 30 21 3c f4 2d 30 3c 02 2b 08 bd
       -0.008864032 0.009838142 0.010753144 -0.03324414
0003a0 b8 8b 19 3d 6d 6e 13 3d 7a cf 1d bc 40 00 14 bc
       0.03748676 0.035993982 -0.009631986 -0.009033263
0003b0 de bc c4 bc a5 4e b8 3c a6 b4 30 3c 47 39 fd 3c
       -0.02401584 0.022498438 0.010785257 0.030911101
0003c0 88 54 a5 3b 86 71 a5 3c 84 70 71 bc 0a 39 81 3c
       0.0050454773 0.020195734 -0.0147362985 0.015774269
0003d0 08 ea 89 bc da af 3a bc 04 a1 bd bb 50 13 18 3d
       -0.016835228 -0.011394465 -0.005787017 0.037127793
0003e0 b8 1b af 3b 7e 01 e2 bc 3d 44 5a bc 94 d7 f8 bb
       0.0053438805 -0.027588602 -0.013321933 -0.0075940583
0003f0 ea 37 d1 bc f1 83 64 3c fe 59 39 bb b2 66 ac bc
       -0.025539357 0.013947473 -0.00282824 -0.021045063

decoder_net.3.weight f4 [256, 512]
000000 b8 c3 04 be 84 f1 e9 3e 60 2c dd 3d 06 d7 cb 3e
       -0.12965286 0.45692074 0.107994795 0.39812487
000010 e0 2c 57 3e f2 58 34 bf a1 07 de 3e c4 1f d0 be
       0.21013212 -0.7044822 0.43365195 -0.40649235
000020 c2 0b 05 bf a0 bf a6 3e 10 3b 1f 3f f8 63 bc 3e
       -0.51971066 0.32568073 0.621995 0.3679502
000030 5c 49 4c be 90 ee 05 bf ca 46 2b 3f 04 d8 f4 be
       -0.1994986 -0.5231714 0.6690489 -0.47821057
000040 0e 7b 0c bf 0b 8e 0c bf 82 19 4b 3f 7d 46 75 3e
       -0.54875267 -0.5490424 0.79335797 0.2395267
000050 e4 ac f5 be ab 7c 20 bf 80 86 33 bd fa 02 c6 bd
       -0.47983468 -0.6269023 -0.04382944 -0.096685365
000060 a0 be 55 3e 5d 84 c0 3d 8e 47 5d 3e 8f 6c 16 be
       0.20873499 0.09400246 0.21609327 -0.1468985
000070 2c b5 63 3d ec f9 58 3f ca 5d 42 bf 78 d8 93 be
       0.0555927 0.8475635 -0.7592436 -0.2887609
000080 ed 0e 13 bf 8b fa ca be a6 c9 b7 bd 0a 9e 25 3d
       -0.5744465 -0.39644274 -0.08974008 0.04043392
000090 0d 12 ae 3e 04 ee 1d bf 07 08 66 be ce f1 82 3e
       0.33998147 -0.6169131 -0.22464 0.25575107
0000a0 96 d8 a8 be 16 83 87 3e 6b 90 00 bf a1 af 48 3e
       -0.32977742 0.26467198 -0.50220364 0.19598247
0000b0 84 75 d9 be 58 fd 87 be c4 08 dc 3c 19 3e b6 3e
       -0.4247247 -0.26560473 0.026859649 0.35594252
0000c0 31 30 0f 3c 30 e5 8e 3c 9e 7d 43 bc 80 35 7f 3c
       0.008739517 0.01744327 -0.011931805 0.01557672
0000d0 7e a3 01 be 5a 41 fb be bd d6 66 3e 2c c0 0a bf
       -0.12660024 -0.49073297 0.22542854 -0.5419948
0000e0 6f bd 50 bd fc a5 99 be 5f 0a 40 3e 95 96 b0 3e
       -0.050961908 -0.3000945 0.18753956 0.34489885
0000f0 76 18 4c 3e d8 5b a2 be 64 7e cb 3e 00 f0 5b be
       0.19931206 -0.31710696 0.39744866 -0.21478271
000100 f3 3e 29 3f 9e 71 8b 3e 04 3b 6a 3f 01 ba 58 be
       0.6611168 0.2723512 0.914963 -0.21164705
000110 24 3d 57 3d 12 5f 36 be ee 62 17 3f e2 9b 93 be
       0.052548543 -0.17809704 0.5913533 -0.28829867
000120 fc d5 41 3e 48 1f b8 3b dd f8 13 3f 05 9e 23 3f
       0.18929285 0.0056189634 0.5780161 0.63912994
000130 ae 2c f8 be 48 4c 90 3e 0b f3 c8 3e 51 29 ea 3e
       -0.48471588 0.28183198 0.39247927 0.45734647
000140 52 89 5c 3f 34 36 78 3d d6 3d 10 3d 56 30 05 bf
       0.86147034 0.060598567 0.03521522 -0.5202688
000150 f4 f5 51 bb 16 38 20 3f d6 00 b6 3e 4e 60 7c bf
       -0.0032037469 0.6258558 0.35547513 -0.9858445
000160 9a 70 24 3d ee 31 ba 3e 34 e4 fa bb 28 c9 05 bf
       0.040146448 0.36366218 -0.0076565985 -0.52260065
000170 de 95 5b be 0c e8 88 be 2a 29 21 be fc b3 ee 3e
       -0.21443889 -0.26739538 -0.15738359 0.46621692
000180 ee 96 1a 3f 15 57 a2 3e 28 77 75 3e 67 59 b2 3e
       0.6038655 0.31707063 0.23971236 0.34833834
000190 f2 d0 1a bf 06 9c ee 3e ec 5d ff 3c 2c 3b 83 3e
       -0.60475075 0.4660341 0.031172715 0.25631082
0001a0 66 53 81 bf 18 84 f6 be ea aa 9f 3e c8 82 a6 be
       -1.0103576 -0.48147655 0.31185085 -0.32521653
0001b0 71 19 10 3f ce d3 0a bd 50 7c c8 be a8 02 27 3e
       0.5628882 -0.0338934 -0.39157343 0.16309607
0001c0 7d 70 22 be f6 2c 03 bf 9e 45 15 3b 3f 27 65 be
       -0.15863223 -0.5124048 0.002277709 -0.22378252
0001d0 ec 7d de 3e 44 f0 b0 3d d4 a9 eb 3d 74 6d f2 3d
       0.43455446 0.08639577 0.115070015 0.11837283
0001e0 4c d0 2b bf b2 37 3b be b8 83 04 3f 5e 5e e4 3e
       -0.6711471 -0.18282965 0.51763487 0.44603246
0001f0 ad 46 49 bd 7e e1 eb 3d 05 d3 ab 3d 78 43 86 3d
       -0.049139667 0.115176186 0.08389858 0.065558374
000200 d8 a4 38 3e 02 d1 e8 3e 42 ff 11 3f d7 f3 8c be
       0.18031633 0.4547196 0.5703012 -0.27529785
000210 02 42 95 bd 56 03 af 3d 0e 84 cd bd 84 a8 df 3e
       -0.072879806 0.08545558 -0.10034953 0.43683255
000220 93 93 87 bf 20 f0 1e 3f 11 fe a2 be e8 29 f3 3e
       -1.0591911 0.6208515 -0.31834462 0.4749291
000230 56 ae f5 3e 78 00 4d bb c0 d9 ac be 92 87 93 bd
       0.4798457 -0.0031280797 -0.3375988 -0.07203592
000240 48 5e 45 3e d9 9e f2 3e 60 4c ef 3d 44 2a 58 be
       0.19274247 0.47386816 0.11684489 -0.21109873
000250 8c 29 3d 3f c3 c2 82 bd 2c 74 9e 3e 36 9a 7d be
       0.7389152 -0.06384804 0.30948007 -0.24765858
000260 2a c4 99 be 8e 03 a4 bc 7c 71 3e bd 31 2d c8 be
       -0.30032474 -0.020021226 -0.046494946 -0.39096978
000270 98 ad b3 bc 88 bc 2e 3e 4e 41 1e be 5a 6e 39 be
       -0.021933362 0.17064106 -0.154546 -0.18108502
000280 f8 05 17 3e a8 56 92 be ed 5d 40 bf ee 09 c4 3e
       0.1474837 -0.28581738 -0.7514332 0.38288826
000290 a5 b1 58 bd 91 25 8e be c0 f6 cb be 12 41 80 3c
       -0.05290379 -0.27763036 -0.39836693 0.015656028
0002a0 86 98 fd 3e 5d bd 0c 3f 17 86 31 3f 4e 08 83 be
       0.4953043 0.54976445 0.6934523 -0.25592273
0002b0 2e 43 c2 3e 9e 01 8c be b2 12 dc 3e 74 99 e9 3d
       0.3794188 -0.27344984 0.42983013 0.11406222
0002c0 e0 ea b0 be 06 7e 34 3e ae 0e 90 be ae 47 15 3e
       -0.34554195 0.17626199 -0.281362 0.14578125
0002d0 ec ce 3f bf 0a 02 48 3f 4e a8 8c 3e dc 0f 00 3f
       -0.7492511 0.7812811 0.27472156 0.500242
0002e0 48 e7 09 3f ae 5f 15 3f 48 44 e2 3e 53 d4 69 3d
       0.5386853 0.5834912 0.4419272 0.057087254
0002f0 32 c6 93 3e 02 cd 88 3e a8 ca 6f 3e d2 24 a5 3e
       0.2886215 0.2671891 0.23417151 0.32254654
000300 dd e7 15 bf 4e ce 59 bc 24 84 39 be 2c 6f d0 3e
       -0.5855692 -0.013293816 -0.18116814 0.40709817
000310 df 4b 35 3e 18 5b 69 3e 24 57 64 3e ce 64 99 bd
       0.17704724 0.22788656 0.22298867 -0.0748993
000320 3c 6a 48 be 66 ae b6 3e e1 7d 44 3d 09 4d 89 3e
       -0.19571775 0.3567993 0.04797161 0.26816586
000330 8f b5 81 be 09 2e 84 be 4c 85 56 3f 6a d7 f4 be
       -0.2533383 -0.25816372 0.83797145 -0.47820598
000340 fe e9 a2 be 61 d2 2f be 91 91 82 3e a7 c3 fb be
       -0.31819147 -0.17170097 0.25501683 -0.49172708
000350 63 03 85 bc 88 a8 fb 3d 01 4a e2 be 7e 2d 21 3e
       -0.016236966 0.12288004 -0.44197085 0.1574001
000360 eb 6d 94 3d fc 18 85 be f1 fa 15 3f fa 6f 5c be
       0.07247528 -0.25995624 0.5858603 -0.2152709
000370 76 44 ba 3e bd ff 21 3c 84 67 c1 3e 47 11 0a 3e
       0.36380357 0.009887633 0.3777429 0.13483153
000380 86 62 cb 3e ec 5b ce 3e 16 51 02 be 32 da b5 bd
       0.39723605 0.40304506 -0.12726244 -0.08879508
000390 06 f6 5d 3e a2 81 96 bd aa b0 8d 3f 06 f0 22 be
       0.21675882 -0.07348944 1.1069539 -0.15911874
0003a0 da eb e6 3e 67 a6 c8 3b 5c 13 41 3e 0a 79 84 be
       0.45101815 0.0061233523 0.18855041 -0.25873595
0003b0 00 00 70 3f ed 24 fc bc b8 f3 2b bf 6f 76 9b 3d
       0.9375 -0.030779326 -0.6716876 0.07590949
0003c0 57 28 a4 3e dc 96 10 3e 36 8c e5 be 0f 3c 83 bd
       0.32062027 0.14120048 -0.44833535 -0.0640794
0003d0 ac 58 c8 3d 9a b6 24 3e 15 ee 4e be fb 23 cc be
       0.09782538 0.16085282 -0.20208009 -0.398712
0003e0 7a f2 de 3e 28 a1 87 be 2a 97 74 3d f6 e0 dc be
       0.4354437 -0.2649014 0.059714474 -0.43140382
0003f0 e4 08 ee 3d a6 f0 30 3f f4 f6 b3 be c2 06 94 be
       0.116227895 0.691172 -0.35149348 -0.28911406

decoder_net.3.bias f4 [256]
000000 40 5d e1 3e b8 9a c4 3e b2 87 c8 3e a6 f2 da 3e
       0.44016457 0.3839929 0.39166027 0.4276325
000010 06 c0 c3 3e 9a 7b d7 3e 6a 08 cf 3e 44 31 ce 3e
       0.3823244 0.42086488 0.40436107 0.40271962
000020 a6 b4 d6 3e f5 4b d1 3e e7 72 c1 3e 0e fd ce 3e
       0.419347 0.40878263 0.37782976 0.4042744
000030 3a 19 d9 3e e4 6e da 3e 7c da dd 3e 5d 26 c4 3e
       0.4240206 0.42662728 0.43330753 0.3831052
000040 03 f3 cf 3e e6 fa 8f be c7 c2 be 3e d4 9f c6 3e
       0.4061509 -0.28121108 0.37257978 0.38793814
000050 82 38 c4 3e 72 c4 d1 3e 9c 67 c2 3e 78 d2 d7 3e
       0.38324362 0.40970188 0.37969673 0.42152762
000060 12 11 cd 3e 54 0f cf 3e 30 99 cb 3e a1 4f c6 3e
       0.40052086 0.40441382 0.3976531 0.38732627
000070 3a fa ce 3e 92 d5 d1 3e dd 1a c9 3e 14 32 d6 3e
       0.40425283 0.40983254 0.39278308 0.41835082
000080 b2 97 c6 3e 90 22 cb 3e 86 49 d4 3e 98 54 d5 3e
       0.3878761 0.39674807 0.41462344 0.41666102
000090 fa 77 d5 3e 28 10 d1 3e c0 b1 d8 3e 44 d5 d1 3e
       0.41693097 0.4083264 0.42323112 0.4098302
0000a0 a5 8e c6 3e f6 ae ce 3e c0 66 d7 3e 37 a2 f0 3e
       0.38780704 0.4036786 0.4207058 0.4699876
0000b0 8e d5 c3 3e 0e 9d d3 3e 94 64 f7 3e e4 e9 d8 3e
       0.38248867 0.4133076 0.48318923 0.42365944
0000c0 9d bc 03 3f 22 9c d0 3e 9c 06 c7 3e f0 72 c9 3e
       0.51459676 0.4074412 0.3887223 0.39345503
0000d0 18 77 dc 3e fd 20 d4 3e 38 c6 ca 3e 32 a9 cb 3e
       0.4305961 0.41431418 0.39604354 0.39777523
0000e0 29 21 f7 3e ab fa cc 3e 4c 5c d7 3e 7a 8b d2 3e
       0.48267487 0.40034994 0.42062604 0.41122037
0000f0 28 06 cd 3e 74 8f d9 3e 4b 76 c5 3e 95 fa d3 3e
       0.4004376 0.4249226 0.38566813 0.41402116
000100 44 43 cd 3e be 52 d8 3e d4 41 c4 3e 9f a3 c8 3e
       0.40090382 0.42250627 0.38331473 0.39187333
000110 3c 0a 38 bf 88 30 ca 3e 8c 0d d6 3e 6e 04 cd 3e
       -0.71890616 0.3949015 0.4180721 0.40042442
000120 c1 3d c5 3e 71 31 d3 3e e2 63 ce 3e 02 02 c2 3e
       0.38523677 0.41248658 0.4031058 0.37892157
000130 66 0e d9 3e 08 38 86 3e a6 9d cf 3e 58 85 d6 3e
       0.42393798 0.26214623 0.40549964 0.41898608
000140 36 d2 b9 3e 9c 68 cd 3e 4c a9 ce be 84 df d6 3e
       0.3629319 0.40118873 -0.40363538 0.41967404
000150 23 4a c5 3e 3c ef d2 3e c6 c3 d8 3e 26 9a cf 3e
       0.38533124 0.41198146 0.42336863 0.40547293
000160 70 d8 d0 3e 74 62 c3 3e c8 e7 c4 3e ee 02 c6 3e
       0.4079013 0.3816105 0.38458085 0.3867411
000170 d7 4d cb 3e 5f 8b cb 3e 04 60 d3 3e e7 b5 cc 3e
       0.39707825 0.3975477 0.41284192 0.3998253
000180 ee 02 df 3e fe 0f d5 3e 90 82 b9 3e 9a 32 d5 3e
       0.43556923 0.41613764 0.36232424 0.41640168
000190 66 fd 90 bb 7a da ca 3e dc 47 c8 3e 23 f2 c4 3e
       -0.0044247387 0.3961981 0.39117324 0.38465986
0001a0 fc 66 c9 3e a3 ae d6 3e 70 43 d6 3e 8e 7f c6 3e
       0.39336383 0.41930112 0.41848326 0.38769192
0001b0 30 06 cd 3e 3b 27 da 3e f9 ae c1 3e 53 90 d4 3e
       0.40043783 0.42608055 0.37828806 0.4151636
0001c0 c8 97 d8 3e 63 82 d6 3e 94 cf e3 3e e6 5f ec bd
       0.423033 0.41896352 0.44494307 -0.11541729
0001d0 c7 a0 c9 3e 44 8f c5 3e 5a db d9 3e e8 2f cc 3e
       0.39380476 0.38585865 0.42550164 0.398803
0001e0 60 58 d2 3e 84 a7 d5 3e 82 37 ce 3e b4 f3 cb 3e
       0.4108305 0.41729367 0.40276724 0.39834368
0001f0 c1 fe e6 3e 57 72 dc 3e 3c 76 d2 3e 96 5d c0 3e
       0.45116237 0.43055984 0.4110583 0.375714
000200 20 ea c8 3e 52 e6 cc 3e b6 f0 c4 3e 90 92 e4 3e
       0.39241123 0.4001947 0.38464898 0.44643068
000210 0b 2f c4 3e 86 2f bf 3e 92 be cd 3e d2 79 ce 3e
       0.3831714 0.37340945 0.40184456 0.40327317
000220 40 9a cf 3e 28 76 65 3e 52 f6 c2 3e b6 b3 d8 3e
       0.4054737 0.22408354 0.38078552 0.4232461
000230 26 4f d5 3e 32 74 bc 3e 74 70 c2 3e 1b 70 c8 3e
       0.41661948 0.368074 0.3797642 0.3914803
000240 f4 3b d4 3e ea 92 d0 3e f7 cb cb 3e 56 88 d8 3e
       0.4145199 0.40737087 0.3980405 0.42291516
000250 06 f3 ce 3e c6 ed de 3e fb 71 be 3e 45 b4 bf 3e
       0.40419787 0.43540782 0.37196335 0.37442222
000260 30 26 d3 3e 4a 40 d5 3e 87 7e c5 3e 5c 8c cb 3e
       0.41240072 0.4165061 0.38573095 0.39755523
000270 92 ee b4 3d 29 50 d2 3e 08 6f e5 3e 1a 21 c2 3e
       0.08834566 0.41076782 0.44811273 0.3791588
000280 8c 29 c7 3e e7 d4 c1 3e e6 4a de 3e bb e1 cb 3e
       0.38898885 0.37857744 0.43416518 0.39820656
000290 68 2b d5 3e b6 1d cb 3e 0a 6d da 3e 2c 7a d3 3e
       0.4163468 0.39671105 0.42661315 0.41304147
0002a0 0c da da 3e a8 30 c6 3e be e7 c2 3e 66 8f d0 3e
       0.42744482 0.38708997 0.3806743 0.40734404
0002b0 c5 00 d2 3e 70 f6 c7 3e da a2 ce 3e 78 18 d6 3e
       0.41016212 0.39055204 0.4035862 0.41815543
0002c0 b5 35 d8 3e 57 91 d5 3e 1e 53 dc 3e 6a 9e d0 3e
       0.42228475 0.41712448 0.43032163 0.4074586
0002d0 68 6e c1 3e b0 d4 d9 3e 26 9a d5 3e 32 66 db 3e
       0.37779546 0.4254508 0.41719168 0.42851406
0002e0 82 d6 d7 3e 50 29 6b 3e 84 44 c1 3e e5 cc d7 3e
       0.42155844 0.22964978 0.37747586 0.4214851
0002f0 a4 59 d7 3e 88 dd d3 3e 07 85 d3 3e a6 b6 b7 3e
       0.42060578 0.41379952 0.4131243 0.35881537
000300 a4 07 c5 3e f6 12 d9 3e 14 42 d1 3e fc f3 d4 3e
       0.38482392 0.4239728 0.40870726 0.41592395
000310 c8 23 c1 3e 42 bf c1 3e 24 5a cc 3e 84 3e c7 3e
       0.3772261 0.3784123 0.39912522 0.38914883
000320 b8 3b ce 3e 64 38 cd 3e c6 2c ce 3e dc b9 bd 3e
       0.40279937 0.40082085 0.40268534 0.37055862
000330 48 10 d5 3e 2c a1 d6 3e e6 33 d8 3e 56 07 c6 3e
       0.41613984 0.4191984 0.42227095 0.38677472
000340 70 bf ca 3e 00 ae c7 3e 56 25 d0 3e 9c 94 ce 3e
       0.3959918 0.3899994 0.40653485 0.40347755
000350 36 7b dd 3e 8e 00 d9 3e 06 1d d0 3e 13 bd cf 3e
       0.43258065 0.42383236 0.40647143 0.4057394
000360 70 59 d5 3e 35 38 e3 3e 8a b7 cb 3e 16 d1 c5 3c
       0.41669798 0.4437882 0.39788467 0.024147552
000370 d4 16 d1 3e 5e dc dc 3e 0a 58 db 3e 47 38 c9 3e
       0.4083773 0.43136877 0.42840606 0.3930075
000380 a8 01 c1 3e 23 a9 2d bc 3c 32 ce 3e ec 80 cb 3e
       0.37696576 -0.010599407 0.402727 0.39746797
000390 6f 3f dc 3e 4e 86 c3 3e 54 88 ee 3e fc 1a d5 3e
       0.43017146 0.38188404 0.46588385 0.4162215
0003a0 62 3e c5 3e e6 f9 d4 3e ba ab d2 3e 48 3e d4 3e
       0.38524157 0.41596907 0.41146642 0.41453767
0003b0 5c d2 cb 3e f2 21 cc 3e 7c c6 bf 3e ba 3a ce 3e
       0.3980893 0.39869648 0.3745612 0.4027918
0003c0 0c 7b d1 3e 7a 54 c1 3e 03 0b d0 3e 9d 7a c9 3e
       0.4091419 0.37759763 0.406334 0.3935136
0003d0 33 af d8 3e c8 b5 d8 3e 37 57 c0 3e 36 c5 d0 3e
       0.42321166 0.42326188 0.3756654 0.4077546
0003e0 30 12 d9 3e 0c 7c c7 3e 30 29 d6 3e d6 10 ca 3e
       0.42396688 0.38961828 0.418283 0.3946597
0003f0 b4 db c9 3e 01 bf c8 3e 80 19 ce 3e 2e 23 c6 3e
       0.39425433 0.39208224 0.4025383 0.38698715

decoder_net.4.weight f4 [256]
000000 82 26 84 3f 3b 9a 37 3f 6a 7c 40 3f b6 ed b3 3f
       1.0324252 0.7171971 0.7518984 1.4056919
000010 da d9 4f 3f 8e 92 38 3f d2 ba 37 3f 58 5d 77 3f
       0.8119179 0.72098625 0.7176944 0.96626806
000020 3e 80 34 3f 02 19 3f 3f c7 53 7e 3f 02 41 31 3f
       0.7050818 0.74647534 0.99346584 0.6923982
000030 97 28 3e 3f 48 05 4a 3f e2 ab bc 3f e2 ff 4d 3f
       0.74280685 0.7891431 1.4739954 0.8046857
000040 46 f3 44 3f 1a d8 4c 3f 68 c5 47 3f e0 eb 3f 3f
       0.76933706 0.80017245 0.78035593 0.7496929
000050 15 40 53 3f 1e 86 41 3f db 6a 3e 3f 32 e5 47 3f
       0.82519656 0.7559527 0.743818 0.780841
000060 0e 6e 3b 3f 70 3e 3f 3f b0 95 50 3f 8e 99 37 3f
       0.73214805 0.7470465 0.81478405 0.7171868
000070 43 b6 4f 3f 7a 2d 45 3f c2 50 43 3f de 72 43 3f
       0.81137484 0.77022517 0.762951 0.7634715
000080 57 a5 35 3f b4 bf 54 3f 34 4c 7f 3f 57 b5 45 3f
       0.70955414 0.83105016 0.9972565 0.7722983
000090 98 b0 46 3f c4 57 44 3f 9e 3d 45 3f b4 00 4b 3f
       0.7761321 0.7669642 0.77047145 0.7929795
0000a0 7e 03 37 3f fb 5e 56 3f 12 71 3b 3f 0a e4 0b 3f
       0.71489704 0.8373868 0.73219407 0.54644835
0000b0 68 a1 30 3f 3a 8c 4c 3f 83 20 14 3f 2c a3 43 3f
       0.68996286 0.7990147 0.5786211 0.76420856
0000c0 e2 de 05 3f 1c 11 45 3f 78 c7 2d 3f 76 61 4e 3f
       0.5229322 0.7697923 0.6788249 0.80617464
0000d0 ad b0 39 3f b1 18 41 3f 1b d8 3e 3f aa a4 4f 3f
       0.7253521 0.754283 0.745485 0.8111063
0000e0 90 94 23 3f a6 d4 2e 3f 3e 30 3c 3f af c3 40 3f
       0.63898563 0.68293226 0.7351111 0.7529859
0000f0 c0 5b 38 3f b2 c9 3c 3f 34 00 3c 3f 8e 3c 47 3f
       0.72015 0.7374526 0.7343781 0.77826774
000100 3e 9c 39 3f dd 95 6e 3f 28 40 3a 3f 22 2f 3e 3f
       0.7250403 0.93197423 0.72754145 0.7429067
000110 02 ec 4b 3f e2 89 23 3f 5a 23 79 3f 68 ad 62 3f
       0.79656994 0.6388227 0.9731957 0.88545847
000120 2c d6 49 3f 7c 00 30 3f 2a 8f 21 3f a8 86 8f 3f
       0.78842425 0.6875074 0.63109076 1.1212969
000130 57 4c 49 3f b5 5f 4b 3f 78 33 47 3f d4 d3 45 3f
       0.7863211 0.7944291 0.7781291 0.7727635
000140 d5 62 5f 3f fc cc a1 3f e1 d1 4a 3f fd 34 41 3f
       0.8726018 1.2640681 0.792265 0.7547148
000150 a6 81 46 3f 48 73 83 3f 21 2a 4f 3f ca c0 3d 3f
       0.7754158 1.0269556 0.8092366 0.741223
000160 f2 18 3f 3f 2c 90 43 3f 44 06 40 3f 32 94 48 3f
       0.7464744 0.76391864 0.7500956 0.7835113
000170 b0 1b 42 3f ca d1 6b 3f f0 d5 3a 3f 98 69 73 3f
       0.758235 0.9211699 0.7298269 0.95083
000180 98 18 41 3f cc a6 42 3f 63 64 62 3f 41 d4 41 3f
       0.7542815 0.7603576 0.8843443 0.757145
000190 1e 8c 4b 3f b9 22 4f 3f 4b 2c 3e 3f b0 bd 5f 3f
       0.79510677 0.8091236 0.74286336 0.87398815
0001a0 04 52 2e 3f b1 d0 35 3f cc fe 3f 3f 80 00 46 3f
       0.68093896 0.7102156 0.74998164 0.7734451
0001b0 4a da 40 3f ec 55 68 3f 73 ee 4c 3f c4 45 41 3f
       0.7533308 0.90756106 0.80051345 0.7549708
0001c0 b6 d3 3f 3f 70 2d 43 3f 8c 02 47 3f 8d 02 4c 3f
       0.7493242 0.7624121 0.7773826 0.7969139
0001d0 12 ab 3f 3f 12 07 80 3f 15 c5 43 3f 75 3f 86 3f
       0.7487041 1.0002158 0.764726 1.0488116
0001e0 d5 fa 46 3f a6 3f 88 3f b8 e3 42 3f e8 fc 43 3f
       0.7772649 1.0644424 0.7612872 0.7655778
0001f0 8a b1 39 3f 8f 06 43 3f 34 22 44 3f 70 8f 5f 3f
       0.7253653 0.7618188 0.7661469 0.87328243
000200 4a e8 7f 3f 6a f7 a7 3f 71 d9 65 3f 72 30 34 3f
       0.9996382 1.312238 0.89784914 0.7038642
000210 78 e3 83 3f 00 60 4d 3f 5f d3 3e 3f 92 65 42 3f
       1.0303793 0.8022461 0.74541277 0.75936234
000220 19 aa 44 3f f8 57 4c 3f 2d 1e 43 3f da 70 49 3f
       0.7682205 0.7982173 0.7621792 0.7868782
000230 a2 c7 40 3f 92 30 40 3f 30 37 6b 3f 53 df 2c 3f
       0.75304615 0.7507411 0.91881084 0.67528266
000240 93 80 45 3f c5 66 45 3f ee f2 3b 3f c4 e4 4a 3f
       0.77149314 0.7710994 0.73417556 0.7925532
000250 ed 1f 9b 3f 10 7e 3d 3f 45 40 3b 3f 52 f7 3e 3f
       1.2119118 0.7402048 0.7314494 0.7459613
000260 de c6 65 3f 1a 22 48 3f fb d7 5f 3f fe ed 3d 3f
       0.8975657 0.78177035 0.87438935 0.7419127
000270 de ba 4c 3f 86 83 49 3f c4 63 9e 3f 5a 77 29 3f
       0.79972637 0.78716314 1.2374196 0.6619774
000280 5e ae 43 3f aa 5d 38 3f 18 d3 69 3f 46 1d 40 3f
       0.7643794 0.7201792 0.9133773 0.7504467
000290 92 a8 76 3f 6c 39 48 3f 2c 3e 45 3f 3a 2f 47 3f
       0.9635097 0.7821262 0.7704799 0.77806437
0002a0 8e 0b 44 3f 82 a5 33 3f 84 30 37 3f eb 73 48 3f
       0.7658013 0.7017442 0.71558404 0.78301877
0002b0 38 e3 39 3f 96 09 3e 3f 65 04 3f 3f 4a cb 34 3f
       0.72612333 0.74233377 0.7461608 0.70622694
0002c0 1e 63 41 3f 34 fc 39 3f c0 ae 53 3f f0 b4 5b 3f
       0.75541866 0.72650456 0.8268852 0.85822964
0002d0 48 3f 35 3f bc d6 44 3f 1e 0a 40 3f 4e dc 4a 3f
       0.70799685 0.7689016 0.7501544 0.7924241
0002e0 74 ce 47 3f 92 a3 4e 3f 47 4d 40 3f 6c d3 2f 3f
       0.780494 0.8071834 0.75117916 0.6868198
0002f0 0c a7 36 3f 43 2a 43 3f be 4c 3d 3f fe 2f 50 3f
       0.71348643 0.7623636 0.73945224 0.8132323
000300 b4 15 53 3f 88 41 44 3f 8c c1 46 3f 07 5b 45 3f
       0.8245499 0.7666249 0.7763908 0.7709202
000310 ae 95 4d 3f 4a dc 97 3f da c8 37 3f a8 7c 59 3f
       0.8030652 1.1864102 0.7179085 0.84955835
000320 e5 f9 41 3f b7 72 35 3f 30 d6 4f 3f eb 1e 53 3f
       0.75771934 0.70878166 0.811862 0.8246905
000330 cb 11 40 3f f6 c5 47 3f d2 b5 5b 3f aa ba 3b 3f
       0.7502715 0.7803644 0.8582431 0.733317
000340 45 49 37 3f f2 0f 42 3f 18 4a 41 3f 1a f4 8d 3f
       0.71596175 0.7580558 0.75503683 1.1090119
000350 6c ae 40 3f 17 bc 3d 3f 71 a3 30 3f 85 86 40 3f
       0.75266147 0.7411513 0.6899939 0.7520526
000360 0a 4d 8e 3f d0 ff 55 3f 3a e2 22 3f f8 57 4c 3f
       1.111726 0.83593464 0.63626444 0.7982173
000370 a2 66 47 3f 3b 4b 90 3f 26 57 44 3f 0a 59 35 3f
       0.7789098 1.1272959 0.7669548 0.7083899
000380 80 44 48 3f ad a1 4a 3f 3e 9e 6d 3f 44 70 4b 3f
       0.7822952 0.7915295 0.92819583 0.7946818
000390 a8 35 38 3f f1 fd 49 3f 00 99 36 3f 44 8c b0 3f
       0.7195687 0.7890311 0.7132721 1.3792806
0003a0 0e a4 48 3f be 22 49 3f 72 34 3b 3f 7c 2a 50 3f
       0.7837533 0.7856864 0.731269 0.81314826
0003b0 7b 90 39 3f d4 68 2f 3f 0b f7 90 3f d0 89 40 3f
       0.72486085 0.6851933 1.1325392 0.75210285
0003c0 f6 49 6b 3f 4d f7 46 3f 2e a2 60 3f 6a fd 3f 3f
       0.9190973 0.777211 0.87747467 0.74996054
0003d0 5f ed 48 3f 3f 42 48 3f 34 fb cd 3f 60 92 52 3f
       0.784872 0.78226084 1.6092286 0.822546
0003e0 ca ee 43 3f 2e 5d 39 3f 64 18 3b 3f e2 2e 58 3f
       0.7653624 0.72407806 0.7308409 0.8444654
0003f0 9e 4e 61 3f 31 0e 52 3f b0 ba 48 3f ff e9 42 3f
       0.88010585 0.82052904 0.7840986 0.761383
