Value_Net.pt (torch, 577364 bytes, 10 tensors)

decoder_net.0.weight f4 [512, 13]
000000 28 5d f4 3e c4 38 12 bf 70 92 00 be 7c df cd 3e
       0.47727323 -0.5711787 -0.12555861 0.40209568
000010 36 a4 a3 bd 4e 54 cc 3d 3c 25 b0 3b 1c c5 dd 3e
       -0.07990305 0.09977017 0.0053755324 0.43314445
000020 dc 64 79 3e 86 b2 c2 3c 16 8b e4 3e 6a 98 7d be
       0.24354881 0.023766767 0.44637364 -0.24765173
000030 02 d1 cb bf 4c 05 aa be 32 6d 45 3e 03 d9 17 be
       -1.5923159 -0.33207166 0.19279936 -0.14828877
000040 f4 33 32 3f a0 c9 d5 be e0 59 5b 3e 62 c4 e1 3e
       0.69610524 -0.4175539 0.21421003 0.4409514
000050 4d ef 2b 3f 53 02 5a bf e8 79 c1 bf 70 45 3f bf
       0.6716202 -0.85159796 -1.5115328 -0.7471533
000060 7e 56 dd be ee 83 a0 be 2c d2 02 3e 57 6f 8a 3e
       -0.4323005 -0.31350654 0.12775487 0.2703807
000070 20 36 e2 3e b0 a1 11 bf 08 6c 2c 3e ba dc 52 bf
       0.4418192 -0.5688734 0.16838086 -0.8236805
000080 1a 5f 3b be 0d 3d 68 be ec a3 ad 3c be de 12 bd
       -0.18297997 -0.22679539 0.021196328 -0.035856955
000090 0a 3d 2f 3e 10 07 0d bf 1c c0 3c 3e ee 6c 8e be
       0.17113128 -0.550889 0.18432659 -0.27817482
0000a0 90 49 8d 3e 84 73 19 bf f6 65 06 3d 5f 1d 10 bf
       0.27595186 -0.5994189 0.03281208 -0.56294817
0000b0 2e 59 88 3f 78 56 3f be b6 26 a5 3f 42 4d 4f 3e
       1.0652215 -0.18685329 1.2902439 0.20244315
0000c0 08 84 2e 3e f0 0b a1 be 38 1d b6 bf 7a c9 46 bf
       0.17042553 -0.3145442 -1.4227667 -0.7765118
0000d0 7a a6 c1 3e e0 c3 8d 3f d8 7c 45 bf 84 0f 89 be
       0.37822324 1.1075401 -0.7714362 -0.2676965
0000e0 48 68 52 3f 5e 6f 10 bd 10 c6 ce be 52 3d 9c be
       0.8219037 -0.035262458 -0.40385485 -0.30515534
0000f0 0c 41 9b bc 56 68 9d 3d 2a 5c 83 be 36 d6 4a bf
       -0.018951915 0.07685916 -0.25656253 -0.7923311
000100 b6 3e 3d bf e8 8e 8d bf 60 0a f6 3e f4 01 36 3e
       -0.73923814 -1.1059237 0.4805479 0.17774183
000110 1f 2d 05 bf f6 4a 98 be c4 9d 6b 3f f4 2f 53 3f
       -0.52021974 -0.2974469 0.92037606 0.82495046
000120 60 a0 8f 3e f0 f8 af 3e 3a 86 f7 3d 56 4e 4e bf
       0.28052044 0.34369612 0.120861486 -0.8058828
000130 be eb 64 bf cc 37 dc be 1a 41 53 be 8e c9 15 3f
       -0.89422214 -0.4301132 -0.20630303 0.58510673
000140 16 40 38 3f b8 9e fe be aa 52 6b 3e 68 2d 78 3f
       0.7197279 -0.49730468 0.22980753 0.96944284
000150 5f 5f 6c 3e 82 b7 da 3e 96 ee 21 3f de 5f 62 3e
       0.23083256 0.4271813 0.6325468 0.22106883
000160 50 e5 07 3d d2 3a df 3e b2 09 9c 3e 43 3f 2c bf
       0.033177674 0.43599564 0.30476147 -0.6728403
000170 ce 7b c8 be 44 cc 8c 3c 11 8e 83 3e 30 82 d6 3f
       -0.39156955 0.017187245 0.25694326 1.675848
000180 c2 0d 02 3c 2e 40 35 3e 1e 84 d6 be 66 f6 b5 be
       0.00793785 0.17700264 -0.41897672 -0.3553955
000190 fe e8 5c bf c0 e4 1e 3e 5e 28 55 bf 74 13 b9 ba
       -0.8629302 0.15516949 -0.8326472 -0.0014120177
0001a0 3b ad 8f be 16 c1 a8 bf 7e 5e 14 3f c0 d2 55 bf
       -0.28061852 -1.3183925 0.57956684 -0.83524704
0001b0 08 ae a2 bd 28 5a f9 3c de 48 75 3e c1 02 c0 3e
       -0.0794335 0.030438498 0.23953578 0.375021
0001c0 dd 4e f2 3e 72 51 92 3e 22 9d 95 3e 80 4b 19 3f
       0.47325793 0.28577763 0.29221445 0.5988083
0001d0 c0 9b d7 3e 2e 33 0c 3f dc c5 e7 3e d8 26 88 3f
       0.42111015 0.54765594 0.45268142 1.0636854
0001e0 c3 01 c2 3e 2b 6e 4f 3f 0b 3d 2e be a6 44 62 3e
       0.3789197 0.8102748 -0.17015474 0.220965
0001f0 b6 44 83 be 98 be 90 be 44 83 d5 be 11 47 d1 3f
       -0.2563836 -0.28270411 -0.4170171 1.6349813
000200 6c 43 c0 be 40 51 78 3d 04 7c 56 3f de 1c bc bd
       -0.3755144 0.06062436 0.8378298 -0.091851935
000210 8c f8 87 3f 48 33 87 bf 06 dd 17 3f ef 5a 78 bc
       1.0622725 -1.0562525 0.5932163 -0.015158399
000220 24 7c b2 be d6 04 6d 3e c8 9c 46 bf 8d 21 2f be
       -0.34860337 0.23146376 -0.7758298 -0.17102642
000230 74 d0 af bd ba 2f 20 3d 5e a6 36 be da 9b 07 3f
       -0.08584681 0.039108016 -0.17836902 0.52972186
000240 a0 db 9b 3e fc cb 34 3e c0 21 10 bf ea 6f 02 3c
       0.30440998 0.17655939 -0.563015 0.007961253
000250 d7 b5 cb be 71 dc de 3e 4a 3c 24 bf 4e b5 00 be
       -0.3978717 0.43527558 -0.64154494 -0.12569162
000260 02 f2 19 bd 90 3c 8b 3f be 07 2a 3e f4 62 bb 3e
       -0.037584312 1.0877857 0.16604516 0.36598933
000270 74 74 07 bf 59 57 4a bf 6a 95 74 bf c8 26 84 3e
       -0.5291207 -0.7903953 -0.9554049 0.25810838
000280 8b a0 3b 3f 6e 0e 95 3e 53 8c bd bd d0 6f 3e 3f
       0.73291844 0.2911257 -0.0925528 0.7438936
000290 06 63 34 3d ea 4e aa 3e 62 53 6c 3b b0 21 9f be
       0.04403975 0.33263332 0.0036060442 -0.3108039
0002a0 fe 38 15 bf 7e 46 c6 bd c6 62 00 3f 5d 7f ef 3e
       -0.5829009 -0.09681414 0.50150716 0.46776858
0002b0 04 b1 51 bf e6 1d 03 bf 0e d5 80 be 24 aa 9c 3e
       -0.8191073 -0.51217496 -0.25162548 0.30598557
0002c0 76 cf e9 be de dd 04 bf e4 88 9b 3f 26 af 4a 3e
       -0.45666093 -0.5190104 1.2151151 0.19793376
0002d0 a0 54 ac be e9 92 d0 3e a2 fb 15 bf 98 c2 99 3e
       -0.33658314 0.40737084 -0.58587086 0.30031276
0002e0 00 de 87 be ee f6 47 bf b4 aa e8 3d 7c 22 0c 3f
       -0.2653656 -0.7811116 0.11360684 0.5474012
0002f0 a4 4d cb be 16 8a 9c 3e 8a 3f 16 3f c8 cd db bd
       -0.39707673 0.305741 0.586907 -0.10732609
000300 98 a5 00 3f 8c 7d 26 bf 9a 9c 7c be 02 03 9b be
       0.50252676 -0.6503532 -0.24669114 -0.30275732
000310 75 d7 b9 be 58 5f bc 3e b8 40 15 3f c0 10 7f 3f
       -0.36297193 0.36791492 0.5830188 0.99634933
000320 ed 2d ed bd f2 96 4c bc 1c 5b 04 bf f9 e8 33 be
       -0.11581025 -0.01248716 -0.5170152 -0.17569341
000330 c0 52 aa 3d f6 ba e3 be 30 e9 2a 3f 5a 36 ea 3e
       0.083165646 -0.44478577 0.66762066 0.45744592
000340 d4 ef 99 bf 32 34 90 3d 72 d9 fb bd 8e 0a d7 bd
       -1.2026315 0.070412055 -0.12297334 -0.1050006
000350 cc e7 08 be 5c a6 1d 3f 32 ac 08 bf b0 86 4b 3d
       -0.13369673 0.6158197 -0.5338775 0.049688995
000360 20 7c 5b bf ac ce 4f 3f c0 f7 0a be a6 c0 a7 be
       -0.85736275 0.8117473 -0.13571072 -0.32764167
000370 8a 98 1a be fe 42 92 bd a8 59 24 3f ac 7a ec 3e
       -0.15097252 -0.07141684 0.64199305 0.4618734
000380 9d fd 97 be 0a a9 2c 3e 84 00 6b 3e 18 6c da bc
       -0.2968568 0.16861358 0.22949415 -0.026662871
000390 24 48 b0 be 15 4f 81 bd 3e f2 30 be 2c 4d 32 3e
       -0.3443004 -0.06313912 -0.17279908 0.17412251
0003a0 fd 32 ad 3d d3 f5 06 bc ec e8 3a 3e ee f7 5a 3d
       0.08456991 -0.00823732 0.18252915 0.0534591
0003b0 78 e4 5d bd fc 42 7d 3f ab f0 50 bf d6 b7 76 be
       -0.054172963 0.98930335 -0.8161723 -0.24093565
0003c0 98 43 69 3e 1c 76 89 be 38 8e 18 3e dc 22 27 3f
       0.22779691 -0.26847923 0.14898002 0.65287566
0003d0 da 54 65 3e 49 1e 03 bf 49 90 19 3e 8d a4 15 bf
       0.2239565 -0.51218086 0.14996447 -0.5845421
0003e0 b5 55 a6 bd b2 74 3a bf 50 fa 5b 3f 8a ca 2f bf
       -0.08121816 -0.7283431 0.8592882 -0.68668425
0003f0 66 4a b3 3d 74 8e 3a 3f b2 05 b9 3d c8 64 23 bf
       0.08754425 0.72873616 0.090342894 -0.63825655

decoder_net.0.bias f4 [512]
000000 5a f4 f8 3e c4 f3 ee 3e 76 37 f1 3e ba fd f4 3e
       0.48623925 0.46670353 0.47112626 0.47849828
000010 1a c9 ff 3e 47 65 ff 3e f6 18 ea 3e 80 cf 00 3f
       0.49958116 0.49881956 0.4572217 0.5031662
000020 d0 e6 ee 3e c8 bc fd 3e 00 e1 ef 3e 71 1f f3 3e
       0.4666047 0.4955809 0.4685135 0.47484925
000030 d0 c0 e8 3e 9e c0 08 3f ea 1c fa 3e 78 c0 ec 3e
       0.45459604 0.5341891 0.48850185 0.46240592
000040 ca 51 f3 3e 10 e3 f0 3e 3a 8f ef 3e c0 fc f7 3e
       0.47523338 0.47048235 0.4678896 0.4843502
000050 b4 42 00 3f 74 d7 01 3f 32 cb f1 3e a4 9f f1 3e
       0.5010178 0.5071938 0.47225338 0.4719211
000060 b4 83 00 3f 90 31 fe 3e 58 3e 02 3f 40 6f be 3e
       0.50200963 0.49647188 0.5087638 0.37194252
000070 36 69 f8 3e 0e a2 fc 3e ee 98 08 3f 26 02 01 3f
       0.4851777 0.49342388 0.5335835 0.50393903
000080 30 cc 00 3f 59 b4 03 3f 30 df 00 3f 20 c2 00 3f
       0.50311565 0.51447064 0.5034056 0.5029621
000090 3e 53 f6 3e 1a 44 f9 3e 82 26 f3 3e b2 95 ff 3e
       0.48110384 0.4868477 0.47490317 0.49918896
0000a0 9e 81 dd 3e ec 56 ee 3e 34 4f f7 3e f8 bf f3 3e
       0.43262953 0.4655069 0.48302615 0.47607398
0000b0 7c 7d f6 3e d4 67 02 3f 87 f1 f8 3e e8 90 0f 3f
       0.48142612 0.5093968 0.4862177 0.56080484
0000c0 31 7f 09 3f 34 04 01 3f 2c cd ff 3e 30 6a fc 3e
       0.53709704 0.5039704 0.4996122 0.49299765
0000d0 e9 4e f8 3e fc fd f5 3e 67 89 02 3f 84 f2 04 3f
       0.48497704 0.48045337 0.5099091 0.5193255
0000e0 88 e4 fa 3e 20 3a 03 3f 60 ad 02 3f a0 22 07 3f
       0.4900248 0.51260567 0.510458 0.5278721
0000f0 6c d7 df 3e 78 0c e8 3e f4 8b f2 3e 19 6d 0b 3f
       0.4371904 0.45322013 0.473724 0.54463345
000100 be 29 f8 3e 9b 36 fd 3e 68 81 00 3f bd aa fb 3e
       0.48469347 0.49455723 0.5019746 0.491537
000110 d0 06 fd 3e 56 01 fb 3e 9c b6 01 3f 62 07 ef 3e
       0.4941926 0.49024457 0.50669265 0.4668532
000120 c4 90 f6 3e d4 32 f7 3e ae f8 fd 3e 5d 09 01 3f
       0.48157322 0.48280966 0.4960379 0.5040491
000130 5a 0e f1 3e a4 ff f3 3e 34 56 df 3e aa 28 f7 3e
       0.47081262 0.47655976 0.43620455 0.48273212
000140 4b 78 00 3f ae 0d f1 3e 62 2a f9 3e 6c ac 02 3f
       0.5018355 0.4708075 0.48665148 0.51044345
000150 66 26 03 3f a4 23 01 3f 54 94 0a 3f 82 c8 eb 3e
       0.51230466 0.5044501 0.5413258 0.46051413
000160 02 e5 f8 3e 9f ba f3 3e 25 6b 05 3f 5a 31 03 3f
       0.4861222 0.47603318 0.52116615 0.5124718
000170 07 fd c7 3e 03 f2 00 3f 25 ec ea 3e 68 19 f3 3e
       0.39060232 0.5036928 0.4588329 0.4748032
000180 8c 52 fe 3e 18 54 f6 3e e8 c7 03 3f cd 2b f5 3e
       0.49672353 0.48111033 0.5147691 0.4788498
000190 f8 ec f2 3e ee fe f2 3e f2 14 fe 3e 40 f2 03 3f
       0.47446418 0.4746012 0.49625355 0.5154152
0001a0 cc c1 f4 3e 38 7b f9 3e 13 f0 01 3f bf 09 18 3f
       0.47804105 0.4872682 0.5075695 0.5938987
0001b0 84 9a f2 3e 2c ca fa 3e c6 79 f1 3e 4a 1c f9 3e
       0.4738351 0.4898237 0.47163218 0.48654395
0001c0 e0 19 dc 3e d4 20 ff 3e 6e f4 ff 3e bb da f3 3e
       0.4298849 0.49829733 0.49991173 0.47627816
0001d0 b2 64 f5 3e d7 df 06 3f 1a dd 00 3f d8 a1 ef 3e
       0.47928387 0.526853 0.50337374 0.46803164
0001e0 b2 9b fd 3e a6 1f 06 3f ac 56 f0 3e 82 a6 f8 3e
       0.4953285 0.5239204 0.46941125 0.48564535
0001f0 5e dc db 3e 50 d6 01 3f 3a 3a f0 3e 10 78 03 3f
       0.42941564 0.5071764 0.46919423 0.51355076
000200 64 9d 00 3f 4c 28 fc 3e 92 8b f7 3e da e6 01 3f
       0.5024016 0.49249494 0.4834867 0.50742877
000210 e1 5b e9 3e 95 69 ed 3e 30 2d f4 3e 30 46 f3 3e
       0.4557791 0.46369615 0.47690725 0.47514486
000220 7a 34 06 3f b6 99 f9 3e f7 93 f8 3e ba a0 fb 3e
       0.5242382 0.48750085 0.48550388 0.49146062
000230 8e 81 f3 3e 34 12 ed 3e a9 7e 01 3f 9c 74 d0 3e
       0.4755978 0.4630295 0.50583893 0.40713966
000240 3e 56 f3 3e d1 5d 01 3f 2c d0 e8 3e 9b 38 04 3f
       0.47526735 0.5053378 0.45471323 0.51648873
000250 8e 37 f3 3e 8c 86 fe 3e 66 cd e2 3e 5f 1e 03 3f
       0.47503322 0.49712026 0.44297332 0.5121822
000260 db cf 03 3f 94 da 00 3f ee f4 e5 3e 78 7b f5 3e
       0.5148904 0.50333524 0.4491343 0.47945762
000270 9c df 00 3f b3 5f ea 3e 9e 79 fb 3e 1c 5d 08 3f
       0.503412 0.45776138 0.49116224 0.53267074
000280 24 f5 01 3f a5 9b fc 3e d4 a7 f3 3e 74 6b fb 3e
       0.5076468 0.49337497 0.4758898 0.49105418
000290 9f 57 03 3f 14 e1 f6 3e 1b a9 00 3f fd a3 ff 3e
       0.51305574 0.48218596 0.50258034 0.499298
0002a0 04 2b fe 3e d6 c7 f1 3e 3f ba dd 3e 76 8b f3 3e
       0.49642193 0.47222775 0.43306157 0.47567338
0002b0 dc ba fb 3e 9c 3a 01 3f 46 55 12 3f 4e 9c f2 3e
       0.49166 0.50480056 0.57161367 0.47384876
0002c0 d6 7b e1 3e 7a 3c e4 3e fa e2 ff 3e d6 d7 dc 3e
       0.44039792 0.4457739 0.49977857 0.4313342
0002d0 08 c8 00 3f 18 fd ff 3e 28 a7 f4 3e fc 8e fe 3e
       0.50305223 0.49997783 0.4778378 0.49718463
0002e0 3f b4 f7 3e 08 f1 00 3f d6 a6 e0 3e 9f 03 fa 3e
       0.48379704 0.50367785 0.43877286 0.48830888
0002f0 d5 a3 ff 3e 14 1f ef 3e 5a 94 eb 3e fa 06 ff 3e
       0.4992968 0.46703398 0.4601162 0.4981001
000300 55 82 f4 3e 10 87 ea 3e e4 28 ff 3e 48 42 02 3f
       0.47755685 0.4580617 0.49835885 0.5088239
000310 96 92 f4 3e ba 08 f9 3e 88 46 f7 3e b2 5c db 3e
       0.47768086 0.4863947 0.48296 0.42844158
000320 84 5d f0 3e be c8 fd 3e 44 f0 f7 3e 76 17 05 3f
       0.46946347 0.49567217 0.48425496 0.51988924
000330 a4 d8 fb 3e d9 b3 fc 3e 0c f7 fc 3e bc 9e ec 3e
       0.4918872 0.49355963 0.49407232 0.46214855
000340 80 5f 02 3f 00 5e 0a 3f b4 88 f4 3e 12 8d f2 3e
       0.5092697 0.5404968 0.47760546 0.47373253
000350 50 7a 07 3f 71 d4 f3 3e 18 0d 17 3f fe fb fa 3e
       0.5292101 0.47623017 0.59004354 0.4902038
000360 a6 b1 00 3f 08 9e ff 3e 82 0e ec 3e 4e 59 f5 3e
       0.5027107 0.49925256 0.4610482 0.47919697
000370 ec 56 ff 3e ab b7 f5 3e fc cb f6 3e 0f 9d 05 3f
       0.49871004 0.4799169 0.48202503 0.5219278
000380 dd f6 01 3f e2 4d fa 3e 93 2c 01 3f da 93 f0 3e
       0.5076731 0.48887545 0.5045864 0.46987802
000390 f6 4a ed 3e b6 4a 00 3f 92 16 ef 3e 18 14 f4 3e
       0.46346253 0.50114 0.46696907 0.4767158
0003a0 24 66 ec 3e d8 90 fe 3e c2 b0 f1 3e 9a 95 e3 3e
       0.46171677 0.49719882 0.47205168 0.44450074
0003b0 05 2b fc 3e a5 20 ed 3e e6 37 01 3f 20 7b f9 3e
       0.4925157 0.46313968 0.5047592 0.4872675
0003c0 17 87 00 3f 92 db f4 3e 6b cd ed 3e 57 62 fe 3e
       0.5020613 0.4782377 0.46445784 0.49684402
0003d0 da 45 f8 3e 67 88 03 3f 10 f7 e8 3e d7 9b 00 3f
       0.48490793 0.5138001 0.45500994 0.5023779
0003e0 0a f9 f4 3e fa b2 e8 3e 3c bb fd 3e 14 cd f9 3e
       0.47846252 0.45449048 0.4955691 0.48789275
0003f0 0b 47 fa 3e ca 98 ed 3e 0e 46 03 3f f0 ff fe 3e
       0.48882326 0.4640563 0.5127877 0.4980464

decoder_net.2.weight f4 [512]
000000 34 39 71 3f dc 84 75 3f 6c b2 74 3f 54 02 78 3f
       0.9422791 0.9590585 0.9558475 0.9687855
000010 14 31 7d 3f d0 86 80 3f 60 c2 81 3f 82 c5 80 3f
       0.9890301 1.0041142 1.0137444 1.0060275
000020 f6 7e 7b 3f 74 63 6e 3f ea 0e 77 3f 64 bb 75 3f
       0.982406 0.93120503 0.9650713 0.9598906
000030 5e 7e 74 3f 6c 29 79 3f 1b 9e 6f 3f 9a 74 72 3f
       0.9550532 0.9732883 0.93600625 0.9470917
000040 b0 25 83 3f 7e ee 78 3f 56 d5 73 3f 22 82 83 3f
       1.0245876 0.9723891 0.952474 1.0274088
000050 06 34 63 3f 0c 0a 7b 3f 4b 5b 75 3f b3 6a 7b 3f
       0.88751256 0.98062205 0.95842427 0.98209685
000060 37 80 7d 3f 70 d0 82 3f 08 43 7b 3f 02 e9 79 3f
       0.99023765 1.021986 0.98149157 0.97621167
000070 ec 78 75 3f 5d 82 7d 3f 96 d0 83 3f 12 4a 7d 3f
       0.9588764 0.99027044 1.029803 0.9894115
000080 41 bb 7e 3f d6 33 80 3f ee 29 6d 3f 5c 48 76 3f
       0.99504477 1.0015819 0.92642105 0.9620416
000090 30 27 76 3f 04 26 77 3f ee 1a 79 3f f6 de 7d 3f
       0.96153545 0.9654238 0.97306716 0.99168336
0000a0 b0 03 79 3f 6c 36 79 3f 54 cb 76 3f 12 a4 71 3f
       0.9727125 0.97348666 0.96404004 0.94390976
0000b0 8b d0 78 3f 14 e1 77 3f b2 03 80 3f 84 88 7c 3f
       0.9719321 0.96827817 1.0001128 0.98645806
0000c0 dc b3 7a 3f 38 e8 6d 3f ec 29 6e 3f 68 09 77 3f
       0.97930694 0.9293246 0.9303272 0.9649873
0000d0 c8 f6 7d 3f 2e 48 7a 3f dc 31 7e 3f f9 9f 7a 3f
       0.99204683 0.9776639 0.9929483 0.9790035
0000e0 ac 76 72 3f 8c c5 6d 3f 3e 5d 7c 3f fc ba 82 3f
       0.9471233 0.9287956 0.98579776 1.0213313
0000f0 e2 21 72 3f 34 4e 7a 3f 00 a2 7b 3f ee e6 73 3f
       0.9458295 0.9777558 0.9829407 0.95274246
000100 8e 9b 77 3f d0 5b 7a 3f b4 9b 77 3f 7c 4c 73 3f
       0.9672173 0.97796345 0.9672196 0.9503858
000110 9a 7f 83 3f e4 a2 78 3f 38 c8 80 3f 7c bf 77 3f
       1.0273316 0.9712355 1.0061102 0.96776557
000120 94 2b 7b 3f ef 2e 7c 3f ea 6f 74 3f d2 88 80 3f
       0.9811337 0.98509115 0.9548327 1.0041754
000130 60 a9 7a 3f c4 47 72 3f 62 08 7c 3f 76 a7 6e 3f
       0.97914696 0.94640756 0.9845029 0.93224275
000140 18 6a 7b 3f 5e 8e 7c 3f ba ce 76 3f a8 65 79 3f
       0.9820876 0.98654735 0.9640919 0.9742074
000150 dc da 7f 3f 69 fb 80 3f a8 30 76 3f 93 90 7b 3f
       0.9994333 1.0076724 0.96167994 0.9826748
000160 32 0c 7e 3f 0e fa 72 3f a8 b0 82 3f f2 8a 7a 3f
       0.9923736 0.94912803 1.0210161 0.97868264
000170 f4 e9 79 3f 50 d7 80 3f 3a d2 74 3f e2 1f 78 3f
       0.9762261 1.0065708 0.9563328 0.9692365
000180 46 a8 75 3f 54 9b 76 3f c3 22 7e 3f f4 01 76 3f
       0.9595989 0.9633076 0.9927179 0.9609673
000190 f9 ba 7d 3f 70 69 81 3f 0c 65 78 3f ca e5 7e 3f
       0.9911342 1.0110302 0.97029185 0.9956938
0001a0 a2 06 7d 3f ed 19 7c 3f 10 2a 7d 3f 3a 38 77 3f
       0.98838246 0.9847706 0.9889231 0.9657017
0001b0 59 4f 7b 3f bb 0c 77 3f a9 3b 81 3f 6e ed 84 3f
       0.9816795 0.965038 1.0096332 1.0384958
0001c0 24 78 7f 3f 72 99 7a 3f e4 b0 79 3f cc 44 83 3f
       0.99792695 0.9789039 0.9753554 1.025537
0001d0 4e 98 7e 3f d6 5e 83 3f 4c 08 7f 3f 8b 92 78 3f
       0.9945115 1.0263317 0.99622035 0.97098607
0001e0 81 ef 7f 3f d4 45 79 3f 19 cf 7b 3f 9a 53 77 3f
       0.9997483 0.97372174 0.9836288 0.9661194
0001f0 ac 98 72 3f ff b8 77 3f 0d 27 7d 3f 70 5c 7f 3f
       0.9476421 0.96766657 0.9888771 0.99750423
000200 c2 5f 78 3f 7c 0d 7b 3f 6b 2b 7f 3f d6 58 75 3f
       0.97021115 0.9806745 0.99675626 0.9583868
000210 b2 7c 7e 3f cf 9f 79 3f 12 b9 77 3f de 57 80 3f
       0.9940902 0.97509474 0.9676677 1.0026815
000220 87 3a 7a 3f 9d 8c 78 3f 6e 91 79 3f 78 71 72 3f
       0.97745556 0.9708956 0.97487533 0.9470439
000230 a4 7a 80 3f 82 ef 6e 3f 48 2d 72 3f 0d ec 79 3f
       1.0037427 0.9333421 0.94600344 0.9762581
000240 9b 5b 7b 3f d8 6d 72 3f 5a d1 76 3f ba 1b 80 3f
       0.98186654 0.9469886 0.96413195 1.0008461
000250 c3 e0 74 3f 14 d5 82 3f a8 b8 78 3f 36 60 7e 3f
       0.9565546 1.0221276 0.97156763 0.99365556
000260 ac 3b 79 3f d6 30 77 3f a4 cb 7a 3f cc 6d 74 3f
       0.9735668 0.9655889 0.9796698 0.95480037
000270 52 5c 78 3f 1a c1 84 3f 03 c1 75 3f 82 bf 81 3f
       0.9701587 1.037143 0.9599764 1.0136569
000280 ec 67 76 3f 8b 0c 7a 3f c0 1d 78 3f 6a c0 78 3f
       0.9625232 0.9767539 0.96920395 0.971686
000290 e8 60 78 3f 63 2e 77 3f c4 de 77 3f f0 64 7c 3f
       0.9702287 0.96555156 0.9682429 0.9859152
0002a0 e5 72 7e 3f 49 c4 7f 3f 6c bb 6e 3f 76 31 7f 3f
       0.99394065 0.9990888 0.93254733 0.99684846
0002b0 6d 6b 71 3f f2 26 73 3f f4 a5 78 3f 40 b5 72 3f
       0.94304544 0.949813 0.97128224 0.94807816
0002c0 58 3e 76 3f 68 06 80 3f 13 50 75 3f c4 23 7f 3f
       0.9618888 1.0001955 0.9582531 0.9966395
0002d0 42 7a 7d 3f 4a 7a 80 3f c4 1c 81 3f 06 39 7f 3f
       0.99014676 1.003732 1.0086904 0.99696386
0002e0 5e 3f 77 3f d8 5e 80 3f 50 f2 7b 3f 0a e0 73 3f
       0.96581066 1.0028944 0.98416615 0.9526373
0002f0 c2 41 70 3f 1e 98 74 3f 1c 67 79 3f 0c 3a 79 3f
       0.9385034 0.9554461 0.9742296 0.973542
000300 66 99 75 3f 5b 33 71 3f c0 65 80 3f c6 c9 72 3f
       0.9593719 0.9421899 1.0031052 0.9483913
000310 4e 46 6d 3f 92 91 7b 3f ba da 7f 3f fa 08 78 3f
       0.926854 0.98269 0.99943125 0.968887
000320 2f e4 74 3f ea 87 77 3f 44 18 7a 3f f0 ac 6f 3f
       0.9566068 0.96691763 0.97693276 0.93623257
000330 28 c8 76 3f ae d1 6f 3f c2 ee 7e 3f 35 a8 75 3f
       0.96399164 0.9367932 0.99583066 0.9595979
000340 68 da 7d 3f 60 9e 77 3f a4 37 7b 3f f3 c9 79 3f
       0.99161386 0.96726036 0.98131776 0.97573775
000350 0e 6e 5e 3f 6c f3 77 3f bb 07 7f 3f e2 59 84 3f
       0.8688668 0.9685581 0.9962117 1.033993
000360 62 c8 80 3f 7b 3c 7d 3f a3 aa 72 3f 6e aa 80 3f
       1.0061152 0.9892041 0.9479162 1.0052011
000370 fe 1c 79 3f 32 27 82 3f e8 c7 89 3f aa 52 7d 3f
       0.97309864 1.0168211 1.0764132 0.9895426
000380 36 07 76 3f bc 26 7a 3f 59 50 7e 3f 52 98 7f 3f
       0.96104753 0.97715354 0.9934135 0.998418
000390 06 08 72 3f 86 27 80 3f 50 77 76 3f 6e 44 7f 3f
       0.9454349 1.0012062 0.96275806 0.9971379
0003a0 68 30 7c 3f a3 ed 71 3f 77 d5 77 3f 9e 11 7a 3f
       0.9851136 0.9450323 0.96810097 0.9768313
0003b0 b2 72 7d 3f 80 54 83 3f aa f8 76 3f c8 15 67 3f
       0.99003136 1.0260162 0.9647318 0.9026761
0003c0 e8 7d 78 3f a7 f5 77 3f e0 9a 7b 3f ae d9 79 3f
       0.9706712 0.9685921 0.98283195 0.9759778
0003d0 d2 26 7c 3f 1c 1d 75 3f 95 42 7b 3f 11 9e 77 3f
       0.98496735 0.9574754 0.9814847 0.96725565
0003e0 16 5f 78 3f 90 f9 77 3f a4 de 85 3f 30 17 7b 3f
       0.9702009 0.9686518 1.045857 0.98082256
0003f0 ae 48 72 3f 29 08 79 3f a3 d8 7e 3f c0 0a 83 3f
       0.9464215 0.97278076 0.9954931 1.0237656

decoder_net.2.bias f4 [512]
000000 ab f7 25 b6 8a 5c ad bc ae e9 a5 bc 92 f7 96 bc
       -2.4731078e-06 -0.02116229 -0.020253029 -0.018428598
000010 77 ab 81 3c 4a 8b c3 ba 22 50 14 bd 4e e1 b9 3c
       0.015828831 -0.0014918831 -0.036209233 0.022690441
000020 e2 74 a5 bb 52 73 10 3d 12 08 e3 bc 96 65 61 3b
       -0.005049334 0.035266228 -0.02771381 0.0034392825
000030 a2 fe b3 3b c8 f5 14 3c 2a 6c 9f 3b 20 8b 91 3c
       0.005493001 0.009091802 0.004865189 0.017766535
000040 f2 e0 28 3c 94 b5 47 bc 68 92 96 bc c0 72 6b bc
       0.010307537 -0.012189288 -0.018380359 -0.01437062
000050 0e c4 65 3c 72 a5 b0 3c cc 22 a1 bc 70 67 09 bc
       0.014023794 0.021563265 -0.019669913 -0.008386478
000060 2e b4 80 3c c0 dc 1a 3c 8c 71 59 3c 76 24 4b 3a
       0.015710916 0.009452045 0.013271701 0.00077492686
000070 05 ef 11 bb 72 43 05 3c 90 6f 3b 3d 28 b6 81 3c
       -0.002226771 0.008133756 0.04576069 0.01583393
000080 9a bc 94 3c 90 18 c4 3c d6 a9 73 3b 4e 1d bd 3b
       0.018156338 0.023937494 0.0037180088 0.0057713157
000090 e2 18 14 bc 18 19 3c 3c dc b3 e9 bb 2a d3 44 3c
       -0.009039136 0.011480592 -0.0071320366 0.012013236
0000a0 2e f4 b2 3b dc 3d 1f 3c 2d 63 5c bb f4 3c 59 bc
       0.0054612374 0.009719338 -0.003362845 -0.013259161
0000b0 bb 90 29 bc 07 63 47 3c 2a 91 72 bc fd bd 8c bc
       -0.010349448 0.012169606 -0.014805118 -0.017180437
0000c0 04 0c 95 3c 48 c0 04 3d 84 ff 78 3c 62 ff 0c 3b
       0.018194206 0.032409936 0.015197638 0.0021514525
0000d0 d8 3f 18 bc b0 73 d8 bb 9e b0 bc 3c ee f8 f4 3b
       -0.009292565 -0.006605588 0.023033436 0.007475964
0000e0 ec d7 4c bb 54 3e 56 3c 98 1e a6 3c 50 06 35 3d
       -0.003125663 0.013076384 0.02027826 0.044195473
0000f0 ce 42 bb 3c 8e 1a 0b bc 20 36 61 bc 38 5a f7 3b
       0.022859003 -0.008490218 -0.013745815 0.0075485967
000100 4a bb e2 ba e4 ab 13 38 90 c3 6b 3c fa ca 0b bc
       -0.0017298248 3.5207617e-05 0.014389887 -0.00853228
000110 84 05 8e bc 8b 3e 52 3b 53 16 83 bc ac 7a d3 bc
       -0.017336614 0.0032080736 -0.016001856 -0.02581533
000120 5e f6 a1 bb 3e a7 71 bc 00 f5 58 3c f4 31 94 3c
       -0.0049426993 -0.014749346 0.013242006 0.018090226
000130 91 08 6e bc de 40 57 bb 42 17 56 bc e0 0c a6 bb
       -0.01452841 -0.003284506 -0.0130670685 -0.005067453
000140 98 eb 71 3c d0 51 85 3b fc 97 09 bc d4 f7 3b 3c
       0.014765643 0.0040685907 -0.008398052 0.011472661
000150 f2 5a 6e bb 40 3c e0 bc 1c 5f 96 3c 22 bc 8b 3b
       -0.0036370126 -0.02737248 0.018355899 0.0042643705
000160 3a fc 3d bc 2c 93 17 3b 0a 6a 9f 3c 15 d0 bd 3c
       -0.01159578 0.0023128493 0.019459743 0.02317051
000170 08 a8 24 bc 3e ed 65 3c d2 78 2c ba b3 0f 3d bc
       -0.010049827 0.014033614 -0.0006579283 -0.0115393875
000180 de 52 31 3b 00 50 92 38 cf c0 2e 3c a4 3e 44 bc
       0.002705745 6.976724e-05 0.010666086 -0.011977825
000190 a0 35 7a bc 2a cd 94 bc d6 94 13 3c 1e d8 61 3c
       -0.015271574 -0.018164236 0.009007653 0.0137844365
0001a0 f3 69 13 3c 0e a1 aa 3c c5 1a 36 3b 1d cb 47 3c
       0.008997428 0.02082875 0.0027786952 0.012194422
0001b0 36 a3 81 3c 96 4e 3b 3c 62 b6 9a bc 5c e1 c5 3b
       0.015824895 0.011432311 -0.018885795 0.006038828
0001c0 d0 d4 c1 bc fa 92 db bb ae 3d ca 3b b0 83 21 bc
       -0.023661047 -0.0067008706 0.0061719036 -0.009858057
0001d0 24 fc 7b bc 72 cb f0 3c bf e3 42 3c 1c 2b 9d 3b
       -0.015379939 0.029393885 0.011895119 0.004796399
0001e0 a8 f1 29 bc 7d a9 1b 3c fc 1d 35 bc 3b d6 24 3b
       -0.010372557 0.009500858 -0.011054512 0.0025152105
0001f0 b2 da 05 bd 30 c9 17 3c ec 30 31 bc 19 5e ba 3b
       -0.032679267 0.009264275 -0.010814887 0.005687487
000200 52 c8 a6 3c a0 55 56 3b 16 70 fa bb c8 10 1f ba
       0.020359192 0.0032704845 -0.007642756 -0.0006067869
000210 67 8b 9f bb fe b5 af bb dc 55 5e bc f7 97 72 bc
       -0.004868913 -0.0053622713 -0.013570275 -0.014806739
000220 d2 ee 84 3c 55 70 84 bc 32 38 90 bc 9c 4b c9 3a
       0.01622716 -0.016166845 -0.017604921 0.0015357616
000230 1e 72 23 bc 83 64 bc bb 5e 8c 75 3c 32 87 41 bd
       -0.009975938 -0.0057492866 0.014987079 -0.047248073
000240 b4 ce 10 bc 2a c4 44 3a b4 0f 66 bc ce 40 d4 3b
       -0.008838344 0.00075060374 -0.01404183 0.006477452
000250 0c d1 7c bc 6c fe 15 3b 64 f3 21 bc 4c ef 0f bc
       -0.0154307 0.0022887243 -0.009884689 -0.00878508
000260 b3 bf c6 3c e0 9b 20 3b 05 c4 cb bb 93 e6 10 bc
       0.024261331 0.0024506971 -0.0062184357 -0.008844036
000270 b6 5f 22 3c f8 60 f1 bc 8b 17 79 bc 98 2d 24 3d
       0.009910515 -0.029465184 -0.015203367 0.040082544
000280 6c 17 64 3c ba 6d b5 3a bc 63 20 bc a0 0e af 3b
       0.0139216 0.0013841905 -0.0097894035 0.0053423196
000290 05 f3 2d 3c 76 12 eb ba a8 e1 56 3c b0 4c 1f bc
       0.010617022 -0.0017934579 0.013115324 -0.009722874
0002a0 2a ec 0f 3c fa 22 dc ba 08 55 92 bc 53 f8 63 bc
       0.008784333 -0.0016795092 -0.017862812 -0.013914186
0002b0 c4 1b 88 3b c8 29 ed 3c 84 12 95 3c c7 59 40 bc
       0.0041537005 0.028950587 0.018197306 -0.011740155
0002c0 70 54 3a bc 46 1c b3 bb fa 9e 72 3c 48 05 c5 bc
       -0.0113726705 -0.005466017 0.014808411 -0.02405037
0002d0 b2 f8 a4 3c f6 e4 e8 3b 52 a7 62 bc c0 7f 4c bc
       0.020138118 0.0071073724 -0.013833838 -0.01248163
0002e0 b6 a9 af 3a 3e 50 74 3c be ba 77 bc 32 db ce 3b
       0.0013402018 0.014911709 -0.015120206 0.006312751
0002f0 f2 36 39 3c 69 39 5b bc 60 f3 17 bc 7e 8a 75 3c
       0.011304604 -0.013380387 -0.009274334 0.014986632
000300 14 41 3e 3b 94 9c 20 3b 88 0e ed 3b a0 08 10 3c
       0.0029030489 0.002450739 0.0072343983 0.008791119
000310 ca af 83 3c 78 34 f1 bb 12 13 a0 bc d4 7c 10 bd
       0.016075034 -0.007360991 -0.019540343 -0.035275295
000320 42 6f 83 3c 72 dc 2d 3c d7 9a c5 bb f2 a8 ba 3c
       0.016044263 0.01061164 -0.0060304212 0.022785638
000330 62 e9 21 3b ec 0b 0e ba 51 fb 65 bc 7c 4b cd bc
       0.0024705757 -0.00054186466 -0.014036969 -0.025060408
000340 5a 95 b1 3b c0 1f 6f 3c be a2 b9 bc fa 82 8a bc
       0.0054194154 0.014594972 -0.02266061 -0.016908158
000350 1a fa 04 3d e9 0f ae bb 38 31 92 bc 11 61 b0 3b
       0.032465078 -0.005311955 -0.017845735 0.005382665
000360 20 8e d2 3b e4 45 4f 3c c6 3a 3e bc cc 98 d7 bc
       0.006425634 0.012650941 -0.011610692 -0.026317976
000370 b2 cc 91 3c d9 98 87 bc 4c 9d c8 3b 2a c1 0e 3d
       0.017797802 -0.016552376 0.006122267 0.034852184
000380 6d 71 b1 3b eb 8a c0 3b 50 bf 80 3c 3e fd e2 bc
       0.0054151327 0.0058759353 0.015716225 -0.027708646
000390 96 ef 28 3c ea b5 6c 3c ee 47 41 bc 1a 33 b8 bc
       0.010311028 0.014447669 -0.0117969345 -0.022485305
0003a0 ec 1d fe bb b4 b5 27 3c f4 64 99 39 b6 4f 9c bb
       -0.007755032 0.0102361925 0.0002925765 -0.0047702445
0003b0 9e 76 a7 bb ce 1e 72 bc 00 a2 aa 3c 0f f8 92 bb
       -0.005110576 -0.014777852 0.0208292 -0.0044851373
0003c0 83 83 34 3c c2 1a 35 bc 66 47 1d bc fc ac cd 3b
       0.011017683 -0.011053743 -0.009599542 0.006276725
0003d0 48 a8 1d bc 94 28 b2 3b 68 32 7d bb 4c 9c 24 3b
       -0.009622641 0.005436966 -0.003863478 0.0025117574
0003e0 66 ae b8 3b 72 5f 30 3c 64 84 15 bc fc e1 09 bc
       0.0056360243 0.010764943 -0.009125803 -0.008415695
0003f0 cc a9 1a 3b a0 f0 d8 3b 68 2a db 3b 1c 1f f2 3c
       0.0023599742 0.0066204816 0.006688405 0.02955585

decoder_net.3.weight f4 [256, 512]
000000 a8 d7 a2 3d 3c b2 90 3e bc c6 05 3f 20 b4 c0 3e
       0.079512894 0.28260982 0.5225637 0.37637424
000010 b6 96 2b bf c2 bd 63 bd 1c 14 99 3e 88 8c c1 3e
       -0.6702684 -0.05560089 0.29898155 0.3780253
000020 fa c0 9b be 97 0e fa be c2 2c 50 3e 92 a6 8d 3e
       -0.30420667 -0.48839256 0.20329574 0.27666146
000030 ac 47 ea 3e 96 95 6b 3f a6 a4 17 bf 96 fb f4 bc
       0.45757806 0.92025125 -0.5923561 -0.029905122
000040 a2 d6 5e 3f ef a5 e2 be 65 e1 66 3e 31 49 cc 3c
       0.87046254 -0.44267222 0.22546919 0.024937244
000050 26 09 87 3e d8 4b e7 3d 62 fe aa be 66 42 90 be
       0.26374167 0.11293763 -0.33397204 -0.28175658
000060 c6 e9 9b be 9b 06 65 3d de 2a a6 3e 74 90 91 3e
       -0.30451792 0.055914503 0.3245458 0.2843052
000070 56 6b e4 3e 3e a1 7f 3c 82 6e 80 3d 0a 4f 01 3f
       0.4461314 0.015602408 0.06271078 0.5051123
000080 ea 79 99 bf 2a 32 b6 be c8 7b 64 bf 58 ce ae be
       -1.199033 -0.35585147 -0.89251375 -0.34141803
000090 57 0e 2d be 7e 6e 9e 3e 72 b7 3d bf 01 a9 88 be
       -0.16900001 0.30943674 -0.7410804 -0.2669144
0000a0 2c 4c 8e bf a8 9f 34 3f f6 17 d5 3e 34 c4 cf be
       -1.1116996 0.70556116 0.41619843 -0.4057938
0000b0 be 85 32 3f d9 4e 57 bd 7c af bf bd 12 30 9f bd
       0.69735324 -0.05256543 -0.09359643 -0.077728406
0000c0 f6 ce 4a 3f 9e be a1 be 65 ed f6 bc 22 8d 38 bf
       0.7922205 -0.31590742 -0.030142495 -0.7209035
0000d0 3e 31 d4 be b6 e7 62 3f 46 d5 9e be 4e ba 81 3f
       -0.4144382 0.8863481 -0.3102209 1.0134981
0000e0 0e ba 96 be 24 9b 4f bf 10 7c 0a bf d6 f2 f4 3c
       -0.29438823 -0.810961 -0.54095554 0.02990095
0000f0 8b 0d 91 bd 34 cf 33 be 40 c4 00 3f 84 1c 20 be
       -0.07082661 -0.1755951 0.50299454 -0.15635878
000100 19 6b cf 3e c0 ae a2 be c6 90 84 3e 78 d1 89 3f
       0.40511397 -0.3177395 0.25891703 1.076705
000110 32 18 4e bf 8d 2e 79 3f 90 f0 dc bc 22 c4 a0 bf
       -0.8050567 0.97336656 -0.026970178 -1.2559855
000120 9c 65 8a 3f a8 2d e5 3e 68 0b a1 bf 03 85 78 be
       1.0812259 0.44761395 -1.2581606 -0.2426949
000130 58 3f 30 3f cc ca 59 be 8b 82 1c bf 51 d6 aa bd
       0.68846655 -0.21268767 -0.6113669 -0.08341659
000140 ba cd f8 bc 6a cf 8a bd e0 29 ea bd f0 ed af bc
       -0.030371536 -0.06777842 -0.11433768 -0.021475762
000150 b9 b5 9d be a5 94 c6 be be 9f 92 3e ae d7 6c 3f
       -0.30802706 -0.38785282 0.286375 0.925166
000160 f6 e5 01 be 7d cc b0 bd 0f c8 07 3f fa d3 0c bf
       -0.1268538 -0.08632753 0.5303964 -0.5501095
000170 6d f7 41 3e dc d9 01 bf 3e 70 85 bf 90 75 14 bf
       0.18942042 -0.5072305 -1.0424879 -0.57991886
000180 5c 9f 02 bf 68 10 6a 3f ff 55 82 3e 9e 4f a1 3b
       -0.51024413 0.91431284 0.25456235 0.004922821
000190 3e 60 b0 3e 6e e0 82 bf 70 e3 0e 3e 38 6c 62 be
       0.34448427 -1.022474 0.13953948 -0.22111595
0001a0 9a 83 e3 be 3c ec 47 be 3c 3a 3f 3f 90 d4 aa be
       -0.44436342 -0.1952371 0.74698234 -0.33365297
0001b0 fe d2 04 3e 6a 22 3c bf aa 14 ac 3e 8e a4 35 be
       0.12971112 -0.7349001 0.33609515 -0.17738554
0001c0 c2 de a7 3e 66 1b a0 3e 4c 2a c0 3e 08 ff 3f 3e
       0.32787138 0.31270903 0.3753227 0.1874963
0001d0 2c 8e 9e 3e 70 a5 fa 3e b8 5c 04 bf a2 01 6f 3e
       0.30967844 0.48954344 -0.5170398 0.23340467
0001e0 c2 d7 3a 3e 50 0c 3f bc 4a 96 37 bf d4 38 b4 3e
       0.18246368 -0.01166065 -0.717137 0.35199606
0001f0 ef d3 a2 3e 24 56 56 be 34 5d 94 be 68 db fa 3d
       0.31802318 -0.20931298 -0.28977358 0.1224888
000200 fe 25 d0 3e be 2b 89 bd 72 fc 95 be 83 1c 82 be
       0.40653986 -0.06697796 -0.29294163 -0.25412378
000210 d8 46 2b be 27 b3 66 bd 7a b5 ad 3e 74 f9 bc bd
       -0.16726243 -0.056323197 0.33927518 -0.09227267
000220 22 d1 e2 be 06 73 70 be 30 58 47 3e 6c bb c1 3e
       -0.4430018 -0.23481378 0.19467235 0.37838304
000230 d6 3e dc 3e 14 05 54 3f 8a 66 18 3f 7e 1a 55 3f
       0.4301669 0.8282025 0.5953146 0.8324355
000240 ee 32 01 bd d4 b1 71 3f ba c9 ed 3e 80 0f 00 3f
       -0.03154271 0.9441197 0.46442968 0.5002365
000250 11 98 58 3f ea 3d 39 3d a4 38 fe 3e 0a 5b d1 bf
       0.84607035 0.04522506 0.49652588 -1.6355908
000260 c5 5e 02 bf 2c 91 cb be 30 6a 2a be da 5b ce 3e
       -0.50925857 -0.39759195 -0.1664207 0.40304452
000270 c6 3a 70 bd d8 4d fb 3e fa 30 17 3f 6c 38 40 3d
       -0.0586498 0.49082828 0.5905911 0.046928808
000280 10 78 6e bf b4 aa 4a be 52 40 da 3e f9 77 79 be
       -0.9315195 -0.1979168 0.42627198 -0.24362172
000290 8e 98 41 3d c8 c2 c8 3e 4c 68 65 3f 22 cf 7f 3e
       0.047264628 0.39211106 0.8961227 0.24981359
0002a0 0f 67 12 3e 84 cd 4c 3f 82 c7 24 3f 8c 5d d1 3f
       0.14297126 0.8000109 0.64366925 1.6356673
0002b0 94 1a 35 3f a2 a8 b9 3c 06 27 52 3f e5 70 fb 3e
       0.7074368 0.022663418 0.82090795 0.4910957
0002c0 20 03 9c bd d6 e9 23 3d 5e ae af be 47 82 a2 3d
       -0.076177835 0.040017925 -0.3431272 0.07935005
0002d0 25 d3 e4 3e 13 7c 71 3f c7 4d 11 be aa f9 3e 3f
       0.4469234 0.9432995 -0.14189826 0.7459971
0002e0 c2 73 36 3f f2 7c 3f 3e 1b 57 07 be 76 db a7 bd
       0.7127038 0.18700007 -0.13216822 -0.08196156
0002f0 88 28 83 3f d8 74 0d be 06 2e 9e be b8 cb 02 3b
       1.0246744 -0.13814104 -0.30894488 0.0019957852
000300 ed 0a b2 be 12 04 51 3f 50 92 4f 3e 6a c4 1e bf
       -0.3477396 0.81646836 0.20270658 -0.62018454
000310 7f 46 45 be 92 14 af 3e 76 43 6e 3f 18 73 6c 3e
       -0.19265173 0.3419538 0.9307169 0.2309078
000320 72 40 ea be a0 f5 c7 3d c4 5f 4e 3e 73 85 0a bf
       -0.45752293 0.09763646 0.20153719 -0.5410988
000330 32 8b b9 3e 72 61 29 bf 06 af eb 3e 75 3c 3e 3f
       0.3623901 -0.66164315 0.4603197 0.74311
000340 78 ec 1b bf ea 57 11 3e 92 ab 97 3e 4d 41 b7 3e
       -0.609077 0.14193693 0.29623085 0.35792008
000350 14 24 6c bd fc ce 26 be cd 89 5f be c0 e0 0f 3e
       -0.057651594 -0.16289896 -0.2182991 0.14050579
000360 b8 e1 44 3e 1a 89 3f bf 46 90 fd 3e 3e 95 3b 3e
       0.1922673 -0.74818575 0.49524134 0.1831865
000370 22 97 d6 bd 38 5a 18 be c2 d0 24 bf 88 7e 88 bd
       -0.10478045 -0.14878166 -0.6438104 -0.06664759
000380 28 39 52 bf da 48 ec be c6 21 93 be 26 06 5c 3e
       -0.82118464 -0.4614933 -0.28736705 0.2148672
000390 6c bc ea 3e fe e1 b8 3e 47 5a ca 3d 12 20 e7 3e
       0.4584688 0.36109918 0.098805 0.45141655
0003a0 78 e3 fa be f4 6c 4c 3d 08 22 33 bd 0e 35 bb 3e
       -0.4900167 0.049908593 -0.043733627 0.36563915
0003b0 8d 97 04 bf 5e c6 46 bf dd fc f6 be 64 73 50 3f
       -0.5179375 -0.77646434 -0.48239794 0.8142607
0003c0 d2 54 7b bf f0 5d 61 be 9e a2 c5 be d8 0e 05 be
       -0.981763 -0.2200849 -0.3860063 -0.12993944
0003d0 61 0a e0 3e 04 21 9c 3d 1a 89 9d be e2 90 bc 3e
       0.43757918 0.07623485 -0.30768663 0.36829287
0003e0 70 dd 89 3c ee 59 dd 3d 5a c5 00 bf be 25 ab 3d
       0.016829222 0.10808168 -0.50301135 0.08356808
0003f0 50 d7 39 3f c8 cc 87 be 54 9a 06 bf ea 02 e1 be
       0.72594166 -0.26523423 -0.52579236 -0.43947536

decoder_net.3.bias f4 [256]
000000 e6 bb e0 3e 12 51 f2 3e ea 53 f3 3e cb 91 e3 3e
       0.43893355 0.47327477 0.4752496 0.4444717
000010 04 ff ef 3e 50 87 04 3f e8 0c 00 3f 8a 99 fc 3e
       0.4687425 0.5176897 0.50019693 0.4933589
000020 e8 4a ee 3e 38 0b fc 3e 8a a8 fb 3e fb 3d 03 3f
       0.46541524 0.4922731 0.49152023 0.5126645
000030 94 4b f5 3e 88 ae 01 3f 78 e7 fd 3e 80 1f e9 3e
       0.47909224 0.5065694 0.4959066 0.45531845
000040 eb 69 00 3f 21 12 01 3f a8 07 ed 3e 5e 7d f3 3e
       0.5016162 0.5041829 0.46294904 0.47556585
000050 7c e3 f8 3e a8 5f e6 3e 82 d8 f7 3e 3a aa 05 3f
       0.48611057 0.44994855 0.4840737 0.5221287
000060 c8 1d e7 3e f0 a8 fe 3e e0 d6 00 3f a4 a3 03 3f
       0.4513991 0.49738264 0.50327873 0.5142157
000070 7a e4 f9 3e 3e e8 e6 3e ce 2a e1 3e 67 d1 03 3f
       0.48807126 0.45099062 0.4397797 0.514914
000080 a4 f2 00 3f aa bc f5 3e b8 8e ed 3e 10 01 06 3f
       0.5037024 0.47995502 0.46397948 0.5234537
000090 ca 3e ff 3e 32 80 f4 3e f4 be 03 3f be 43 fd 3e
       0.49852592 0.47754055 0.51463246 0.49465746
0000a0 ac 91 00 3f 88 b6 03 3f b0 cc 01 3f a6 67 f5 3e
       0.5022228 0.51450396 0.50702953 0.4793064
0000b0 4c fd 02 3f aa db f7 3e 70 58 fc 3e 80 26 00 3f
       0.5116775 0.48409778 0.49286222 0.50058746
0000c0 8b 34 fd 3e 1a 30 f5 3e 4d 9f f7 3e 52 e7 fe 3e
       0.4945415 0.4788826 0.48363724 0.49785858
0000d0 10 dd e6 3e 1e 9a f8 3e d2 ec fa 3e 4a 6d d7 3e
       0.45090532 0.48555082 0.49008805 0.42075568
0000e0 52 e7 ff 3e 3c 2b 02 3f a6 a1 fb 3e 04 3b df 3e
       0.4998117 0.5084722 0.49146765 0.43599713
0000f0 2a 65 01 3f dc df f0 3e d6 1a f4 3e a9 fc 02 3f
       0.5054499 0.4704579 0.47676724 0.5116678
000100 be 99 f1 3e c2 4b ff 3e 8e 36 f4 3e 68 a7 f8 3e
       0.47187608 0.49862486 0.47697872 0.4856522
000110 e0 6d ff 3e 12 b0 fb 3e 61 32 f3 3e 60 fe 01 3f
       0.49888515 0.49157768 0.47499374 0.5077877
000120 c2 9b e3 3e f6 8e f5 3e d2 02 ff 3e d2 43 e2 3e
       0.4445477 0.47960633 0.4980684 0.44192368
000130 3a 07 fb 3e 8e 43 f7 3e dc 3c e1 3e b8 95 e3 3e
       0.4902895 0.48293728 0.43991745 0.44450164
000140 48 8d e5 3e 1f 40 f9 3e 1e dc e1 3e 6c 1d f3 3e
       0.44834352 0.48681733 0.4411325 0.47483385
000150 dd 5a ef 3e 9e 41 f0 3e a0 ef f5 3e f7 dc 00 3f
       0.4674901 0.46925062 0.48034382 0.50337166
000160 c1 85 02 3f 1c 27 f3 3e 48 43 fb 3e 7e 2d 01 3f
       0.5098534 0.47490776 0.4907477 0.5046004
000170 b2 8a f4 3e 4a 8b 00 3f ae 9a f3 3e 6e 3f f5 3e
       0.47762066 0.5021254 0.4757895 0.47899956
000180 6e 48 fa 3e c4 6f f4 3e f8 a1 01 3f be e0 fe 3e
       0.48883384 0.4774152 0.5063777 0.4978084
000190 78 47 f6 3e 54 d2 fb 3e b5 e6 03 3f 84 f3 f7 3e
       0.481014 0.49183905 0.51523906 0.48427975
0001a0 88 b2 f0 3e c6 b5 ee 3e c6 93 01 3f c2 90 f6 3e
       0.4701121 0.46623057 0.5061611 0.48157316
0001b0 c6 b5 fc 3e 28 c7 f8 3e 94 50 f6 3e 90 eb 05 3f
       0.49357432 0.48589444 0.4810835 0.52312565
0001c0 6c 5b ef 3e 72 02 f0 3e 8c 66 fc 3e 6a 0c d7 3e
       0.46749437 0.46876866 0.49296987 0.4200166
0001d0 1a 53 ff 3e 84 9a f2 3e 12 ec e5 3e 06 dd ed 3e
       0.4986809 0.4738351 0.4490667 0.4645769
0001e0 92 84 d1 3e f2 67 f8 3e 78 30 00 3f 74 d0 02 3f
       0.40921456 0.48516804 0.5007396 0.51099324
0001f0 84 73 e2 3e d9 16 fc 3e 3a 38 ff 3e 65 8f f7 3e
       0.44228756 0.4923618 0.49847585 0.4835159
000200 ea 77 04 3f 54 b2 f6 3e 0e 7a f5 3e 44 eb e6 3e
       0.51745474 0.4818293 0.47944683 0.45101368
000210 b8 4d e7 3e 82 fd de 3e 20 f8 00 3f b0 c8 f5 3e
       0.45176482 0.43552786 0.5037861 0.48004675
000220 fe 16 00 3f ec ac fd 3e dc 07 f5 3e 51 78 fe 3e
       0.50035083 0.4954599 0.4785756 0.4970117
000230 82 63 f7 3e 30 86 fb 3e ce 25 f5 3e ce 73 f2 3e
       0.48318106 0.49125814 0.47880405 0.47353977
000240 fa 02 fd 3e 20 af 00 3f ac 8a f4 3e c2 35 fb 3e
       0.49416333 0.5026722 0.47762048 0.4906445
000250 10 c6 fd 3e 2e a7 e4 3e 56 1c 02 3f 5a 7a f9 3e
       0.49565172 0.44658798 0.5082449 0.4872616
000260 f2 1c f4 3e ce de bb 3e 47 cc 01 3f 3f 0f ec 3e
       0.47678334 0.36693424 0.5070233 0.46105382
000270 30 c1 06 3f 8c 6f 00 3f 32 ee ef 3e aa 8a f9 3e
       0.5263853 0.5017021 0.46861416 0.48738605
000280 1f 8d 00 3f 28 9a e5 3e c0 14 fd 3e 62 57 00 3f
       0.50215334 0.44844174 0.49429893 0.50133336
000290 fe 0e f5 3e ec 82 fa 3e c6 bf 01 3f 37 0b f3 3e
       0.47863 0.4892801 0.5068325 0.47469494
0002a0 48 8c fb 3e 9e 7b f4 3e 2b ea f8 3e fc de 01 3f
       0.49130464 0.47750562 0.48616156 0.5073087
0002b0 8e 4b de 3e ce 08 e2 3e 2c 18 f5 3e c0 aa f5 3e
       0.4341702 0.44147342 0.47870004 0.47981834
0002c0 94 c4 f2 3e 02 46 f8 3e 3d a0 00 3f d9 46 02 3f
       0.47415602 0.48490912 0.50244504 0.50889355
0002d0 f0 a2 f6 3e b6 4b fb 3e 92 fe f8 3e a6 f6 ee 3e
       0.48171186 0.490812 0.48631722 0.46672553
0002e0 84 9f 01 3f 8d c0 00 3f 00 03 ec 3e 23 52 e0 3e
       0.50634027 0.5029381 0.4609604 0.43812665
0002f0 d2 ee e8 3e da 58 01 3f fe c7 f1 3e 51 b2 f6 3e
       0.45494705 0.505262 0.47222894 0.4818292
000300 66 00 fd 3e 3c 3f f4 3e ce 5a ff 3e 3c 48 03 3f
       0.49414366 0.47704494 0.49873966 0.51282096
000310 a4 10 f9 3e 36 4a fa 3e 5a 6c ff 3e ba e8 00 3f
       0.48645508 0.48884743 0.49887353 0.5035511
000320 f6 c7 f6 3e 66 bb 02 3f 67 d5 00 3f 73 c4 f5 3e
       0.48199433 0.510672 0.50325626 0.4800144
000330 7e 60 f4 3e e6 6d f9 3e 5e e9 e3 3e 3a 16 f3 3e
       0.47729868 0.48716658 0.44513983 0.47477895
000340 94 a4 fc 3e 9c 11 f5 3e fa 28 06 3f 88 0c f7 3e
       0.49344313 0.47864997 0.52406275 0.48251748
000350 d4 69 03 3f cb 45 f8 3e a8 69 ff 3e 36 5b f4 3e
       0.51333356 0.48490748 0.49885297 0.47725838
000360 12 7c eb 3e dc 3d f5 3e 58 62 00 3f 7c bd fc 3e
       0.45993096 0.47898757 0.5015006 0.49363315
000370 2e 33 e2 3e 22 72 fc 3e ee d1 d4 3e 82 a8 fd 3e
       0.44179672 0.49305826 0.41566414 0.49542624
000380 dc f3 fb 3e 83 38 f8 3e 8c ce 00 3f 8d 33 03 3f
       0.49209487 0.48480615 0.50315166 0.51250535
000390 aa 12 f6 3e 12 5f 02 3f 20 90 f1 3e be b9 f8 3e
       0.48061115 0.50926316 0.4718027 0.4857921
0003a0 c6 2f fa 3e 2a 53 db 3e 5f cc fe 3e af bc f4 3e
       0.48864573 0.42836887 0.49765298 0.47800204
0003b0 bf 03 f7 3e 7e 1c eb 3e bd 50 f3 3e bb ec f8 3e
       0.48245046 0.45920175 0.47522536 0.4861811
0003c0 c0 c7 f3 3e 14 3c 01 3f 54 80 fd 3e 44 4e fd 3e
       0.47613335 0.50482297 0.4951197 0.49473774
0003d0 d0 06 fe 3e 13 55 f9 3e c2 63 f8 3e 78 ee f2 3e
       0.49614573 0.4869772 0.4851361 0.47447562
0003e0 09 02 ff 3e 92 e7 ee 3e 18 63 f3 3e 92 e6 00 3f
       0.4980624 0.4666105 0.4753654 0.5035182
0003f0 32 28 02 3f 77 5b 02 3f 8a 92 f1 3e f6 32 01 3f
       0.50842583 0.50920814 0.47182113 0.50468385

decoder_net.4.weight f4 [256]
000000 0a 7b 74 3f ac 5e 7f 3f b6 f6 7c 3f 2a 93 72 3f
       0.9550024 0.9975383 0.9881395 0.94755805
000010 1e 69 7c 3f b0 13 76 3f b6 35 73 3f d9 d5 78 3f
       0.98597896 0.9612379 0.9500383 0.97201306
000020 78 91 7e 3f f5 af 7d 3f b1 c9 77 3f e4 4b 81 3f
       0.9944072 0.99096614 0.9679213 1.0101285
000030 61 f6 74 3f 36 be 84 3f e0 15 65 3f ca a0 80 3f
       0.95688444 1.0370548 0.89486504 1.0049069
000040 7c fd 76 3f 1a df 80 3f e6 48 7d 3f 82 0c 74 3f
       0.96480536 1.0068085 0.9893936 0.95331585
000050 3a a6 7f 3f f2 3e 7a 3f 8e fd 75 3f 7c af 74 3f
       0.99863017 0.97752297 0.9609002 0.9558027
000060 ac 86 70 3f de ae 79 3f c0 ae 76 3f 80 22 88 3f
       0.9395549 0.9753245 0.963604 1.0635529
000070 1b fc 70 3f fa 66 6c 3f 5e 66 76 3f 68 fd 6a 3f
       0.9413468 0.9234463 0.9624995 0.9179292
000080 40 69 77 3f ed d5 74 3f 02 2d 7f 3f 7c 08 72 3f
       0.96644974 0.95638925 0.9967805 0.94544196
000090 f2 8a 7f 3f fc 30 7a 3f 6c b0 7f 3f b8 b8 77 3f
       0.9982139 0.97730994 0.99878573 0.96766233
0000a0 26 2e 7e 3f 96 84 82 3f 48 dd 8c 3f 32 7b 71 3f
       0.99289167 1.0196712 1.100503 0.94328606
0000b0 6f 1a 73 3f 64 35 74 3f c3 0b 72 3f e4 c8 79 3f
       0.9496221 0.9539397 0.94549197 0.9757216
0000c0 8e ce 7c 3f d1 b2 6f 3f b2 01 77 3f ce 5a 76 3f
       0.9875268 0.9363223 0.9648696 0.96232307
0000d0 d8 e1 73 3f 24 38 7d 3f 54 a3 78 3f 3c 8d 74 3f
       0.95266485 0.9891379 0.9712422 0.95528007
0000e0 4c b0 79 3f 2c d9 7c 3f ac e4 73 3f 16 00 74 3f
       0.9753463 0.9876888 0.952708 0.9531263
0000f0 02 4b 7d 3f 02 cd 8c 3f 06 67 79 3f ed f8 75 3f
       0.9894258 1.1000063 0.97422826 0.96082956
000100 82 c9 70 3f a0 bf 7e 3f 28 7d 76 3f 86 98 6f 3f
       0.94057477 0.99511147 0.96284723 0.9359211
000110 32 61 7d 3f da 25 6f 3f 74 e1 77 3f 40 05 7a 3f
       0.98976433 0.9341713 0.9682839 0.9766426
000120 36 37 7b 3f 25 cc 74 3f 4c 83 78 3f 0c bf 82 3f
       0.9813112 0.95624 0.97075343 1.0214553
000130 86 c5 75 3f 24 bb 6f 3f dd 6e 77 3f bf 43 6f 3f
       0.9600452 0.9364493 0.9665354 0.9346275
000140 69 11 7d 3f d2 a1 6c 3f 8a 16 73 3f e9 69 71 3f
       0.9885469 0.9243442 0.94956267 0.9430223
000150 e0 81 80 3f bf 57 74 3f b0 77 6c 3f af 43 77 3f
       1.0039635 0.9544639 0.9237013 0.9658765
000160 70 16 83 3f 3a 6a 79 3f c6 97 79 3f 7e 53 7a 3f
       1.0241222 0.97427714 0.9749721 0.9778365
000170 1e ce 78 3f 5a 73 7c 3f f0 12 75 3f e7 18 72 3f
       0.9718951 0.9861351 0.9573202 0.9456925
000180 1f 82 76 3f 48 75 74 3f 5a 75 80 3f 1e be 65 3f
       0.962923 0.95491457 1.0035813 0.8974322
000190 2d 7f 75 3f aa 3f 74 3f 20 9e 77 3f e8 ed 87 3f
       0.9589718 0.95409644 0.96725655 1.0619478
0001a0 74 27 87 3f 8c f4 70 3f 32 33 82 3f 52 d8 75 3f
       1.0558915 0.9412315 1.0171874 0.96033204
0001b0 62 2e 74 3f a8 d4 70 3f 98 47 82 3f 56 6c 73 3f
       0.95383275 0.9407449 1.0178099 0.9508718
0001c0 b2 fe 71 3f 95 61 78 3f d0 bb 80 3f 34 6b 81 3f
       0.9452926 0.970239 1.0057316 1.0110841
0001d0 72 3c 74 3f 81 de 5e 3f fa 2d 75 3f ea 68 72 3f
       0.9540473 0.87058264 0.9577328 0.94691336
0001e0 6a c0 77 3f d2 5b 7e 3f c5 cf 7c 3f 02 79 6f 3f
       0.96777976 0.99358857 0.9875453 0.9354402
0001f0 28 6b 89 3f 39 0c 7a 3f f4 13 78 3f 80 fa 89 3f
       1.0735826 0.976749 0.96905446 1.0779572
000200 44 63 73 3f 88 00 77 3f 78 a2 76 3f 2e 4c 7a 3f
       0.9507334 0.96485186 0.9634166 0.9777249
000210 2e 4c 7a 3f 40 8f 72 3f cc 52 79 3f ff ef 77 3f
       0.9777249 0.9474983 0.97391963 0.9685058
000220 8e c9 81 3f 4d 05 77 3f 8a fe 80 3f 32 fc 7c 3f
       1.0139635 0.96492463 1.0077679 0.9882232
000230 f4 4a 79 3f 11 73 67 3f d3 0f 75 3f a2 28 79 3f
       0.97379994 0.9040995 0.9572727 0.97327626
000240 dd 58 78 3f ba 8b 7e 3f 68 b5 76 3f a4 b5 79 3f
       0.97010595 0.99431956 0.96370554 0.97542787
000250 b6 85 76 3f c8 7f 73 3f 96 9e 6f 3f 34 d1 75 3f
       0.96297777 0.95116854 0.9360136 0.96022344
000260 31 d7 74 3f ee 94 78 3f c5 c3 6f 3f e6 26 70 3f
       0.95640856 0.9710225 0.93658096 0.93809354
000270 ee fb 78 3f ca 9e 7a 3f cc 19 74 3f 65 ec 7a 3f
       0.97259414 0.9789854 0.9535186 0.9801696
000280 6c d2 7d 3f 46 1e 81 3f fc ea 72 3f f2 6d 7a 3f
       0.99149203 1.0087364 0.9488981 0.97824013
000290 62 9f 76 3f ee a1 80 3f 4c e2 7f 3f 62 ae 78 3f
       0.9633695 1.0049417 0.99954677 0.9714109
0002a0 66 4f 77 3f d4 e5 75 3f d2 ce 79 3f ec d1 74 3f
       0.9660553 0.96053815 0.9758121 0.95632815
0002b0 d2 57 7a 3f a0 28 75 3f 5c 26 77 3f 19 d3 69 3f
       0.97790253 0.95765114 0.96542907 0.91337734
0002c0 d1 c7 6e 3f 68 cc 76 3f 46 23 74 3f 88 16 75 3f
       0.93273646 0.9640565 0.95366323 0.95737505
0002d0 1e d1 81 3f 0e e8 72 3f 3c 66 7c 3f 16 cb 75 3f
       1.0141943 0.9488534 0.985935 0.9601301
0002e0 74 d0 76 3f 04 b3 76 3f 74 e7 78 3f b4 2b 7e 3f
       0.96411824 0.96366906 0.9722817 0.99285436
0002f0 e8 98 73 3f b8 ec 76 3f 66 fb 7d 3f 9a f8 72 3f
       0.9515519 0.96454954 0.9921173 0.94910586
000300 00 92 68 3f 60 b6 74 3f 1c 02 77 3f 0a 96 77 3f
       0.9084778 0.9559078 0.96487594 0.96713316
000310 06 33 7c 3f 1c 17 91 3f de 50 7f 3f 0a a1 7c 3f
       0.98515356 1.1335177 0.9973277 0.98683226
000320 f8 65 7d 3f 28 06 81 3f 58 26 7b 3f 59 87 76 3f
       0.98983717 1.0080004 0.9810538 0.96300274
000330 3e 63 75 3f 17 d8 77 3f 02 a4 7b 3f 6e ea 78 3f
       0.95854557 0.968141 0.9829713 0.9723271
000340 00 c3 6d 3f 6e e6 74 3f ac 56 72 3f 5c 28 76 3f
       0.9287567 0.9566411 0.946635 0.96155334
000350 0e 19 87 3f de ea 76 3f 60 46 85 3f 0a 77 7a 3f
       1.0554521 0.9645213 1.0412102 0.9783789
000360 26 11 73 3f 08 e1 81 3f 28 32 73 3f bf 8d 79 3f
       0.9494804 1.0146799 0.9499841 0.9748191
000370 2c 1d 75 3f 24 5c 81 3f fc af 76 3f 42 ac 75 3f
       0.9574764 1.0106244 0.9636228 0.9596597
000380 41 4b 7c 3f ec f3 73 3f 5a b7 7b 3f 74 aa 6d 3f
       0.9855233 0.9529407 0.9832665 0.92838216
000390 7f 00 7a 3f 3c 69 74 3f b0 f3 6f 3f 93 07 6e 3f
       0.97657007 0.95473075 0.9373121 0.9298031
0003a0 7e 14 72 3f 40 18 7a 3f 22 1c 7b 3f 2f 82 72 3f
       0.9456252 0.9769325 0.980898 0.94729894
0003b0 c2 17 8b 3f c2 06 81 3f d7 a3 76 3f d2 77 78 3f
       1.0866625 1.0080187 0.9634375 0.9705783
0003c0 d8 df 75 3f c8 32 7a 3f de 1d 88 3f f2 8d 81 3f
       0.96044683 0.97733736 1.0634115 1.0121443
0003d0 0a c6 73 3f eb 1f 78 3f 31 fd 78 3f 52 6f 75 3f
       0.9522406 0.969237 0.9726134 0.95872986
0003e0 9a 6f 73 3f a6 61 74 3f e9 7b 76 3f 4b 4f 7d 3f
       0.95092165 0.954615 0.9628282 0.98949116
0003f0 66 b6 7a 3f f0 d5 79 3f d2 4a 75 3f c8 45 81 3f
       0.9793457 0.9759207 0.9581729 1.009942
