Value_Net.pt (torch, 798868 bytes, 10 tensors)

decoder_net.0.weight f4 [512, 85]
000000 42 59 99 be 4d e8 df 3e 05 76 8d 3d 09 5c 25 bf
       -0.2995091 0.4373192 0.06907276 -0.6459356
000010 3c 55 49 3d a7 84 07 be f5 e2 f0 be 60 38 bb bf
       0.04915355 -0.13234197 -0.47048154 -1.4626579
000020 bc 62 00 bf 2b ad 64 3e 5c 11 38 be ea c1 a8 be
       -0.50150657 0.22331683 -0.17975372 -0.32960445
000030 d0 64 8d 3e c8 7e 41 3f 71 ce ac 3e cb b4 83 bf
       0.27615976 0.7558408 0.33751252 -1.0289549
000040 03 b6 d3 be bf 89 09 be 3f 0d 88 3f 69 8d 7e 3e
       -0.413498 -0.13431452 1.0629042 0.24858631
000050 df 1f 03 3f 11 75 73 3f 4d 1f 87 3e 88 c5 94 bd
       0.51220506 0.95100504 0.26391068 -0.072642386
000060 34 05 fd 3d c5 70 68 bf f1 69 2d 3f 31 da f0 3e
       0.12354508 -0.9079707 0.6773978 0.47041467
000070 64 24 04 bf 4a 71 a0 be 1c 7a 08 3f 74 53 0b 3f
       -0.5161803 -0.31336433 0.53311324 0.54424214
000080 92 61 1d be 96 bb 0e 3f 6d 62 2c 3e e1 8f 8a be
       -0.15369251 0.55754983 0.16834421 -0.27062896
000090 47 00 6e 3e 49 25 19 bf f8 d0 2e 3f d1 a4 10 3f
       0.23242293 -0.5982252 0.6828761 0.5650149
0000a0 b6 1a 26 bf d6 c5 81 bd e3 d6 a8 be f7 64 dd be
       -0.6488451 -0.06336562 -0.32976446 -0.43241093
0000b0 be 03 91 bd ad ab cc 3e 59 d8 ea 3e 92 61 ec be
       -0.07080792 0.39974728 0.45868185 -0.4616819
0000c0 a8 15 23 3f a5 79 67 bf 7a d3 6a 3e 4c 69 04 be
       0.6370492 -0.9041999 0.22932234 -0.12930793
0000d0 36 16 67 bd 47 11 13 3f 0c 01 7c 3e 0a cf 0f bf
       -0.056417666 0.5744824 0.24609774 -0.5617529
0000e0 1e cf 9b 3f 4e fe a7 3e af 7e 4d 3e 03 aa 39 3e
       1.2172582 0.32811207 0.20067857 0.1813126
0000f0 e2 28 9d 3d 5d e2 52 3e 92 27 e8 3d b3 8c e3 be
       0.076738134 0.20594163 0.113356724 -0.44443282
000100 ec 5b 12 3d 99 5f 60 be 6a 16 13 3d 4a ad 39 3f
       0.035732195 -0.21911468 0.035910048 0.72530043
000110 e3 a6 9c be 85 23 1b bf cd d9 f7 3e 62 72 66 bf
       -0.30596074 -0.60601074 0.48408356 -0.90018284
000120 e2 0d d5 3d 9d d2 de 3c 39 0b ad bd fd 95 d7 be
       0.104030386 0.027200038 -0.08449406 -0.4210662
000130 8c 0a 19 3f c2 78 62 3e ac 5d fa 3c 12 73 4f bd
       0.5978172 0.22116378 0.030562244 -0.05064685
000140 a1 9e 58 bf f3 65 dd 3e c1 4a b0 3e c2 31 c7 3e
       -0.8461705 0.43241844 0.34432033 0.3890515
000150 1c 0b 96 be ce f7 a0 3e 66 55 ba 3e 83 11 bc 3c
       -0.2930535 0.3143906 0.3639328 0.022957569
000160 05 55 ba 3f ac 61 3c bc c1 3d 55 3e 28 8f 7c be
       1.4557196 -0.011497896 0.20824338 -0.24663985
000170 94 a7 0b 3e 52 b4 92 bd 8d 5c db 3e 41 61 6c 3c
       0.13638145 -0.071632996 0.42844048 0.014427484
000180 f7 00 88 3e 24 a8 58 3f 4f be cb 3e 7a 11 df bd
       0.26563236 0.8463156 0.3979363 -0.10892005
000190 f8 3b a6 3d eb 3d 03 bf d0 25 f8 bd 86 8d 72 3d
       0.08116907 -0.51266354 -0.12116587 0.059217
0001a0 0a 0a 1f bd ba 23 bf 3e f9 32 44 be a0 b1 2b 3f
       -0.038827933 0.37331945 -0.1916007 0.6706791
0001b0 71 e7 3a bf af 7d 80 3e 63 c1 8a be ef f5 5b 3f
       -0.730094 0.2509589 -0.27100667 0.8592214
0001c0 da 77 4f bf c6 19 29 3f 05 b9 27 3f dd 9c b3 be
       -0.81042254 0.6605495 0.6551669 -0.35080615
0001d0 e3 83 51 be 23 bd 09 bf 7f c4 8c bf 0d 84 80 3d
       -0.20460467 -0.53804225 -1.0997466 0.06275187
0001e0 95 af 2a be a3 5c b8 be 95 30 54 3c 8a ef 00 bf
       -0.16668542 -0.36008176 0.012951036 -0.5036551
0001f0 e1 27 7d 3e 46 b9 93 3e cb b4 21 3d 9a 36 ad be
       0.24722244 0.2885229 0.03947906 -0.3383072
000200 a1 b0 e7 be ef 55 58 3f 53 25 e1 3e e0 c0 48 3f
       -0.45251945 0.84506124 0.4397379 0.78419304
000210 c1 0f 92 3e 8d f9 2d 3f 29 02 1b 3f 9e e9 ac be
       0.28527644 0.6795891 0.6055017 -0.33771986
000220 27 4b fb be 07 0e 1f be 3a 69 85 bd f8 48 94 be
       -0.49080774 -0.15532695 -0.06514211 -0.2896192
000230 24 d0 6a 3e c7 28 1b 3f b0 30 76 3f 08 44 10 bf
       0.22930962 0.60609096 0.9616804 -0.5635381
000240 61 31 1f 3e d5 0b 95 3d 7e 81 30 be b3 15 89 3c
       0.1554618 0.072776474 -0.17236897 0.01673398
000250 26 a9 8c bf c2 0b 93 be df 77 8a bf b1 30 c9 3e
       -1.098912 -0.28719908 -1.0817832 0.3929496
000260 d3 7c ec 3e f9 8b 99 bd e1 32 32 be d5 9f 22 bf
       0.46188983 -0.07497401 -0.17402221 -0.63525134
000270 09 54 a0 be 27 8c 8a bd 88 08 1f be 72 3c 9c 3e
       -0.31314114 -0.06765013 -0.15530598 0.30514866
000280 38 95 c0 be 39 5f cb bd 3d e5 e3 be 1a 4b 94 3e
       -0.37613845 -0.09930272 -0.44510832 0.28963548
000290 95 55 9d be a4 eb d9 3e 9b 76 83 bf 15 d2 1d bf
       -0.30729356 0.42562592 -1.027057 -0.61648685
0002a0 d0 6b f6 3d 33 cc ab 3e 3e f3 2a 3e 9a a9 06 3f
       0.12032282 0.3355423 0.16694352 0.5260254
0002b0 bd 9d be be ff 11 30 3f 3b d6 ad be c8 d4 c4 bd
       -0.3722972 0.6877746 -0.33952507 -0.09610897
0002c0 b0 d6 23 bf 6d 5a 2f be cf 3c d8 3e 80 e4 e2 be
       -0.6399946 -0.17124338 0.42233893 -0.44314957
0002d0 c3 3b 9e 3e f2 54 0a bf e4 56 de 3d 45 7b c8 3c
       0.3090497 -0.54035866 0.10856417 0.024472842
0002e0 6a 88 03 3f f7 a7 ca 3e f8 4b 9a bf a2 4c bc be
       0.51380026 0.39581272 -1.2054434 -0.36777216
0002f0 81 cf 15 3f f6 a5 c1 3e 9c 2c c7 be db 97 e2 3e
       0.5851975 0.3782193 -0.38901222 0.44256482
000300 bb 7c a3 bf 43 0a 05 bf e7 b3 cf be da 2e 23 3f
       -1.277244 -0.51968783 -0.40566942 0.63743365
000310 a0 e5 33 be 3c 11 5a be 95 5a 8e 3e 87 7a 55 3b
       -0.17568064 -0.21295637 0.27803484 0.0032574253
000320 fd 04 d2 3e 98 7f c1 be 06 8e 81 bd d5 7c fc bd
       0.4101943 -0.3779266 -0.06325917 -0.12328497
000330 f0 fb c0 3e 78 f1 4c bc fc af db 3e cd 2c f4 3d
       0.37692213 -0.0125087425 0.42907703 0.119226076
000340 73 d0 3b 3e 75 08 db be 6d 74 15 bd b2 9c 71 3f
       0.18341236 -0.4277989 -0.036487985 0.94379723
000350 4e 9a 96 3e 1f 8d e8 3e 02 d5 41 3f 50 71 5b 3e
       0.294146 0.45420167 0.7571565 0.21429944
000360 28 fa 0f 3e 56 7b 6b bf 47 59 89 bf 35 a0 74 bf
       0.14060271 -0.9198507 -1.073037 -0.95556957
000370 5f 2c a9 bd c7 98 81 bf e5 06 02 be 69 d8 97 bf
       -0.08260416 -1.0124749 -0.12697943 -1.1862918
000380 66 f5 aa 3e cf 2d 36 3f 03 dc 5e be ef 6f 98 3e
       0.3339035 0.7116365 -0.21763615 0.297729
000390 44 a1 76 3c 9c f8 37 be e5 ff 72 3f f4 31 8c bf
       0.015053097 -0.1796593 0.94921714 -1.0952744
0003a0 e0 3f 32 3d 93 86 52 3e c7 f4 57 3f ac a3 87 3f
       0.043517947 0.20559148 0.84357876 1.0596824
0003b0 a0 33 65 3d db c0 29 3e 69 47 10 3e 0a 86 99 be
       0.055957437 0.16577475 0.14089741 -0.29985076
0003c0 d1 0c 86 be 7e 68 27 3e 3e 6b c3 3e 90 ee 32 be
       -0.26181653 0.16348454 0.38167757 -0.17473817
0003d0 ff 46 62 3e f5 5f 85 3d 3a 10 0b 3f 8d f7 00 3f
       0.22097395 0.06512443 0.54321635 0.5037773
0003e0 8a 06 48 3f f8 cc f6 bd 16 6c 8c be 16 88 de be
       0.7813498 -0.120508134 -0.27426213 -0.434632
0003f0 d5 09 e8 3e 6c 39 0f be 2c 5e 9f 3d cc 8e 9c 3e
       0.4532 -0.13986748 0.07781634 0.30577695

decoder_net.0.bias f4 [512]
000000 96 2c 00 3f 41 ce 04 3f c7 58 01 3f aa ad fd 3e
       0.5006803 0.5187722 0.5052609 0.49546558
000010 05 25 ff 3e d8 f5 04 3f 61 ac f9 3e ae ee fc 3e
       0.4983293 0.5193763 0.48764327 0.49400848
000020 2e 52 fc 3e 17 e2 01 3f cf 43 f7 3e ff 6e 07 3f
       0.49281448 0.5073561 0.4829392 0.5290374
000030 66 2c 02 3f 1e f8 fd 3e aa ad fd 3e 5b 9e 00 3f
       0.50848997 0.4960336 0.49546558 0.5024163
000040 b9 f1 fb 3e 06 62 fc 3e aa ad fd 3e 3e bf f9 3e
       0.49207857 0.49293536 0.49546558 0.4877872
000050 aa ad fd 3e 64 6b 00 3f 28 a1 04 3f 6f 74 03 3f
       0.49546558 0.50163865 0.51808405 0.5134954
000060 da 81 e4 3e 59 58 f7 3e c0 d3 00 3f 4a 4d 01 3f
       0.4463032 0.4830959 0.50323105 0.5050856
000070 5c d9 f8 3e f5 21 04 3f de c0 f9 3e aa ad fd 3e
       0.48603332 0.51614314 0.48779958 0.49546558
000080 b3 91 03 3f c5 a7 f7 3e f4 f5 fa 3e 63 ed 0a 3f
       0.51394194 0.48370185 0.49015772 0.54268473
000090 93 12 ff 3e b9 ca fe 3e aa ad fd 3e aa ad fd 3e
       0.49818859 0.4976404 0.49546558 0.49546558
0000a0 7f 9b 01 3f dd 9d 02 3f aa ad fd 3e aa ad fd 3e
       0.50627893 0.5102213 0.49546558 0.49546558
0000b0 de df f8 3e 1e 4c fa 3e 38 60 01 3f aa ad fd 3e
       0.48608297 0.48886198 0.50537443 0.49546558
0000c0 33 d4 f5 3e aa ad fd 3e f3 f2 f4 3e cf d3 03 3f
       0.48013458 0.49546558 0.47841606 0.5149507
0000d0 a3 2c f6 3e aa ad fd 3e a9 ce 01 3f 39 45 fa 3e
       0.4808093 0.49546558 0.50705963 0.48880938
0000e0 1a 10 f9 3e aa ad fd 3e a6 8d f6 3e 6c ba fb 3e
       0.48645097 0.49546558 0.48154944 0.49165666
0000f0 aa ad fd 3e c3 93 f6 3e 12 d6 00 3f 5e 0c 02 3f
       0.49546558 0.48159608 0.50326645 0.5080012
000100 aa ad fd 3e 5c 78 ff 3e 52 be 02 3f 9d 47 fe 3e
       0.49546558 0.49896514 0.51071656 0.49664012
000110 85 64 03 3f 7c d0 f4 3e 8f 23 00 3f 9d 70 06 3f
       0.51325256 0.4781531 0.5005426 0.52515584
000120 d3 19 00 3f 50 03 03 3f 8d ea fb 3e 4a 56 04 3f
       0.50039405 0.5117693 0.49202386 0.51694167
000130 aa ad fd 3e 95 3d ff 3e 96 f7 f7 3e 4f d3 f6 3e
       0.49546558 0.4985167 0.4843108 0.4820809
000140 9c e5 02 3f aa ad fd 3e ed 53 f9 3e 1d d2 ed 3e
       0.51131606 0.49546558 0.48696843 0.46449366
000150 aa ad fd 3e 44 19 04 3f aa ad fd 3e aa ad fd 3e
       0.49546558 0.5160105 0.49546558 0.49546558
000160 08 6d fa 3e dd 54 02 3f 83 46 f2 3e 6d bf 00 3f
       0.4891131 0.5091074 0.4731942 0.5029209
000170 a5 0e f7 3e c9 59 fc 3e aa ad fd 3e 7a 4d 05 3f
       0.4825336 0.4928725 0.49546558 0.52071345
000180 f4 4b fc 3e 82 47 f4 3e 04 06 fc 3e 1c 4e f6 3e
       0.49276698 0.47710806 0.4922334 0.48106468
000190 fd dd f4 3e bd db f2 3e aa ad fd 3e 15 75 f9 3e
       0.47825614 0.47433272 0.49546558 0.4872214
0001a0 34 d5 02 3f aa ad fd 3e 1c 52 fc 3e bb 51 f8 3e
       0.5110657 0.49546558 0.49281394 0.48499855
0001b0 fd 76 fa 3e 21 65 03 3f 30 1d 06 3f 2d b1 fb 3e
       0.48918906 0.51326185 0.52388287 0.49158612
0001c0 e5 12 f2 3e 7e 69 02 3f 05 20 01 3f 08 dd fd 3e
       0.4728004 0.5094222 0.5043948 0.49582696
0001d0 04 05 f9 3e 39 b0 eb 3e aa ad fd 3e b3 16 fa 3e
       0.4863664 0.46032885 0.49546558 0.48845443
0001e0 aa ad fd 3e b0 e5 f5 3e bc fd 05 3f a7 d7 f4 3e
       0.49546558 0.480268 0.5234029 0.4782078
0001f0 c3 5b 07 3f aa ad fd 3e 8c db fd 3e da 53 f9 3e
       0.5287439 0.49546558 0.49581563 0.48696786
000200 8a 08 fc 3e aa ad fd 3e d7 f7 02 3f 9b 11 f7 3e
       0.49225265 0.49546558 0.51159424 0.4825562
000210 aa ad fd 3e aa ad fd 3e 1d ae fb 3e e8 4c 06 3f
       0.49546558 0.49546558 0.49156275 0.524611
000220 ed b3 02 3f 6d 6e fb 3e e1 e7 ef 3e b2 37 f6 3e
       0.51055795 0.49107686 0.46856597 0.48089367
000230 39 43 03 3f e7 e9 0a 3f da 0c fa 3e 5e cc f8 3e
       0.5127445 0.54263157 0.4883793 0.4859342
000240 4e 3b 04 3f 5a 8c f5 3e aa ad fd 3e 71 17 fc 3e
       0.5165299 0.47958642 0.49546558 0.49236634
000250 86 b7 f9 3e 42 05 01 3f aa ad fd 3e 9f 53 fb 3e
       0.4877283 0.5039865 0.49546558 0.49087235
000260 f4 b8 ff 3e 46 8d f8 3e aa ad fd 3e 6b c1 f9 3e
       0.49945796 0.48545283 0.49546558 0.4878038
000270 4c b7 00 3f 78 4d f8 3e 41 82 f7 3e be 0e f3 3e
       0.5027969 0.48496604 0.48341563 0.47472185
000280 5b 99 fc 3e aa ad fd 3e 58 25 f6 3e db 21 04 3f
       0.4933575 0.49546558 0.48075366 0.5161416
000290 4f a8 fd 3e 37 b5 00 3f 81 ec fa 3e b4 8e ec 3e
       0.49542472 0.5027651 0.49008563 0.46202624
0002a0 58 61 fd 3e 99 04 02 3f 20 cb f5 3e b3 2d f8 3e
       0.4948833 0.50788265 0.48006535 0.48472366
0002b0 8f 08 00 3f aa ad fd 3e aa ad fd 3e 78 c3 05 3f
       0.5001306 0.49546558 0.49546558 0.52251387
0002c0 43 d0 00 3f 92 3e fa 3e 0d 7b f8 3e 67 f5 01 3f
       0.5031778 0.48875862 0.4853138 0.5076508
0002d0 dc 91 f9 3e 31 3d fe 3e 7f 31 fa 3e dc d0 f2 3e
       0.48744094 0.4965606 0.48865888 0.47424972
0002e0 45 7c 01 3f f3 f6 fd 3e 72 7c f7 3e a8 67 fa 3e
       0.50580245 0.4960247 0.48337132 0.48907208
0002f0 49 1b 09 3f aa ad fd 3e 9f af 0d 3f c6 40 01 3f
       0.5355726 0.49546558 0.553461 0.5048946
000300 40 52 ee 3e 97 9a 01 3f ae 85 f4 3e 29 8d f7 3e
       0.46547127 0.5062651 0.4775824 0.48349884
000310 42 32 fa 3e 90 2a f7 3e aa ad fd 3e 51 96 f9 3e
       0.4886647 0.4827466 0.49546558 0.48747495
000320 1c ae ff 3e 7d 21 01 3f cb 1a f2 3e 4b b9 03 3f
       0.49937522 0.50441724 0.47286066 0.5145461
000330 03 09 ff 3e e7 35 06 3f 46 28 f7 3e aa ad fd 3e
       0.49811563 0.52426 0.48272914 0.49546558
000340 9f b7 04 3f 30 1f 07 3f 98 fc fa 3e 12 e9 f3 3e
       0.51842684 0.52781963 0.4902084 0.47638756
000350 aa ad fd 3e aa ad fd 3e 25 f7 f2 3e aa ad fd 3e
       0.49546558 0.49546558 0.4745418 0.49546558
000360 15 3a 01 3f 31 3b ff 3e 1a 78 f5 3e 14 2a 00 3f
       0.5047925 0.49849847 0.47943193 0.50064206
000370 11 fc fd 3e 21 6c f6 3e 3c e9 e7 3e 62 ec f6 3e
       0.49606374 0.4812937 0.4529513 0.4822722
000380 f9 a1 05 3f 43 5a f9 3e b5 e1 f8 3e 57 82 02 3f
       0.52200276 0.48701677 0.486097 0.5098013
000390 aa ad fd 3e 2d c4 00 3f 06 a0 f7 3e aa ad fd 3e
       0.49546558 0.5029934 0.48364276 0.49546558
0003a0 ce 30 04 3f 8a 12 f7 3e e5 d2 fc 3e 28 62 f8 3e
       0.5163697 0.48256332 0.4937965 0.48512387
0003b0 aa ad fd 3e 2e 5d 02 3f 6c 91 fa 3e aa ad fd 3e
       0.49546558 0.5092343 0.48939073 0.49546558
0003c0 6b 82 01 3f 4b bc ff 3e aa ad fd 3e f0 3e f9 3e
       0.5058963 0.49948344 0.49546558 0.4868083
0003d0 aa ad fd 3e 41 4a f4 3e ac d1 06 3f 1b ac 02 3f
       0.49546558 0.477129 0.52663684 0.5104386
0003e0 56 fd ec 3e f8 1d 05 3f aa ad fd 3e 6a 92 e7 3e
       0.4628703 0.51998854 0.49546558 0.45228893
0003f0 05 81 f0 3e 74 01 fd 3e aa ad fd 3e 19 8c ff 3e
       0.46973434 0.4941517 0.49546558 0.49911574

decoder_net.2.weight f4 [512]
000000 e6 89 80 3f 59 02 8c 3f 82 53 7d 3f bf 5a 78 3f
       1.0042083 1.0938216 0.9895555 0.9701347
000010 06 10 5c 3f a3 7e 88 3f d4 7e 7b 3f a9 bd 83 3f
       0.8596195 1.0663646 0.982404 1.0292255
000020 69 94 80 3f b5 f9 71 3f 8a 37 7e 3f 99 1c 8a 3f
       1.0045291 0.9452165 0.99303496 1.0789977
000030 27 49 7d 3f 48 0f 82 3f 8f 5f 7c 3f c7 17 88 3f
       0.98939747 1.0160913 0.9858331 1.0632256
000040 cd e1 7e 3f a1 63 7d 3f e2 df 7a 3f 1e b9 7e 3f
       0.99563295 0.98980147 0.9799787 0.99501216
000050 42 1d 81 3f f9 62 6e 3f c5 4e 84 3f f7 eb 7e 3f
       1.0087054 0.9311977 1.0336539 0.99578804
000060 f6 75 62 3f de e1 78 3f de 56 7c 3f 74 e3 7e 3f
       0.88461244 0.97219646 0.9857005 0.99565816
000070 4d 28 76 3f 13 d6 7d 3f 2e fb 7d 3f 42 89 7b 3f
       0.96155244 0.99154776 0.99211395 0.98256314
000080 b7 19 80 3f 53 5c 77 3f cf 3a 80 3f a9 b3 82 3f
       1.0007848 0.9662525 1.0017947 1.0211078
000090 1b 83 79 3f 7c 9c 78 3f b2 f6 81 3f 67 29 7d 3f
       0.97465676 0.97113776 1.015341 0.988913
0000a0 41 b6 80 3f e3 dd 82 3f 3d 8f 7b 3f f3 8c 80 3f
       1.005562 1.0223964 0.9826544 1.0043014
0000b0 77 b5 7d 3f 4e 22 81 3f 06 ee 8d 3f 5e 0e 7d 3f
       0.9910502 1.0088594 1.1088264 0.9885005
0000c0 86 85 82 3f ee 9f 7d 3f 03 94 65 3f 79 9a 8a 3f
       1.0196998 0.9907216 0.8967897 1.0828391
0000d0 4d e4 7f 3f 91 a1 79 3f c1 53 72 3f 76 29 71 3f
       0.99957734 0.97512156 0.9465905 0.9420389
0000e0 44 6c 80 3f 7e 84 7f 3f 8b 56 7b 3f 2d 80 7b 3f
       1.003304 0.9981154 0.9817893 0.98242456
0000f0 41 96 80 3f 5a 14 76 3f c1 6f 7c 3f 61 fb 7b 3f
       1.0045854 0.96124804 0.9860802 0.9843045
000100 68 a6 7c 3f a9 a1 7a 3f 04 f9 81 3f 0c d2 7a 3f
       0.98691416 0.97902924 1.0154119 0.97976756
000110 7b c4 72 3f 64 c7 79 3f 04 5a 79 3f a4 1e 80 3f
       0.94831055 0.9756987 0.9740298 1.0009351
000120 f5 48 7b 3f 81 c5 80 3f db f7 82 3f 81 dc 7d 3f
       0.981582 1.0060273 1.023189 0.9916459
000130 f1 3f 7e 3f e2 59 6f 3f ce cc 7c 3f fb 53 7f 3f
       0.99316317 0.93496525 0.9875001 0.9973752
000140 8f 08 7c 3f 24 1e 82 3f 6b a8 7b 3f d6 71 81 3f
       0.9845056 1.0165448 0.9830386 1.0112865
000150 7a 91 7d 3f 0f b0 7f 3f 3c 74 7d 3f 01 a9 7e 3f
       0.99050105 0.9987802 0.99005485 0.9947663
000160 cc a1 7f 3f fe eb 8b 3f 99 bf 7e 3f 91 91 79 3f
       0.9985626 1.0931394 0.99511105 0.9748774
000170 a7 b4 7f 3f 49 7f 7b 3f cf 69 7b 3f 54 f7 79 3f
       0.9988503 0.98241097 0.98208326 0.9764302
000180 79 da 7f 3f bc e0 7d 3f 52 11 7e 3f 7f d3 73 3f
       0.9994274 0.9917104 0.9924518 0.9524459
000190 ce 64 7f 3f 7d c7 6f 3f 86 22 7f 3f d0 04 79 3f
       0.9976319 0.9366377 0.99662054 0.9727297
0001a0 50 90 89 3f 9d 32 7e 3f 97 b4 81 3f 80 a4 7c 3f
       1.0747166 0.9929598 1.0133237 0.9868851
0001b0 31 c7 87 3f 5f 85 83 3f 56 e1 79 3f 12 a8 80 3f
       1.0607663 1.0275077 0.9760946 1.0051291
0001c0 43 7d 7c 3f 67 a7 84 3f 7d 8c 7f 3f a5 4a 72 3f
       0.98628634 1.0363587 0.99823743 0.9464515
0001d0 1a 0e 7c 3f aa b3 77 3f 6b ee 81 3f b4 2b 82 3f
       0.9845902 0.9675852 1.0150884 1.0169587
0001e0 24 eb 81 3f d3 b9 7f 3f db 9a 82 3f eb 83 80 3f
       1.0149884 0.9989292 1.0203508 1.0040258
0001f0 6e ac 66 3f d3 ab 7a 3f 6e aa 8c 3f 2c fc 7a 3f
       0.90106857 0.9791843 1.0989511 0.98041034
000200 a1 b5 75 3f e4 53 7e 3f 54 79 7a 3f 22 88 81 3f
       0.9598027 0.99346757 0.9784138 1.011967
000210 da 4d 82 3f d9 66 7c 3f 6c c5 7e 3f 6b b0 7e 3f
       1.0180008 0.98594433 0.9951999 0.9948794
000220 7d 4f 80 3f 58 99 7d 3f ad b4 7e 3f 72 b2 7c 3f
       1.0024258 0.9906211 0.9949444 0.98709786
000230 30 60 71 3f 1d c2 7b 3f 71 16 85 3f 7e 29 7b 3f
       0.94287395 0.9834307 1.0397474 0.9811019
000240 30 4d 58 3f 7e 96 7f 3f 5d 5c 7e 3f 93 78 7a 3f
       0.8449278 0.9983901 0.99359685 0.9784023
000250 6a ae 77 3f 1f 56 7c 3f c9 34 7a 3f 03 39 82 3f
       0.9675051 0.9856891 0.97736794 1.0173649
000260 f0 83 80 3f ad 9a 73 3f b7 c5 7a 3f ca 44 77 3f
       1.0040264 0.9515789 0.9795794 0.9658934
000270 02 1d 7f 3f 3a 75 81 3f 98 43 81 3f fb 35 80 3f
       0.9965364 1.01139 1.0098753 1.0016474
000280 39 00 7d 3f 1e fa 77 3f 1b 7d 7a 3f f9 a3 82 3f
       0.98828465 0.96866024 0.97847146 1.020629
000290 24 3c 6c 3f c3 27 81 3f 19 6e 77 3f 19 e7 73 3f
       0.9227927 1.0090259 0.9665237 0.952745
0002a0 83 b0 65 3f b7 f7 7e 3f 2c f4 63 3f 9d c1 7f 3f
       0.8972246 0.9959673 0.8904445 0.99904805
0002b0 18 0c 7c 3f 0b 90 7b 3f 82 ab 7e 3f b8 b0 82 3f
       0.98455954 0.9826667 0.9948045 1.021018
0002c0 52 a4 7b 3f 57 76 81 3f d5 91 86 3f 31 4e 76 3f
       0.9829761 1.011424 1.0513254 0.9621306
0002d0 0b 7f 80 3f 1f f4 7a 3f 75 47 7e 3f 57 2b 7c 3f
       1.003877 0.9802875 0.99327785 0.9850363
0002e0 db 16 81 3f ce 86 7e 3f da e2 78 3f 5e 1d 7d 3f
       1.00851 0.99424446 0.9722115 0.98872936
0002f0 c8 1f 82 3f 02 53 81 3f ff d9 81 3f 75 d3 84 3f
       1.0165949 1.0103457 1.0144652 1.0377032
000300 5d 4b 7b 3f f6 06 7d 3f cd f6 7c 3f 7c fc 74 3f
       0.9816187 0.98838747 0.9881409 0.9569776
000310 90 6a 65 3f 70 2c 79 3f 65 4a 7b 3f 24 ff 82 3f
       0.89615726 0.9733343 0.9816039 1.0234113
000320 9e 3c 7b 3f 1a 66 80 3f 23 d5 68 3f a5 06 80 3f
       0.9813937 1.0031159 0.9095022 1.0002028
000330 f0 a8 85 3f 3e ee 7d 3f bf f6 77 3f ea 19 7c 3f
       1.0442181 0.99191654 0.9686088 0.9847704
000340 2d 30 82 3f a8 b8 80 3f c5 92 75 3f 7c ac 7b 3f
       1.0170952 1.0056353 0.9592708 0.98310065
000350 eb f8 7b 3f 72 02 7e 3f 2b c6 7e 3f cf 14 80 3f
       0.98426694 0.9922248 0.9952113 1.000635
000360 4b d2 95 3f 7b 71 7f 3f e2 96 6d 3f 06 88 7d 3f
       1.1704801 0.9978253 0.92808354 0.9903568
000370 8a e9 7c 3f 56 5a 7d 3f ca 68 7a 3f 66 3b 81 3f
       0.9879385 0.98965967 0.97816145 1.0096252
000380 1d d2 7b 3f 97 de 78 3f 96 28 79 3f 92 ee 7c 3f
       0.9836748 0.97214645 0.97327554 0.9880153
000390 99 0d 7b 3f 85 1c 7f 3f ab ce 7d 3f 73 73 81 3f
       0.98067623 0.9965289 0.99143475 1.0113357
0003a0 97 1e 7e 3f 70 15 79 3f 7f fe 7f 3f 37 c4 77 3f
       0.99265426 0.97298336 0.99997705 0.96783775
0003b0 20 a0 81 3f 1e f7 80 3f d0 3c 71 3f 85 6e 82 3f
       1.0126991 1.0075414 0.9423342 1.0189978
0003c0 e1 ed 72 3f f6 d8 7d 3f 8c 77 80 3f 9b 0f 80 3f
       0.94894224 0.9915918 1.0036483 1.0004762
0003d0 76 07 7b 3f 77 0a 7a 3f 3e ea 85 3f 5d 61 80 3f
       0.9805826 0.9767222 1.046211 1.0029713
0003e0 69 e9 78 3f 85 c3 80 3f fd 3b 80 3f f5 c4 71 3f
       0.97231156 1.0059668 1.0018307 0.9444116
0003f0 f6 da 77 3f e6 27 6e 3f 4c d8 78 3f a6 f4 72 3f
       0.9681848 0.9302963 0.9720504 0.94904554

decoder_net.2.bias f4 [512]
000000 d4 3a 62 bc a2 5b 87 3c e8 7d 28 3b dc 30 a7 3c
       -0.013807971 0.016523186 0.0025709812 0.02040904
000010 a3 1b 2c 3b 7d c3 93 bc b3 c2 06 bc 91 ca 82 bc
       0.002626159 -0.018037552 -0.008225131 -0.015965732
000020 cd 90 78 bc 4c 9b 32 3c 0a 5c 10 bb ad 73 17 bc
       -0.015171242 0.0109012835 -0.0022027516 -0.009243888
000030 21 05 73 3c 49 65 bb bc 9d 0c 98 3b a5 a8 e4 bc
       0.014832766 -0.022875445 0.0046401755 -0.027912447
000040 ac 37 c2 bb 10 d6 02 bb 2b 96 3f 3c 2b 31 91 bb
       -0.0059270468 -0.0019964017 0.011693518 -0.00443091
000050 dc 4c 99 bc 2a d3 cf 3b a6 3c c3 3c b3 d7 9d 3c
       -0.018713407 0.0063423114 0.02383263 0.019267892
000060 2a 24 70 bc 44 37 3b 3c b6 b5 b6 3b a6 ab 16 3c
       -0.01465706 0.011426751 0.005575861 0.009196198
000070 97 0c c8 3c 7e 84 b6 3c eb 42 67 ba 29 45 04 3c
       0.024420066 0.022279974 -0.0008821922 0.00807313
000080 6a 72 8c 3c be 7f 75 bc 2d 83 3c bc 14 43 e7 3b
       0.0171444 -0.014984069 -0.011505884 0.007057557
000090 e9 61 00 3b 5c 1c 55 3a d6 cd c8 bc 9b 0c 0a 3b
       0.001958961 0.0008129531 -0.024512213 0.0021064642
0000a0 2a f2 23 3c 8a 83 88 3c 49 55 03 3c 8f 14 6a bc
       0.010006467 0.016664285 0.008015939 -0.014287128
0000b0 05 f1 32 ba 0d 01 99 bc 36 d7 a1 bc aa 97 21 3b
       -0.0006826076 -0.018677259 -0.01975594 0.002465705
0000c0 e0 52 87 bc 1a da ab b9 12 b9 9c bc c9 14 03 3d
       -0.01651901 -0.0003277816 -0.019131217 0.032002244
0000d0 98 b6 11 bc d7 d9 7b 3c c3 7b f0 3b 84 d8 f7 3a
       -0.008893631 0.015371761 0.0073389723 0.0018909131
0000e0 f1 da 8b bc a6 1b f6 bb 22 96 66 bc 46 0d 6f bb
       -0.017072173 -0.00751062 -0.01407388 -0.0036476417
0000f0 d7 c0 68 bc 7d 72 80 bc 3a 65 a5 3b 59 7c 51 3c
       -0.014206133 -0.015679592 0.0050474675 0.012785994
000100 2c e1 8a 3b 00 3b 56 3c 95 97 be bc 60 49 1d ba
       0.0042382684 0.01307559 -0.02326564 -0.00060000084
000110 65 9f 89 3c 77 a3 77 3c 55 18 c5 3b c7 2a 02 bc
       0.016799638 0.015114657 0.0060148635 -0.007944769
000120 c4 13 a3 3b 8a 44 94 3c 71 5d ce bb cd a1 00 3c
       0.0049767215 0.018099088 -0.00629776 0.007851076
000130 1b b0 39 bb bd ca 8e 3a 43 0f 51 bc 03 e8 35 bc
       -0.0028333727 0.0010894161 -0.012759986 -0.011102679
000140 da e0 85 3c 33 2a d7 bc c3 17 ff 3b cc 97 b4 bc
       0.01634257 -0.02626524 0.007784815 -0.022045039
000150 f9 c6 85 b7 87 2c 0c bc 73 15 e6 39 a4 c0 5f bb
       -1.594749e-05 -0.008555538 0.00043885 -0.0034141922
000160 64 62 03 bc 34 aa 4c 3c f8 65 bf bb 0c 96 ab 3b
       -0.008019064 0.012491751 -0.005841013 0.005236393
000170 58 e8 0b bc 6c c8 14 bb f4 1d 17 3c d9 81 76 3c
       -0.008539282 -0.0022702469 0.00922345 0.0150456065
000180 78 ff 12 bc ba d2 02 bc 02 39 15 bb 9e 4d 6f bc
       -0.008972041 -0.007984811 -0.0022769575 -0.014605908
000190 4b e8 3f bc 20 40 b5 bc 3b f2 b9 bb f5 89 55 bc
       -0.011713098 -0.022125304 -0.005674628 -0.01303338
0001a0 4b 33 5a 3c fc ba 44 bb b1 d3 bc bc 33 d3 68 3b
       0.013317893 -0.0030018678 -0.023050161 0.0035526275
0001b0 1f 2f ae bb fb 18 a8 3c 27 d2 6d 3c a1 a6 80 bc
       -0.005315676 0.020519724 0.014515436 -0.015704455
0001c0 85 ff 1e 3b 61 67 67 3c 17 fe e4 3b cd 1a b4 ba
       0.0024261188 0.014123769 0.0069882977 -0.0013740897
0001d0 2c 11 0c bc 0d 09 4c bc f3 29 c7 bc 3e b7 d7 bc
       -0.008549016 -0.01245333 -0.024311995 -0.026332494
0001e0 5f 4d cb bc 6e 5c 36 bc 5b 3a 90 3c 56 39 9a bc
       -0.024817167 -0.011130435 0.017605951 -0.018826168
0001f0 ce 8f b5 3c 11 1b 3a 3c ee bd 0e 39 70 21 18 3c
       0.022163298 0.011358992 0.0001361293 0.009285316
000200 7e ec ac bb 52 9f 3a bb 28 f0 86 3c 55 db ac bc
       -0.0052772155 -0.002847631 0.016471937 -0.02110068
000210 f2 cb e3 bc a4 47 9f 3b 73 f5 8f bb 8a c7 a5 bb
       -0.02780721 0.004860835 -0.0043932735 -0.0050591873
000220 0f dd e3 3a 95 51 93 bb ba 7b 28 bc 50 99 19 3b
       0.0017384606 -0.0044958093 -0.010283405 0.0023437329
000230 20 f1 94 3c 6e e8 c0 3c 78 ec 2d bc ea e5 29 bc
       0.018181384 0.023548331 -0.010615461 -0.010369757
000240 f5 c5 b3 3c b2 f5 03 bc 60 5e 40 bb 8f 6a a4 bb
       0.02194498 -0.008054184 -0.0029353127 -0.0050175856
000250 d4 d8 71 bc 0c 6a d8 3b b8 1e 5e 3c f7 9a dd bc
       -0.0147611685 0.0066044386 0.013557129 -0.027051432
000260 bc 1c 8a bc d1 4b 3f bc 33 04 39 3c 8a 8e 1d bc
       -0.016859405 -0.011675791 0.011292505 -0.0096165035
000270 96 45 03 3c 38 d2 aa bc b9 50 9d bc 6a 62 3e bc
       0.008012196 -0.020852193 -0.01920353 -0.011620143
000280 84 c7 82 ba 45 76 b5 3c a7 9d 61 bc f7 78 86 bc
       -0.0009977673 0.022151122 -0.013770497 -0.016415102
000290 48 16 e1 b9 d1 bf 8e bc 59 8c cd bb 6f 8c d5 bb
       -0.00042931945 -0.01742545 -0.0062728343 -0.006516985
0002a0 d2 16 5f 3a 14 e8 62 3c 16 bc 90 bc 67 90 0b bc
       0.00085101754 0.013849277 -0.017667811 -0.008518315
0002b0 ae 6a ad 3b c4 8e 06 3c 25 97 90 bb bd 36 26 3b
       0.005292258 0.008212749 -0.004412549 0.0025362216
0002c0 2a 87 d7 3b 22 12 ab bc 98 18 76 bc d2 c0 2e 3c
       0.006577392 -0.02088267 -0.015020512 0.010666089
0002d0 4d db 75 bc 96 f9 27 3c 57 29 30 bb 55 bc 89 3b
       -0.015005899 0.010252377 -0.002688011 0.004203359
0002e0 cb 6f 2f 3c 61 ea c4 3a 92 52 90 3c 27 fa e0 3a
       0.010707806 0.0015023464 0.017617498 0.0017164395
0002f0 18 3b 17 3d 85 de a1 bc 0b e4 7f bb 48 c1 82 3b
       0.03692159 -0.019759426 -0.0039045836 0.003990326
000300 c3 b5 99 3b 03 92 32 3c 7c 45 21 3b c0 41 5d bc
       0.004690857 0.01089907 0.0024608066 -0.013504446
000310 b4 dc 05 bc cf f1 c7 3b e3 94 10 3c f6 a0 09 bd
       -0.0081702955 0.006101824 0.00882456 -0.03360077
000320 2d 52 1a 3c 75 f0 52 bc 23 16 7f bb 36 51 a2 3c
       0.009419006 -0.012874712 -0.0038923107 0.019814115
000330 f9 09 73 3a 3e dd 39 3c ec 1d 48 bc a8 2d a3 3b
       0.00092712004 0.011344252 -0.012214165 0.004979808
000340 86 bf c2 3c b0 04 f0 3c 14 64 5c ba 9d 84 c2 3b
       0.023772966 0.02929911 -0.0008407247 0.005936219
000350 17 37 e0 3b 5c f8 65 ba 36 59 b2 bb c5 d6 23 bc
       0.0068425047 -0.0008772665 -0.0054427637 -0.0099999355
000360 03 43 1c 3c 51 f7 37 3b 5a 35 88 3c 33 c0 ff 3b
       0.009537461 0.0028070996 0.016627003 0.0078048944
000370 e1 1d 48 3b d2 f3 80 3a 96 26 43 bc fb 5c 9e bc
       0.0030535387 0.0009838289 -0.011911055 -0.019331446
000380 d5 62 ea 3b 3a 52 05 bc e1 ce 91 3c 28 fd 8d 3c
       0.007152895 -0.00813728 0.017798843 0.017332628
000390 81 bd 23 3c cc 2a 99 3b 6f e2 2f bc a7 9b ad bc
       0.009993912 0.0046742912 -0.010735138 -0.021192385
0003a0 72 1f bc 3c d9 db 91 3c 10 32 1e bc df 35 33 bc
       0.022964213 0.017805027 -0.0096554905 -0.010938137
0003b0 12 18 b9 bc c1 d0 67 3c 20 25 c8 bb 29 85 e8 bc
       -0.022594485 0.014148892 -0.0061079413 -0.028383808
0003c0 f9 6e 37 3c c2 c4 a1 3b 08 eb 52 bc 99 6a 0e bc
       0.011195892 0.0049367854 -0.012873419 -0.008692407
0003d0 0b f7 21 3c 39 0c 23 3c 0f 62 cb 3b ce 07 4c bb
       0.00988556 0.009951645 0.006206758 -0.0031132582
0003e0 cc 7b 6b 3c 78 4c 97 3c 4e e4 3f bc 7d 4b 34 bd
       0.014372777 0.01846908 -0.011712147 -0.044017304
0003f0 37 61 e2 bc ed ab c8 3a 29 84 98 3c f9 16 37 3c
       -0.027634246 0.0015310027 0.018617706 0.011174911

decoder_net.3.weight f4 [256, 512]
000000 10 5d 37 3e 09 84 8b 3f 08 d5 76 3e ca 25 0b bd
       0.17906594 1.0899669 0.24104702 -0.033971585
000010 06 9b ea 3e 41 82 90 be 5f 6f 2a 3e 43 d9 d6 bc
       0.45821398 -0.28224376 0.16644047 -0.026226645
000020 18 1d e3 3e e3 41 73 3f 39 63 5f be 59 3d 1b 3f
       0.44358134 0.9502241 -0.21815194 0.60640484
000030 53 f5 09 be 80 d5 13 3f 66 b3 31 3f 3f 22 4c bd
       -0.1347249 0.5774765 0.69414365 -0.049837347
000040 bb 20 a5 bd 5e 51 f5 3c 7a 5c 50 3c 4f 9f ef bd
       -0.080628835 0.029946025 0.012717361 -0.117003076
000050 0d 2b 26 3f 96 ef 88 3e 78 a3 c6 3d 75 5a 24 bf
       0.6490944 0.2674529 0.09699148 -0.64200526
000060 0a ff 4d bf a4 4a 53 be 02 d7 b1 3e ea d0 8f be
       -0.80467284 -0.20633942 0.3473435 -0.28089076
000070 4b 57 cb 3c cb 4b 6b be da 57 2b bf 25 1f 7b 3f
       0.024821898 -0.22978131 -0.66930926 0.980944
000080 87 65 d3 3d 4b 33 2d 3e fa e8 0d bd b5 d5 4d bf
       0.10322099 0.16914098 -0.034646012 -0.80404216
000090 9b 43 d0 be 89 42 b3 3d 61 21 ca be eb 2d 84 3e
       -0.4067658 0.08752925 -0.3947859 0.25816283
0000a0 c9 30 b7 be 86 eb 2e 39 1a 2e 18 bf 26 f0 6b be
       -0.35779408 0.00016681672 -0.59445345 -0.23040828
0000b0 07 dc 56 be 0a 92 45 3e 6f 92 aa be f7 14 27 bf
       -0.20982371 0.1929399 -0.33314845 -0.65266365
0000c0 62 ba 0f 3d 5f 7d 5c 3f 9d 3c 06 be f7 de a9 3e
       0.035089858 0.861288 -0.1310906 0.3317792
0000d0 b4 33 16 bf 60 fd 9d 3e 14 cf d7 3e 52 46 f5 be
       -0.5867264 0.30857372 0.42150176 -0.47905213
0000e0 22 1e 4d be 71 36 3e be 3e 92 d2 3e 69 7d 1e 3f
       -0.20031026 -0.18575455 0.411272 0.6191011
0000f0 45 df 93 3e 11 82 d5 be 36 fc 32 3f 8c 15 62 38
       0.2888128 -0.41700795 0.69916093 5.3902666e-05
000100 d2 c5 a4 bf f6 b4 e3 bd 26 88 99 3d 93 9d ee 3e
       -1.287287 -0.111185 0.074966714 0.46604595
000110 66 a6 29 be 72 4c 22 bd c4 3b a1 bf c9 bd 29 3e
       -0.16567382 -0.039623685 -1.2596364 0.16576304
000120 ed 6a 06 bf 93 96 26 3f 39 22 e0 be 93 00 7e 3e
       -0.52506906 0.6507351 -0.4377611 0.24804907
000130 98 44 ec be 7c ba 24 3f 75 e9 91 be 5d 14 7d be
       -0.46146083 0.6434705 -0.28498426 -0.24714799
000140 20 fb b9 3d c5 fa e9 3e 48 e5 90 3e 89 85 db 3e
       0.090811014 0.45699134 0.28299928 0.42875317
000150 e8 2c c8 be 32 91 74 be 15 22 1d bf d4 16 5c bf
       -0.3909676 -0.23883513 -0.6138013 -0.8597233
000160 81 4c 4f be c5 18 b1 bf 5b 3f ab be 6b bc 80 be
       -0.20244028 -1.3835684 -0.33446774 -0.25143752
000170 cf 4b 8b bf 87 df 4a bf 80 b4 74 3e cc e8 00 3e
       -1.088251 -0.79247326 0.2389698 0.12588805
000180 b7 a5 8f bf 75 24 9e 3e 5d 36 06 bf 35 fc 82 bc
       -1.1222447 0.3088719 -0.524267 -0.015989402
000190 df 06 56 3f 72 6d b4 bf 6a f9 fc be 7f a3 16 bf
       0.83604234 -1.40959 -0.49409038 -0.58843225
0001a0 67 ba 17 3f 4e e3 e4 be 22 05 c5 3e 94 53 3d 3e
       0.592688 -0.4470467 0.3848048 0.18488914
0001b0 35 a6 f7 3d 9e df 7d be 6a 57 01 3f 24 45 46 3f
       0.12092248 -0.24792334 0.5052401 0.7744925
0001c0 6e f8 0e 3f 8b 81 2b 3f 09 c9 81 3e bb a4 c6 bd
       0.55847824 0.6699454 0.2534869 -0.096993886
0001d0 c0 07 10 3f 6c b1 e5 bc d0 86 69 bf a9 50 77 3e
       0.56261826 -0.028038703 -0.9122133 0.24151863
0001e0 31 d9 30 bf 7a 66 36 3f c8 53 89 bd 0f 3a 10 bf
       -0.6908141 0.71250117 -0.06705433 -0.5633859
0001f0 a8 89 00 be 7c a7 19 3f 4d cb 08 3e 1e c5 16 3f
       -0.12552512 0.60021186 0.13358803 0.58894527
000200 20 ad 84 3e 6f 91 0b 3e cd 7b e9 be e0 88 00 bf
       0.25913334 0.13629697 -0.45602265 -0.50208855
000210 c1 fc 9b be 6d 60 82 bf cc bc 19 3f 82 a7 d6 3c
       -0.30466273 -1.0185677 0.60053706 0.02620292
000220 f9 41 43 bf 5d 35 ab be f6 b5 db 3d b0 1f 6f be
       -0.7627254 -0.3343915 0.10728066 -0.23351932
000230 8d ed 4f bf 30 48 15 be 39 31 91 be 2b d9 07 3f
       -0.8122185 -0.14578319 -0.28357866 0.5306575
000240 cb f5 90 3f 81 fd b0 3e 42 5e ab be 77 8e 10 3f
       1.132501 0.34568408 -0.3347035 0.56467384
000250 5a 4a 16 bf dd 7a 22 3f 5f 2c 42 bf 6b 85 e8 be
       -0.587072 0.63468724 -0.75848955 -0.4541429
000260 ee ec 08 3c 78 95 e9 be 4b 9a ac 3d 40 63 24 3f
       0.00835727 -0.45621848 0.084278665 0.64213943
000270 87 dd 08 bf 5b 8f e7 3d ae c3 af 3e 5f 91 f4 bd
       -0.53463024 0.1130664 0.3432898 -0.1194179
000280 d6 3f 9f be 22 4c 05 3e 02 f3 72 be 74 7d 35 bd
       -0.3110339 0.13017324 -0.23725513 -0.044309095
000290 f6 57 11 be 15 dd 21 bf 7f 85 c2 3d e6 b0 8b 3d
       -0.1419371 -0.6322797 0.094981186 0.0682085
0002a0 7f e6 e6 be 04 ae c8 3e eb c6 92 be a2 fe 64 3d
       -0.4509773 0.39195263 -0.28667387 0.0559069
0002b0 47 13 a6 3f c9 f8 2b be 29 c1 c2 be ac 8f 55 be
       1.2974633 -0.16794123 -0.38037995 -0.20855588
0002c0 43 e6 ba bf 5b a4 33 bf fd 2c 48 3e ca 64 cb 3e
       -1.460152 -0.7017266 0.19548412 0.39725333
0002d0 7c bd 0b 3f e8 b8 6a 3e 35 bd 57 3f cf 40 cf be
       0.54586005 0.22922099 0.8427308 -0.40479133
0002e0 35 8b f2 bc 9f db 13 be 10 54 0e be c0 4f 06 bd
       -0.029607395 -0.14439248 -0.13899255 -0.0327909
0002f0 6a ed 03 bf a7 87 76 3e 90 38 ec 3e 18 0c 06 bf
       -0.5153414 0.24075185 0.46136904 -0.52362204
000300 08 bd 2b 3f 14 d9 bb 3e 03 e0 67 3e 50 fe ce 3e
       0.67085314 0.36689055 0.22644047 0.404284
000310 ea 80 ea 3e 0a 65 eb be 9b 11 e5 be b8 93 4f 3e
       0.4580148 -0.45975524 -0.44739994 0.20271194
000320 2f e3 aa 3e c6 37 be be d3 36 0d 3f 88 6c 64 bf
       0.33376452 -0.37151927 0.5516178 -0.89228106
000330 a5 f8 d5 3d 72 42 5d bd f4 5a 52 bf 53 55 91 3d
       0.10447816 -0.054018445 -0.82170033 0.070963524
000340 51 de 1e bf 8b 5a 29 bf 27 89 f5 3b 6d 65 ce 3b
       -0.6205798 -0.6615378 0.0074931565 0.006298712
000350 85 e7 01 be b9 3b b5 3e 26 da cf be da 3d 41 3e
       -0.12685974 0.35397127 -0.40596122 0.18871251
000360 fd 9e 33 bf 8a ce 56 3f c9 21 75 bf 9c 46 0a 3f
       -0.7016447 0.83908904 -0.9575468 0.5401399
000370 96 c6 91 3e d4 28 5e 3f c6 fb 06 bf bd 6d c6 3d
       0.28471822 0.8678105 -0.52727926 0.096889
000380 44 31 73 bf 03 c2 17 bf 4a 9f 3d bf 2b 70 55 3d
       -0.9499705 -0.59280413 -0.7407118 0.052108925
000390 53 eb dd bd 47 4a 6e bf d9 bf bb be 3b 30 ca 3e
       -0.108359 -0.9308209 -0.36669806 0.39489922
0003a0 e0 1b 60 3e 0c b5 8c 3f b2 15 8a 3e 3f 80 e3 bd
       0.21885633 1.0992751 0.26969677 -0.111084454
0003b0 87 1f 6d bf 42 1f 36 3e 1b ba ce bd bb f6 44 bf
       -0.9262623 0.17785361 -0.100940906 -0.7693898
0003c0 02 2d d8 3e 5c 30 85 be 27 d8 11 be 2e 23 25 3f
       0.42221838 -0.26013458 -0.14242612 0.64506805
0003d0 0c 87 4e 3f ed 5a 95 be 0b b1 45 3d a2 d5 85 3e
       0.80674815 -0.29170933 0.048264544 0.2613955
0003e0 cd 39 2a be 6c c9 7c 3e 27 78 88 3e 46 f0 19 be
       -0.16623612 0.24686211 0.2665417 -0.15033063
0003f0 ce ad fe be f3 38 65 bf 07 f3 ec be ef 0d 40 3f
       -0.49741977 -0.8954002 -0.46279165 0.7502126

decoder_net.3.bias f4 [256]
000000 29 80 fe 3e f0 9a fd 3e 98 bc ff 3e 66 41 f6 3e
       0.49707153 0.4953227 0.49948573 0.4809677
000010 11 08 fb 3e a5 e4 04 3f 60 f8 01 3f 78 a7 04 3f
       0.49029592 0.51911384 0.50769615 0.5181804
000020 49 7d fb 3e bb 14 03 3f 73 be fd 3e 8a 94 f7 3e
       0.49119022 0.5120351 0.49559364 0.48355514
000030 b9 90 f5 3e 3c 25 f5 3e 10 a1 fb 3e b3 12 fb 3e
       0.47961977 0.4787997 0.49146318 0.49037704
000040 8c f5 fd 3e 70 f1 fb 3e e6 f6 f8 3e f0 57 f5 3e
       0.496014 0.4920764 0.4862587 0.47918653
000050 e0 83 fe 3e 0e 49 fa 3e e2 8f d5 3e a9 9a f4 3e
       0.49709988 0.4888386 0.41711336 0.47774246
000060 22 b6 f6 3e 67 ab fd 3e 44 3a f4 3e 32 80 fc 3e
       0.4818583 0.49544832 0.47700703 0.49316555
000070 b9 62 f5 3e 30 bd 02 3f 02 b0 05 3f 06 54 00 3f
       0.47926882 0.5106993 0.5222169 0.5012821
000080 70 1d 01 3f 25 aa 01 3f 35 fc fd 3e 68 c6 fc 3e
       0.50435543 0.50650245 0.4960648 0.49370122
000090 ea a4 01 3f 86 e2 f2 3e d7 3a 08 3f f3 f2 fc 3e
       0.50642264 0.4743845 0.5321478 0.49404106
0000a0 77 eb f3 3e 41 46 f2 3e 9a 6a f1 3e f0 d4 e8 3e
       0.47640583 0.47319224 0.47151643 0.45474958
0000b0 2c 06 fc 3e 6c 53 fb 3e 55 51 fb 3e fd fd 04 3f
       0.4922346 0.49087083 0.4908549 0.51950055
0000c0 18 70 fd 3e 02 f5 fe 3e 74 00 00 3f aa 61 eb 3e
       0.49499583 0.497963 0.5000069 0.4597295
0000d0 34 34 fb 3e 57 fe 07 3f 90 df 02 3f c5 19 f8 3e
       0.49063265 0.53122467 0.5112238 0.4845716
0000e0 93 28 05 3f de 69 00 3f dd f4 e0 3e 5c 6f f4 3e
       0.52015036 0.5016154 0.43936816 0.4774121
0000f0 09 e7 f8 3e 9e 20 02 3f 00 8d 00 3f 0c c9 b7 3e
       0.48613766 0.5083102 0.5021515 0.35895574
000100 c7 f1 01 3f f5 74 ff 3e 7a b6 02 3f 4b f1 f5 3e
       0.5075955 0.4989392 0.5105969 0.48035654
000110 98 12 dd 3e 96 e1 00 3f 4a 7e 04 3f c3 e8 fe 3e
       0.43178248 0.50344217 0.517552 0.49786958
000120 f1 26 e1 3e 9f 66 05 3f b8 32 fc 3e 52 dc 00 3f
       0.43975022 0.5210971 0.49257445 0.5033618
000130 3e 36 f3 3e 6b 17 01 3f 1c cd eb 3e 1c 3b fe 3e
       0.4750232 0.5042636 0.46054924 0.49654472
000140 a1 93 fe 3e ad eb fa 3e a5 42 00 3f e5 72 02 3f
       0.49722007 0.4900793 0.5010169 0.50956565
000150 43 85 01 3f bf 99 f7 3e 08 43 fc 3e 25 bc fb 3e
       0.50593966 0.48359486 0.4926989 0.4916698
000160 89 00 07 3f 4e d9 ff 3e d0 44 01 3f 33 85 f6 3e
       0.5273519 0.49970478 0.50495625 0.48148498
000170 a8 01 04 3f ea 88 00 3f 32 b7 fc 3e bf cf f7 3e
       0.5156503 0.50208914 0.49358517 0.48400685
000180 0b 9d f5 3e de 36 fd 3e 86 d3 f4 3e 6a 19 fc 3e
       0.47971377 0.49455923 0.4781763 0.4923814
000190 1b 5d 05 3f 26 09 00 3f 98 c0 00 3f cf a3 f7 3e
       0.5209519 0.5001396 0.50293875 0.48367164
0001a0 a9 0f f8 3e 4c 98 f9 3e 30 b7 f6 3e 55 18 f9 3e
       0.48449448 0.48749006 0.48186636 0.48651376
0001b0 36 ef e4 3e 5b 75 f6 3e d8 f6 07 3f 2c 4a fa 3e
       0.44713753 0.4813641 0.5311103 0.48884714
0001c0 21 7f f6 3e f5 8e ff 3e e6 bb 04 3f b3 93 03 3f
       0.48143867 0.49913755 0.5184921 0.51397246
0001d0 5b 74 00 3f 77 f7 02 3f 51 4a f7 3e 37 50 fe 3e
       0.50177544 0.5115885 0.48298886 0.49670574
0001e0 15 df f9 3e a1 21 07 3f 4a 0d 01 3f b9 75 da 3e
       0.4880301 0.5278569 0.504109 0.4266794
0001f0 aa f0 f9 3e df ea fd 3e 07 1a f9 3e a0 6a 02 3f
       0.48816425 0.49593255 0.4865267 0.50943947
000200 47 48 f7 3e 72 9f fd 3e 75 a8 fa 3e 41 00 f8 3e
       0.4829733 0.4953571 0.48956648 0.48437694
000210 22 4e f8 3e 9a 4f f3 3e 17 c1 05 3f 76 6c 02 3f
       0.4849711 0.4752167 0.52247757 0.5094675
000220 87 d9 f8 3e 4c b4 03 3f 6c 9e 01 3f 40 b6 f4 3e
       0.4860346 0.51446986 0.5063236 0.47795296
000230 ec 69 fa 3e 85 22 f9 3e f1 96 04 3f a8 b8 00 3f
       0.48908937 0.4865915 0.5179282 0.50281763
000240 43 8e 00 3f a7 12 f4 3e 33 e1 04 3f 5c a0 ff 3e
       0.50217074 0.4767048 0.51906127 0.49927032
000250 6b 28 f4 3e 8c 7c fe 3e 0a 15 fd 3e 51 4d f0 3e
       0.47687086 0.49704397 0.49430114 0.46933988
000260 b1 11 fe 3e 25 0e f4 3e 7b ba 05 3f 3a 2a 03 3f
       0.49622872 0.4766704 0.5223767 0.5123631
000270 36 8a 02 3f a1 0a 02 3f 5a d5 ff 3e 47 f6 f4 3e
       0.50992143 0.5079747 0.49967462 0.47844145
000280 69 84 f1 3e ca e4 f1 3e 18 65 f3 3e 57 df b0 3e
       0.47171333 0.47244865 0.47538066 0.34545395
000290 69 78 04 3f fa 44 f5 3e 91 80 00 3f 91 03 fc 3e
       0.5174623 0.47904187 0.50196177 0.4922147
0002a0 8e 25 05 3f 96 7c fd 3e da 4d f9 3e 77 03 f7 3e
       0.5201043 0.49509114 0.4869221 0.4824483
0002b0 cf 12 00 3f 8f e3 01 3f 84 66 00 3f 47 82 ff 3e
       0.500287 0.5073785 0.50156426 0.4990408
0002c0 70 6d 00 3f d9 22 f9 3e df 51 f3 3e 84 a9 f7 3e
       0.5016699 0.486594 0.475234 0.48371518
0002d0 de 1e ff 3e eb a0 ff 3e ca 97 e9 3e 79 8a fe 3e
       0.49828237 0.49927458 0.45623618 0.4971502
0002e0 d5 4a 03 3f 86 93 f1 3e b3 02 f5 3e ec 8d 01 3f
       0.5128606 0.47182864 0.47853622 0.5060718
0002f0 eb 35 05 3f e8 73 02 3f 42 c0 00 3f 33 e6 01 3f
       0.520354 0.5095811 0.5029336 0.5074188
000300 73 79 07 3f 75 29 f7 3e 36 96 04 3f 35 07 02 3f
       0.5291969 0.48273817 0.51791704 0.5079225
000310 40 e3 03 3f dc af f9 3e 88 16 01 3f d5 0b f8 3e
       0.5151863 0.48766983 0.50425005 0.48446527
000320 20 7a 02 3f 80 49 02 3f 53 c3 f6 3e c4 42 02 3f
       0.509676 0.508934 0.48195896 0.50883126
000330 f6 49 c2 3e b9 80 05 3f a5 fb f8 3e 08 6f ef 3e
       0.37947053 0.5214954 0.4862949 0.46764398
000340 12 e1 e0 3e eb 58 f7 3e 4b 75 00 3f fd e1 02 3f
       0.43921715 0.48310027 0.50178975 0.5112608
000350 c0 84 fa 3e 78 c3 fe 3e 12 09 e4 3e 61 46 00 3f
       0.48929405 0.49758506 0.4453817 0.5010739
000360 14 08 ff 3e f9 f4 fe 3e 57 ba fe 3e 6e b2 fb 3e
       0.4981085 0.49796274 0.4975154 0.4915957
000370 61 8f fc 3e e4 c5 01 3f fe 56 ee 3e 3a 1f 04 3f
       0.4932814 0.5069258 0.46550745 0.5161015
000380 8d 62 04 3f 80 b3 fb 3e 28 0b fb 3e 83 d8 fd 3e
       0.51712877 0.49160385 0.4903195 0.49579248
000390 29 14 00 3f 66 c0 fd 3e a9 14 f2 3e d4 21 fc 3e
       0.5003076 0.4956085 0.47281387 0.4924456
0003a0 e1 9d 00 3f 12 ef fb 3e 27 86 fb 3e 02 83 fa 3e
       0.50240904 0.49205834 0.49125788 0.48928076
0003b0 3e 59 fe 3e f1 dd 02 3f 96 1e f7 3e f6 7e fe 3e
       0.4967746 0.51119906 0.48265523 0.49706239
0003c0 5e 6f 01 3f cc d3 fa 3e b7 7c fd 3e f1 23 0b 3f
       0.5056056 0.48989713 0.49509212 0.5435172
0003d0 ea 18 f7 3e 00 e4 02 3f 9b 39 fd 3e 90 f5 03 3f
       0.48261195 0.5112915 0.49458012 0.51546574
0003e0 a8 a3 00 3f 01 1d e1 3e 79 d2 f5 3e bb 40 fe 3e
       0.5024972 0.4396744 0.4801214 0.4965876
0003f0 49 ea f6 3e 93 72 05 3f 31 b1 fb 3e 8c 36 01 3f
       0.4822562 0.5212795 0.49158624 0.50473857

decoder_net.4.weight f4 [256]
000000 79 8c 7b 3f 5b b1 71 3f aa ad 7d 3f c2 9a 79 3f
       0.9826122 0.9441125 0.99093115 0.97501767
000010 5e 6e 76 3f 20 5f 6e 3f 4a 8e 7e 3f 73 e9 79 3f
       0.96262157 0.931139 0.99435866 0.9762184
000020 28 cd 80 3f df 6c 7a 3f 8e 8d 79 3f 36 00 79 3f
       1.0062609 0.97822374 0.9748162 0.97265947
000030 f4 2e 7b 3f 5d d3 7b 3f aa ad 7d 3f aa ad 7d 3f
       0.9811852 0.9836939 0.99093115 0.99093115
000040 96 e5 6f 3f aa ad 7d 3f 43 ff 7e 3f a7 66 78 3f
       0.93709695 0.99093115 0.9960825 0.97031635
000050 aa ad 7d 3f 04 86 76 3f aa ad 7d 3f 4e 8e 71 3f
       0.99093115 0.9629824 0.99093115 0.94357765
000060 39 bd 70 3f aa ad 7d 3f 16 50 77 3f 72 0e 71 3f
       0.9403873 0.99093115 0.96606576 0.94162667
000070 ea e9 79 3f a3 19 73 3f 4e 26 7a 3f 74 fb 71 3f
       0.9762255 0.94960994 0.977147 0.9452431
000080 83 63 89 3f a8 ba 6c 3f aa ad 7d 3f 6f 42 77 3f
       1.0733494 0.92472315 0.99093115 0.96585745
000090 f6 ee 74 3f ff e2 76 3f 1e 16 78 3f 3f 71 72 3f
       0.95677125 0.9644012 0.9690875 0.9470405
0000a0 d3 e8 67 3f 59 88 7a 3f 05 15 7b 3f ae d0 7e 3f
       0.90589637 0.978643 0.9807895 0.9953717
0000b0 ba 37 77 3f 83 e6 82 3f aa ad 7d 3f 72 2d 6c 3f
       0.96569407 1.0226597 0.99093115 0.92256844
0000c0 99 0e 74 3f 61 4d 6e 3f c6 cd 8b 3f aa ad 7d 3f
       0.95334774 0.9308682 1.0922172 0.99093115
0000d0 6f 57 75 3f cd 45 77 3f 4d 39 7a 3f ea cc 7a 3f
       0.9583654 0.9659088 0.97743684 0.97968924
0000e0 4f ac 72 3f f6 3e 7b 3f aa ad 7d 3f 7c a9 7b 3f
       0.9479417 0.98142946 0.99093115 0.9830549
0000f0 23 32 7c 3f d5 9b 7b 3f 75 95 58 3f aa ad 7d 3f
       0.98514 0.98284656 0.84603053 0.99093115
000100 d0 05 7b 3f 74 c7 7f 3f 60 76 80 3f ce 2d 7a 3f
       0.98055744 0.99913716 1.0036125 0.9772614
000110 aa ad 7d 3f d7 96 7c 3f 70 1b 84 3f aa ad 7d 3f
       0.99093115 0.98667663 1.0320873 0.99093115
000120 aa ad 7d 3f ef d3 82 3f 0d fc 7c 3f 14 5c 82 3f
       0.99093115 1.0220927 0.988221 1.018435
000130 5d 5a 7a 3f 8f 5c 7d 3f aa ad 7d 3f 87 a0 74 3f
       0.97794133 0.9896936 0.99093115 0.95557445
000140 58 ce 79 3f 9b d4 76 3f aa ad 7d 3f 0e 84 7d 3f
       0.9758048 0.9641816 0.99093115 0.99029624
000150 56 2e 7d 3f 8f 97 7f 3f da 9f 76 3f aa ad 7d 3f
       0.9889883 0.99840635 0.96337664 0.99093115
000160 88 ab 6d 3f b0 92 84 3f 9e 23 7d 3f b0 7b 77 3f
       0.9283986 1.0357265 0.9888247 0.9667311
000170 84 99 74 3f 52 b3 7e 3f 5a 88 79 3f 20 62 80 3f
       0.95546746 0.9949237 0.9747368 1.0029945
000180 f7 70 6d 3f 9c fd 71 3f 4f 07 78 3f 71 f8 71 3f
       0.92750496 0.945276 0.9688615 0.94519717
000190 0c 1a 77 3f ba 21 76 3f e1 bf 74 3f aa ad 7d 3f
       0.9652412 0.9614521 0.95605284 0.99093115
0001a0 a6 83 7a 3f 18 27 7c 3f 81 ac 6b 3f 27 ba 7c 3f
       0.9785713 0.9849715 0.92060095 0.98721546
0001b0 aa ad 7d 3f 43 aa 7a 3f 13 07 87 3f 40 38 81 3f
       0.99093115 0.9791605 1.0549034 1.0095291
0001c0 db e1 7d 3f ed 5b 79 3f f0 36 65 3f 4a 61 77 3f
       0.99172753 0.9740589 0.8953695 0.96632826
0001d0 fa aa 6f 3f 05 14 80 3f 6b bc 7a 3f aa ad 7d 3f
       0.93620265 1.000611 0.97943753 0.99093115
0001e0 aa ad 7d 3f e4 66 64 3f 3f 80 88 3f aa ad 7d 3f
       0.99093115 0.892195 1.0664138 0.99093115
0001f0 aa ad 7d 3f e9 24 7a 3f 4a 3f 72 3f 5d 89 7a 3f
       0.99093115 0.9771257 0.9462782 0.9786585
000200 74 14 7a 3f a7 33 78 3f 84 cf 83 3f 91 07 81 3f
       0.9768746 0.96953815 1.0297704 1.0080434
000210 68 aa 74 3f aa ad 7d 3f 00 93 71 3f d5 d9 64 3f
       0.9557252 0.99093115 0.9436493 0.89394885
000220 aa ad 7d 3f be 67 6c 3f be 3e 7a 3f c1 ff 7b 3f
       0.99093115 0.923458 0.97751987 0.98437124
000230 f0 40 82 3f 97 0a 85 3f 37 b9 7e 3f 0b b3 79 3f
       1.0176067 1.0393857 0.99501365 0.9753882
000240 c5 4c 79 3f 29 ac 71 3f 4e f8 85 3f 6a e8 75 3f
       0.97382766 0.9440332 1.0466402 0.9605776
000250 a2 7e 77 3f 31 53 73 3f a7 48 7d 3f aa ad 7d 3f
       0.966776 0.95048815 0.98938984 0.99093115
000260 aa ad 7d 3f fc 17 7a 3f ce d7 66 3f 40 de 85 3f
       0.99093115 0.9769285 0.9017304 1.045845
000270 64 53 82 3f 0a f6 71 3f aa ad 7d 3f e1 7b 7e 3f
       1.0181699 0.9451605 0.99093115 0.99407774
000280 5c 29 6e 3f 86 d8 72 3f 3e 7d 78 3f aa ad 7d 3f
       0.9303186 0.9486164 0.97066104 0.99093115
000290 e8 74 71 3f 68 3f 7b 3f 31 92 6e 3f c3 83 7c 3f
       0.9431901 0.98143625 0.9319182 0.9863855
0002a0 f1 89 86 3f aa ad 7d 3f 93 68 80 3f aa ad 7d 3f
       1.0510846 0.99093115 1.0031914 0.99093115
0002b0 9a 2a 82 3f 52 19 74 3f 61 54 7b 3f aa ad 7d 3f
       1.0169251 0.95351136 0.98175627 0.99093115
0002c0 18 3d 63 3f 4e 54 76 3f 40 08 7d 3f aa ad 7d 3f
       0.88765097 0.9622239 0.98840714 0.99093115
0002d0 eb 0b 77 3f 68 69 79 3f aa ad 7d 3f aa ad 7d 3f
       0.9650256 0.9742646 0.99093115 0.99093115
0002e0 98 67 77 3f 08 b8 7a 3f aa ad 7d 3f 7e ff 79 3f
       0.96642447 0.9793706 0.99093115 0.97655475
0002f0 ba 69 75 3f 9d b3 7c 3f 6f e7 8a 3f 7c 48 7a 3f
       0.9586445 0.9871157 1.0851878 0.9776685
000300 af 7a 83 3f e2 fd 7e 3f 47 55 8a 3f 95 4e 76 3f
       1.0271815 0.99606144 1.0807275 0.96213657
000310 ed 37 78 3f aa ad 7d 3f d4 2d 79 3f 2f d4 70 3f
       0.96960336 0.99093115 0.97335553 0.94073766
000320 1b ce 8a 3f f0 27 85 3f 17 31 85 3f 07 b4 81 3f
       1.0844148 1.0402813 1.0405606 1.0133065
000330 aa ad 7d 3f c3 56 6c 3f 87 9e 80 3f 37 c6 72 3f
       0.99093115 0.9231989 1.0048379 0.948337
000340 aa ad 7d 3f ab c3 78 3f 05 18 72 3f cd 74 82 3f
       0.99093115 0.97173566 0.945679 1.0191895
000350 d4 6d 77 3f bb 59 83 3f aa ad 7d 3f 43 5e 7a 3f
       0.9665196 1.0261759 0.99093115 0.9780008
000360 aa ad 7d 3f ee 5d 79 3f aa ad 7d 3f ef 7d 7f 3f
       0.99093115 0.9740895 0.99093115 0.99801534
000370 aa ad 7d 3f 05 3e 75 3f 53 5e 78 3f 95 26 6f 3f
       0.99093115 0.9579776 0.9701893 0.93418247
000380 38 c8 7e 3f a7 29 77 3f 2e ff 75 3f f4 9f 55 3f
       0.9952426 0.9654793 0.960925 0.83447194
000390 0a b4 79 3f 30 05 7a 3f 9c 9b 7a 3f 7e ca 83 3f
       0.9754034 0.97664165 0.9789369 1.0296171
0003a0 b5 d5 79 3f be 85 7f 3f ac 24 75 3f aa ad 7d 3f
       0.97591716 0.9981345 0.9575908 0.99093115
0003b0 bb 34 6f 3f 54 44 80 3f 3b 15 7b 3f 3b f6 81 3f
       0.93439835 1.0020852 0.9807927 1.0153269
0003c0 a4 09 86 3f aa c6 71 3f be 2f 6c 3f 35 f6 75 3f
       1.0471692 0.9444376 0.9226035 0.9607881
0003d0 26 79 81 3f bf ec 7a 3f aa ad 7d 3f b6 b9 81 3f
       1.0115097 0.98017496 0.99093115 1.01348
0003e0 7f 0d 79 3f aa ad 7d 3f 05 4c 84 3f a8 f8 73 3f
       0.9728622 0.99093115 1.0335699 0.95301294
0003f0 87 a0 77 3f 67 23 71 3f a6 cf 78 3f 57 3f 6d 3f
       0.9672932 0.94194645 0.97191846 0.92674774
