Value_Net_999.pt (torch, 400402 bytes, 11 tensors)

decoder_net.0.weight f4 [128, 255]
0.4406405 0.27663255 0.30877337 -0.111276984 0.5374099 0.017430397 -0.578216 0.43003187
0.8010532 -0.8483523 0.1680676 -0.45760843 -0.009638158 -0.04096551 0.18747546 0.29405943
0.82190394 -0.65184164 0.34130043 0.3820893 0.50689995 0.62190855 -0.30755052 -0.46315977
0.16238315 0.15191945 0.38040245 -0.27895218 -0.82376355 0.18551798 0.32687816 0.46650797
-0.09177749 -0.7654718 -0.18983631 -0.14054161 -0.12601425 -0.5651771 -0.5850126 -0.057482954
0.21631876 0.06866211 -1.0461715 -0.17161344 -0.015464846 -0.10765214 0.5507238 -0.38845807
0.5740765 -0.54615515 -0.28522706 0.2774974 0.45069742 -0.03457882 0.096153475 -0.58411443
-0.49368033 -0.46098602 -0.23666392 0.36019537 -0.26937026 -0.7955455 -0.26270145 -0.15633924
-0.85632545 0.44113466 0.09025803 -1.6239057 -0.39876944 -0.41155222 -0.32906163 0.53597313
0.0783896 0.017568368 0.21178202 -0.44818085 -0.38755026 -0.17803156 -0.85442644 0.36687884
0.28368518 -0.595835 -0.09889133 0.73117054 0.62634176 0.06080813 -0.7377098 0.1026634
0.52288246 0.42022523 -0.45351928 -0.3939966 -1.0424381 -0.05032145 -0.91009694 -0.035432458
0.19605254 -0.38506094 0.57308424 0.18756367 -0.016366461 -0.26285672 -0.47449166 0.41424242
0.50842327 -0.5044406 0.050393384 0.68733907 0.7305761 0.978797 -0.3700277 0.609432
0.1715614 -0.32949024 -0.16225794 -0.015369388 -0.43480733 0.10912391 0.22839081 -0.32014316
0.01526638 0.39460927 -0.48743922 0.18004654 -0.61770314 0.7226767 -0.3656675 -0.65874106
-0.14845563 0.24778241 0.035346072 -0.33204567 -0.37520084 0.8403639 0.02082729 0.14283693
0.5141171 0.09559578 0.06943222 0.108037435 -0.43619245 0.14313306 -0.6388245 -0.3690786
-0.3311388 -0.02230637 0.29539266 -0.08930796 -0.942075 -0.06805672 0.5023956 0.07029367
-0.5507866 0.15445794 -0.2389384 -0.42355892 -0.06718678 0.11389245 0.06942883 0.5942804
0.01722708 -0.02377322 0.67645687 -0.051823664 -0.14485785 -0.51432365 -1.0756032 -0.61303574
0.2558141 -1.0750324 -0.013183185 0.1846505 -0.91294765 0.26004195 0.5942432 0.39461896
-0.19940081 0.2650732 0.46285912 0.119817436 -0.35151723 0.031112421 0.12536098 0.68279266
-0.6914369 0.5910857 0.40074453 0.13920441 0.41289577 0.6500577 -0.54704845 0.33313724
0.46422803 -0.21100812 0.28241578 -0.69456255 0.38888285 0.6083471 0.056323607 -0.5467269
0.15781724 0.3343256 0.3501751 -0.34459004 -0.10985718 0.01910395 -0.51550126 0.43822038
-0.11013632 0.64025134 -0.33356664 -0.23638315 -0.46747983 0.25550708 -0.44525883 -0.79206985
-0.7398024 -0.27213326 -0.53231245 -0.03502365 0.111341655 -0.21009889 -0.22737661 -0.33098483
-0.014053195 0.9215732 0.3320126 -0.14876801 0.3828252 -0.42991847 0.32669938 -0.45800778
0.16786288 -0.0006126731 0.20046616 0.2875863 -1.0536803 0.43123558 0.49306077 -0.5087148
0.28404358 0.62792224 -0.4474411 0.47895473 -0.18842211 0.22321077 -0.018322252 -0.038767036
-0.16515778 -0.71894234 -0.27499777 -0.7493863 -0.6319228 -0.9585493 -0.28653887 -0.4773999
00000000: a29b e13e c8a2 8d3e 8b17 9e3e 30e5 e3bd
00000010: b293 093f 31ca 8e3c f705 14bf 232d dc3e
00000020: d311 4d3f 9e2d 59bf ea19 2c3e a74b eabe
00000030: 5de9 1dbc 73cb 27bd 91f9 3f3e f58e 963e
00000040: 4c68 523f 18df 26bf eebe ae3e 35a1 c33e
00000050: 32c4 013f 6635 1f3f 4377 9dbe 4723 edbe
00000060: c547 263e c690 1b3e 1cc4 c23e d2d2 8ebe
00000070: 2be2 52bf 6df8 3d3e 935c a73e 22da ee3e
00000080: d6f5 bbbd f6f5 43bf 7364 42be 24ea 0fbe
00000090: e109 01be 72af 10bf 63c3 15bf 3f73 6bbd
000000a0: aa82 5d3e b89e 8c3d f3e8 85bf 6fbb 2fbe
000000b0: 4460 7dbc ba78 dcbd 3cfc 0c3f fae3 c6be
000000c0: adf6 123f d3d0 0bbf 4809 92be 2414 8e3e
000000d0: d0c1 e63e 85a2 0dbd 1dec c43d 8688 15bf
000000e0: abc3 fcbe 5c06 ecbe 0758 72be 876b b83e
000000f0: e6ea 89be dfa8 4bbf ce80 86be 6517 20be
00000100: 2538 5bbf 67dc e13e 34d9 b83d 24dc cfbf
00000110: 822b ccbe f9b6 d2be c47a a8be 8935 093f
00000120: ba8a a03d 8aeb 8f3c 63dd 583e f677 e5be
00000130: fd6c c6be e84d 36be b1bb 5abf 8bd7 bb3e
00000140: 2f3f 913e a488 18bf 8a87 cabd fe2d 3b3f
00000150: ef57 203f f211 793d 8dda 3cbf 3041 d23d
00000160: a0db 053f c327 d73e ae33 e8be ecb9 c9be
00000170: 9d6e 85bf dd1d 4ebd 1dfc 68bf a021 11bd
00000180: ffc1 483e b526 c5be a6b5 123f b110 403e
00000190: f512 86bc 2895 86be 92f0 f2be 9517 d43e
000001a0: 0728 023f 0523 01bf 4b69 4e3d 74f5 2f3f
000001b0: 0907 3b3f 7192 7a3f 4574 bdbe bc03 1c3f
000001c0: cbad 2f3e f2b2 a8be f226 26be e3cf 7bbc
000001d0: 119f debe 5b7c df3d 48df 693e cee9 a3be
000001e0: d71f 7a3c 3a0a ca3e a291 f9be 1f5e 383e
000001f0: cb21 1ebf 5701 393f c538 bbbe 41a3 28bf
00000200: c104 18be acba 7d3e 0bc7 103d e401 aabe
00000210: 531a c0be 1722 573f fe9d aa3c d843 123e
00000220: 2e9d 033f b8c7 c33d 7b32 8e3d bb42 dd3d
00000230: 9e54 dfbe 7991 123e 018a 23bf dff7 bcbe
00000240: 068b a9be d9bb b6bc b53d 973e 17e7 b6bd
00000250: d42b 71bf 5261 8bbd ff9c 003f 21f6 8f3d
00000260: 5a00 0dbf 392a 1e3e 45ac 74be b7dc d8be
00000270: 3999 89bd 7240 e93d b430 8e3d c322 183f
00000280: ce1f 8d3c 0ec0 c2bc 472c 2d3f 0d45 54bd
00000290: 9e55 14be b7aa 03bf 5ead 89bf e9ef 1cbf
000002a0: 11fa 823e a99a 89bf 49fe 57bc 0515 3d3e
000002b0: f0b6 69bf 3824 853e 5320 183f 7f0b ca3e
000002c0: ba2f 4cbe adb7 873e dffb ec3e d862 f53d
000002d0: 11fa b3be 7adf fe3c a15e 003e 80cb 2e3f
000002e0: 0202 31bf 6451 173f 632e cd3e 9a8b 0e3e
000002f0: 1367 d33e 2e6a 263f 5e0b 0cbf f790 aa3e
00000300: 4caf ed3e 8312 58be cd98 903e dace 31bf
00000310: a71b c73e a3bc 1b3f 95b3 663d 4bf6 0bbf
00000320: d89a 213e ba2c ab3e 274a b33e 1b6e b0be
00000330: cdfc e0bd e37f 9c3c e4f7 03bf 6c5e e03e
00000340: 278f e1bd 83e7 233f 3fc9 aabe 6d0e 72be
00000350: 8459 efbe d3d1 823e f7f8 e3be 17c5 4abf
00000360: b163 3dbf 0d55 8bbe a145 08bf f574 0fbd
00000370: 1807 e43d 2a24 57be 6ad5 68be d876 a9be
00000380: 5f3f 66bc 39ec 6b3f 8efd a93e a456 18be
00000390: aa01 c43e 461e dcbe 2445 a73e ff7f eabe
000003a0: 3fe4 2b3e cc9b 20ba 0047 4d3e 833e 933e
000003b0: ffde 86bf e9ca dc3e 7672 fc3e 223b 02bf
000003c0: 296e 913e 83bf 203f 0017 e5be 8e39 f53e
000003d0: baf1 40be 5d91 643e 8c18 96bc 2fca 1ebd
000003e0: 1f1f 29be 9b0c 38bf 82cc 8cbe c8d7 3fbf
000003f0: b1c5 21bf 7d63 75bf 39b5 92be c26d f4be

decoder_net.0.bias f4 [128]
0.044062257 0.023525953 -0.0118595 -0.09798225 -0.04961287 0.11994591 0.052935526 0.15395166
-0.037551872 0.05206735 0.16722928 -0.08708735 -0.045290448 0.08131584 -0.056046996 0.12100134
-0.07412537 0.04883908 0.13682133 0.033980723 0.02233488 -0.07037886 -0.0025660156 0.2100418
0.02848644 0.044193327 0.06730441 0.098190665 0.1269579 -0.017590143 -0.014899657 -0.00021056947
0.050868355 -0.07150563 0.09085379 0.11471467 0.013574243 0.05177118 0.005649159 0.00011214915
0.021350749 0.1216598 0.0935863 -0.039059024 0.11120405 -0.08842894 0.124981396 0.04534852
0.08246723 0.09019585 0.15903257 0.056634896 0.11299554 0.16034141 0.09013393 0.14411542
0.005398327 0.04826508 0.015147316 0.11818267 0.0443269 0.029833023 -0.06990194 0.12547635
-0.040916298 0.061885446 0.009638783 0.0858416 -0.0023813425 -0.034214422 0.15570073 0.13759713
0.07889468 0.025278993 0.10754558 0.119527794 -0.0014478646 -0.014837113 0.15350002 -0.101972796
-0.015916534 0.008143213 0.08077781 0.065886274 0.0874918 0.19823176 -0.0899994 -0.0050528846
0.106671795 0.08424259 0.10573131 0.09003973 0.09807363 0.107873626 -0.0033839468 0.07039847
0.04355311 0.10594464 -0.058890067 0.17343484 0.044567775 0.05554756 0.121196695 0.08362065
0.09839246 0.07878214 0.11422575 0.1539549 0.0059674615 0.07164721 0.14193007 0.08048121
0.011376146 0.123859234 -0.09810784 0.0753611 -0.052534238 0.086835355 0.17147289 0.14273182
-0.07523014 0.0038343028 0.166029 0.101331346 0.023119584 -0.0057016374 0.038274176 0.035579402
00000000: a07a 343d 80b9 c03c 594e 42bc ebaa c8bd
00000010: dd36 4bbd 34a6 f53d ecd2 583d 81a5 1d3e
00000020: fecf 19bd 9344 553d 273e 2b3e da5a b2bd
00000030: 7a82 39bd eb88 a63d 8991 65bd 8dcf f73d
00000040: 0bcf 97bd 7d0b 483d e41a 0c3e 5f2f 0b3d
00000050: a3f7 b63c cb22 90bd 992a 28bb 3315 573e
00000060: 655c e93c 1004 353d e5d6 893d 3018 c93d
00000070: 4001 023e 3419 90bc b11d 74bc 50cc 5cb9
00000080: 565b 503d 8b71 92bd 8d11 ba3d 86ef ea3d
00000090: 8066 5e3c 040e 543d 951c b93b 9e31 eb38
000000a0: c4e7 ae3c c628 f93d 2daa bf3d 5bfc 1fbd
000000b0: f3be e33d 3b1a b5bd 3ff6 ff3d 5fbf 393d
000000c0: 94e4 a83d 9ab8 b83d 6fd9 223e fef9 673d
000000d0: 356a e73d 8a30 243e 2398 b83d fe92 133e
000000e0: 73e4 b03b 9bb1 453d 732c 783c c109 f23d
000000f0: 2090 353d 6264 f43c c028 8fbd df7c 003e
00000100: d997 27bd 987b 7d3d fceb 1d3c b9cd af3d
00000110: 4c10 1cbb 6c24 0cbd 0370 1f3e 43e6 0c3e
00000120: 8993 a13d e415 cf3c db40 dc3d fdca f43d
00000130: 46c6 bdba 5d17 73bc 1c2f 1d3e 1dd7 d0bd
00000140: 6463 82bc 1c6b 053c d66e a53d 62ef 863d
00000150: e72e b33d 44fd 4a3e 9b51 b8bd ab92 a5bb
00000160: be76 da3d 6187 ac3d a889 d83d c066 b83d
00000170: d4da c83d d9ec dc3d 35c5 5dbb 132d 903d
00000180: bf64 323d 81f9 d83d b636 71bd e798 313e
00000190: b38c 363d d785 633d f935 f83d 4e41 ab3d
000001a0: fc81 c93d 8858 a13d 31ef e93d 5aa6 1d3e
000001b0: b28a c33b c6bb 923d 1e56 113e 55d3 a43d
000001c0: 0463 3a3c e9a9 fd3d c3ec c8bd ec56 9a3d
000001d0: 242e 57bd bcd6 b13d 9796 2f3e 4a28 123e
000001e0: 4212 9abd ed48 7b3b 8203 2a3e cf86 cf3d
000001f0: 4865 bd3c cdd4 babb 62c5 1c3d b5bb 113d

decoder_net.2.weight f4 [128, 128]
1.0475411 -1.012456 0.884286 -1.2656374 -0.19274755 -0.30747354 -0.18040675 -0.012833527
-0.68620706 1.2765627 -0.027877744 -0.11231361 -0.19996943 -0.36429825 -0.09565312 0.29854712
-0.617502 -0.17933968 0.054346245 -0.35476348 0.051744834 -0.26055628 0.62118506 -1.0962473
-0.18607542 0.23751901 -0.4509941 0.3496814 -0.30352977 1.663395 -0.42263317 -0.47332904
-0.0012052924 -0.10176304 -0.05386169 0.38108477 0.2200476 0.35344616 0.61514926 -0.18100697
-0.9599562 0.29581288 -0.54754704 0.960691 -0.30696157 -0.41908947 1.2559301 0.12879257
0.20796143 0.0118075255 -0.6898391 -0.33229575 -0.3290506 -0.41992375 -0.081515506 -1.0617067
0.15883444 0.3815058 -0.3918379 -0.24156481 0.23951033 -0.7409265 0.2049397 0.36352932
-0.033628676 -0.8549037 -0.043229345 0.7047602 -0.32059237 -0.010087547 0.3925294 -0.06399208
-0.37336534 -0.9586368 0.5471691 -0.38532534 0.8796397 0.7578588 -0.4948358 -0.08379392
-0.25923648 -0.1508037 -0.13743955 -0.33675992 -0.7848897 -0.003939863 0.78509045 0.060062535
0.15680948 0.42184395 -0.09566115 -0.036607612 -0.50612026 -0.09983638 -0.033377405 0.16468367
0.44077554 -1.487389 -0.33660007 -0.3654197 0.92502016 -0.31907064 0.4425643 -0.5872068
0.08751354 -0.20184357 -0.28244895 -0.30813602 -0.6194527 0.22355594 0.29680243 0.537392
-0.3668325 -0.19031316 0.18740344 -0.49455464 -0.47282723 -0.44121683 -0.34293464 -0.19114128
-0.2467892 0.09627966 -0.10923855 -0.6799366 0.8030347 0.25749096 -0.009167995 1.0647284
0.23046789 -0.91201204 -0.7761075 -0.54564416 0.9919109 0.3614235 0.33775297 -0.34925982
-0.2818265 -0.44117868 -0.29205513 -0.10426174 0.37874925 -0.004610754 -0.5504443 0.21796957
-0.112397514 0.057798784 0.48548797 -0.3215918 0.10109348 0.29900444 0.20049514 1.2145374
0.07449548 -0.032179315 0.152365 0.024044883 0.8102435 0.07576931 -0.8518011 -0.0075896676
-1.0372711 -0.12777446 0.178208 0.6676401 -0.1761961 -0.28710628 0.2722025 0.30111971
-0.113250084 0.5084437 0.61088806 -1.0256245 0.67523426 0.08631544 -0.06574051 -0.037192434
-0.29178 0.51346475 0.19664766 0.048383325 0.45111033 -0.5765767 0.4053262 0.603562
0.2150718 0.25649244 0.9174445 -0.30105755 0.7967455 -0.024344245 -0.024280269 0.6661408
0.054568972 0.18502507 -0.75380164 0.71951604 0.025626607 -0.4442944 -0.33096245 -0.12801075
0.33524793 0.29819596 -0.09931172 -0.3250257 0.5044025 -0.18798774 -0.39371783 0.055075362
0.48762423 0.235528 0.32583573 -0.32272616 0.08300482 0.33023825 0.1319093 -0.9592011
-0.1261114 0.14451663 0.19181672 0.7507145 -0.4412628 0.76836985 0.67671776 -0.21488036
-0.10456137 -0.8202082 -0.7415276 0.500313 0.08814324 0.60277396 0.5081848 0.93671906
0.16742058 0.5087424 -0.43593526 0.14360557 0.09949419 -0.14808892 -0.4561901 -0.06976142
0.2723552 -1.0241956 0.64441234 0.012524302 0.40324146 0.2578448 -0.26532874 0.49291763
0.4206404 -0.34127516 0.29444706 -0.0051426655 -0.914618 0.2937517 -0.19215862 -1.0125766
00000000: d415 863f 2998 81bf 9160 623f 6800 a2bf
00000010: 9d5f 45be 2c6d 9dbe 8cbc 38be b743 52bc
00000020: 44ab 2fbf 6866 a33f de5f e4bc ae04 e6bd
00000030: c9c4 4cbe 4d85 babe c8e5 c3bd 2bdb 983e
00000040: 9c14 1ebf d2a4 37be 2b9a 5e3d 8fa3 b5be
00000050: 64f2 533d a267 85be fc05 1f3f d551 8cbf
00000060: 8e8a 3ebe 2f38 733e b3e8 e6be 7109 b33e
00000070: 4168 9bbe 21ea d43f 6063 d8be 2f58 f2be
00000080: e7fa 9dba 2469 d0bd 139e 5cbd 8b1d c33e
00000090: 2854 613e e5f6 b43e 6c7a 1d3f e459 39be
000000a0: b1bf 75bf c974 973e 0b2c 0cbf d8ef 753f
000000b0: 112a 9dbe e592 d6be 51c2 a03f 33e2 033e
000000c0: d7f3 543e 5a74 413c 4c99 30bf ab22 aabe
000000d0: 5279 a8be 3f00 d7be 9af1 a6bd 01e6 87bf
000000e0: 7fa5 223e ba54 c33e fa9e c8be c45c 77be
000000f0: 3242 753e 5cad 3dbf b6db 513e 8420 ba3e
00000100: 39be 09bd f8da 5abf 4111 31bd 2a6b 343f
00000110: af24 a4be 3d46 25bc 9df9 c83e 480e 83bd
00000120: be29 bfbe 3969 75bf 4613 0c3f 5d49 c5be
00000130: 1130 613f 0903 423f 1e5b fdbe 269c abbd
00000140: a5ba 84be 496c 1abe f4bc 0cbe cc6b acbe
00000150: 88ee 48bf f719 81bb b0fb 483f 2204 763d
00000160: aa92 203e eefb d73e fee9 c3bd ddf1 15bd
00000170: 1991 01bf 0477 ccbd bfb6 08bd d6a2 283e
00000180: 55ad e13e c362 bebf d856 acbe 4a18 bbbe
00000190: 1fce 6c3f 3a5d a3be ca97 e23e 2f53 16bf
000001a0: 4d3a b33d 15b0 4ebe 269d 90be 01c4 9dbe
000001b0: 7494 1ebf d9eb 643e 7df6 973e 8692 093f
000001c0: 78d1 bbbe 74e1 42be b0e6 3f3e 4436 fdbe
000001d0: 6916 f2be 2ce7 e1be 2195 afbe 8aba 43be
000001e0: 4fb6 7cbe 452e c53d 76b8 dfbd 5310 2ebf
000001f0: af93 4d3f dbd5 833e 5c35 16bc 0549 883f
00000200: c6ff 6b3e 9f79 69bf fbae 46bf 56af 0bbf
00000210: dfed 7d3f 800c b93e f5ed ac3e 2fd2 b2be
00000220: 904b 90be 2ce2 e1be 4088 95be 2e87 d5bd
00000230: 6ceb c13e cf15 97bb ebe9 0cbf 6a33 5f3e
00000240: ab30 e6bd 6bbe 6c3d e191 f83e aea7 a4be
00000250: 190a cf3d 1c17 993e 994e 4d3e f675 9b3f
00000260: 1691 983d 75ce 03bd 9205 1c3e c6f9 c43c
00000270: 1e6c 4f3f f12c 9b3d a30f 5abf bfb2 f8bb
00000280: 4dc5 84bf 4fd7 02be 287c 363e 76ea 2a3f
00000290: c06c 34be 98ff 92be 205e 8b3e 5d2c 9a3e
000002a0: a9ef e7bd 5e29 023f 2963 1c3f aa47 83bf
000002b0: 27dc 2c3f 26c6 b03d f6a2 86bd 1857 18bd
000002c0: 3064 95be 6d72 033f 015e 493e 982d 463d
000002d0: eff7 e63e 889a 13bf ea86 cf3e 0a83 1a3f
000002e0: c83b 5c3e fa52 833e a5dd 6a3f 3724 9abe
000002f0: 83f7 4b3f 956d c7bc 6ae7 c6bc 3488 2a3f
00000300: b783 5f3d 3677 3d3e 25f9 40bf 3432 383f
00000310: e4ee d13c 8e7a e3be e973 a9be 4015 03be
00000320: 9ea5 ab3e 24ad 983e f163 cbbd c569 a6be
00000330: 8620 013f dc7f 40be 6295 c9be b496 613d
00000340: e2a9 f93e 412e 713e f1d3 a63e 5d3c a5be
00000350: 6efe a93d fd14 a93e 3b13 073e 348e 75bf
00000360: 5923 01be 2bfc 133e 9a6b 443e d32e 403f
00000370: 33ed e1be e3b3 443f 603d 2d3f 9909 5cbe
00000380: 4624 d6bd 2af9 51bf c1d4 3dbf 8314 003f
00000390: 7184 b43d 654f 1a3f 6618 023f d2cc 6f3f
000003a0: 4d70 2b3e f13c 023f e832 dfbe 570d 133e
000003b0: 9cc3 cb3d 9fa4 17be c091 e9be 13df 8ebd
000003c0: 2472 8b3e d718 83bf 35f8 243f bb32 4d3c
000003d0: aa75 ce3e 3c04 843e 2bd9 87be b35f fc3e
000003e0: 2e5e d73e 9ebb aebe c4c1 963e ce83 a8bb
000003f0: 6824 6abf 9f66 963e 3bc5 44be 1c9c 81bf

decoder_net.2.bias f4 [128]
0.09323832 0.024358595 -0.08305566 0.09083706 0.113380715 -0.066780314 -0.0021433588 -0.041635655
0.14635047 0.034406204 -0.026663197 0.051484317 0.15390061 0.06589127 0.054799564 0.002803925
-0.03380638 -0.10401549 0.05096803 0.057801146 0.0369518 0.12196243 0.032562442 0.025910333
-0.07778841 -0.032562107 0.048666164 -0.052700922 -0.013922645 0.012605049 0.07274924 0.067868695
-0.0147219505 -0.026309144 0.09083882 -0.02534156 0.035577446 0.05653069 -0.069090486 0.0068615903
0.0896429 0.1586354 0.03066956 -0.0015683913 0.014314825 0.086330034 0.033057664 0.07958147
-0.074530534 -0.002160442 0.03809843 0.073034994 0.09351067 0.14055301 -0.0438317 -0.078388855
0.08199804 0.027297188 0.02314265 -0.09961015 0.1200431 0.06510789 0.09741932 0.18106326
0.014560874 -0.020747911 0.07322327 0.114741154 0.15765905 0.007931177 -0.01700552 -0.0618244
0.08431228 0.09636089 -0.08736351 0.03593697 0.05362503 0.026806593 0.0907163 0.06187688
-0.007410801 -0.044346526 0.059682682 0.03349592 -0.03130221 0.048850328 0.007931136 0.042087417
0.022506025 -0.04057898 0.108072735 -0.08638138 0.082643084 0.016399708 -0.059621256 0.14148575
0.12874253 -0.10142832 -0.06820366 0.0037232172 0.019588448 0.11569643 -0.048680607 0.14129204
-0.043673567 -0.04443926 0.0061250483 -0.032119434 0.09188581 0.046216093 0.12670441 -0.015988758
0.034502868 0.03159637 -0.0854436 0.030479448 -0.0034990432 0.08245288 0.09629393 -0.060511023
0.20129636 -0.0045218184 0.07366924 -0.01819793 -0.022136942 -0.07954458 0.029922152 0.07266644
00000000: bbf3 be3d ad8b c73c 1619 aabd c808 ba3d
00000010: 2634 e83d 1ec4 88bd 9877 0cbb 268a 2abd
00000020: e6dc 153e 85ed 0c3d c76c dabc 38e1 523d
00000030: 1f98 1d3e 01f2 863d 8275 603d 0ec2 373b
00000040: 8f78 0abd 1306 d5bd dac3 503d e5c0 6c3d
00000050: c55a 173d 70c7 f93d 3260 053d e841 d43c
00000060: 884f 9fbd d85f 05bd 2c56 473d ecdc 57bd
00000070: ce1b 64bc 6885 4e3c 8efd 943d befe 8a3d
00000080: 5634 71bc 4686 d7bc b409 ba3d 1a99 cfbc
00000090: a8b9 113d ba8c 673d 507f 8dbd 31d7 e03b
000000a0: b296 b73d 5171 223e bb3e fb3c 7b92 cdba
000000b0: ba88 6a3c cdcd b03d 7967 073d 9cfb a23d
000000c0: 77a3 98bd 3496 0dbb 190d 1c3d 5f93 953d
000000d0: 8682 bf3d 21ed 0f3e de88 33bd 568a a0bd
000000e0: 97ee a73d 5a9e df3c a895 bd3c 6800 ccbd
000000f0: 28d9 f53d 4957 853d c883 c73d a668 393e
00000100: bb90 6e3c 86f7 a9bc 15f6 953d 69fd ea3d
00000110: 6071 213e c4f1 013c 294f 8bbc 953b 7dbd
00000120: ebab ac3d dc58 c53d a4eb b2bd a532 133d
00000130: eba5 5b3d 8099 db3c 78c9 b93d 9c72 7d3d
00000140: 4ed6 f2bb b4a4 35bd d475 743d 0533 093d
00000150: bf36 00bd 4817 483d 98f1 013c db63 2c3d
00000160: 8e5e b83c 2536 26bd 3d55 dd3d b9e8 b0bd
00000170: c740 a93d ae58 863c 6b35 74bd a4e1 103e
00000180: 15d5 033e a7b9 cfbd 5cae 8bbd 3801 743b
00000190: f477 a03c 40f2 ec3d 5165 47bd dcae 103e
000001a0: 0ee3 32bd f105 36bd a1b4 c83b ab8f 03bd
000001b0: a12e bc3d 164d 3d3d cdbe 013e dbfa 82bc
000001c0: e152 0d3d 326b 013d 0efd aebd 09b0 f93c
000001d0: 3450 65bb 0edd a83d c135 c53d 68da 77bd
000001e0: a220 4e3e c32b 94bb e6df 963d d313 95bc
000001f0: 8858 b5bc 45e8 a2bd 4d1f f53c 24d2 943d

decoder_net.4.weight f4 [128, 128]
0.14517742 0.9431805 -0.6726059 -0.24249843 0.034861296 0.43521434 0.867737 -0.08454815
1.1086394 0.63644975 -0.17680092 0.1063083 0.050147817 1.0450041 -0.5181416 0.8618887
-0.3774265 -0.18081687 0.15679654 -0.4559044 0.5364305 -0.26780587 -0.050892383 0.37242532
-0.58483833 0.13914113 0.88012993 0.2845631 -0.2341145 0.47659495 0.66123 -0.17477007
-0.4142658 -0.061882604 0.2469232 -0.45046562 0.82504725 -0.016169025 1.0530114 0.086834714
0.10889993 0.28138837 -0.77826387 -0.022460287 0.49464488 -0.7315644 -0.5537794 0.0023348462
0.09753026 -0.27100465 -0.78229135 -0.97879845 -0.44078812 1.4004724 -1.1423419 -0.015377351
-0.16939756 0.106456794 0.31542623 -0.20718785 0.6143384 0.21024597 -0.5678808 -0.47635254
-0.4845 -0.35812026 -0.34102377 0.4167074 0.61062676 0.7767603 0.5865691 0.12104278
0.65843296 -0.08108481 -0.029737178 0.7931953 0.94037205 -0.30228633 -0.5128406 -0.2545231
0.12191417 -0.48404154 0.54335874 -0.5896332 0.42185622 -0.09162889 -0.8569245 0.27071753
0.36714727 -0.18282413 0.015901577 -0.16585259 0.07082791 -0.19515261 0.14866172 0.41204527
0.4052865 0.30177575 0.34672898 -0.34059444 0.19297326 0.47479883 -0.29607514 1.0617195
0.24092677 -0.0566266 -0.16280754 -0.0032569915 -0.501564 -0.4745239 0.23280528 -0.24176955
0.28232047 0.06958543 -0.13096549 0.42821136 -0.6159157 -0.7398438 -0.14851405 0.4846922
0.9619869 0.85218817 -0.09427128 -0.015975066 -0.96577996 -0.08925785 -0.37338164 0.25630614
-0.8247728 -0.5708121 0.05961367 -0.10479319 -0.40927744 -0.22910127 -0.65273416 -0.24155417
-0.4756171 0.24308182 -0.1833905 0.7144441 -0.56746507 0.40753704 -0.4631759 0.17684764
0.10975494 0.1104539 -0.28818083 0.122313045 0.35711244 -0.3634851 -0.041671105 0.15839022
0.42974257 0.4555378 0.75271124 0.5973224 -0.3556774 -0.055035748 -0.13898332 0.16048029
1.0432965 0.75097954 0.2391187 -0.080346495 0.2793543 0.5815245 0.13435219 -0.094916835
-0.051891975 0.24797873 -0.7602392 0.22516544 0.37679058 0.6165756 -0.015608108 -0.037155416
0.5417705 0.028707957 0.2659629 0.22633576 0.067078166 -0.0396328 -0.48722067 0.19199538
-0.17610084 -0.714558 0.24847272 0.054687064 0.036834955 0.41212055 -0.22059481 -0.09210156
0.14403884 0.2980556 -0.40634897 -0.12120702 -0.9151644 -0.6580398 0.3758266 0.25269347
0.5567296 -0.28611827 0.84952235 0.43943945 0.21746106 0.6626104 -0.6599998 -0.7515294
0.5888174 0.5572724 0.11243081 0.043523718 0.01677192 0.3271009 -0.2595771 -0.24708349
-0.14018491 0.30344018 0.03245051 0.37638196 -0.27897805 -0.16152875 -0.413542 -0.36136636
-0.23055243 0.062025614 -0.15392682 0.67045665 0.46626654 0.12136144 -1.536907 0.79087245
0.29431838 -0.35702452 0.9684968 -0.18478447 -0.29540142 -0.28834954 -0.7582854 -0.06479618
0.0891781 -0.38926992 0.46388552 0.38984212 0.39899948 0.077538155 0.19131564 -0.43677843
-0.18734449 0.2487477 0.7916372 -0.65613776 0.7852186 -0.027529271 0.7556635 1.3177042
00000000: 64a9 143e 4774 713f e62f 2cbf 8251 78be
00000010: b8ca 0e3d 6ad4 de3e 0324 5e3f 9527 adbd
00000020: e5e7 8d3f 5fee 223f 4d0b 35be 2ab8 d93d
00000030: cc67 4d3d b2c2 853f eea4 04bf bda4 5c3f
00000040: 0c3e c1be 0f28 39be 468f 203e 4d6c e9be
00000050: 8253 093f da1d 89be 8874 50bd 88ae be3e
00000060: f7b7 15bf 037b 0e3e 3250 613f 41b2 913e
00000070: b6bb 6fbe 4104 f43e 5f46 293f edf6 32be
00000080: a61a d4be 9d78 7dbd 6fd9 7c3e 6ea3 e6be
00000090: 4c36 533f e774 84bc 14c9 863f 66d6 b13d
000000a0: ed06 df3d 2312 903e 4d3c 47bf a3fe b7bc
000000b0: 1842 fd3e ce47 3bbf 7dc4 0dbf 3804 193b
000000c0: f2bd c73d 1fc1 8abe 3f44 48bf 8992 7abf
000000d0: fbae e1be ae42 b33f 4238 92bf 49f1 7bbc
000000e0: 8e76 2dbe 0506 da3d 8c7f a13e 0d29 54be
000000f0: 4845 1d3f b84a 573e a360 11bf 7be4 f3be
00000100: 6210 f8be 8a5b b7be ab9a aebe ac5a d53e
00000110: 0952 1c3f c3d9 463f 6429 163f 47e5 f73d
00000120: 108f 283f cb0f a6bd 629b f3bc d90e 4b3f
00000130: 39bc 703f 46c5 9abe 8649 03bf da50 82be
00000140: 23ae f93d 4bd4 f7be 8f19 0b3f 34f2 16bf
00000150: 8afd d73e eda7 bbbd 675f 5bbf 7d9b 8a3e
00000160: bafa bb3e 4036 3bbe 0644 823c 43d5 29be
00000170: 390e 913d 16d6 47be c73a 183e 99f7 d23e
00000180: b681 cf3e 5a82 9a3e 7686 b13e 6562 aebe
00000190: c89a 453e d518 f33e 2997 97be 6de6 873f
000001a0: 82b5 763e 4bf1 67bd 05b7 26be 4073 55bb
000001b0: 8066 00bf ccf4 f2be 8264 6e3e 7092 77be
000001c0: 4f8c 903e ce82 8e3d d11b 06be 853e db3e
000001d0: a7ac 1dbf 6766 3dbf 1114 18be 9329 f83e
000001e0: c644 763f 0129 5a3f 4d11 c1bd 24de 82bc
000001f0: 5b3d 77bf d2cc b6bd e12b bfbe 8f3a 833e
00000200: 4f24 53bf be20 12bf 772d 743d d09d d6bd
00000210: d08c d1be 8699 6abe 9619 27bf fa59 77be
00000220: 1684 f3be 71ea 783e b8ca 3bbe cfe5 363f
00000230: 6445 11bf b2a8 d03e 6425 edbe 8c17 353e
00000240: 33c7 e03d a835 e23d 708c 93be 437f fa3d
00000250: 71d7 b63e b81a babe 52af 2abd 0c31 223e
00000260: 3807 dc3e 403c e93e afb1 403f 1fea 183f
00000270: 591b b6be 2a6d 61bd a551 0ebe f254 243e
00000280: bd8a 853f 3240 403f 88db 743e b48c a4bd
00000290: 8707 8f3e cade 143f 9f93 093e c263 c2bd
000002a0: ae8c 54bd 23ee 7d3e 099f 42bf c591 663e
000002b0: b2ea c03e e6d7 1d3f 26b9 7fbc 4730 18bd
000002c0: 79b1 0a3f f32c eb3c 4a2c 883e 90c4 673e
000002d0: 4760 893d 0156 22bd fd74 f9be 709a 443e
000002e0: c753 34be 46ed 36bf a26f 7e3e 8bff 5f3d
000002f0: 40e0 163d 7701 d33e 9be3 61be be9f bcbd
00000300: eb7e 133e be9a 983e f90c d0be 633b f8bd
00000310: 3748 6abf 4c75 28bf 586c c03e 0a61 813e
00000320: d585 0e3f 187e 92be 4c7a 593f 35fe e03e
00000330: 1dae 5e3e d6a0 293f bff5 28bf 3b64 40bf
00000340: bdbc 163f 67a9 0e3f 2042 e63d ed45 323d
00000350: 4465 893c c579 a73e 4ae7 84be 7403 7dbe
00000360: a28c 0fbe 835c 9b3e d3ea 043d 23b5 c03e
00000370: 36d6 8ebe cb67 25be c7bb d3be 0305 b9be
00000380: f015 6cbe 920e 7e3d fe9e 1dbe 0ca3 2b3f
00000390: 7dba ee3e 598c f83d 5eb9 c4bf 9e76 4a3f
000003a0: e6b0 963e ebcb b6be 68ef 773f 2438 3dbe
000003b0: db3e 97be 8da2 93be fe1e 42bf dcb3 84bd
000003c0: 02a3 b63d 634e c7be 6782 ed3e 6399 c73e
000003d0: a949 cc3e 53cc 9e3d 3fe8 433e 6ca1 dfbe
000003e0: 3cd7 3fbe b8b7 7e3e bca8 4a3f a5f8 27bf
000003f0: 1604 493f 1185 e1bc 2a73 413f 88aa a83f

decoder_net.4.bias f4 [128]
0.12516801 0.024160128 -0.08480416 -0.025019122 0.14088464 -0.024656177 0.06272524 -0.03223044
-0.048190244 -0.0769368 0.07642819 -0.0877816 -0.014443009 0.14788266 0.018982993 0.06864937
0.07855329 -0.032339916 0.14053634 0.09505125 0.0017383429 -0.004412058 0.07918085 -0.031497218
-0.03781404 -0.07261887 0.0057272185 0.07264724 0.0489941 -0.00663323 0.061533995 0.0692645
-0.06775971 0.08688729 -0.021995997 -0.11149628 0.12423628 0.016429873 0.0858774 -0.046122037
0.11501223 0.059509743 0.0012743408 -0.033731855 0.01657565 0.02306098 0.006608597 0.02728214
-0.0060837087 0.00524148 0.11931524 0.07258525 -0.027341325 0.07704008 0.022416897 0.074335
0.15960248 -0.04836807 0.17639144 0.03635437 -0.019522995 -0.07100218 -0.08089992 0.06553499
0.08547429 0.044896647 -0.07395369 0.0010361988 0.03557323 0.054088566 0.011637032 0.15458834
0.027997533 0.03665 -0.08815915 -0.012276933 -0.058957614 0.13826114 0.0401903 0.020974297
-0.044221334 -0.024608739 0.071762115 0.13001576 0.045542493 0.051671684 0.03788218 0.10872676
-0.07643128 -0.070582844 -0.014403273 -0.09807483 0.085438505 0.030742276 -0.06765283 -0.04548299
0.049615294 0.043867208 0.042218834 0.056137912 0.03765067 -0.10642551 -0.11353439 -0.022616303
0.07660499 -0.0041114613 0.029962623 -0.057240874 -0.08354023 -0.01664102 0.12073325 0.036170915
0.0266857 -0.07349219 0.023200192 0.08909158 0.0660234 0.036800254 0.14408825 0.007906303
0.019636601 0.05277069 0.019276371 0.02418246 0.09472901 0.019896619 0.014840946 0.0804298
00000000: 0b2c 003e 76eb c53c cead adbd e7f4 ccbc
00000010: 1044 103e c0fb c9bc 1776 803d 1104 04bd
00000020: 2263 45bd 0a91 9dbd 6286 9c3d d7c6 b3bd
00000030: 5fa2 6cbc 8d6e 173e 3982 9b3c 0a98 8c3d
00000040: 8ce0 a03d dc76 04bd c2e8 0f3e 3baa c23d
00000050: 1cd9 e33a 0693 90bb 9229 a23d 3a03 01bd
00000060: e5e2 1abd 34b9 94bd 64ab bb3b 13c8 943d
00000070: 0aae 483d 915b d9bb 120b 7c3d 8cda 8d3d
00000080: 9ac5 8abd f7f1 b13d f330 b4bc 2958 e4bd
00000090: 976f fe3d f197 863c 7ee0 af3d 76ea 3cbd
000000a0: 888b eb3d 7dc0 733d c807 a73a 6a2a 0abd
000000b0: a8c9 873c 61ea bc3c ee8c d83b cb7e df3c
000000c0: d959 c7bb b9c0 ab3b 8c5b f43d 93a7 943d
000000d0: eafa dfbc 31c7 9d3d a4a3 b73c f33c 983d
000000e0: d56e 233e 991d 46bd f59f 343e 52e8 143d
000000f0: b0ee 9fbc 9769 91bd dbae a5bd 3537 863d
00000100: 250d af3d 8ce5 373d 0875 97bd 10d1 873a
00000110: 3cb5 113d f98b 5d3d 40a9 3e3c 684c 1e3e
00000120: 155b e53c 4f1e 163d c98c b4bd 3025 49bc
00000130: 8a7d 71bd 5494 0d3e 969e 243d 4ad2 ab3c
00000140: 6e21 35bd 4498 c9bc 04f8 923d da22 053e
00000150: c48a 3a3d b0a5 533d 582a 1b3d 23ac de3d
00000160: 0188 9cbd bd8d 90bd b5fb 6bbc 75db c8bd
00000170: 62fa ae3d 3ad7 fb3c 918d 8abd 5f4c 3abd
00000180: 6839 4b3d 1aae 333d a8ed 2c3d def0 653d
00000190: 9737 1a3d 9ef5 d9bd b884 e8bd d345 b9bc
000001a0: 14e3 9c3d 70b9 86bb 2d74 f53c 6875 6abd
000001b0: 2417 abbd c052 88bc ff42 f73d f427 143d
000001c0: f89b da3c 1383 96bd 540e be3c a575 b63d
000001d0: 4737 873d ddbb 163d df8b 133e 7089 013c
000001e0: f0dc a03c 1426 583d 7be9 9d3c 4b1a c63c
000001f0: 4801 c23d 3cfe a23c 7027 733c 61b8 a43d

decoder_net.6.weight f4 [128, 128]
-0.08119869 -0.89672714 -0.32324353 -0.7556676 0.51788414 0.69552314 0.12645358 -0.18054076
1.2917982 0.14376229 1.0393721 -0.057435 -0.31707603 -1.0760604 -0.6810009 0.6451165
-0.35928527 0.5598132 0.059085466 0.24854884 -0.58747184 -0.007505892 0.5426492 0.5837513
-0.97138405 0.113219306 0.4676851 -0.082294606 0.7878609 0.1468722 -0.021873698 0.5166881
0.59478366 0.16828556 -0.36255908 0.40320203 0.67484474 0.9896647 -0.8576316 0.52394277
0.7416665 1.4755096 0.2871129 1.106587 -0.7042748 0.20721258 0.31139684 0.4372627
-0.44183877 0.057157233 -0.23306721 0.16754805 -0.60048556 0.2646849 -0.22523463 0.20376511
0.555885 0.70146924 0.38248333 -0.414283 -0.07078982 0.14619243 0.8053556 -0.27805895
-0.40128446 -0.39009598 0.6029675 -0.12955268 -0.6557873 0.71978533 -0.2404611 0.54645777
0.053453933 0.6218815 0.12698783 0.04889589 0.59999263 0.48056954 0.10638326 -0.9064189
-0.30906263 -0.83438325 -0.3638206 0.24307804 0.6212523 -0.21037498 0.058349486 0.27354348
0.6704659 0.39243454 0.3756895 -1.0559334 0.33621064 0.87847435 -0.33574292 -0.86105573
0.41415426 0.44842377 -0.037244435 0.8142586 0.30824882 -0.09897503 -0.4873917 0.030212464
0.520657 0.55411625 0.87008595 -0.016803855 -1.3633207 -0.16628948 -0.23854423 -0.025776602
0.02961159 -0.7621487 0.3488379 0.8445074 -0.05722607 0.45213392 -0.30896765 1.2619098
0.420401 0.5983735 -0.31976837 0.13060388 0.5967769 -0.12746885 -0.8981434 0.1839839
0.0031959615 -0.4551121 0.31140113 0.2203811 0.21138684 -0.39505738 -0.32845598 0.35291097
0.13738005 0.075642504 0.47749043 0.42631087 0.23910208 0.33822107 -0.31908536 0.4157361
0.35583794 0.108974345 0.73534656 1.1656033 0.23631226 -0.18050988 0.09500961 0.32068914
-1.1294657 0.24092968 1.1588502 0.12519112 0.08445955 0.2325808 0.07477177 0.14385998
0.7277882 0.77525437 0.34379125 -0.28181806 0.78248143 0.36850283 0.71668667 -0.09574062
-0.77993894 0.65395385 -0.4850437 0.3488002 0.13508911 0.88312846 -1.080044 0.049423054
-0.24697787 0.055048935 -0.45527247 0.23031269 0.70615715 0.44179526 -0.60082823 0.1649268
-0.35325095 0.6065687 -0.3796782 0.33743668 0.29142144 -0.060570717 0.0534139 -0.55895114
0.188818 0.10151363 -0.9046725 -0.36662114 0.45728093 -0.5470607 -0.08906968 0.052405156
0.059181325 0.12859116 0.04054411 0.15886077 -0.33991608 0.746501 -0.14250757 -0.43398684
-0.07304724 -0.8527389 0.06723909 0.33181414 0.61655533 0.049618255 0.2841339 0.64251715
-0.011298528 -0.124616906 0.09504778 0.08409099 -0.042054474 -0.2508342 -0.25423628 0.07827004
0.10025053 -0.37405714 -0.34153923 -0.36941943 -0.1395373 0.21894583 -0.8021732 0.75674367
0.78107303 0.9741521 0.18764995 0.10063186 -0.146642 -0.28049374 0.7004654 1.274703
0.01049477 -0.094271764 0.9225839 -0.3632354 -0.4382367 -0.25596702 0.21966387 0.024378683
0.52699536 -0.51399004 -0.0021709965 0.063816376 -0.037710436 -0.10348953 -0.2879291 -0.32028478
00000000: 804b a6bd e98f 65bf 2d80 a5be 6f73 41bf
00000010: 0e94 043f ce0d 323f 0c7d 013e addf 38be
00000020: a559 a53f 6c36 133e 250a 853f f640 6bbd
00000030: ca57 a2be 59bc 89bf 1356 2ebf 5b26 253f
00000040: 3df4 b7be eb4f 0f3f 9a03 723d 9683 7e3e
00000050: 8e64 16bf fcf3 f5bb 0feb 0a3f ba70 153f
00000060: a0ac 78bf 86df e73d 6c74 ef3e 138a a8bd
00000070: 40b1 493f aa65 163e 7830 b3bc ac45 043f
00000080: be43 183f 0d53 2c3e 58a1 b9be 7f70 ce3e
00000090: a0c2 2c3f aa5a 7d3f bf8d 5bbf 1d21 063f
000000a0: dbdd 3d3f 80dd bc3f 7600 933e a5a4 8d3f
000000b0: 5a4b 34bf 892f 543e 686f 9f3e e6e0 df3e
000000c0: b138 e2be b41d 6a3d 2ca9 6ebe b791 2b3e
000000d0: 6cb9 19bf c784 873e e8a3 66be cda7 503e
000000e0: 7b4e 0e3f 7d93 333f dbd4 c33e e71c d4be
000000f0: 41fa 90bd 78b3 153e c92b 4e3f be5d 8ebe
00000100: 2875 cdbe a9ba c7be 145c 1a3f 75a9 04be
00000110: ade1 27bf da43 383f 6f3b 76be a8e4 0b3f
00000120: 83f2 5a3d a033 1f3f 1909 023e 0f47 483d
00000130: 1e99 193f 360d f63e 77df d93d 120b 68bf
00000140: 753d 9ebe 249a 55bf b246 babe 73e9 783e
00000150: 640a 1f3f 8a6c 57be dfff 6e3d e40d 8c3e
00000160: a7a3 2b3f 2eed c83e 605a c03e d328 87bf
00000170: cd23 ac3e b2e3 603f 7fe6 abbe 266e 5cbf
00000180: 070c d43e cd97 e53e 9f8d 18bd 4073 503f
00000190: cad2 9d3e 6cb3 cabd 688b f9be 2180 f73c
000001a0: c749 053f 90da 0d3f f4bd 5e3f 3da8 89bc
000001b0: 4b81 aebf ca47 2abe f044 74be 7429 d3bc
000001c0: 0194 f23c 2d1c 43bf e29a b23e a331 583f
000001d0: e265 6abd 197e e73e 0231 9ebe 4386 a13f
000001e0: cd3e d73e 012f 193f aeb8 a3be 06bd 053e
000001f0: 5fc6 183f 3287 02be baec 65bf 4766 3c3e
00000200: 5673 513b 7404 e9be f86f 9f3e 95ab 613e
00000210: cb75 583e f644 cabe 622b a8be bfb0 b43e
00000220: 5bad 0c3e 75ea 9a3d a079 f43e 6b45 da3e
00000230: 2dd7 743e 502b ad3e 285f a3be 5ddb d43e
00000240: 6430 b63e f12d df3d ac3f 3c3f 7d32 953f
00000250: d7fb 713e 95d7 38be 6694 c23d 5e31 a43e
00000260: 5592 90bf 45b6 763e 3455 943f 1a32 003e
00000270: 21f9 ac3d a929 6e3e f121 993d 0850 133e
00000280: 5450 3a3f 1277 463f 6805 b03e 754a 90be
00000290: b450 483f 67ac bc3e c778 373f a813 c4bd
000002a0: 14aa 47bf 8569 273f a657 f8be f195 b23e
000002b0: cd54 0a3e b514 623f e23e 8abf d46f 4a3d
000002c0: c4e7 7cbe fe7a 613d 7919 e9be 17d7 6b3e
000002d0: b7c6 343f fd32 e23e e1cf 19bf 92e2 283e
000002e0: 4fdd b4be 1648 1b3f 2e65 c2be 80c4 ac3e
000002f0: 3135 953e 0019 78bd 89c8 5a3d 6c17 0fbf
00000300: 8159 413e 61e6 cf3d 9e98 67bf c4b5 bbbe
00000310: ba20 ea3e 2c0c 0cbf 2a6a b6bd caa6 563d
00000320: 1e68 723d 67ad 033e 9511 263d 66ac 223e
00000330: 7b09 aebe b11a 3f3f 81ed 11be 8633 debe
00000340: cb99 95bd 194d 5abf a6b4 893d 8be3 a93e
00000350: 92d6 1d3f 833c 4b3d 007a 913e 017c 243f
00000360: 761d 39bc 2637 ffbd 69a8 c23d e637 ac3d
00000370: 5041 2cbd 576d 80be 422b 82be 0b4c a03d
00000380: 2650 cd3d 6b84 bfbe 3bde aebe 8b24 bdbe
00000390: dee2 0ebe 5633 603e 395b 4dbf f4b9 413f
000003a0: 67f4 473f 0862 793f 4f27 403e 1418 ce3d
000003b0: 5229 16be e09c 8fbe b351 333f 7829 a33f
000003c0: 41f2 2b3c 8e11 c1bd 752e 6c3f fef9 b9be
000003d0: 9060 e0be 1c0e 83be 91ef 603e ceb5 c73c
000003e0: 2be9 063f da94 03bf 4747 0ebb 29b2 823d
000003f0: 4276 1abd 52f2 d3bd 716b 93be 5efc a3be

decoder_net.6.bias f4 [128]
0.049659874 0.12101897 -0.0673801 0.045525365 0.05464552 0.01579345 0.12372124 0.10715321
-0.017469047 -0.060084954 0.06958108 -0.021443564 0.008523263 -0.058427673 0.06740212 0.034241512
-0.07098725 0.050126776 -0.010561707 0.1674255 0.018175283 0.043694746 0.076379046 0.046713155
-0.04358297 0.04603573 0.11849016 0.03406497 0.04631755 0.05273918 0.08938618 0.05050118
0.07234633 -0.07234798 0.053140167 -0.016422875 0.13714673 -0.041784417 0.09722524 0.10000194
-0.065333866 0.106764555 -0.0103507945 0.050577987 0.019968115 -0.039645676 0.01904969 -0.040363442
-0.030583601 0.040957548 -0.01622537 -0.0018911957 -0.025270611 -0.023384081 0.027776673 0.03594991
0.06304189 0.1151067 0.096251346 0.04327798 -0.03258412 0.033489387 0.06151227 -0.08202584
-0.009880899 0.02510544 0.05353549 0.05977803 0.050711405 0.06641979 0.05192038 0.005591751
0.08894747 -0.08146824 0.0391931 0.05980914 0.06925823 0.048375957 -0.033958443 0.051236745
0.06265194 -0.03427464 -0.034519225 0.06497775 0.042917125 0.08188823 0.04175454 0.09487446
0.00015820761 0.097320035 -0.029712673 0.097011626 -0.015665365 -0.0720482 0.09310737 0.015528351
0.040886603 0.011782097 0.11111924 -0.017268227 0.11968873 -0.08957284 0.093886994 -0.047611617
-0.06529715 0.077998675 0.07933322 -0.009122761 -0.06618661 0.1184342 -0.036876343 0.0317626
0.085850485 0.013549566 0.0019654229 0.06049115 -0.08330502 -0.032839052 0.09096004 0.044978525
-0.063293435 -0.049178846 0.05280068 -0.0015726961 0.039620496 0.025934761 0.055434927 -0.024961319
00000000: 2768 4b3d cbd8 f73d 94fe 89bd ce78 3a3d
00000010: fbd3 5f3d 4461 813c 9061 fd3d 2473 db3d
00000020: 3f1b 8fbc a41b 76bd 8680 8e3d 6aaa afbc
00000030: 28a5 0b3c db51 6fbd 1f0a 8a3d d440 0c3d
00000040: c361 91bd bc51 4d3d 030b 2dbc 9771 2b3e
00000050: 55e4 943c 43f9 323d 9e6c 9c3d 4b56 3f3d
00000060: 0e84 32bd f68f 3c3d f8aa f23d b687 0b3d
00000070: 79b7 3d3d 0a05 583d 1a10 b73d 53da 4e3d
00000080: 502a 943d 2e2b 94bd 81a9 593d 4489 86bc
00000090: 3170 0c3e 2326 2bbd 071e c73d d1cd cc3d
000000a0: c3cd 85bd 60a7 da3d 6196 29bc dd2a 4f3d
000000b0: 2c94 a33c 8163 22bd 180e 9c3c 2354 25bd
000000c0: 768a fabc 1ac3 273d 11eb 84bc ffe1 f7ba
000000d0: 5004 cfbc f98f bfbc e88b e33c 3640 133d
000000e0: 1b1c 813d 10bd eb3d 6d1f c53d 4044 313d
000000f0: ed76 05bd 2b2c 093d 4af4 7b3d 2afd a7bd
00000100: 7fe3 21bc eca9 cd3c 0848 5b3d cfd9 743d
00000110: c3b6 4f3d 1907 883d 77aa 543d 023b b73b
00000120: 172a b63d d2d8 a6bd f288 203d 6efa 743d
00000130: 42d7 8d3d de25 463d 0218 0bbd 9fdd 513d
00000140: a94f 803d 9163 0cbd 0864 0dbd 0e13 853d
00000150: dec9 2f3d 04b5 a73d cf06 2b3d 8a4d c23d
00000160: 88e4 2539 ba4f c73d fe67 f3bc 08ae c63d
00000170: a754 80bc 028e 93bd 14af be3d a06a 7e3c
00000180: b678 273d b209 413c 7c92 e33d 1976 8dbc
00000190: 5d1f f53d f771 b7bd d347 c03d 6604 43bd
000001a0: 83ba 85bd c5bd 9f3d 7579 a23d a277 15bc
000001b0: d88c 87bd a18d f23d a60b 17bd 8019 023d
000001c0: 61d2 af3d 00ff 5d3c 53ce 003b 91c5 773d
000001d0: d39b aabd 3e82 06bd 4249 ba3d 673b 383d
000001e0: fd9f 81bd c26f 49bd 8745 583d ed22 ceba
000001f0: 1a49 223d 2375 d43c bc0f 633d ae7b ccbc

decoder_net.8.weight f4 [128, 128]
-0.36775213 -0.08699837 -1.3304973 -0.11980886 -0.059058283 1.1085389 -0.9001902 0.19199897
1.1400754 0.10871844 1.2504926 0.22021519 0.43626612 0.57368875 0.09710818 0.5635737
0.1358567 -0.5409116 -0.6436705 0.631533 -0.57543063 0.20731813 0.010500209 0.35955694
-0.9489006 -0.041598465 0.1936958 -1.0527576 0.15786064 0.61258894 0.09175308 -0.2167023
0.2635563 0.0952395 0.0010807964 -0.021625446 0.34189355 0.29376528 -0.3886865 0.7074598
-0.56505686 0.36426088 0.5773583 0.39857483 0.40605122 -0.938765 -1.0357708 -0.10637969
-0.055235673 -0.1276583 -0.24430929 -0.7610529 1.5102175 -0.63991797 0.06931296 0.33973804
0.28693542 -0.36418828 -0.09105133 0.49728644 0.8346295 -0.8021321 0.6062034 0.8801388
0.3462049 0.100194 -0.10958553 0.0816836 0.13517171 -0.16918911 -0.45921594 0.83352745
-0.17511085 -0.41645265 0.22608052 0.826723 0.21500497 0.25033656 -0.0047965194 0.51208067
-0.13659307 -0.34400862 0.32245666 0.30317193 -0.28537974 0.26400307 -0.101118505 0.23610413
0.73525685 -0.4019074 0.30206063 0.586905 0.8425239 0.26750094 -0.3532507 0.21796823
-0.26232025 0.1523537 0.56479746 -0.084729634 0.049329724 -0.39072287 0.46761215 -0.35556492
0.6858743 -0.120864816 0.35278994 0.16816218 -0.96152335 0.06648712 0.09548906 0.51924264
-0.19083002 1.3592765 0.45782435 0.25818175 -0.5531036 -0.7470738 -0.4149592 -0.07340496
-0.66374046 -0.25938094 -0.41365921 0.5712044 0.12087558 -0.00037262426 -0.10152222 0.8812454
-0.32888573 0.09455348 1.2258338 0.47640452 -0.35024405 0.31145364 0.04103362 0.4225224
0.8032282 0.58969665 -0.45302117 0.34149948 0.3095604 0.5624954 0.7175198 -0.72909254
1.138272 -0.18354973 -0.37701705 0.7047365 0.2110205 0.79484487 -0.40712395 0.59876174
0.2092903 0.29914543 0.91872334 -0.31423172 -0.8154761 -0.781834 -0.09688136 0.7450714
0.12670952 -0.024771819 0.33535475 0.082489185 -0.15780242 0.25240198 -0.78610593 0.49341756
0.37084115 0.25707018 0.68966323 -0.8941028 0.0567955 0.031709086 0.16751902 -0.7442874
0.6163652 -0.9160686 0.24021325 -0.20235272 -0.38852632 -1.1676536 -0.6648469 -0.18854387
0.29308426 -0.0880931 0.38736433 0.104527734 0.6393327 0.46254236 -0.36578497 -0.18017948
-0.34222627 0.014978958 0.27345353 0.08017859 -0.12934287 -1.0446895 0.26351476 0.9828613
0.3602532 -0.010190561 -0.2460478 -0.3228448 0.19660482 -0.2980034 0.945948 -0.13303603
0.24842651 0.26419973 -0.99183357 0.12542841 -0.8164185 0.00510533 -0.27146733 0.13686346
-0.34249613 0.04329467 0.8565988 0.3953306 -0.06281668 -0.5300999 0.269516 -0.09460636
0.48456377 0.24544738 0.08693014 0.6771547 0.96419907 0.097124316 0.25101483 0.7344686
-1.5079099 -0.02217995 -0.10041178 0.6216279 -0.61033577 0.5390848 0.14208722 -0.3811116
0.44151866 0.573607 0.144507 0.09346518 0.71463567 -0.53952134 0.5061664 0.576015
0.81258434 0.3892277 0.47765124 0.44121957 0.2929772 0.6588848 0.23766398 0.48589718
00000000: 024a bcbe 342c b2bd bc4d aabf 595e f5bd
00000010: 19e7 71bd 9ae4 8d3f dd72 66bf 619b 443e
00000020: feed 913f c6a7 de3d 2410 a03f 1780 613e
00000030: 465e df3e 44dd 123f a7e0 c63d 5e46 103f
00000040: 051e 0b3e 2f79 0abf 97c7 24bf 26ac 213f
00000050: 6c4f 13bf 344b 543e 1209 2c3c d917 b83e
00000060: 26eb 72bf 2763 2abd 3158 463e c3c0 86bf
00000070: 38a6 213e a1d2 1c3f 0ae9 bb3d 35e7 5dbe
00000080: daf0 863e ed0c c33d 82a9 8d3a d927 b1bc
00000090: ac0c af3e 6768 963e eb01 c7be 161c 353f
000000a0: 91a7 10bf 6780 ba3e c1cd 133f 0012 cc3e
000000b0: f2e5 cf3e e752 70bf 2394 84bf 98dd d9bd
000000c0: cd3e 62bd dbb8 02be 372c 7abe 5dd4 42bf
000000d0: cf4e c13f aad1 23bf f4f3 8d3d 25f2 ad3e
000000e0: 33e9 923e e376 babe 1f79 babd 549c fe3e
000000f0: 47aa 553f 8858 4dbf 2530 1b3f c750 613f
00000100: c541 b13e 8332 cd3d 616e e0bd bb49 a73d
00000110: 746a 0a3e e93f 2dbe 5a1e ebbe 0e62 553f
00000120: 4250 33be 4839 d5be a781 673e 1ea4 533f
00000130: 432a 5c3e 1d2c 803e 1f2c 9dbb b817 033f
00000140: 0edf 0bbe e621 b0be 0a19 a53e 5a39 9b3e
00000150: 4b1d 92be 692b 873e 3817 cfbd 48c5 713e
00000160: cb39 3c3f cfc6 cdbe b1a7 9a3e 683f 163f
00000170: a5af 573f e2f5 883e 47dd b4be 1033 5f3e
00000180: d74e 86be 9c02 1c3e 9196 103f bb86 adbd
00000190: f70d 4a3d d40c c8be dc6a ef3e 9b0c b6be
000001a0: 7595 2f3f f987 f7bd e2a0 b43e b532 2c3e
000001b0: 6526 76bf 662a 883d c58f c33d 16ed 043f
000001c0: f268 43be c6fc ad3f f467 ea3e 6630 843e
000001d0: 3398 0dbf 3b40 3fbf 8875 d4be 5755 96bd
000001e0: e5ea 29bf 94cd 84be 24cb d3be 743a 123f
000001f0: 9e8d f73d c85c c3b9 e2ea cfbd 4c99 613f
00000200: b663 a8be 41a5 c13d 1fe8 9c3f 4beb f33e
00000210: 3053 b3be da76 9f3e de12 283d db54 d83e
00000220: 5da0 4d3f 5cf6 163f 64f2 e7be 05d9 ae3e
00000230: b37e 9e3e b3ff 0f3f 61af 373f cfa5 3abf
00000240: e6b2 913f 76f4 3bbe 6108 c1be 9c69 343f
00000250: c215 583e f47a 4b3f 8d72 d0be 7348 193f
00000260: 3250 563e 9729 993e 7431 6b3f fbe2 a0be
00000270: 0bc3 50bf 4626 48bf bc69 c6bd 00bd 3e3f
00000280: 24c0 013e 45ee cabc 9eb3 ab3e 17f0 a83d
00000290: f596 21be d53a 813e 3d3e 49bf 3aa1 fc3e
000002a0: e4de bd3e b49e 833e c58d 303f ece3 64bf
000002b0: 66a2 683d 63e1 013d 1b8a 2b3e 9e89 3ebf
000002c0: 1cca 1d3f 7983 6abf 76fa 753e 8d35 4fbe
000002d0: ecec c6be ac75 95bf 6833 2abf a511 41be
000002e0: 240f 963e 286a b4bd 9e54 c63e a312 d63d
000002f0: 4fab 233f 5ad2 ec3e 2b48 bbbe f880 38be
00000300: 4838 afbe 4e6a 753c 1a02 8c3e ac34 a43d
00000310: 7572 04be 63b8 85bf 68eb 863e cc9c 7b3f
00000320: 1c73 b83e 50f6 26bc f4f3 7bbe ea4b a5be
00000330: c652 493e e793 98be a629 723f 993a 08be
00000340: 8563 7e3e 3045 873e cee8 7dbf 4e70 003e
00000350: ce00 51bf 9d4a a73b c4fd 8abe ef25 0c3e
00000360: a75b afbe c055 313d 0f4a 5b3f c668 ca3e
00000370: 08a6 80bd a1b4 07bf 00fe 893e fbc0 c1bd
00000380: be18 f83e 8f56 7b3e 6e08 b23d 035a 2d3f
00000390: c0d5 763f 1de9 c63d 0485 803e 2206 3c3f
000003a0: 3103 c1bf bab2 b5bc b1a4 cdbd 0223 1f3f
000003b0: f73e 1cbf 7601 0a3f 507f 113e 0f21 c3be
000003c0: bc0e e23e e9d7 123f a5f9 133e ac6a bf3d
000003d0: 5df2 363f 121e 0abf 1f94 013f b875 133f
000003e0: 8705 503f da48 c73e b48e f43e 88e7 e13e
000003f0: 1c01 963e adac 283f 305e 733e 84c7 f83e

decoder_net.8.bias f4 [128]
0.08648088 0.022033978 0.14044088 -0.0030595416 -0.07256124 -0.079126745 0.056114215 -0.0519178
-0.07185005 -0.06518358 0.0062743174 -0.010564036 0.07334637 0.069724165 0.08333206 -0.006107592
0.023840494 -0.053619277 -0.0023084553 -0.0020489148 0.026168995 -0.013464493 0.13352412 0.021008521
-0.000105476734 0.12401199 -0.053543095 -0.06601943 0.016893253 -0.05599217 0.061655212 -0.058837947
0.06681698 -0.08375989 0.010110559 -0.087393396 -0.02968964 -0.0014638909 0.065830365 -0.0005908883
0.100137934 -0.029961953 0.08923431 -0.023417687 0.07791405 0.016461173 0.07917888 -0.009302548
-0.07858198 0.03383882 0.060430508 0.028264023 -0.09164141 0.00864137 -0.107776046 -0.010195911
-0.0030786016 0.038749926 0.06381688 -0.012055498 -0.035204932 0.0543524 -0.006166834 0.08382833
-0.07275102 0.03261248 -0.05608746 0.07546269 -0.026325624 0.10806082 -0.041736796 -0.070396565
-0.019755684 0.06620743 -0.02914329 -0.036739033 -0.031291284 0.07429316 0.051444728 -0.124102995
0.05461699 -0.068132155 0.023278842 -0.04734752 0.088980086 -0.055028465 0.076500095 0.088047326
-0.08838894 0.04006299 0.010439359 0.0021505489 0.043641634 0.08097723 0.05281 0.0053458908
0.026646677 0.12384998 0.044218037 0.023471005 -0.069688566 0.08966684 -0.06349604 0.016699994
-0.022212408 -0.012849033 0.11873116 -0.017788768 -0.0056317584 -0.012617566 -0.028818013 0.014760748
0.075554356 -0.049424343 0.044105463 -0.09030437 0.046551056 -0.027860539 0.12119875 -0.08528659
-0.017325616 -0.05334454 0.072473116 -0.07047274 0.034886226 0.017352076 0.05788576 0.010986292
00000000: e31c b13d 9a80 b43c bccf 0f3e 9782 48bb
00000010: fd9a 94bd 340d a2bd 05d8 653d c2a7 54bd
00000020: 1e26 93bd f87e 85bd ca98 cd3b c714 2dbc
00000030: 9f36 963d 8bcb 8e3d 00aa aa3d 3222 c8bb
00000040: 244d c33c e39f 5bbd 7449 17bb 1647 06bb
00000050: 5c60 d63c 2d9a 5cbc 8cba 083e 101a ac3c
00000060: 6433 ddb8 00fa fd3d 0150 5bbd 3235 87bd
00000070: b863 8a3c 0c58 65bd 2d8a 7c3d 0f00 71bd
00000080: 57d7 883d 4e8a abbd c2a6 253c 4ffb b2bd
00000090: b037 f3bc 07e0 bfba 12d2 863d d8e5 1aba
000000a0: 1e15 cd3d c572 f5bc 7ac0 b63d 73d6 bfbc
000000b0: 6791 9f3d 95d9 863c 8928 a23d b769 18bc
000000c0: 97ef a0bd 939a 0a3d fb85 773d f489 e73c
000000d0: 7eae bbbd 8894 0d3c b0b9 dcbd c00c 27bc
000000e0: 5dc2 49bb 3eb8 1e3d 6db2 823d 6c84 45bc
000000f0: 0c33 10bd 9fa0 5e3d 2713 cabb 30ae ab3d
00000100: 7dfe 94bd aa94 053d f7bb 65bd 2f8c 9a3d
00000110: d6a8 d7bc fe4e dd3d 34f4 2abd 132c 90bd
00000120: acd6 a1bc c397 873d e9bd eebc ab7b 16bd
00000130: 4a2b 00bd 0327 983d b5b7 523d b629 febd
00000140: 11b6 5f3d df88 8bbd 45b3 be3c 79ef 41bd
00000150: 313b b63d 8765 61bd 15ac 9c3d 2852 b43d
00000160: 4305 b5bd 1719 243d d809 2b3c 39f0 0c3b
00000170: 92c1 323d 64d7 a53d 4c4f 583d 952c af3b
00000180: 224a da3c 0fa5 fd3d f91d 353d 4446 c03c
00000190: e1b8 8ebd 40a3 b73d 360a 82bd 6dce 883c
000001a0: ccf6 b5bc c084 52bc 5329 f33d c0b9 91bc
000001b0: 9d8a b8bb e8b9 4ebc c113 ecbc 10d7 713c
000001c0: 3ebc 9a3d 2e71 4abd eea7 343d 7ff1 b8bd
000001d0: 52ac 3e3d c93b e4bc 0d37 f83d bcaa aebd
000001e0: 73ee 8dbc ce7f 5abd c96c 943d 0354 90bd
000001f0: dce4 0e3d f125 8e3c 9e19 6d3d d9ff 333c

decoder_net.10.weight f4 [1, 128]
1.0019456 0.49487123 0.29430324 0.21811502 -0.4750122 -0.681526 -1.2448533 0.11827907
-0.7259871 -0.14095588 0.8392734 0.08844279 -0.0017012106 0.5639752 0.21606252 0.89334035
0.0918886 -0.16451126 0.35718122 -0.23922303 0.5559408 0.2958965 0.2618531 -0.14099668
-0.1298706 0.46026105 -0.036303937 0.28058475 -0.72304416 -0.24477984 0.4399702 0.6520177
0.284396 -0.21084501 -0.13318099 -0.2717892 0.22713977 -0.011406032 0.6864729 -0.329799
0.4444605 -0.030031534 0.35376385 0.34702244 1.5898505 0.5935748 -0.943468 -0.21668519
-0.32080218 0.7562996 0.64724576 -0.23546508 -0.13777798 0.74032366 -0.48956877 -0.20732717
0.5946121 -0.10459626 -0.4861284 0.37365064 -0.106827065 0.5907179 0.26959208 0.4401798
-0.9423183 0.24497093 -0.24149959 0.6893187 -0.11809032 0.38924184 -0.9087024 -0.49202368
-0.30015123 0.12123746 -0.35363272 0.53762746 0.9340449 0.3011461 -0.7376855 -0.27121565
0.3084853 -0.49454308 0.17646995 -1.024447 0.3676576 -1.0015666 -0.5938284 0.80956143
-1.2679302 0.7542646 -0.5982933 -0.06663628 0.7265051 0.44200817 -0.5124396 0.998043
0.2806597 0.5518612 0.26967406 0.22234294 -0.8541897 0.8362686 -0.67299837 -0.48592576
1.4428027 -0.17589551 0.77831435 -0.55563235 0.4146364 0.02808443 -0.28654972 -0.2499933
0.6590493 -0.91761315 -0.53491837 -0.6928111 -0.711781 -0.28563967 0.54418737 -0.8210446
-0.25406796 -0.1778622 -0.6499696 -0.5963179 -0.41153166 0.98127764 -0.9229631 -0.24693829
00000000: c13f 803f c35f fd3e eaae 963e 8b59 5f3e
00000010: cd34 f3be 7d78 2ebf 5a57 9fbf 4c3c f23d
00000020: 4ada 39bf bd56 10be 9fda 563f 7e21 b53d
00000030: 28fb deba ae60 103f 7e3f 5d3e f4b1 643f
00000040: 1730 bc3d a475 28be 75e0 b63e e2f6 74be
00000050: 2352 0e3f bf7f 973e 9c11 863e 6f61 10be
00000060: ccfc 04be 56a7 eb3e 70b3 14bd cea8 8f3e
00000070: 6c19 39bf 91a7 7abe c643 e13e a2ea 263f
00000080: 5a9c 913e c1e7 57be 9960 08be f427 8bbe
00000090: 5497 683e 5ee0 3abc b0bc 2f3f 6adb a8be
000000a0: 5490 e33e b104 f6bc 8920 b53e edac b13e
000000b0: 3980 cb3f 85f4 173f 1e87 71bf b9e2 5dbe
000000c0: 2f40 a4be da9c 413f e6b1 253f c21d 71be
000000d0: ac15 0dbe da85 3d3f c2a8 fabe 934d 54be
000000e0: 8038 183f 9036 d6bd d2e5 f8be 234f bf3e
000000f0: 26c8 dabd 4a39 173f f907 8a3e 3f5f e13e
00000100: c63b 71bf a9d9 7a3e ab4b 77be 3177 303f
00000110: 56d9 f1bd b54a c73e b8a0 68bf 87ea fbbe
00000120: 6cad 99be 584b f83d 590f b5be f4a1 093f
00000130: 911d 6f3f d22f 9a3e f5d8 3cbf c7dc 8abe
00000140: c9f1 9d3e c034 fdbe 8ab4 343e 1421 83bf
00000150: 9e3d bc3e 5633 80bf 2305 18bf 6b3f 4f3f
00000160: 894b a2bf 7c17 413f c029 19bf 9a78 88bd
00000170: 3dfc 393f e54e e23e 3e2f 03bf bf7f 7f3f
00000180: a1b2 8f3e c746 0d3f b812 8a3e dead 633e
00000190: 2dac 5abf b315 563f 9f49 2cbf 43cb f8be
000001a0: c2ad b83f f41d 34be 9c3f 473f ec3d 0ebf
000001b0: 394b d43e 5211 e63c a5b6 92be 3efe 7fbe
000001c0: 74b7 283f b2e8 6abf 69f0 08bf 115c 31bf
000001d0: 4837 36bf 5d3f 92be dd4f 0b3f fb2f 52bf
000001e0: 3215 82be 8221 36be 6864 26bf 4aa8 18bf
000001f0: 47b4 d2be 0335 7b3f 4f47 6cbf 64dd 7cbe
