Value_Net.pt (torch, 400338 bytes, 11 tensors)

decoder_net.0.weight f4 [128, 255]
00000000: bf6c 0e3f 2b58 c83e 2b47 ce3e b692 9fbc
00000010: f1d6 d73e 6c8a f9bd ac8e 37bf d360 9a3e
00000020: be4a 2f3f 083e 7ebf 66de 433d f292 14bf
00000030: d22f 0abe 3fe0 1fbe 8b54 933d bc05 393e
00000040: dbaa 333f 349d 47bf 278e 723e 4fcd 8e3e
00000050: ec14 c63e ea01 023f 381b d6be 5ced 12bf
00000060: 1bc0 5f3d fc65 943c 2cf6 853e 2ec2 d4be
00000070: 9603 73bf 86b7 7f3d 6330 533e 46b4 ac3e
00000080: 7b33 60be 5d8a 66bf 8daa a1be f8f7 88be
00000090: 7fe7 78be d5f0 32bf 6506 37bf 7534 3ebe
000000a0: d9e9 dc3d 275b 6ebd 22f8 97bf ee6e 98be
000000b0: 257a f4bd 0ba3 6ebe 5ade d73e 8871 06bf
000000c0: 4e89 f13e 485d 2ebf 17b8 cebe ba50 2c3e
000000d0: dd1e aa3e 4842 1ebe 047e 99bc 8dec 34bf
000000e0: 463a 1fbf fb6d 15bf fbe6 bdbe bf35 693e
000000f0: 2e17 d0be 8dda 6abf edd6 c9be e685 96be
00000100: fbce 7bbf 1753 ad3e 79e3 67bc 5503 e1bf
00000110: 1756 04bf 4569 0dbf 1585 f1be 0cac d53e
00000120: 1c9b a9bc 680b cfbd 93a7 c73d b283 13bf
00000130: 1492 04bf 6aca 97be 460d 80bf 2470 7e3e
00000140: 78ab 1b3e 16f3 3bbf 0ca4 6abe 162e 223f
00000150: 0a20 fc3e 0923 a23d 8dda 3cbf 3041 d23d
00000160: a0db 053f 49ff e83e 5530 e6be c355 c5be
00000170: e356 84bf a5cf c7bc 1134 67bf 3d22 85bc
00000180: 2939 673e 3761 c2be e2d9 183f b610 5e3e
00000190: 3cb7 b93b 1b9c 77be 7960 f0be 47e4 e83e
000001a0: 0cb7 093f 42c7 fbbe 1320 a83d 50e8 393f
000001b0: e92a 433f ea43 813f 93da bdbe 64b0 213f
000001c0: 8a35 183e 2288 a4be 8106 19be 791d 143b
000001d0: aa48 e2be ad7a dd3d 18f5 6a3e 4bc6 a5be
000001e0: ad2e fe3c cf60 d33e b597 fabe 0d98 4b3e
000001f0: 33b9 27bf 940c 423f 0735 b8be df15 2abf
00000200: 5989 0fbe 6495 8e3e 0951 2c3d 7d94 a4be
00000210: b5d6 bfbe abbd 603f 9eb5 d83c 56c0 273e
00000220: f7bb 0b3f 1b5e f53d 4346 ac3d 9bde ce3d
00000230: 05a0 dabe 0953 183e a33d 23bf 8480 bcbe
00000240: 473d a7be 7889 98bc 1d76 a13e 692e b0bd
00000250: daf1 71bf 2abe 66bd e20e 093f bbce c63d
00000260: d472 0cbf 6199 333e c2d5 66be 7f98 e8be
00000270: e64e 35bd e6b4 1d3e 4fe0 c23d 12d5 1f3f
00000280: f210 173d 08b6 66bc 1f88 333f eee5 60bd
00000290: 2cc8 00be 38ce 01bf f40b 8fbf b502 1cbf
000002a0: b936 9b3e bb4d 8abf 49fe 57bc 0515 3d3e
000002b0: f0b6 69bf 3824 853e f01b 393f c300 063f
000002c0: 8d82 90bd 81ad c93e 8c79 173f f29e 7e3e
000002d0: 9908 64be e8c9 233e 2926 823e e8c7 4f3f
000002e0: 2a06 10bf 544d 383f 2c93 073f 903c 893e
000002f0: 9faf 0a3f 7e64 473f c61f d6be e987 ec3e
00000300: f6d2 173f 9346 a8bd c090 d23e a7d2 10bf
00000310: fe89 043f 9fb9 3c3f 099b 3d3e e3f5 d5be
00000320: 27c5 923e 2623 ed3e 2f40 f53e 75ee 5cbe
00000330: 687b 9b3c 0f7e 173e 3efb c5be ec2a 113f
00000340: 7733 993c 47e3 443f 32a4 51be c442 dcbd
00000350: 4561 adbe 47c9 c43e 6000 a2be 8bc8 29bf
00000360: c367 1cbf 05bd 12be 7291 cebe 0122 c03d
00000370: dbf1 753e d969 a6bd 1acd c9bd f100 4fbe
00000380: 5114 eb3d 2774 863f d5f4 eb3e f044 a3bc
00000390: 52fc 023f b426 9abe 3f3c e93e a088 a8be
000003a0: 8be8 973e 834d 033e 079b a83e b434 d53e
000003b0: 57c1 6cbf c960 0f3f 5634 1f3f 6b7c c2be
000003c0: 9065 d33e 8cb9 413f 6b21 a3be 1998 1b3f
000003d0: d713 74bd 8340 b43e f455 e23d e276 b83d
000003e0: 17c8 14bd 5410 17bf 18aa 15be 31dc 1ebf
000003f0: d8cb 00bf ee66 54bf bc7b 21be 6e05 c5be
0.55634683 0.39129767 0.40288672 -0.019479137 0.42156175 -0.12184605 -0.71702075 0.30151996
0.6847342 -0.993134 0.047819518 -0.5803672 -0.13494805 -0.15612887 0.0719386 0.18068594
0.7018258 -0.7797425 0.2368704 0.27891013 0.38687837 0.5078417 -0.4181764 -0.5739343
0.054626565 0.018115036 0.26164377 -0.41554397 -0.94927347 0.06243088 0.20623927 0.33731288
-0.21894638 -0.90054876 -0.31575432 -0.26751685 -0.24307059 -0.6989873 -0.7149413 -0.18574698
0.107867904 -0.0581924 -1.1872599 -0.29772133 -0.1193736 -0.23304383 0.42161828 -0.52516985
0.47175068 -0.68111086 -0.40374824 0.1682767 0.33226672 -0.15454972 -0.018736847 -0.7067345
-0.62198293 -0.5837094 -0.37090287 0.22774409 -0.40642685 -0.9173973 -0.39421788 -0.2939903
-0.983627 0.33852455 -0.014153355 -1.7579142 -0.5169386 -0.55238754 -0.47171846 0.41732824
-0.020703845 -0.101095974 0.09748759 -0.57622826 -0.517854 -0.29646617 -1.0004051 0.24847466
0.15202129 -0.73417795 -0.22914141 0.6335157 0.49243194 0.07916839 -0.7377098 0.1026634
0.52288246 0.45507267 -0.4495875 -0.38541993 -1.0339016 -0.024391005 -0.9031382 -0.016251678
0.22580399 -0.37964794 0.5970746 0.21686062 0.005667595 -0.24180643 -0.46948603 0.45486662
0.5379493 -0.4917546 0.08209243 0.72620106 0.7623735 1.0098851 -0.3708082 0.63159776
0.14864174 -0.3213511 -0.14943887 0.0022600575 -0.44196063 0.10814414 0.22945058 -0.32377848
0.031028116 0.41284797 -0.48943868 0.19882222 -0.65516967 0.7580044 -0.35977957 -0.6643962
-0.14017238 0.2784835 0.04206947 -0.32144538 -0.37468496 0.8778941 0.02645379 0.16381964
0.54583687 0.1198084 0.08411839 0.101010524 -0.4270021 0.14875425 -0.63765925 -0.368168
-0.32663938 -0.018620238 0.31535426 -0.08602602 -0.9450966 -0.0563337 0.53538334 0.097073995
-0.54862714 0.17538978 -0.2254248 -0.45428845 -0.044264697 0.15401039 0.0951544 0.62434494
0.036881395 -0.014081486 0.7012958 -0.054906778 -0.1257636 -0.5070529 -1.1175523 -0.6094163
0.30315188 -1.0804971 -0.013183185 0.1846505 -0.91294765 0.26004195 0.72308254 0.5234491
-0.070561506 0.39390185 0.5916984 0.2486532 -0.22268905 0.1599499 0.2541974 0.8116441
-0.56259406 0.71992993 0.5295894 0.26804018 0.54174227 0.77887714 -0.41821116 0.4619744
0.59306276 -0.08216586 0.4112606 -0.5657143 0.5177306 0.73720735 0.18516172 -0.4178916
0.2866604 0.4631588 0.4790053 -0.21575339 0.018979743 0.14794181 -0.38668245 0.5670612
0.018701298 0.769093 -0.20472792 -0.10754922 -0.33863273 0.38434812 -0.3164091 -0.6632163
-0.6109583 -0.14329918 -0.4034534 0.09381486 0.24018042 -0.081256576 -0.09853573 -0.20215203
0.114784844 1.0504197 0.4608523 -0.019930333 0.5116626 -0.30107653 0.45553777 -0.32916737
0.29669604 0.12822537 0.32930776 0.41641772 -0.92482513 0.5600706 0.62189233 -0.37985548
0.41288424 0.7567375 -0.31861433 0.6077896 -0.059589233 0.3520547 0.110515505 0.0900705
-0.036323633 -0.5900929 -0.14615667 -0.62054735 -0.5031104 -0.8296956 -0.15769857 -0.38480705

decoder_net.0.bias f4 [128]
00000000: ed0c 313e 135f 1f3e 4f5c 213d eb1d aebd
00000010: 713e bf3d c559 013e efae 573d fe55 ac3d
00000020: 764a 63bc 8634 75bc fe8c 463e 00fb 6fbd
00000030: f437 f13d e728 12b8 4eaa 993d 926d 193d
00000040: 9ded 7e3d 203c 033d 467d 583b d9e0 433b
00000050: 343b 203e b709 c5bd bbe3 853c c090 a83d
00000060: 9aa2 ba3d 2936 403d a8ea 553d d37c 003e
00000070: 591d b3bc c2a2 cd3b 843f 143c e30e 6ebc
00000080: 4a21 293d a64d 15bd 24e8 dd3d b748 d43d
00000090: 8ba0 213e fdd7 f03d 720f 12bd 7357 bd3d
000000a0: e94b ee3d ed61 253e 214b 94bd ea89 003d
000000b0: ead8 63bc bc74 90bd 86cd 1e3e f4f0 713d
000000c0: 900d 4fbd f28f 02bc 08e8 0e3e 4bd9 513c
000000d0: 1990 893d 185a 353e f5c1 e43d 6691 db3d
000000e0: 4289 983c a7db 223e 4b51 13bd 0440 013d
000000f0: 2eba 0a3d 0a4a ce3b 4ffd 89bd 94d7 e3bc
00000100: f596 14bd 9acc 5dbd c308 71bc a6fa d33d
00000110: 4464 29bc b270 bbbc 5abf 0e3e c14a 343d
00000120: ec0c 8d3d 1e98 573c 3dfe de3d 4ba2 dc3d
00000130: 6962 62bd 4b24 72bd a77e 103b 58e8 81bd
00000140: 730e d53d f818 d73c 7511 b93d 67cb 6d3d
00000150: 3190 aa3d 44e7 8b3d 8178 39bd 6297 193d
00000160: fb0f 8f3d 89c3 b83d f761 e2bc edff d63d
00000170: 4d4d d83d 7d11 9dbc 3d20 f9bb 0632 83bd
00000180: 2680 d63c 708c ba3d 3960 853d 1f68 1e3e
00000190: 9280 023d 1e82 73bc 7640 f73d aa0d cdbd
000001a0: 17e8 8d3d 3ea9 ad3d 2fcd 473d b998 a63c
000001b0: 7547 983d 604b 7a3d b924 e13d 9bc2 a13d
000001c0: e1cb 123d c662 3d3d 53cb c1bd b7b7 113c
000001d0: a743 983d 5733 db3d 8f24 083e 31df db3c
000001e0: 7438 b63d 9f78 36bd 6558 313e edcb 2bbd
000001f0: dfff 173e 4076 8c3d 1169 8f3c f10d a739
0.17290087 0.15563612 0.039394673 -0.085018 0.09338082 0.126319 0.052657064 0.08414839
-0.013872733 -0.014966136 0.19389722 -0.05858898 0.1177825 -3.4847206e-05 0.07503186 0.03745801
0.062238324 0.03203976 0.0033033653 0.0029888658 0.15647584 -0.096209936 0.016343942 0.08230734
0.09113045 0.04692665 0.05222574 0.12547617 -0.02186458 0.0062755058 0.009048346 -0.014529916
0.041291513 -0.036451004 0.10835293 0.10365432 0.15783899 0.117599465 -0.03565926 0.09245195
0.116355725 0.16150637 -0.07240892 0.031381525 -0.013906697 -0.07053515 0.15508088 0.05906768
-0.050550044 -0.00796889 0.139557 0.012808154 0.067169376 0.1771015 0.11169807 0.10721092
0.018620137 0.15904103 -0.0359662 0.03155519 0.03386896 0.0062954472 -0.06737768 -0.027812757
-0.036276776 -0.0541502 -0.014711562 0.10350542 -0.010338847 -0.022880886 0.13940182 0.044016603
0.0688723 0.013158826 0.10888336 0.107731424 -0.055269632 -0.059116643 0.0022048147 -0.06343144
0.104031466 0.026257023 0.09036533 0.058055308 0.083282836 0.0683122 -0.045280937 0.037497886
0.0698547 0.0902167 -0.027634604 0.10498033 0.10561619 -0.019173378 -0.00760272 -0.064060256
0.026184153 0.091088176 0.06512494 0.15469407 0.031860895 -0.014862565 0.12072842 -0.10012372
0.06929033 0.08479546 0.048779663 0.020336496 0.07435504 0.06110704 0.109933324 0.07898446
0.035838965 0.046236776 -0.09462609 0.008893899 0.07434779 0.10703152 0.13295196 0.026839824
0.08897486 -0.044548627 0.17318876 -0.041942526 0.14843701 0.06858492 0.017506154 0.0003186311

decoder_net.2.weight f4 [128, 128]
00000000: afd9 863f 01d5 80bf 2ee6 603f e7a5 a1bf
00000010: 9675 48be 4cee a0be a7b9 35be 6053 b4bc
00000020: e02f 2ebf 9b56 a43f c5af 08bd f40f dfbd
00000030: c425 49be af2b b7be 0868 cebd 77b3 993e
00000040: c735 1fbf 6bec 30be e863 463d c935 b1be
00000050: 5459 3c3d 6e4b 89be c5fd 1f3f e50d 8dbf
00000060: 90dc 43be 9784 6e3e 4418 e5be 0a07 b13e
00000070: fe9d 9fbe c040 d43f 5b3d d7be 29ea efbe
00000080: b2cd 903b e76f c3bd c232 7ebd 1bff c53e
00000090: 6bc2 673e 5116 b83e af87 1f3f 1764 3fbe
000000a0: 1cd8 73bf fe30 933e 0ec3 0bbf f187 763f
000000b0: 0c2b a0be 82c6 d4be 298f 9f3f 33f9 083e
000000c0: bd28 4e3e 7acc 8c3c aa62 32bf d54b a6be
000000d0: 1dce abbe df60 dabe e4c4 bbbd fff0 88bf
000000e0: 277c 243e 1661 c63e 0886 c3be a92e 7fbe
000000f0: e854 6d3e 7ca8 3bbf 0384 503e b363 b63e
00000100: 9186 dfbc f8f0 5bbf 32c4 23bd a2cb 323f
00000110: e6de 9fbe b17c 89bb 3112 c53e a94a 8fbd
00000120: 73f8 bcbe edd6 73bf 7f96 0a3f 79f4 c8be
00000130: ab99 633f 0e20 443f 536e fdbe 8adc b6bd
00000140: c1bd 81be 6f32 1ebe 778e 13be 9a51 aabe
00000150: 561c 4abf a958 1bbc e8d4 493f 3141 863d
00000160: b943 193e 9350 d33e 0e32 cfbd f15a 31bd
00000170: d2ab 00bf cb80 e6bd 170b e4bc 93e7 233e
00000180: 6cce e43e 449d bfbf a03b a9be ec0a bebe
00000190: e327 6e3f 1297 a5be cb0b df3e f513 18bf
000001a0: 946e a53d 944d 48be 036d 8ebe 6164 a1be
000001b0: 335f 1ebf 9ace 5c3e 3783 943e b314 083f
000001c0: 50bd bebe 8bd5 42be 7fa4 463e 3a91 f8be
000001d0: c318 f2be afef e4be a71c b3be 604e 50be
000001e0: 8b0a 78be c036 d03d 75eb ecbd 6bfb 2fbf
000001f0: 6a11 4f3f 86a6 873e 8b4f 92b9 2748 893f
00000200: 50f9 9a3e 77fe 56bf f8d0 4fbf 9c5c 00bf
00000210: 296c 833f e259 633e 5466 f93e c590 e7be
00000220: 865b 1fbe 69e9 94be 199b ecbe 081d 3dbd
00000230: 1168 e63e d8cf 2a3e da43 25bf ffeb d73e
00000240: 8391 13be 98d3 313e 8326 a53e 5c9a 30be
00000250: 39d3 1f3d b321 933e 8613 a43e a02c 873f
00000260: 8883 1f3e 9a0f 5abe bef6 ac3e 00d7 1dbe
00000270: 2853 2a3f 4bb6 cc3c ec1a 42bf df3c 003e
00000280: 6569 59bf f405 4dbd a6b0 e63c f2f8 f43e
00000290: 5b0e f1bd 1428 5abe 522b df3e b44b 3b3e
000002a0: 1f96 b1bc 76f5 ae3e 20e3 e13e ddb3 77bf
000002b0: 631f 0a3f f9d0 013e 0158 39be c2f5 f03d
000002c0: 3f01 d4be 2f51 2f3f 099e 633d 2468 313e
000002d0: af71 933e cc5a 39bf 81be 763e 7fca da3e
000002e0: 2b26 843e 18d2 a73e 2876 863f 9bc0 d1be
000002f0: 825f 263f a363 e43d dae8 903d 3eac 053f
00000300: 701c 373e 02ef 083d 1484 2cbf cc57 0f3f
00000310: c51a 1d3e c02f cfbe 77d7 f7be 5594 89be
00000320: 488e ed3e a914 d23e 834d 6fbe 6de8 edbe
00000330: 027a 1f3f 5d23 4fbd a13a 0ebf 1dfd b0bc
00000340: 624c 0e3f 07be a53e 9431 303e 7155 37be
00000350: 6251 cdbd 72e0 3c3e 526d 483e 0e98 53bf
00000360: 1be1 85be d3b7 aebc fb68 373d bf79 1e3f
00000370: 15d5 7ebe ded9 213f 697d 443f 5416 b8be
00000380: dfd5 ba3b 0262 7ebf de51 2bbf 3788 b63e
00000390: 7b0d 393e 9be7 f93e b018 b93e 1be0 4b3f
000003a0: e2be a43c 0925 2b3f edba 8ebe 190a f33c
000003b0: fc17 2d3e 3328 a3be de56 19bf d5f9 6dbe
000003c0: 1bef 5d3e 61bb 5dbf 13d4 3b3f 3b25 213e
000003d0: 7fd4 f73e 16b0 fb3d bff9 cebe 3f6c b23e
000003e0: 3fb2 df3e b804 44be d773 1b3e edaa 12be
000003f0: d75e 58bf c872 c73e 737e 6bbd ea85 5abf
1.0535182 -1.0065004 0.87851226 -1.2628754 -0.19576105 -0.31431806 -0.17746602 -0.022012413
-0.680418 1.283893 -0.033370752 -0.10891715 -0.19643313 -0.35775515 -0.10078436 0.30019733
-0.6219143 -0.17277686 0.04843512 -0.34611347 0.045983627 -0.2681536 0.62496597 -1.1019865
-0.19127107 0.23292767 -0.44745076 0.34575683 -0.31175226 1.658226 -0.42038998 -0.46858338
0.004419052 -0.09542828 -0.062060125 0.38671193 0.22632758 0.35954526 0.6231641 -0.18690525
-0.9525163 0.28748316 -0.54594505 0.9630118 -0.31282842 -0.415577 1.2465564 0.13376312
0.20132728 0.017187346 -0.696818 -0.3247973 -0.3355569 -0.42652032 -0.09168413 -1.0698546
0.16062985 0.38745946 -0.38188195 -0.24920143 0.2317692 -0.7330396 0.20362858 0.3562294
-0.027285846 -0.85914564 -0.03998203 0.6984197 -0.31224746 -0.0041957726 0.3849044 -0.06996662
-0.36908302 -0.95249826 0.5413589 -0.39249018 0.88906354 0.7661141 -0.49498233 -0.08928783
-0.25340083 -0.15448926 -0.14409815 -0.33265382 -0.7894949 -0.009481587 0.78840494 0.06555403
0.1496724 0.4127241 -0.10116969 -0.04329962 -0.50262177 -0.11255034 -0.02783732 0.16006307
0.44688737 -1.4969869 -0.33053303 -0.37117708 0.9302961 -0.3234182 0.43563685 -0.5940545
0.08077732 -0.19560844 -0.27817544 -0.31521896 -0.6186401 0.21563187 0.2900636 0.53156585
-0.3725381 -0.19026773 0.19398688 -0.485483 -0.47284517 -0.44714114 -0.34982798 -0.20342398
-0.24222772 0.10166693 -0.11568347 -0.6874301 0.80885947 0.26494235 -0.00027906554 1.0725144
0.30268335 -0.8398203 -0.81178236 -0.5014131 1.0267383 0.22202256 0.48710883 -0.45227638
-0.15562257 -0.29084328 -0.4621208 -0.046170264 0.4500127 0.16680849 -0.6455666 0.42172238
-0.14410977 0.17365873 0.32255945 -0.17246383 0.039019797 0.28736648 0.32046145 1.0560493
0.15577519 -0.21295014 0.33782 -0.15414047 0.66533136 0.024989268 -0.7582233 0.1252322
-0.84926444 -0.050054505 0.028160404 0.4784618 -0.11770316 -0.21304351 0.43587738 0.18290597
-0.021678029 0.34171647 0.44118595 -0.96758825 0.5395414 0.12677373 -0.18099977 0.117656246
-0.414072 0.6848325 0.055570636 0.17324883 0.2879767 -0.7240417 0.24096109 0.42732617
0.2581037 0.32777476 1.0504808 -0.4096726 0.64989483 0.11151817 0.07075663 0.52215946
0.17881942 0.03343106 -0.67389035 0.5599334 0.15342243 -0.40466118 -0.48406574 -0.2687098
0.46397614 0.41031387 -0.23369412 -0.4646639 0.62295544 -0.050570834 -0.5555821 -0.021605069
0.555853 0.32371542 0.17206413 -0.17903687 -0.10025288 0.18444994 0.19572952 -0.8265389
-0.26148304 -0.021327889 0.04477785 0.6190452 -0.24885972 0.63223064 0.7675386 -0.35954535
0.005701765 -0.993683 -0.66921794 0.356508 0.18071549 0.48809513 0.36151648 0.7963883
0.020110551 0.66853386 -0.27876988 0.0296679 0.1690368 -0.31866607 -0.59898174 -0.23239835
0.21673243 -0.8661404 0.73370475 0.15736859 0.4840431 0.12289445 -0.40424916 0.3484821
0.43690678 -0.19142425 0.15180908 -0.14323016 -0.84519714 0.3895476 -0.05749364 -0.85360587

decoder_net.2.bias f4 [128]
00000000: 5318 b23d ef83 bcbd 0f23 663d f3aa 4b3e
00000010: 6f37 6d3d b1b7 b93a 2a17 a1bd 108f d7bd
00000020: 6bdf 593d 8f56 f33c 06d0 d0bc 2e7b 43bc
00000030: d3d6 4e3d 5af9 3b3d 95f3 203e 5330 f73d
00000040: 1401 863c a018 04be aea8 6c3d cd4d 7c3d
00000050: b25a 173d 7c74 0a3e 3260 053d d3b6 c43c
00000060: 7c06 de3c 1696 37bd 5bc1 1d3d 92e3 57bd
00000070: fabd 53bb 769f 363c 798a babd 6199 883d
00000080: 5faa a73d 2468 9dbc 44de 823d 69dd af3d
00000090: cb4d 60bd 81d3 b43d caa8 8dbd 3761 33bd
000000a0: 856f 5e3c bc8b 0c3e edfe e83c 1ce6 03bb
000000b0: 7be1 ccbd 27ce b03d 3bc6 1d3c 89b5 ea3d
000000c0: 6867 963b fa9c 823d 9eed 763d 72fd 9a3d
000000d0: 0a5f 843d d7e6 ba3c de88 33bd 568a a0bd
000000e0: 4998 293a 895f 0b3d ca3e 963c 3d73 8fbd
000000f0: d9c7 173e d50f 883d 6e18 10ba 9f64 af3d
00000100: 1685 cb3d 2297 543d 8522 af3d ab37 e83d
00000110: ab22 f43d 668d ddb9 cea4 833d 64cd 7ebd
00000120: 3817 0abc 657c c13d c1e7 373c 0401 96bd
00000130: 0e42 2f3e 1149 413c 8508 e43d c117 773d
00000140: 1cf7 44bb 1ee5 a33c 2f4f 873d 2241 043d
00000150: 3e5a d0bc 2233 18bd b126 133d 4ffc 933d
00000160: 6e24 f13c ca57 b5bc f55e ba3d ab3e cabd
00000170: 2cfa a23d 7c86 313c ecfb 75bd fa18 3b3d
00000180: 67ef 1f3e 3e34 65bd 08bc 8bbd 7b5c 2cbc
00000190: 0c97 723c f9c9 ac3c e366 47bd 495d 0e3e
000001a0: e2a1 053d 449f 15bd 849e 8cbc d802 c2bc
000001b0: bd19 ac3d bd91 1d3d 0d2a c13c dbfa 82bc
000001c0: 2f91 4f3d 9cd2 e33d 0efd aebd 193a 213d
000001d0: 4cdf ca3c 95b9 473e 038e a73d b024 83bd
000001e0: 14cf aa3d 6b52 a03c 6505 a6bc 497c b13d
000001f0: 359c 463c b6e8 a2bd f41e f53c d834 b13d
0.08696046 -0.09204852 0.05618578 0.1988943 0.057914194 0.0014169124 -0.07865746 -0.10525334
0.053191584 0.02970436 -0.025489818 -0.011931224 0.05049784 0.045892097 0.15717919 0.12069764
0.016357936 -0.12900019 0.057778053 0.061597634 0.03695173 0.13520998 0.032562442 0.024012959
0.027102701 -0.044820867 0.038514476 -0.052707262 -0.003230928 0.011146417 -0.09108443 0.0666988
0.081867926 -0.019214697 0.0639005 0.085871525 -0.05476169 0.08829404 -0.069169596 -0.043793883
0.013576393 0.1372518 0.02844187 -0.002012617 -0.100039445 0.086330704 0.009629781 0.11460406
0.0045899637 0.06377597 0.060285203 0.07567872 0.0646344 0.022815151 -0.0438317 -0.078388855
0.00064695306 0.034026656 0.018340487 -0.07004402 0.1482233 0.06643645 -0.00054968044 0.08564114
0.099374935 0.051901944 0.08551506 0.11338743 0.11920675 -0.00042257755 0.064279184 -0.062207595
-0.008428387 0.094475545 0.011224688 -0.073244125 0.17115042 0.011797206 0.111344375 0.060325388
-0.0030054515 0.020006713 0.066069 0.032288678 -0.025433656 -0.03715814 0.03592557 0.072258584
0.029436316 -0.022136588 0.09100143 -0.09875234 0.07957873 0.010835286 -0.060054705 0.045678116
0.15618668 -0.055958025 -0.068229735 -0.010520096 0.01480652 0.021092402 -0.048682105 0.13902773
0.032625087 -0.03652884 -0.01716543 -0.023682997 0.08403347 0.038469065 0.023579622 -0.015988758
0.050675567 0.11124155 -0.0854436 0.039362047 0.02476468 0.19504388 0.081813835 -0.06403482
0.08340278 0.01957055 -0.020266244 0.08666284 0.012122204 -0.07954542 0.029921986 0.08652657

decoder_net.4.weight f4 [128, 128]
00000000: 2863 0e3e 3965 493f e340 29bf ab64 4dbe
00000010: dca7 ddbd f478 df3e c5be 3f3f a435 53be
00000020: 1075 803f 1136 233f 31ab 2ebe b37b 93ba
00000030: 1e64 f3bd 5309 683f bd0f 04bf 55c1 603f
00000040: baf2 f2be b6ae 3dbe 3311 1c3e b5c8 0ebf
00000050: 8253 093f bb6f cbbe 8874 50bd 9b44 cc3e
00000060: fa86 19bf 8a29 0a3e 105e 5e3f 29b2 913e
00000070: 4398 66be 2193 f43e 5491 0e3f 3e70 37be
00000080: 490d fbbe 6329 10be ff53 7c3e babb c0be
00000090: c3a6 2d3f bf83 ffbd 7c28 8c3f 1fc9 2cbd
000000a0: e7b3 24bd fa2a 023e 8cf7 46bf 6267 b6bc
000000b0: 2108 bf3e ce47 3bbf d073 09bf 3a54 30bc
000000c0: 070a b33d c213 c9be 2f56 57bf 2aff 7bbf
000000d0: 7209 cabe 619f 9b3f 4238 92bf 49f1 7bbc
000000e0: fcc3 87be b96b c73b 017f 9f3e ba86 55be
000000f0: e398 023f 4e4e 563e 48ec 30bf 68a9 23bf
00000100: a385 f5be e6b9 bebe bbdb b1be 5834 8e3e
00000110: 7d67 f73e 56dc 213f 7227 093f 4d7e 0e3e
00000120: 9ab6 0c3f abed 40be 7fe4 dabd 1d8a 283f
00000130: 9610 713f 86f2 d6be ae08 23bf 4f99 56be
00000140: ef4e 353e bb28 f8be 8683 e33e 5fe2 15bf
00000150: 1eb4 dd3e 6158 5fbe 67ef 5abf 5417 8b3e
00000160: bff9 bc3e f391 34be b47d bfbd e9e7 30be
00000170: d5d2 2abd b8aa 50be 6371 173e bdad 7c3e
00000180: 79db 8a3e e89f 993e f588 b13e 644b 94be
00000190: 21a9 593e 827a b73e e196 97be f9d1 6d3f
000001a0: 03a0 893e 8cb1 6ebd 4595 47be e617 22bc
000001b0: aec8 debe 7491 f5be 666b ff3d 7092 77be
000001c0: 767f 283e 839b 5e3d d11b 06be 5faa 833e
000001d0: 7233 20bf 7a24 39bf 2bca 87be 5982 f63e
000001e0: bf3a 4a3f 96af 5d3f 2779 67be 3f9e 9dbd
000001f0: 2a3a 7cbf d2cc b6bd e12b bfbe 610e 893e
00000200: f94d 51bf 2c04 16bf acaf 673e d267 8d3d
00000210: 9645 a6be 4f34 1fbe d7f6 2bbf 016b 53be
00000220: 9adf d8be 4e16 783e 79f2 3ebe ee8c 493f
00000230: 2e82 15bf 2692 fb3e 97f1 a0be 3950 a43e
00000240: c1a1 4c3e e4d1 cf3d e6a0 8ebe 01f4 773e
00000250: 71d7 b63e cd67 6abe 52af 2abd ed6c 083e
00000260: 3c13 0a3f 2791 ec3e 7ed8 433f 2bea 183f
00000270: ab16 bbbe da5d 66bd f749 f9bd acce 2d3e
00000280: 5bbb 943f c974 493f 1384 693e d3b8 6e3d
00000290: 041f 853e c9bf 343f ac42 073e a672 b23c
000002a0: 471b 91bd 0157 a53e e9d9 42bf 0a53 663e
000002b0: e75c bd3e e6d7 1d3f 1f52 22bc a2fd b4bc
000002c0: 7ab6 2c3f cf7a fb3d 541c c03e 267a 6f3e
000002d0: 6868 923d 35da a53d fd74 f9be 709a 443e
000002e0: 1eaa 43be d48a 0bbf 115d 813e 3fc0 473d
000002f0: dcff 053e bcd7 d33e b43c 70be ccd9 dbbd
00000300: 7d88 9f3e 6e90 d93e 0ea0 c9be e99d 043c
00000310: ec7d 56bf 4820 0ebf dc1d f13e e2ae 7d3e
00000320: a6b7 0a3f c62d 52be b5f3 7d3f b06b dc3e
00000330: 6f6b be3e 6997 413f ef53 12bf 89d3 3ebf
00000340: 531c 173f 8b09 2a3f a01f 4a3e 945b 3a3d
00000350: a778 4c3b cf0e 9f3e 2055 82be af8d 54be
00000360: b9f2 11be 8663 963e b88a de3d c6db c23e
00000370: 8428 44be 0473 19be a726 d3be e12d bbbe
00000380: 675f a8bd 77c1 573d 03a4 1dbe 0ef6 2d3f
00000390: 248b f03e 8b3d de3d 79b9 c4bf 9bf4 633f
000003a0: a653 e53e bc01 bebe fc17 7f3f c904 86bd
000003b0: 5336 97be ad39 8fbe 9955 3dbf dcb3 84bd
000003c0: 8ef1 393e df3c 88be 6782 ed3e 506f bf3e
000003d0: 7412 dd3e 7355 803e 0eee 913e a273 dbbe
000003e0: e87f 53be f3b8 7e3e 1a96 463f dd39 0fbf
000003f0: d3bc 483f c284 e1bc 2a73 413f 86ab a83f
0.13905013 0.7867008 -0.66114634 -0.20057933 -0.10823032 0.43646967 0.74900466 -0.20625931
1.0035725 0.63754374 -0.17057492 -0.0011252075 -0.1188433 0.9063923 -0.51586515 0.87795
-0.4745081 -0.18523678 0.15240936 -0.55775005 0.5364305 -0.3973368 -0.050892383 0.39896092
-0.5997158 0.13492408 0.8686228 0.28456238 -0.2251902 0.477685 0.55690503 -0.17913911
-0.49033573 -0.14078288 0.24641417 -0.37643224 0.67832583 -0.124763004 1.0949855 -0.04218399
-0.04021063 0.12711707 -0.77721477 -0.022266094 0.3731089 -0.7315644 -0.5369234 -0.010762269
0.08742147 -0.39272887 -0.8411588 -0.98436224 -0.3946033 1.2158014 -1.1423419 -0.015377351
-0.26516712 0.0060858396 0.31151584 -0.20852175 0.51014537 0.20928308 -0.69110537 -0.6393037
-0.4795352 -0.37251204 -0.34737954 0.2777431 0.48321143 0.6322683 0.53575814 0.13915367
0.5496613 -0.18840663 -0.106881134 0.65835744 0.94165933 -0.41981906 -0.6368512 -0.2095692
0.17705892 -0.48468575 0.44436282 -0.5854854 0.4330148 -0.21811058 -0.8552155 0.27166235
0.3690929 -0.176338 -0.09350148 -0.17275967 -0.04170497 -0.20377624 0.14789347 0.24675651
0.2712057 0.3000481 0.34674802 -0.28963768 0.21255924 0.35835654 -0.296073 0.9289852
0.26879892 -0.05827479 -0.19490536 -0.009893393 -0.4351248 -0.47962534 0.124716565 -0.24176955
0.16454872 0.054347526 -0.13096549 0.2571592 -0.625785 -0.72321284 -0.2652143 0.48146322
0.7899589 0.8659605 -0.2260481 -0.07696199 -0.9852625 -0.08925785 -0.37338164 0.26768783
-0.817596 -0.58600116 0.22625607 0.06904568 -0.32474965 -0.15547298 -0.6717352 -0.20646288
-0.42358094 0.24227259 -0.18647183 0.78730667 -0.58401763 0.4913494 -0.31434318 0.32092455
0.19983579 0.10147455 -0.2785713 0.24214174 0.35711244 -0.2289116 -0.041671105 0.13322802
0.539356 0.46204492 0.76502216 0.5973231 -0.36540732 -0.056241848 -0.12172311 0.1697337
1.1619676 0.78693825 0.22804289 0.05828173 0.26000226 0.7060514 0.13209027 0.021783184
-0.07085281 0.3229294 -0.76113755 0.22492614 0.3698494 0.6165756 -0.0099072745 -0.022093598
0.6746594 0.12279283 0.37521613 0.2338644 0.0714882 0.0809826 -0.48722067 0.19199538
-0.19107863 -0.5450871 0.25266317 0.048767325 0.13085884 0.4137553 -0.23460656 -0.10734901
0.3115882 0.42493004 -0.39379925 0.008094289 -0.8378589 -0.5551801 0.47093093 0.24773744
0.54186475 -0.20525274 0.9919999 0.4305091 0.3719134 0.7562166 -0.5715932 -0.7454153
0.59027594 0.6642081 0.19738626 0.045497492 0.0031199844 0.31065986 -0.2545557 -0.20757173
-0.14252748 0.29372805 0.10866302 0.380583 -0.1915608 -0.14985281 -0.41240427 -0.3655844
-0.082213216 0.052674737 -0.15394597 0.67953575 0.46981156 0.10851582 -1.5369102 0.89045113
0.4479038 -0.37110698 0.9964597 -0.065438814 -0.29533634 -0.2797369 -0.73958737 -0.06479618
0.18158552 -0.2660894 0.46388552 0.37389612 0.4317814 0.25065193 0.28501934 -0.42861658
-0.20654261 0.2487524 0.77572787 -0.5594767 0.7841312 -0.027529124 0.7556635 1.3177345

decoder_net.4.bias f4 [128]
00000000: 6677 943d 59fe 4f3d 57f2 28bd 074d d5ba
00000010: 2d40 833d 9936 ccbc ba75 803d 81ee 03bd
00000020: 2263 45bd 28b9 9abd 31e3 803d f885 a8bd
00000030: 34a1 b93c 599a 293d 26dc cd3d 1873 08bd
00000040: 739c a93d 4045 13bd d5ca 0c3e 88e0 a03d
00000050: fa2c c13b 0093 90bb 9da2 4e3d b30d 523d
00000060: 66c7 58bd 34b9 94bd b044 abbd c054 fcbc
00000070: 0aae 483d 27a9 c3ba 120b 7c3d 47b6 8d3d
00000080: 9ac5 8abd f7f1 b13d 076b 953d 6503 17bd
00000090: c54f 813c 9223 a8bc 3a14 043e bbaf 6bbd
000000a0: b539 9b3d 5d26 a6ba c807 a73a c359 0dbd
000000b0: a8c9 873c dc25 bd3c df7d bd3d b65d d5bc
000000c0: 7107 0fbc af8b 9cbc 903f 013e 11b5 013e
000000d0: adf8 203d b7a0 9e3d 11e0 f93b fbd9 9c3d
000000e0: a89e 033e 5912 acbd 67e8 0c3e 52e8 143d
000000f0: b0ee 9fbc 547e 8cbc ae24 efbc 40c5 5cbb
00000100: 7e8d ac3d fc7e 6c3d 252f 4d3c 7e0d 33bc
00000110: a379 123e a79b fa3d 40a9 3e3c d528 4a3e
00000120: a016 13bd fc53 273a 855e d3bb 442c 86bd
00000130: 0dfc 583d 85b5 f63c f613 10bd 1d1f ae3c
00000140: 5949 61bc 4498 c9bc ac25 9e3d 5d72 053e
00000150: a00c b0bc e813 5f3d 080a 8fbd 11db a03d
00000160: 731f 9ebc bd8d 90bd 52f5 693d f2d1 a1bd
00000170: 3863 9c3b 10b3 dc3d 918d 8abd 0221 e93c
00000180: f227 aa3c 5061 813d 3485 af3d def0 653d
00000190: ec5c 933d 3fb9 a1bd d231 b9bd 8559 663b
000001a0: 1eb1 2dbb cc9a ecbb 0eec c63d 9c26 553d
000001b0: 53cf 94bd 7ae0 9a3c 046d 013e 125d 2f3d
000001c0: 02bf 4d3d ecf2 a23b 540e be3c 4846 093d
000001d0: 18f6 823d 58c1 4cbd ed0b 913d fe58 df3d
000001e0: c097 a03c 62c4 3c3d 30f9 d53d 38ef b03d
000001f0: e6f4 bf3b 6579 783c 7027 733c 29a5 333e
0.07249336 0.050779674 -0.04124674 -0.0016273566 0.06408725 -0.024928378 0.062724546 -0.032209877
-0.048190244 -0.07554847 0.06293333 -0.082286775 0.022659875 0.041406963 0.100517556 -0.033312887
0.082817934 -0.035954714 0.1374925 0.07855326 0.005895254 -0.004412055 0.05044805 0.051282596
-0.052924536 -0.07261887 -0.083627105 -0.03080213 0.0489941 -0.0014927731 0.061533995 0.06919532
-0.06775971 0.08688729 0.072958045 -0.03686847 0.015785107 -0.020524774 0.12898341 -0.057540637
0.07579366 -0.0012676228 0.0012743408 -0.03450943 0.01657565 0.023089342 0.09252524 -0.026045661
-0.0087298015 -0.019109575 0.12621903 0.12666728 0.039299656 0.07745498 0.0076255878 0.07658764
0.12853491 -0.08401937 0.1376053 0.03635437 -0.019522995 -0.017150082 -0.029192295 -0.0033686906
0.08425425 0.05773829 0.012523447 -0.01092851 0.14304213 0.122367196 0.011637032 0.19742139
-0.03591025 0.0006383059 -0.0064504766 -0.06551412 0.05297475 0.030115852 -0.035175286 0.02125507
-0.013750398 -0.024608739 0.07722029 0.13031907 -0.021490395 0.054462343 -0.06984335 0.078542836
-0.019302106 -0.070582844 0.05711872 -0.07901372 0.00477257 0.10776341 -0.06765283 0.028458122
0.020771 0.06317389 0.08570328 0.056137912 0.07195458 -0.07896661 -0.090427056 0.0035148573
-0.0026503275 -0.0072206017 0.097129926 0.052038774 -0.072661065 0.018905867 0.12639242 0.04281337
0.050230987 0.004972806 0.023200192 0.03351429 0.06394595 -0.049989074 0.07082353 0.10905646
0.01960361 0.046085723 0.10447919 0.08639377 0.0058580516 0.015165661 0.014840946 0.17543472

decoder_net.6.weight f4 [128, 128]
00000000: e43b 22be 4da8 43bf ac39 4fbe ecb5 3abf
00000010: 3c1f de3e 5d26 323f 0b7d 013e 7de2 38be
00000020: a559 a53f ab0a 123e b007 693f 25d2 79bd
00000030: 6b21 61be 5149 84bf 6d26 1bbf 8b53 f33e
00000040: fcf5 b5be a049 103f df8a b43d 2f9f 8c3e
00000050: a36d 14bf f9f3 f5bb 88de 0d3f 0121 3c3f
00000060: 3834 82bf 86df e73d e218 a13e c1a1 74be
00000070: 40b1 493f 6225 123e 7830 b3bc 3547 043f
00000080: be43 183f 0d53 2c3e 487f 71be f55e 0b3f
00000090: 2eab 2d3f b040 7d3f 633e 5bbf a024 0b3f
000000a0: c15a 333f c064 c63f 7600 933e 9e65 8d3f
000000b0: 5a4b 34bf ae28 543e f329 d03e 4768 b73e
000000c0: 6a1f d9be 1907 863d c951 47be fac5 8f3e
000000d0: 8a17 f1be 8499 8d3e 2742 50be 52a6 4d3e
000000e0: b325 0e3f 5a90 0c3f e31c b23e e71c d4be
000000f0: 41fa 90bd c393 903e 5a3f 7c3f 01a3 e0be
00000100: e5db cdbe aca6 c7be ef18 3c3f e7b0 ecbd
00000110: 0aad f4be d2c1 563f 6f3b 76be 204a 1f3f
00000120: abde bdbd f55a 2c3f 4c69 7d3e f4d4 273d
00000130: 8b92 3c3f 09f2 c93e dafb 163b a7b8 65bf
00000140: b30b 90be 249a 55bf 164a aabe f285 8d3e
00000150: 086e 123f 9011 25be 0768 f2bd 5275 8e3e
00000160: 5922 533f 2eed c83e 60f7 cf3e 2af3 88bf
00000170: 63cc 6e3e 7a44 823f 7fe6 abbe c4da 3abf
00000180: 6696 ec3e 7633 ed3e 2fbb 2d3d 4073 503f
00000190: bc49 c03e 4f9e afbd 6ca3 01bf 1267 a03c
000001a0: a1e9 0e3f 58ef 153f 0f40 7b3f ee07 183d
000001b0: 7692 adbf 08fc aebc f24c 6bbe 571c eabc
000001c0: 09d2 613d 1e02 25bf e29a b23e 7e7e 593f
000001d0: 5f4d 33bd 8768 f13e 114e 9abe 30fa b93f
000001e0: fa3f d73e bfc6 133f cb34 40be 30f3 993e
000001f0: fca8 013f 76cc fdbd baec 65bf ef3c b33e
00000200: a4a6 ebbd 066d acbe e359 e23e 7392 813e
00000210: 5000 833d 92ea cabe 622b a8be a2b0 b43e
00000220: 5bad 0c3e a1ec 983d c772 ae3e 3a9a d93e
00000230: 1f1d b93e b1c7 c93e 1736 84be b245 853e
00000240: 4b20 b43e 26e6 e03d 11ce 433f 2e70 983f
00000250: f0d3 6d3e 95d7 38be 47ab e63d d4b6 f93e
00000260: 2cb2 9bbf 45b6 763e 6191 803f 8392 2bbd
00000270: 21f9 ac3d c524 6c3e f121 993d 4b5a 133e
00000280: 5450 3a3f 1277 463f a228 eb3e 958b 1fbe
00000290: 6fca 503f d7b8 be3e 9bee 323f 9900 edbd
000002a0: 4143 51bf 1b3a 343f a657 f8be b19b b33e
000002b0: cd54 0a3e bd15 623f 2853 79bf 330d 4abd
000002c0: 4ac8 6bbe d5b7 983d b7ae d6be bcf6 a63e
000002d0: 99f7 543f 6b29 f53e 103f 1bbf 0d87 233e
000002e0: a753 b0be b4e0 f13e 5faf cdbe 80c4 ac3e
000002f0: 3135 953e 1c4e b13d 3368 603e e51f 35bf
00000300: 24b3 403e d03c 9f3d 748f 48bf 5f2f b4be
00000310: 12a9 253f d820 dcbe 2a6a b6bd f9ca 043e
00000320: 39c4 b3bd deb6 283e e1af 213e 130a 183e
00000330: ad32 4dbe 4016 1f3f ff94 92be 0aa4 e4be
00000340: 35ce 50bd 194d 5abf aca0 c03d f533 bb3e
00000350: d89d 173f 92e1 ba3d b754 e03d 6c7b 263f
00000360: bf91 073e 2637 ffbd 2441 eb3d 6e6f 923d
00000370: 1ea1 26be 1b55 f0bd 422b 82be 5433 5c3e
00000380: 4c52 133e e29b aebe 3a4f 8cbe 8b24 bdbe
00000390: f01d bdbd 5731 3f3e bd4f 56bf 656e 3e3f
000003a0: 030f 513f 08a7 803f 4979 a23e 23d9 1a3e
000003b0: 0b21 1ebe 7b51 01be e801 373f 6562 a23f
000003c0: 2396 0c3d b552 793c 752e 6c3f 0dd7 b4be
000003d0: eb03 e8be cfa0 75be cd1d 5c3e 3466 5b3e
000003e0: 29ea 063f 6c5c 0cbf 7d79 ee3d 7a78 5e3e
000003f0: 9d79 17be 31e4 d9bd 716b 93be d88f 0ebe
-0.15843159 -0.7642868 -0.20236844 -0.7293384 0.43383205 0.6958979 0.12645356 -0.18055148
1.2917982 0.14261882 0.91027355 -0.060991425 -0.21985404 -1.0334874 -0.6060551 0.47524676
-0.35539234 0.5636234 0.0881555 0.27465197 -0.5797979 -0.0075058904 0.5541768 0.7348786
-1.0172186 0.113219306 0.31464297 -0.23889829 0.7878609 0.14272073 -0.021873698 0.51671153
0.59478366 0.16828556 -0.2358371 0.5444177 0.67839324 0.9892683 -0.8564207 0.5435276
0.70060354 1.5499496 0.2871129 1.1046636 -0.7042748 0.20718643 0.40657005 0.35821745
-0.4240678 0.065443225 -0.19464792 0.28080732 -0.4708827 0.27656186 -0.20337735 0.20082977
0.55526274 0.54907763 0.34787664 -0.414283 -0.07078982 0.28237733 0.98534167 -0.43874362
-0.4020683 -0.38994348 0.73475546 -0.11557179 -0.47788268 0.83889496 -0.2404611 0.6222248
-0.09270986 0.6732629 0.24747199 0.040974572 0.73661107 0.3944247 0.0023038299 -0.8973488
-0.28133926 -0.83438325 -0.33259648 0.27641255 0.57199144 -0.16119981 -0.11836248 0.27823883
0.82474285 0.39243454 0.4061842 -1.0699208 0.23320155 1.0177147 -0.33574292 -0.7299006
0.46208495 0.46328324 0.04241484 0.8142586 0.37556255 -0.08575117 -0.50639987 0.019580398
0.5582524 0.58568335 0.9814462 0.037116937 -1.3560321 -0.021360412 -0.22978571 -0.028577967
0.055131946 -0.64456356 0.3488379 0.84958637 -0.04377496 0.4715006 -0.30137685 1.4529476
0.42040998 0.5772514 -0.18770139 0.3006835 0.50648475 -0.123925135 -0.8981434 0.35007426
-0.115063936 -0.33676928 0.44209203 0.25307044 0.06396544 -0.39632088 -0.32845598 0.3529101
0.13738005 0.074670084 0.34071943 0.42500478 0.3615503 0.39410165 -0.25822517 0.26029736
0.35180888 0.10981397 0.7648631 1.1909235 0.23225379 -0.18050988 0.11263137 0.487723
-1.2163749 0.24092968 1.0044366 -0.04188777 0.08445955 0.23060901 0.07477177 0.14389913
0.7277882 0.77525437 0.45929438 -0.1558059 0.8155889 0.37250397 0.69895333 -0.115723796
-0.81743246 0.7040116 -0.4850437 0.3507972 0.13508911 0.8831442 -0.9739251 -0.049328994
-0.23025623 0.07456938 -0.41930172 0.32610118 0.83190304 0.47883162 -0.606431 0.15969487
-0.34438822 0.47241747 -0.4017286 0.33743668 0.29142144 0.08657476 0.21914749 -0.7075179
0.18818337 0.07775271 -0.7834389 -0.3519239 0.64711106 -0.42993808 -0.08906968 0.12968053
-0.08777661 0.16476008 0.15789749 0.14847593 -0.20038863 0.62143326 -0.286293 -0.44656402
-0.050977904 -0.8527389 0.09405646 0.36563078 0.59225225 0.091250554 0.10953658 0.65032077
0.13239191 -0.124616906 0.11487034 0.0715016 -0.16272399 -0.117349826 -0.25423628 0.21503955
0.14386863 -0.34103304 -0.27404195 -0.36941943 -0.09234226 0.18671165 -0.8371542 0.743872
0.8166353 1.0050974 0.31733158 0.15121894 -0.15442292 -0.12628739 0.71487284 1.2686278
0.03432287 0.015217473 0.9225839 -0.3532032 -0.4531549 -0.23987125 0.21495743 0.21425706
0.5270105 -0.54828525 0.11644266 0.21725646 -0.14792486 -0.10639227 -0.2879291 -0.1392206

decoder_net.6.bias f4 [128]
00000000: bb3e a23d c5dc e13d 7a2d afbd 594a ea3d
00000010: 544b b53c c567 7b3d b0f1 9f3d 3335 933d
00000020: 9eb1 9fbd 38e7 8ebd b777 4a3c e427 a2bc
00000030: 72e0 0c3c 4b34 89bc 04b0 a5bc 3987 a23d
00000040: c361 91bd 3542 f63c d81e a53c f723 9e3d
00000050: 54b2 043d 7897 deb8 b940 fd3b 1739 f53c
00000060: 0e84 32bd 2247 c93d bd7b a73d 7cbb 013d
00000070: 8f05 8ebc 0a05 583d e375 783c 6faa c63d
00000080: da88 a63d 4640 08bd 3fb9 e5bc 4489 86bc
00000090: c40b 963d bf10 cd3c e850 fc3c ae1d 333d
000000a0: 669e 6fbd bb58 c23d 1e63 0cbd 506b 813c
000000b0: dc19 a03d d663 22bd 180e 9c3c 9621 ec3c
000000c0: 872e bdbd 1ac3 273d 617f 2ebc 3553 573c
000000d0: 5004 cfbc f98f bfbc e88b e33c 3640 133d
000000e0: 1b1c 813d 68ac 063e 675b c43c 7761 9c3d
000000f0: 7757 1d3d 6203 3b3d 4af4 7b3d 2afd a7bd
00000100: e3b0 333d 12af a53c 6403 d53d 75b0 f53d
00000110: 3cdb 5cbd 1907 883d bc4f a63d 2710 87bd
00000120: 176d 3b3c 0444 a3bb f288 203d 6efa 743d
00000130: 01ef 033e 4b38 983d ef06 9e3c 9fdd 513d
00000140: 38d4 c43c a21c cd3c 209c c13c 0d77 c43d
00000150: dec9 2f3d fe8f 733c 8585 013e 73de d03d
00000160: 88e4 2539 a414 033e 826c bfbc a491 cf3d
00000170: e7bb 91bd 9666 39bc cb0c 8c3d a06a 7e3c
00000180: ae3c 0f3c c418 713c 8462 823d 71d8 56bd
00000190: f738 9e3d 8b15 5abd b466 a53c 6091 bf3c
000001a0: 9852 a83c c5bd 9f3d 840f e63d d543 3e3c
000001b0: a390 35bc a4c2 393d 8463 06bd 709c 2039
000001c0: 3bae ec3d f72f 273c c8e4 a3bd 6815 003e
000001d0: f5d2 98bd 1460 cabc b1e6 233d 5e29 e0bc
000001e0: fd9f 81bd c26f 49bd 55ab e83d 6e33 33bd
000001f0: e959 3f3d 61c6 e03d fe23 693d 4899 ba3b
0.07922121 0.110284366 -0.08553596 0.11439962 0.022130646 0.06137826 0.0780977 0.07187881
-0.0779755 -0.06977695 0.012357644 -0.019794412 0.008598434 -0.016748568 -0.020225532 0.07935948
-0.07098725 0.030060867 0.020156309 0.077217035 0.03239663 -0.00010613998 0.007728663 0.02993445
-0.04358297 0.09828021 0.08177898 0.03167294 -0.017336635 0.05273918 0.015164825 0.097004764
0.08131571 -0.03326442 -0.028042434 -0.016422875 0.07326463 0.0250324 0.030800298 0.043729477
-0.05850067 0.0948958 -0.034274213 0.01579824 0.07817432 -0.039645992 0.01904969 0.028824609
-0.0923739 0.040957548 -0.010650487 0.013142397 -0.025270611 -0.023384081 0.027776673 0.03594991
0.06304189 0.13151705 0.023969365 0.076357774 0.03841349 0.045657523 0.06151227 -0.08202584
0.043869864 0.020225082 0.10401037 0.11996547 -0.053920016 0.06641979 0.08120677 -0.06594878
0.011439583 -0.0049824733 0.0391931 0.05980914 0.12884142 0.07432612 0.019290416 0.051236745
0.024026975 0.025038067 0.023634017 0.0959302 0.042917125 0.014865873 0.1264859 0.10198679
0.00015820761 0.12800843 -0.02336717 0.101352006 -0.07115918 -0.011315962 0.068383776 0.015528351
0.0087424945 0.014715377 0.063664466 -0.05245251 0.07725709 -0.0532432 0.020190574 0.02338475
0.020547196 0.077998675 0.11233428 0.011612852 -0.011081847 0.04535164 -0.03280975 0.00015317067
0.11556669 0.010204307 -0.08002621 0.12508166 -0.07462112 -0.024704017 0.040014926 -0.027363475
-0.063293435 -0.049178846 0.11360804 -0.04375022 0.046716604 0.10975338 0.05691909 0.005694542

decoder_net.8.weight f4 [128, 128]
00000000: d5b1 febe b0aa 58be 6687 aabf 75b3 0ebe
00000010: f178 39be d846 753f 61b2 88bf f54d 9c3d
00000020: 4b0a 833f e123 db3d cdcb 8f3f 25a5 5f3e
00000030: 465e df3e 936e d03e 8ab2 a6bc 6727 0f3f
00000040: 051e 0b3e 81d1 0cbf c221 29bf 3953 f63e
00000050: 8ab9 15bf f128 793d 6051 03be 966e b53e
00000060: 26eb 72bf a298 38bd 901d 6d3d c3c0 86bf
00000070: c5ec 2d3d a1d2 1c3f d3e4 fbbc 6d60 c8be
00000080: ddd6 843e 4654 2dbb 2fc5 30be d927 b1bc
00000090: 2acc 5a3e 22ab 283e ca65 13bf 803d 133f
000000a0: c5e5 11bf 7b9c 803e 0e4b f13e 408a 9d3e
000000b0: b6bd cd3e e752 70bf 2394 84bf e07e 54be
000000c0: e78d 4abe dbb8 02be 3973 82be f0e2 43bf
000000d0: cf4e c13f aad1 23bf f4f3 8d3d 25f2 ad3e
000000e0: 33e9 923e 4907 f6be 2acc 55be 60d9 e33e
000000f0: 440f 503f e762 52bf 2530 1b3f c750 613f
00000100: 9ff1 ad3e be92 d8bc 4662 eebd 9327 933d
00000110: 5ba4 f9bc e93f 2dbe 1069 08bf d7ae 313f
00000120: 8e3a b1be 9ce9 e5be a781 673e 1ea4 533f
00000130: 3c9b 4f3e 9214 793e b53f 7cbc b817 033f
00000140: 266d 15be b65c b2be cda4 373e cbb8 4a3e
00000150: 4b1d 92be f96f 1d3e 6d2e 2ebe e332 ad3d
00000160: cb39 3c3f 1148 e5be 719b 073e fae0 e13e
00000170: 65e9 353f 4b2b 843e ab80 06bf 1033 5f3e
00000180: 93b7 97be 57db cc3c 519f df3e 636f 4cbe
00000190: 771d efbd b716 cbbe d635 9a3e 69a3 c1be
000001a0: 189f 1e3f f987 f7bd b498 503e 6b86 bd3c
000001b0: 8b9a 79bf 414e abbd 3722 b13d d5b3 c93e
000001c0: 0086 a5be b0dc 9a3f 5390 a83e f98c c83d
000001d0: 50e0 35bf e993 46bf acb8 0ebf ac15 65be
000001e0: e5ea 29bf 94cd 84be 010f 08bf 7f42 c33e
000001f0: 7458 833c 4b29 eebd 82c4 debd 2791 533f
00000200: 0914 f8be 0979 4ebd 335e 9b3f f7a7 de3e
00000210: edbd febe 245a 093e 112c 1bbe 9502 903e
00000220: 56a4 2a3f e8d6 143f dd83 1abf 7ef8 ad3e
00000230: 5580 9e3e f552 bd3e be52 143f b54e 41bf
00000240: e6b2 913f a2fc 4bbe e026 cdbe 625c 0c3f
00000250: 5a0b 413e d5de 233f ae0e 0fbf b550 153f
00000260: 3250 563e 79d7 8b3e 7108 423f 75f4 a1be
00000270: 2ff3 72bf 4626 48bf 3156 78be 6757 0b3f
00000280: 68f1 e43d 0150 1abe 954d 0c3e 17f0 a83d
00000290: 2a91 9ebe 8549 c13d 7f9e 7abf b6c8 ac3e
000002a0: 0573 bb3e c486 f73d 3563 0e3f e81d 80bf
000002b0: d2e6 023d 70e1 013d 1b8a 2b3e e084 5fbf
000002c0: 67aa ea3e 7983 6abf c623 653e ebf4 5bbe
000002d0: ecec c6be ac75 95bf 6833 2abf a511 41be
000002e0: 240f 963e 3e0e 6ebe 9aeb 7f3e 60e8 283d
000002f0: 37c2 183f 1f16 d93e 2b48 bbbe f880 38be
00000300: 2152 bebe 69d4 0fbe 57ff 7b3e 831a 463d
00000310: 23be a1be 63b8 85bf 4f38 273e 0794 533f
00000320: 0781 323e a00e 83bd f4f3 7bbe ea4b a5be
00000330: a9db 2a3e 7a32 a7be 4783 6a3f 993a 08be
00000340: b546 6a3e 059b 723e 12d7 94bf a522 fdbb
00000350: ce00 51bf acff f5bd 52c0 babe dacc 29bd
00000360: a75b afbe 29a2 b0bc 8547 283f 7314 6b3e
00000370: 4022 4fbe 7834 0fbf 8d1d ad3d fbc0 c1bd
00000380: 0cde e13e 82d6 b93d 0407 5bbd 4fca 093f
00000390: c40a 4b3f fe2a 8e3d b4ec a03d 6a06 313f
000003a0: 0f57 ccbf bab2 b5bc 97db 8dbe 2fae e63e
000003b0: 3199 24bf 2d11 c03e 8a68 093e 6ce9 03bf
000003c0: 91cc 8f3e 12e5 ca3e 847e 753c 7abc c2bd
000003d0: d2db 0b3f c646 13bf 2671 b63e 35b7 cf3e
000003e0: 8705 503f da48 c73e b6e1 a93e 96c8 803e
000003f0: 1804 243e f37f 083f 9975 6c3e aa91 db3e
-0.4974505 -0.21158862 -1.332257 -0.13935645 -0.18112542 0.95811224 -1.0679437 0.076320566
1.0237516 0.10700203 1.123407 0.21840341 0.43626612 0.4070936 -0.020348806 0.559195
0.1358567 -0.5500718 -0.66067135 0.4811037 -0.58486235 0.06083006 -0.12824011 0.35435933
-0.9489006 -0.045067437 0.05788952 -1.0527576 0.04246213 0.61258894 -0.03074876 -0.39136067
0.25945178 -0.0026447936 -0.1726272 -0.021625446 0.21366945 0.16471532 -0.5757719 0.57515717
-0.56991225 0.25119385 0.47127575 0.3076954 0.401838 -0.938765 -1.0357708 -0.20751524
-0.19780694 -0.1276583 -0.25478533 -0.76518154 1.5102175 -0.63991797 0.06931296 0.33973804
0.28693542 -0.48052433 -0.20878664 0.4450178 0.81273293 -0.82182163 0.6062034 0.8801388
0.33973405 -0.02643716 -0.11639838 0.071852826 -0.030473879 -0.16918911 -0.5328531 0.6940741
-0.34614986 -0.44904792 0.22608052 0.826723 0.20274061 0.24324253 -0.015396048 0.51208067
-0.14592418 -0.34836358 0.1793396 0.19797055 -0.28537974 0.15374745 -0.17009898 0.084569715
0.73525685 -0.44781545 0.1324289 0.44116956 0.71059257 0.2581428 -0.5254008 0.21796823
-0.29632244 0.025006933 0.43676236 -0.19964366 -0.11675542 -0.39665768 0.301192 -0.37819985
0.6196151 -0.120864816 0.20370752 0.023135385 -0.9750144 -0.08364535 0.08649104 0.39395013
-0.32328796 1.2098598 0.3292261 0.097925134 -0.710454 -0.77569443 -0.55750537 -0.22371548
-0.66374046 -0.25938094 -0.53147894 0.3813667 0.016033389 -0.1162897 -0.10877325 0.8264336
-0.48452786 -0.050408397 1.2138122 0.43487522 -0.49754277 0.13413292 -0.15153529 0.2812697
0.66657007 0.5814042 -0.6035746 0.33978647 0.30957285 0.36977354 0.57938755 -0.7551072
1.138272 -0.1992059 -0.40068722 0.54828465 0.18851987 0.6401189 -0.55881774 0.58326274
0.2092903 0.2731283 0.7579413 -0.31631818 -0.9490232 -0.781834 -0.2425163 0.5443024
0.11178857 -0.15069582 0.1370147 0.082489185 -0.30970126 0.09437851 -0.97898096 0.3374688
0.3661119 0.120862514 0.5562013 -1.0009127 0.03195841 0.031709135 0.16751902 -0.87312126
0.45833132 -0.9160686 0.22376928 -0.21480148 -0.38852632 -1.1676536 -0.6648469 -0.18854387
0.29308426 -0.2324762 0.24992219 0.041237235 0.5967135 0.4239969 -0.36578497 -0.18017948
-0.37172034 -0.14045872 0.24609123 0.048365127 -0.31590375 -1.0446895 0.16330074 0.82647747
0.17432033 -0.06399274 -0.2460478 -0.3228448 0.16685356 -0.32655698 0.91606563 -0.13303603
0.22878535 0.23691948 -1.1628134 -0.007725077 -0.8164185 -0.12011656 -0.36474854 -0.041455127
-0.34249613 -0.021561699 0.6573413 0.2295702 -0.20227909 -0.55939436 0.08452902 -0.09460636
0.4411472 0.09074117 -0.053473487 0.53824323 0.793133 0.06941794 0.078576475 0.6915041
-1.5964068 -0.02217995 -0.27706596 0.45054767 -0.6429625 0.37513104 0.13418785 -0.5152805
0.2808576 0.39627892 0.014983777 -0.09508605 0.54632294 -0.57529867 0.356332 0.40569463
0.81258434 0.3892277 0.33180016 0.25153035 0.16017187 0.53320235 0.23091735 0.4288457

decoder_net.8.bias f4 [128]
00000000: 459b 203d 54df 2fbd 6fee ac3d a676 29bd
00000010: fd9a 94bd dbad 55bc df31 e93d 0208 38bc
00000020: 724d d8bc 6c8b 85bc f4f7 2ebd 65e4 693d
00000030: 8541 133e abff 883d dbc3 b83b 62db 93bd
00000040: e140 c93c b09d 263c e29d aabd d474 e63c
00000050: 9d3e 4bbd 666d bcbd a73f 2f3d 6f23 893d
00000060: 1a09 a63d a4cb a23d c568 e13b 3235 87bd
00000070: 12fa 8e3d 0c58 65bd 5e5d 5a3d 0f00 71bd
00000080: 4475 423c daaf e9bb 05d6 bb3d 4ffb b2bd
00000090: 9760 09bd 07e0 bfba b87c 093c 8be2 403d
000000a0: 1c62 ad3c ea88 183d 6b99 e53c f4f3 b1bd
000000b0: 6791 9f3d 9e74 82bd 8928 a23d e88f c13d
000000c0: 3231 0bbd b9b1 62bc 3cff d03b ada8 c43d
000000d0: 8cbe b3bc 4ba2 6fbc 6854 95bd 93c7 883d
000000e0: 88bc 54bd 3eb8 1e3d 6db2 823d 87e7 babd
000000f0: 0c33 10bd d85b e2ba 5ae4 adbd 98a5 e13c
00000100: 39f5 80bd e9ae e13c a058 21bd 6f43 403c
00000110: 90f6 adbc 09cb de3c 34f4 2abd 4a30 54bc
00000120: 4eef 503d c397 873d 78ef 91bc 7745 c8bd
00000130: fc19 bfbd 0327 983d 92d8 913d 7832 31bd
00000140: 4ae9 d2bb 4f7a 8cbc 8ef9 483d 4f21 183c
00000150: 0a91 0b3d 82e4 b03c 15ac 9c3d 3244 243c
00000160: dad3 fabc 13b4 94bc 684f 4b3c bbcf 963d
00000170: e1f1 0abd 98d6 973c 473f 813d 36a0 79bd
00000180: 6d75 59bd 9f4d 903d c5d8 10bd 4446 c03c
00000190: 38dd 85bd 22bc 3a3d 6549 49bc 8b52 be3d
000001a0: 5fb8 9abd aa6c 053d 0b62 543d 3ba2 283d
000001b0: 6fdb 45bc e8b9 4ebc 6104 533d 6d5f 803d
000001c0: dc60 983c d09c 25ba ffc0 b13d bea1 80bd
000001d0: 52ac 3e3d 4af0 e3bc 0863 9b3d 5a80 fabc
000001e0: dbc2 633d d59f 39bc c96c 943d 0354 90bd
000001f0: 596c 333d 3988 1abd aeda f33d a46a 423d
0.039210577 -0.04293759 0.08443915 -0.041372918 -0.07256124 -0.013041939 0.11386465 -0.011232378
-0.026404116 -0.016301833 -0.042716935 0.05710258 0.14380462 0.0668939 0.005638582 -0.07219578
0.02456707 0.010169432 -0.08330895 0.02813188 -0.04962026 -0.092005536 0.042785313 0.066962115
0.08107205 0.079489976 0.0068789446 -0.06601943 0.06981291 -0.05599217 0.0533117 -0.058837947
0.011868779 -0.007131559 0.0917168 -0.087393396 -0.03353938 -0.0014638909 0.008391552 0.04709105
0.021164946 0.037239946 0.028027257 -0.086891085 0.07791405 -0.06369899 0.07917888 0.09451276
-0.033982463 -0.013836318 0.0063780826 0.09602485 -0.021941446 -0.014626096 -0.0729149 0.06678691
-0.05193761 0.038749926 0.06381688 -0.091261916 -0.035204932 -0.0017269803 -0.0849082 0.027544782
-0.062967725 0.027549224 -0.03939116 0.011734827 -0.021235734 0.027196424 -0.041736796 -0.012950966
0.05100947 0.06620743 -0.017814383 -0.09778874 -0.09331128 0.07429316 0.07121386 -0.04326102
-0.0064365016 -0.017148165 0.04906612 0.009285285 0.034073867 0.021593336 0.076500095 0.010026025
-0.030618597 -0.018152272 0.012409069 0.0736384 -0.03392208 0.018534943 0.06310897 -0.060943805
-0.0530905 0.07046055 -0.035362978 0.023471005 -0.06536335 0.045589574 -0.012285565 0.092930876
-0.07554697 0.032574333 0.051851314 0.04117034 -0.012076243 -0.012617566 0.051517848 0.06268201
0.018600874 -0.00063176174 0.08679389 -0.0628085 0.046551056 -0.02782454 0.07587248 -0.03057878
0.05560575 -0.011329611 0.072473116 -0.07047274 0.0438045 -0.03772757 0.11906944 0.04746498

decoder_net.10.weight f4 [1, 128]
00000000: ee19 5b3f 5897 9a3e 60b1 ff3d e090 3c3e
00000010: cd34 f3be a83d 5abf 6f14 b5bf d050 31be
00000020: 50c7 64bf 0549 a2be 4de0 2d3f e2f4 4dbe
00000030: a5ee 2cbe e5ba 063f b063 0c3d 40ad 3c3f
00000040: 7d55 bd3d 0294 acbe 487d 273e c4af 8cbe
00000050: fd16 bf3e f372 f93d 4125 beb9 365f 9fbe
00000060: 5936 afbe 22ce 9f3e 7db5 4cbe cea8 8f3e
00000070: c903 64bf 91a7 7abe 7dd2 dd3e a2ea 263f
00000080: 6c8e 033e d126 c9be aac7 bfbe f427 8bbe
00000090: 01fb 643e 5ee0 3abc 3a72 013f b728 00bf
000000a0: 0812 713e 297f 5dbe f83e 473e 3d4e 533e
000000b0: 3980 cb3f 5e34 d23e 1e87 71bf 97f0 e0be
000000c0: c363 fcbe 0a8b 163f c2b6 ef3e 7467 d1be
000000d0: 4ce0 a0be 0103 383f f933 05bf cc1b dbbe
000000e0: 7909 dd3e 9036 d6bd d2e5 f8be b668 fe3d
000000f0: 26c8 dabd 7655 df3e 91de a13c b6aa 8e3e
00000100: 3ea3 73bf 72db 763e c738 83be f0ac 043f
00000110: 070a fabd 141b 503e b8a0 68bf 9e2f 29bf
00000120: 57b2 febe 584b f83d 6320 b9be 5b31 c93e
00000130: eea2 413f d22f 9a3e d83b 41bf 6686 febe
00000140: 4a30 283e 76d6 2cbf 2169 55be 81fa 96bf
00000150: 69bd 763e 3bbc 97bf 2305 18bf e08e 1c3f
00000160: ed28 b7bf b901 163f 35e4 1bbf e329 87be
00000170: 9cb2 013f 9e35 963e 3515 05bf 3cfe 563f
00000180: 7a81 a23d ef70 cb3e 6c4c 813b dead 633e
00000190: 798a 5bbf 36eb 2b3f eb4f 53bf 9067 2abf
000001a0: 813d a63f 49f8 adbe cd05 173f bce3 38bf
000001b0: bd41 d13e 5211 e63c 5fd5 f4be 080d ddbe
000001c0: 748c 013f b6be 8bbf e3a2 30bf 1369 35bf
000001d0: 4837 36bf 90bd 92be c6f6 bf3e 9cc0 78bf
000001e0: 3ada d9be f8a2 61be 6864 26bf 4aa8 18bf
000001f0: 2146 d6be b8c7 503f caa0 8cbf b161 8fbe
0.8558644 0.3019359 0.124850035 0.1841464 -0.4750122 -0.8525033 -1.4146861 -0.17315984
-0.89366627 -0.31696334 0.6792038 -0.20112947 -0.1688791 0.5262893 0.034274757 0.7370186
0.09244821 -0.3370667 0.16356385 -0.2747785 0.37322226 0.12180128 -0.0003626738 -0.31127328
-0.3422115 0.31211954 -0.19991107 0.28058475 -0.89068276 -0.24477984 0.43324652 0.6520177
0.12847298 -0.39287427 -0.3745702 -0.2717892 0.22361375 -0.011406032 0.5056492 -0.50062126
0.23542035 -0.21630539 0.19457614 0.20635314 1.5898505 0.41055578 -0.943468 -0.43933555
-0.49294862 0.58805907 0.4681912 -0.4089924 -0.31421125 0.71879584 -0.5203243 -0.42794645
0.4317129 -0.10459626 -0.4861284 0.12422316 -0.106827065 0.4361989 0.019759448 0.27864617
-0.9517096 0.24107149 -0.25629255 0.5182638 -0.12208944 0.2032283 -0.9087024 -0.66088283
-0.49745438 0.12123746 -0.36157522 0.39295468 0.75639236 0.3011461 -0.7548194 -0.49711913
0.16424671 -0.6751474 -0.20840885 -1.1795198 0.24095692 -1.1854318 -0.5938284 0.6115551
-1.4309365 0.5859638 -0.6089509 -0.26399145 0.5066316 0.29337782 -0.51985484 0.8398168
0.07934852 0.397346 0.003945878 0.22234294 -0.8575817 0.6715578 -0.8254382 -0.66564274
1.298752 -0.3397849 0.58993226 -0.72222495 0.40870467 0.02808443 -0.4781904 -0.43174005
0.5060494 -1.0917575 -0.68998545 -0.70863456 -0.711781 -0.2866025 0.3749296 -0.971689
-0.42549306 -0.22034824 -0.6499696 -0.5963179 -0.4185038 0.81554747 -1.0986569 -0.2800422
