Value_Net.pt (torch, 798868 bytes, 10 tensors)

decoder_net.0.weight f4 [512, 85]
0	0xbea433cc	-0.32070768
1	0x3ecc29ac	0.39875543
2	0x3c643590	0.013928786
3	0xbf23ecee	-0.640334
4	0x3d80f88a	0.06297405
5	0xbdedde56	-0.11614673
6	0xbee64780	-0.44976425
7	0xbfb6d13e	-1.4282606
8	0xbef5fc2e	-0.4804396
9	0x3e71271a	0.23550072
10	0xbe26cadc	-0.16288322
11	0xbe9f190a	-0.3107379
12	0x3e92f878	0.28705192
13	0x3f43aa80	0.7643204
14	0x3eb1eff2	0.34753376
15	0xbf80258c	-1.0011458
16	0xbec97e00	-0.39353943
17	0xbdea089a	-0.11427422
18	0x3f8ced94	1.1010003
19	0x3e851b72	0.25997502
20	0x3f040ca6	0.515818
21	0x3f759d66	0.95943296
22	0x3e8d9940	0.27655983
23	0xbd6a4bd0	-0.057201207
24	0x3e0ba95c	0.13638824
25	0xbf6195ce	-0.8811921
26	0x3f2ec39a	0.68267214
27	0x3ef968cc	0.48712766
28	0xbefd6818	-0.4949348
29	0xbe96e8dc	-0.29474533
30	0x3f07f1d8	0.531034
31	0x3f0e2db0	0.55538464
32	0xbe0c75f8	-0.13716877
33	0x3f10fcc8	0.56635714
34	0x3e397442	0.18110755
35	0xbe81501a	-0.25256425
36	0x3e789d7e	0.24278829
37	0xbf1363fe	-0.5757445
38	0x3f2e5546	0.68098867
39	0x3f108d96	0.56466043
40	0xbf202e92	-0.6257106
41	0xbd44d572	-0.04805512
42	0xbe9f2dc4	-0.31089604
43	0xbed310aa	-0.4122365
44	0xbd62eb22	-0.05540002
45	0x3ed2bc12	0.4115911
46	0x3eef0dc2	0.46690184
47	0xbee1d5ea	-0.44108516
48	0x3f249856	0.64294946
49	0xbf60a2b6	-0.8774828
50	0x3e767a42	0.24070075
51	0xbde7ba8a	-0.113148764
52	0xbd28be46	-0.041197084
53	0x3f17498c	0.590966
54	0x3e6f9daa	0.23399988
55	0xbf0a339c	-0.53985
56	0x3f9149a2	1.1350596
57	0x3eaed0b0	0.3414359
58	0x3e596ab8	0.21232116
59	0x3e45fb56	0.19334158
60	0x3db8ade8	0.09017545
61	0x3e5eda84	0.21763045
62	0x3e015eb4	0.12633783
63	0xbed917d8	-0.42401004
64	0x3d4ba40e	0.049717
65	0xbe4eadd6	-0.201835
66	0x3d4c5bba	0.049892165
67	0x3f3bcce6	0.73359525
68	0xbe932246	-0.28737086
69	0xbf154dc2	-0.58321774
70	0x3efbf44c	0.4920982
71	0xbf5f9f66	-0.873526
72	0x3defcf08	0.1170941
73	0x3d292ab0	0.041300476
74	0xbd8d24f8	-0.06891817
75	0xbecd4488	-0.40091348
76	0x3f1bdc2c	0.6088283
77	0x3e6e4272	0.23267534
78	0x3d36c3aa	0.044620194
79	0xbd116ea8	-0.03550592
80	0xbf51f4a8	-0.8201394
81	0x3ee1dcb0	0.44113684
82	0x3eb55940	0.35419655
83	0x3ecbe8d4	0.3982607
84	0xbe8caa6c	-0.27473772
85	0x3e1f0de6	0.15532646
86	0x3e792082	0.24328807
87	0xbe9ada9e	-0.30244917
88	0x3fa35e26	1.2763107
89	0xbcd2bbd2	-0.025724325
90	0x3e4b6b7c	0.19865221
91	0xbe72b477	-0.23701654
92	0x3df78604	0.12086108
93	0xbdaab46e	-0.083351955
94	0x3ed07a52	0.40718323
95	0x3b4a1ece	0.0030841115
96	0x3e835fac	0.2565893
97	0x3f53cb04	0.8273165
98	0x3eca9a2c	0.3957075
99	0xbe0b2ae0	-0.13590574
100	0x3d993473	0.07480707
101	0xbefeb40a	-0.49746734
102	0xbdfefcaf	-0.12450539
103	0x3da01d70	0.07818115
104	0xbd475a37	-0.04867002
105	0x3eb68f0e	0.35656017
106	0xbe4f645a	-0.20253125
107	0x3f2621ea	0.648955
108	0xbf3a391e	-0.72743404
109	0x3e6db156	0.2321218
110	0xbe86b489	-0.26309612
111	0x3f594b84	0.8488085
112	0xbf4e08fc	-0.8048246
113	0x3f26cd38	0.6515689
114	0x3f26d894	0.6517422
115	0xbeb3378a	-0.3500331
116	0xbe51f690	-0.20504212
117	0xbf060714	-0.5235455
118	0xbf87572c	-1.0573478
119	0x3d5395f0	0.051656663
120	0xbe36dfa4	-0.1785875
121	0xbebc02e2	-0.3672095
122	0xbd1211da	-0.035661556
123	0xbefac75a	-0.48980218
124	0x3e83cd0e	0.25742382
125	0x3e94977c	0.29021823
126	0x3c5a8d8c	0.0133394115
127	0xbe95d0fe	-0.2926101
128	0xbee4d5ea	-0.44694453
129	0x3f592f7e	0.8483809
130	0x3ed7bf8c	0.42138326
131	0x3f472408	0.77789354
132	0x3e93fbd0	0.28903055
133	0x3f2dff52	0.6796771
134	0x3f189048	0.59595156
135	0xbeaeb1d8	-0.3412006
136	0xbf00c6c8	-0.50303316
137	0xbe0e30fe	-0.13885877
138	0xbd7b6101	-0.061371807
139	0xbe97234e	-0.29519123
140	0x3e6ee72a	0.2333037
141	0x3f19506a	0.5988833
142	0x3f756578	0.95857954
143	0xbf1fa29a	-0.62357485
144	0x3e288738	0.16457832
145	0x3d9d7d04	0.076898605
146	0xbe1ef3e6	-0.15522727
147	0xbc838c2a	-0.016058046
148	0xbf8a945a	-1.0826523
149	0xbe8eb4ea	-0.278724
150	0xbf896a66	-1.0735595
151	0x3ec1e216	0.37867802
152	0x3ee533cc	0.4476608
153	0xbdbe1aec	-0.09282479
154	0xbe41496e	-0.18875667
155	0xbf239312	-0.63896286
156	0xbec13126	-0.3773281
157	0xbd7968d6	-0.060890995
158	0xbe1b1855	-0.15146
159	0x3e97dbf9	0.29660013
160	0xbec2a426	-0.3801586
161	0xbdeee21a	-0.11664219
162	0xbee2e6cc	-0.4431671
163	0x3e8f39e8	0.27973866
164	0xbe97271e	-0.29522032
165	0x3ed7e53c	0.4216708
166	0xbf83dcbe	-1.030174
167	0xbf1cf450	-0.6131029
168	0x3df9d510	0.121988416
169	0x3e9d4e67	0.3072388
170	0xbe839fa6	-0.2570774
171	0x3f0e87ec	0.5567615
172	0xbed283c6	-0.4111616
173	0x3f13c066	0.5771545
174	0xbeaca320	-0.33718204
175	0xbdb1d52e	-0.08683239
176	0xbf1ff112	-0.6247722
177	0xbe2f30a3	-0.17108397
178	0x3eb858ce	0.36005253
179	0xbee0e38e	-0.4392361
180	0x3e9970f0	0.29968977
181	0xbf027fb2	-0.509761
182	0x3dd94b84	0.106101066
183	0x3cf12b5a	0.029439617
184	0x3efbc122	0.49170786
185	0x3ebe97b8	0.37225127
186	0xbf970e08	-1.1801157
187	0xbeb87c3a	-0.36032277
188	0x3f0c17ba	0.54723704
189	0x3ec38a33	0.38191375
190	0xbebeb7a8	-0.37249494
191	0x3ee06e58	0.43834186
192	0xbfa02b8c	-1.251329
193	0xbf0220ae	-0.50831115
194	0xbec759ac	-0.38935602
195	0x3f2bbacc	0.67081904
196	0xbe21577f	-0.15756033
197	0xbe47c629	-0.19509186
198	0x3e8749f4	0.2642361
199	0xbb6e3dfc	-0.0036352864
200	0x3ed2056c	0.41019762
201	0xbeb78f4a	-0.35851508
202	0xbd5d8606	-0.054082893
203	0xbdafd753	-0.08585992
204	0x3ebaa0be	0.36450762
205	0xbcb1f630	-0.021723837
206	0x3ed97e28	0.42479062
207	0x3e4c5302	0.1995354
208	0x3e365654	0.17806369
209	0xbed66fb4	-0.41882098
210	0xbd052ddd	-0.03251444
211	0x3f7188d2	0.94349396
212	0x3ed88b86	0.42293948
213	0x3eef0111	0.466805
214	0x3f3c38f6	0.73524415
215	0x3e583630	0.21114421
216	0x3e2444de	0.16041896
217	0xbf65afcc	-0.8972137
218	0xbf866ddc	-1.0502276
219	0xbf6ea5a0	-0.93221474
220	0xbd8dc974	-0.0692319
221	0xbf7de44c	-0.9917648
222	0xbddcd702	-0.10783197
223	0xbf94c88a	-1.16237
224	0x3eaa743e	0.3329181
225	0x3f39acca	0.7252928
226	0xbe598bac	-0.21244687
227	0x3e8acca2	0.27109247
228	0x3d3f92bc	0.046770796
229	0xbe1eea87	-0.15519153
230	0x3f7787b6	0.96691453
231	0xbf88d26a	-1.0689213
232	0x3dafa9a8	0.08577281
233	0x3e5edccb	0.21763913
234	0x3f58d96c	0.8470676
235	0x3f886534	1.0655885
236	0x3d7b3e82	0.06133891
237	0x3e21e3c5	0.15809543
238	0x3e0ac724	0.13552529
239	0xbe989d9c	-0.29807746
240	0xbe847e5e	-0.2587766
241	0x3e2ebffa	0.17065421
242	0x3ec95f60	0.39330578
243	0xbe29b7a0	-0.16573954
244	0x3e6549af	0.2239139
245	0x3d94ddf1	0.072688945
246	0x3f0429ae	0.516261
247	0x3f0181da	0.5058876
248	0x3f47ac26	0.7799705
249	0xbde94762	-0.11390568
250	0xbe8008d4	-0.25006735
251	0xbeded3a0	-0.43520832
252	0x3edeaaff	0.43489835
253	0xbe0547d1	-0.13015677
254	0x3db2a669	0.087231465
255	0x3e9a6508	0.30155206

decoder_net.0.bias f4 [512]
0	0x3ef58f4a	0.47960883
1	0x3f040cac	0.51581836
2	0x3efac140	0.48975563
3	0x3efa4c2e	0.48886245
4	0x3f0230f4	0.50855947
5	0x3f04b676	0.51840913
6	0x3ef45e8e	0.4772839
7	0x3ee33194	0.44373763
8	0x3ef0a0bc	0.4699763
9	0x3ef7a724	0.48369706
10	0x3f003ff8	0.5009761
11	0x3efc9758	0.49334216
12	0x3f0221ec	0.5083301
13	0x3ef58fe8	0.47961354
14	0x3efa4c2e	0.48886245
15	0x3eeae906	0.45880908
16	0x3ef25d92	0.47337013
17	0x3ef79668	0.48356938
18	0x3efa4c2e	0.48886245
19	0x3ef181e8	0.47169423
20	0x3efa4c2e	0.48886245
21	0x3f00b3f4	0.50274587
22	0x3f01a01c	0.5063493
23	0x3effe638	0.4998033
24	0x3ee5d1e2	0.4488669
25	0x3ef232aa	0.4730428
26	0x3f006e86	0.50168645
27	0x3f000d5a	0.5002037
28	0x3eef89de	0.46784872
29	0x3eff178e	0.49822658
30	0x3ef3b9b4	0.47602618
31	0x3efa4c2e	0.48886245
32	0x3f03a08c	0.5141685
33	0x3ef4035a	0.47658807
34	0x3ef664f8	0.48123908
35	0x3ef4daf4	0.47823298
36	0x3f00bbae	0.50286376
37	0x3f01df8b	0.50731725
38	0x3efa4c2e	0.48886245
39	0x3efa4c2e	0.48886245
40	0x3ee396be	0.44450945
41	0x3f006928	0.50160456
42	0x3efa4c2e	0.48886245
43	0x3efa4c2e	0.48886245
44	0x3ef1ba32	0.47212368
45	0x3ef7796a	0.4833482
46	0x3eff3129	0.49842194
47	0x3efa4c2e	0.48886245
48	0x3ee8e688	0.4548838
49	0x3efa4c2e	0.48886245
50	0x3efb2060	0.49048138
51	0x3f03d71e	0.5150012
52	0x3efde914	0.49591887
53	0x3efa4c2e	0.48886245
54	0x3f0387c8	0.5137906
55	0x3eef874a	0.46782905
56	0x3eef1fda	0.46703988
57	0x3efa4c2e	0.48886245
58	0x3ef0361c	0.46916282
59	0x3ef30cc2	0.4747067
60	0x3efa4c2e	0.48886245
61	0x3ef525c4	0.47880375
62	0x3ef962a0	0.48708057
63	0x3f017662	0.5057126
64	0x3efa4c2e	0.48886245
65	0x3ef3d88a	0.47626144
66	0x3efe68be	0.49689287
67	0x3ef35080	0.47522354
68	0x3f0367ec	0.5133045
69	0x3ef79b8c	0.4836086
70	0x3efde642	0.49589735
71	0x3f08bb72	0.5341102
72	0x3efff638	0.49992537
73	0x3effe012	0.4997564
74	0x3efe46bc	0.4966334
75	0x3eef1542	0.46695906
76	0x3efa4c2e	0.48886245
77	0x3ef63c4b	0.48092875
78	0x3ef32c7e	0.47494882
79	0x3ef34520	0.47513676
80	0x3f001a3c	0.5004003
81	0x3efa4c2e	0.48886245
82	0x3efe285e	0.49640173
83	0x3ee7b3f4	0.4525448
84	0x3efa4c2e	0.48886245
85	0x3ef9646e	0.48709434
86	0x3efa4c2e	0.48886245
87	0x3efa4c2e	0.48886245
88	0x3f0009f7	0.50015205
89	0x3f00dbb4	0.5033524
90	0x3ef81860	0.48456097
91	0x3ef8b8a5	0.48578373
92	0x3f01d182	0.5071031
93	0x3efdc793	0.49566326
94	0x3ef83e7c	0.48485172
95	0x3efa0e9c	0.4883927
96	0x3effb4f6	0.4994275
97	0x3f01402f	0.5048856
98	0x3ef67950	0.4813943
99	0x3ef499f8	0.4777372
100	0x3ef27d3c	0.4736117
101	0x3eeeb23d	0.4662036
102	0x3efa4c2e	0.48886245
103	0x3ef45352	0.47719818
104	0x3f021c50	0.5082445
105	0x3efa4c2e	0.48886245
106	0x3ef3d77a	0.47625333
107	0x3ef161f0	0.47145033
108	0x3eef481e	0.4673471
109	0x3f033ed6	0.51267755
110	0x3ef1fc3e	0.47262758
111	0x3ef82cba	0.48471624
112	0x3ef3304a	0.4749778
113	0x3effb8c5	0.49945655
114	0x3efe7c34	0.49704134
115	0x3efbbf12	0.49169213
116	0x3ef1c754	0.47222388
117	0x3f012d1f	0.50459474
118	0x3efa4c2e	0.48886245
119	0x3ef26a1e	0.47346586
120	0x3efa4c2e	0.48886245
121	0x3eeb3140	0.45936012
122	0x3f049771	0.5179358
123	0x3eedbc40	0.46432686
124	0x3f078430	0.5293608
125	0x3efa4c2e	0.48886245
126	0x3ef8ffa1	0.4863253
127	0x3f0ff5bd	0.5623434
128	0x3eedfd20	0.46482182
129	0x3efa4c2e	0.48886245
130	0x3f02616c	0.50929904
131	0x3eeb6b59	0.45980337
132	0x3efa4c2e	0.48886245
133	0x3efa4c2e	0.48886245
134	0x3ef15501	0.47135165
135	0x3f07c8fc	0.5304105
136	0x3eef43b2	0.46731335
137	0x3efa7fb8	0.48925567
138	0x3ef4724b	0.4774345
139	0x3eeeada8	0.46616864
140	0x3f02a7fa	0.5103756
141	0x3f0974fa	0.5369412
142	0x3efbcf20	0.4918146
143	0x3ef38fa8	0.4757054
144	0x3f024828	0.5089135
145	0x3eef8a38	0.4678514
146	0x3efa4c2e	0.48886245
147	0x3efb10a8	0.49036145
148	0x3ef4616e	0.47730583
149	0x3efd7a62	0.49507433
150	0x3efa4c2e	0.48886245
151	0x3ef3131a	0.4747551
152	0x3ee680fa	0.45020276
153	0x3efcb9fd	0.49360648
154	0x3efa4c2e	0.48886245
155	0x3ef1db4e	0.4723763
156	0x3eff6976	0.49885148
157	0x3f091bea	0.5355822
158	0x3efe0e98	0.4962051
159	0x3f00988c	0.5023277
160	0x3efa420c	0.48878515
161	0x3ef80558	0.48441577
162	0x3efe9b13	0.49727687
163	0x3ef4d9bd	0.4782237
164	0x3efa4bb3	0.4888588
165	0x3f024d94	0.50899625
166	0x3ef99eba	0.4875391
167	0x3efd2f1c	0.49450004
168	0x3efb679a	0.4910248
169	0x3efc8ed3	0.49327716
170	0x3ef4e912	0.4783407
171	0x3ef6682c	0.48126352
172	0x3f00f636	0.5037569
173	0x3efa4c2e	0.48886245
174	0x3efa4c2e	0.48886245
175	0x3eff3724	0.49846756
176	0x3efb3266	0.49061888
177	0x3ef2e9e6	0.47444075
178	0x3ef45b18	0.4772575
179	0x3f0248d0	0.50892353
180	0x3eee9eb8	0.46605468
181	0x3ef761d2	0.48316818
182	0x3ef8312e	0.4847502
183	0x3ef417c0	0.4767437
184	0x3efc7eba	0.49315435
185	0x3efb35fa	0.49064618
186	0x3ef1e6ac	0.472463
187	0x3ef52a85	0.47884002
188	0x3f0595d8	0.5218177
189	0x3efa4c2e	0.48886245
190	0x3ef51140	0.47864723
191	0x3f03c088	0.51465654
192	0x3ee8147f	0.45328137
193	0x3f00ffd6	0.50390375
194	0x3ef48116	0.47754735
195	0x3ef3e10c	0.47632635
196	0x3ef9e44c	0.4880699
197	0x3ef41f19	0.47679976
198	0x3efa4c2e	0.48886245
199	0x3ef92838	0.48663497
200	0x3f007aca	0.5018736
201	0x3ef3e8e4	0.4763862
202	0x3ee74db4	0.4517647
203	0x3efbaeb7	0.49156734
204	0x3f007bdc	0.50188994
205	0x3eebaa34	0.46028292
206	0x3ef852f4	0.48500788
207	0x3efa4c2e	0.48886245
208	0x3f003fb6	0.50097215
209	0x3f0c1950	0.54726124
210	0x3eee3c98	0.46530604
211	0x3f031c84	0.51215386
212	0x3efa4c2e	0.48886245
213	0x3efa4c2e	0.48886245
214	0x3ef0032a	0.46877414
215	0x3efa4c2e	0.48886245
216	0x3f022f52	0.50853455
217	0x3efe9052	0.49719483
218	0x3efefe96	0.4980361
219	0x3f005fb6	0.50146043
220	0x3ef69830	0.48162985
221	0x3eeb5842	0.45965773
222	0x3eea5cf8	0.45774055
223	0x3ef03b70	0.46920347
224	0x3ef5e4ca	0.48026115
225	0x3ef30ab9	0.47469118
226	0x3f098550	0.53719044
227	0x3efdca9a	0.49568635
228	0x3efa4c2e	0.48886245
229	0x3f00e20a	0.5034491
230	0x3ef8d7ec	0.48602235
231	0x3efa4c2e	0.48886245
232	0x3f02bff2	0.51074135
233	0x3f0d4928	0.5518975
234	0x3f1001d0	0.56252766
235	0x3ef2d208	0.47425866
236	0x3efa4c2e	0.48886245
237	0x3efd5cc6	0.49484843
238	0x3ef2d794	0.47430098
239	0x3efa4c2e	0.48886245
240	0x3f018974	0.5060036
241	0x3eff76e8	0.49895406
242	0x3efa4c2e	0.48886245
243	0x3ef0a1be	0.469984
244	0x3efa4c2e	0.48886245
245	0x3eeb8626	0.46000785
246	0x3ef98efc	0.487419
247	0x3f0329dc	0.5123575
248	0x3ee980d2	0.45606095
249	0x3f05e758	0.5230613
250	0x3efa4c2e	0.48886245
251	0x3ee97644	0.45598042
252	0x3eea6e5c	0.45787323
253	0x3efa128c	0.48842275
254	0x3efa4c2e	0.48886245
255	0x3efb3ab6	0.4906823

decoder_net.2.weight f4 [512]
0	0x3f7e6218	0.9936843
1	0x3f8c49cc	1.0960021
2	0x3f77ff1b	0.96873635
3	0x3f745b28	0.95451593
4	0x3f52f168	0.82399607
5	0x3f843516	1.03287
6	0x3f8c9b44	1.0984883
7	0x3f7d8e14	0.9904492
8	0x3f7f7300	0.9978485
9	0x3f618766	0.88097227
10	0x3f7d6fea	0.9899889
11	0x3f7fbaf6	0.99894655
12	0x3f89f2ae	1.0777185
13	0x3f81b42a	1.0133107
14	0x3f751a38	0.9574313
15	0x3f840a3c	1.0315623
16	0x3f7a6f84	0.9782641
17	0x3f7bb586	0.9832386
18	0x3f744517	0.9541792
19	0x3f79f5b6	0.9764055
20	0x3f7eee0c	0.9958198
21	0x3f62a12e	0.8852719
22	0x3f7c007e	0.9843825
23	0x3f7f7a4e	0.99796
24	0x3f5f2078	0.8715892
25	0x3f748ac5	0.95524246
26	0x3f791232	0.9729339
27	0x3f8136b6	1.0094821
28	0x3f705de4	0.93893266
29	0x3f7455b6	0.95443285
30	0x3f7c19aa	0.9847666
31	0x3f7652db	0.9622018
32	0x3f70bd04	0.94038415
33	0x3f7f99a2	0.998438
34	0x3f7b0edc	0.9806955
35	0x3f74598e	0.9544915
36	0x3f757fc4	0.9589808
37	0x3f771ee0	0.96531487
38	0x3f809038	1.0044012
39	0x3f783b2a	0.9696528
40	0x3f65eccf	0.89814466
41	0x3faa33ae	1.3297021
42	0x3f78742a	0.9705225
43	0x3f7d7872	0.9901191
44	0x3f7ab55e	0.97932994
45	0x3f7f5b88	0.9974904
46	0x3f83cac8	1.0296259
47	0x3f78e9e0	0.97231865
48	0x3f8cdcb4	1.1004853
49	0x3f7c27a2	0.98497975
50	0x3f69925b	0.91238946
51	0x3f87ce92	1.0609915
52	0x3f80deda	1.0068009
53	0x3f7b4b88	0.98162127
54	0x3f655754	0.8958638
55	0x3f54ef00	0.83177185
56	0x3f78d1dc	0.9719522
57	0x3f7ee8e8	0.99574137
58	0x3f704174	0.93849874
59	0x3f6e1828	0.9300561
60	0x3f7e429c	0.9932039
61	0x3f6fc404	0.9365847
62	0x3f7cc550	0.98738575
63	0x3f785fbc	0.9702108
64	0x3f79d20a	0.9758612
65	0x3f76205c	0.96143126
66	0x3f8368a0	1.0266304
67	0x3f75ec42	0.96063626
68	0x3f84de7c	1.0380397
69	0x3f7561fb	0.9585263
70	0x3f7838a4	0.96961427
71	0x3f886da4	1.065846
72	0x3f75e8b6	0.96058214
73	0x3f76b11d	0.96364003
74	0x3f69d94a	0.9134718
75	0x3f77d352	0.96806824
76	0x3f7d2b26	0.98893964
77	0x3f6d8a22	0.927889
78	0x3f7efe06	0.9960636
79	0x3f87b6c0	1.0602646
80	0x3f80ac34	1.0052552
81	0x3f7ec61a	0.9952103
82	0x3f7d647f	0.9898147
83	0x3f7cc768	0.9874177
84	0x3f7b5af1	0.9818564
85	0x3f8144a4	1.0099072
86	0x3f7b6da6	0.98214185
87	0x3f794a30	0.97378826
88	0x3f8161fa	1.0108025
89	0x3f81e1dc	1.0147052
90	0x3f7a2dd2	0.97726166
91	0x3f7939b0	0.9735365
92	0x3f801724	1.0007062
93	0x3f7b8656	0.98251855
94	0x3f76eca9	0.96454865
95	0x3f762910	0.96156406
96	0x3f7e25b4	0.9927628
97	0x3f739ca0	0.95160866
98	0x3f781d3d	0.96919614
99	0x3f81d324	1.014256
100	0x3f8157a0	1.0104866
101	0x3f710964	0.94154954
102	0x3f7e44be	0.9932364
103	0x3f724d7e	0.94649494
104	0x3f8ac1ac	1.0840354
105	0x3f794ba2	0.9738103
106	0x3f7cab12	0.9869853
107	0x3f796c74	0.9743111
108	0x3f853f6a	1.0409977
109	0x3f846774	1.0344071
110	0x3f762a32	0.96158135
111	0x3f7e2af0	0.9928427
112	0x3f7ae1de	0.98000896
113	0x3f724b5c	0.9464624
114	0x3f76ede0	0.9645672
115	0x3f7dd0d7	0.9914679
116	0x3f7617bc	0.96129966
117	0x3f7de812	0.99182236
118	0x3f7d949a	0.99054873
119	0x3f7ccb76	0.98747957
120	0x3f80436e	1.0020578
121	0x3f81d44e	1.0142915
122	0x3f79fd54	0.97652173
123	0x3f7214a0	0.9456272
124	0x3f78fc20	0.9725971
125	0x3f77dd1e	0.96821773
126	0x3f89586e	1.0730112
127	0x3f910d78	1.1332235
128	0x3f6baa15	0.920564
129	0x3f79d420	0.975893
130	0x3f7842da	0.9697701
131	0x3f8294d4	1.0201669
132	0x3f7e118a	0.9924551
133	0x3f7553d6	0.9583105
134	0x3f79b942	0.97548306
135	0x3f830bac	1.0237937
136	0x3f79fd28	0.9765191
137	0x3f7a71e9	0.97830063
138	0x3f842c18	1.0325956
139	0x3f7c5e46	0.9858135
140	0x3f650f56	0.89476526
141	0x3f74784e	0.9549607
142	0x3f85d2dc	1.0454974
143	0x3f76cba4	0.9640448
144	0x3f4bd165	0.79616386
145	0x3f7b3c62	0.9813901
146	0x3f7aff7a	0.98046076
147	0x3f7798b6	0.96717393
148	0x3f606433	0.8765289
149	0x3f6e88a0	0.93177223
150	0x3f767cd2	0.9628421
151	0x3f801d04	1.0008855
152	0x3f72058c	0.94539714
153	0x3f768156	0.962911
154	0x3f789c38	0.9711337
155	0x3f738616	0.95126474
156	0x3f7dde46	0.9916729
157	0x3f805fb2	1.0029204
158	0x3f812624	1.0089765
159	0x3f81cc59	1.0140487
160	0x3f7763a4	0.96636415
161	0x3f765d80	0.9623642
162	0x3f7b4ef6	0.9816736
163	0x3f7cd686	0.98764837
164	0x3f8911a6	1.0708511
165	0x3f800cd0	1.000391
166	0x3f7a94f6	0.97883546
167	0x3f885062	1.0649531
168	0x3f6ccd14	0.92500424
169	0x3f72a3ae	0.94781005
170	0x3f87166e	1.055372
171	0x3f7e71c4	0.9939234
172	0x3f8133b4	1.0093904
173	0x3f73a36b	0.9517123
174	0x3f7bdb9e	0.98381984
175	0x3f79e7f7	0.97619575
176	0x3f68a2b6	0.9087328
177	0x3f805e5a	1.0028794
178	0x3f71dc1c	0.94476485
179	0x3f787d54	0.97066236
180	0x3f76d0ac	0.9641216
181	0x3f76afd4	0.9636204
182	0x3f79359a	0.97347414
183	0x3f7d5650	0.9895983
184	0x3f7e8d0e	0.9943398
185	0x3f797afc	0.97453284
186	0x3f766133	0.96242064
187	0x3f7c0f1c	0.98460555
188	0x3f7ccd7a	0.9875103
189	0x3f7ce98a	0.9879385
190	0x3f7bee12	0.9841014
191	0x3f817868	1.011487
192	0x3f7c6d10	0.98603916
193	0x3f76d756	0.96422327
194	0x3f76c28e	0.96390617
195	0x3f72a73c	0.9478643
196	0x3f6a0801	0.91418463
197	0x3f79876c	0.9747226
198	0x3f74962c	0.95541644
199	0x3f834c96	1.0257747
200	0x3f78119c	0.9690187
201	0x3f798a54	0.97476697
202	0x3f7589a0	0.95913124
203	0x3f7b36a8	0.98130274
204	0x3f70666c	0.93906283
205	0x3f7dfda2	0.9921514
206	0x3f72d500	0.9485626
207	0x3f78b336	0.97148454
208	0x3f80f29a	1.0074036
209	0x3f804fb2	1.0024321
210	0x3f74905a	0.95532763
211	0x3f890988	1.0706034
212	0x3f75247c	0.95758796
213	0x3f802ff6	1.0014637
214	0x3f7e2a14	0.99282956
215	0x3f7cf8dc	0.9881723
216	0x3f83fec0	1.0312119
217	0x3f792ba4	0.97332215
218	0x3f790298	0.9726958
219	0x3f752154	0.9575398
220	0x3f7d7a1c	0.9901445
221	0x3f7c9fe3	0.9868147
222	0x3f7607d2	0.9610568
223	0x3f7d0836	0.98840654
224	0x3f775356	0.96611536
225	0x3f716950	0.9430132
226	0x3f7c0855	0.98450214
227	0x3f7710ac	0.96509814
228	0x3f78a2e4	0.9712355
229	0x3f6b0d22	0.91816914
230	0x3f8f4ffc	1.1196284
231	0x3f7e5092	0.9934169
232	0x3f777dc6	0.9667629
233	0x3f78f404	0.9724734
234	0x3f897086	1.0737464
235	0x3f719648	0.94369936
236	0x3f80df60	1.0068169
237	0x3f70ca12	0.94058335
238	0x3f668158	0.9004111
239	0x3f802c2c	1.001348
240	0x3f63a1c8	0.88918734
241	0x3f7c731c	0.9861314
242	0x3f7c5c28	0.9857812
243	0x3f7dfcbe	0.9921378
244	0x3f72d174	0.9485085
245	0x3f77ee4c	0.9684799
246	0x3f7b857a	0.98250544
247	0x3f801992	1.0007803
248	0x3f7779e0	0.9667034
249	0x3f6e13a2	0.9299871
250	0x3f7edfd8	0.9956031
251	0x3f707d83	0.93941516
252	0x3f5957be	0.8489951
253	0x3f8608b3	1.0471405
254	0x3f76a066	0.963385
255	0x3f710694	0.9415066

decoder_net.2.bias f4 [512]
0	0xbc940228	-0.018067434
1	0x3b8ba955	0.0042621293
2	0xba45b732	-0.0007542252
3	0x3cbce772	0.02305958
4	0x3cb3b921	0.021938862
5	0xbc77c276	-0.015122047
6	0xbc331b05	-0.010931735
7	0xbc95bdd8	-0.018279001
8	0xbcba72e6	-0.022759866
9	0xbbf75520	-0.0075479895
10	0xbbf1f9d0	-0.0073845163
11	0xbce1891c	-0.0275312
12	0x3cac82e2	0.021058504
13	0xbd0d7ae2	-0.03454102
14	0x3c9f1a09	0.019421594
15	0xbc84bd54	-0.01620356
16	0xba872ed2	-0.0010313636
17	0xbb69a7be	-0.003565296
18	0x3cd05364	0.025430389
19	0x3aae0fc4	0.0013279845
20	0xbc9bdc74	-0.019026019
21	0x3c8e58d2	0.017376337
22	0x3c7da11a	0.015480304
23	0x3c3df336	0.011593631
24	0xbc86f304	-0.0164733
25	0x3c59bedc	0.013290133
26	0x3c5d6025	0.013511692
27	0x3c33c910	0.01097323
28	0x3ce5ceaa	0.028052647
29	0x3c181aca	0.009283731
30	0xbc0098f0	-0.007848963
31	0x3c76779b	0.015043165
32	0x3ce09b55	0.027417818
33	0xbc6f02f7	-0.014588109
34	0xbb5c1bc0	-0.0033585876
35	0x3cb8e046	0.02256788
36	0x3c6302e8	0.013855673
37	0x3ca8719c	0.020561986
38	0xbcdbdd04	-0.026838787
39	0x3c031b84	0.008002166
40	0x3c699cfc	0.014258619
41	0x3c28c190	0.010300055
42	0x3bc68290	0.0060580447
43	0xbc58e916	-0.013239166
44	0xbb2a62d3	-0.0025998845
45	0xbcab9fd6	-0.02095024
46	0xbc70e906	-0.014703995
47	0x3bb9a2fc	0.005665181
48	0xbba186ec	-0.004929414
49	0xbc1b11a0	-0.009464651
50	0xbca0401c	-0.01956182
51	0x3cddf8e2	0.027096216
52	0xbc96e69a	-0.018420506
53	0xbb616bd8	-0.0034396555
54	0x3ceac204	0.028656967
55	0x3c20fc4e	0.009825779
56	0x3a4207f8	0.00074017
57	0xbc8e36a6	-0.017360043
58	0xbc9e4a36	-0.019322496
59	0xbc62c310	-0.013840452
60	0xbc89b500	-0.01680994
61	0xbc38c5d6	-0.0112776365
62	0x3b05daa6	0.0020424514
63	0x3c91815e	0.017761882
64	0x3ab43846	0.0013749681
65	0x3c919799	0.017772483
66	0xbcf34600	-0.029696465
67	0xbc592716	-0.013253948
68	0x3c856a3a	0.016286004
69	0x3ca425bf	0.02003753
70	0x3c0e9ee8	0.008704878
71	0x3b819534	0.003954554
72	0x3c240306	0.0100104865
73	0x3c4ccfbf	0.012500702
74	0x3b810e50	0.0039384738
75	0x3c13f5bd	0.009030757
76	0xbc3d6f3a	-0.011562163
77	0xbbe25c56	-0.00690798
78	0xbc750d54	-0.014956791
79	0x3a49c06e	0.0007696216
80	0x3c712624	0.014718566
81	0xbc8dae6e	-0.017295089
82	0xbc0f4ea2	-0.008746775
83	0xbc488426	-0.012238538
84	0xbbb90328	-0.005646128
85	0xbd052912	-0.03250987
86	0xbb8db718	-0.004324805
87	0x3b8e800b	0.00434876
88	0xbbebd66a	-0.007197191
89	0x3c8a8796	0.016910356
90	0x3c0d82e0	0.00863716
91	0xbaf79048	-0.0018887604
92	0xbc20c2d3	-0.009812075
93	0x3c259c18	0.010108016
94	0x3c6ab28c	0.014324795
95	0x3c7e19c4	0.015509073
96	0xbc6a09c0	-0.014284551
97	0x3c5461ae	0.012962742
98	0x3bdff7d6	0.0068349643
99	0xbca90142	-0.020630483
100	0xbb31de05	-0.002714039
101	0xbcbbcc98	-0.022924706
102	0xbc706a5d	-0.0146737965
103	0xbc520785	-0.012819176
104	0x3ba80d9a	0.0051285746
105	0x3b9359bb	0.0044967807
106	0xbc1254f4	-0.008931387
107	0x3b3fdb4f	0.0029275005
108	0xbc927a51	-0.01788059
109	0x3cea29a6	0.028584313
110	0x3c83de4c	0.01609721
111	0xbc8ce92e	-0.017201032
112	0xbbffcc4e	-0.0078063374
113	0x3c2ae5b0	0.010430738
114	0x3c1dfeea	0.009643296
115	0x3adb6c66	0.0016740679
116	0xbc8908d6	-0.016727846
117	0xbb9e75d0	-0.0048358217
118	0xbc46b370	-0.012127742
119	0xbc2ed3c5	-0.010670607
120	0xbcce6608	-0.025195137
121	0xbd1ca6ba	-0.03824494
122	0x3c0651a4	0.008198176
123	0xbcda653a	-0.026659597
124	0x3ce6fb2c	0.02819594
125	0x3c168772	0.009187566
126	0xbc33881a	-0.010957742
127	0xbba561d0	-0.0050470605
128	0xbccd6118	-0.025070712
129	0x3a87a874	0.0010349886
130	0x3ccf5d70	0.02531311
131	0xbd194578	-0.037419766
132	0xbc728d44	-0.014804188
133	0x3ca01d56	0.019545238
134	0x3add83a2	0.0016900192
135	0xbca07310	-0.019586116
136	0x3acc5994	0.0015590661
137	0x3ac07db6	0.0014685902
138	0xbcc739f8	-0.024319634
139	0xbc023f91	-0.007949726
140	0x3caf4ac4	0.021397956
141	0x3c518822	0.012788804
142	0xbb5affd2	-0.003341664
143	0xbc5878b9	-0.013212376
144	0x3cc1235d	0.023576433
145	0xbba8d03f	-0.005151778
146	0xbaca169a	-0.0015418113
147	0x3b43dac4	0.0029885033
148	0xbc3bc4ee	-0.011460526
149	0x3be6d2ce	0.007044173
150	0x3c86c462	0.016451064
151	0xbcc1cee0	-0.023658216
152	0x3c418d46	0.011813467
153	0x3b8d973c	0.004321007
154	0x3bca7fbd	0.0061797784
155	0xbc8b2148	-0.016983643
156	0x3c31ade4	0.010844681
157	0xbca9f7a8	-0.020747975
158	0xbc86e467	-0.016466333
159	0xbbd548a2	-0.0065089026
160	0x3a937e29	0.0011252809
161	0x3c74217b	0.0149005605
162	0x3c18bbf2	0.009322153
163	0xbc2089fb	-0.009798522
164	0x3ad1e2be	0.0016013009
165	0xbc10599a	-0.008810425
166	0xbb13e475	-0.002256659
167	0xbc14ff24	-0.009094033
168	0xb988a648	-0.0002606383
169	0x3bca7830	0.0061788782
170	0xbc9d5d7d	-0.019209618
171	0xbc866688	-0.016406313
172	0x3c8b369c	0.016993813
173	0x3cce40e8	0.025177434
174	0xbbd853d8	-0.006601792
175	0x3bb55b3c	0.0055345576
176	0x3aea6eb4	0.0017885775
177	0xbcc92911	-0.024555715
178	0xbc6d4276	-0.014481178
179	0x3cbf56ce	0.023356821
180	0x3c1eac7c	0.009684678
181	0x3c5b2e98	0.013377808
182	0x3b5c36a1	0.0033601897
183	0xbca7524a	-0.02042498
184	0x3bb33d56	0.0054699583
185	0x3b68167a	0.0035413788
186	0x3c69c1e4	0.0142674185
187	0xbbd26070	-0.0064201877
188	0x3d12ed32	0.03587074
189	0xbc26ba3c	-0.010176238
190	0xbbde72fc	-0.0067886095
191	0x3b79e634	0.0038131597
192	0xbc441f08	-0.011970289
193	0x3c741122	0.014896663
194	0x3c58e4ba	0.013238126
195	0xbc37dfe0	-0.01122281
196	0xb9be5a38	-0.00036306842
197	0xbc072a1d	-0.008249787
198	0x3cb66990	0.022267133
199	0xbd4e89ee	-0.05042451
200	0x3c227a93	0.009916919
201	0x3a35f0e1	0.0006940496
202	0xbcdcf16e	-0.026970591
203	0x3b4b5eb6	0.0031031794
204	0x3c7be636	0.015374711
205	0xbc741afe	-0.014899014
206	0xbba01c20	-0.0048861653
207	0x3b797a28	0.0038067196
208	0x3c7a2f0c	0.015270006
209	0x3d71a49a	0.058994867
210	0xbb431630	-0.0029767863
211	0x398928a2	0.0002616095
212	0x3cacc2c0	0.021088958
213	0xbcc60d32	-0.024176214
214	0xbc87be8c	-0.016570352
215	0xbc309bc4	-0.010779325
216	0x3cad157a	0.021128405
217	0x3be41104	0.0069600362
218	0xbafe6c9c	-0.001941103
219	0x3c7abc86	0.015303737
220	0xbc31cb3e	-0.010851679
221	0xbc2a62ca	-0.01039953
222	0xbbf9765c	-0.0076129865
223	0xbc34cc77	-0.011035076
224	0x3c422862	0.011850448
225	0xbc7cc4d2	-0.015427785
226	0x3cdd0ab0	0.026982635
227	0x3c0887f6	0.008333197
228	0x3bd28900	0.006425023
229	0x3c8a7132	0.016899679
230	0xbb8f80d6	-0.004379372
231	0xbc8b3060	-0.01699084
232	0x3ccc1c88	0.024915949
233	0x3bc78328	0.006088633
234	0xbc5c2a7e	-0.013437865
235	0xbc8b4100	-0.016998768
236	0xbcf23e4e	-0.029570725
237	0x3be0e6c2	0.006863446
238	0xbc84ef20	-0.016227305
239	0xbcc36d44	-0.023855813
240	0x3c9b0ce0	0.018927038
241	0x3c3bd11e	0.011463432
242	0xbbfde96a	-0.0077487724
243	0xbc815094	-0.015785493
244	0x3ceebf92	0.029144082
245	0x3aaee856	0.0013344388
246	0xb9dd8e0a	-0.00042258232
247	0xbaf0dda0	-0.0018376596
248	0x3c10675c	0.008813705
249	0x3c293528	0.010327615
250	0xbc98a450	-0.018633038
251	0xbd070bb2	-0.032970138
252	0xbc22bdda	-0.009932959
253	0xbb0479c2	-0.0020214175
254	0x3c66b326	0.014080798
255	0x3c8b3f39	0.01699792

decoder_net.3.weight f4 [256, 512]
0	0x3e1ee0c6	0.15515432
1	0x3f5c7c94	0.8612759
2	0x3e545728	0.20736372
3	0xbd5b5476	-0.053547345
4	0x3ee64d49	0.4498084
5	0xbe9d9b14	-0.30782378
6	0x3edcad06	0.43100756
7	0xbd19bf37	-0.037535872
8	0x3ed885b8	0.4228952
9	0x3f6ab530	0.9168272
10	0xbe71cc54	-0.23613101
11	0x3f090c1b	0.53534096
12	0xbe04acd6	-0.12956557
13	0x3f0a8fb9	0.54125553
14	0x3f2a2d53	0.6647541
15	0xbdac4022	-0.0841067
16	0xbdcdd068	-0.10049516
17	0x3ddfcc08	0.10927588
18	0xbbd99b37	-0.0066408175
19	0xbe0b17f2	-0.13583353
20	0x3f1e8243	0.61917514
21	0x3ea54274	0.32277262
22	0x3e2874a6	0.16450748
23	0xbf1c3542	-0.61018765
24	0xbf43462a	-0.76278937
25	0xbe644bc4	-0.22294527
26	0x3ebe5326	0.37172812
27	0xbe94762e	-0.28996414
28	0x3ca31ac8	0.019910231
29	0xbe28683d	-0.16446014
30	0xbf2e234a	-0.68022597
31	0x3f72accb	0.9479491
32	0x3e35738f	0.17719863
33	0x3e2b1c1a	0.16709939
34	0xbd60930c	-0.054827735
35	0xbf4ffe31	-0.8124724
36	0xbeba91e2	-0.36439425
37	0x3db14118	0.08654994
38	0xbed1f198	-0.41004634
39	0x3e70e135	0.2352341
40	0xbe4e7ab2	-0.20163992
41	0xbe7c36d5	-0.24630292
42	0xbf1b4d07	-0.6066441
43	0xbe7e193e	-0.24814317
44	0xbe696d6e	-0.2279565
45	0x3e2ce17a	0.16882887
46	0xbecd796e	-0.40131706
47	0xbf2a2a2e	-0.6647061
48	0x3d872cd8	0.0660035
49	0x3f5446bf	0.8292045
50	0xbe292144	-0.16516596
51	0x3da83bf8	0.08214563
52	0xbf1eb366	-0.6199249
53	0x3e91b5f2	0.28459126
54	0x3ee26b3a	0.44222432
55	0xbef6ea5e	-0.48225683
56	0xbe5e03fe	-0.2168121
57	0xbe50b183	-0.20380215
58	0x3ed6bf24	0.41942704
59	0x3f1c63dc	0.61089873
60	0x3e87402a	0.2641614
61	0xbec83bee	-0.39108223
62	0x3f294ede	0.66135967
63	0x3bfcb35f	0.0077118124
64	0xbfa522f8	-1.2901297
65	0xbe0319d0	-0.12802815
66	0x3d80e986	0.06294541
67	0x3efa4400	0.48880005
68	0xbea42580	-0.3205986
69	0xbd70e6a9	-0.058813725
70	0xbf8e94fa	-1.1139214
71	0x3de230c0	0.110444546
72	0xbee93850	-0.45550776
73	0x3f24e3ee	0.64410293
74	0xbec22894	-0.37921584
75	0x3e5ea07e	0.2174091
76	0xbef3cd98	-0.47617793
77	0x3f2a6f42	0.66576016
78	0x3c854c70	0.0162718
79	0xbe3756a8	-0.1790415
80	0x3dd3cbba	0.10341592
81	0x3edc4b7c	0.4302634
82	0x3e85005e	0.25976843
83	0x3eccbea6	0.39989203
84	0xbecff89a	-0.40619355
85	0xbe833f22	-0.25634104
86	0xbf203a11	-0.625886
87	0xbf5e674c	-0.8687637
88	0xbe5540b5	-0.20825465
89	0xbf8dc5dc	-1.1076007
90	0xbebb64ac	-0.36600244
91	0xbe84abfa	-0.25912458
92	0xbf88e04e	-1.0693452
93	0xbf3e23aa	-0.7427317
94	0x3e5d9270	0.21637893
95	0x3dd8e2e0	0.10590148
96	0xbf90636a	-1.1280339
97	0x3eb02050	0.34399652
98	0xbf09bc73	-0.53803176
99	0x3dba4490	0.090951085
100	0x3f4dfe76	0.804664
101	0xbf96a3ce	-1.1768739
102	0xbf020e01	-0.5080262
103	0xbf1e6e72	-0.61887276
104	0x3e66439a	0.22486725
105	0xbeec7bac	-0.46188104
106	0x3eb80144	0.35938466
107	0x3e2494ed	0.16072436
108	0x3d83f7f8	0.06443781
109	0xbead0672	-0.3379398
110	0x3ef4ab74	0.47787058
111	0x3f3e1a1f	0.7425861
112	0x3f07e1d7	0.5307898
113	0x3f3d73bc	0.7400472
114	0x3e63d224	0.22248131
115	0xbe316804	-0.17324835
116	0x3f10138c	0.56279826
117	0x3c038b55	0.008028825
118	0xbf6ba955	-0.92055255
119	0x3e5e2f05	0.21697624
120	0xbf33dfa9	-0.70263153
121	0x3f2e232c	0.6802242
122	0xbdc55afe	-0.09636496
123	0xbf003f63	-0.5009672
124	0xbe22197d	-0.15830036
125	0x3f127fec	0.57226443
126	0x3e7e16f2	0.2481344
127	0x3f12e653	0.57382697
128	0x3e7bd2d9	0.24592151
129	0x3de9fc9e	0.11425136
130	0xbed1cdcc	-0.40977323
131	0xbf055394	-0.52080655
132	0xbea489cc	-0.3213638
133	0xbf83362c	-1.0250907
134	0x3f128eb3	0.5724899
135	0xbbfe35bc	-0.0077578705
136	0xbf428096	-0.75977457
137	0xbea81848	-0.32831025
138	0x3d55bc16	0.052181326
139	0xbe815348	-0.2525885
140	0xbf3e479f	-0.74328035
141	0xbe307164	-0.17230755
142	0xbeb62fee	-0.35583442
143	0x3f139f68	0.5766511
144	0x3f83f928	1.0310411
145	0x3ea3edc8	0.3201735
146	0xbeb3409c	-0.3501023
147	0x3f1b09fc	0.6056211
148	0xbf0aed2e	-0.5426816
149	0x3f1cd80b	0.61267155
150	0xbf44b5ec	-0.7684009
151	0xbeefdd54	-0.46848547
152	0xbc0ebfb9	-0.008712702
153	0xbee037f4	-0.4379269
154	0x3d80dfc4	0.0629268
155	0x3f206053	0.6264698
156	0xbf02d73e	-0.51109684
157	0x3e00ff40	0.1259737
158	0x3ea08664	0.31352532
159	0xbdd319fc	-0.103076905
160	0xbe927e32	-0.28611904
161	0x3dde0c54	0.10842195
162	0xbe5a7e43	-0.21337228
163	0xbd8c6180	-0.06854534
164	0xbdeae32b	-0.1146911
165	0xbf22fbc7	-0.6366543
166	0x3e6d1ff0	0.23156714
167	0x3dbd4fca	0.09243734
168	0xbef70548	-0.48246217
169	0x3ecab57e	0.39591593
170	0xbe9882c2	-0.2978726
171	0x3d0c44f7	0.034245458
172	0x3f9f75d6	1.2457836
173	0xbe3df1f8	-0.18549335
174	0xbecad292	-0.39613777
175	0xbe56b64e	-0.20967981
176	0xbfb5c628	-1.4201097
177	0xbf3583b8	-0.7090411
178	0x3ed5f760	0.41790295
179	0x3ed37a15	0.4130408
180	0x3f047479	0.51740223
181	0x3e536eb7	0.20647703
182	0x3f4fb555	0.81136066
183	0xbed297da	-0.4113148
184	0x3c9acdb6	0.018896919
185	0xbde5747c	-0.11203858
186	0xbe224b8a	-0.15849128
187	0xbd58799a	-0.052850343
188	0xbef63376	-0.48086137
189	0x3e5e57ff	0.21713255
190	0x3ecc4f66	0.39904326
191	0xbee6a530	-0.45047903
192	0x3f24066c	0.640723
193	0x3ed0ac19	0.407563
194	0x3e5072ab	0.20356242
195	0x3eddaeb4	0.4329735
196	0x3eca1208	0.39466882
197	0xbefc1450	-0.49234247
198	0xbeec181e	-0.4611215
199	0x3e3645e0	0.17800093
200	0x3e96b8d8	0.294379
201	0xbec64484	-0.38724148
202	0x3f00a1b4	0.5024674
203	0xbf4db97c	-0.8036115
204	0x3ccea6c4	0.025226004
205	0xbd894b92	-0.06703867
206	0xbf535d0a	-0.8256384
207	0x3d4abe3e	0.049497835
208	0xbf1e5b7f	-0.6185836
209	0xbf132dc2	-0.57491696
210	0x3e31b122	0.17352727
211	0x3cbc7c7e	0.023008581
212	0xbe148e41	-0.1450739
213	0x3ea86f84	0.3289758
214	0xbed78338	-0.420923
215	0x3e2980ab	0.16552989
216	0xbf2663bc	-0.6499593
217	0x3f5a7382	0.853325
218	0xbf670f48	-0.9025769
219	0x3f083cfa	0.5321804
220	0x3e85be4e	0.26121753
221	0x3f56e871	0.8394843
222	0xbf0ebe22	-0.5575887
223	0x3d9be05e	0.07611154
224	0xbf750933	-0.9571716
225	0xbf0bd91c	-0.5462816
226	0xbf38310a	-0.7194983
227	0x3dadbbe6	0.084831044
228	0xbe028f32	-0.12749937
229	0xbf40aa86	-0.752602
230	0xbf0d66b3	-0.5523483
231	0x3ebc8ab0	0.3682456
232	0x3e777ec3	0.2416945
233	0x3f7f0b48	0.9962659
234	0x3e83c31c	0.25734794
235	0xbde3c5b4	-0.11121693
236	0xbf6f56a9	-0.9349161
237	0x3e3b40b8	0.18286407
238	0xbd9770a6	-0.07394533
239	0xbf47b297	-0.7800688
240	0x3eebde1c	0.46067894
241	0xbe67787a	-0.22604552
242	0xbe248506	-0.1606637
243	0x3f1dd683	0.61655444
244	0x3f46be73	0.7763435
245	0xbe949c9c	-0.29025733
246	0xbb9cf708	-0.0047901906
247	0x3e7b5d0c	0.24547213
248	0xbe3ea4ec	-0.186176
249	0xbd45e40c	-0.048313186
250	0x3e77b29f	0.24189232
251	0xbdf42a73	-0.11922159
252	0xbefb1006	-0.49035662
253	0xbf5ec0a4	-0.87012696
254	0xbef4392e	-0.47699875
255	0x3f3a4ec4	0.72776437

decoder_net.3.bias f4 [256]
0	0x3f024cdc	0.5089853
1	0x3ef9d566	0.48795623
2	0x3ef497e8	0.47772145
3	0x3eed3198	0.463269
4	0x3ef715a0	0.48258686
5	0x3f009252	0.5022327
6	0x3ef5dac4	0.48018467
7	0x3f01163f	0.5042457
8	0x3f01739e	0.5056704
9	0x3f02a346	0.51030385
10	0x3efdf12c	0.49598062
11	0x3ef93afd	0.48677817
12	0x3ef0d5e8	0.47038198
13	0x3ef116f2	0.47087818
14	0x3eeafc8a	0.45895797
15	0x3ee7a4e5	0.45242992
16	0x3efd782e	0.49505752
17	0x3ef5342c	0.47891366
18	0x3ef6da19	0.4821327
19	0x3ef35fd3	0.47534046
20	0x3ef6237c	0.48073947
21	0x3f0158cc	0.5052612
22	0x3edbd878	0.4293859
23	0x3eedf170	0.46473265
24	0x3eff4244	0.49855244
25	0x3efb0dc0	0.49033928
26	0x3ef12013	0.47094783
27	0x3ef677e2	0.48138338
28	0x3ef66bb8	0.48129058
29	0x3f015da0	0.50533485
30	0x3efe6fe0	0.4969473
31	0x3efdb9ce	0.4955582
32	0x3eebd584	0.46061337
33	0x3f08a2fa	0.5337368
34	0x3ef16243	0.4714528
35	0x3ef7f7c6	0.48431224
36	0x3f025957	0.5091757
37	0x3ef3b7b8	0.47601104
38	0x3f06d3cc	0.52666926
39	0x3ef72e52	0.48277527
40	0x3efed67a	0.49773008
41	0x3eeaa818	0.4583137
42	0x3ef0eaa8	0.4705403
43	0x3ed677e4	0.41888344
44	0x3efab2a2	0.4896441
45	0x3ef7c4c2	0.48392302
46	0x3ef61832	0.48065335
47	0x3f0318a8	0.512095
48	0x3efc9fce	0.4934067
49	0x3efb20fe	0.4904861
50	0x3ef2bb06	0.47408313
51	0x3eef7390	0.46767855
52	0x3efa518a	0.48890334
53	0x3f06b504	0.5261996
54	0x3f01cfe8	0.50707865
55	0x3ef02ba8	0.46908307
56	0x3f01f97b	0.507713
57	0x3efd0e0a	0.49424773
58	0x3ee53b16	0.44771641
59	0x3eef2074	0.46704447
60	0x3efde9ee	0.49592537
61	0x3eff1046	0.49817103
62	0x3eff2f68	0.49840856
63	0x3ecee970	0.40412474
64	0x3efed618	0.49772716
65	0x3efed190	0.49769258
66	0x3efadfc2	0.4899884
67	0x3ef0f436	0.47061318
68	0x3ed66e73	0.4188114
69	0x3efca896	0.4934737
70	0x3f04eb6a	0.51921713
71	0x3ef25a19	0.47334364
72	0x3ee184aa	0.44046527
73	0x3f02538a	0.5090872
74	0x3ef66b0b	0.48128542
75	0x3eedb186	0.46424502
76	0x3ef0881e	0.4697885
77	0x3efe2332	0.49636227
78	0x3ee53b1b	0.44771656
79	0x3f067a49	0.5253034
80	0x3ef9de90	0.48802614
81	0x3f073c90	0.52826786
82	0x3ef16692	0.47148567
83	0x3f005d56	0.5014242
84	0x3effbdd2	0.4994951
85	0x3efa3d00	0.48874664
86	0x3efa2674	0.48857462
87	0x3eef746e	0.46768516
88	0x3f068810	0.52551365
89	0x3f010d9c	0.5041139
90	0x3efd8366	0.49514312
91	0x3ef408a8	0.47662854
92	0x3f018f08	0.50608873
93	0x3efe8e46	0.4971792
94	0x3efdf6c0	0.49602318
95	0x3ef44952	0.4771219
96	0x3effccc2	0.49960905
97	0x3efa006e	0.48828453
98	0x3ef7a150	0.4836526
99	0x3ef4f7a2	0.4784518
100	0x3f05ca8e	0.522622
101	0x3f055e83	0.5209734
102	0x3eff6638	0.49882674
103	0x3ef52374	0.4787861
104	0x3f01e96a	0.50746787
105	0x3eff777c	0.49895847
106	0x3f0676ee	0.5252522
107	0x3ef56c30	0.47934103
108	0x3ee2a981	0.44269946
109	0x3eed68d4	0.4636904
110	0x3f051164	0.5197966
111	0x3ef4ed84	0.4783746
112	0x3ef1a890	0.47198915
113	0x3efcf572	0.4940601
114	0x3ef566a0	0.4792986
115	0x3efff376	0.49990433
116	0x3efd65da	0.4949177
117	0x3f029792	0.5101253
118	0x3ef24c18	0.4732368
119	0x3ef37126	0.47547263
120	0x3ef482f0	0.47756147
121	0x3f01a155	0.506368
122	0x3eff6776	0.49883622
123	0x3eda2a05	0.42610183
124	0x3eee9522	0.46598154
125	0x3efba47e	0.49148935
126	0x3ef56f74	0.47936594
127	0x3effe5ce	0.49980015
128	0x3ef2f1d4	0.47450125
129	0x3effda8a	0.4997142
130	0x3ef22542	0.4729405
131	0x3ef00403	0.4687806
132	0x3eff4dfe	0.4986419
133	0x3eeb7bac	0.45992792
134	0x3f04396a	0.51650107
135	0x3f01aee8	0.5065751
136	0x3eec5919	0.46161726
137	0x3f015716	0.5052351
138	0x3efd8164	0.4951278
139	0x3ef13e54	0.47117865
140	0x3ef9d29a	0.4879349
141	0x3ee709c0	0.45124626
142	0x3f025d04	0.5092318
143	0x3f003626	0.50082624
144	0x3efcab96	0.4934966
145	0x3ef25376	0.473293
146	0x3f065884	0.52478814
147	0x3eff3f42	0.4985295
148	0x3ef2458a	0.4731868
149	0x3efbaa04	0.4915315
150	0x3ef6e7da	0.48223764
151	0x3ee92b58	0.4554088
152	0x3ef72c8c	0.48276174
153	0x3ef3cfec	0.4761957
154	0x3f03dc0e	0.5150765
155	0x3f04ea48	0.51919985
156	0x3f044646	0.5166973
157	0x3f0249ec	0.50894046
158	0x3ef6cb8e	0.48202175
159	0x3eee5241	0.4654713
160	0x3f0251cc	0.5090606
161	0x3ef46a42	0.47737318
162	0x3ef10ea2	0.47081476
163	0x3ea993e1	0.33120635
164	0x3f012970	0.50453854
165	0x3eebfd52	0.46091706
166	0x3efcdf92	0.4938932
167	0x3efbf78e	0.49212307
168	0x3f063380	0.5242233
169	0x3ef5a534	0.47977602
170	0x3efbe224	0.4919597
171	0x3eefefb0	0.46862555
172	0x3efd65c1	0.49491695
173	0x3eff34c6	0.4984495
174	0x3eff8d53	0.4991251
175	0x3eeee372	0.46657902
176	0x3f007752	0.5018207
177	0x3f02afee	0.510497
178	0x3eefec10	0.4685979
179	0x3ee641c5	0.44972053
180	0x3ef7561c	0.48307884
181	0x3ef6f180	0.48231125
182	0x3ee5cafc	0.44881427
183	0x3ef596a4	0.47966492
184	0x3f01e8f6	0.50746095
185	0x3eeef0e9	0.46668175
186	0x3ef05872	0.46942478
187	0x3f00eb98	0.5035949
188	0x3f058069	0.52149063
189	0x3f0147fa	0.5050045
190	0x3efe78da	0.49701577
191	0x3f012912	0.50453293
192	0x3f06e9a2	0.52700245
193	0x3ef5abb8	0.47982574
194	0x3f08a266	0.533728
195	0x3eff56b8	0.4987085
196	0x3f018be5	0.5060409
197	0x3eee7f50	0.46581507
198	0x3efce490	0.4939313
199	0x3ef815ce	0.48454136
200	0x3f00e344	0.5034678
201	0x3f011278	0.50418806
202	0x3ef08f96	0.46984547
203	0x3f03d53a	0.5149723
204	0x3ec51484	0.38492215
205	0x3f020a18	0.5079665
206	0x3f033864	0.5125792
207	0x3ee863ba	0.45388585
208	0x3eec1429	0.4610913
209	0x3ef6da1b	0.48213276
210	0x3efd5ec2	0.49486357
211	0x3f005750	0.5013323
212	0x3ef348a2	0.47516352
213	0x3eff0e20	0.49815464
214	0x3ed9fdc4	0.4257642
215	0x3ef93450	0.48672724
216	0x3ef67b16	0.48140782
217	0x3effa5bc	0.49931133
218	0x3ef3cef7	0.4761884
219	0x3ef0f80a	0.4706424
220	0x3eec7e3a	0.46190053
221	0x3eb7f5d1	0.3592973
222	0x3ee90bf2	0.45516926
223	0x3f048dcc	0.51778865
224	0x3f03aa14	0.51431394
225	0x3efb862e	0.49125808
226	0x3eef8c90	0.46786928
227	0x3eeffa60	0.46870708
228	0x3efa1bc6	0.48849314
229	0x3f0000f9	0.50001484
230	0x3ef1173e	0.47088045
231	0x3ef20658	0.47270465
232	0x3efed38c	0.49770772
233	0x3eff9a7c	0.4992255
234	0x3efa170e	0.48845714
235	0x3ef557c3	0.4791852
236	0x3efb76e3	0.4911414
237	0x3f020b8e	0.5079888
238	0x3ef4e624	0.47831833
239	0x3eec917c	0.46204746
240	0x3f016f90	0.50560856
241	0x3efbb561	0.4916182
242	0x3f002d8e	0.5006951
243	0x3f095fa8	0.53661585
244	0x3eeeb612	0.46623284
245	0x3f01c769	0.506949
246	0x3ef4ab60	0.47787
247	0x3efe9a10	0.49726915
248	0x3f01bdb8	0.5068011
249	0x3eedb866	0.46429747
250	0x3eec1d18	0.46115947
251	0x3f01a940	0.5064888
252	0x3eeff1da	0.46864206
253	0x3f042eae	0.5163373
254	0x3efce5a1	0.49393943
255	0x3efee728	0.49785733

decoder_net.4.weight f4 [256]
0	0x3f4f1e8d	0.8090599
1	0x3f52be22	0.8232137
2	0x3f7a4c2e	0.9777249
3	0x3f74f976	0.9569315
4	0x3f66693c	0.90004325
5	0x3f6a8048	0.9160199
6	0x3f7a58d8	0.97791815
7	0x3f6fdc9e	0.9369601
8	0x3f6e3e24	0.9306357
9	0x3f681b5e	0.9066676
10	0x3f877b66	1.0584533
11	0x3f8fe442	1.1241534
12	0x3f777370	0.9666052
13	0x3f781478	0.9690623
14	0x3f7a4c2e	0.9777249
15	0x3f7a4c2e	0.9777249
16	0x3f636f1a	0.888414
17	0x3f7a4c2e	0.9777249
18	0x3f810562	1.0079768
19	0x3f755b6e	0.95842636
20	0x3f7a4c2e	0.9777249
21	0x3f8404d2	1.0313971
22	0x3f7a4c2e	0.9777249
23	0x3f676cf2	0.9040061
24	0x3f815010	1.0102558
25	0x3f7a4c2e	0.9777249
26	0x3f73a5d0	0.95174885
27	0x3f66ec0a	0.9020392
28	0x3f71a116	0.9438642
29	0x3f6280e8	0.88477945
30	0x3f625f98	0.88427114
31	0x3f6aac54	0.916692
32	0x3f7370f4	0.9509423
33	0x3f924606	1.142762
34	0x3f7a4c2e	0.9777249
35	0x3f708e2e	0.9396695
36	0x3f6a402a	0.91504157
37	0x3f715c46	0.94281423
38	0x3f5a12ce	0.85184944
39	0x3f679230	0.9045744
40	0x3f723a94	0.94620633
41	0x3f78b680	0.9715347
42	0x3f76becc	0.9638488
43	0x3f7ae7ce	0.98009956
44	0x3f6ce254	0.9253285
45	0x3f80d610	1.0065327
46	0x3f7a4c2e	0.9777249
47	0x3f4895de	0.7835368
48	0x3f748858	0.95520544
49	0x3f58533a	0.84501994
50	0x3f907602	1.1286013
51	0x3f7a4c2e	0.9777249
52	0x3f730584	0.9493029
53	0x3f60d12e	0.8781918
54	0x3f6567b6	0.89611375
55	0x3f88603e	1.0654371
56	0x3f624021	0.883791
57	0x3f770d6e	0.9650487
58	0x3f7a4c2e	0.9777249
59	0x3f747ecb	0.9550597
60	0x3f9d303e	1.2280347
61	0x3f721430	0.94562054
62	0x3f468b94	0.7755673
63	0x3f79f34a	0.97636855
64	0x3f6fffd0	0.93749714
65	0x3f7bbb2a	0.98332465
66	0x3f6544c4	0.89558053
67	0x3f775460	0.9661312
68	0x3f7a4c2e	0.9777249
69	0x3f787a10	0.9706125
70	0x3f8620f4	1.0478806
71	0x3f7a4c2e	0.9777249
72	0x3f7a4c2e	0.9777249
73	0x3f8001c4	1.0000539
74	0x3f782e8a	0.9694601
75	0x3f5efe72	0.87107
76	0x3f8a87f0	1.0822735
77	0x3f7617bd	0.9612997
78	0x3f7a4c2e	0.9777249
79	0x3f967faa	1.175771
80	0x3f764e68	0.9621339
81	0x3f91e42a	1.1397755
82	0x3f7a4c2e	0.9777249
83	0x3f6cda0e	0.92520225
84	0x3f6c3b98	0.9227843
85	0x3f89a718	1.0754118
86	0x3f737b64	0.95110154
87	0x3f7a4c2e	0.9777249
88	0x3f57caf8	0.8429408
89	0x3f590eca	0.8478819
90	0x3f76e0d0	0.96436787
91	0x3f726de6	0.9469894
92	0x3f60b1e8	0.87771463
93	0x3f7cde88	0.98777056
94	0x3f70315a	0.93825305
95	0x3f846d4c	1.0345855
96	0x3f4971b3	0.78689116
97	0x3f61f4d5	0.8826421
98	0x3f98b0b2	1.1928923
99	0x3f6225e8	0.8833909
100	0x3f80a0a2	1.0049021
101	0x3f52f0e3	0.82398814
102	0x3f65563e	0.8958472
103	0x3f7a4c2e	0.9777249
104	0x3fc0396c	1.5017524
105	0x3f68fe98	0.9101348
106	0x3f6e810a	0.9316565
107	0x3f7780c2	0.96680844
108	0x3f7a4c2e	0.9777249
109	0x3f76e120	0.96437263
110	0x3f7fee8c	0.9997337
111	0x3f817334	1.0113282
112	0x3f77e3ae	0.96831787
113	0x3f7371fe	0.95095813
114	0x3f66515a	0.8996788
115	0x3f7074fd	0.9392851
116	0x3f680c02	0.9064332
117	0x3f733302	0.94999707
118	0x3f6e7572	0.9314796
119	0x3f7a4c2e	0.9777249
120	0x3f7a4c2e	0.9777249
121	0x3f8412be	1.031822
122	0x3f839fca	1.0283139
123	0x3f7a4c2e	0.9777249
124	0x3f7a4c2e	0.9777249
125	0x3f731356	0.9495138
126	0x3f68d728	0.909533
127	0x3f79848e	0.9746789
128	0x3f759d7f	0.95943445
129	0x3f72f478	0.9490428
130	0x3f853669	1.040723
131	0x3f85e30c	1.0459914
132	0x3f82eef8	1.0229177
133	0x3f7a4c2e	0.9777249
134	0x3f560f26	0.83616865
135	0x3f47df2b	0.780749
136	0x3f7a4c2e	0.9777249
137	0x3f5c77f8	0.8612056
138	0x3f75823e	0.9590186
139	0x3f77dde2	0.9682294
140	0x3f7a2e00	0.9772644
141	0x3f73391c	0.95009017
142	0x3f60214c	0.87550807
143	0x3f6da190	0.9282465
144	0x3f6c78da	0.92371905
145	0x3f6d9e5c	0.9281976
146	0x3f85ab20	1.0442848
147	0x3f9bd540	1.2174454
148	0x3f754a86	0.9581684
149	0x3f62e278	0.88626814
150	0x3f89c4f4	1.076323
151	0x3f7a4c2e	0.9777249
152	0x3f7a4c2e	0.9777249
153	0x3f75f172	0.9607154
154	0x3f5261b6	0.82180345
155	0x3f92476e	1.1428049
156	0x3f95c88e	1.170183
157	0x3f6a7854	0.91589856
158	0x3f7a4c2e	0.9777249
159	0x3f746597	0.95467514
160	0x3f47bfa2	0.78026783
161	0x3f88d4c6	1.0689933
162	0x3fa4b2b6	1.2867038
163	0x3f7a4c2e	0.9777249
164	0x3f5553d4	0.83331037
165	0x3f762578	0.9615092
166	0x3f5ff8f0	0.87489223
167	0x3f772986	0.96547735
168	0x3f64c5fe	0.8936461
169	0x3f7a4c2e	0.9777249
170	0x3f886912	1.0657065
171	0x3f7a4c2e	0.9777249
172	0x3f76a925	0.96351844
173	0x3f6b099f	0.91811556
174	0x3f7c9e4c	0.9867904
175	0x3f7a4c2e	0.9777249
176	0x3f57153c	0.84016776
177	0x3f929bda	1.1453812
178	0x3f758548	0.95906496
179	0x3f7a4c2e	0.9777249
180	0x3f7840f8	0.96974134
181	0x3f71b4b2	0.94416344
182	0x3f7a4c2e	0.9777249
183	0x3f7a4c2e	0.9777249
184	0x3f678018	0.9042983
185	0x3f77a084	0.967293
186	0x3f7a4c2e	0.9777249
187	0x3f6fc71c	0.9366319
188	0x3f87fc66	1.0623901
189	0x3f771590	0.96517277
190	0x3f94c206	1.1621711
191	0x3f77ed54	0.9684651
192	0x3f861eca	1.0478146
193	0x3f76efd0	0.96459675
194	0x3f8c67e2	1.0969203
195	0x3f6aee00	0.9176941
196	0x3f6a2491	0.91462046
197	0x3f7a4c2e	0.9777249
198	0x3f6c1798	0.922235
199	0x3f6b834e	0.9199723
200	0x3f86d6e4	1.053433
201	0x3f8799bc	1.0593791
202	0x3f7cdab2	0.987712
203	0x3f447d30	0.7675352
204	0x3f7a4c2e	0.9777249
205	0x3f82ecde	1.0228536
206	0x3f936884	1.1516271
207	0x3f6f9fe8	0.9360337
208	0x3f7a4c2e	0.9777249
209	0x3f73e288	0.95267534
210	0x3f71e4af	0.9448957
211	0x3f7e39b8	0.9930682
212	0x3f7956f0	0.9739828
213	0x3f8c2a72	1.0950453
214	0x3f7a4c2e	0.9777249
215	0x3f707520	0.9392872
216	0x3f7a4c2e	0.9777249
217	0x3f707bc8	0.93938875
218	0x3f7a4c2e	0.9777249
219	0x3f77cb36	0.9679445
220	0x3f7a4c2e	0.9777249
221	0x3f7a4c2e	0.9777249
222	0x3f738c16	0.9513563
223	0x3f4efc8e	0.8085412
224	0x3f62e034	0.88623357
225	0x3f739468	0.95148325
226	0x3f90c1ec	1.130918
227	0x3f64fb92	0.89446366
228	0x3f707f0c	0.9394386
229	0x3f7be56d	0.9839695
230	0x3f965994	1.1746087
231	0x3f766f3e	0.9626349
232	0x3f7764d8	0.9663825
233	0x3f75b0a5	0.95972663
234	0x3f5a6d83	0.8532335
235	0x3f7a4c2e	0.9777249
236	0x3f607eea	0.87693655
237	0x3f88df8c	1.0693221
238	0x3f7662a8	0.9624429
239	0x3f73ee80	0.952858
240	0x3f6bacbd	0.9206045
241	0x3f65574c	0.8958633
242	0x3f5d8e06	0.86544836
243	0x3f5acc02	0.8546754
244	0x3f8e5abd	1.1121441
245	0x3f6e6ef5	0.93138057
246	0x3f7a4c2e	0.9777249
247	0x3fa3b059	1.2788192
248	0x3f7308e2	0.9493543
249	0x3f7a4c2e	0.9777249
250	0x3f75abf2	0.9596549
251	0x3fa14fd0	1.2602482
252	0x3f6dcfd2	0.92895234
253	0x3f54ee02	0.8317567
254	0x3f6b73f9	0.91973835
255	0x3f5beed8	0.8591132
